Trained_models/4/predictor4_100_9.pth (torch, 101719 bytes, 16 tensors)

encoder1.weight f8 [54, 100]
0	0xbfa952db2f9c4bde	-0.049460267602760885
1	0x3fab4378b91e1963	0.05324914226280233
2	0xbf63cd72307af79e	-0.002417300249219558
3	0xbf7b827be0ae7fea	-0.006716236016387692
4	0x3f937301b5f2bd51	0.01899340317748727
5	0xbf86dfd074ef8b25	-0.011169079369158627
6	0x3f79aea227c8ce84	0.006270059032022272
7	0x3f948ff724a7522f	0.020080434429319446
8	0xbfa72268103b685a	-0.04518437574525143
9	0x3fb35d913c694087	0.07564647412186974
10	0xbfb83fa989a4fdfe	-0.09472140894376221
11	0x3fb8a56060c1e7f8	0.09627344476930932
12	0xbfb87fb202f45e12	-0.09569847652561972
13	0x3fb453ad89cdabb0	0.0794018231805882
14	0xbfafdb6bb636a512	-0.06222092246327739
15	0x3f91a91864727b7a	0.017246609812555637
16	0x3f9da3bed3b4053c	0.02894495169767207
17	0xbfb2f7fa716e4c4a	-0.07409634846980953
18	0x3fb7d9bace3a67ff	0.09316604170672348
19	0xbfbb484c7bd1bf0b	-0.10657194159443521
20	0x3fb8a6ce04f2485a	0.09629523869287607
21	0xbfb8ed808de86c83	-0.09737399544285279
22	0x3fb403da2db841a8	0.07818378082470778
23	0xbfa74fa8d26f39ee	-0.045529628455927326
24	0x3f9706a973db8098	0.022486350723625564
25	0x3f956ffcd0621e74	0.020935011118608363
26	0xbfa7d5cf77aa9087	-0.04655311904687758
27	0x3fb367690cb466cf	0.07579666671918094
28	0xbfb59c00b34a6c52	-0.08441166283812265
29	0x3fafa6c5bf378023	0.061819247810263066
30	0xbfa287f2a02193af	-0.036193449065457066
31	0xbf38f62b2bae93d8	-0.0003808837315609193
32	0x3f80ad9d3c876f47	0.008143642816257247
33	0x3f820c214aa4d785	0.008812198725177254
34	0xbfa44f78e03c26eb	-0.039668824551041336
35	0x3fb4d4157ffff8eb	0.08136114478108751
36	0xbfc07fb3b93acc98	-0.12889715713899785
37	0x3fc6acbd2d68adbd	0.1771465751383924
38	0xbfca66ff0fdb7db7	-0.2062681987217567
39	0x3fcd4f6699c76a63	0.22898561962832095
40	0xbfcd0f6908e59a70	-0.22703278479021405
41	0x3fcb1aca690c9001	0.2117550862250255
42	0xbfc665962c9de28c	-0.1749751775603453
43	0x3fbddbbb582bfd3c	0.11663409140236508
44	0xbfaa4169817449fa	-0.051280304958840575
45	0x3f7c16c0f7d3a1f7	0.006857637197051228
46	0x3f9b2d41fe42ea64	0.02653983225239144
47	0xbfa1c3a307c96669	-0.03469571561863633
48	0x3fa4e5ebbe30f1ae	0.04081665703458569
49	0xbf963648b50d5025	-0.021691452074563373
50	0xbf70482650afb481	-0.003975057285953488
51	0x3f995844cb3246e7	0.024750780965923005
52	0xbf9664e938de385c	-0.02186932000727669
53	0x3f8ac6c3e7b8e132	0.013074427136516496
54	0x3f8b1be8d188696c	0.013236826795993216
55	0xbfaa1dc8d38531a6	-0.051008487530086286
56	0x3fbb092eba8b1047	0.10560886434819948
57	0xbfc1d19c806d330a	-0.1392093302805722
58	0x3fc5cd513f43af69	0.17032828892785837
59	0xbfc646434c444a84	-0.17401925300562848
60	0x3fc6565ec30a87e5	0.17451080821507428
61	0xbfc537692154afc4	-0.1657534992931443
62	0x3fc3bedf12ac6f81	0.15426243221088146
63	0xbfbe50cd55c0e618	-0.1184204420432241
64	0x3fba7dc8dcf6842c	0.10348182100871445
65	0xbfb3d07f5c4845be	-0.07740016940103708
66	0x3faddfda525b670a	0.0583484864743707
67	0xbf9b65b7ca97140a	-0.026755210628625327
68	0x3f8270d3665e7454	0.00900426059870988
69	0x3f8d146d6a374551	0.014199118427230902
70	0xbfa4556950f7a5fa	-0.03971413720485013
71	0x3fb075c8fb7c46e2	0.0642972578027883
72	0xbfb2cc9675319e21	-0.07343426095177864
73	0x3fb32dd4f32a0bdb	0.07491808830859219
74	0xbfa544a536ce7846	-0.04153934759163795
75	0x3f925c477134bd30	0.01793014172033941
76	0xbf88696843e071dc	-0.011919798442300449
77	0xbf7d3432896f6fb8	-0.00712985745391486
78	0x3f8d9bba4add4dff	0.014457183274919847
79	0xbf8734ca729d8ab6	-0.011331159231933934
80	0xbf7e30175bf368ad	-0.007370082136924844
81	0x3f9c4546caacf57e	0.027608018989885512
82	0xbfa51e93f97b3516	-0.04124891682077185
83	0x3f95be4e39b7f1c0	0.021233770630702642
84	0xbf98b04840b0a4ef	-0.024109963367810513
85	0x3f9c8634ac68afd3	0.027855704329496533
86	0x3f7be92e7fbce530	0.006814176212907072
87	0xbfb272eae85f05e8	-0.07206600354313475
88	0x3fbfd033dd99a059	0.12427066955717815
89	0xbfc1163d4ee088b8	-0.13349119521541808
90	0x3fc08fa50e63a3bd	0.12938368990515228
91	0xbfc289c14bcc01bb	-0.14482895089169098
92	0x3fc0053732f0972d	0.12515916812224628
93	0xbfa96e9190bfee5d	-0.04967169658627022
94	0xbfa18aee28cac9f2	-0.034263079146871336
95	0x3fb40dff9cfe3d77	0.07833859999504066
96	0xbfb40c8520d73595	-0.07831604053281745
97	0x3fb4f9ed6efbbaf6	0.08193859061769246
98	0xbfb4c3cd222f9a21	-0.08111269077890217
99	0xbf93e304e89d6a20	-0.019420696923910907
100	0x3f89b76189c49c43	0.012556802765699376
101	0x3fc56976a4274806	0.16728098883919545
102	0x3fbcb9f2cb110ab2	0.11221234758071821
103	0xbfd9adba8c30334b	-0.40122855844747524
104	0x3f8eb3c01238b927	0.014991283947065682
105	0x3fd1650f173a2cbd	0.2717931486919943
106	0xbfc5e9c841b902e2	-0.17119696816555235
107	0xbfccc8fdb021246a	-0.2248837575919283
108	0x3fbb258f1a37f4e0	0.1060418547640043
109	0x3fd061c5319098f0	0.2559674247771815
110	0xbfd5ce61d224a3af	-0.34072156450070684
111	0xbfb3c168c6c0dd4a	-0.07716994144799574
112	0x3fd38aa121ae0954	0.3053362683205212
113	0xbfab7326aad09df0	-0.053612907744817195
114	0xbfc3c96bf061cbc8	-0.1545844005337058
115	0xbfc0e88a6ca91724	-0.13209657960595067
116	0x3fd525ccbd7f6af9	0.3304321146548968
117	0xbfbb03f5d02d317a	-0.10552917797503439
118	0xbfcf93878838f7c8	-0.24668974067202343
119	0x3fceb60b51562359	0.23993054839618358
120	0xbf8142c23e749715	-0.008428113490093684
121	0x3f6e0df62635835b	0.0036687667467706748
122	0xbfcd47d7cae35a87	-0.22875497252126228
123	0x3fc26d8e85bdb77a	0.1439684060127851
124	0x3fba78f2261220b0	0.10340798787558714
125	0xbfcfac2d4bcba07c	-0.2474419231505215
126	0x3fc700561f55be28	0.17969776659036651
127	0xbfbe833cb3af8e63	-0.11919001948222667
128	0x3fc21e5dc7df3b0c	0.1415517068803286
129	0xbfa20076b0c68d62	-0.03515978725342951
130	0xbfc5f8d52ff12ca3	-0.17165627327844843
131	0x3fc5cde06ac34f47	0.17034535611184706
132	0xbfc73a9939a7fb34	-0.18147578540080078
133	0x3fcfe07243d0fd16	0.24903705893846312
134	0xbfc3a8a3c5812e41	-0.15358397620944866
135	0xbfc47c51256e75e9	-0.16004385307034788
136	0x3fd411c86fe97e76	0.3135853855983223
137	0xbfc24cc13d479690	-0.14296737186593989
138	0x3f88ed10188cd661	0.012170911549769405
139	0xbfc70a3b00c1d7d6	-0.17999970948193206
140	0x3fc11ab9a99ed172	0.13362808973546297
141	0x3fc38880ce30b76f	0.15260324542890255
142	0xbfd3c41a0e2ed796	-0.30884410271698337
143	0x3fc2521389468cd0	0.14312977030667762
144	0x3fad8030178c4680	0.057618620752816874
145	0x3faa362ed9f45488	0.05119463358475068
146	0xbfbcfda061fa6c0c	-0.11324503318830653
147	0xbfb34921ac9dc566	-0.07533464874520276
148	0x3fd0cbadbe8ded50	0.2624315606005512
149	0xbfb3b7a0dd0ad1b8	-0.07702069660701383
150	0xbfaba6d6d67efd18	-0.05400725715980509
151	0xbfb91c035dc1ff6d	-0.09808369673737412
152	0x3fc224d0af107009	0.14174850986535173
153	0x3fbe95b20c293ff4	0.11947167202856673
154	0xbfd21f5b2e3fb531	-0.2831638290070542
155	0x3fba1687518d9bb4	0.10190625897449374
156	0x3fb898e54864d189	0.0960830022566538
157	0x3fa548d96d2c3c0b	0.04157142121959375
158	0xbfc070e700fd884b	-0.12844550655705897
159	0xbfb40bb0a73b7155	-0.07830337603394828
160	0x3fcec15c4a1b2fc8	0.24027589434115115
161	0xbfb67d9ea09811a7	-0.0878543035578959
162	0xbfb82abcf5af39a2	-0.0944021320167168
163	0xbf81569534d7dd76	-0.008465924906871019
164	0x3fc4077b98eeddef	0.15647835700450183
165	0xbf98a0346f0c66a8	-0.024048632886752103
166	0xbfcdb2545e73cfd4	-0.23200468646939376
167	0x3fc0105d6ce3e3cb	0.1254994184198764
168	0x3f93f5812f21794b	0.019491213323243255
169	0x3faf57286d4d25dd	0.06121183714146714
170	0xbfc3837b45bec771	-0.15244999795464367
171	0x3f777ffb29ccd570	0.005737286669320482
172	0x3fd0873b88be0dbc	0.2582539401411983
173	0xbfc59243d859831f	-0.1685261541743097
174	0x3f90b2b0f311a36a	0.016306652866123462
175	0x3f39a5c77718583d	0.00039135093456488576
176	0x3fa9daf493fd505a	0.05049862200272122
177	0x3fc24a95c30ecacc	0.1429011537962509
178	0xbfc7820e1d5c2163	-0.1836564677580653
179	0x3f87a73d1a877431	0.011549451229195014
180	0x3faea46f16ee0408	0.059848281430284145
181	0x3fbd0761e72288a6	0.11339389698926769
182	0xbfac7f983b547de3	-0.055660969965398065
183	0xbfbfa54d33c664e5	-0.12361605180776143
184	0x3fd0ac551afe9f56	0.2605183375949215
185	0x3fb071e0090c3301	0.06423759671106312
186	0xbfc90a7553b80697	-0.19563166225275516
187	0xbf80eb8eadd3c2dd	-0.00826178997019283
188	0x3fc025c449240b60	0.12615254947021537
189	0x3fb1d8fe41eba97a	0.06971730336559814
190	0xbfc45cfe13fd3720	-0.15908790565520636
191	0xbfba1a66cdd0f74f	-0.10196535610972755
192	0x3fceac70f5643d33	0.23963748914727886
193	0xbf830a352537b091	-0.009296813200272676
194	0xbfcc9a277a587264	-0.2234544131651034
195	0x3fb0bb94c08d2d08	0.06536225987399658
196	0x3fc0c9de8243f41e	0.13116055832497947
197	0xbf8eefc1c0318124	-0.015105737378860846
198	0xbfc198d6f42e0c6e	-0.1374767963680798
199	0xbfa666fd4ebf31ab	-0.04375449739709166
200	0x3fbf3d0028cf755a	0.12202454563472057
201	0xbfc265c2c645ce2d	-0.14373049432070797
202	0x3fbf7732865c3749	0.12291255741385244
203	0xbfb43e77655feb83	-0.07907816147773698
204	0x3fae17904ffe877f	0.05877352692119952
205	0x3fa292a0a76650ad	0.036274929461030815
206	0xbf8005f89ccdffae	-0.007823889050768997
207	0xbf9696bb0f085ae9	-0.022059366982001647
208	0x3fc314268a07df3b	0.14905244579107965
209	0xbfc7b303f23837d9	-0.1851506169045354
210	0x3fc61b83e5bc48dd	0.17271469800522868
211	0xbfb28284fd25b686	-0.07230406933168795
212	0xbfae97a644062b46	-0.059750743678782345
213	0x3fc0a17132895623	0.1299268242607222
214	0xbfc2cc27cefedc85	-0.14685533148960786
215	0x3f754e20aad463d9	0.0052014614168678025
216	0x3fba77a7b33d3b9b	0.10338829160649114
217	0xbfc7f18615d3b16c	-0.18705822053687926
218	0x3fc35471699f2eab	0.15101449639620532
219	0xbf91e52a2916298a	-0.01747575641415148
220	0xbfbb4c9bf213097b	-0.10663771305102003
221	0x3fd04bb0dc9eb9a0	0.25461980385707683
222	0xbfcbb6a88b9ecfab	-0.21651179139518936
223	0x3f872c03b69dc028	0.011314419756416852
224	0x3fbea44cdb0674a8	0.1196945223550353
225	0xbfc4c5c80bcb9a41	-0.1622858102411602
226	0x3f9dffe85ce78041	0.029296522779873383
227	0x3fb282fd3428fb28	0.07231123469771872
228	0xbfc116b70751a919	-0.13350570542690646
229	0x3fc236cf46ed25b6	0.14229765856934556
230	0xbfbc6e2598fb00c1	-0.11105570778727537
231	0x3f9255fceea7fdf7	0.017906143251819242
232	0x3fc0b3ed1f02eaa5	0.13049091352680367
233	0xbfb64aa0681ba433	-0.08707621137331571
234	0xbeed020c2d72b664	-1.3832091481393023e-05
235	0x3fb34a63c0fdb94d	0.07535384618470183
236	0xbfaa3ce2608a0ea9	-0.05124576023538669
237	0xbfb815fb8e5c1c9b	-0.09408542848187766
238	0x3fc713cc6e8ac6d8	0.18029170415461837
239	0xbfc37a7b1bcbafea	-0.1521753202172243
240	0x3fae0de94e6323b2	0.05869988519550108
241	0xbf728863afaf3570	-0.0045246023173154265
242	0x3faf7cdd582a0714	0.06149951649878296
243	0xbfc1c4b7cf045b35	-0.1388158570122983
244	0x3fcb0b3f51ec8df6	0.21128074169347116
245	0xbfcc540f8ef9f8cc	-0.22131533128044223
246	0x3fc7392f564a09a7	0.1814326449712784
247	0xbfbc49172d707b88	-0.11049027308807358
248	0x3fb7a011f6c1953f	0.09228622698136223
249	0xbfbb1c9df6110efd	-0.10590541131483273
250	0x3fbd418f4c05052e	0.11428161245296017
251	0xbfc0c5db952dcada	-0.1310381391918643
252	0x3fb72b12a0e209f4	0.0905009882717776
253	0xbfb4533655f2a451	-0.07939471815429157
254	0x3fb673ab12d0eb09	0.08770245751740559
255	0x3f87d5b3819a1791	0.01163807143462828

encoder1.bias f8 [54]
0	0x3fb7e0e3fb0c0417	0.09327530745578404
1	0xbfc723d07fa488d2	-0.18078047020487148
2	0xbfcc6b210f21e801	-0.22201932181252462
3	0x3fd55b88d80812f3	0.33371182534055704
4	0xbfb36a3f653f826b	-0.07583996030690236
5	0xbfaa3546327e42bf	-0.05118769995090621
6	0xbfb29bc3c961c550	-0.07268928209830006
7	0xbfa459a080948133	-0.03974629945355659
8	0xbfbaf7067ca6da7d	-0.10533180754905831
9	0xbfa130529e88ec6b	-0.03357179818382224
10	0xbfc2efa67de5818a	-0.14793854853907035
11	0xbff0e603f0bf246f	-1.0561561016241077
12	0xbfce2c0fd6f3176c	-0.2357196616705396
13	0xbfb7cb66c301154d	-0.09294740925641527
14	0xbfc0581e6e408195	-0.12768917449376418
15	0xbfb29292246b8c1a	-0.07254899396097905
16	0xbfb7f638aff9ad01	-0.09360079094192388
17	0xbfa9a47f0f5f8170	-0.05008313238772899
18	0xbfb95d92ff01f7ee	-0.09908407903455416
19	0xbfa3446eb35549b4	-0.0376314729607147
20	0xbfb04aeeba112076	-0.063643379618158
21	0xbfbd63135f0c2b4a	-0.11479302473541711
22	0xbfb5883befcd1956	-0.084110017819602
23	0x3f87b7bc9378f61a	0.011580918550971698
24	0xbfba436afc87f21e	-0.10259121575649785
25	0xbfb65476d3438fae	-0.0872263208180459
26	0x3fa4d79180db06e1	0.04070715616172805
27	0xbfad2f1b9cbe53fc	-0.057000029453014606
28	0x3f6a9441e97c0d43	0.003244522795172651
29	0xbfaeb30e7c8d5a7b	-0.059959843353387186
30	0x3fcfedfbb6e8d268	0.2494501727211571
31	0xbfbba32032830083	-0.10795785172649812
32	0xbfc6993012fdf7a8	-0.17654992034289063
33	0xbfa8ff838c2ccc0c	-0.04882441602821794
34	0xbfc114f6f573cdd2	-0.1334522913453911
35	0xbfe8742455f7a0eb	-0.7641774825142681
36	0x3fa584fc87d4fa2e	0.04203023107628599
37	0xbfb5ef2e201d07fa	-0.08568084987658145
38	0xbfa8f5c723839138	-0.04875013645667753
39	0x3fd8f5e70a369d37	0.3900086974849332
40	0x3fd95030eb0f533b	0.39551947550835437
41	0xbfae8c68b3597044	-0.059664985554917865
42	0xbf9c8f4bfdfe7af9	-0.02789038408047426
43	0xbfb768f6ec71c19b	-0.09144538185660737
44	0xbfd00434db5a06d3	-0.2502567426782722
45	0xbfd88ab98a694d7e	-0.3834670879052381
46	0xbfbad221a26af9f6	-0.10476885047226134
47	0xbfc25d83df4714e6	-0.14347885515431996
48	0x3fd52b20e1fab11b	0.33075735157287206
49	0x3fe82e814fa96e53	0.7556768947501474
50	0xbfb528e96450a781	-0.0826555128011517
51	0xbfb36c94937358d1	-0.0758755550371888
52	0xbfc4d4c6d98d5901	-0.16274343130744032
53	0x3f95f9d4348656c6	0.02146083422265723

encoder2.weight f8 [9, 54]
0	0x3fdd63fe0a55450a	0.45922804841127685
1	0xbf9d881b655f8b2e	-0.0288395195601751
2	0x3fc27f4b46e4037b	0.14450970612963573
3	0x3fe311f9b4768db7	0.5959442639036102
4	0x3fd2931734c40a23	0.2902277007380311
5	0x3fc70e1551d78787	0.18011728759944054
6	0x3fd8759fcb040818	0.38217921090847673
7	0x3fd0045c889f4ec3	0.2502662023737054
8	0x3fb4e86b7f631019	0.08167144641907988
9	0x3fc80c686432b9c5	0.18787865536201145
10	0xbf945d1e2f46e098	-0.01988646663241464
11	0x3fd86f92d4844c7f	0.3818099093779849
12	0x3fe11a09ba37455a	0.5344284665135703
13	0x3fc6eaa3018fd91d	0.17903554512276623
14	0x3fc7180ea7bdcf95	0.18042166891575265
15	0x3fc69da1b6e5d11b	0.17668553762963132
16	0x3fd395cc1df104e4	0.3060179035565638
17	0x3fa5a5ea825e9fa3	0.04228146401811663
18	0x3fc38af2ff0fd9bb	0.15267789320178146
19	0x3fb814dee3dda392	0.0940684610665257
20	0x3fac81a051976e87	0.055676469764617535
21	0x3fd13d8be46c571a	0.26938149744943163
22	0xbfa75dc89959c12b	-0.04563738700824368
23	0x3f877213ed9e0fe3	0.01144805497074936
24	0x3fc66fb12f4fe889	0.17528357324755842
25	0x3fc9d7826b74203f	0.20188932654150624
26	0xbfd68484bdc11660	-0.3518382885998559
27	0x3fba1775a160673d	0.10192046346528812
28	0x3fc8ade0383e82c4	0.19280627008722295
29	0x3fca2ae0b2503596	0.20443352419571842
30	0x3fc2c09838349606	0.14650252098469724
31	0x3fb2d9982c72de99	0.0736327274815899
32	0x3fc00069fc641dd0	0.125012634504158
33	0x3fc633263159533c	0.17343594941726248
34	0x3fd5bb10e5dcf814	0.33954260299276595
35	0x3fc643b77c500558	0.17394155092191954
36	0x3fa9affb94836db4	0.05017076671512247
37	0x3fc27bf5da095bad	0.14440796991649787
38	0x3fd630c0d4df5f14	0.34672566212019373
39	0x3faf2723e5def0b7	0.060845491228492525
40	0x3fd1a0d550116c6a	0.2754414827265409
41	0x3fc627e7958eacca	0.17309279253581727
42	0x3fcfdf05c0eefcf7	0.24899360581000682
43	0x3fc65dfbc05b6578	0.17474314587051842
44	0xbfca2d78dd18464c	-0.20451269908567082
45	0x3f975d0376e8f113	0.022815755970655504
46	0x3fd00d270eb39e28	0.25080276904779675
47	0x3fc925ba043b3a46	0.19646382528886103
48	0xbfcb88b62b5867cc	-0.21510960689994219
49	0x3fd4a27a7ee01875	0.3224169005410496
50	0x3fd070ab47dab9b1	0.2568767739966474
51	0x3fc79e5784ed0340	0.18451971045035442
52	0x3fc173e7a3509fed	0.13634963487970655
53	0x3f5a19a7cbb449aa	0.0015930307989192407
54	0x3fbb2aeb445b556b	0.10612364214769847
55	0xbf8dfcecdcfa0a0d	-0.014642572873758497
56	0x3fbad9cbdb1004c0	0.10488580797393166
57	0xbfc7cf91dd5b90a8	-0.18602202709656024
58	0x3fd73c60add45892	0.3630601594499093
59	0x3fd415379786761e	0.31379499242197706
60	0x3fc238f5dce29f5a	0.14236329350864702
61	0x3fc2e3952f8e4daf	0.14757027456344704
62	0x3fc344f08d999c9d	0.15054137147965188
63	0x3fce02643b09bdc5	0.23444798357694033
64	0x3fdf620a39b867ae	0.49035888325453925
65	0x3fb52d00332f5c62	0.08271790742524979
66	0x3fe1e6e128c5d454	0.5594335361808
67	0x3fc7979a45fb3721	0.1843140451150527
68	0x3fced963c723956a	0.24100920890411298
69	0x3fc0c716acac238f	0.13107570105810537
70	0x3fd394c6c4ce3a5a	0.3059555932931396
71	0x3fc112220dbd7796	0.13336587592033017
72	0x3fbba5cc82c9c75f	0.1079986399943471
73	0x3fbf746807d491bc	0.12286997023745178
74	0x3fbc608a1557ced8	0.11084807416028342
75	0x3fda2302b75090d1	0.4083868780310356
76	0xbfd7e9260c2e1ee9	-0.37360526265591304
77	0x3fb6fc52da48ddca	0.08978765324797347
78	0x3fc3895c73aaf889	0.15262942931980586
79	0x3fc74e16f104576d	0.1820706059303875
80	0x3fc8378e67edc34c	0.18919544291159196
81	0x3fbcc060f83d3672	0.11231046734357067
82	0x3f8f21362ec39928	0.015200064947248196
83	0x3fb6633062c00633	0.0874510041321848
84	0x3fb3c14efeadc2da	0.0771684047483733
85	0x3fbeca2216f6c1b8	0.12027180729524545
86	0x3fbdce56bedda902	0.11642973098574674
87	0x3fc1bb2f20ac0831	0.13852490516006946
88	0x3fc3717ee0696028	0.15190111119841387
89	0x3fb6ee89ef7d600c	0.08957731339376113
90	0xbf8d9718fbc7f2a1	-0.014448352035281888
91	0x3fc16b9201ddb014	0.13609528628455847
92	0x3fb6682721a4ee0c	0.08752674647706032
93	0xbfc448f4cdf5339e	-0.15847644859823345
94	0x3f9d37c93082b8ad	0.028533118806699665
95	0x3fc00a1cabb0b3c5	0.12530859359085703
96	0x3fc17c4cf96ffce2	0.13660585574687106
97	0x3f9c02166bb05e6f	0.027351713488398873
98	0x3fd0a624b8dfbe75	0.2601405911836772
99	0x3fa0e193d9d1da2e	0.03297102006847684
100	0x3fa45986b77328d2	0.03974553098085355
101	0x3fb28248067377c7	0.07230043561455012
102	0x3fb9ae89277349be	0.1003194543184582
103	0x3fe7e01e3e82c081	0.7461081715500911
104	0x3fca53f6a186f258	0.20568735968653828
105	0x3fd37acf5666e906	0.30437072217650074
106	0x3fdcdb3ee94f562e	0.4508816984574392
107	0x3fb57f1225feb3eb	0.08397019794092812
108	0xbfb10461daee616e	-0.06647311778067941
109	0x3fd74d29cbd1ca83	0.36408467201469125
110	0x3fc37483079a5fad	0.15199315901986435
111	0xbfc2c65c0d704578	-0.14667845398120583
112	0x3fdc1de5610bc2d6	0.43932470776694055
113	0x3fda4ef31a41607c	0.41106870235444837
114	0x3fd995a04564de28	0.3997574498821188
115	0x3fc9ec5a3f46de6f	0.20252540673913041
116	0x3fd6b90749b10fa0	0.35504324146699595
117	0x3fcb2efaede2c40d	0.21237122169034742
118	0x3fe25c9dbfa9c311	0.5738056891842424
119	0x3fbd61ef7035b72d	0.1147756241750499
120	0x3fe129e0800f71d9	0.5363619328668917
121	0x3fe08b785e734f11	0.5170251698241107
122	0x3fe1ab693a7ddac6	0.5521742002882426
123	0x3fcba8a481ca773c	0.21608406388707546
124	0x3fdbe881dfeeb55a	0.43606612080005436
125	0x3f8fbd03e0cd7d8f	0.015497236535962937
126	0x3fc5cfeec77d991e	0.1704081033778459
127	0x3fd148130fd598b4	0.2700240759499011
128	0x3fa032807d63c5c1	0.03163529902111462
129	0x3fc852048b23471a	0.19000298303449698
130	0x3fc2db08f091872a	0.14730941530711422
131	0x3fc88ee8e9d85be1	0.19186126154156027
132	0x3fc09e4df27671c1	0.12983106936452596
133	0x3fde5f2d941c1e8e	0.47455920661784823
134	0x3fb0aa91620d0867	0.06510265964337379
135	0x3fd1c5ce7bc08720	0.2776981552616338
136	0x3fb6eac72fa6ceb2	0.089519929059686
137	0x3fe203de78c9453f	0.5629722937684746
138	0xbfbae889476f22b9	-0.1051107215308872
139	0x3fc1446e75e17f13	0.13490086322689673
140	0xbfbcb700fd08e41c	-0.11216741731267671
141	0x3fcb213764382b3e	0.21195118325734968
142	0x3fdf32e2da90e84e	0.4874808439668684
143	0x3fc1a6de7770310a	0.13790493804879872
144	0x3fc803747b7a58b4	0.1876054385108482
145	0x3fcf7713a8e493bd	0.24582143542025206
146	0x3fb9ebb4097a01a9	0.10125279647218711
147	0x3fdf812544e3348d	0.4922574208001798
148	0x3fb85e3802163060	0.09518766451782446
149	0x3fce658274a69df3	0.23747282691805047
150	0x3fc177d03aa68a16	0.13646891464038963
151	0x3fc3e9d4502f0979	0.15557340541097256
152	0x3fc7e5922294a599	0.18669344604977026
153	0x3fbc55176d601cf4	0.11067339344309685
154	0x3fdda045abdafa37	0.4629072359347534
155	0x3fc243f88b516170	0.142699306513133
156	0xbf94c5698638c54f	-0.020284317795988212
157	0xbf976f18c935deb3	-0.022884738236341472
158	0x3fdd8ec51be46e64	0.46183898662432044
159	0x3fdb41da862f8194	0.42589438537654556
160	0x3fde50184e79b78f	0.4736386076318632
161	0x3fb472d409604796	0.07987714032085899
162	0xbfd8e2ab1fc60e58	-0.3888347444810498
163	0xbfbbb36a6b4f9064	-0.10820641631977562
164	0x3fda2cac08375d9d	0.4089765625226052
165	0x3fcd5f51025a47fc	0.22947132696987171
166	0x3fa038f0e6b523eb	0.03168442550902014
167	0x3fb028382cc61061	0.06311369984729388
168	0x3fb41e2836b7f2f8	0.0785851605978215
169	0x3fd61fe7053fe987	0.3456971694246466
170	0xbfaa9de9df76c03d	-0.05198603489714102
171	0x3fd75d3ca07ff93f	0.36506572412317334
172	0xbfc30a208ff92cdd	-0.14874655752132684
173	0x3fe05bf7223c22a6	0.5112262409830535
174	0x3f9b5b1adc0b57e8	0.026714725189627503
175	0xbf70da2024dd6a24	-0.004114270746721025
176	0xbfc943b95a5f4290	-0.1973792735357347
177	0x3fc70f69667481ac	0.18015782835665328
178	0xbf887d397ffad74e	-0.011957596986899379
179	0x3fcad99aed44d113	0.20976578317061775
180	0x3fccd5bec7d5ad9e	0.2252729869609142
181	0x3fce9f3989de765e	0.23923415405163245
182	0x3fd452178ed7aaa4	0.3175104994722153
183	0xbfbae2c6d96a6a94	-0.10502283866882528
184	0x3fbf2a039fa67bb4	0.12173483512604727
185	0x3fcd8719feab33dc	0.23068547186849642
186	0x3fd037dca8359b13	0.2534095423383615
187	0x3fb1258016ff7f32	0.06697845994449095
188	0x3fe0dce0dd7d08f2	0.5269626928277644
189	0x3fafa72e5b21e94f	0.06182236540276397
190	0x3fd3d3ff3648ba42	0.3098142652624213
191	0xbfa6695575a3aa1c	-0.04377238331820285
192	0x3fe560e6bc101ff8	0.6680787728409987
193	0x3fad6f999583461b	0.057492064953873455
194	0x3fcce0f97a05199f	0.2256156774330522
195	0x3fc8c7c81a4e2eff	0.19359685215419373
196	0x3fc0fa489308c74a	0.13263804606827484
197	0x3fe0af47e4ad9366	0.5213965860717564
198	0x3fae950f1e81f9ef	0.0597309803715581
199	0x3fc81aa55e906727	0.1883131705988543
200	0x3fda6bf83b4fc7f5	0.412839944764641
201	0x3fd5815704fce3a8	0.336019282217928
202	0x3fbb3a2982942153	0.10635623395876807
203	0x3fcceaadf2084605	0.22591184919342325
204	0x3fd88102acd8c7f0	0.38287417296953574
205	0x3fd5b8473aa21d3f	0.3393724510755937
206	0x3fc9c60981d1bf22	0.20135611380418889
207	0x3fe1a761eb8c74f6	0.5516824341354141
208	0xbfbc0ddf3301ab53	-0.1095866679694784
209	0x3fda5ae68624df1e	0.4117981252670563
210	0x3f9fdc24959ce0f5	0.03111321604885205
211	0x3fd479a1cf839e24	0.31992383256008083
212	0xbfc4e8bce12576bd	-0.16335259431337149
213	0x3fc1be36c88864ba	0.13861737052574147
214	0xbfccae2528a68ce2	-0.22406448826686814
215	0x3fc6fff7d20c93fc	0.17968652492814374
216	0x3f9c7fe1afd86c5e	0.027831579549552614
217	0xbfb6cc25f7e01814	-0.08905255605358803
218	0x3fddfcefb4d63ea9	0.4685630098328866
219	0x3fd3712ac1ace60e	0.3037821666108308
220	0x3fabc64a0b7c8847	0.05424720182624348
221	0x3fc7d09d898a88ed	0.1860539361560493
222	0xbf839b811f17856d	-0.009573944817875735
223	0x3fdca555dd863470	0.44759127267099696
224	0xbfb23d153c08da2a	-0.07124455180824243
225	0x3fdbee5c9e590185	0.43642344916954584
226	0xbfc6b3a898259135	-0.17735774449386957
227	0x3fe7408c61241462	0.7266294381412417
228	0xbfa514c177489b6e	-0.04117397862528703
229	0xbfb3bd7446fbaf90	-0.0771095917986584
230	0x3fb4a6d9493ccc71	0.08067091024422425
231	0x3fc96c70bad04e74	0.19862183686983637
232	0xbf8da0b5ebdb636d	-0.014466687450679772
233	0x3fd91136ca585228	0.3916756607079912
234	0x3fd483888f609ad2	0.3205281639260821
235	0x3fd4cf75e1861555	0.3251623823528765
236	0x3fded2652b5b607f	0.48159150346828733
237	0xbfaa659c926d6a6d	-0.05155648505634223
238	0x3fd00b8f1f1aee05	0.25070550954453125
239	0x3fd80b00053075c3	0.37567139155165935
240	0x3fd74b0ef44813f4	0.36395620208378365
241	0x3f93d2d6244110ff	0.01935896488454691
242	0x3fd07c0c9711b01a	0.2575713610920062
243	0x3fc7d86709b64f36	0.18629157995439422
244	0x3fdf91c60cdbd9e7	0.49327231651059694
245	0x3f886923415a9feb	0.011919284278818018
246	0xbfd99b8b28ef8921	-0.40011862752557376
247	0x3fe8698084525432	0.7628786644369312
248	0x3fe07f075fc18d2a	0.5155064459071685
249	0x3fd715cd205f575f	0.3607056442391378
250	0xbfccda44805b42a3	-0.22541099803358575
251	0x3fe31e63fa3c71e7	0.5974597823547442
252	0x3fd2607808f1f47f	0.2871379935603002
253	0x3fc068a1226554da	0.12819303683742228
254	0x3fd3f0dc00269b6c	0.3115758897278542
255	0x3f8220a90abd80d4	0.008851357116953208

encoder2.bias f8 [9]
0	0xbfcb40ec26df0043	-0.2129187764930994
1	0x3fa89fee8f3af913	0.048095183357405834
2	0xbff3f76ef0f83614	-1.2479085362314253
3	0xbfb9fd8e9d4bcda2	-0.10152522411572432
4	0xbfe21825ac5f355d	-0.5654476515425518
5	0x3ff3402ff346b54b	1.203170728967353
6	0x3fd300fe64b1e289	0.29693565209849077
7	0xbfeed4fa563e01e3	-0.9634982761781966
8	0xbfeaa54a33f8c8c5	-0.8326769843172533

decoder1.weight f8 [54, 9]
0	0x3fd16859c7492a93	0.27199406110290986
1	0x3f571c9402767bed	0.0014106221586656046
2	0x3fd7727ea04b53d4	0.3663631978391184
3	0xbfd95e64accc2349	-0.3963863074755421
4	0xbfd897f128293de4	-0.3842738048742531
5	0x3fdaa2f5f2784edb	0.416196333682121
6	0xbfbdb9fc365d10c9	-0.1161191590045433
7	0xbfb6338757a7b22d	-0.0867237652780168
8	0x3fb43f176d85520f	0.07908770011756182
9	0x3fbe97db223a0bb6	0.1195046385346775
10	0xbfb6303912f75dfb	-0.08667332375568286
11	0xbfcd7f05aa6d27ec	-0.2304389078292951
12	0x3fc3533b008611bd	0.15097749257632911
13	0xbfc9cadb08d65a5b	-0.20150316173085767
14	0xbfd052b343cf6228	-0.2550476228912282
15	0x3fd6b259c9ce3a51	0.3546356650121299
16	0xbfb1432fa6cba554	-0.06743142912059358
17	0x3fceefe85b3b2d6d	0.24169640020987107
18	0xbf1a9b0a192f450e	-0.00010149239669423137
19	0x3eeb3b9d1679cd5c	1.2985642299434795e-05
20	0x3ef40b2a0e7ba91c	1.9115076525113702e-05
21	0xbf19ea4178590321	-9.885811422184452e-05
22	0x3f198337fcc6e35a	9.73227426531836e-05
23	0x3f2c83a2114b2ca6	0.0002175460182541656
24	0x3ecc2ccd510c6a31	3.3587226727753386e-06
25	0xbf2a60e45661e7af	-0.0002012518627372817
26	0xbf0fc2ddac70d066	-6.0579671803757254e-05
27	0xbfa87696d8242926	-0.04777976406519917
28	0xbfc861a2083faa58	-0.19047952082412922
29	0x3fddd474d2bd49d8	0.46609230594654383
30	0xbfddbcb9891c8839	-0.46464384450712576
31	0xbfb236574ef89e59	-0.07114167860037791
32	0xbfad4377d801b0be	-0.057155366056436105
33	0x3fd0ad63cfbe3834	0.26058287894636867
34	0x3fc6f752cb166a5a	0.17942271152863293
35	0xbfcdb423a8e7041d	-0.23205991503894632
36	0x3fb799caee250f92	0.09219044031220694
37	0xbfdb771f2f4feccf	-0.42914561863262873
38	0xbfcfc8ff15292c8e	-0.24832142384761763
39	0x3fa4963b6b4ad341	0.040208680007174376
40	0x3fdaafb537b022ad	0.41697435797008603
41	0xbf6fe4d204a29cc0	-0.003893289748777201
42	0x3fd240b8b1ad134e	0.28520028449229506
43	0x3f72ea176c133763	0.004617778294415095
44	0xbfb991f01b86d38d	-0.09988308593785984
45	0xbfb203e06195f627	-0.07037165052857884
46	0x3f8f140d4b11f20e	0.015174964765031464
47	0x3fa0c68ae170faa8	0.03276475908250137
48	0x3fdcb9dec0a70287	0.44884461225232325
49	0xbfd3e2f7dd3ea953	-0.310728040751788
50	0xbfaa838d39f792cf	-0.05178490955930714
51	0xbfb5d7cb0d4f972f	-0.08532399249051247
52	0x3fc74b4de7b70ddd	0.18198560537540134
53	0x3fc0a9eed45bf7aa	0.1301859414015188
54	0x3fb990db57adefee	0.0998665894566668
55	0xbfd2aaf1857a3ab8	-0.29168355975063376
56	0x3fc6b4cc35f8d2d5	0.177392507890224
57	0x3fcc4b60e6f06745	0.2210503699905592
58	0x3fc3ac77bde82abd	0.15370079777524906
59	0x3fcf5cded4d3738a	0.2450216807546009
60	0xbfb84b911b5ae2c3	-0.09490305822226745
61	0xbfe5d3aa791370c3	-0.6820881237759057
62	0x3fcdcdfa29ff2abc	0.23284842539427142
63	0xbfc2ba60587327e2	-0.14631275481070732
64	0x3fc92d87135101f7	0.19670189326463092
65	0xbf9867ebc07500ca	-0.023833926793714245
66	0x3fd1368943d02bfa	0.26895362493877395
67	0x3fb42ecdc558c0c7	0.07883916919741117
68	0x3fa0910d0b308c75	0.032356650939868205
69	0xbfc158873a007b72	-0.13551416713832115
70	0x3fc0a0e8d3cacc88	0.12991056767859654
71	0xbfd1e6c0e58ff832	-0.2797090761013151
72	0xbfc9fd73699f8ba9	-0.20304720551857017
73	0xbfd02601f526f6d7	-0.2523198026718609
74	0xbfe22d0e4af95c81	-0.5679999794327985
75	0x3fd5dc6f843d106f	0.34157932199401037
76	0x3fde9a54f81d0114	0.47816967229665974
77	0xbfd034af006df153	-0.2532155517763119
78	0x3f907dffbae28837	0.01610564783243992
79	0xbfe3abdd7723ddd6	-0.6147296263651991
80	0x3fd3d73c9b31bc07	0.31001200824442815
81	0xbfc5af719b935f29	-0.16941661926716137
82	0x3fc746dd3ea429d3	0.18185010489135198
83	0xbf9dc2a7c1a85914	-0.029062863535807074
84	0xbfb357192db432f3	-0.0755477654058259
85	0xbfa4b5f6e1cbf37c	-0.04045077806765726
86	0x3fcd15dacb5a1350	0.22722945145883466
87	0xbfe0fd09e1f07ddb	-0.5308885014418893
88	0x3fadc4e3a79ce46f	0.05814277096801212
89	0x3fd27f0ef272fc26	0.2890050285022333
90	0x3fd7e02850a452d0	0.3730564868467754
91	0x3fb1ca87ce51404a	0.06949662005467974
92	0x3fceaea8ae2fd1e8	0.2397051668664425
93	0x3fc9d8b254685f6a	0.20192555543394103
94	0xbfae8531da89300a	-0.05960994522737913
95	0xbfd821ec151f4272	-0.3770704466124136
96	0xbfcf363a0c2a2507	-0.24384236902214004
97	0xbfc2af2a7e882382	-0.1459706418829932
98	0xbfc3c9058d6711ba	-0.15457219509529613
99	0xbfd614f5175d66cc	-0.34502913743709196
100	0x3f1114a26d316eb5	6.515733120820539e-05
101	0x3fbab173ade7c07c	0.10427020068869014
102	0xbfa96953f03d68f7	-0.04963171298614271
103	0x3fca8efacf277187	0.20748839487977142
104	0x3fb123d7fd5b6d20	0.06695318160511876
105	0xbfc03a88662a6295	-0.12678627956917823
106	0x3fc1335c3d697783	0.13437989233619527
107	0x3fb921f7c84efdf0	0.0981745590242935
108	0x3fd2003f186791f8	0.28126504309901135
109	0x3fe0f2e2b045c60b	0.52964910915597
110	0x3fbe04366222c2a0	0.11725177665608522
111	0xbfd5080014a0971c	-0.3286133004606755
112	0xbfc6acc16cc92d21	-0.17714708148773986
113	0xbfc54ee544faafad	-0.16647020214202027
114	0xbfaa29810c704d74	-0.05109790112342241
115	0x3f7f111bc730f874	0.007584675319831747
116	0xbfcacfd71b57f916	-0.20946778140200512
117	0x3fe1e0938013654f	0.5586640836219575
118	0x3fb52278295a2b48	0.08255721101356273
119	0x3fc1aa7a0281937c	0.13801503298159534
120	0x3fdb8b68c8852d2b	0.43038386899998454
121	0xbf9ce2671084a7b0	-0.028207407363119053
122	0xbfe034a95cb9ee3b	-0.5064284144459131
123	0xbfd515eb4bcbfe8b	-0.32946283723865893
124	0xbfe101d3b42f604d	-0.5314730185737148
125	0xbfc51aa7b6b7a8e4	-0.16487595006703437
126	0xbfc5c0ecf72fa2ea	-0.16995012349732203
127	0xbfacaa861dda85a3	-0.05598849405692909
128	0xbfccfd9f8a89e35d	-0.22648996605473828
129	0xbfd65c798fcc0dfb	-0.3493942169445458
130	0x3fcc4ac20f9c7785	0.22103143465295375
131	0x3fb5628e9c08bac8	0.08353511151720305
132	0x3fb90fb9bd28b923	0.09789620273725012
133	0xbfb1cf1bb570feee	-0.06956647090646204
134	0x3fdb36f591bd15be	0.42522944671904017
135	0xbfd2a5c9f1996a60	-0.29136894792251233
136	0x3fd2235188832851	0.28340566951067553
137	0xbfc5f1b43398ef6e	-0.17143871802715743
138	0xbfd7362e57473d25	-0.3626819469763681
139	0xbfa86b354a38fda9	-0.047692933378580556
140	0x3fd41d8e15da409f	0.3143038953212542
141	0xbfc074660f71f90e	-0.12855220560226893
142	0x3fe0cab428c29d72	0.5247441097352932
143	0xbfc73c5a050076d3	-0.1815292858527103
144	0xbfe2b6c7e828c7ba	-0.5848121198998719
145	0xbfbeac7276146dfd	-0.119818834140851
146	0xbfa8cebf89f1fea5	-0.04845236357595909
147	0x3fe140e75bcc2c82	0.5391728203698138
148	0x3fd21cf5cf33b142	0.28301758989870873
149	0xbfb25f4df60ddc9c	-0.07176673180753074
150	0xbf92498fc9edc8c3	-0.017858740520247062
151	0x3f9c003730d96825	0.027344572407265972
152	0xbfd8827dd998c052	-0.3829645752875922
153	0xbf9dab13a24b338d	-0.028972918301224438
154	0x3fcd36115d033f13	0.22821251908907722
155	0x3fe0281a5b7473f8	0.504895380614129
156	0x3f935515c5f3a8cf	0.01887926121427413
157	0xbfb33d57cabf77ca	-0.07515476894283704
158	0x3fb5adaa6c81d136	0.08468117856120191
159	0xbfd6d36c2aab6376	-0.3566542069143489
160	0xbf8c44ab8c08b860	-0.013802852831840962
161	0xbfdbe769d31174d3	-0.4359993516171247
162	0x3fc0038843a71423	0.12510779670097447
163	0xbfba709a5162ab7b	-0.10328068243931725
164	0x3f9869b5d1fbcb7c	0.023840752545719365
165	0x3f53922eb1bf48ef	0.0011945205687778312
166	0xbfc9c26fab3f85af	-0.20124622213101648
167	0x3fc661a690dc1a72	0.17485506127578138
168	0xbfe08d58c5af4709	-0.5172542439488278
169	0x3fd66fc29d2ae562	0.35057130192179475
170	0xbfad7add5afe89bf	-0.05757800803918966
171	0xbfbb58ed9e9ff795	-0.10682568667104271
172	0x3fa7fb1f4835a1a1	0.04683778530562966
173	0xbf9a16acc55bfc60	-0.02547712282739345
174	0x3fd912eeecd2e41e	0.39178059699367107
175	0x3fce3b69bfc5fd56	0.23618814338622468
176	0xbf40c11d2a261577	-0.0005113022237287897
177	0xbfd91ba10dfa5577	-0.39231134762788805
178	0xbfc0ff9625486e5c	-0.13279988117652664
179	0xbfbf05ff65cb20b8	-0.1211852668303689
180	0x3fb4f0912cc11c67	0.08179576246867414
181	0x3fda6e525fb1ba11	0.41298350663319733
182	0xbfb6813ab638f464	-0.08790938328543657
183	0x3fb55a482cdc188a	0.08340884299477316
184	0x3fbb374da3c7de82	0.10631261108926007
185	0x3fd0a287c2ec12ec	0.2599200633560901
186	0x3fb90c528532a159	0.09784427406214515
187	0xbfb61d33726b2826	-0.08638307135984799
188	0xbfb9ca13aa0f8965	-0.1007396974742157
189	0x3fdb2c971570daf0	0.4245965680487833
190	0xbfd297cd00c40d0e	-0.2905151851156952
191	0xbfcf77f78ea451a6	-0.24584860291419125
192	0xbf9271cebf2f2860	-0.018012266558607215
193	0x3fb781fe8424f4c9	0.09182730413609187
194	0x3fd3c5e93008c131	0.3089545220455135
195	0xbfc85cab74e3412b	-0.19032805640609615
196	0x3fd6cf45bd5e9734	0.35640090458979334
197	0xbfcbcad8880b09d4	-0.21712786333780676
198	0xbfb3d801225c0398	-0.07751471604207294
199	0x3fca8d1d141364ab	0.2074314449335238
200	0xbfc2b3824651e719	-0.1461031764372869
201	0xbfb1f12a1b37bc0d	-0.07008612789626074
202	0x3fa6ce8092186757	0.04454423697843762
203	0x3fc3a82704e6069a	0.1535691045683521
204	0xbfe61d013914d240	-0.6910406222219265
205	0xbfd439be7f7383dc	-0.31602442213448767
206	0x3fe28cfc24a2c908	0.5797100749535113
207	0xbfdc655bf901274e	-0.44368647877546585
208	0x3fd5f069b03758d1	0.3427986355649298
209	0x3fda6a0aa03004f1	0.41272225993459616
210	0xbfb1c1821ead1869	-0.06935895203523192
211	0xbfc17baae7450202	-0.13658653538188054
212	0xbfd5267f5d56d8c9	-0.3304747020259922
213	0x3fc9066c9648b1b8	0.19550855005344459
214	0xbfcfca48405ee5ef	-0.24836066382503882
215	0x3fcde90675afcc82	0.23367386576100918
216	0xbfa47a4c169f02f4	-0.03999555374276112
217	0xbfc85235c8278700	-0.19000885270275347
218	0x3f897bd82530c5ff	0.012443245539631496
219	0x3fac9a3bef57cddc	0.05586421295802399
220	0x3fd7c525c815b243	0.3714079336121225
221	0xbfd85d676e8ba7f4	-0.3807009295984465
222	0x3f3f33b4c4878ca3	0.00047610438607943224
223	0xbfcb55bdb6c98dff	-0.2135541098133302
224	0x3fbcdce076ab93e8	0.1127453126642447
225	0xbfb9236481ca4c7e	-0.09819629830080776
226	0xbf76dc4f0aed2a0d	-0.005581196556543333
227	0xbfa42b625624b6c7	-0.039393494620851004
228	0x3fe09627aec65682	0.5183294690675242
229	0xbfa819bacf3a0edd	-0.04707130221961873
230	0xbfc875322b2a5919	-0.19107653720556853
231	0x3fcbaf2f408f6509	0.21628370907163966
232	0xbfc7a78faa05f2b7	-0.18480106164851914
233	0xbfc45470d8175380	-0.1588269286281978
234	0xbfcdd875f8633c3e	-0.2331683600263847
235	0x3fc611b0286505c1	0.17241479847329624
236	0x3fd01290c2cf266b	0.25113314651807767
237	0x3fc30178a622653a	0.14848240005520968
238	0xbfb3c4bcd0a3c932	-0.07722072690720408
239	0x3f9d72c55c42d82a	0.028758128887339897
240	0x3fbacdeaffa7034f	0.10470455876840144
241	0x3f8c51d9f4be7612	0.01382799413823491
242	0xbfd334354a752f7e	-0.30006153365388133
243	0x3fb31eb74f26c8ed	0.07468743975076438
244	0x3fc808823ef71493	0.18775966715307799
245	0x3fb52d1065f990fa	0.08271887292500316
246	0x3f9d7cb31144a2d5	0.028796003273927468
247	0xbfca629bb6b6653e	-0.2061342851782601
248	0x3fc1218a1e305073	0.13383604501780474
249	0x3fb238f222ce1eb7	0.07118142461524256
250	0x3fca06c06a128d65	0.20333104304618668
251	0xbfd71a80673c50e1	-0.36099252778627827
252	0x3fd1920b15a3d7ed	0.2745387755707032
253	0x3fc21528c1c8a542	0.1412707277498076
254	0xbfd36a2b7cd1c1b2	-0.30335509480849077
255	0x3fcb6662dd373054	0.21406207849065828

decoder1.bias f8 [54]
0	0xbfd0f7c4ff841a00	-0.2651226516030931
1	0xbfa5af6931191c1a	-0.04235390400258883
2	0x3efd0d0a8c10b466	2.7705137430601363e-05
3	0x3fdd5aeb8e9ee0b2	0.4586743252543882
4	0xbfd1edd1e19aa01f	-0.2801403716243857
5	0x3fb004b937319c18	0.06257207486633865
6	0xbfd311828c8c6a5b	-0.2979437229675221
7	0xbfac4401ae315a08	-0.05520634890915593
8	0xbf9ba81e584c0005	-0.027008508815015392
9	0x3f997b133a98808b	0.02488355679645386
10	0x3fd57505775dd49a	0.33526741654288517
11	0x3fc2f70d16d1d62f	0.14816440214387813
12	0x3fbbd90d2bf275a0	0.10878069231917786
13	0x3fd3a64c77653091	0.3070250669450241
14	0x3fa536c6c6db389d	0.04143353631444422
15	0xbfd1e8e9977beab0	-0.27984084885944593
16	0x3fa4b4b4897cf921	0.04044117143938509
17	0x3fd28c8b544d87e6	0.289828140570647
18	0x3fc80a3bf4c34b12	0.18781232310592394
19	0x3f7f4e0144bd2bf4	0.007642750697253387
20	0xbfe178a443c69afd	-0.545976765036215
21	0xbfd1854277d04c95	-0.27375852299264497
22	0x3fbe5e939019fc89	0.11863062160590422
23	0x3fd3ce179a19641d	0.309453869330868
24	0x3fe82c0b55df7a42	0.7553764989095912
25	0xbfc10b9536433274	-0.13316598081145836
26	0xbfa8ee9e5fb469bf	-0.048695515806872695
27	0xbfe19c9ff3ee7d17	-0.5503692402161587
28	0xbfdee0174bc8f250	-0.48242742920755166
29	0x3f8c69d11c54127a	0.013873704602255222
30	0x3fd1886813c4ac4f	0.273950595192848
31	0x3fcd141fdcbd5ffc	0.2271766498404303
32	0x3fc6f28b27318382	0.17927684224835266
33	0xbfb874a0dc3d3010	-0.0955296075528056
34	0x3fddb8b0a967cb17	0.4643975881910349
35	0x3fe45bc2ed155d01	0.6362013464485302
36	0x3fc5fca8347fece7	0.17177298129522642
37	0x3fa10c4abea2d764	0.03329690529919452
38	0xbfa44307230cb831	-0.039573882130170886
39	0xbfc651ca47303900	-0.17437103725428216
40	0x3fd69b36a4268d11	0.3532234766991716
41	0x3fca38ee15941562	0.20486236623416249
42	0x3fbaf36b95bc6cfb	0.10527679830231655
43	0x3fb095cf2c22cb63	0.06478590800797472
44	0x3fd1b13425628f1d	0.2764406552398542
45	0x3fb15e386f3769b5	0.06784393992658162
46	0x3fbfe83c4f7148de	0.12463738383783915
47	0xbfc7bff8a1d3dcf1	-0.1855459966825275
48	0x3fd10c13a41a7c8f	0.2663621046612627
49	0xbfb8f1a7eaa1851c	-0.09743737676901215
50	0x3fb9df9735345c9d	0.10106797264994545
51	0x3fdcec4d02a38212	0.4519226575630749
52	0xbfb4c789c9d22eb7	-0.08116971184989095
53	0xbfd0e02a1baea73f	-0.2636819143614168

decoder2.weight f8 [100, 54]
0	0xbfb2e961872fe5d7	-0.07387361097780541
1	0xbf9a3355feb67512	-0.025586455985480212
2	0x3ee63aeaf3b360a0	1.0600160399596153e-05
3	0xbfc0140a474a8f31	-0.12561157685296956
4	0xbf8445b191524c2c	-0.009898555037841282
5	0x3fb88714a6b5e76d	0.09581116743166058
6	0x3faeeacdf476df64	0.06038516625579751
7	0x3faca6e2788222a4	0.05596072884606443
8	0xbfb20ef2c20b57d9	-0.07054059255037205
9	0xbf9a5dfeba768dbd	-0.025749187594227275
10	0x3fb742361638383d	0.09085405390234853
11	0x3f90b3a81ad61336	0.016310335767701654
12	0xbf882a1b8ebab8de	-0.011799063962226016
13	0x3f703bd5f5bdf649	0.0039633138475188645
14	0x3fb6147e74993b98	0.08625021311421077
15	0xbfb31d66b6b8486f	-0.0746673770993611
16	0x3fb807212d2196e4	0.09385878898464345
17	0xbf92c2a8c5dd07ee	-0.01832069118177764
18	0x3f95c1f76522f695	0.02124773554600397
19	0xbf49e787cb6961a0	-0.0007905400332886454
20	0xbfa61ae713b3365c	-0.04317400088767151
21	0x3fc0097ba580c8df	0.12528939801411007
22	0x3fb1536090d7a6df	0.06767848526183283
23	0x3fa9890e7df7b2c1	0.04987378394785003
24	0x3f99e97a67a86d07	0.02530471093824096
25	0xbfb1b67d4a5b8f9f	-0.06919081750271382
26	0x3f86d74252b58863	0.011152761601526067
27	0x3fb22bc30a5acb80	0.07098025324630264
28	0xbfc5592fcab764b4	-0.16678426168690452
29	0x3fa9960ba6d6f4dd	0.049972881427928086
30	0x3fc302972a28bace	0.14851655539083314
31	0x3f878d41b1de3f88	0.011499894371610045
32	0xbfabf4691d6de125	-0.05459907993548744
33	0xbfbd8fb1b673bafd	-0.1154738493384961
34	0xbfa46e0acd040998	-0.03990205528863838
35	0x3fc2bb1718eaebba	0.14633454052622402
36	0x3fbc831400da5192	0.11137509365864265
37	0x3fa85c6cb8ca1ef5	0.04758014446002604
38	0x3fae4a52b60a3741	0.05916079017798249
39	0x3fab292a80096722	0.053048446778758654
40	0xbfc2ba43ffec6f47	-0.14630937572735034
41	0x3fa7bdd83b30d3e3	0.04637027475875024
42	0x3fc583097578b2cf	0.1680614303199008
43	0x3f8c5ef095ff7690	0.01385295827634117
44	0x3fc3b2a45ae0bcae	0.15388922154804646
45	0x3fa0e279751583c4	0.03297786287544782
46	0x3fa2e26e1579e7e4	0.036883773919683255
47	0x3f76e3fd0f5c1ca0	0.005588520541784409
48	0xbfa31a765823503d	-0.03731126619246126
49	0x3f8e206eacd13dcc	0.014710297249762493
50	0x3fb4af6b2475fac5	0.08080167427213343
51	0xbfb69bb3eda81873	-0.08831333686984681
52	0xbf9c0f56e6f112bd	-0.027402265401422755
53	0x3fab78577be248e2	0.05365250956778468
54	0x3f95bf2de9d276f5	0.021237103840227218
55	0x3fa7bb3ff61b947c	0.046350477974365284
56	0xbee23bbb9daf6a89	-8.694329997218215e-06
57	0x3fbf7aa0ba00cb6a	0.12296490231601145
58	0x3f80910202b74702	0.008089080531962892
59	0xbfb9740b1196e43a	-0.0994269292776985
60	0xbf9d6658f05431cb	-0.02871073691226104
61	0xbfa89d6d1f35d14c	-0.04807606702789488
62	0x3fb167768b11123c	0.06798497100050666
63	0xbf88319e4a8653ad	-0.011813389443696776
64	0xbfaf9985a47fd62a	-0.06171815522240494
65	0xbfa7186ccc1041ea	-0.04510822287568657
66	0x3fb7802c3d938ad1	0.09179951194122828
67	0xbfa1010c9bb7aa5d	-0.03321113015029618
68	0xbfb20bb6596aac22	-0.07049121554398188
69	0x3fb1cc083e7211f5	0.0695195343451543
70	0xbfbc8d3dc40d6f68	-0.11153017078816918
71	0x3fb134a4fff2ed8c	0.06720954178574895
72	0xbfa38c8f541a0635	-0.03818176175719793
73	0xbf7f31549e1827cf	-0.0076154046414646645
74	0x3faa36d53c8d56ba	0.05119959224854882
75	0xbfbe292fe3d63d52	-0.11781596481727277
76	0xbfb0ee52e35612d5	-0.06613653230858614
77	0xbfb5bdb22232b74b	-0.08492577872195033
78	0xbfac02ed1f939c16	-0.054709825615468485
79	0x3fb119eae8b2a7e3	0.06680172139263578
80	0xbf871743d38de322	-0.011274843114493619
81	0xbfa908918051baec	-0.048893496431323985
82	0x3fc157185bde1479	0.13547043309896248
83	0xbfa574028a8dbe0d	-0.04190071050004116
84	0xbfc16b5f910bae9a	-0.13608927328401849
85	0x3f866dcdf1ff7727	0.01095162291306513
86	0x3facee71763d532e	0.05650667732576263
87	0x3fc37d54515218a8	0.15226224871384386
88	0x3f9565c87640828e	0.020896084039238753
89	0xbfc2bd559bfca2fa	-0.1464030276922797
90	0xbfb6078c2d407900	-0.08605266670972256
91	0xbfb0c8f0dbf6bc51	-0.06556611414156178
92	0xbfb25fd029ed242b	-0.07177449248878591
93	0xbfb197ed4455a2d8	-0.06872446935961862
94	0x3fc659cf9de38097	0.1746158142987084
95	0xbfa7c649c023a4a4	-0.04643469305467221
96	0xbfca1c7509094169	-0.2039934438821647
97	0xbf84d5b790bf6bb9	-0.01017325792775191
98	0xbfc6d63a125d344f	-0.1784126844089848
99	0xbfb077724d0368a9	-0.06432260875900177
100	0xbfb6943de9187bb1	-0.08819949093638858
101	0xbf99bef6d1282a44	-0.025142532840656054
102	0xbf534742bd454734	-0.0011766578437186316
103	0xbf63f792142675d8	-0.00243738680838022
104	0xbfb3ea5057a8f1e1	-0.07779409542212747
105	0x3fba2102f700bad5	0.1020662167581848
106	0xbf86a11e8c8d1441	-0.011049498237875823
107	0xbf700a1b9d6b30bf	-0.0039158896167458815
108	0x3fa37d2f822e98e7	0.038064465180740296
109	0xbfaf9d511ece2aef	-0.06174710751573353
110	0x3ef164cbdb4dde09	1.658795891354255e-05
111	0xbfba4dcbf9f69581	-0.10274958469979902
112	0xbf78c8da0ae802b1	-0.006050922135273738
113	0x3fb494889615559a	0.08039144195693951
114	0xbf48c53bd0031610	-0.0007559339574291796
115	0x3fa274624031f80c	0.03604418786652283
116	0xbfafe4deb2752a8f	-0.06229301384390339
117	0x3fac1a50ad1d3b25	0.05488826859674693
118	0x3f95eea1b5fff6ce	0.02141812012995708
119	0x3fb3cee60d8be8e5	0.07737577276921888
120	0xbfc1f23b951e68c7	-0.14020485669317947
121	0x3fb04fe666877790	0.06371917727616805
122	0x3fa9c4222251c36d	0.050324503602388805
123	0xbfaa0874dcc92eac	-0.0508457679285049
124	0x3fc0646e3d5137f4	0.12806489938742482
125	0xbfba26491ef85f8f	-0.10214669233425709
126	0x3fa880503b99aa7f	0.04785395362417421
127	0x3f912adf4cd3bc15	0.016765107216027603
128	0xbfacc038ba3fb2e5	-0.056154034362270434
129	0x3fb81f6a888e5eda	0.09422937234773646
130	0x3fae7b2b6fec9971	0.059533460056900085
131	0x3fc0637bae33fa98	0.12803598409660277
132	0x3fb24bc92c108ed7	0.07146889997289506
133	0xbfaa5cbf0a8df052	-0.05148884776915054
134	0x3f80c66b533d7af6	0.008190954664028176
135	0x3f911eef0bd8bddf	0.016719565485059703
136	0xbfb95d0c6151b7a0	-0.09907605529744368
137	0x3f98e9a8b0e1351c	0.02432883815372576
138	0x3fbdc2bcc261fce0	0.11625270600960702
139	0xbfa0979f53a65060	-0.03240678688158094
140	0xbfa0fbfa52b32078	-0.033172438235454516
141	0xbfc67ec8c3490de6	-0.17574414763849616
142	0x3f7dee9bd214abcf	0.007307633089378165
143	0x3fc1e486acfc3f91	0.13978656240987822
144	0x3fa56a6be86b46e3	0.041827556725946534
145	0x3fb38349e87b8c47	0.07622205663533164
146	0x3fb1fffbd9f64bf2	0.0703122527250313
147	0x3fb5837286be0bfa	0.08403697766884469
148	0xbfc78747c214c50d	-0.18381592728250276
149	0x3fa7ecb88d5c0814	0.04672791219310582
150	0x3fcc8af7dc687d87	0.22299097311131907
151	0x3f730d80fa1c6771	0.004651550117864876
152	0x3fc8c80ca614f4ce	0.19360502347436753
153	0x3fb6f0e9670edbea	0.08961352125230318
154	0x3fbb1a95e67f0f87	0.10587441327430556
155	0x3fa1b76994487a9a	0.03460245070549668
156	0x3fa191bbe3a2ceb4	0.03431498674163205
157	0xbf87025b7c815997	-0.01123496507368031
158	0x3fb187328d33100a	0.06846919963123824
159	0xbfbab734f1c1a0be	-0.10435801412825449
160	0x3fa7ccd92327a7e5	0.04648474268090278
161	0xbfa45d951ec39a5d	-0.03977647781885161
162	0xbfb6c5a6859a02c1	-0.08895340692289279
163	0x3fb29a1597707433	0.0726636404728687
164	0xbef89d9253430c01	-2.3475183483123028e-05
165	0x3fb1cdebb74ec27b	0.06954835152897403
166	0x3f80bfa032ec3b11	0.008177997163810543
167	0xbfa4db728014c525	-0.04073674977770229
168	0x3f96a627301bdcdf	0.022118198691683296
169	0xbf98d60a333a9adb	-0.024253997208371608
170	0x3facd1a711c850dc	0.05628702251502357
171	0xbfb84c2fe45ad5c7	-0.09491252255505521
172	0x3f90811a5c5bb7fe	0.01611748875341589
173	0xbfbad56364ed30b3	-0.10481854642893289
174	0x3fc26a440d66468e	0.14386797575257443
175	0xbfb77c2fe2daa710	-0.09173869408064328
176	0xbf9f04cda4ed1c77	-0.03029176062707647
177	0x3f9820478b519758	0.023560636404361318
178	0xbfc1fb6cbf92c796	-0.14048537592094296
179	0x3fbd8fc52d1c9f87	0.11547500945436982
180	0xbfa88d2fc240564c	-0.04795216795188803
181	0xbf992a2287709e9b	-0.024574794308277786
182	0x3fac427dd56d2348	0.055194790175454644
183	0xbfae9bcc9b2268b9	-0.05978240388613316
184	0xbfa85a955121b933	-0.04756609549882498
185	0xbfc602115442b0b1	-0.17193810095102927
186	0xbfb3531ec00ec3c9	-0.07548706234844284
187	0x3f9c4d82e9c7e5a8	0.027639432448244655
188	0xbf709343af476a60	-0.004046692269606383
189	0x3f9387cb24f50ee3	0.01907269871777729
190	0x3fb136d4f89a7fed	0.06724291867658368
191	0xbf53809f9a8831c6	-0.0011903341893485394
192	0xbfb939891d2468e0	-0.0985341735980998
193	0x3fa9ad39a84ffaf4	0.05014972858042724
194	0xbf9141f65ac455bc	-0.01685318879125018
195	0x3fc79ddabfbdd69f	0.18450483667736692
196	0xbfa397dd391d00a9	-0.03826800653632862
197	0xbfc06cb607e43f22	-0.12831759820300542
198	0x3f84cb9227c420ed	0.010153905714574718
199	0xbfb4244cb4777278	-0.07867888837740533
200	0xbfa9f77271938481	-0.05071599613598555
201	0xbfb7f6d3b016ebc8	-0.09361002968846244
202	0x3fc561dfc48535a5	0.1670493802616139
203	0xbfa8d85e52081502	-0.04852576018678613
204	0xbfcc83eab7adc2bf	-0.22277578324021438
205	0x3f748046be1a0eeb	0.005005146349166027
206	0xbfc97357533287bd	-0.1988324314343667
207	0xbfba19381e2b178b	-0.10194731461078115
208	0xbfb54f58bf5d7505	-0.08324198410032942
209	0xbfa0286065847c4c	-0.03155804862239417
210	0xbfad60fd1f75109a	-0.057380590524673994
211	0x3f97a55a9bd43e9a	0.023091712723781833
212	0xbfab275be65f765b	-0.05303466021699129
213	0x3fb8d17cb46a043a	0.09694651989595196
214	0xbfb1c1eae91fab7f	-0.06936519805428353
215	0x3fb187e8d0cd69a5	0.06848006341662101
216	0x3fbe8a353db9d19d	0.11929638630846857
217	0xbfb317cf0e55eb85	-0.0745820436476788
218	0x3effd58ba36f05c7	3.0359422648512117e-05
219	0xbfa09af655971f38	-0.032432268093144534
220	0xbf8e72275b4739db	-0.014866168473329935
221	0xbf8aa8df8aa574bf	-0.013017412584924391
222	0xbfa005faf54bd19d	-0.03129562610948542
223	0x3f907264758f0af5	0.01606137244722113
224	0xbfa894a0fe15af47	-0.048008948341559825
225	0x3fbff41e5efe3340	0.1248187047878675
226	0xbfa29e45e851ddd9	-0.03636377774176553
227	0x3fbed47a6c1a9817	0.1204296602178093
228	0xbfba60720b094e5a	-0.10303414124910529
229	0x3fbbc4a9a124e693	0.10846958336051164
230	0x3f8de68ce7b9a81a	0.014599896260921997
231	0x3f79b15502dcc610	0.006272632670332637
232	0x3fc2ce74721842a5	0.14692550250085393
233	0xbfba5ed0c960cc30	-0.10300927082498457
234	0x3fa3b4834c468a2a	0.03848657899949999
235	0x3f9ff6499f1efeb5	0.03121295007417642
236	0xbfa7e209fc175230	-0.04664641573223027
237	0x3f9a859fd40d79e4	0.02590036136404618
238	0x3fa1275c10d500fe	0.033503415159886515
239	0x3fcabca37288bc04	0.20888178913580202
240	0x3fb1ab288e1403c9	0.06901792019563326
241	0x3f4e345259022fca	0.000921764572937794
242	0xbf52d4c5086a1b3f	-0.001149361052428424
243	0xbfa962d84f0d46d6	-0.04958225216854621
244	0xbfa7d64abb73a132	-0.04655679262379166
245	0xbf955296c8f6cdaa	-0.0208228645476091
246	0x3fb62cae4025fdbd	0.08661927286265488
247	0xbfaee508ed8d07eb	-0.060341147420800066
248	0x3fb558295b0e7350	0.08337648842866696
249	0xbfc7378499b06128	-0.18138177399010513
250	0x3fafe5509d3d006d	0.06229640883839314
251	0x3fbd5f33247820d4	0.11473388328898021
252	0xbfac4b80bfa41d57	-0.05526354159706653
253	0x3fb2260c2bf0dcf4	0.0708930594708937
254	0x3f87c010c74de2f5	0.011596804697306487
255	0x3fb7a5621cb5b875	0.09236729813503237
