Trained_models/4/predictor4_50_3.pth (torch, 27909 bytes, 16 tensors)

encoder1.weight f8 [26, 50]
000000 ef b1 6a 54 8a c9 bf 3f ea 2f b6 4c 74 10 c9 bf
       0.12416901169735416 -0.19581464524924225
000010 9b 80 08 b2 03 20 ce 3f c5 66 03 a9 c1 db a6 bf
       0.2353520030310435 -0.04464535892630076
000020 6e 9a 4d 93 16 37 b7 bf cb b0 b8 b9 85 80 b5 bf
       -0.09068432899730691 -0.08399234565939932
000030 c1 06 bc c7 ed 6c d9 3f 20 75 cd d4 cb db d5 bf
       0.3972734880954754 -0.34154029637814354
000040 6f c3 e3 f5 14 57 b5 3f 9f 18 88 4e 83 fb 98 bf
       0.08336001399199032 -0.024396945636930508
000050 62 d2 f4 43 bb ad d0 3f 05 72 46 d2 23 66 d9 bf
       0.26060372959481104 -0.39685912642178806
000060 15 d0 fb d6 62 02 ca 3f eb 0e 4f 13 d3 ae 87 3f
       0.2031978177761863 0.01156392004657599
000070 cf 2f 6f e8 d0 8b be 3f 4a 33 83 fe c4 8d c9 bf
       0.11932092356363387 -0.19963896205299597
000080 c0 1e 39 cb d5 9f a6 3f ba d6 d0 61 59 e0 b9 3f
       0.04418819528342288 0.1010795463378952
000090 24 79 3b 74 be a5 b5 3f fc 6f f9 07 77 b8 c0 bf
       0.08456030214026505 -0.1306294239938096
0000a0 a7 55 f3 8b 69 84 9c bf 88 ef cc 95 09 b6 d1 3f
       -0.0278488628071806 0.27673568371732715
0000b0 d2 17 bc 9e 8e 10 c4 bf cb 0a 77 8c ea e9 5e 3f
       -0.15675528288573887 0.001886824656921848
0000c0 07 f2 37 d6 1b 94 9f bf 3b 1b 9b 66 d5 dd d0 3f
       -0.030838427495824685 0.2635396482477749
0000d0 27 97 0c 56 d4 3b c6 bf ff 8a 67 ab 83 64 ad 3f
       -0.17370084954853235 0.057407488511463704
0000e0 02 4d 0b 26 d0 b1 bf bf a0 31 d6 5e 67 fe d4 3f
       -0.12380696228801827 0.32802757512470215
0000f0 ea a1 25 32 91 56 d0 bf 44 5c ae 9c 81 b4 ad 3f
       -0.2552836408345046 0.05801777875529315
000100 94 6c d3 ff 71 93 ad bf 57 17 a9 0a 53 10 ba 3f
       -0.05776554344057519 0.10181159029261032
000110 64 69 b9 b3 54 65 99 3f 15 23 27 8a 78 77 c3 bf
       0.024800609082697447 -0.1520834612440686
000120 46 0b c7 6b 05 25 5e 3f d4 ba 89 fc a0 02 d0 3f
       0.0018398812236319491 0.25016045247950314
000130 e7 00 ad 0b 94 64 b1 bf 1d 0a 21 39 44 c2 bd bf
       -0.06794095311215963 -0.11624552149536567
000140 8d 72 55 08 f1 f3 c1 3f ad d8 25 6d 25 b4 ae 3f
       0.14025700480387507 0.05996815640803397
000150 58 9f f1 85 ad 2a 92 bf 64 e2 50 cc a4 89 b7 bf
       -0.01774092798260027 -0.09194402683432085
000160 f4 76 ba cf 9e 97 8d bf ef 82 8e 95 7b 8a ca 3f
       -0.014449349130980484 0.2073511581666234
000170 7a 26 47 78 a0 a4 a2 bf f1 1a 6e 98 e7 42 d1 bf
       -0.03641225307690106 -0.26970853696586433
000180 a9 5c 31 94 12 15 bd 3f ca 61 ee e1 82 04 d3 3f
       0.11360279195774815 0.2971503454550911
000190 08 e0 b2 40 84 7b e7 3f 8e bf b6 5a 82 80 88 bf
       0.7338277114531602 -0.011963861840598413
0001a0 dc ad ca dd b4 8d d0 bf 97 09 34 a4 7b 64 ce 3f
       -0.2586490789351197 0.23744149701822145
0001b0 26 30 f6 c2 bc a1 d5 bf be 16 de a0 bd ce d6 3f
       -0.3379966644213276 0.3563684531185166
0001c0 8d 1d 33 28 9d 90 bb bf ba ae ae bd ad 2e d5 bf
       -0.1076753829139447 -0.3309740402571425
0001d0 b0 5c ce fe 98 6a d8 3f 38 c4 72 b1 6f 37 d3 bf
       0.3815062034931982 -0.300258563317644
0001e0 9c af 59 48 d8 0c ce 3f 22 56 62 79 a6 b7 c1 bf
       0.2347669938347935 -0.13841706206282917
0001f0 62 94 6d ac 32 68 c4 bf 41 04 b0 53 45 4a d9 3f
       -0.15942986888254312 0.3951581303845764
000200 f4 4b 24 55 6f d4 d7 bf 36 48 95 ef 34 76 c1 3f
       -0.3723409968817457 0.13641988466639682
000210 c3 21 0b 88 48 5c aa 3f 16 08 f7 42 15 34 c2 bf
       0.051485315901632876 -0.14221444864057337
000220 ac a8 24 b5 9a c1 c8 3f 10 03 59 e2 dc e9 d3 bf
       0.19340833516009093 -0.31114885429637784
000230 fe 98 ea 86 51 cb bd 3f 26 b7 42 22 46 22 c3 3f
       0.11638364356858585 0.14948345826035697
000240 f0 36 09 fb dc 8f d2 bf 8b d4 02 83 0e dd c4 3f
       -0.2900307132266411 0.16299611470245554
000250 2e 38 be f5 3c e4 b2 bf d1 60 f3 5e b1 31 94 bf
       -0.0737951374014478 -0.019720813198404855
000260 e8 99 75 4c fa 1d b9 3f 5a 1b 13 7c 02 36 ce bf
       0.09811367384609293 -0.23602324541408387
000270 a4 66 75 42 61 49 c9 3f 35 30 48 36 04 d5 6f 3f
       0.19755187745140745 0.003885753847731289
000280 1e 4c e7 52 57 32 b6 bf 0d 8d 8a c0 d7 50 ac 3f
       -0.08670564435969694 0.055304281476560836
000290 e3 34 5a 65 e8 13 a0 bf ad 4c 70 51 6b 9c b9 3f
       -0.03140188443385641 0.10004301775215892
0002a0 6a ea 59 6a 1e c1 b0 bf 7c d1 45 14 9b de a9 3f
       -0.06544675919023182 0.050526472305963716
0002b0 30 36 1f 53 62 a8 b9 bf c2 55 50 36 bf 24 c0 3f
       -0.10022558717101826 0.1261214270786422
0002c0 03 f2 a3 49 a2 50 80 bf 87 1b 9b fb 5b a2 ca bf
       -0.007966297027899754 -0.2080798128647212
0002d0 fe 32 c7 2b 8c 15 ce 3f e0 24 e6 08 bf 4a cd bf
       0.23503257882693868 -0.22884357389947407
0002e0 ca 48 02 87 1d 81 c6 3f 2b 41 77 0c 7e 98 83 3f
       0.17581528751595094 0.009568199878146352
0002f0 5b 55 f7 b3 f2 63 ce bf 39 b5 1a 6f 9b 70 d4 3f
       -0.2374251726857136 0.3193729958537293
000300 3d 8c d9 ab e6 f7 ca bf bc ba 7e 1e 8e 7c ca 3f
       -0.21069033995726896 0.20692612160697432
000310 2e 92 7f 31 15 9d a2 bf 4e 9b 5f c2 bf 81 e0 bf
       -0.03635469655253974 -0.5158385082585057
000320 73 59 81 7f 31 d1 c7 3f ba 10 30 78 4f 16 cd 3f
       0.18607157445758168 0.22724336021940933
000330 16 fd 8a 38 a3 7c d2 bf 78 2b f5 7d 95 f4 89 3f
       -0.2888572742630954 0.012673538118766578
000340 5d f3 f4 aa 4c 7f c1 3f 87 18 37 03 a3 35 ba bf
       0.13669737193586232 -0.10238093212601217
000350 18 ea 50 73 99 98 c0 3f 7e b0 75 69 d2 5a d6 bf
       0.1296569645945318 -0.3492933301811333
000360 c5 96 53 44 14 a5 cd 3f 6e cf ac 64 82 13 a8 3f
       0.23160031639343095 0.04702384451812135
000370 a1 26 99 fe 15 63 d2 bf 37 58 61 f3 a8 16 d1 3f
       -0.2872977243720048 0.26700805442431225
000380 0d 79 f5 12 0d c1 d1 bf ad e8 f7 e7 78 e1 d4 3f
       -0.2774079022546097 0.3262617364231442
000390 cc f8 9c 5f 99 b9 c3 bf e1 83 d5 40 04 fb cb bf
       -0.15410153549777872 -0.2185979191372374
0003a0 71 4c 9e be 43 c3 da 3f f6 38 f8 0c 29 05 d7 bf
       0.41816800704072593 -0.35968996302189227
0003b0 32 a3 5d e3 4f e0 cc 3f 3f 49 36 dd ca ec b8 bf
       0.22559546090931232 -0.09736316586193981
0003c0 47 d0 37 9d d3 38 c1 bf c4 91 4f a2 c7 ef d7 3f
       -0.13454671074544164 0.3740099988047201
0003d0 da 5f 0e 5f a0 8a d8 bf 50 3b 81 fd 19 79 c0 3f
       -0.3834610870630947 0.12869572523274053
0003e0 eb f2 f3 7f 60 d0 bb 3f a5 0b 63 34 ab 63 c6 bf
       0.10864832996226041 -0.17491664941743781
0003f0 ce 59 14 e7 bb 5b d0 3f 9e a7 ff ad 7f f8 d0 bf
       0.2555989987025925 -0.2651671599584179
000400 e0 76 46 7e 73 cf b7 3f b1 59 ab 60 8c c0 cd 3f
       0.09300920327083473 0.23243860931570517
000410 7e 5e f6 98 a8 f9 d6 bf 0d 12 bc e6 46 66 d1 3f
       -0.358987950684856 0.2718674901264258
000420 63 a8 e0 91 c1 53 b9 bf 8d c7 42 bb 1b 84 c4 bf
       -0.09893426715339752 -0.1602816261634498
000430 c5 fa 21 1d 47 8e d2 3f 0b d2 b7 3e d9 03 d7 bf
       0.2899339470385878 -0.3596099007111497
000440 20 fc 35 78 83 62 c9 3f 69 bc c9 97 a7 e7 a6 3f
       0.19831889505073352 0.04473613479500999
000450 b4 a8 19 53 1e 69 c8 bf e2 25 1c c7 a2 78 c3 3f
       -0.1907079606783718 0.15211901399770428
000460 15 a0 39 c7 67 ef cc bf 01 c7 57 48 25 68 c9 3f
       -0.22605607250011475 0.19849077255599215
000470 08 77 6a c2 0d d4 b8 bf b7 0d 05 16 85 89 a8 3f
       -0.09698568340760627 0.04792419332309399
000480 b9 bf 46 90 fd f1 c3 3f 80 69 2e b0 52 2e d0 bf
       0.15582246346229825 -0.25282733159260573
000490 e2 20 ab 4a 0e 7a c5 3f 69 8b cd 3b 53 e3 c0 bf
       0.1677873482315198 -0.13193741245330706
0004a0 b3 da 0e 64 49 d7 a9 3f c5 3f dc 07 74 b2 db 3f
       0.050470632042040185 0.43276692168819536
0004b0 a5 af 6e 34 54 29 c4 bf 4f dd 0c cf 91 e7 93 bf
       -0.15751125869917107 -0.019438055288643338
0004c0 7e 07 e6 7a 44 6d c6 3f 6b 8f 21 8f 94 a3 d1 bf
       0.1752095794764123 -0.2756091497196766
0004d0 14 02 33 19 b8 22 bd 3f dc d6 2e 2e 34 4f a9 3f
       0.11381102194992138 0.04943240226513776
0004e0 07 5d e4 05 dc 2d b4 bf 8a eb ef 4c b2 76 b3 3f
       -0.0788247599015116 0.07602991464947997
0004f0 72 39 c4 69 49 c7 c4 bf 26 45 81 2a 7e 46 c6 3f
       -0.16233174957637747 0.17402627063214843
000500 6a 66 44 41 f4 c6 ba bf c3 e4 80 56 55 0c a8 bf
       -0.10459829896390152 -0.046969096002109655
000510 c6 77 c0 ef 7b 7b b6 3f 23 c2 81 dc 75 e0 c0 bf
       0.08782171824756721 -0.1318499876683897
000520 bd f1 78 a0 26 0d c1 3f ba 22 d0 83 1b d7 c7 bf
       0.13321383319443028 -0.18625205932791805
000530 6b 02 33 fb e3 d5 9a 3f 79 4e 18 4c c2 c3 b6 3f
       0.026206552702890223 0.08892454488550951
000540 47 ae 62 b7 39 69 bb bf 58 9e 18 d8 2f 43 b7 3f
       -0.10707436301407212 0.0908689405993014
000550 e9 7e 5f a8 20 65 c4 bf fe 83 b6 29 99 3a bb 3f
       -0.15933616849269264 0.10636288898832899
000560 20 75 cf 76 f3 43 92 3f ee 66 63 93 e4 79 cb bf
       0.017837337614641346 -0.21465737530416312
000570 a3 97 25 59 ae e4 c3 3f 06 6b bd 12 a1 f7 bd bf
       0.15541629174111646 -0.11705977160947265
000580 8f e6 b0 ad a9 b8 81 bf 54 c9 58 a3 bd e5 c2 3f
       -0.008652997601632321 0.14763613201064152
000590 d2 97 bc 0c f3 7b c9 bf 82 84 59 4f ed fd ce 3f
       -0.19909513589772004 0.24212423681732181
0005a0 4d db 76 70 9c b9 a9 bf 54 e4 d6 8c 6f 5d c2 bf
       -0.05024422524313952 -0.14347643258023146
0005b0 64 88 bc b7 9f 4c d8 3f 09 f3 1e 0c 40 a4 d9 bf
       0.37967675154698655 -0.4006500357025265
0005c0 64 39 d1 ca 4e 00 cb 3f 54 25 40 d0 7f e9 ad 3f
       0.21094689276874157 0.058422083064281566
0005d0 85 87 1b 66 bc 0c d6 bf 01 d5 56 d2 c8 aa dd 3f
       -0.344527339662925 0.4635488561719541
0005e0 27 7d 68 75 f9 09 de bf e5 12 b4 f0 80 64 d1 3f
       -0.46935879197731584 0.2717592573756476
0005f0 96 73 58 cf c7 93 b4 3f ac 45 64 e4 6a 72 db bf
       0.08037995159288722 -0.42885849288821976
000600 b8 9f ea d9 10 fa e0 3f 39 64 b0 05 5a 2f da bf
       0.5305256134206422 -0.40914011531419053
000610 91 d9 1b 1b db cb b4 3f 09 85 28 e8 9d bb c6 3f
       0.08123559390865 0.17760061107495798
000620 67 54 91 76 7c 47 d7 bf 98 4c 79 34 f4 e6 dd 3f
       -0.36373817042232875 0.46722130894085856
000630 d4 9d b1 ce c3 2a cb bf 7a d2 a5 29 3a 03 da bf
       -0.21224258034202015 -0.406446972533821
000640 2b 74 bd e2 6d 26 9e 3f 90 33 56 4e ff e2 b3 bf
       0.02944347092067205 -0.07768245375173266
000650 28 cf 7e 91 fc 02 b0 3f c8 98 65 43 9b bc b5 bf
       0.06254557182438403 -0.08490915675574506
000660 71 c0 e3 19 20 94 c2 3f 83 e9 7f c7 8b 1c c2 bf
       0.14514542831557578 -0.1414961551780146
000670 d5 42 c8 24 72 10 c4 3f 58 a8 0d 0f ec 13 b9 bf
       0.15675188823708788 -0.09796023719323566
000680 de fd 3c da 38 23 a0 3f ee e9 23 6f 81 60 96 3f
       0.03151872314492342 0.021852514656510218
000690 80 b6 56 ff cb 14 8d 3f ef 61 bd 57 15 b3 6d bf
       0.014199823121852306 -0.0036254326677573816
0006a0 a1 cd 98 96 66 33 79 3f 65 7c 39 47 57 11 92 bf
       0.006152535186220305 -0.0176442754003542
0006b0 bb 6b 15 e3 82 d0 aa 3f ae 3f a3 23 6f 55 ad bf
       0.05237206480042952 -0.057292435741714484
0006c0 78 21 09 8c 36 d6 9d 3f 2c 2f 28 53 d0 bf a4 3f
       0.029137470528696835 0.04052592291927079
0006d0 d1 0d 0a 25 9b 73 a6 bf 4a 02 66 0e dd 49 ae 3f
       -0.04385075404300277 0.05915728379023173
0006e0 ed 7c f0 79 c1 d9 c1 bf ab a4 f3 c3 d7 50 d3 3f
       -0.13945787862846917 0.3018092549887778
0006f0 36 8c 05 0f 68 7c d4 bf 28 af 39 5b a8 fa ce 3f
       -0.3200931688972476 0.24202446417199863
000700 ab 11 d6 0e e3 89 be bf b1 32 e7 3f a8 34 ae 3f
       -0.11929148781025016 0.05899549274508809
000710 91 9e 58 16 30 ef a6 3f 10 90 0a 69 f7 0b b6 bf
       0.04479360840587988 -0.08612009348377136
000720 c5 61 5f 57 cc 1e b4 3f b5 d9 2c 56 4c 30 b7 bf
       0.07859494336242452 -0.0905807218922295
000730 a0 9c c8 32 fd 23 bb 3f ea d5 0b 37 20 88 c3 bf
       0.10601789941630324 -0.15259173095516526
000740 db 79 ed 4f ba 5e c1 3f 52 75 81 a8 ec 2f a9 bf
       0.13570336249081447 -0.049193759507697124
000750 b6 af 20 65 2d 0a ab 3f 63 cc 48 57 d0 24 b1 bf
       0.05281202182263149 -0.06696798449483903
000760 fe 66 8d da 98 0f ae 3f e2 4a aa 25 f0 03 a4 bf
       0.058712746313814165 -0.03909254512577377
000770 0b 99 1c 6e d2 a9 c0 3f 29 c0 26 45 3c 40 cc bf
       0.1301825559286914 -0.22071030975848885
000780 3a ca ab c6 d3 76 c7 3f be 7a 6a 5a 31 32 ba bf
       0.1833138198922642 -0.10232838113231943
000790 5d 3f 35 8f 36 d5 a7 3f c1 e9 40 af 3d 5a a3 bf
       0.04654856203217037 -0.03779785885167853
0007a0 7b c6 a3 42 34 33 96 bf a0 ed 20 00 ea 38 c0 3f
       -0.02167970329987277 0.12673687940865097
0007b0 b3 6e f1 fc aa 2c c0 bf 7e d3 c2 8e 8a e6 b4 3f
       -0.12636315680253105 0.08164278016449875
0007c0 74 4c b8 9d 47 b6 bf bf 95 b6 e6 c8 d0 82 c6 3f
       -0.12387511826118375 0.1758671742403989
0007d0 f8 c8 d7 3a 44 dd c7 bf 95 3c 02 4d 2a ed 97 bf
       -0.1864400183981798 -0.023365651083221712
0007e0 64 42 07 25 fb c3 ca 3f 4e 80 4e f6 6d 76 c1 bf
       0.20910586650872454 -0.13642668272678055
0007f0 49 6f 30 d8 0f 73 cb bf 10 f6 b6 3c 0d 88 d3 3f
       -0.21444891029465854 0.3051789372364917

encoder1.bias f8 [26]
000000 9c 31 1a 0e d0 1e c0 3f 3c 8c a6 5b 3a 96 9b bf
       0.1259403294428808 -0.02694026169195872
000010 46 78 bf 8c a6 99 aa bf b3 31 15 5a 07 29 80 3f
       -0.051953510934013056 0.007890756069763727
000020 e3 c8 57 3d a9 c0 bf 3f 8d c4 4a 94 35 f8 a4 bf
       0.12403352496747604 -0.040956186630304627
000030 e2 10 a4 f6 05 d7 b5 3f 2f 19 0e d2 53 f4 f2 bf
       0.08531224509721683 -1.1846502499843827
000040 6f 4e 37 0a fb ee e3 bf 0b 3c 63 b4 a6 fb 81 3f
       -0.6229224395305674 0.00878076780318617
000050 5c d3 f3 09 95 d8 d9 bf 8c 28 4b 36 4e bd c1 bf
       -0.40384412738722175 -0.13858964587263178
000060 f6 bf b3 25 b0 5f ad bf 35 35 23 c3 e4 4a a6 bf
       -0.05737066707831666 -0.04354014284181532
000070 7e 4f 83 d5 5a 23 a7 bf a5 67 21 c1 d2 52 a1 bf
       -0.0451916108737853 -0.0338350163226118
000080 1f 17 3b 29 1e bc b1 bf f9 cd 76 a3 c6 82 a4 bf
       -0.06927670008289198 -0.04006024117861879
000090 44 a3 2c 64 c9 08 f5 bf 98 e3 fe 4c 31 b2 b1 bf
       -1.3146451867161923 -0.06912525300766814
0000a0 33 24 52 f1 f7 e5 f3 bf 71 6b 73 f2 1a c7 83 bf
       -1.243644659671429 -0.009657106899273878
0000b0 f1 e2 8a 36 18 f0 ee bf 86 b7 98 e7 d9 ff a0 bf
       -0.9668084206851671 -0.03320198967081382
0000c0 e1 5e 43 ae 80 3a a1 bf 0f 9a eb 63 00 8d a5 bf
       -0.033649464866980734 -0.0420913812611624

encoder2.weight f8 [3, 26]
000000 12 26 d1 3b 19 7c e1 3f 9f 1e 49 71 29 8a d0 3f
       0.546398751096776 0.2584327322297017
000010 82 3b 25 7a 75 f7 d0 3f f6 98 13 2c 7b 0e d0 3f
       0.26510369232430986 0.2508838587222181
000020 0d e6 c5 39 0a d0 d1 3f a8 e3 2d df 6b 5a f9 3f
       0.2783227504911288 1.584575530809369
000030 ec 1e 6c 7a 4f c1 dd 3f 50 20 6f 65 0c e2 f1 3f
       0.46492373423869426 1.1176876032132164
000040 f4 6c 39 42 ea 13 ac 3f 73 e5 70 a7 09 2e e5 3f
       0.05483943994905785 0.6618698377925923
000050 da eb 90 99 f0 29 c2 3f 7f a5 70 d3 e7 de e1 3f
       0.14190490244240445 0.5584601525962823
000060 00 d7 ca 80 ee 70 d8 3f 67 2b c2 7f 9e a7 e9 3f
       0.3818928010690428 0.8017113204271994
000070 3f 5c 9c 25 46 b2 e1 3f df fb 92 89 52 74 f7 3f
       0.5530119642816159 1.465899026297613
000080 ec 10 72 10 3b 0b d6 3f cd 4c b9 79 c2 14 f4 3f
       0.34443546873104824 1.2550682787739789
000090 c9 93 06 03 e7 7b ee 3f f9 77 e4 a7 f2 f2 ef 3f
       0.9526248034568364 0.9984067229413532
0000a0 7e 17 5c b6 56 43 d1 bf 81 96 ba 0d 28 f2 e5 3f
       -0.2697350293022892 0.6858101146833208
0000b0 38 39 58 9f 5e 6d 98 3f 3c 20 71 e1 7d e7 da 3f
       0.023854711986183136 0.42037913337526667
0000c0 99 29 0f 54 6e b2 e8 3f ab 9e c9 e8 08 62 f8 3f
       0.7717811242849165 1.5239342778458347
0000d0 98 cb 5c 7a 68 6e ca 3f af e5 0b 02 07 34 c8 3f
       0.20649438833933398 0.1890877494804903
0000e0 14 35 68 92 ca 6a ca 3f f7 0a 8e 39 20 2a c4 3f
       0.20638401173383925 0.1575355797795834
0000f0 94 1f 98 63 0b 6e dd bf ce ed 60 f5 ce c8 e7 3f
       -0.45984158254622653 0.7432627480079022
000100 d6 19 ed 58 f5 5f dd 3f 51 7d 81 46 94 4e cf 3f
       0.4589818352145846 0.2445855469004337
000110 fe b6 41 98 59 65 ca 3f 97 ac 21 90 fa 41 d2 3f
       0.20621795591744524 0.2852770240339821
000120 fd af 89 d4 c9 73 96 bf 13 85 72 16 5f 75 ce 3f
       -0.021926072690277455 0.237956891975991
000130 30 65 c6 f5 c1 23 cc 3f 90 fe ee 01 f1 5f d6 3f
       0.21984123707515257 0.34960580052209256
000140 8a 78 ef 2a 94 71 d4 3f d6 27 e1 2c 2d 1b e5 3f
       0.31943229859269506 0.6595674397042284
000150 0b 34 06 2f 5d 52 cf 3f 5f fc 5f 6b 31 e9 e2 3f
       0.24470104976754245 0.5909659478346717
000160 ea ea aa 65 bf 51 ea 3f b8 60 a9 52 34 78 e0 3f
       0.8224789605804663 0.5146733870015145
000170 ba 83 a9 83 e0 96 01 40 16 f3 30 8b 4b f4 d1 3f
       2.198670414553331 0.28053558915034793
000180 b8 ef 4b 19 ec 95 de 3f 2f f6 1c 2b a2 28 d0 3f
       0.47790052862523735 0.25248007021204705
000190 15 7a 3f e1 75 83 da 3f f9 c0 a3 36 2b 79 e6 3f
       0.4142737102210117 0.7022911135846065
0001a0 83 81 d6 d8 7f 91 b9 3f 53 87 9f 75 83 64 ec 3f
       0.09987639469045999 0.8872697160079305
0001b0 61 2a 59 c0 a3 27 eb 3f 79 27 9d 59 a7 9e ea 3f
       0.8485888249209205 0.8318669080992854
0001c0 d2 a1 65 d2 9d 0d b9 3f 40 eb f5 45 22 00 e4 3f
       0.09786402117391127 0.62501634277519
0001d0 db 32 5d a1 c3 c4 b6 bf 18 02 a0 e3 b7 10 d5 bf
       -0.08893988313247851 -0.3291454050923064
0001e0 c3 3e da 09 5f aa f2 3f 45 18 1d 21 33 6b c2 3f
       1.1665945420135564 0.1438964759528877
0001f0 6a 28 ac 95 fe 7f ea 3f d8 74 b8 a5 1d cf b3 3f
       0.8281243251124242 0.07737908645545433
000200 2f b3 35 72 1b 15 ec 3f 80 58 95 7d 62 83 d2 3f
       0.877576563898037 0.2892690874481403
000210 43 8e d2 ee 91 ae ef 3f 13 bf 37 4e c9 62 e2 3f
       0.9900598206044794 0.5745588805857288
000220 63 ea 26 5c 2b 8e e8 3f 87 62 43 63 96 48 d7 3f
       0.7673546600193045 0.36380538648294486
000230 f3 85 d5 f5 fe e0 d6 bf 08 01 e7 dc 5c 21 ea 3f
       -0.3574826622699156 0.816572600793763
000240 1c 4e a3 40 e3 4a ce 3f 7b ad 0e fd 8d c1 c7 3f
       0.2366603913893507 0.18559431892695585
000250 93 c9 f2 71 32 1c f6 3f d5 77 58 0d 60 e9 e1 3f
       1.3818840457066457 0.5597381840377645
000260 2d 3a 87 38 fa 81 e1 3f df bc b4 7c c7 89 e4 3f
       0.5471163848940869 0.6418187556900213

encoder2.bias f8 [3]
000000 46 8c 28 57 42 d8 ec bf 57 81 d0 57 a0 4c 7d 3f
       -0.9013988210975945 0.007153154697363404
000010 05 0b ae 08 76 e4 dd bf
       -0.4670691571010795

decoder1.weight f8 [26, 3]
000000 5a 1d 73 ff e6 5f e9 3f fa 8f da 60 a2 b2 c9 3f
       0.7929568280459691 0.2007639859122035
000010 1a ea c1 f4 83 45 fa bf c8 9b 9a 5b b8 91 e6 3f
       -1.6419715462531088 0.705288103975243
000020 95 fc 34 18 53 84 f0 bf b1 45 72 a3 0e a7 61 3f
       -1.032305807646286 0.0021548543841809144
000030 bd 4b 36 84 1c b2 28 bf a0 75 e8 f0 a4 fc cd 3e
       -0.00018841360188712005 3.5747160673910004e-06
000040 ec 17 8a f8 72 94 c4 3e 8c d3 a0 e4 25 ce 64 bf
       2.4533127923080224e-06 -0.0025397052859496613
000050 9b c9 68 d1 9f 21 51 bf 96 bb 57 5f 86 f0 4a bf
       -0.0010456143114764063 -0.0008221298327820588
000060 7d 38 e2 3e 6f 50 df 3f c6 10 9d d6 1b 45 d7 bf
       0.48928433552726586 -0.36359306295731775
000070 03 09 d5 0d 96 e2 bc bf e4 74 07 5a e5 59 cd bf
       -0.11283243024539406 -0.22930590530351147
000080 4a f2 76 db 25 2b f6 bf 91 99 da 1b c9 03 e4 3f
       -1.385534150394181 0.6254621070882412
000090 fb 60 e2 6d 8d 90 da 3f a5 a4 63 a4 a9 a0 f4 bf
       0.41507278185737534 -1.2892242833570802
0000a0 50 00 a8 96 f4 b7 db 3f 59 dd d2 70 10 7b e4 3f
       0.43310274803662185 0.6400224879825301
0000b0 bc 6f 1d e4 a3 57 cb 3f dd eb fd 01 4f 6b e1 bf
       0.2136120666353899 -0.5443491972831641
0000c0 2b 61 1c e9 de 88 e1 bf 87 77 4e 7b b7 43 a8 3f
       -0.5479578545519294 0.0473916376133579
0000d0 ad e3 6a c1 6c ca ce 3f ad e3 23 b0 8e dd ea 3f
       0.24055251545158055 0.8395455780256406
0000e0 a6 72 c7 36 87 4b f3 bf dc 8c 15 36 84 d7 dd bf
       -1.205939496975739 -0.4662790802160097
0000f0 99 d3 dd ee ac fb ec bf 7e 8b 45 c3 c7 cf c9 bf
       -0.905722109352257 -0.20165345225094805
000100 28 99 65 04 80 bd e5 3f a6 d2 22 1c 29 2a c7 bf
       0.6793823324085553 -0.18097413896398
000110 e3 7c a3 3a d2 8e dd 3f 72 b9 5e c8 34 b6 a4 bf
       0.46184211470058595 -0.040452622851591694
000120 61 3d 87 a7 54 4a db bf d5 09 6f 7f 26 30 aa bf
       -0.4264117847460139 -0.051148608260991026
000130 03 f7 87 99 ba 72 e1 3f 0e 8a 9a 99 c6 45 73 bf
       0.5452549933104084 -0.0047052152455386975
000140 d4 58 0d b0 be 6b 71 3f 80 0a 6d b7 b3 41 71 bf
       0.004253144143907945 -0.004213048951728582
000150 ae 9e 8e 68 ac 2a a1 bf db 0b e0 c3 76 f6 96 3f
       -0.03352869774181265 0.022424560265800735
000160 c3 86 df e3 69 4e b1 bf 2b c9 5b 74 bb 49 d7 3f
       -0.06760274709042861 0.3638752590478755
000170 d3 02 9c 47 6a 82 e7 bf 4b f3 81 92 0e 2e c5 bf
       -0.7346698187467048 -0.16546804574673
000180 a4 41 f5 f4 af 26 de bf a4 eb 57 48 74 52 c2 bf
       -0.4711112873237886 -0.14314130337137698
000190 d2 5d 1b 03 25 10 da 3f 85 00 1f 5c 43 62 d0 3f
       0.4072353868809532 0.2559975051517614
0001a0 64 5d 71 7f 2d 62 bd 3f 6f 15 f7 6b 70 1c ee bf
       0.11477932320973633 -0.9409715756125204
0001b0 1c d6 36 a0 08 6b d6 3f 31 95 0d 24 2c 2e c9 bf
       0.3502828182784883 -0.1967215705910035
0001c0 42 02 da 0c b9 e7 e3 bf 52 d0 05 34 00 2d de 3f
       -0.6220364809997323 0.4714966304811742
0001d0 62 e5 19 5f ac 19 ea bf 79 00 ef 18 60 19 b3 bf
       -0.8156339509434185 -0.0746059475777673
0001e0 eb de 43 f3 fc b9 43 3f a1 c7 0b f5 7d 7a 58 bf
       0.000602005492082972 -0.0014940481234444263
0001f0 cf f2 1a 3f e8 51 53 bf 74 91 1c 04 df 56 a8 3f
       -0.001179196170070163 0.047537774326232546
000200 8e 89 60 01 46 b0 d5 3f 4a 73 5f 1d e1 6f e5 bf
       0.3388838780830604 -0.6699071477592977
000210 d7 45 16 65 30 0f 24 bf 51 08 54 6b 1e 79 38 bf
       -0.00015304055936531002 -0.00037343018205160833
000220 e0 2c 7d 33 0d cd b9 be 18 d9 3f 97 5b a8 e0 3f
       -1.5378584076904857e-06 0.5205514864053695
000230 e0 f4 43 fa 1a 3b ea bf a2 3f 97 0b 4c 8d c8 3f
       -0.8197150123593495 0.19181204381902456
000240 3b 11 b7 e9 fd 27 d8 3f 98 a6 d1 89 ab 79 ec bf
       0.37744090865841756 -0.8898523036743482
000250 e0 32 7c ad 42 07 b4 3f a7 bc 9d ef 10 b2 d0 3f
       0.07823578582265212 0.26086829566970454
000260 14 fa b5 ec 6b 66 ea bf a6 a0 57 65 cf eb bc 3f
       -0.8250026343592389 0.11297317718674779

decoder1.bias f8 [26]
000000 9a f8 39 eb 12 4d ca 3f 16 58 35 85 fe 6d d7 3f
       0.20547710881868825 0.3660885144103089
000010 c0 e3 b2 33 4b b1 f9 3e ef e8 44 8d 65 65 29 3f
       2.450232862536198e-05 0.0001937567200316968
000020 fa 9e ae da 42 f2 c7 3f 08 23 3e 0d ee a5 6d 3f
       0.18708072355115474 0.003619160599502517
000030 88 94 ae d5 12 35 d4 3f 4a 5c 51 90 3d 57 ad bf
       0.3157393538225013 -0.057306217066689216
000040 b2 a4 25 9a 80 1f a8 3f 92 70 78 e0 80 7b d9 3f
       0.047115343872812146 0.3981630508512889
000050 f4 1d 28 1d 24 b4 d9 bf 16 d2 58 f8 23 4d c4 bf
       -0.40161993834814713 -0.15860414148632235
000060 be 4c f7 df 98 a4 b9 3f 34 7a be 5f 95 7f 4a bf
       0.10016780345840723 -0.0008086661687121744
000070 2f 70 77 11 a1 f2 c4 3f da 46 9b 4f 16 a1 85 bf
       0.1636544547353664 -0.010561155609511475
000080 35 54 65 06 0c b0 c5 bf f3 07 21 2a 69 49 dd bf
       -0.1694350272397586 -0.45760563959277006
000090 b3 94 f6 63 60 9e b6 3f 7d c7 b8 c7 90 32 ce 3f
       0.08835413399227114 0.235918138046653
0000a0 30 09 a1 f3 7b c7 42 bf d1 e0 61 5c 03 3e cf 3f
       -0.0005730967743675982 0.24407999049049647
0000b0 eb 35 59 bb 22 b2 19 bf 07 55 2d a9 2c 9a e5 3f
       -9.80218599917132e-05 0.6750701240768259
0000c0 ac 7e 75 b4 1c 39 ce 3f d7 16 fd 6e 8d f7 85 3f
       0.23611792384598596 0.010726075124363117

decoder2.weight f8 [50, 26]
000000 58 e3 88 4f b9 de 86 bf 3d 89 d6 71 ad 8a a5 3f
       -0.011166999568659783 0.042073650499576655
000010 66 e6 ac 74 9b 08 e8 3e 06 52 ae 95 33 0b 3a 3f
       1.1460124047613095e-05 0.0003973961772143767
000020 9c e3 d5 c9 af e4 6b 3f c1 99 9a f8 df 86 be 3f
       0.003404944741018002 0.11924552745276797
000030 31 ed 7b 80 b4 53 b4 bf 7d ef a7 d7 62 36 98 3f
       -0.07940223824327998 0.023644966518971956
000040 64 9a fc 97 83 44 90 3f 1d 22 5d 5e c3 ba ae 3f
       0.015886360312970985 0.06001863982107045
000050 f5 5a 20 9e de 7d ac 3f 15 03 aa c8 8c ef ad bf
       0.055647808840310654 -0.05846824597847992
000060 aa 6f 5d 71 59 31 aa bf 5e b4 47 3c 0d b2 69 3f
       -0.05115775593614498 0.0031366594796425193
000070 ae 07 80 d1 4a a1 5c 3f 77 a4 95 47 a5 6f b5 3f
       0.0017474394462628595 0.08373482701940015
000080 94 dd 47 82 45 9c a0 3f a7 7e d3 93 6b 8f 9f bf
       0.03244225707379225 -0.030820542237846606
000090 8e a8 c2 d1 9f 10 84 bf 28 59 8d 3f 25 b0 59 bf
       -0.009797333325270576 -0.0015678752663084803
0000a0 ab 2e d1 15 f5 86 08 3f 24 a3 eb 8b 5c ba aa bf
       4.6781877906268886e-05 -0.052203075485357325
0000b0 46 c7 64 22 54 9c f0 3e 4f ae 30 4e f0 ae c9 3f
       1.5841158664992785e-05 0.20065120523337263
0000c0 10 ec df b5 19 d5 c2 bf e1 28 ca 02 42 26 be bf
       -0.14712830906486873 -0.11777126854045462
0000d0 3a f3 88 1f 6a 80 a6 3f fe da df 95 e9 a1 b6 bf
       0.04394847521732577 -0.0884080878166564
0000e0 37 0a cb 7c 02 62 e3 be 10 6c 0a ee 5b f4 37 bf
       -9.242463329233164e-06 -0.00036551708584803364
0000f0 16 93 f5 a1 70 ef 76 3f c9 53 78 3b 71 a2 c8 bf
       0.0055994415009521705 -0.19245734599885925
000100 9a 88 a3 78 51 f4 b1 3f 9e 57 fd a8 7f 60 99 bf
       0.07013425059588699 -0.02478217572146201
000110 2b 9c 59 51 96 a5 5f bf ef 88 6e 6b 09 6b b1 bf
       -0.0019315689036376686 -0.06803950188490025
000120 e4 80 1a c0 ce 0c 92 3f bb 37 3c fc 30 91 8c 3f
       0.01762698218829052 0.0139488055206377
000130 39 f3 b4 25 32 31 a4 3f fa 97 3e 2b 93 7b 6c bf
       0.039437834837804116 -0.0034768938439411175
000140 81 1e d7 78 51 72 7b 3f cf 5e af 91 c0 de b1 bf
       0.006700819254042424 -0.0698051791836136
000150 a8 86 45 a6 b0 79 88 3f b8 32 b7 ee d6 5e 7c bf
       0.011950855325895418 -0.00692638357163549
000160 27 1a 13 ef de 02 56 3f 8c a2 7d ab 80 d7 82 bf
       0.0013434578980181606 -0.009200101121409142
000170 15 2e f0 bd 9b 92 0c 3f f5 67 99 ee 76 dc b6 3f
       5.449807917309535e-05 0.0893015224950487
000180 88 00 88 48 68 27 fa 3e 55 e1 9e 54 88 17 c5 bf
       2.494233607031095e-05 -0.16478065616480345
000190 45 75 6c cb f4 1e bc 3f 3f 54 91 c8 7b e0 bc 3f
       0.10984735456846291 0.11280034681961214
0001a0 52 25 47 f2 59 17 b3 bf a0 0d 8c 2b 75 de c1 3f
       -0.07457506337154499 0.13960137010881812
0001b0 89 c6 fb de 49 87 d2 3e b8 96 1d 64 85 88 2a 3f
       4.4175317126402285e-06 0.0002024329024223248
0001c0 41 44 d1 18 49 de 79 bf ec 4b 20 1b ec 32 cd 3f
       -0.006315503630575371 0.22811652493018586
0001d0 f9 64 b3 89 a2 cd b3 bf a3 ba 69 7b 4d 22 93 3f
       -0.07735648977122257 0.01868554178002547
0001e0 0b 90 04 f7 e4 6d 45 bf fc 78 17 34 26 b2 b2 3f
       -0.0006539695732823437 0.07303084155816814
0001f0 be 28 f3 94 5e 39 b9 bf 37 23 c4 5f 1b bc a3 3f
       -0.0985316384932586 0.038544516983228076
000200 64 03 3c 6a 1b 52 83 bf 8e e2 2e 76 3b c0 69 3f
       -0.009433950595395486 0.0031434213028343544
000210 f5 2b ca 0d e9 6d 90 bf 57 2e 8f b8 c8 72 aa 3f
       -0.016044274775179408 0.05165698292657044
000220 33 08 cf f6 e2 5a ae bf 3d 3c 18 a7 96 f5 aa 3f
       -0.059287159564988555 0.05265494146089409
000230 dd f2 e9 30 41 7f 73 bf 2a 24 b6 58 4d 03 9a 3f
       -0.004760031368843368 0.02540322164489709
000240 3e ac 8b 3e 21 c4 2e bf c0 f8 b7 8e fa 31 c1 bf
       -0.0002347269612735531 -0.13433773010905803
000250 86 29 27 ca 3c 9e 10 bf c1 d2 d7 65 74 25 bc 3f
       -6.33930781425482e-05 0.10994651304629156
000260 f8 19 a9 bc 41 8b a9 bf a4 f1 1f dd f8 d3 b4 bf
       -0.049890569953777886 -0.08135943792871686
000270 4c f5 9d c7 ee 03 bc 3f 93 f7 60 7a f4 70 c7 bf
       0.10943500874960427 -0.18313461280370955
000280 7a 45 c1 fd af 6f c1 be f3 c1 cc b4 d4 a0 14 bf
       -2.078566451437541e-06 -7.869051223675215e-05
000290 0e f7 dc 50 35 e9 67 3f 1b 44 ed 72 43 78 ca bf
       0.002918819553911051 -0.20679514991437106
0002a0 a3 84 00 90 59 49 b9 3f 1b 49 09 78 d3 5b 8a bf
       0.09877547994303142 -0.01287045679160719
0002b0 03 8c 1e d0 2d cf 82 bf 48 fd 77 dd 80 81 b4 bf
       -0.009184225000188567 -0.0801010647482957
0002c0 c1 9d 97 75 35 ed c4 3f 6c e0 91 74 1e a2 b5 bf
       0.16348903886613012 -0.08450498910849696
0002d0 a9 1e 6d ac 62 9b a0 bf a2 8f b8 f9 d0 42 5d bf
       -0.03243549685299502 -0.0017859497810457166
0002e0 20 eb b1 52 52 12 99 3f 56 7e d7 7b 68 fb a0 bf
       0.024483953759481314 -0.03316809188595175
0002f0 40 79 37 c7 1e 57 b8 3f ce b5 10 4e 78 0d ba bf
       0.09507934917153182 -0.10176803499117357
000300 87 d8 f6 b3 eb 32 90 3f f9 08 62 26 a3 3e a9 bf
       0.015819247111459347 -0.0493060097078501
000310 90 5a bc 2e 29 67 36 3f ca 93 db eb 00 27 c6 3f
       0.0003418422263491783 0.1730652953766863
000320 18 7a ba 7c 4f 57 12 3f 77 15 f4 9b 19 c7 a8 bf
       6.996557857028745e-05 -0.04839401272514981
000330 59 46 58 29 8e 22 97 bf 5a ed 37 b8 f2 48 a1 3f
       -0.02259275557850624 0.033759675014119764
000340 71 e5 0f b7 97 67 c3 bf 7f 21 f8 f5 ec 6a c9 3f
       -0.15159889639452787 0.19857561121194675
000350 d7 b8 ea e7 48 b0 b2 3e ea 27 bd 42 1e 1c ff be
       1.1139281067929223e-06 -2.966865228807423e-05
000360 da 6b 57 f9 49 cc 51 3f 1f 58 81 14 80 70 be 3f
       0.00108630394003372 0.11890411854378201
000370 60 4f 01 2e a7 a7 be bf 40 c3 6f 7b ae 14 8e 3f
       -0.11974568246051609 0.014687884466157208
000380 dc 89 4c b3 35 57 9d 3f b6 ac 04 ca 11 10 b8 3f
       0.028652991360226795 0.09399520094000277
000390 3e 2d fb a0 eb 1c c8 bf 98 9a 21 ec 18 83 bc 3f
       -0.1883825813332382 0.11137538685725656
0003a0 5a c7 71 db b5 6c b2 3f 81 fe bb 53 5f e4 51 3f
       0.07197128875284645 0.0010920458725535433
0003b0 cf 60 39 03 94 fa 9f bf 86 17 b7 8b 34 cb 96 3f
       -0.031229317375932205 0.022259541537799098
0003c0 7b 47 5f 73 e5 51 bb bf 53 91 7b 51 6d 1f c3 3f
       -0.10671838823989603 0.1493965766777686
0003d0 30 d8 13 b8 fa 83 9f bf 11 a0 5f db 88 e1 b4 3f
       -0.030776898846817058 0.08156638484763358
0003e0 83 7c d4 1c 8f cf 34 bf c2 ab 95 3c 22 6e c8 bf
       -0.00031754726372130326 -0.1908610149215218
0003f0 96 64 95 72 6a 72 14 bf 17 db d7 b1 76 a2 82 bf
       -7.799887375394202e-05 -0.009098937322944018
000400 02 40 5c 79 7e 85 b8 3f 2b 99 1a 5b 5f cf 94 3f
       0.095786957386963 0.02032231324724269
000410 42 ea e1 34 d5 c3 c9 3f bd 21 35 40 ba 3b c6 bf
       0.20128884393837337 -0.1736977399362
000420 94 bd e9 43 ed e7 97 3e 9f 9f 10 3a 9e 85 1b 3f
       3.5622662500949163e-07 0.0001049878906235189
000430 bd d4 f1 2c 05 3d 6f 3f 43 b0 c4 db 90 ad 98 3f
       0.0038132763943915225 0.02409960118636457
000440 34 35 72 c1 e1 db be 3f 07 bc e0 73 2a f9 9e bf
       0.1205426308899476 -0.030247367212890477
000450 80 6b dd 9a 3b bf a9 bf c5 7f cd 0b 58 59 be bf
       -0.05028711572113931 -0.11855078018334016
000460 ef a0 ea 61 41 24 c4 3f ed b6 8e 4e 4b d2 bc bf
       0.1573564270122527 -0.11258383434207149
000470 6a a8 9b 9c 0a bd b7 bf cf 83 ac 48 36 4c 45 bf
       -0.09272829364241067 -0.000649954324533403
000480 30 9d 25 cf ec a9 a2 3f d1 86 04 69 18 7c 97 bf
       0.03645267513894124 -0.022934323701639784
000490 d6 5d fe bf 2a 68 b6 3f 91 c0 f9 51 8e 31 c8 bf
       0.08752696215957853 -0.1890123272201021
0004a0 e9 17 7a 82 04 2c a5 3f a0 04 7a d6 43 f6 be bf
       0.04135145275817804 -0.12094520555730748
0004b0 84 22 a2 84 dd 7c 25 3f 36 43 e1 5c f6 e3 c6 3f
       0.0001639385612331076 0.1788318589701931
0004c0 c7 ba 8a 14 d3 d2 15 3f d1 43 d8 3b 24 0f ab 3f
       8.32501729159759e-05 0.05284989576842459
0004d0 65 22 e3 00 0a be c3 bf 41 2e da 0e a1 61 b0 bf
       -0.1542370323498005 -0.06398970234493452
0004e0 17 0e b5 ec 96 76 d0 bf 53 a1 f7 e2 55 7b bb 3f
       -0.25723813167516724 0.1073507002944372
0004f0 9c a4 ca fe 8f 7e df be 1a c2 97 4b 51 92 24 bf
       -7.508846448325446e-06 -0.00015694849371029955
000500 82 21 76 01 ed 61 96 bf cd c3 78 85 50 1c c8 bf
       -0.021857932295036082 -0.18836409108328525
000510 71 3d 9a ce 27 74 b6 bf 54 bc f6 e3 22 b8 af 3f
       -0.0877098922157893 0.06195172341119162
000520 3e 1a 2c 0d de 6f b1 3f be c6 e6 e1 aa dc c3 3f
       0.068113210883987 0.155171737960293
000530 fc 08 c4 4c fd e0 b2 bf 07 7d f4 1b 0b b4 b6 3f
       -0.07374556659854997 0.0886847441911308
000540 42 3b 5d 41 b2 47 b5 3f 60 03 1e ec 29 41 2d 3f
       0.08312524886899289 0.00022319447276333403
000550 bf 34 89 9e 8f b5 a2 bf a9 72 4d 8b 3f 82 a3 3f
       -0.03654145059827262 0.03810309005232188
000560 8a 66 4e 36 e1 e8 a4 bf 27 16 7f ca 3a 63 cb 3f
       -0.04083923137586705 0.21396574866791804
000570 50 09 19 39 3d 27 a5 bf 94 56 c1 80 82 29 c4 3f
       -0.04131499597544297 0.1575167778670915
000580 99 28 d8 bd 3a 0f f5 3e 7a 3f a8 ed 4c 3c c1 bf
       2.0083894801494436e-05 -0.1346527252612722
000590 32 35 53 65 c1 bb 11 bf 22 6a db 40 20 31 b3 bf
       -6.76476277760754e-05 -0.0749683531134129
0005a0 7b 7f be 9f 94 36 c7 3f c0 82 be 27 ab 1c b5 3f
       0.181353166580262 0.0824686977416702
0005b0 c0 9b 41 9b 64 43 d4 3f 60 57 ac e9 59 b1 82 bf
       0.3166133419203412 -0.009127333110466374
0005c0 3f a0 05 3b d0 88 ed 3e 6a 04 c9 e3 b6 5b 22 3f
       1.4083112404875249e-05 0.00014006240407307978
0005d0 f8 48 da 24 1a 49 aa 3f b1 ae da 98 4f 2c d5 3f
       0.05133897495137946 0.33082952429934226
0005e0 f0 20 ff 8c d8 ea 8f 3f 18 be db e3 23 ab bb bf
       0.015584651759028095 -0.10808014214466544
0005f0 32 d3 0c 88 51 97 b3 bf 74 e0 ec aa 01 f5 c9 bf
       -0.0765276868012961 -0.20278950544320973
000600 3a 1f 01 7d 93 59 a5 bf a4 ce 88 4f 00 9f a7 bf
       -0.041699036607097686 -0.04613495798949188
000610 a4 92 4c 00 78 8b a5 bf b6 31 71 df d0 36 54 3f
       -0.04207968715335156 0.0012337722562448645
000620 f7 20 6b f1 c8 74 9e 3f c3 89 16 f8 95 4d b1 bf
       0.02974237416745581 -0.06759011561238197
000630 a8 e7 b0 cb 91 eb 96 bf 14 66 c5 d5 75 75 cc bf
       -0.022383001382173667 -0.22233460367242286
000640 56 18 ab 07 7f a4 a0 3f 98 af b5 3e a0 4d c7 bf
       0.032505006490780516 -0.1820564562034377
000650 ad 5e 86 2e 43 19 1e bf d9 1e c3 e4 1a c2 af 3f
       -0.00011481735749041084 0.062027779030868486
000660 ac fa 59 17 a3 17 f1 3e f3 23 2b f9 29 11 b4 3f
       1.6300518345331125e-05 0.07838690121856455
000670 7c 1b 69 70 98 b9 c5 bf c7 1f 30 30 dc cc b0 bf
       -0.16972642411039007 -0.06562591721024012
000680 d4 90 75 b6 84 dd d7 bf f8 61 1f e6 03 9b ba bf
       -0.37289541071210164 -0.10392784469821226
000690 6a c9 96 8b 18 7a f6 be 37 4f e3 92 21 7b 19 bf
       -2.1435677558031946e-05 -9.720222871872635e-05
0006a0 ff 0c 25 e8 3f 73 b6 bf c3 e1 8c 6c c8 8d da bf
       -0.08769606988521515 -0.41490374184243367
0006b0 7d 51 3d 99 e4 e6 b6 3f 87 10 da bd 83 ba c4 3f
       0.08946064702224095 0.16194197435482158
0006c0 62 3e 11 99 12 23 b1 3f a0 a7 8c ad c8 21 d0 3f
       0.06694141613956497 0.25206200550257485
0006d0 bc c1 ec 6b af 8d c4 3f 7a 8a 0b 1e c4 f9 59 bf
       0.1605738903977122 -0.0015854277809742843
0006e0 67 9c b5 d0 92 e1 97 bf 75 fc 3e bb 21 ec 5e bf
       -0.023321432102786945 -0.0018873528870100552
0006f0 bc 4e 96 fd ad b4 90 bf 52 77 a3 12 2c cb b9 3f
       -0.016314238169413228 0.10075641112368075
000700 0b 6a 51 45 ff 5c b6 3f 66 89 9e f0 7b cc cb 3f
       0.08735652391752795 0.2171778607272003
000710 6e c7 e4 31 6f cb 84 bf ef b0 c7 c5 e0 f6 c7 3f
       -0.010153645239004052 0.18722161919811905
000720 9d 7f 6c c9 7f a0 30 3f 41 05 44 f9 a9 1b 9b 3f
       0.00025370712084970567 0.02647271713158728
000730 d9 78 79 ed 75 89 d8 3e 92 ab bd 31 f0 27 b2 bf
       5.850066109395872e-06 -0.07092190946938917
000740 c7 e8 d4 1e b5 5c c0 3f d2 f1 91 b5 05 67 95 3f
       0.12782920842602705 0.020900811392935932
000750 66 f4 4f 5b 74 6a da 3f 84 1b 50 a7 be 02 cb 3f
       0.4127474681589035 0.2110212628324143
000760 35 f9 a2 5e 82 76 f0 3e dd e4 82 79 9a 8c 12 bf
       1.5700270446166945e-05 -7.07597049566413e-05
000770 68 81 db 83 c3 00 c0 3f 1c 85 dd e9 c7 c5 da 3f
       0.1250233072123692 0.418321588882536
000780 5e 23 ce 1e b9 57 cb bf 73 f7 6a 25 9b f7 ca bf
       -0.21361459736024363 -0.2106813366607941
000790 e0 e7 3b eb 81 68 a3 bf 7d 15 b1 ce d2 90 d2 bf
       -0.03790670391568063 -0.2900893228982893
0007a0 06 4e 34 14 0b 3d d0 bf ed 84 1e 89 72 bf a3 3f
       -0.2537257859523553 0.03857000278299858
0007b0 0e e7 45 0d 21 fc b9 3f ad 7a b5 bd 0c 44 61 3f
       0.10150343488740196 0.0021076439713135415
0007c0 12 3f 68 a2 3f a6 5d 3f c8 52 0d 62 ba c2 c0 bf
       0.001809656279537057 -0.13094262874314766
0007d0 01 a9 cc 94 6e bb c1 bf 1d 83 81 11 63 e3 c9 bf
       -0.1385324694213708 -0.20225180010586366
0007e0 03 5d f8 a8 8c 10 96 bf 2f a1 7d 84 70 75 c5 bf
       -0.021547506154175455 -0.16764646977686357
0007f0 89 81 67 d4 3d 41 3f bf 2c 66 65 7e 97 6f bc bf
       -0.0004769111586977672 -0.11107775531618164

decoder2.bias f8 [50]
000000 76 90 c4 5d 74 64 be bf a2 80 b7 11 ed b0 bb 3f
       -0.118720314877068 0.10816842730082724
000010 38 2d 90 75 f9 c4 b5 bf 80 22 d0 4a 3e aa ac 3f
       -0.08503684158511227 0.055986353523683086
000020 ea 70 39 24 26 73 99 bf 9d 77 f6 75 a6 04 67 bf
       -0.02485332103820862 -0.002809834593519646
000030 23 f5 f3 32 94 14 97 3f f8 18 4a 37 b8 4a a0 bf
       0.022539439783021763 -0.031820065259170194
000040 29 d4 3f c5 e1 81 a1 3f a3 83 6a 36 cf 38 a2 bf
       0.03419404537991284 -0.035589671509348685
000050 3c c9 55 3a db 9e a4 3f be b7 9e 4c 3d 87 aa bf
       0.04027447783564006 -0.05181304512312533
000060 ad 78 c0 ac 07 5c b2 3f b5 0a af 6e bf 78 b9 bf
       0.07171676604818585 -0.09949871494522251
000070 10 bc 87 70 69 8b c0 3f 03 51 d8 7c 87 95 c3 bf
       0.12925451273574184 -0.15300077053019132
000080 9e ab d6 ba da 20 c5 3f aa e4 8e 2b 82 6c c4 bf
       0.16506513712860466 -0.1595614159284982
000090 38 94 23 78 ce 2d c1 3f 50 29 76 19 9d b3 b6 bf
       0.13421040407334472 -0.08867818709965047
0000a0 cd 94 d4 17 d9 04 9e 3f 28 a3 f3 80 3b c6 a1 3f
       0.029315368728153147 0.034715518466163
0000b0 89 82 a4 e8 c5 9f b7 bf 97 e5 a5 a0 2f 56 c1 3f
       -0.09228169374228846 0.13544268936292944
0000c0 c3 c9 e1 f3 bc 39 c4 bf ed 27 8b db 31 49 c4 3f
       -0.15801202686595958 0.15848372669125813
0000d0 1e 8a 58 b7 47 d6 c1 bf 77 29 f7 40 8a cc bb 3f
       -0.13935181095537613 0.1085897835356827
0000e0 2e 1a 64 29 61 ec b2 bf 22 ce a2 61 79 bd a6 3f
       -0.07391936550639208 0.044414323013736615
0000f0 ec 2c 4f 5e 84 19 98 bf f3 03 cb 04 e7 78 8f 3f
       -0.023534839874440758 0.015367321809550893
000100 8e a4 c7 a4 af ea 93 bf ff 5a 8d 30 6e 5e 9e 3f
       -0.01944994395481508 0.029657098496808306
000110 f1 b1 b0 c1 e8 29 a2 bf 78 30 9c 07 48 99 a0 3f
       -0.03547599186308393 0.0324194440164271
000120 71 4b 60 85 00 af 90 bf 73 23 2c 11 ca 45 89 bf
       -0.016292579784998155 -0.012340143822727722
000130 af 10 f7 83 6f 88 aa 3f b0 b4 a3 f0 b2 01 b8 bf
       0.051822171076794425 -0.09377592444407656
000140 30 ab 00 81 b0 6f c0 3f 3d a4 d4 52 2a ed c2 bf
       0.12840849207835836 -0.14786271137680443
000150 b6 6b f9 a4 8f 32 c3 3f 84 a0 00 84 60 dd c0 bf
       0.14998050265680057 -0.13175589032585233
000160 04 cc 4d 34 31 48 b9 3f 02 41 12 ea cc eb ab bf
       0.09875781561804337 -0.05453338963809708
000170 56 f1 88 30 04 92 87 3f d4 24 e2 18 46 23 99 3f
       0.01150897286526546 0.024548621433983467
000180 d6 bb 8c b5 ed e5 a8 bf 8a 13 53 d3 d2 2f af 3f
       -0.04862921563323368 0.06091173963208181

classifier1.weight f8 [3, 3]
000000 15 5a 18 81 01 ec fd 3f 76 2c bb 83 b8 92 d3 3f
       1.8701186220911314 0.3058301245152458
000010 34 10 6f c0 92 ae f2 bf c3 1d 50 14 b1 c1 d1 3f
       -1.1676204220721162 0.2774470041626637
000020 05 3c d7 33 a5 2a c1 bf b2 ec 83 d4 ce ac fd 3f
       -0.13411393195426072 1.8546894360904784
000030 0d 77 41 e6 b9 74 fc 3f 40 f5 7f 47 52 d2 d0 3f
       1.7784976000179455 0.26283699972539765
000040 91 66 ed 72 09 9d c3 bf
       -0.15322988616644698

classifier1.bias f8 [3]
000000 6e 8d 31 7c b8 5a 47 3f be 59 31 86 e9 98 f7 bf
       0.0007127190405182124 -1.4748320810227677
000010 e1 94 6c 3d 44 51 f6 bf
       -1.3948404693012935

classifier2.weight f8 [4, 3]
000000 dd a7 26 02 3f b1 fd bf 41 8e 97 18 a7 51 ec 3f
       -1.855772980120029 0.8849673729241162
000010 b9 17 f0 ff 71 5b 00 c0 f5 fb 53 ac c9 c5 d7 3f
       -2.0446510310311763 0.371447008408665
000020 1c 1f 10 4d fd 90 fa bf cf be 20 b3 f4 1a e3 3f
       -1.6603978166840028 0.597040510043337
000030 0b 18 58 03 d3 77 f5 bf 6f 61 a6 ce 9e 9f f0 3f
       -1.3417539721135678 1.03896980974795
000040 09 18 77 de bb 25 c3 3f ff 41 a1 da b4 89 d5 3f
       0.1495890461212073 0.336529935365462
000050 0f 53 ab ce a2 89 d9 bf 57 06 a5 97 72 3b ed 3f
       -0.39902563269178953 0.9135067903336659

classifier2.bias f8 [4]
000000 d6 a1 f4 93 b6 91 06 40 32 cc 05 e2 0f 6c fc 3f
       2.821149021056253 1.7763823346147203
000010 50 d4 d0 02 b9 16 fb bf 85 d9 d1 27 19 43 06 c0
       -1.6930475339879827 -2.7827628241458933

predictor1.weight f8 [2, 3]
000000 b1 6c e1 0c 9f 1a 53 3f 4b 8d 7a bc 27 0b 9b bf
       0.001166014978955226 -0.02640974128611377
000010 b4 68 ea 4c 93 61 88 bf a2 66 e6 bc 5a cb 9c 3f
       -0.011904860291270893 0.028119485644856675
000020 53 d5 cb d5 73 c5 b1 bf 4c e3 78 ea 14 8c 9c bf
       -0.06941913575777407 -0.027878119288490752

predictor1.bias f8 [2]
000000 76 82 07 6f 39 5e 66 bf 94 f1 e0 17 19 4a 93 3f
       -0.002730476546489331 0.018837349016608565

predictor2.weight f8 [1, 2]
000000 b9 ee 3a 0b ea 34 92 bf 7e d2 07 b2 bb a2 a8 bf
       -0.017779976783215832 -0.048116555673833425

predictor2.bias f8 [1]
000000 d6 0e 7f a8 41 5e 3f bf
       -0.00047864058478473465
