Trained_models/4/predictor4_200_6.pth (torch, 348311 bytes, 16 tensors)

encoder1.weight f8 [103, 200]
-0.16685479853092042 0.18021558946815938 -0.1525856156140575 0.14192985972099345 -0.10591933276297828 0.06352479815894622 -0.061515679113688645 0.06239516221854085
-0.10537457218104494 0.11725499057678944 -0.1786000379728553 0.15095488168673643 -0.0752914012201836 0.005028133872624146 0.061447050813372275 -0.10416891110852475
0.09357723256335641 -0.013812440233054479 -0.08261668318512676 0.11990086713701847 -0.10363145268548629 0.03322881381638519 0.06613447592361534 -0.07811913061598601
0.015842733550466892 0.061437522166251375 -0.11379917713872811 0.13888653771834697 -0.11723970104183369 0.09698057180481862 -0.05409371508224535 0.024838234761641508
-0.01587164720022116 0.04423380558344933 -0.04820443656273361 0.049702512810090964 -0.04372902576589681 -0.040857503914834455 0.11831841804906663 -0.14114322242437163
0.12012692764380203 -0.09901174085283074 0.06298718311550995 -0.03775787646717942 0.0723457625333567 -0.09727305626901685 0.12770677363423594 -0.0768656240066122
0.038553649781431006 0.00690364904924685 -0.07405293239737566 0.07618643900527952 -0.02458992059885333 -0.0316543216982424 0.004137979418450419 0.02579751843620933
-0.0841360422202368 0.16819021615978016 -0.1905097700252002 0.20128037570578836 -0.13740364600704955 0.07499630480098439 0.0021634000716752085 -0.01583048977200767
-0.03084866967906067 0.10043923976314156 -0.13231575403063386 0.10031131807726393 -0.027491250705963154 -0.04844752230361094 0.07406731106950853 -0.08139491072601067
0.05111279451622638 -0.03784245274813125 0.027883802982602693 -0.023505757824606545 0.013482760297829138 -0.03995950737914143 0.0846270337539856 -0.09938886236734694
0.1170378772387763 -0.15076634368132724 0.12937245843188114 -0.1053340864570831 0.06411323986155872 -0.017178591292004285 -0.003649641699832929 -0.03189145688356011
0.05990095794414011 -0.057771444265956845 0.075714425595678 -0.05440975523804827 0.01936691049137307 0.026095491787324065 -0.05587859722403063 0.05253835876072756
0.0050268864285930815 -0.05998926303020867 0.08130896711074322 -0.06378725677006318 0.00562437510190649 0.03813073642676681 -0.07753829409205319 0.0656034574378478
-0.030103257448754847 0.00860093726306439 0.047617565804361155 -0.030843678970726006 0.002894029612995309 0.054627335832368396 -0.06522598768745401 0.05507722750927431
-0.044705925241625935 0.023549506531412412 -0.00669746220296502 0.015125861274152504 -0.003502822361785643 0.005771445191700466 -0.014906673520355124 0.056405066438497124
-0.07651891008002491 0.04007154230747254 0.017169420391781605 -0.012845027421158568 0.014330529530624463 -0.006223589705160929 0.010971895770840087 -0.007505704613615616
0.016550568374049567 -0.04984799879914726 0.06273123823193132 -0.09174937607113193 0.08675029032100565 -0.05585659842818867 0.052208697499290885 -0.05830105155634432
0.026784099100751513 -0.005811084977252081 -0.01472676613888434 0.03669177437803571 -0.045878962015464604 0.016336209508176998 -0.03126876728606699 0.02236367017105436
-0.03031683143530987 0.0448354380398881 -0.0783554617123302 0.09912327540310992 -0.10172529818828913 0.09004071251635616 -0.07233465079012422 0.07759866416016338
-0.09061994683959326 0.10703670235482649 -0.12252234214425128 0.11887393685231547 -0.09131599489742942 0.059093212095270756 -0.05107622974304493 0.038305955083291425
-0.0006050881856164042 0.0007346217276269588 0.040635655141691526 -0.057131834707636824 0.05024936195183423 -0.03907441985782261 0.038303892172535325 -0.04058336913206415
0.026485597693546446 -0.07626256796039926 0.08918679518951685 -0.0903732526424325 0.04874005028334854 -0.038126000512413376 0.006582758176508736 0.018991613112544985
-0.04157021397929353 0.03517296305246227 0.02371002359204493 -0.043246906142064646 0.015766149089230515 0.0005314190061407925 -0.03789037756592942 0.07150423210359338
-0.05861083362175768 0.027155993799416293 0.01065716392211956 -0.04334155107331599 0.05210051093886692 -0.016056439510040838 -0.016893189570666975 0.023527937053713432
0.014547047055912301 -0.029268035619011937 0.025418747737513292 -0.01653854838277092 -0.0019751227968992204 0.016747638344227704 -0.013046502244474891 -0.05799440474854873
-0.18291473808716244 0.028172375404974324 0.10232915381701478 -0.1590014140585108 0.1018908308127143 -0.0892354821707176 0.04518732417022691 -0.03282724656910049
-0.013372016762719334 0.03846374369685463 -0.06398765815407018 0.027162636141749383 -0.033296090756926223 0.027496251864645514 -0.032708659414410715 0.046661138511798726
-0.039711286554948405 0.030890535238975295 -0.0007428319471351415 -0.05812250332794385 0.05992563503332453 -0.07974971405343095 0.0857897855663521 -0.1037096396048696
0.05246134548346692 0.011822939754921862 -0.07284227812229643 0.16087020581822536 -0.17660351279934253 0.15409710315972078 -0.08465543876389653 -0.025366637867729743
0.11131864534754897 -0.1461277552129865 0.15553958291630582 -0.13749455964925958 0.11143132350298815 -0.032796938505790976 -0.06942923407286863 0.10835769499048381
-0.12873435915932324 0.10223128268308027 -0.09044103427712068 0.05488886017615693 0.0242163268444508 -0.04241198778470965 0.04563813831135629 -0.08764116410823893
0.08366148743896087 -0.06340845798409946 0.0015018231980443821 0.03877625924306753 -0.058245646222959385 0.07091565507193424 -0.07487135434142898 0.040593346180202376
00000000: 037c 6f7f 7f5b c5bf a75f 7fef 4d11 c73f
00000010: f981 73ea ec87 c3bf a7ec e9f4 c12a c23f
00000020: 892b 3b86 871d bbbf 83e2 9342 2943 b03f
00000030: 6613 f8ab fb7e afbf c782 503a 42f2 af3f
00000040: f7fa 58f5 d3f9 babf fff1 d14d 6c04 be3f
00000050: dd31 14b5 5ddc c6bf fc0e 0254 7d52 c33f
00000060: d623 e919 4c46 b3bf 136f af68 6198 743f
00000070: eab0 5be3 fc75 af3f 6696 7852 d0aa babf
00000080: 6382 8271 adf4 b73f b3a2 a158 b249 8cbf
00000090: 3355 62f0 5d26 b5bf bc93 1dbf d2b1 be3f
000000a0: b402 1f44 9787 babf 7ea3 40f9 5d03 a13f
000000b0: 11e3 3a63 30ee b03f 5b07 3087 9dff b3bf
000000c0: 30fb e9d9 1339 903f 0914 e728 bd74 af3f
000000d0: 505f 1f60 f121 bdbf ae6f adb8 08c7 c13f
000000e0: 697a c4c9 6b03 bebf 6cc3 3f00 b8d3 b83f
000000f0: be0f 65e2 2bb2 abbf 666b f7b7 316f 993f
00000100: 0068 a236 a840 90bf 2c92 b738 d0a5 a63f
00000110: 7a3b 1e7d 40ae a8bf dfc2 1896 9b72 a93f
00000120: f6d6 199f a663 a6bf 2187 3856 46eb a4bf
00000130: b102 09a8 1d4a be3f 79af 2e2a fb10 c2bf
00000140: d65d 9969 a3c0 be3f 0a08 e25c d558 b9bf
00000150: fd5b 8c93 ed1f b03f 4f96 2f19 0055 a3bf
00000160: 3abf 157c 4085 b23f d917 7513 e3e6 b8bf
00000170: ca4c 1e10 b258 c03f 3687 4b2d 77ad b3bf
00000180: 29c6 e7d1 4dbd a33f cbb4 3b2e 0047 7c3f
00000190: 19d3 d10a 22f5 b2bf de26 ed57 f480 b33f
000001a0: 7c1c 22a3 192e 99bf c928 f1c8 fe34 a0bf
000001b0: 1758 6164 fcf2 703f f682 0128 aa6a 9a3f
000001c0: ec33 c08d f089 b5bf 29eb f4ca 4187 c53f
000001d0: d4d1 e9c7 9f62 c8bf 6fd1 7d2b 8ec3 c93f
000001e0: bfc8 f952 7196 c1bf 57ea 7034 f532 b33f
000001f0: 8cd3 ca91 fab8 613f 8cd8 662f de35 90bf
00000200: 4a31 962d cb96 9fbf 448e 04d2 62b6 b93f
00000210: c750 27fe b8ef c0bf 127d 8fa6 00ae b93f
00000220: 233f d59a aa26 9cbf c183 bb17 1dce a8bf
00000230: d406 bf46 13f6 b23f c709 a1ff 4bd6 b4bf
00000240: bb6e b5c9 742b aa3f b044 e801 1660 a3bf
00000250: 74f2 9757 928d 9c3f ca5d 7fb4 e411 98bf
00000260: 83d6 4f74 d99c 8b3f 3e22 b792 9275 a4bf
00000270: ffb2 5406 1eaa b53f 9353 7469 8c71 b9bf
00000280: 2d41 22bf 31f6 bd3f 2c72 b9c1 4f4c c3bf
00000290: 07e9 fbd6 468f c03f b1b9 7cb8 2cf7 babf
000002a0: f12c 72ac b969 b03f 237b 29bf 4397 91bf
000002b0: ced6 c577 dae5 6dbf f261 acb8 1354 a0bf
000002c0: a501 bd9e 56ab ae3f 54aa 87ff 3794 adbf
000002d0: 29d4 c445 0562 b33f 435c a96e 98db abbf
000002e0: 6072 bd5c ebd4 933f a0c8 32cf c6b8 9a3f
000002f0: 4c44 3f97 1e9c acbf c25f 53c9 4ee6 aa3f
00000300: 9bf5 fb8c 1297 743f ceda a6a5 e9b6 aebf
00000310: f1b7 9c1a aad0 b43f 2b9e ba95 5c54 b0bf
00000320: f751 f8b1 9509 773f b3c8 d933 df85 a33f
00000330: ab20 50b5 8cd9 b3bf b938 3360 63cb b03f
00000340: 9c5c fb68 63d3 9ebf e616 1442 5e9d 813f
00000350: 5f91 b05f 5461 a83f 36d0 de41 7c95 9fbf
00000360: b5b9 5351 38b5 673f 283a bc39 1df8 ab3f
00000370: a787 f77b a6b2 b0bf fa38 d015 1533 ac3f
00000380: fa4d b3ed b1e3 a6bf 00b3 8ea1 5c1d 983f
00000390: 3f01 0c52 cc6e 7bbf 8475 f8bb 4efa 8e3f
000003a0: ba25 9a6f f3b1 6cbf 768b 9585 cca3 773f
000003b0: 7dba 18da 6387 8ebf f735 5df7 1fe1 ac3f
000003c0: cbbb 5148 be96 b3bf cdf7 6bd7 4184 a43f
000003d0: c2c0 4b4c dc94 913f c452 8565 7e4e 8abf
000003e0: 1cdf 581d 5359 8d3f 9d4d f523 e87d 79bf
000003f0: ab47 16ec 6e78 863f 4d28 953d 4dbe 7ebf
00000400: e346 96d7 a1f2 903f 910d 3a49 ad85 a9bf
00000410: 7bcb a488 270f b03f 1467 a719 e37c b7bf
00000420: b6e3 d85b 4435 b63f be9d 076f 3c99 acbf
00000430: 2c05 a730 19bb aa3f 8b89 83ab a2d9 adbf
00000440: bd1f c376 4a6d 9b3f c2ba e73e 5dcd 77bf
00000450: faed 8917 1129 8ebf 7ec4 f8a5 43c9 a23f
00000460: f197 dc82 727d a7bf 121a 5076 70ba 903f
00000470: 4281 c2b9 7502 a0bf 4649 0380 80e6 963f
00000480: ebca 211e 600b 9fbf 2093 2aa8 abf4 a63f
00000490: d776 8481 1a0f b4bf 4ef6 209a 2460 b93f
000004a0: 3801 e54c ab0a babf 39f8 907b e80c b73f
000004b0: a6db 820f 8684 b2bf 01fc c78c 81dd b33f
000004c0: 6693 0a6c de32 b7bf 34ee 15e0 c166 bb3f
000004d0: 28f4 89cc 9f5d bfbf 7da1 20b7 856e be3f
000004e0: 54a8 af2b 7c60 b7bf 62c4 ba2a 7741 ae3f
000004f0: 60df b2e0 a926 aabf c749 a690 d69c a33f
00000500: 9f22 f5fb d8d3 43bf 5578 c525 7412 483f
00000510: be2b c553 32ce a43f 3f72 4243 6240 adbf
00000520: babb 74cc 48ba a93f 078e ccf6 8f01 a4bf
00000530: b88f 6158 919c a33f 6d0f 5ee6 57c7 a4bf
00000540: 299b a25f 0a1f 9b3f 3484 4c93 f185 b3bf
00000550: 4df3 9220 f2d4 b63f eb4a 8894 b322 b7bf
00000560: 77db f1b3 74f4 a83f 07fc a74a 4085 a3bf
00000570: d48a 5eb1 85f6 7a3f 8edd dd94 8972 933f
00000580: 44bd 0eeb b048 a5bf 2a09 07cc 3002 a23f
00000590: ce2f a9bf 7047 983f 2513 115f 7524 a6bf
000005a0: 8f6f e35a 0025 903f 2e8a 3ca0 dd69 413f
000005b0: e41f f518 5e66 a3bf 4a18 69f2 194e b23f
000005c0: c188 313b 3d02 aebf ae15 09e5 c7ce 9b3f
000005d0: f9e1 1b54 6cd3 853f a7ea d520 dd30 a6bf
000005e0: b0b5 2c0d ebac aa3f 35e3 576a 1971 90bf
000005f0: bcb0 ecc2 724c 91bf 138f c020 b517 983f
00000600: db3d de9a d7ca 8d3f 2410 359f 70f8 9dbf
00000610: 609a f348 5f07 9a3f 0292 b531 7bef 90bf
00000620: 9a3c 2ffa 212e 60bf ee0f e5fb 4a26 913f
00000630: bbd8 bce3 1fb8 8abf 39f4 7d4f 71b1 adbf
00000640: e537 0509 c069 c7bf 065c 0f1c 38d9 9c3f
00000650: 5f49 1251 3e32 ba3f 5914 b388 285a c4bf
00000660: 2656 1a7a 8415 ba3f e5e6 90f5 22d8 b6bf
00000670: f77e 02ff ca22 a73f 0c31 dd9c bbce a0bf
00000680: 6967 6bb5 c962 8bbf 99f9 8412 85b1 a33f
00000690: 528e 1ec3 7e61 b0bf b99b 9ba7 85d0 9b3f
000006a0: 6573 c569 2f0c a1bf b6bd 153a fa27 9c3f
000006b0: 1238 f67c 30bf a0bf 7bfa cdff f7e3 a73f
000006c0: 9438 12aa 0955 a4bf 14e9 6dba c4a1 9f3f
000006d0: c9e5 ad75 5357 48bf 0b0c e995 3bc2 adbf
000006e0: 9600 52a5 92ae ae3f f48e b92d 7a6a b4bf
000006f0: 219d 56c3 51f6 b53f 3303 6206 b78c babf
00000700: 0fb1 4fa6 36dc aa3f f640 b81c a036 883f
00000710: 8428 4da2 caa5 b2bf b6ed 7118 6597 c43f
00000720: 7d7b eaa3 f19a c6bf fb5a 3d31 74b9 c33f
00000730: 2462 eb94 faab b5bf 7f9b 3440 b6f9 99bf
00000740: 1fe7 33f5 607f bc3f e8bd d674 50b4 c2bf
00000750: 2af4 ed96 b8e8 c33f 9f26 89f6 6b99 c1bf
00000760: 2a01 3262 c386 bc3f aa24 95a4 c2ca a0bf
00000770: 62b3 ba41 1dc6 b1bf cc0a 4174 54bd bb3f
00000780: defb 3a13 5e7a c0bf 8280 c04f d42b ba3f
00000790: 2fc8 6fc4 2427 b7bf 731c be86 641a ac3f
000007a0: b1fd 4d2f 2acc 983f 8dc3 fc28 06b7 a5bf
000007b0: 6bc5 fece e15d a73f 55d5 a0bd a66f b6bf
000007c0: 5a2c 7cd8 d66a b53f 01dd 5465 893b b0bf
000007d0: 2f44 4761 1a9b 583f 96d1 9e5a 7bda a33f
000007e0: 34f1 5293 5fd2 adbf 9bf1 4e43 8727 b23f
000007f0: ffbc 4de2 c42a b3bf 1ff0 8eac a6c8 a43f

encoder1.bias f8 [103]
-0.295041448246165 -0.15457728145238409 -0.15234124533837853 -0.18234278998921602 -0.4212246352704822 -0.6497506056163267 -0.8843238493527186 0.376186204331675
-0.059105063602340455 -0.20579574078345542 -0.34963883631966086 -0.2035689740450547 -0.1774814383967897 -0.0524283283307929 -0.17202762501711444 -0.03780586621484508
-0.6132742119211454 -0.5970342223972616 -0.6267002882422389 -0.08199570713572811 -0.30342210251310137 1.5759636485687616 -0.24640798982973516 -0.5328533019152113
-0.22714400054221415 1.0533803473765317 -0.17921309240316857 -0.12211852150961919 -0.23591265726210497 0.24118020252537567 -0.35302962249887976 -0.02924557204289661
-0.254008055009711 -0.22880279000176926 -0.15726494552025547 -0.1609721941081196 -0.2308632788295646 1.4744777208143827 -0.22162255015980786 -0.18701050608254052
-0.2773708218634644 -0.3889684540606404 -0.13085735323672923 -0.247136005215477 -0.1523899921218862 -0.19762065946671578 -0.22521897750593228 0.25037658059958945
-0.23935769227537618 -0.19792252550734168 -0.26822022245826577 -0.0867972515817758 0.7283279476686298 -0.5013493827812442 -0.2053494103185781 -0.20060584881052917
-0.23510503271806582 -0.03871552256845059 -0.2770431976575495 1.3233622918804762 -0.2528992339523627 -0.18548473245548772 0.3501059097389107 -0.2288162654051686
-0.20600977927531955 -0.2704041121224668 -0.13908944623560673 -0.18535786746084784 -0.27128736961983085 -0.11467576421627958 -0.10539719478339134 -0.2050470752409798
-0.21056256180923397 -0.19772064817690674 -0.15971913845021832 0.9418732150491347 -0.5270619614077834 -0.39888561479404316 -0.04174015899952891 -0.1368265345658195
-0.2158366381969723 -0.17923925424716222 -0.2635346173792671 0.0739376961543313 -0.4213153078414765 -0.37790366224914873 -0.284469050760553 -0.19440397626883052
-0.08152771324158366 -0.14139195080300648 -0.083476346566905 -0.16025370746559517 -0.21251200614755794 0.15257714108882464 -0.12330811658758359 -0.22195429045014353
-0.25441376284205597 -0.17486122664782996 -0.34920303471701475 -0.060948821844061196 -0.14149793665162969 -0.19149152181451512 -0.3302984822868129
00000000: e1a1 cb86 f5e1 d2bf 2a73 4538 30c9 c3bf
00000010: 37b6 47fd ea7f c3bf 4f21 d52f 0257 c7bf
00000020: 6366 302c 58f5 dabf c6b4 35c8 c1ca e4bf
00000030: 445e 8187 614c ecbf 13e6 334d 6f13 d83f
00000040: 3e6d 66d6 0443 aebf a817 29cc 8357 cabf
00000050: 5ae2 d991 7b60 d6bf f47b 0053 8c0e cabf
00000060: 0ed7 c736 b6b7 c6bf 1e21 21c7 e2d7 aabf
00000070: e080 ba4f 0005 c6bf 64bb fa5d 4a5b a3bf
00000080: cace 753d f19f e3bf ba3f 7983 e71a e3bf
00000090: 339d 4cc3 ed0d e4bf d772 8fb0 abfd b4bf
000000a0: 5f59 cb89 446b d3bf 4a9a a4a8 2537 f93f
000000b0: 225a e508 4c8a cfbf 8853 295e 220d e1bf
000000c0: 7bdc e7fa 0d13 cdbf 80b3 e359 a5da f03f
000000d0: 427d 7161 74f0 c6bf cea3 1ed0 2843 bfbf
000000e0: fc9b d3cd 6232 cebf b502 252d fede ce3f
000000f0: f7b8 c98e 0998 d6bf 8b80 e81d 8df2 9dbf
00000100: 5cfc 4b00 ab41 d0bf 8f44 25ea 6849 cdbf
00000110: 3f8a e8fa 4121 c4bf 153f a1a2 bc9a c4bf
00000120: b0cc 358c ed8c cdbf 1841 59f3 7597 f73f
00000130: 0e0a 7fb2 205e ccbf 8b03 d1d3 f5ef c7bf
00000140: 8a2a 318c 71c0 d1bf a86e 57f1 dbe4 d8bf
00000150: 39e3 4b0a efbf c0bf 7943 0812 27a2 cfbf
00000160: 7c5a 33e8 8381 c3bf 2735 b63e a24b c9bf
00000170: 06cc 69b7 f9d3 ccbf c802 577e 2b06 d03f
00000180: f033 2fda 45a3 cebf 9c0e 197b 8655 c9bf
00000190: d561 e526 852a d1bf 4b29 ed3c 5838 b6bf
000001a0: 6ffc 7f69 764e e73f 8f49 5ddc 0d0b e0bf
000001b0: 5b1c c9b4 e348 cabf 8a86 03d4 73ad c9bf
000001c0: cc15 53f5 eb17 cebf 03df 8e5e 85d2 a3bf
000001d0: 1a2e 6164 13bb d1bf 162e 46f0 7d2c f53f
000001e0: 0291 c044 802f d0bf 55dd e6b5 f6bd c7bf
000001f0: bbc1 1d9e 2268 d63f 8fa1 5af4 d949 cdbf
00000200: fa63 5248 875e cabf 3d46 910c 4d4e d1bf
00000210: b97c 66d7 aecd c1bf 817b 667d ceb9 c7bf
00000220: 4171 15b3 c55c d1bf f9e5 f310 645b bdbf
00000230: 8d4f af80 4ffb babf 7575 2689 fb3e cabf
00000240: 19c7 5dca b6f3 cabf 51f5 d402 e94e c9bf
00000250: 9f30 183e ad71 c4bf 3ca9 f34b d323 ee3f
00000260: 10c9 e60b b1dd e0bf 40a8 9887 5787 d9bf
00000270: f566 aa53 f75e a5bf e8b4 9729 8883 c1bf
00000280: 88d3 2af3 88a0 cbbf ab53 93d7 4ff1 c6bf
00000290: 3680 c04c c0dd d0bf f6a7 ecb2 94ed b23f
000002a0: 9eee 1e7b d4f6 dabf b084 99d7 922f d8bf
000002b0: 4568 6fad bd34 d2bf ffbb 24c0 3ae2 c8bf
000002c0: cd1b 170e 00df b4bf 3ceb 4ea6 2119 c2bf
000002d0: 3c92 7eb2 b45e b5bf 5751 5088 3183 c4bf
000002e0: 549f 34ea 9733 cbbf b2fd 8bd3 a587 c33f
000002f0: f234 13e8 1e91 bfbf 2a5a 5889 ff68 ccbf
00000300: 84c5 c3a9 5048 d0bf 573b e548 da61 c6bf
00000310: 8881 71af 5759 d6bf 1896 1919 af34 afbf
00000320: ac63 2fb9 9a1c c2bf 5cca d34f cb82 c8bf
00000330: 6cc7 d53e 9c23 d5bf

encoder2.weight f8 [6, 103]
-0.11576026118596024 0.16177943126135208 0.11391682759759048 0.030263428016954964 0.07953915786217602 0.2662005164308101 -0.15107978500070532 0.40170011626798474
-0.004091118575165877 -0.039407351029751014 0.0005046522001456178 0.031713230720539734 0.19561542258382902 -0.1497905234072942 0.021865466158781748 -0.0954817750468032
-0.07915682191282691 -0.052308840288647726 -0.06209190523684414 0.0534932598272129 -0.13408637365418155 0.49506389071346885 0.09290071386607862 0.3244073671039301
0.01993254478167233 0.374175985073226 0.07197675932240716 0.14664441667398498 0.07688010488601836 0.130327491916271 0.1773484828815252 -0.06988615224919376
0.009974050427500561 0.2556086269591079 -0.027616716629207394 0.19553954294349632 0.03197251212613962 0.38989336294246263 0.010491842690227026 0.02611941606480746
0.0868899207647972 0.021243991660038753 -0.10620317670812134 -0.003878916420554055 0.009784154662982705 0.040188582427132254 0.016690185842581178 0.2777071946709126
-0.01672873248416045 -0.18053221579498557 0.03042122346476864 -0.014795874796709619 0.3325986270337488 0.010775685323017765 0.08768817787947716 -0.021806854068765993
0.057262814258076125 0.007474372897698883 -0.03598204605832686 0.2712516181808534 -0.006717317061912044 -0.022332552713498786 0.4166169727158137 0.20589272430125055
0.06912688646852054 0.18499980042480027 0.05660633412678813 0.17210369006981013 0.020094713732165245 -0.0006355529101494049 -0.018973850675215165 0.021756977324902553
-0.024985817189352187 -0.004621400534211693 -0.07575101668039745 0.3112733168373126 -0.06723011864893763 0.13982758019017388 0.16976264722542442 0.019997356121750624
0.009915791876024534 0.04590610880750894 -0.11054704463622322 0.1504173622765605 0.022998971195383258 -0.03195061490198263 -0.21991976471189925 0.09453363195247569
0.05597695986495268 -0.03150135568115227 0.13885097779170724 0.013980372316865972 0.11301201167822074 0.36995529111862585 -0.02957444545790573 0.0395384432515494
-0.03653512690974918 -0.03313312012228781 0.21701410791578166 0.0979392925018423 0.018079749534123942 0.050649661749287964 -0.024260519173276252 0.08043319869258575
0.294147908381098 0.11569463537903256 0.1756430361509647 0.5091350783684773 0.6458799954952659 0.03409275515260184 0.12699350284657804 0.1655770141353944
0.17196706199338074 0.1648936326775702 0.41454515568623806 0.32598630084988894 0.10959807106057005 0.23986887942244087 0.09706303082724291 0.15103408698628
0.16234655139746576 0.12934817160324893 0.19243612341806512 0.16429199067362898 -0.1696873696787407 0.3761872375461862 0.6110093371049663 0.2509576511516032
0.045181527616256614 0.4110604652212868 0.4306174993359359 0.3718644782074634 0.27525256969394957 0.4360889194283055 0.09828528917076729 0.24939460623168633
0.33252172151995485 0.19547656930197566 0.37430885530983043 0.20018266574672328 -0.16239116494260955 0.31973329750273366 0.3231438662064614 0.3069588325596202
0.1735810627068611 0.1258537273224105 0.1879178838340172 0.18404635381970852 0.18995010318139005 0.18233699029859826 0.26325571495963557 0.17045656209245671
-0.01891347648930696 0.20775139150334695 0.0039587817877851095 -0.056386973748462854 0.18324660283239483 0.47952850113230977 0.18315941855828774 0.25011986198124636
0.26775897024830325 0.14064494106833622 -0.0018399614981073507 0.1946515432973802 -0.021845694067349167 0.15496547156572427 0.46990548782537644 0.3262956468716473
0.37233506141157835 0.4003805834447141 0.42486606988503106 0.17445074082039855 0.17089470929324663 0.18737091951134915 0.18022220940450873 0.1747576958510889
0.1920947953810124 0.12470245055806485 -0.004295170307406575 -0.00073843739496722 0.46283772683317254 0.031106840127883697 0.22286449882931522 0.2102580827468653
0.20055764493847905 0.1118025593159242 0.22062467994496218 0.05916087496453936 0.1607246132170967 0.1774918338061465 0.305590381176347 0.16987865891969883
0.15619960347211953 0.06935100321320911 0.22664589468390536 0.4052882024934251 -0.12356164390852402 0.12150623186653435 0.2579772282847616 0.1683693022619347
0.22120542522822903 0.345024796134588 0.18694931626020325 0.1979190383145911 0.22408244414173376 0.1719401110692611 0.20299184547706503 0.11858215653492182
0.309153338863506 0.20195494380502182 0.032166117634579675 0.04866181065844328 0.32200217498122574 0.02703814912096979 0.17051037470376337 0.23739869035369934
0.2226801796595903 0.13680921481953828 -0.015835617553911992 0.10790702982816915 0.16956869093159677 0.1812600061806613 0.27742994031359325 0.2648923751057778
0.20889861381522692 -0.0649914240210211 0.17735340046283882 -0.2335305218210507 0.15046466294925775 0.16090818251239392 0.1819555895110897 -0.015515790225124374
0.10482299551342886 0.11894482556606267 0.12606302947778494 -0.20599143212573345 0.106634489690168 0.2362691888276666 0.183013434011881 0.1830688839334272
0.24100989285146593 0.13996944503664535 0.1689612937616518 -0.2811380706507396 0.06683773672995888 0.13632510428070455 0.1284360274664559 0.21175876615241349
0.2146115032036905 0.19100160482576126 0.20680681695204486 0.15390259174898116 0.17287781462354593 -0.016649490789830624 0.1884420510283983 0.22901141863383376
00000000: 9d59 f8e7 76a2 bdbf 206c 373b 30b5 c43f
00000010: 98e7 fe38 a729 bd3f 0d04 6446 60fd 9e3f
00000020: 30f9 c4a1 ad5c b43f b8e9 0fe4 6d09 d13f
00000030: 3916 d517 9556 c3bf b4e7 8a67 74b5 d93f
00000040: 8f15 c047 d9c1 70bf a01f ca47 332d a4bf
00000050: 0b7c 0559 5489 403f 2a27 9771 b73c a03f
00000060: 349e 4b19 ed09 c93f 8e7c a4fb 552c c3bf
00000070: eb4a 4198 e663 963f 07a7 305d 7e71 b8bf
00000080: 80f2 5e19 9f43 b4bf 16b1 a96c 39c8 aabf
00000090: ed59 ad9c 82ca afbf a453 07f3 7763 ab3f
000000a0: 898b d706 be29 c1bf 19df 0275 20af df3f
000000b0: cc71 d457 57c8 b73f fdbd 121e 17c3 d43f
000000c0: 4f75 da6f 3269 943f 44a3 b5d4 7ff2 d73f
000000d0: 0c9f 5ca3 116d b23f d4bc e086 3ec5 c23f
000000e0: cfd0 3220 6aae b33f 4b69 c63d 92ae c03f
000000f0: bd55 fce6 5ab3 c63f 2c83 5a12 0fe4 b1bf
00000100: 087d 2863 466d 843f 6a59 5749 e45b d03f
00000110: c03b fb7a 8e47 9cbf 7930 0293 7007 c93f
00000120: a2cc e77b b35e a03f 41fb b04a 03f4 d83f
00000130: 269c d549 bf7c 853f 75e6 2757 0cbf 9a3f
00000140: 096e 09f8 6a3e b63f 1d5b aa25 fcc0 953f
00000150: 2354 b1a2 2130 bbbf 1541 7265 adc6 6fbf
00000160: 1b44 5f02 b709 843f a9ee 640e 9993 a43f
00000170: 3ba4 6e69 3b17 913f 2f6e be65 f4c5 d13f
00000180: 6e27 b13b 5621 91bf 5860 5bfd ad1b c7bf
00000190: a9bd 8abf bd26 9f3f facc f0b2 4c4d 8ebf
000001a0: 277c 73c0 4b49 d53f 444e 6f00 9011 863f
000001b0: b2f9 3c80 bb72 b63f 544a 3734 8954 96bf
000001c0: 32dd 0735 8d51 ad3f d3a8 75b2 729d 7e3f
000001d0: 9c9a 201e 3d6c a2bf deb9 44bf 2f5c d13f
000001e0: 8e7c 9011 9e83 7bbf 46a6 293e 58de 96bf
000001f0: eb77 313c daa9 da3f 02da ad5a b15a ca3f
00000200: fb16 a8b4 4cb2 b13f 55a7 4bce 12ae c73f
00000210: 9a5a a463 81fb ac3f e274 2f64 7e07 c63f
00000220: 0c62 3569 b593 943f c158 637b 67d3 44bf
00000230: 9d56 8490 e16d 93bf def4 4708 7647 963f
00000240: 76b6 c4ce e195 99bf 979d 7fc2 e3ed 72bf
00000250: 63f3 472b 6b64 b3bf cdc1 fbea e6eb d33f
00000260: 5c44 e738 fe35 b1bf 4a70 ffc1 dee5 c13f
00000270: d331 f54c c8ba c53f ce91 32da 2f7a 943f
00000280: be5d 920e bb4e 843f d79c 0768 0181 a73f
00000290: c8cc 61a5 cf4c bcbf 963c dd49 e040 c33f
000002a0: 34d6 80d4 0a8d 973f 66a5 2ebc d45b a0bf
000002b0: 653f 97b2 5426 ccbf d2a4 9b29 5b33 b83f
000002c0: c321 e617 03a9 ac3f da44 dc18 f220 a0bf
000002d0: 4e06 516c dec5 c13f 3241 18cf bda1 8c3f
000002e0: 918f 36ee 5aee bc3f cb8b 15f5 58ad d73f
000002f0: 53fa 2770 c348 9ebf ec7a 6601 623e a43f
00000300: 0615 776e bbb4 a2bf a8e8 ad06 d3f6 a0bf
00000310: 376b 2248 1ec7 cb3f 30ee 49aa 8c12 b93f
00000320: 1f30 e073 7f83 923f de86 88a1 c0ee a93f
00000330: 6d99 bbe1 bfd7 98bf 24b7 e525 4597 b43f
00000340: 6fc0 abbf 51d3 d23f 078d 46e3 299e bd3f
00000350: d9ee 0494 787b c63f 25d9 daa5 d54a e03f
00000360: 925e 3986 0cab e43f 6769 d208 9b74 a13f
00000370: 97e8 c3b6 5241 c03f 0d26 57aa a031 c53f
00000380: 6419 a045 0403 c63f 459b d50b 3c1b c53f
00000390: c8ce 9867 e887 da3f d908 46a5 f5dc d43f
000003a0: c7ea e882 9e0e bc3f 5949 3900 06b4 ce3f
000003b0: e2bb 0d6f 1fd9 b83f 2df9 17c0 1555 c33f
000003c0: 7f6c 6f94 c5c7 c43f 37ab 6a1b 7b8e c03f
000003d0: 6726 5334 bfa1 c83f 840f 781b 8507 c53f
000003e0: 0240 a8d3 50b8 c5bf b2bd 9ba2 7313 d83f
000003f0: b853 0d74 638d e33f 9c22 18ae b00f d03f
00000400: 6283 fd7e 0822 a73f 4874 b38d d04e da3f
00000410: dfeb 2eb3 3c8f db3f 807d 1cab a0cc d73f
00000420: 2b6e 3ef4 bc9d d13f 5cec c57f e1e8 db3f
00000430: d095 aa86 3929 b93f 912d c896 29ec cf3f
00000440: 22d2 c82f 0948 d53f 44a4 2450 6005 c93f
00000450: b52b 0a21 adf4 d73f fcdb 4de9 959f c93f
00000460: a93e 4bd3 3bc9 c4bf cdda 0da6 8276 d43f
00000470: c49f 509c 63ae d43f 50f6 c3a8 36a5 d33f
00000480: 53f4 c37d e737 c63f 60f8 7695 f91b c03f
00000490: e047 b376 b10d c83f ce45 4db7 d48e c73f
000004a0: 3c98 84f4 4850 c83f 877e 1789 d156 c73f
000004b0: a126 8f7f 2ed9 d03f 5fb0 c947 85d1 c53f
000004c0: dea4 e6eb 0d5e 93bf 7b49 1afc 9897 ca3f
000004d0: 20f6 f764 1537 703f e811 57e0 c0de acbf
000004e0: 9555 22eb 9f74 c73f 2b3e 774f 98b0 de3f
000004f0: abc3 5490 c471 c73f f486 d2bc f601 d03f
00000500: 9955 1b85 f622 d13f c340 1e47 a700 c23f
00000510: 4c11 759d 5b25 5ebf ab01 4a7e 57ea c83f
00000520: e48c 4fb6 b75e 96bf 0827 3198 e8d5 c33f
00000530: 52f0 9a77 ee12 de3f 5704 0923 07e2 d43f
00000540: 2cae fa6f 56d4 d73f f14c f6e1 d59f d93f
00000550: 4485 d574 0131 db3f 2f15 4be1 6654 c63f
00000560: 76a9 bcb9 e0df c53f 9ae7 c231 c5fb c73f
00000570: 88de b377 8511 c73f 94ce 33ce 755e c63f
00000580: 5956 f2ef 8f96 c83f 09c1 e0f2 7fec bf3f
00000590: 1259 0400 d097 71bf 7f56 133b 7632 48bf
000005a0: 0d9f 0621 229f dd3f a7e8 1fb4 78da 9f3f
000005b0: c3a6 f4ea d286 cc3f 8c08 8fa2 bce9 ca3f
000005c0: 349d fc76 dfab c93f 80f9 deaf 179f bc3f
000005d0: 15ec 86f4 6d3d cc3f 7fd3 598e 554a ae3f
000005e0: beff b6c6 9f92 c43f 5b92 c06a 0db8 c63f
000005f0: 31f9 47f5 ca8e d33f da99 2c7a 95be c53f
00000600: 46cc 473e 59fe c33f aada bec2 fcc0 b13f
00000610: 0753 b890 bb02 cd3f 1e7d caed 3df0 d93f
00000620: 2b8a a063 bca1 bfbf 5380 204c 081b bf3f
00000630: 3721 a6eb b282 d03f bcc3 6e13 208d c53f
00000640: 43c9 8699 7550 cc3f 7f41 ede1 e214 d63f
00000650: e36e ac87 f4ed c73f 7b91 683a 6955 c93f
00000660: b126 99c8 bbae cc3f f0df f430 2202 c63f
00000670: fbde d604 a3fb c93f 7ce6 3474 665b be3f
00000680: b98c f715 2bc9 d33f 2e3c 74db a8d9 c93f
00000690: 1243 8fce 1378 a03f 592f af6a 33ea a83f
000006a0: 4641 b202 af9b d43f dd30 e078 e3af 9b3f
000006b0: 839d 7db1 48d3 c53f e157 978d 1463 ce3f
000006c0: f07b 8dbc c880 cc3f 567e b8df f682 c13f
000006d0: ef28 064e 3637 90bf f9d7 1e8c cb9f bb3f
000006e0: d005 fd46 6db4 c53f 8031 4f23 8733 c73f
000006f0: d6ff 2482 69c1 d13f 4a80 0226 fff3 d03f
00000700: a910 4295 30bd ca3f 48d5 b028 47a3 b0bf
00000710: 9a40 6927 84b3 c63f cb6b eb00 54e4 cdbf
00000720: 840d 4913 6d42 c33f 0857 c6aa a398 c43f
00000730: d423 231d 524a c73f 7542 b51c bec6 8fbf
00000740: 9653 9909 aed5 ba3f 88ac d507 2b73 be3f
00000750: 21bf 6b56 d522 c03f c03c 1e60 ed5d cabf
00000760: ba4c d8dd 654c bb3f 859c 889b 113e ce3f
00000770: b1a3 e7f4 fb6c c73f 9b63 b41a cd6e c73f
00000780: 099e e783 69d9 ce3f 9992 6fce 84ea c13f
00000790: a081 7f0f 86a0 c53f ecbf c688 2afe d1bf
000007a0: 22d2 6425 471c b13f 8834 41dc 1973 c13f
000007b0: ed5c cc7c 9770 c03f eb09 a247 e91a cb3f
000007c0: d478 cdc5 6378 cb3f 89e6 1a97 bd72 c83f
000007d0: dd0e b351 a578 ca3f 096f 2a83 14b3 c33f
000007e0: d98b 0138 dc20 c63f 6ddf bf69 900c 91bf
000007f0: 55d7 2d7f de1e c83f 53b0 b804 3f50 cd3f

encoder2.bias f8 [6]
1.0751706059565067 -1.2721394981423357 -1.0959090248862602 -0.14996871565811015 -0.1511355303733392 0.6936078979733193
00000000: 5a42 e317 e633 f13f f989 47f2 ae5a f4bf
00000010: 9d71 d4e6 d788 f1bf c65c 96c4 2c32 c3bf
00000020: 26ca 1bb8 6858 c3bf e45d c130 0932 e63f

decoder1.weight f8 [103, 6]
-0.005267780486210224 -0.31893048476920943 0.35428403105771017 -0.224646497677239 0.16325373871505636 0.08902503662257258 0.0001858726864521192 -0.0007913986834462137
-0.0002694176953218521 6.42026609466488e-05 2.712262409281892e-05 -0.000773799560191267 0.2912676995243837 -0.12591359798830304 0.37301996599008375 -0.08199914140130264
-0.0008938243955172243 -0.12872575638183997 -0.15141571423246017 -0.33872637870778644 0.06836985804911509 0.0623867135861274 -0.04677743806421429 0.3216550631904595
-0.24371779806081237 0.07724656226377583 -0.3339322517888372 0.07684344600289446 0.03549464619951325 0.16884565037153748 0.06542373506856046 0.12094793636869092
0.08115344113936628 -0.2637500542760057 -0.2850862552900092 0.1737714479413211 -0.050399596794362726 -0.13542276602300846 -0.061061313080661095 0.25774449278352335
0.33386516499090885 -0.1811731478152796 0.011655307809947753 -0.1184896943647421 -0.05103029191058654 0.24209352450183877 -0.11941425901545669 0.17617614489526331
0.1773826568665796 -0.016138728953901813 -0.048935715331529836 -0.00761868647739689 0.070340207278043 0.08655086211688108 -0.3529032564197705 -0.008020892843325102
0.09784756375121965 -0.19604825957858246 0.13558571983236442 0.13315076427603562 -0.002653870298689817 -0.11076223245205684 -0.046028013255618234 0.07372884745785394
0.0898904731076306 0.18601453636295093 0.02511698535144009 -0.1532043526266779 0.15263799842176917 0.15746445369550002 -0.21013059803569165 -0.035750019584062896
0.19705172607847843 0.12920122786238272 0.15993855585467753 -0.5225515379196809 -0.27336796896438026 -0.022823368711898256 0.025167114060163438 0.061177568298939895
0.027328524351842777 -0.11649370816259043 -0.1424880744854296 0.08414298727225766 -0.026118168627479416 -0.05456595642241448 -0.11190971006789956 0.30938650592918177
-0.30916925942325973 0.09369017887096107 -0.23673566501414847 -0.4107902375587583 0.11366376155928953 0.3404844072283212 0.34666590540649733 -0.16381502077539284
-0.21521929545918334 0.1047468852988065 0.1493348148464498 0.0004760159665907128 0.040443797245489306 -0.11504026854883516 -0.3122216789927713 0.2659106851269786
-0.36849560543506543 0.0892369438886701 0.002256834137947727 0.10245031804813787 0.007841202152630154 0.2798490209434634 -0.06651438040710099 -0.2577168942232182
0.07095043988397395 -0.43388048188636474 0.004332839747194223 -0.1458054881374721 0.029237245170924145 0.31211616910812423 -0.2839072001954883 -0.013739834453520325
-0.018631969282684277 -0.14900781189974402 -0.026205328777456398 0.13091767309696276 0.40819179968434216 -0.3968088867932624 0.039792560337816904 -0.1185578058124801
0.2723575822761974 -0.23372841813115056 -0.2861145399518303 0.23968601616787538 -0.1561542451699918 -0.13382154059302578 0.023266916828474465 0.05724331591048999
-0.06347360597542787 0.107368045968897 -0.033530336200309055 -0.042715773283877455 0.22635318511202693 -0.3226828798907684 0.1697942617482609 0.033968649339901034
-0.2348741701618901 0.0004056552443850608 0.0721452709961506 0.00047616024223066526 -0.08730766714129848 0.13917916608635092 -0.001485614262561165 -0.000631378783111092
8.060696582206118e-05 -0.001790958210385333 -0.001404134500661993 -0.000565978382563745 -0.07360322849600416 0.11999216226225276 -0.15919432870665087 -0.20970610036878062
0.2965068867645771 0.10797629768462184 0.030458928388001197 -0.0074823043889960675 -0.05008988776769129 0.12007506997472624 0.0681286919127991 -0.07297940452846106
0.0999435882569332 -0.16169856702835117 0.13488327044521278 -0.039543857400797564 -0.0063156250195403486 0.1310182623451955 -1.1535438913762232e-05 -1.8810721573227884e-05
8.082108732900542e-06 5.7179735611281296e-05 -2.7739772226287852e-05 -7.297398889245163e-05 -0.1853761846499937 -0.17453579439622738 -0.042312216977531576 0.038730608738809576
-0.0930346771794985 0.3072696847710625 0.11599569364521062 0.09877394287931307 -0.12625162042330682 -0.125269233494092 -0.022429338057794224 -0.2920263728133423
-0.213225575484016 0.21282870781979668 -0.4590230577298108 0.10392579120844418 0.23711793498294167 -0.21760993596570585 -0.03969315985656634 -0.11959369300541223
0.003496576905646403 0.029175971348205154 -0.012447792711518215 0.12975308085020795 -0.4168265831458127 0.05059949096081127 -0.30756210464864275 -0.13611385717003732
0.1997794023404696 0.37939109039251523 -0.18371800345215045 -0.39834077946472046 0.050433960162800155 0.14312188253571048 -0.09696001323421682 0.40195578231556295
0.4530730248767885 0.11494643752317593 0.18677105600351643 -0.26249608571934446 -0.24126859011744167 -0.29753953468937333 0.3353260346072715 0.10795961532977165
-0.19540808989049369 0.2386974764042357 -0.0822926325014257 -0.4014405528760405 -1.209236466175131e-05 -9.54207045811814e-06 -2.8351235705559098e-06 -5.526189488302061e-06
-6.202075629025576e-06 -1.0505600082143214e-05 -0.04721406546805481 -0.008222066863296736 0.09869237444937358 -0.030670488524721706 -0.3229460812284301 0.09840492371829686
0.200003111564824 0.23037500465384458 -0.1518030045662769 -0.23552814709959388 -0.043729578289523674 -0.40924507361699725 -0.15769511965044405 -0.08366141838518058
0.22385292038384572 0.05306846331547506 -0.07586992540933273 -0.038754606537861266 -0.10780638278382397 -0.30160470336074163 0.025809267774953067 0.10983284053131707
00000000: ef8d 920e ab93 75bf ddfe 7168 5b69 d4bf
00000010: 93d3 b8ed 96ac d63f a4a3 5768 37c1 ccbf
00000020: 018e 5d9e 7fe5 c43f eab3 d144 58ca b63f
00000030: bf83 1438 da5c 283f f4ee 53bb bbee 49bf
00000040: 2d28 bc30 14a8 31bf 66e1 fa50 91d4 103f
00000050: b5ba 0d89 ac70 fc3e c0c6 ffe6 195b 49bf
00000060: 10a8 f546 21a4 d23f 40a0 bdd0 ef1d c0bf
00000070: 21ad ab22 8fdf d73f 7361 9e4e e5fd b4bf
00000080: 3ed0 0746 f149 4dbf fe0b e8e8 157a c0bf
00000090: 894c 5d12 9761 c3bf c2ea b567 b1ad d5bf
000000a0: 8765 5ae0 af80 b13f 275b 1dbd 26f1 af3f
000000b0: be59 5a5d 36f3 a7bf cbbb 3f1e ff95 d43f
000000c0: c3e9 0f12 2532 cfbf 8abe a642 6ec6 b33f
000000d0: f7cf 2061 255f d5bf 458f 7e17 03ac b33f
000000e0: ef51 38b1 5a2c a23f 0a74 35f9 bb9c c53f
000000f0: 2f6b 8022 9cbf b03f 2ee3 38a7 71f6 be3f
00000100: b7c4 a6cf 78c6 b43f 3dc1 5be8 47e1 d0bf
00000110: de9e c06b da3e d2bf 2a7a f18e 243e c63f
00000120: 673f edd7 f9cd a9bf 76f1 997f 8855 c1bf
00000130: 50ea 76ad 6d43 afbf 85ad cec1 e27e d03f
00000140: d936 3aff 0b5e d53f 08d7 6384 ae30 c7bf
00000150: 91c4 f2ee bcde 873f 88a8 3532 5755 bebf
00000160: a6fc b875 a420 aabf d985 27ad ebfc ce3f
00000170: eabf 25d1 ee91 bebf b38b 549e f08c c63f
00000180: 644d 0f93 79b4 c63f 695c 39c4 ab86 90bf
00000190: 4e1b e921 1a0e a9bf 4571 2494 c534 7fbf
000001a0: de61 dad9 d001 b23f 4d8c 3b82 3228 b63f
000001b0: 6463 3e8a f795 d6bf ce0c 9303 426d 80bf
000001c0: fb04 4eb6 890c b93f 12f3 a9ff 1b18 c9bf
000001d0: 2708 3e74 df5a c13f 9661 0091 150b c13f
000001e0: 2c9a 80c4 91bd 65bf f776 03e6 e95a bcbf
000001f0: d1f5 43d7 fb90 a7bf f26e 9acc e4df b23f
00000200: 2c20 38e2 0f03 b73f 8b36 2107 53cf c73f
00000210: f359 a25a 44b8 993f a576 1142 339c c3bf
00000220: 5098 ac55 a489 c33f 85cc 7393 cb27 c43f
00000230: 43e2 3937 8fe5 cabf 33cb e399 d34d a2bf
00000240: 244f 90af fd38 c93f 2bd0 2274 aa89 c03f
00000250: a8f5 61d9 dd78 c43f 75dd ba00 beb8 e0bf
00000260: 1176 9e5d dc7e d1bf 1b01 cf58 025f 97bf
00000270: b5db 4a6f 68c5 993f 597d 2f8e aa52 af3f
00000280: 2a3e 5b39 02fc 9b3f 1983 bf1a 88d2 bdbf
00000290: 4212 fe99 0c3d c2bf c0a7 8512 658a b53f
000002a0: 0583 58a0 b8be 9abf 9253 9eac 11f0 abbf
000002b0: 4bb2 d860 1da6 bcbf eb87 320f fdcc d33f
000002c0: 33b1 89dc 6dc9 d3bf f608 355e 14fc b73f
000002d0: 8d2b 84b1 5a4d cebf 162e f522 634a dabf
000002e0: 9432 a37a 1119 bd3f 4efd 751c 7fca d53f
000002f0: 14fc 9631 c62f d63f aa74 69fe e3f7 c4bf
00000300: b690 bb4d 4e8c cbbf 515b b71e b1d0 ba3f
00000310: 4bb9 f538 671d c33f 7305 4602 3932 3f3f
00000320: 31a9 fda4 0cb5 a43f fdea 236f 4773 bdbf
00000330: 0e13 18a3 70fb d3bf b8bf 1140 ae04 d13f
00000340: 880d 8497 6e95 d7bf 88c9 987b 3bd8 b63f
00000350: cc54 149a ec7c 623f e846 7b1d 2f3a ba3f
00000360: f278 7456 0c0f 803f 5044 31de 0be9 d13f
00000370: 77ec 8f20 1607 b1bf bc2f 1400 6f7e d0bf
00000380: 5e40 f0da ce29 b23f 2ec7 04a4 b2c4 dbbf
00000390: fa47 35d0 4fbf 713f 655a 9015 c1a9 c2bf
000003a0: 7446 564f 5ef0 9d3f 1cd2 b718 b6f9 d33f
000003b0: 2811 fc1a 892b d2bf 38e7 0a5d a123 8cbf
000003c0: dcb4 ea4a 4214 93bf 219d 7a1f b012 c3bf
000003d0: 7e06 52d8 91d5 9abf 6fbe 350a e9c1 c03f
000003e0: beef 887f d01f da3f b882 e219 5165 d9bf
000003f0: c6d0 8cc2 b05f a43f 506e a6ea cd59 bebf
00000400: cf68 2c7f 4e6e d13f 0972 0214 d0ea cdbf
00000410: 5f34 005c b34f d2bf 52f1 5f08 08ae ce3f
00000420: c17e 11c0 dcfc c3bf 0577 2c72 1021 c1bf
00000430: 7b9e 6d5b 48d3 973f ca13 80f3 fe4e ad3f
00000440: eada d265 ce3f b0bf ed63 12e6 787c bb3f
00000450: eaf4 ce62 e32a a1bf 2322 8e82 d7de a5bf
00000460: 4b67 b323 24f9 cc3f 5c09 0718 d6a6 d4bf
00000470: 62ed a080 d1bb c53f 2b22 02bc 5664 a13f
00000480: 569e c257 5b10 cebf 28d7 1102 c495 3a3f
00000490: 7551 7dcb 1c78 b23f b56a 04ab a434 3f3f
000004a0: b2da 0f97 cb59 b6bf 130e 5077 9fd0 c13f
000004b0: 07db 042b 1e57 58bf 02e6 c79c 63b0 44bf
000004c0: deec cd20 7121 153f 107e 4bbc d257 5dbf
000004d0: a31d 9cf0 5d01 57bf b46e 5952 c58b 42bf
000004e0: dd35 4543 a9d7 b2bf da54 b16c ceb7 be3f
000004f0: 897a c0d1 7a60 c4bf 8284 6d45 a6d7 cabf
00000500: 1d54 6c05 f8f9 d23f cb71 4cab 55a4 bb3f
00000510: b4d0 3015 a030 9f3f 512b 64ca c3a5 7ebf
00000520: 8f24 a5bb 61a5 a9bf 753a 9b62 3dbd be3f
00000530: 964a afc7 e170 b13f 1f36 bb3b c7ae b2bf
00000540: aa27 022b e795 b93f cc31 99e4 89b2 c4bf
00000550: b17b abe1 da43 c13f fe95 96ac 173f a4bf
00000560: b285 9aae 69de 79bf 43c6 f9d7 34c5 c03f
00000570: 4026 f3a6 0a31 e8be 5ec2 8bf1 76b9 f3be
00000580: a9b7 eb90 0cf3 e03e 120e 6cc1 88fa 0d3f
00000590: 04a7 d5a1 5616 fdbe 2bf2 3f95 3321 13bf
000005a0: 9fb5 4325 68ba c7bf f9e2 745c 3057 c6bf
000005b0: d98d 4768 f2a9 a5bf e953 c693 7fd4 a33f
000005c0: bd3e e1df 1ed1 b7bf 5b36 c977 4eaa d33f
000005d0: 0cda aece e4b1 bd3f 5016 5dc6 3f49 b93f
000005e0: 6f7e 645a 0329 c0bf a3ab 867e d208 c0bf
000005f0: 3d74 b765 b7f7 96bf 3861 3362 8fb0 d2bf
00000600: d0f3 afc4 f94a cbbf 2434 de99 f83d cb3f
00000610: 26ce 433f a260 ddbf 5381 7372 e19a ba3f
00000620: 2dfd 0568 e159 ce3f 33f1 2073 a4da cbbf
00000630: b6ee ea6e a952 a4bf c01f 4438 b19d bebf
00000640: d87a a56e daa4 6c3f 400b 144b 4ee0 9d3f
00000650: 4ead d374 3a7e 89bf 1348 67bb bf9b c03f
00000660: 7dbd ad67 49ad dabf cdea bd2d 2de8 a93f
00000670: 441c 3df7 18af d3bf e8f2 89ca 2d6c c1bf
00000680: 3abe bb17 5f92 c93f e74b 6891 f147 d83f
00000690: 22b7 4150 1284 c7bf 30b4 1d53 6a7e d9bf
000006a0: a794 03e3 7ad2 a93f 2d9a 6a5e d151 c23f
000006b0: 1456 dc15 5fd2 b8bf a6f0 debe a4b9 d93f
000006c0: 21eb 2200 26ff dc3f d228 f435 216d bd3f
000006d0: 35ef af2c 1de8 c73f b686 df61 bccc d0bf
000006e0: da9f 0da0 e3e1 cebf b281 b042 e30a d3bf
000006f0: 98ad 0854 fb75 d53f db4e 21c9 3da3 bb3f
00000700: 3e0c badd 2103 c9bf 4d9f 658f a38d ce3f
00000710: 5f9d 4b45 2111 b5bf 1802 79b7 33b1 d9bf
00000720: f961 b1f1 095c e9be 390c 7f2d dc02 e4be
00000730: 3f3d 7faa 61c8 c7be 042f 6166 b32d d7be
00000740: 7f36 4f91 6d03 dabe bd7c 4eae 2608 e6be
00000750: 3b68 3126 712c a8bf 3e5f 4422 bbd6 80bf
00000760: c5e8 9f48 e743 b93f f001 aaa4 1568 9fbf
00000770: 7fd6 4f0a 26ab d4bf 7dad 22a9 1031 b93f
00000780: c973 a2b3 b399 c93f 16ed 669b ed7c cd3f
00000790: 33fa 05e6 476e c3bf 1345 8a4c c925 cebf
000007a0: f824 3e29 b963 a6bf c0fb ce3f 1231 dabf
000007b0: 6d98 d18a 5a2f c4bf 27bd e6af d56a b5bf
000007c0: a7d3 1466 36a7 cc3f 4a23 c724 ca2b ab3f
000007d0: 230f 6220 366c b3bf 4686 4ccf a4d7 a3bf
000007e0: eb48 5bf8 3299 bbbf 4444 50d0 7d4d d3bf
000007f0: ffc7 1ba4 be6d 9a3f abd9 1b4a 011e bc3f

decoder1.bias f8 [103]
0.14013826800000923 1.1168073725138372e-05 -0.12033518492265513 -0.17492376168766527 0.027347928097950124 0.09316718901070553 -0.028942275404388384 -0.5698436373016599
-0.4275904208353218 0.30405121410313257 -0.8029308999943838 0.09861323453704336 0.15900529061132734 0.04426369899912167 -0.022609463408319257 0.18355860748011535
0.19127435048926708 0.2173412767141585 0.761171410327203 0.057454723143261006 0.10487907482172766 0.17869730618892254 0.14790895606978466 0.1734322941302687
0.9202505830838361 0.00014480729699348192 -0.07425750937179612 -0.0851044133315667 -0.38997352902138555 1.1306741326471347e-05 -0.056815713986258454 -0.041844831397232204
0.19592986101472695 -0.25103155561075724 0.16989778228295502 -0.43664395894910163 -0.4954162958802904 -0.6756026404758271 -6.4507158627194224e-06 0.1633150845320743
-0.21108745430553708 0.7203244779016323 -0.5289058581304229 -0.3109109703048423 0.3084402344920904 -0.2591870986815423 -0.11170462567422003 0.17134190285642625
0.1904601196995308 0.06329312129341925 7.933345380838647e-05 -0.026522914808924814 0.005319848754192537 0.23707789090971906 -0.5490486839258318 0.07230970750962006
0.0047530700993816755 5.848309827447737e-05 0.11590613631850494 -0.2695518012694303 -1.9537062574360217e-05 6.57884018956971e-05 0.024185197272597853 0.01949025636001977
0.21570770273347367 0.3146554665738504 0.16842250114135207 2.9514933396215592e-06 0.008139976642818592 0.02278469915549942 0.0926985155207709 0.18940036472179195
-0.0007734099353603873 0.00023601260023100942 -0.27504820795788604 0.12999879969926934 -2.6266435067854274e-07 -0.18795971590229238 0.11637614854422966 0.9242430116444594
0.09026763103046491 -0.6229939726432896 -0.9888890137114594 0.04422939155156637 -0.014402901498199339 0.7791560041260233 -4.922520548386815e-07 -0.20692870252251197
-0.0003136516123679245 0.09375368248430713 0.439936923372092 0.03269248987247886 0.21087854538438242 -0.1088193571174264 0.11079888411986942 0.07833959673880941
0.46918567937670547 -4.457744012568036e-05 0.16623945722666353 0.1443224174129908 0.018688624240907357 0.21436508780084715 7.819752616976874e-05
00000000: 2233 fdfe 0cf0 c13f 74f5 755d d06b e73e
00000010: d608 cd63 49ce bebf f6f3 dedd e663 c6bf
00000020: d31c 2d63 1801 9c3f a079 dc0d ced9 b73f
00000030: 73ae 5539 0ba3 9dbf 076b 41b9 283c e2bf
00000040: 7384 6436 a45d dbbf 7b73 3839 9375 d33f
00000050: 288f 8d24 9cb1 e9bf bd14 4a89 b73e b93f
00000060: 3a87 880d 495a c43f 85d2 3347 bba9 a63f
00000070: 5ee4 ac67 ef26 97bf f560 0334 d97e c73f
00000080: 2720 f58b ad7b c83f 0173 c7c5 d6d1 cb3f
00000090: 552d 4025 845b e83f 2955 cd99 b46a ad3f
000000a0: f1e0 64e4 5ad9 ba3f f87b fba6 8ddf c63f
000000b0: 0a78 8d40 aeee c23f 830c ae87 0733 c63f
000000c0: 4c0a cf59 b172 ed3f f78b a935 edfa 223f
000000d0: a2f9 3b46 8a02 b3bf c71c 0120 67c9 b5bf
000000e0: b5f6 5c88 53f5 d8bf 8657 f1b1 42b6 e73e
000000f0: c892 f002 f316 adbf 862a b78c af6c a5bf
00000100: 2b1d afcc 3a14 c93f 692e 67a8 e610 d0bf
00000110: 6fbb 48e5 35bf c53f c1ab eb80 f9f1 dbbf
00000120: 0d86 2d8d e6b4 dfbf e4ea bd6d 899e e5bf
00000130: ed76 4e46 670e dbbe 371e 8139 82e7 c43f
00000140: 5b49 6be8 e904 cbbf ad10 63eb e50c e73f
00000150: caa7 6afa cbec e0bf bd52 5b20 f7e5 d3bf
00000160: 9b80 fa1b 7cbd d33f 6878 187c 8596 d0bf
00000170: a12b 15a2 ac98 bcbf 08f4 990e 88ee c53f
00000180: 189f a648 ff60 c83f e959 045e fa33 b03f
00000190: ae5d bc5b facb 143f 4db3 cbae d228 9bbf
000001a0: e8e8 b306 44ca 753f 4fec 077e 9158 ce3f
000001b0: fbf1 ab8b ce91 e1bf a7e8 ef94 e382 b23f
000001c0: 2979 1e8a f477 733f 4634 a6f4 77a9 0e3f
000001d0: 4cc9 e448 06ac bd3f 11ed c132 5640 d1bf
000001e0: 80cd 91b7 707c f4be c3b0 6d23 fc3e 113f
000001f0: 681c 551d 01c4 983f 1eb5 a0f6 40f5 933f
00000200: ce26 5e5c 4f9c cb3f c94e 9cae 5023 d43f
00000210: 4104 2857 de8e c53f 9b0c 849f 48c2 c83e
00000220: 2dd5 c42b b1ab 803f 0366 e346 df54 973f
00000230: 5fa9 8c04 17bb b73f 1250 2a6a 453e c83f
00000240: 70ad 7b30 d557 49bf b5e3 82cc 44ef 2e3f
00000250: 6929 80cc 639a d1bf 8922 9df8 cca3 c03f
00000260: b4b8 f507 8aa0 91be a205 6260 100f c8bf
00000270: e32a 08c8 d3ca bd3f 5939 9214 6693 ed3f
00000280: 33ca 298b c71b b73f 2075 430e 91ef e3bf
00000290: 1476 a892 faa4 efbf 42cf 781c 3ca5 a63f
000002a0: 40dc 37b7 447f 8dbf 8681 8692 d8ee e83f
000002b0: 98cd 57b7 6984 a0be 290d f8c4 a37c cabf
000002c0: 7185 de6a 338e 34bf 9650 26c8 3d00 b83f
000002d0: 50e7 8b32 ed27 dc3f b07a a7ed 11bd a03f
000002e0: 074f ed73 11fe ca3f 27b8 fddb 95db bbbf
000002f0: eb66 bacf 505d bc3f 909a f955 100e b43f
00000300: df2a 2b5f 2307 de3f 8492 092e 155f 07bf
00000310: 9bf1 0ba4 5547 c53f 9429 6f2f 2879 c23f
00000320: 660e b057 1c23 933f 9720 c1b0 5070 cb3f
00000330: c4dd 2545 bf7f 143f
