Trained_models/4/predictor4_200_9.pth (torch, 357143 bytes, 16 tensors)

encoder1.weight f8 [104, 200]
-0.1821001900331517 0.1399630549807117 -0.11219120126466693 0.037358165433965626 0.05460140261422487 -0.20365636313521096 0.2559945308585826 -0.24920606132900266
0.13480500993045033 -0.04018247326350846 -0.08982800702087222 0.20360569982937898 -0.3274757752194598 0.31750372009538097 -0.2625973412326011 0.1142519635652588
-0.001639707227976183 -0.1652739376298479 0.2839660773707812 -0.35484193620109633 0.2872343988111664 -0.2070389695751382 0.09176985063704378 0.04320768249873806
-0.19477921369271223 0.24002829062085318 -0.26159631093067776 0.20123752443222032 -0.14120282640151444 0.02415566740400183 0.09716408809465987 -0.17980793135327305
0.19161439963884047 -0.15364613821839773 0.0933912900388472 -0.05249589179757034 -0.0035101523717869874 0.058759190588668665 -0.11093476588686109 0.09586393636297265
-0.08388137986887573 0.026315245211228157 -0.009856414240797806 -0.07055778210188822 0.08187068446792932 -0.06830181014624928 0.04985748322190306 -0.07415790307742576
0.03757397350333652 0.02962894546645089 -0.10683116599084944 0.10548408167432484 -0.0694555624514893 0.03929257151242273 -0.040184729938683175 -0.025205502641625473
0.08320627812177515 -0.1015799467470898 0.09152547451037499 -0.09235416061250795 0.063374868694162 -0.011099754553259433 -0.04687921949007672 0.0688365550802748
-0.07589573698477184 0.0899964746327431 -0.08986582129037403 0.05896742878580175 0.004672869286482806 -0.06624037936678766 0.046282149146353826 -0.051657986512631815
0.10232183906840663 -0.11286386473853514 0.09226935071252909 -0.017547524712346208 -0.03060072175994492 0.038179511681038406 -0.06256718458382528 0.09621007917306583
-0.12556347435387555 0.1011592279410659 -0.03646057899839932 -0.02211335745121618 0.027824808788060294 -0.044498070260004984 0.0622682220023738 -0.06916946947795485
0.05941294013484876 -0.01831528480816344 -0.013193727766122463 0.022546774077999664 -0.049857741102924534 0.06363594628608842 -0.03158911577985984 -0.011539627388852723
0.03910974013020037 -0.03638115283362939 0.028422563608181538 -0.005873576082532783 -0.022040259082165375 0.0605247298824609 -0.028559956371439047 0.012600857149207698
0.022003042680260227 -0.022256948005530908 0.05060732443839118 -0.03358244561569232 0.004375120328728911 0.0560549229932641 -0.05802967324739584 0.02982078976525753
0.0065734107421963 -0.010629266621181197 0.01706563457588875 -0.05232284906235458 0.09050161557188903 -0.045663798346796125 0.0034339440909388515 0.018428378332683713
-0.028337230465591577 0.04374742302004029 -0.05443804417707088 0.04174815541743912 -0.01427139668567152 0.010558703743388983 -0.008401828217476523 0.024219660068702194
-0.02146226073690587 0.007366151014043748 0.04537368597939467 -0.04281547147875834 0.06549568537838552 -0.0662103263589476 0.05968873318726357 -0.0039022343306016013
-0.03563467513822164 0.09821042054965266 -0.11375172819606343 0.12648627963057482 -0.10537662154320894 0.05869155345079135 0.046879340225731675 -0.10148550688817595
0.16824989613172714 -0.1625250194567285 0.16014548387169342 -0.1139281924839007 0.06499615006918709 0.07383168616980483 -0.15001542794163206 0.20330246771309726
-0.1555071649294338 0.12932434918447966 -0.0513031512334907 -0.017418452425496493 0.1100382623478837 -0.1110830144166827 0.08699819961392476 -0.04575378034439007
0.03010105155866479 -0.008651552248871172 -0.009782924658158715 0.030971752114951887 -0.020293528241335332 0.023905020393500315 -0.00716574341948936 0.016971159615268468
-0.03665405302871497 0.07579357922377433 -0.07452182015312579 0.04953476240644313 0.002119800941382464 -0.018359993535578916 0.06351254089725539 -0.10295428595746654
0.15683489620382424 -0.12044619347814403 0.04129780495495301 0.05086320923224328 -0.07370714602753006 0.10902365732712534 -0.12079480228447653 0.1328429075243667
-0.02927834327748245 -0.030031741438603637 0.09457975720977453 -0.09965714025315428 0.12453143279525279 -0.07921763466483761 0.05163928611297614 0.03853723926502422
-0.04298820947694043 0.08362788504867634 -0.07089379449062418 0.07198892877858855 -0.027896431998705506 -0.04494830963245321 0.11281742202596318 -0.12084928458905052
-0.0327375094519715 0.05581392183821168 -0.06490124232426159 0.06616537259427563 -0.060232465364995304 0.058369863517335835 -0.048513561307210545 0.045648235633155745
-0.03729070701587289 0.039999722435846284 -0.04505769965760651 0.06231313384737292 -0.06927029438519415 0.069643086917679 -0.05023460842865911 0.020643197449409702
0.007532479787340254 -0.040065253164064375 0.07112921834282163 -0.09454278626586726 0.10027318280658687 -0.09679838998211526 0.0949503842678634 -0.07850093671004062
0.06202278794530172 -0.043870483945114856 0.042588455985943255 -0.043282535842309226 0.03746498821988961 -0.03408205335035759 0.03980948250631096 -0.03697430131774595
0.025730100606985298 -0.0030782796821084172 -0.009382831793871987 0.026893704583198525 -0.04568705794656247 0.06914159420529618 -0.08253681988846681 0.09160502427430953
-0.09096651503631592 0.09353890468525441 -0.09120642050131539 0.08630614885625418 -0.08192938384067158 0.08306922063021875 -0.07445753289789406 0.05269422800857721
-0.018584480756788393 -0.009287198418157337 0.03578488689932273 -0.047196851920359856 0.04950882555859851 -0.03672493841293667 0.03424045660874058 -0.031019010069338118
00000000: b4d5 641c 0f4f c7bf 0c2c e533 4fea c13f
00000010: a5a8 5404 90b8 bcbf 9e0c 8e05 9c20 a33f
00000020: 3270 160d b7f4 ab3f 34de a465 6911 cabf
00000030: b684 7fe2 3662 d03f abbf aff5 fbe5 cfbf
00000040: a17e 7e62 4a41 c13f 340d 1411 cc92 a4bf
00000050: a764 6be0 f7fe b6bf a2ef 0567 c00f ca3f
00000060: 5e30 33f4 5cf5 d4bf 80c0 8a1f fb51 d43f
00000070: a513 2714 65ce d0bf f03d 04df 9d3f bd3f
00000080: fdb8 d33a 6edd 5abf ed2b 8046 b227 c5bf
00000090: 3fc7 de0d 802c d23f ebe9 cef3 bab5 d6bf
000000a0: 1688 4b63 0c62 d23f 1f50 a9c1 4080 cabf
000000b0: 47b2 3e9b 3a7e b73f 6e3b 893e 511f a63f
000000c0: 081a 6078 86ee c8bf 9c69 2a3d 3fb9 ce3f
000000d0: 83e5 0c74 febd d0bf a40a 15b5 26c2 c93f
000000e0: 8aa6 bf28 ef12 c2bf 128f 0d66 43bc 983f
000000f0: 8454 b6e4 bedf b83f e2a2 5c40 f203 c7bf
00000100: 7a1c f215 d286 c83f de00 6739 adaa c3bf
00000110: a3b6 72d8 7de8 b73f 75cc e3d4 bde0 aabf
00000120: 1473 81b4 52c1 6cbf 05e5 d543 af15 ae3f
00000130: 4d36 7987 3866 bcbf 8977 8bf7 898a b83f
00000140: 7cb9 4707 4079 b5bf 9716 4636 62f2 9a3f
00000150: 2079 8f86 992f 84bf 871c 9b26 1310 b2bf
00000160: df77 4a28 7af5 b43f 2af3 d538 3a7c b1bf
00000170: 2c42 cc87 eb86 a93f 801d 7528 03fc b2bf
00000180: e854 c156 e53c a33f 3e6a 2cdf 0c57 9e3f
00000190: 92ce 1f8c 4959 bbbf 8531 0a39 0101 bb3f
000001a0: 7722 41f9 d6c7 b1bf f241 3eeb 271e a43f
000001b0: b23d c5c9 1793 a4bf a29f 19a6 78cf 99bf
000001c0: 07db 5ab3 014d b53f c74a 35b5 2401 babf
000001d0: 8adf c5a7 366e b73f dcf1 7ab3 85a4 b7bf
000001e0: 2202 6edc 5539 b03f 9325 66d6 77bb 86bf
000001f0: 27ce 2495 8d00 a8bf 23ce d6c0 459f b13f
00000200: ba62 412c e76d b3bf 828c 4d4b 020a b73f
00000210: 0168 784b 7201 b7bf a115 5494 fa30 ae3f
00000220: 000b 39cc db23 733f 9313 0e27 21f5 b0bf
00000230: 1ac2 f139 4bb2 a73f d844 4c65 ea72 aabf
00000240: 3f23 7798 c331 ba3f cfc1 f36f a5e4 bcbf
00000250: 7ac4 bbd3 f69e b73f 3da5 0f73 faf7 91bf
00000260: 0b97 c5ac cb55 9fbf 0239 18d4 438c a33f
00000270: 891f 972b 6704 b0bf 1309 9847 39a1 b83f
00000280: 1605 f6c3 7612 c0bf 770b b237 92e5 b93f
00000290: f75e c804 f6aa a2bf f11d 3b4c e2a4 96bf
000002a0: e976 0c4f 1b7e 9c3f 13f0 0079 73c8 a6bf
000002b0: 3f18 29d2 9ee1 af3f c61b 4a21 17b5 b1bf
000002c0: 4f40 ad75 5f6b ae3f 586b 12f5 3dc1 92bf
000002d0: 7280 242a 5005 8bbf 8365 2e65 8016 973f
000002e0: 339f fa2e f486 a9bf 4b15 2604 724a b03f
000002f0: 873c 5ed6 722c a0bf bff7 f191 16a2 87bf
00000300: eae7 a01d 3106 a43f 4cf1 38eb 8ca0 a2bf
00000310: 2698 a9f4 cd1a 9d3f e6f2 f512 e40e 78bf
00000320: 4b25 d0bf b891 96bf db88 e3ee 18fd ae3f
00000330: a1b0 5c3a d23e 9dbf 52fc db6a 7ace 893f
00000340: 4597 e532 f787 963f 608c 2b7f 86ca 96bf
00000350: 8a49 cd06 34e9 a93f bc37 47e3 b731 a1bf
00000360: 9bb4 a56b a5eb 713f 425d 121a 3bb3 ac3f
00000370: 711b 97b9 10b6 adbf ee74 2153 5789 9e3f
00000380: 7914 9382 b8ec 7a3f a5c2 2504 ccc4 85bf
00000390: 6843 8e59 a779 913f d9da 1c7b 0fca aabf
000003a0: 35ce 1d27 1d2b b73f 1071 05d1 3e61 a7bf
000003b0: a8d6 23b2 8021 6c3f 395d 0789 e3de 923f
000003c0: 868b 6f58 6f04 9dbf 1d8a 4fee 0f66 a63f
000003d0: 6025 cca6 4ddf abbf 0c59 5fa4 0360 a53f
000003e0: 65ff 4370 523a 8dbf 0bc9 203a cd9f 853f
000003f0: 1889 5d4b fa34 81bf d247 a9df 09cd 983f
00000400: 6d5a daef 33fa 95bf 3a52 3e1b f82b 7e3f
00000410: 78cd c242 383b a73f 8536 87d3 e8eb a5bf
00000420: 84b1 ba42 53c4 b03f b581 5ef2 28f3 b0bf
00000430: 263b f589 858f ae3f 75b3 991a 94f7 6fbf
00000440: 75fd a448 b53e a2bf 371d 6370 5124 b93f
00000450: d32f 7750 d51e bdbf c9f8 33d1 b330 c03f
00000460: 5982 4a57 f6f9 babf 6fc3 3ebd d10c ae3f
00000470: 7c51 41a2 9100 a83f 724a 1a45 f4fa b9bf
00000480: 1878 b86c 3689 c53f c998 acad 9ecd c4bf
00000490: d25e eaaf a57f c43f 158d cfe4 652a bdbf
000004a0: bdbe e972 96a3 b03f 4702 8225 a2e6 b23f
000004b0: fdce 739e b433 c3bf 790d 03b5 d005 ca3f
000004c0: 4332 d5a5 a8e7 c3bf 1473 2945 b38d c03f
000004d0: 1d8c 7519 6844 aabf 2ec9 0e8e 24d6 91bf
000004e0: 9fc3 17b2 772b bc3f 3a8d 0fba ef6f bcbf
000004f0: 7916 2796 8345 b63f 55bb 7e1c 0a6d a7bf
00000500: b625 1460 cfd2 9e3f 4b90 bfaf e7b7 81bf
00000510: 9d6a baeb 1109 84bf 2cf1 bb19 0fb7 9f3f
00000520: 9ccb 77a0 d3c7 94bf 0881 33c3 8e7a 983f
00000530: de34 369a d359 7dbf 1252 173e e360 913f
00000540: 6461 0cee 51c4 a2bf 244d 0340 3567 b33f
00000550: c764 65ac dc13 b3bf eb02 1ad1 9e5c a93f
00000560: 62db f376 8b5d 613f 7b0b 294f f6cc 92bf
00000570: 8c21 0a9e 5b42 b03f 1d9c 2b4b 365b babf
00000580: ca92 0877 2a13 c43f c293 eacd 8fd5 bebf
00000590: 3a31 5b63 fc24 a53f cdb5 7118 be0a aa3f
000005a0: f273 abb5 78de b2bf 25d7 b572 f9e8 bb3f
000005b0: 54af 567d 68ec bebf 794e a913 ff00 c13f
000005c0: db6f 6e5b 24fb 9dbf 9b6d 480d a4c0 9ebf
000005d0: c960 1404 6136 b83f 2e3f 335e 2183 b9bf
000005e0: 67fc 2dbf 4ae1 bf3f 6ce6 265e 9b47 b4bf
000005f0: b989 16ea 7670 aa3f 578f a42c 27bb a33f
00000600: 3855 a2f3 8c02 a6bf 9755 5117 a368 b53f
00000610: 799a d380 1826 b2bf 4932 c7ce dd6d b23f
00000620: 2028 70dc e190 9cbf 3e84 c3ff 7603 a7bf
00000630: 3c42 0542 9ae1 bc3f 6f12 0e8d faef bebf
00000640: 1ebd e588 f8c2 a0bf 04ca e971 a493 ac3f
00000650: 2ca2 4029 5e9d b0bf 9c89 6bbf 36f0 b03f
00000660: e5da cc29 cad6 aebf 8c04 c29d a7e2 ad3f
00000670: 2434 74fe c4d6 a8bf 1a3a 549e 345f a73f
00000680: 70e1 277e c417 a3bf 130d 6cf7 d77a a43f
00000690: 0dc1 ec84 cd11 a7bf 91b2 f8cf 81e7 af3f
000006a0: cffc f7b0 b2bb b1bf e333 b41c 21d4 b13f
000006b0: 7e2b a8c0 59b8 a9bf 4768 b887 7d23 953f
000006c0: 5cb1 82a5 60da 7e3f 1d5b 17d0 6e83 a4bf
000006d0: e28c 9242 8635 b23f 84a9 15bf f433 b8bf
000006e0: 64f3 d1d8 80ab b93f e454 477f c7c7 b8bf
000006f0: b050 2c1b ab4e b83f 5dff df2b a318 b4bf
00000700: 84e3 a96b 73c1 af3f d3a0 9b2b 3176 a6bf
00000710: 5a24 4b73 27ce a53f 3f80 dce7 2029 a6bf
00000720: dc84 4c66 9c2e a33f 7a66 0af1 3373 a1bf
00000730: 4ade de92 e861 a43f a382 e7ad 4bee a2bf
00000740: 17e8 84d2 fd58 9a3f 46cb 00d2 9e37 69bf
00000750: f6a0 965d 4e37 83bf 45cc 9cf6 058a 9b3f
00000760: 203e 7647 4b64 a7bf 5fb1 e775 43b3 b13f
00000770: ce05 230e 2221 b5bf 5a4e 6847 6d73 b73f
00000780: 90b0 1cdf 9449 b7bf 42de 8668 2af2 b73f
00000790: 0c06 3dd1 4d59 b7bf 8e04 c8e6 2818 b63f
000007a0: 6e57 2df8 52f9 b4bf 2b37 e941 0644 b53f
000007b0: a2bf bc1c a60f b3bf 8938 f8e3 bcfa aa3f
000007c0: 9712 4164 cf07 93bf 9fd0 d1ab 2a05 83bf
000007d0: a6e8 d88d 6552 a23f 24b7 f18e 2f2a a8bf
000007e0: e46c 4685 3859 a93f 40c3 dc72 9ccd a2bf
000007f0: f756 ab12 f787 a13f 345a 3587 72c3 9fbf

encoder1.bias f8 [104]
-0.216309099536206 0.2767624496536645 -0.10884589618545505 0.24804588383322382 -0.1646098843894957 -0.18915440031501754 -0.2416023515441793 -0.16391304509891044
1.1576821192732094 0.2362124841610856 -0.38303795892924 -0.4135199202958275 -0.10411035210447812 -0.07796365200253641 -0.173263029554059 -0.16194587880143452
-0.09621411908197415 -0.11408229562880379 -0.2039171585362331 -0.19306845865202613 -0.0466073430332322 -0.8054913000788063 -0.9992661894336807 -0.18398631002602958
-0.3359241383526601 -0.17474652487967263 -0.16084819192326988 -0.18071531625545154 -0.2338618810603677 0.40495394665993656 -0.18942788174061556 -0.2837635397514785
-0.18911636436140492 -0.23234986945586103 -0.3761268920082617 -0.14651646411072428 -0.19057636862898716 0.25152808406697186 -0.22425500016108932 -0.07234441717373384
1.2524967072378108 -0.1455640493279979 -0.1647145135601605 -0.3572469530007378 -0.11146597745186038 -0.28396991266664434 -0.22839368745410452 -0.14040943841206932
-0.1815522017992392 0.3376168361400025 0.3852545408536145 -0.13031188567173402 -0.04446279792171607 0.3224558455779306 -0.2073804838217181 -0.2351478248110267
-0.14843305714065924 -0.09935532857203881 -0.2310878810003401 -0.45848288571366125 -0.13511786992860544 -0.3413410665997067 -0.1256818251614742 0.2358564480887298
-0.20638004711368216 0.14256949758957624 -0.1913786640086364 -0.13884250004475557 -0.13091392196903395 0.21430915590367883 -0.29190011326302784 -0.39126897381920117
0.06664926265440177 -0.14854556334784055 -0.24018019075330932 -0.1439412815908309 -0.37951234368915887 -0.1753088240328219 0.2986665633591625 0.2711049011149479
-0.26532229621001624 -0.4663985633923557 -0.09479019617821013 0.3447587634271737 0.3141622845196804 -0.16311608105701683 0.4760429322100588 -0.1294853924622178
-0.2050372647684786 -0.1789101654610269 -0.14475719951079533 -0.12008999220151545 -0.191946246912897 0.17216020161749795 -0.21711232471200573 -0.15220512192576427
-0.7939053842545262 0.07269306198715646 -0.17161183098264243 -0.23202415197457288 -0.14803293137238677 -0.13888485113230586 -0.1263469783911702 -0.18322162271183579
00000000: 47e8 2a3e 04b0 cbbf 547e 81d9 79b6 d13f
00000010: 719b 6b1c 53dd bbbf 614d 7caf f7bf cf3f
00000020: 8a8e 06cb ef11 c5bf d5ad 9f1d 3636 c8bf
00000030: cc6c 426b d3ec cebf 4336 0b48 1afb c4bf
00000040: 1814 97af dd85 f23f e27b 30ef 353c ce3f
00000050: 4292 aea4 b183 d8bf 1891 7a41 1c77 dabf
00000060: 2dba 76dd f9a6 babf a0ab a007 6df5 b3bf
00000070: 3b31 c5a2 7b2d c6bf 404a 967e a4ba c4bf
00000080: f5da de0e 7da1 b8bf b83f c750 7f34 bdbf
00000090: aed0 801b f519 cabf a758 e69d 77b6 c8bf
000000a0: 2d91 29ec eadc a7bf c1a1 e1b0 95c6 e9bf
000000b0: e8b7 7316 fdf9 efbf 1b9c 3c08 dd8c c7bf
000000c0: 8c58 0af5 c77f d5bf f652 b918 185e c6bf
000000d0: c230 f76d ac96 c4bf 070b 9af2 ad21 c7bf
000000e0: 9ab8 77a5 2fef cdbf 7898 52f5 c3ea d93f
000000f0: 5564 833e 2c3f c8bf 2ee8 c18c 2e29 d2bf
00000100: 310b 090c f734 c8bf 397a 45f9 a3bd cdbf
00000110: 3995 1487 7612 d8bf e42e d72e 0dc1 c2bf
00000120: c772 5373 ce64 c8bf b5f6 c53f 0919 d03f
00000130: 6303 d449 63b4 ccbf b732 cfe9 2985 b2bf
00000140: 02f2 befc 390a f43f 7f25 abbf d7a1 c2bf
00000150: 9b6e 757c 5d15 c5bf dff6 ee52 22dd d6bf
00000160: e8bc c5c7 0889 bcbf afe0 fc23 902c d2bf
00000170: 7536 1d1d 013c cdbf c0c8 03bd eff8 c1bf
00000180: 964c 9f40 1a3d c7bf 2438 73a5 839b d53f
00000190: 6783 66a9 02a8 d83f 80be 9e53 0fae c0bf
000001a0: 45c3 eced d3c3 a6bf ba51 cad7 1da3 d43f
000001b0: 56e5 eb95 718b cabf 94fa a4ec 5219 cebf
000001c0: 443f 08bb daff c2bf 3376 e6ce 596f b9bf
000001d0: cafe b2a5 4994 cdbf ca9d fa99 c857 ddbf
000001e0: d569 39d8 8a4b c1bf bbf5 7433 88d8 d5bf
000001f0: 5893 6290 5716 c0bf a2c0 8b49 8b30 ce3f
00000200: e339 7350 a96a cabf f3f5 c6a0 b73f c23f
00000210: b2dd 8897 187f c8bf 6a59 7e4e 97c5 c1bf
00000220: 3c5b b992 c9c1 c0bf 2c7a eb7f 7b6e cb3f
00000230: 2775 0ad0 7dae d2bf 7b8c 9f05 8d0a d9bf
00000240: 2236 6713 ed0f b13f 59be 4580 8a03 c3bf
00000250: 545c 3778 39be cebf 8d0c 7dfc aa6c c2bf
00000260: 1eb0 2424 ee49 d8bf 85e9 f500 8570 c6bf
00000270: fb52 825c 5a1d d33f aabc 045f c859 d13f
00000280: 06c9 475e 0afb d0bf affa 2a5c 79d9 ddbf
00000290: 361c 9198 2b44 b8bf 9276 7b0f 8710 d63f
000002a0: e283 6920 3c1b d43f a5b8 cbdc fce0 c4bf
000002b0: ac62 55c6 7c77 de3f 74ac f732 fa92 c0bf
000002c0: 102a 523d a93e cabf 14dd c93e 87e6 c6bf
000002d0: 7334 e166 6787 c2bf 6c18 15bd 37be bebf
000002e0: c158 8ad2 b191 c8bf 8a59 cf71 5809 c63f
000002f0: 192a 192f 56ca cbbf 8738 7a1a 757b c3bf
00000300: 65ba af43 ac67 e9bf 2385 e133 039c b23f
00000310: 28ac d660 60f7 c5bf 4e74 4ea8 f7b2 cdbf
00000320: 5ada 7c3b bef2 c2bf 5cf4 c292 fac6 c1bf
00000330: 32ba 1146 232c c0bf 4ad3 bb5e ce73 c7bf

encoder2.weight f8 [9, 104]
0.47465878211933304 0.10170796629411256 0.02149597685094275 -0.09761659984256434 0.07826559423705992 0.5954042903239196 0.42228806497135124 0.4628979829519803
0.1954312192258467 0.41422375921087606 0.027245257293581994 0.3146749733632294 -0.007949579821291956 -0.04767867077464875 0.07038756567260093 -0.08496718238511046
0.033320569518419677 0.05922192422274936 0.24511439776173174 0.0039353719342576894 -0.13266534844079994 -0.18274840901684164 -0.1409515578688286 -0.12373320022624379
0.045430133518298096 0.06835709873108524 0.05093296991961825 0.06395009649560486 0.6546401832840594 0.08180797194240257 0.07300921134858229 0.013150912937111707
0.4939152614655231 0.0656281641071201 0.04239564088483183 0.033621017071797876 0.001804151506780492 0.025052257819121095 0.09271922192610708 0.04695690645207663
0.08324033185221559 0.042196508257365185 0.0464187817201887 0.3445790705316828 0.08581504137577987 0.47913066387476183 0.06221274809071054 -0.008573345649985076
0.15535754140558072 0.1966634517341506 0.2758997685142885 -0.03674596821675631 -0.14315119211297403 0.31543912129602486 0.19586873348333292 0.41326271770204315
-0.003174862013484153 0.0384827908419118 0.4106302344259173 -0.04115011174128307 0.059440636486505896 0.5838847456847903 0.02440313027444419 0.0034774461970422093
0.234740588765775 -0.181976753247662 0.1076282938376532 0.10098817874258129 -0.007259935060076902 -0.07922542759825794 0.41109220171577926 0.5633367307376361
0.14532822080056554 0.06995547259319497 0.43889608267301883 0.08793997138887119 -0.11235601521023338 -0.00676124004460556 0.3594665325810711 -0.13801325707513826
0.5012207565239006 0.5310920320857121 0.03896110842118387 0.24888519279748003 0.10350334930517999 0.038173275408937196 0.04282422078350418 0.06720753064031366
-0.03685130542663894 0.08779128022338324 0.6034658963289964 0.043281897322112316 0.12856664733519219 -0.08748823820610271 0.5377429278565136 0.0484427266410372
-0.10847726181804236 0.27510460074588633 -0.16470249781767676 0.2732330367017384 0.13649257671452217 0.1326124684577893 0.042524118898310835 0.5263813358900045
0.4445538994178286 0.3194174285699713 0.025280400655600454 0.011346473894244955 0.11767254026817862 0.35503433317152816 0.3676622454695034 0.36198184356466273
0.18692882270792785 -0.05865876903090252 0.0338210042897388 0.3661299732141636 0.03636289108583929 0.013330559486041036 0.05305355892852554 0.034884224362058375
0.09631838789403474 0.0985164425765491 0.2125366562518885 0.05113843329734918 -0.02162553256922023 -0.05464579754566378 -0.08789025925818358 0.06553808598401092
0.024882310898670403 0.03703446690938226 0.08244876309041359 0.013777291370298454 0.368277826071836 0.27943080994143954 0.08877855684380682 0.09564948581311032
0.36812702829796573 0.07139916973760169 0.04018906330657338 0.1032863141022899 -0.01044341041596797 0.17711385780281283 0.07020535651951154 0.08877936095925626
-0.09273606970603639 0.07895927937978883 0.03218455783277053 0.288206098203012 0.12460780401548752 0.38313091172265834 0.0869319680644361 0.022519607406391296
0.1060580652486536 0.001165857092939246 -0.23551910531741144 -0.1511219808993021 0.0970253970316954 0.06967589357004486 0.17337282463920797 0.40923713073639656
0.028967299007734544 0.061854649586791544 0.4913638365119774 0.0033652741275425314 0.05525035652932155 0.46024708204697673 0.04440528794202242 -0.05541589068033468
0.21425568854039082 0.13041306210059112 0.10784209740561039 0.018813583800874563 0.12245047884717922 0.1488859906074876 0.5147731457172481 0.2589399833168382
-0.23264617916136054 0.08106443232933655 0.37892246589277845 0.09371275392014226 -0.15192531554190658 -0.0551489149219958 -0.02281013917886784 0.33061520741249917
0.33876315171106786 0.7586410176355024 -0.0001339041635228071 0.1667013198171822 0.11745011853109154 0.05583524895063374 0.26074218881050815 0.0258085129454744
-0.05650668886405452 0.06612431532396287 0.4831273145747691 0.03363967567329655 0.09560724155014866 -0.4780263496723453 0.44959811929654736 0.06475087516769622
-0.05470941350034417 0.23975041269777564 0.010543939917509128 0.22499648180341858 0.13584189000352398 0.11730781382894769 0.038777007219580585 0.4374880218752536
-0.09578970639353175 -0.054054040701625616 -0.06954804039086153 -0.5767368460704555 -0.007388319503409664 -0.20730628633415393 0.13600193892616566 -0.11459691668767225
-0.17372613716347854 0.06741272198615322 -0.1953267250148545 0.06976196004863904 -0.36708527633629706 -0.04481743917952646 -0.021617687568700205 -0.08014642052583838
-0.10341988347520456 -0.06527346229140427 -0.008274299845344892 0.0035821669237122975 -0.34311599818734667 -0.14835494835323856 0.0047953147448946435 -0.16184579761391032
-0.11613369868706695 -0.05052225714431538 0.18116604438333533 -0.03415470144801552 0.044908832752662706 0.6700626695370021 0.06866738264388621 -0.21874024278990625
0.14364852638721531 -0.1569650830195283 0.09697842390946339 -0.0915272314380024 -0.11356401206978008 -0.49095444922127496 -0.07203727040231493 -0.07406115097818679
-2.076032518212361 -0.016811198961431427 0.07180656760698452 -0.0843990583178187 -0.0195043306515419 0.036547638686671845 -0.07878733332018041 0.08370631358602983
00000000: e78c 7d3a cf60 de3f 85d3 f984 8809 ba3f
00000010: a50f 4896 0a03 963f 39db dec7 66fd b8bf
00000020: 1872 a6c7 3609 b43f bedb 5a4c 8d0d e33f
00000030: c5c1 2285 c406 db3f 9370 8adc 1ea0 dd3f
00000040: 27a1 98e3 e303 c93f 6e5c c25e a482 da3f
00000050: 4a2b 3044 2ee6 9b3f 53be dd7f a223 d43f
00000060: 3c8d cb8a de47 80bf 9542 63b7 5669 a8bf
00000070: 1edf 9b64 eb04 b23f 07cb 93c5 68c0 b5bf
00000080: f23d bbc8 640f a13f 395d 7c07 5652 ae3f
00000090: f52a 1599 e85f cf3f 3d6f 155c 891e 703f
000000a0: 9dce 6e9a 2dfb c0bf 78ca 0fc4 4c64 c7bf
000000b0: 9bf5 ae5d b30a c2bf e8b0 66a0 faac bfbf
000000c0: e691 6d53 9e42 a73f 3bdc 7fcf d97f b13f
000000d0: 2e92 2fe0 e213 aa3f 9550 0695 085f b03f
000000e0: 8647 3bf8 cff2 e43f c371 0b04 5ef1 b43f
000000f0: 9085 0c4f bbb0 b23f 0fcb d1a7 ddee 8a3f
00000100: 6c57 bfc1 4e9c df3f bd5e 89e2 01cd b03f
00000110: c0c6 2fa6 e1b4 a53f c031 9021 c636 a13f
00000120: 2c62 feed 288f 5d3f d7a9 1890 4ca7 993f
00000130: 2319 e269 72bc b73f 72e5 1053 bc0a a83f
00000140: a971 0307 3d4f b53f bd09 f1dd c79a a53f
00000150: 4716 d1da 33c4 a73f 3a75 b45f 950d d63f
00000160: 9fbf 367c f9f7 b53f 6f95 f6a8 13aa de3f
00000170: 5145 e36c 59da af3f a0cf 78f9 e68e 81bf
00000180: 4e10 c383 c1e2 c33f a121 c29a 442c c93f
00000190: af8a af80 57a8 d13f fa6b 8017 5ed0 a2bf
000001a0: 011b 413c c752 c2bf 191b 7691 2730 d43f
000001b0: 6957 4f06 3a12 c93f 40ed 4b78 e572 da3f
000001c0: f31f 8d10 2b02 6abf 57e8 3f30 04b4 a33f
000001d0: 92eb e608 c447 da3f 17a5 4fa0 a011 a5bf
000001e0: a2a3 86cb 006f ae3f b52e eb0f 2faf e23f
000001f0: 2289 cb59 22fd 983f 7ca0 13b6 bb7c 6c3f
00000200: 197a e5c7 fa0b ce3f 3a5d eaa5 034b c7bf
00000210: 1331 2822 878d bb3f a263 fb7c 5cda b93f
00000220: 5640 77fa 97bc 7dbf 6bcf 8b1c 1e48 b4bf
00000230: 51a2 80aa 554f da3f 27eb 64c0 da06 e23f
00000240: 211c c379 1d9a c23f 7dc8 f612 9ae8 b13f
00000250: 8814 5b98 df16 dc3f 465a 20e5 3b83 b63f
00000260: 8d3a d622 5dc3 bcbf 13a8 f38d acb1 7bbf
00000270: 504d 5cea 7f01 d73f 29ad c61c 6baa c1bf
00000280: ca16 ab1c 000a e03f 992d 9fb7 b4fe e03f
00000290: 2544 f8dc b5f2 a33f e90c c351 78db cf3f
000002a0: 6ece 4a0c 327f ba3f 1cd8 ec92 728b a33f
000002b0: a9d1 7b67 0eed a53f fd22 2542 8334 b13f
000002c0: efa0 3e9f 2cde a2bf 79f3 6e45 7d79 b63f
000002d0: ed7f 1fb6 974f e33f 23bd 037b 0b29 a63f
000002e0: 2c9c d434 df74 c03f 163f e111 a165 b6bf
000002f0: 8491 19a8 3035 e13f 3efd 4d2d 7ccd a83f
00000300: 353d de73 2ac5 bbbf abb1 cb53 509b d13f
00000310: b824 d9b0 f814 c5bf e886 346b a67c d13f
00000320: c75c 91b8 9678 c13f 6cb5 8803 72f9 c03f
00000330: 6b3e eba7 b8c5 a53f 60ea dbab 1dd8 e03f
00000340: 27c4 d332 9273 dc3f 93bf 5ecc 5571 d43f
00000350: c3ac 2ef8 1ae3 993f 52d5 67f2 d13c 873f
00000360: 4fcd 16a0 c91f be3f cb72 7bec e1b8 d63f
00000370: fdfc 103a c787 d73f f1c8 f6e4 b52a d73f
00000380: 2bec 1a9e 48ed c73f 1302 39ad 8508 aebf
00000390: 7342 af96 fc50 a13f 7392 4269 ac6e d73f
000003a0: 78dd 0028 289e a23f 524b 3d68 0d4d 8b3f
000003b0: 49a0 1109 d629 ab3f 5c0f 9055 58dc a13f
000003c0: 5c21 0266 52a8 b83f d60a fca2 5f38 b93f
000003d0: 82ca e6b1 6634 cb3f 975d 2915 d12e aa3f
000003e0: 30d3 92ec 0025 96bf df19 a5b2 88fa abbf
000003f0: be9e 26dd f97f b6bf 729a f19f 1ac7 b03f
00000400: 371a 3c9e bf7a 993f ddb3 6680 2ef6 a23f
00000410: 8fa8 11b5 5c1b b53f 6f35 e7be 4437 8c3f
00000420: 4483 b428 dd91 d73f 9c5e 8cc3 31e2 d13f
00000430: 2df0 3a06 31ba b63f 734f 7215 7c7c b83f
00000440: 3a0f d4aa 648f d73f 9c0b fc4a 3747 b23f
00000450: a501 1e31 a993 a43f 8d97 31cd f870 ba3f
00000460: 41f3 8fd1 5a63 85bf 973a 77b9 aaab c63f
00000470: d05c 416e faf8 b13f 9439 e183 3eba b63f
00000480: 5d08 8c12 8dbd b7bf 3ee4 a6e2 ac36 b43f
00000490: b1eb a78e 7e7a a03f 768a 92fd f771 d23f
000004a0: 56a9 120b 4ce6 bf3f eade fb83 3785 d83f
000004b0: a44c d067 2c41 b63f 6d1c 5145 610f 973f
000004c0: 0252 b811 9f26 bb3f c1c1 8085 f519 533f
000004d0: 76f2 7573 7d25 cebf a1a9 d50e f757 c3bf
000004e0: 9dee 210b a8d6 b83f 86f2 3384 47d6 b13f
000004f0: db96 eba9 1431 c63f ba96 34ef f030 da3f
00000500: c212 9187 9aa9 9d3f e05f 29a2 69ab af3f
00000510: db62 104e 8172 df3f 3b60 3cca 7d91 6b3f
00000520: 7384 c554 c649 ac3f 0a28 5e2d b074 dd3f
00000530: 78fd f536 4abc a63f ed2e 4dbc 785f acbf
00000540: 09a8 a1fb ba6c cb3f 9cbc 580e 60b1 c03f
00000550: 7b38 7d29 8a9b bb3f 92cc 943c de43 933f
00000560: 7236 0722 ea58 bf3f c3f0 3e36 b20e c33f
00000570: 31de 3688 0579 e03f 2c3f fe01 7992 d03f
00000580: 88c9 8499 59c7 cdbf 8e2a b97d a3c0 b43f
00000590: 8aaa ae03 4440 d83f 7b1b 4e1d 8ffd b73f
000005a0: 9cee d7ea 4972 c3bf 6fed ff83 7a3c acbf
000005b0: 976a 2987 8a5b 97bf 7a67 d9af cc28 d53f
000005c0: 5017 6ca4 4bae d53f adc1 0487 c946 e83f
000005d0: 8115 9a01 148d 21bf 7d4c 6806 7856 c53f
000005e0: c79a 0002 3611 be3f a0fa 6910 7096 ac3f
000005f0: d03a 6801 00b0 d03f 48a0 3cfc 8b6d 9a3f
00000600: 104c 5ad9 71ee acbf 866c c9eb 85ed b03f
00000610: bac9 f9d3 8eeb de3f 56ce ba35 3839 a13f
00000620: 28fa b757 b779 b83f d303 9ed4 fb97 debf
00000630: 9a31 ae30 37c6 dc3f e38d 3b6b 8393 b03f
00000640: 0cde 884b df02 acbf 48a6 de3a 24b0 ce3f
00000650: 81fb eea8 0f98 853f 64c6 8749 afcc cc3f
00000660: b4f8 7e5d 4463 c13f 05e9 f587 e207 be3f
00000670: c590 b073 94da a33f fe23 96c2 cdff db3f
00000680: edef 4098 ac85 b8bf d86d 0fa2 f8ac abbf
00000690: 83c9 fa7e e6cd b1bf 55aa 88d4 a074 e2bf
000006a0: ee91 3bea 3643 7ebf 48bb 072c 0389 cabf
000006b0: 45b3 f0f3 8268 c13f 885f 6539 3956 bdbf
000006c0: 2ded c976 a83c c6bf 68ce 43cc f541 b13f
000006d0: 719e fc53 7700 c9bf 63ec e978 ebdb b13f
000006e0: fc47 2d3e 537e d7bf e710 22b7 4ff2 a6bf
000006f0: 83a8 7d74 f222 96bf cdc8 0ccf 7984 b4bf
00000700: f639 48b9 b979 babf e698 d6f9 c2b5 b0bf
00000710: 814b ddb9 1df2 80bf 3d33 2839 5958 6d3f
00000720: 39bd bccd 9cf5 d5bf 333f b081 4bfd c2bf
00000730: c3b7 0d80 40a4 733f 7a96 dff3 5cb7 c4bf
00000740: 8310 d325 f0ba bdbf e453 4fa4 0dde a9bf
00000750: 7ed4 e2ed 7230 c73f 289f 729b b97c a1bf
00000760: f6cc f25f 4afe a63f f5d1 7d44 2771 e53f
00000770: 93e5 c182 2f94 b13f 0d06 8d26 aeff cbbf
00000780: bed0 792d 1363 c23f f565 178d 6e17 c4bf
00000790: 55d8 1bf7 93d3 b83f 8c3a b821 546e b7bf
000007a0: 019e d7f5 8712 bdbf d4c9 ce35 cc6b dfbf
000007b0: d396 78d8 0871 b2bf 81fd 5aed abf5 b2bf
000007c0: a73c d9ef b69b 00c0 76cc fb76 f436 91bf
000007d0: 1d90 824b ea61 b23f 51c9 493b 2d9b b5bf
000007e0: c36e 1d79 f1f8 93bf db80 cf41 5fb6 a23f
000007f0: 7900 f31b 682b b4bf 9d1a 52e7 c66d b53f

encoder2.bias f8 [9]
-0.2848029526916528 -0.28733137450673896 -0.042567578172933385 -1.0799152621617913 -1.2461229659643374 -0.938313798326808 -1.4991823862855271 1.1991243470935424
1.894672090088171
00000000: 425a e729 363a d2bf 48c1 2722 a363 d2bf
00000010: e8ce 3ee8 6acb a5bf 83fa d639 5547 f1bf
00000020: 17c8 99a2 1ef0 f3bf ae5f a6a8 aa06 eebf
00000030: 875e 7dab a6fc f7bf 77aa e902 9d2f f33f
00000040: 9e29 79ae 9350 fe3f

decoder1.weight f8 [104, 9]
0.09916535017368934 0.13473117516244254 -0.006453627178596142 -0.4224980878064856 0.12786713955780188 -0.10077504214287328 0.032649841077103274 0.31861441653564243
-0.2274745670647739 -0.11329494013876615 0.16211849531521927 -0.06825831775485255 -0.005733582576270132 -0.06082138390658005 0.007659220924703708 0.10815047011620288
-0.02791033813279135 -0.13904481244679956 8.625218288984422e-05 -1.4141105297137404e-06 2.077674993534033e-05 -0.00018783889449368248 7.618896335893521e-05 -0.0002996848871323597
-0.00014144485069925904 1.1451366790114997e-05 -4.24942511371281e-05 0.04245494098010567 0.0361747633953158 -0.8230268907452465 -0.043348601147134874 0.0432735362368809
-0.07226611885913148 -0.07203353890969035 0.01623215411247123 -0.0012566675047691346 -0.00015412807430303225 -1.1214417747009925e-05 1.65729942021842e-05 -0.00023682689141702408
-9.972509425173156e-06 -0.0005135595242363823 -4.056116952612258e-05 4.2840024464752716e-05 -0.00033653475187451045 0.140868207169979 -0.05229375578856403 -0.026546792059569443
-0.22371318809279558 0.01992896592829402 0.10320286842124456 0.09090883414497516 -0.10744798964855964 -0.06707147302620604 0.04401924191636157 -0.11992977472757307
0.06075712932594244 0.2638853901190546 -0.16742800550211837 -0.15024791681918245 0.08204888885268184 0.10729993219241887 -0.1342958888926758 0.29865700505102843
0.1621711630711881 -0.23945745867875556 0.19348464448580216 -0.1165555044185465 -0.3272336355118453 -0.18123808152308396 -0.09918777404013818 0.09366142908336889
0.11138673645092541 -0.2697307015332331 0.031468112054721116 0.21883685892051594 -0.04084049441424371 0.06161255132433883 -0.11911461878057637 0.09321522768067643
-0.18692112790207063 0.190690612397696 -0.13297616646881985 0.0047961968905512 0.1122969667369641 0.113348149864552 -0.012941523982491402 -0.3373465777899253
-0.030534487929945203 0.0049855996925301 -0.246320338343096 -0.1915461251708301 -0.0001972073804639864 0.07284761383002604 -0.23711959466652907 0.16342594337661545
0.14667445988191652 -0.1328456990966086 0.12217503521668528 -0.009498031464306193 -0.2885901063096095 0.003902370034814319 0.0037266131587566837 0.207333441110289
0.21447945262227905 -0.11378697265877909 -0.29094538059418945 0.1044668495466186 0.03325801369166148 -0.040715224075147674 -0.09523214540476868 0.050417984045209814
-0.11993134783947743 0.07344861405252148 -0.0172076100396378 0.0001279697736325291 0.10179818090135401 -0.10875581031154434 0.02707893105588351 0.16155854388239177
0.028976333841153265 -0.24157743514238653 -0.012541801313171303 0.22108230731653541 -1.960165799179126e-05 0.23219447593459475 -0.047717769835507025 0.17768201719556426
-0.024062222230421038 -0.034225469248444336 0.021989022775185028 -0.09653686584064938 -0.1528714547357818 0.19451932131475888 0.13528788772585984 0.29887275063142454
0.33987780183167754 0.06286843150166278 -0.18605637500208444 -0.2749026666168323 -0.15736203073348545 -0.0495135367409548 0.13012193262787747 -0.03842428365155744
-0.11403256861474716 -0.09341150760123877 -0.009947216601728514 0.17438226261761236 0.17152597718879858 -0.09539786808658503 0.004018042093640338 0.02997602023590389
0.05680015483944975 0.02123510921930758 -0.06524900319099626 -0.04283698872634933 0.015516311973247 0.13487902796806983 0.19085756929436357 -0.268229631225143
0.11818406808123083 -0.03031114766809831 -0.02064534262849403 0.2328153238768535 -0.015803753774413867 0.09072528844141173 -0.37186134702767376 -0.153630494266055
0.2616044709353394 -0.11006129353435308 0.002056562025152566 -0.0003351932666292499 -4.506000918161023e-05 1.1161312360909753e-05 -0.0002591519101125377 8.233272919999812e-05
-0.0003401888476082461 -0.0002328778130197894 0.0001403173265254541 0.00020824084656872416 0.10866767753117695 0.1599268999606738 0.02302215316389297 0.06501757729063751
-0.03212910108651873 -0.34608565342199116 0.06474185095161891 0.10506771666886815 -0.2427697462803995 -2.5744565505288724e-05 -2.6004332689121674e-05 1.1240693022288864e-05
-1.3348223815575199e-05 -2.5507259832442642e-05 -2.8728682851084772e-05 -2.7351684971735822e-05 -1.507605119642617e-05 -3.059172270893089e-05 0.019667331808247927 0.008976947572563504
-0.31106595321200503 -0.03946466800027973 0.039471573283727 -0.042620627573798885 -0.020435509481575284 0.004723740359334869 0.050531563804853956 -0.2066027932084065
-0.025557261817301863 -0.0630937213907035 -0.14180090243771948 0.08265339367158021 0.023531336063059252 0.20543059238810954 0.12163132077228161 -0.027901448748294148
-0.23975251277185466 -0.32042427081850716 -0.05173108042528727 0.19986890562166523 0.22096606072305272 -0.09626544767840876 0.09379055688535559 -0.13443023400798887
0.2337731237307224 0.2863442161796631 -0.20634670591321735 0.03650447211695277 -0.1907915142673166 0.12019977893590666 -0.13113410551796442 -0.05768853579192171
0.18336870923615695 0.07495220483826245 0.010167486512326249 -0.07200185144831923 -0.010703281324902135 0.03511749993190194 0.08681974972108353 -0.12942815731773044
0.15084137961090568 -0.20655931489646925 0.049951730337524175 -0.22238943455070426 0.17412677982972488 -0.01113340453667956 0.059646277743724205 -0.185097303988606
0.048374038280035274 0.028862432116972835 0.3580934247550154 -0.22305644923502632 -0.14631540529419762 -0.13203903295190872 0.09152044071826725 0.3266215872197211
00000000: 4173 e47f e662 b93f ea83 8903 df3e c13f
00000010: b129 c35a 1e6f 7abf cf16 706b 350a dbbf
00000020: 3e21 514f f35d c03f a2b4 41a6 64cc b9bf
00000030: 87a0 4adf 7ab7 a03f 4d80 c3b8 2d64 d43f
00000040: e583 1bf9 e21d cdbf 5ec2 b2ae e500 bdbf
00000050: f850 ba81 4cc0 c43f aee3 6f8a 6079 b1bf
00000060: 23c4 76da 187c 77bf f96c 8dfd fa23 afbf
00000070: edab 2676 465f 7f3f b434 32cc bfaf bb3f
00000080: eba7 0016 8794 9cbf 3898 116d 38cc c1bf
00000090: 09a6 0838 499c 163f 37df 6af8 8eb9 b7be
000000a0: c9c4 4262 37c9 f53e e6ed 49d1 d39e 28bf
000000b0: e142 7c6c f4f8 133f d41d 12ca e0a3 33bf
000000c0: 12d5 1004 1a8a 22bf 86b0 11de e703 e83e
000000d0: 7947 e959 7b47 06bf 0957 206e a7bc a53f
000000e0: 0364 72a3 7f85 a23f 3c57 6f7d 3c56 eabf
000000f0: 9c32 82b0 c931 a6bf 8fdf d6ed f227 a63f
00000100: 88db 1b49 0880 b2bf 390f d53d ca70 b2bf
00000110: 790e 3a6c 299f 903f 8b7b 6f75 d896 54bf
00000120: fbce b913 ae33 24bf d238 c5d6 b184 e7be
00000130: c25e 517d c760 f13e b920 c481 970a 2fbf
00000140: 3251 4642 f3e9 e4be 53fc 39ae 0cd4 40bf
00000150: 51c7 3d2c 0744 05bf 6b00 4408 e475 063f
00000160: 4834 d6c0 1d0e 36bf daac 6b2b f807 c23f
00000170: 9635 cb45 3fc6 aabf bf97 d60e 152f 9bbf
00000180: 1f6f 453d a2a2 ccbf 11d8 9e43 4268 943f
00000190: b5fe b8d0 806b ba3f c6f5 9125 cd45 b73f
000001a0: 22bf 8f21 b681 bbbf bd60 2497 982b b1bf
000001b0: 36d9 d9a8 b089 a63f da85 45bc b7b3 bebf
000001c0: ed53 e8f6 8e1b af3f d106 1d8c 7fe3 d03f
000001d0: 2d76 08e8 476e c5bf fbe7 83e0 523b c3bf
000001e0: d39f 4bee 2701 b53f 1224 a123 0278 bb3f
000001f0: 6201 6491 9b30 c1bf 2097 5a45 321d d33f
00000200: 555d df50 06c2 c43f cc7d e7c0 8aa6 cebf
00000210: 5c1f 2cd6 1ac4 c83f 237d a5df 94d6 bdbf
00000220: fd2b ab58 65f1 d4bf 0439 7738 cf32 c7bf
00000230: b459 aab5 5e64 b9bf 0448 cf06 32fa b73f
00000240: 35d0 4356 d783 bc3f ecfd 738f 4443 d1bf
00000250: e1a5 48a0 961c a03f ab8a 1ca0 d802 cc3f
00000260: d929 b997 0be9 a4bf bd1c ec29 ae8b af3f
00000270: 6759 23b0 4b7e bebf e5b0 6002 f4dc b73f
00000280: 71aa a211 08ed c7bf 1b7f f3cb 8c68 c83f
00000290: b1c5 10ef 5c05 c1bf ea39 a44c 2da5 733f
000002a0: 4844 9377 7ebf bc3f b8f8 ba64 6204 bd3f
000002b0: 4f21 1ff2 1581 8abf ae9d c119 1697 d5bf
000002c0: 88a4 3ccc 6e44 9fbf 05f9 15ba c76b 743f
000002d0: edf9 c2c2 6c87 cfbf e761 a45b 9584 c8bf
000002e0: 448a ce7f 2ed9 29bf 71d9 fd26 24a6 b23f
000002f0: bbb0 2a54 ef59 cebf e96c 0f2d 24eb c43f
00000300: 40f7 2c8c 3ac6 c23f 5c60 847e 1601 c1bf
00000310: 11b0 a4f4 dc46 bf3f 4fe5 1f34 b473 83bf
00000320: c521 23a3 4278 d2bf 1d37 a5f5 dcf7 6f3f
00000330: 2dd5 8834 4687 6e3f 62c9 77f6 e689 ca3f
00000340: 1f9d 560d 1074 cb3f e5c1 479e 2421 bdbf
00000350: 9bc1 a45f d99e d2bf 13a2 51e6 56be ba3f
00000360: 306e 45c2 3107 a13f aa42 b437 a0d8 a4bf
00000370: 1299 0a46 2261 b8bf 5177 35d1 62d0 a93f
00000380: 7e5a bc20 d2b3 bebf 72c7 4a43 87cd b23f
00000390: 6744 7329 df9e 91bf a2c4 39fc f3c5 203f
000003a0: c47b c311 720f ba3f 77be 89b8 6bd7 bbbf
000003b0: 15c1 2e4d 94ba 9b3f dc9f 2e4b f3ad c43f
000003c0: 3cab d2d8 f8ab 9d3f a1ad b167 02ec cebf
000003d0: 8ab4 c813 84af 89bf f309 d3cf 6c4c cc3f
000003e0: ceac 2bae c78d f4be 84b8 3970 8cb8 cd3f
000003f0: 915b c3a9 766e a8bf ea9b 78ca 48be c63f
00000400: 90e9 3166 c4a3 98bf 4982 392e 0086 a1bf
00000410: 29fd c256 4a84 963f 82d8 a4d9 a3b6 b8bf
00000420: 2483 4ab5 4a91 c3bf 2f56 be55 02e6 c83f
00000430: 1feb a90e 1d51 c13f 7b29 682c bb20 d33f
00000440: 1938 e0d2 8ec0 d53f 011e 4041 2518 b03f
00000450: 6652 ecfe b1d0 c7bf 87f5 ac5a 0198 d1bf
00000460: adf4 d063 7024 c4bf edfc 059a d659 a9bf
00000470: ae84 90e2 d5a7 c03f 8bb3 4f03 59ac a3bf
00000480: 3d14 e108 3d31 bdbf f3a5 370a d1e9 b7bf
00000490: 13db eccf 345f 84bf f8f9 7871 2852 c63f
000004a0: cc5c 382f 90f4 c53f c13d 8aa3 fe6b b8bf
000004b0: 989d 2df6 3875 703f cd4c 4faa 08b2 9e3f
000004c0: 8ce7 e2ee e814 ad3f 5ae3 7e0e a8be 953f
000004d0: 314b cd9e 28b4 b0bf 9f0f 47d3 baee a5bf
000004e0: c747 d623 04c7 8f3f 3002 054b b743 c13f
000004f0: b31b 2855 056e c83f 3e87 7b9d ac2a d1bf
00000500: 082f 51a3 4f41 be3f e83c c1af e209 9fbf
00000510: 7ccb 9d7d 0d24 95bf 9684 077d e4cc cd3f
00000520: 57e8 75f6 db2e 90bf eaa9 c6c2 c539 b73f
00000530: e957 0889 93cc d7bf 3340 45fe 29aa c3bf
00000540: 09e6 c9ad 20be d03f b516 4918 fa2c bcbf
00000550: d1ba 7c54 ecd8 603f 6d09 361e 9cf7 35bf
00000560: 34ce 5720 da9f 07bf 251e 1b17 2f68 e73e
00000570: d572 87fa d8fb 30bf 7b60 6884 4195 153f
00000580: 88c1 95f9 6b4b 36bf f258 882e 1586 2ebf
00000590: 19b5 2fa8 4464 223f 2147 5c40 674b 2b3f
000005a0: 1cf1 2019 a5d1 bb3f 0977 8a12 7c78 c43f
000005b0: b78f b08b 1e93 973f 78e1 20f0 fda4 b03f
000005c0: 583c d5bc 3973 a0bf c8fb c370 4426 d6bf
000005d0: b20b 8504 ec92 b03f 774b f5c6 b7e5 ba3f
000005e0: a8c3 5d3c 1413 cfbf 026f 0012 c1fe fabe
000005f0: 2dbf a022 7c44 fbbe ed21 d515 cd92 e73e
00000600: d0c3 73e9 45fe ebbe 90a1 748c 0dbf fabe
00000610: 94fd 860d cc1f febe 26aa a67a 29ae fcbe
00000620: 08e3 ecb2 e49d efbe 0648 a896 f309 00bf
00000630: 51fd a94b ac23 943f bdc0 ef81 8162 823f
00000640: c874 fc2b 81e8 d3bf 0441 d184 b634 a4bf
00000650: 0524 c038 9e35 a43f 2b01 21f3 5ed2 a5bf
00000660: 2c13 9ad3 0bed 94bf 7def ba65 3359 733f
00000670: 9748 eaeb 45df a93f 59d2 0bd8 f571 cabf
00000680: b8f4 b8ce ae2b 9abf e3bc f4fd e826 b0bf
00000690: 8cb3 412f 8826 c2bf b90c b9d6 c528 b53f
000006a0: e4c0 493b 9918 983f b3d1 f3b5 8c4b ca3f
000006b0: 4ce0 e2f0 3a23 bf3f a12e 8a87 3292 9cbf
000006c0: 8695 bed8 35b0 cebf 0fa6 00cd d481 d4bf
000006d0: 9d09 3a05 7f7c aabf 43f1 90e6 4d95 c93f
000006e0: 556d 2aaa 9d48 cc3f fb78 8335 daa4 b8bf
000006f0: ec08 7f6e a802 b83f 5a37 5489 0235 c1bf
00000700: 32b9 8d18 47ec cd3f 6efc f8b0 7653 d23f
00000710: b86d c4a0 9169 cabf 25d4 ccd3 b6b0 a23f
00000720: def3 1039 db6b c8bf 5422 84a7 69c5 be3f
00000730: df80 4b9b 00c9 c0bf 042e 290d 5a89 adbf
00000740: 2ab7 a338 a078 c73f 3e1e 8b54 1130 b33f
00000750: 8577 6cf0 b0d2 843f c5d3 389d b66e b2bf
00000760: 6cb3 001a 9aeb 85bf 2019 73c3 ebfa a13f
00000770: f8ee b2b1 d139 b63f a63b 6e13 1a91 c0bf
00000780: 73fb 2734 c54e c33f 5f0e 151f 8970 cabf
00000790: 2c47 5bf0 4593 a93f b883 2fca 4177 ccbf
000007a0: abfc 5c4c c949 c63f 8781 0643 1ccd 86bf
000007b0: 2e90 79f8 f489 ae3f 0bbb 9ab9 44b1 c7bf
000007c0: 9fc2 c660 7bc4 a83f 4607 1a08 1d8e 9d3f
000007d0: 4011 0faf 00eb d63f 542b 501d 1d8d ccbf
000007e0: 3cdd 5194 76ba c2bf 0676 29b0 a7e6 c0bf
000007f0: 3feb cc33 e26d b73f 20af d13a 5ee7 d43f

decoder1.bias f8 [104]
0.09277378343030297 0.2833941043073249 2.1388111975870734e-05 -0.07267572090729345 3.3685309388507415e-05 0.1065682399915745 0.16755494902915138 -0.18563959186154105
0.19071996148231096 -0.0728890426982674 -0.014406423910443894 0.1770664775594948 -0.23126740370092566 -0.3960967763097451 -0.6695235936284399 -0.28391572306941976
0.06280994732145474 -0.0806867880800704 0.16063617559647045 2.108293052770261e-05 0.22616170602832666 4.743520651688865e-06 -0.17106488002222547 0.056719670973813516
0.06742862379305697 -0.4614718705621724 0.11267119154528295 0.04795816516261425 -0.2038748500962523 0.013423860235120386 0.3045806140718416 8.328051419122007e-06
0.025070128269237532 0.05841349974917936 0.07522680843797024 -0.32778397582827673 -0.08889591948082076 -0.06863579936070047 0.14432917630778774 0.19178761244288636
-0.2574113241610598 0.06376437999718157 -0.1074054682556793 5.643642010833216e-06 -0.1543209858275809 3.382441793799653e-07 0.1116010150360788 -0.039654961468298396
0.10970026763411717 0.052255654512786805 0.06814373916164186 0.14084429896516518 0.9284358489514599 4.154834225507608e-05 0.15018525708320438 0.049900983356848366
-0.1316934604500189 0.18607672743806508 0.12324140349621313 0.06793244058416899 0.11494872075480238 0.040273613754485536 6.994945047548808e-06 0.19393168480608192
0.41421838725687116 -0.15630004395102481 4.878903639977597e-06 0.13348929040640978 0.13407196638103863 -0.043763461405318047 -0.4641975267183107 0.37046767445798545
0.11113616537863096 0.07010575410779535 0.1568011021504338 2.068253113072258e-05 0.12832426305689656 0.010994374211862976 -0.006434223187093518 0.11118994478655818
0.23817055790251337 0.30631787447125436 4.0018691347489363e-05 0.24148969617958554 1.4794169989827082e-06 0.29639549402461035 -3.43441916052359e-06 4.130009092388245e-05
-0.05074880251420719 0.22095439445368692 -0.04569247264589746 0.07623355623181173 -0.36012783461413744 0.1658150438268825 -0.04236515457148092 0.10414636865290308
0.09088042506378292 0.13502041873482615 0.2921959470040175 0.14271333424084348 0.3915740437599862 0.11452108059409812 0.09698341643355302 -0.00030909556330464946
00000000: f963 c2cd 05c0 b73f 6044 7806 2123 d23f
00000010: 9cb0 04dd 536d f63e 8f92 8244 e09a b2bf
00000020: 8ff8 dc6a 2aa9 013f 085c 8e61 0e48 bb3f
00000030: c57b 2ec9 7072 c53f 7aad f1c3 09c3 c7bf
00000040: 5865 a1fe 8269 c83f d434 a036 dba8 b2bf
00000050: 43a0 617c 1d81 8dbf 5900 2b45 1daa c63f
00000060: f75d c397 2b9a cdbf db49 134b a659 d9bf
00000070: fb1a 51be bc6c e5bf 7fd0 59da ac2b d2bf
00000080: 01f0 9b0d 5014 b03f 74ef 05ac e3a7 b4bf
00000090: afe4 5ee8 b98f c43f 8570 34f4 671b f63e
000000a0: bde6 7fe5 ddf2 cc3f 1c7b 3d07 51e5 d33e
000000b0: 8a45 9838 74e5 c5bf 76ac be57 5c0a ad3f
000000c0: 4c66 0196 0043 b13f 96a9 0550 c188 ddbf
000000d0: 616a e3ea 04d8 bc3f 4831 e6fd f88d a83f
000000e0: 8df5 d132 9218 cabf e53c 9105 f87d 8b3f
000000f0: 3bc9 1bb0 3f7e d33f aac2 e7ab 1677 e13e
00000100: 2c73 17d4 fbab 993f 57a0 22ce 5fe8 ad3f
00000110: a706 066a 1042 b33f 9b75 15a4 69fa d4bf
00000120: 6000 eb0a e2c1 b6bf 6cca 96a1 1d92 b1bf
00000130: 5cdf 0ce2 6079 c23f e12c 9c19 7f8c c83f
00000140: 5b13 b958 6d79 d0bf 1ad4 bcc6 dc52 b03f
00000150: 6fd8 91bd ec7e bbbf f900 e480 d0ab d73e
00000160: e7a3 9b41 cac0 c3bf 80d0 0da2 fdb2 963e
00000170: dac5 c755 e291 bc3f 81ce 42b5 a74d a4bf
00000180: dcd9 d915 5115 bc3f 81b5 53ce 40c1 aa3f
00000190: 295c 203b de71 b13f 4514 f19c 2f07 c23f
000001a0: cac6 f518 bfb5 ed3f 47e9 642b 86c8 053f
000001b0: 6bc1 c13f 4539 c33f 749f 1c27 9f8c a93f
000001c0: 626d ddd0 54db c0bf 3a54 72b9 5cd1 c73f
000001d0: 2685 87a5 bf8c bf3f fd7e a53a 0564 b13f
000001e0: b3e1 5b84 476d bd3f 8b3b ef3b be9e a43f
000001f0: bd78 96da c356 dd3e 183d f3e1 c0d2 c83f
00000200: 53e3 aad6 8d82 da3f 9c06 91cc a301 c4bf
00000210: 2deb 1bd2 ae76 d43e 18b5 5454 2d16 c13f
00000220: 5a5f 752b 4529 c13f 2ebf fd16 2a68 a6bf
00000230: 28e9 088b 69b5 ddbf 166c 810c beb5 d73f
00000240: c33d b473 6b73 bc3f ac86 2761 73f2 b13f
00000250: 463f dbfa 0e12 c43f a166 85b7 ecaf f53e
00000260: 076c 8ef0 ed6c c03f f282 70ed 3784 863f
00000270: f9a4 9ea2 c55a 7abf 9797 80b8 f176 bc3f
00000280: f3da 8772 5f7c ce3f 7e31 4249 b69a d33f
00000290: 3934 b8c3 37fb 043f 1ec6 b465 22e9 ce3f
000002a0: 7181 5531 0cd2 b83e 251e 61ce 24f8 d23f
000002b0: 898b 9ce6 5bcf ccbe 1295 9751 34a7 053f
000002c0: 4d28 383e bffb a9bf 5004 0bcd 3b48 cc3f
000002d0: 8c00 60f7 0065 a7bf b197 dfd6 0a84 b33f
000002e0: 5402 039e 550c d7bf 14ec 3567 6d39 c53f
000002f0: debd bfb2 e2b0 a5bf 4a83 5c1f 56a9 ba3f
00000300: d1da 7e85 f043 b73f 1b10 615d 5948 c13f
00000310: fafb 19a1 56b3 d23f be3e a237 6e44 c23f
00000320: e157 fa93 8c0f d93f edae dae7 4051 bd3f
00000330: 3022 d6b9 e7d3 b83f 168b f255 c341 34bf
