Trained_models/4/predictor4_50_9.pt (torch, 36037 bytes, 16 tensors)

weight f8 [29, 50]
-0.12162470382383833 0.20044197085917256 -0.18157888363028094 -0.1252980218887112 0.24588903901957643 -0.21744776874207525 0.13393028626000855 -0.04590230960053303
0.025071478455790427 0.10788710090138681 -0.2866411853944652 0.16669982764303806 -0.04784499838836213 0.024590867466276606 -0.14781179541006081 -0.031137086389727883
0.2031457277781276 -0.13911992798346098 0.03131427745644444 -0.1455330617238369 0.2626968938389615 -0.1343998327510445 -0.08408156672121124 0.3623458951621304
-0.23561887053455927 0.06302372497445907 -0.16675105949394675 0.20400315278757244 -0.007111213961655986 -0.16089992468162015 0.25316843239847764 -0.17761323121684305
0.18777600928005794 -0.230485617288774 -0.01289376972754462 0.1302437556369154 -0.13295936558514374 0.2450137116272857 -0.2662152144996795 0.2973328553190334
-0.103724788223862 -0.17308781471912182 0.33333405915629927 -0.323843337340537 0.26349001714312437 0.0055583712063983 -0.21259453242918214 0.30037761850443656
-0.26062203687140273 -0.2347487071590466 -0.08599000005511101 0.06958202164659848 -0.08019421211997703 0.0490332206324273 -0.006506909778464483 -0.05513897535897487
0.07087453176347776 -0.10205934833010881 0.1108132510831834 -0.09156332625856536 0.036761183025723586 -0.015587956856143836 0.014311946744148304 0.03288418506261383
-0.09808572058885075 0.15209302126167987 -0.09664637615706448 0.04941349067506868 -0.03987497936586713 0.06637594269860553 0.010167553568597816 -0.046858923238299974
0.08205059493028155 -0.06270753014130963 0.10985366435982646 -0.14223909213738486 0.11758728675459096 -0.015764048441621218 -0.039119599826731806 0.022497722839070044
-0.03239498679100433 0.07336853854197314 -0.11389601030092067 0.10899737719774721 -0.07440375345705733 0.08461360186667602 -0.08925621210496196 0.03204283704133374
0.06411222490849244 -0.12850184078442642 0.17321931895087173 -0.14417764580055767 0.11900069268873299 -0.06712618438173006 -0.023107655825910806 0.03810360679554461
-0.08608241946510602 0.09648347158695256 -0.1700849971737828 0.22566355868193344 -0.6815360603075136 0.13229249670643242 0.08091130515572549 0.017562702115924454
-0.18241078424853693 0.25695386834491973 -0.2337229798830488 0.2014179498254562 -0.11700465023890756 -0.015633841132740516 0.11305931750866781 -0.04208750661220974
-0.0897030628889519 0.07810441863242477 0.07641873921645724 -0.1304269388926446 0.17612738135850953 -0.15028578121509323 0.18364177381083396 -0.09078427848855893
0.11782427925306677 -0.1872074813597423 0.26749382620417994 -0.12133235630460999 -0.08649467883282326 0.1658453905674113 0.12647288573923046 -0.31683762382001596
0.3472545676472542 -0.0538326915447638 -0.13864244568183204 0.13607488184593036 -0.03564625556331394 -0.07899224935145079 0.15800459315334894 -0.15493587822313182
0.20374854365485304 -0.28620672713076006 0.20451915549728944 -0.036490904394166385 -0.014292907607798255 0.011603311899858805 0.19784580173242558 -0.2966980598942278
0.24999905997594557 -0.021459407820442672 -0.08432926462896921 0.07731100336286127 0.05342218801387734 0.028410632145380272 0.30788319711673695 0.18521631227901075
-0.36537812463765873 0.26477210518499517 0.05884515109316762 -0.1269779368249544 0.11999631793877534 -0.21529246751780592 0.27143382174656316 0.08766616490809565
-0.21317947191444112 0.1778835046620942 -0.09455884547163121 0.15814239829666313 -0.088192126029839 -0.10325124969621052 0.183850655819019 -0.07995154649041829
-0.018449250083731276 -0.13974412300701214 0.1846543031684057 0.07770001208406109 -0.27939369558444993 0.22837151362649713 -0.17860169410531765 0.17912093801952256
0.00010911406423429844 -0.12361559276200058 0.4709809530897686 -0.5185433137440232 0.28175535632247695 0.12065673321600359 -0.33575192203947096 0.41372294427867345
-0.3648349791079436 0.30332317371802703 0.01717981147020127 -0.36336310990915177 0.4359168788667836 -0.29736502781089974 0.0006301309835387192 0.054291857688924784
-0.15955818954395984 0.2767196576780787 -0.19675163464697318 -0.08936076488406343 0.22559158207765204 -0.11425498854761108 0.004309478761649009 0.11835249486492645
0.1700277949193223 0.1077586882507394 -0.2656589108397731 0.20558993387714658 -0.0009094891306184234 -0.11350896596613723 -0.021534061011602972 0.159315570169862
-0.2667257398686772 0.32404023475218297 -0.3256112638116833 0.3116373062913838 -0.14907704710510208 -0.04470271992826538 0.11563431478637268 0.12523881266323794
-0.32093697027998314 0.28219271849507044 -0.09351748310347244 0.0012974235365938909 0.12874842800103573 -0.17308919352083774 0.24496990801889412 -0.2528426441062824
0.16673209898056887 -0.005842924493273499 0.011542817729759495 -0.05701586296181825 0.16449556340016405 -0.23864998757534908 0.2571816993175624 -0.15153196835859067
0.01119052814952365 0.1760676107066848 -0.16262487548671917 0.08423185665030834 0.012612330798523193 0.055610046951582136 -0.09668643651579163 0.11916789653407737
-0.06689796496088733 0.09249946573499397 -0.10816032531704269 0.16048583565750602 -0.19233744678511017 0.04546627538946176 0.08366660386742196 -0.11178693789302334
0.010148992933540404 0.3171780049648402 -0.3783733302756464 -0.17476857551085564 0.3506396199993487 -0.29601302366865495 -0.06608119372735395 0.29932541827944054
00000000: 541f 4fed cb22 bfbf cbff ca1e 15a8 c93f
00000010: 1f0a 6b13 fa3d c7bf 20fc 21fd c309 c0bf
00000020: 6e58 84c2 4a79 cf3f dfed aa17 54d5 cbbf
00000030: b31f b7ab a024 c13f b61e 17ed 8180 a7bf
00000040: 4cb5 1e70 56ac 993f 0c1e 0832 7d9e bb3f
00000050: 7b2d 3d45 5458 d2bf 41e3 fc81 6b56 c53f
00000060: 35db b5be 237f a8bf 2514 312e 592e 993f
00000070: 8fe7 9f35 7feb c2bf 5c49 f27e 66e2 9fbf
00000080: dd88 90e0 ad00 ca3f 6996 748a aece c1bf
00000090: 7087 25cb 6c08 a03f ba99 4bce d3a0 c2bf
000000a0: d724 f3a1 06d0 d03f 2876 2083 0334 c1bf
000000b0: 6798 439b 5e86 b5bf 9dea 63d6 ac30 d73f
000000c0: 1219 a257 c228 cebf a82c a3a5 5222 b03f
000000d0: f0c7 8c45 1958 c5bf 2d73 c07a c61c ca3f
000000e0: c419 67f6 a520 7dbf abdc 3765 5e98 c4bf
000000f0: b2fc 615e e933 d03f a1e4 b4c5 07bc c6bf
00000100: 1e66 6a55 0b09 c83f 6b11 3a7e 8d80 cdbf
00000110: 7769 6a7a 0c68 8abf 9100 7ccf d3ab c03f
00000120: f74a 71ff cf04 c1bf d060 41fb 9b5c cf3f
00000130: e551 fe89 ab09 d1bf 72c7 6762 8007 d33f
00000140: 48bd 342d b58d babf 9401 c7d3 bd27 c6bf
00000150: f107 ae60 5855 d53f 31ed b967 d9b9 d4bf
00000160: d2f0 9c3b 05dd d03f 47e2 cee8 5fc4 763f
00000170: 6cbe 0b32 4c36 cbbf a652 fb0b 6339 d33f
00000180: 74b1 3e0d 08ae d0bf a060 03e2 3e0c cebf
00000190: ae0d 05ce 7003 b6bf ab98 5c9b 20d0 b13f
000001a0: f13f 629e 9b87 b4bf dd51 11de e11a a93f
000001b0: 15fa 244b fda6 7abf c6b1 cdff 2c3b acbf
000001c0: 8d1f 0b54 d524 b23f 1b32 54bb 8f20 babf
000001d0: 209f 5dd9 415e bc3f e223 cbb3 b170 b7bf
000001e0: 6b2b b79d 5cd2 a23f 60ce 4427 94ec 8fbf
000001f0: 586a aaf9 944f 8d3f 4290 cc26 32d6 a03f
00000200: ad3a 2252 251c b9bf 5366 22bc c877 c33f
00000210: 061b df20 d1bd b8bf 597a dc9c b94c a93f
00000220: ae32 9c48 7e6a a4bf d4b5 2187 03fe b03f
00000230: 57ab 75f0 b9d2 843f ce25 ab8d e4fd a7bf
00000240: 78c8 d78d 4401 b53f e37b 2bc7 990d b0bf
00000250: 606e c5a7 5e1f bc3f a1ad 78fc e334 c2bf
00000260: b84d 094f 331a be3f f18b 0962 7324 90bf
00000270: 09df c6f3 7b07 a4bf 2328 509f a409 973f
00000280: e8b7 a461 1396 a0bf c2d4 97d1 47c8 b23f
00000290: 4828 63f7 4928 bdbf 7c02 6a8a 40e7 bb3f
000002a0: 9a36 ccd7 1f0c b3bf 5a6b d0ac 3ca9 b53f
000002b0: 8aa5 f4bf 7ed9 b6bf 85c1 5332 eb67 a03f
000002c0: 407a 41a5 a869 b03f 6d8c d291 bf72 c0bf
000002d0: 28f6 f6f6 0c2c c63f 978a c3c0 6974 c2bf
000002e0: 0da9 4c53 d476 be3f abf2 9f7e 2e2f b1bf
000002f0: 65f0 3c88 88a9 97bf d3cf 17e2 5082 a33f
00000300: a3f9 5c58 7f09 b6bf b60c 120b 24b3 b83f
00000310: 4169 335e 58c5 c5bf 7c0c 3822 8be2 cc3f
00000320: 3418 42b6 24cf e5bf cd1e 6ee5 f5ee c03f
00000330: 9d40 8571 9ab6 b43f 1980 defc f4fb 913f
00000340: b780 6490 3c59 c7bf d0d0 47a3 ee71 d03f
00000350: 24ef 7575 a2ea cdbf 2ef2 a939 10c8 c93f
00000360: f58a 414a 04f4 bdbf ee00 8151 5102 90bf
00000370: ef32 3597 74f1 bc3f a272 f060 7e8c a5bf
00000380: 3f86 75a9 c7f6 b6bf 1709 b3b3 a6fe b33f
00000390: ff79 bcb1 2d90 b33f a5d8 8776 d4b1 c0bf
000003a0: a6b5 6e8f 578b c63f 8eb2 af81 903c c3bf
000003b0: 0636 59da 9281 c73f d56c 1973 a33d b7bf
000003c0: cc12 1162 bb29 be3f 04d9 002d 6af6 c7bf
000003d0: 7472 db6c 9e1e d13f 1d61 4626 a30f bfbf
000003e0: 9970 dde8 8324 b6bf dff5 56f8 6b3a c53f
000003f0: ad55 0a76 4330 c03f a5c1 1c50 1147 d4bf
00000400: f39e db38 6b39 d63f a3e4 4763 f58f abbf
00000410: 083d 0521 09bf c1bf 42ec aad7 e66a c13f
00000420: c413 bddb 3940 a2bf f119 9a07 d638 b4bf
00000430: c90f 1b98 7e39 c43f 8802 f958 f0d4 c3bf
00000440: eb77 cda9 6e14 ca3f f1fe 3a05 3651 d2bf
00000450: 4a19 2206 af2d ca3f 84e5 f291 efae a2bf
00000460: 9304 ec95 9945 8dbf e1d9 1429 7ac3 873f
00000470: c7bb 0be0 0253 c93f 2612 02dc 19fd d2bf
00000480: 964f 501d f8ff cf3f 480e 1f7b 74f9 95bf
00000490: db59 ad49 9a96 b5bf d37e 1067 a7ca b33f
000004a0: d2fc cc2c 275a ab3f b53f b13f ad17 9d3f
000004b0: f6ac a6b9 5bb4 d33f 1248 f609 2bb5 c73f
000004c0: 0a86 ffed 5a62 d7bf 7868 2ab3 06f2 d03f
000004d0: c758 f29e f320 ae3f 9805 fd22 d040 c0bf
000004e0: 43fd 2f25 14b8 be3f 0b35 881d b48e cbbf
000004f0: 8e81 dbf6 2b5f d13f c0fa 3e2f 4a71 b63f
00000500: a189 0606 7749 cbbf 6bc2 82fd e2c4 c63f
00000510: ea21 d92c 0235 b8bf 45c8 6596 023e c43f
00000520: 2c18 1059 c293 b6bf fc62 b784 ac6e babf
00000530: 9aa0 0b15 6b88 c73f 6be3 705d b477 b4bf
00000540: 513d fb36 5ce4 92bf e5c8 0fab 22e3 c1bf
00000550: b444 9690 c0a2 c73f c9c2 cce2 25e4 b33f
00000560: 4a9a 4f18 96e1 d1bf c591 2e1b 473b cd3f
00000570: ffa4 9899 6bdc c6bf fc4d 6955 6fed c63f
00000580: e09d 8459 859a 1c3f 0d3e 3080 45a5 bfbf
00000590: 4cce a34b 8d24 de3f aae1 c225 e897 e0bf
000005a0: f22e 389e 4708 d23f 7276 3413 5ce3 be3f
000005b0: 85a2 2ea1 f57c d5bf e907 d2cc 6f7a da3f
000005c0: 4626 edcf 7459 d7bf fb38 cf99 a569 d33f
000005d0: 74f1 a9a1 9597 913f 827d 6858 5741 d7bf
000005e0: 7176 a0e8 0fe6 db3f 2501 5b53 0708 d3bf
000005f0: a41c b6fb eba5 443f b510 6d72 24cc ab3f
00000600: 443c f31a 676c c4bf 7acf f85d c6b5 d13f
00000610: 2324 1f56 282f c9bf 29fc b8da 58e0 b6bf
00000620: 9361 a359 2fe0 cc3f 1983 379f d03f bdbf
00000630: 8b63 81e5 d0a6 713f 3549 d85e 594c be3f
00000640: 3874 4b85 78c3 c53f b793 e5c9 1296 bb3f
00000650: d8a8 7c3b 8e00 d1bf 92cf 315d c550 ca3f
00000660: 2fb5 3909 59cd 4dbf 1f99 a070 ec0e bdbf
00000670: 2bfb 2d5f 060d 96bf 65c3 cfdd 7364 c43f
00000680: 1a31 6fd6 0812 d1bf 8d52 b640 13bd d43f
00000690: 35f2 51a0 d0d6 d4bf b50a af99 ddf1 d33f
000006a0: fd48 f3e8 f414 c3bf f4ae 4460 46e3 a6bf
000006b0: ea86 4de0 359a bd3f 8e0b 4a4e d307 c03f
000006c0: b082 db37 3b8a d4bf 2ac3 460c 720f d23f
000006d0: 129d 8803 c3f0 b7bf d5a7 28ea c941 553f
000006e0: 8d82 d617 d47a c03f 0444 bb64 c927 c6bf
000006f0: e2fe b887 2c5b cf3f 211f dee9 922e d0bf
00000700: 3551 2838 7a57 c53f 7924 c919 c0ee 77bf
00000710: 355b 39c5 c2a3 873f 7e67 8ce5 2e31 adbf
00000720: b505 92cc 300e c53f ddd8 e931 158c cebf
00000730: 74b6 ec3a aa75 d03f 1607 3348 6665 c3bf
00000740: e1d8 6a43 0feb 863f 7a5e ef2a 6289 c63f
00000750: cea2 dd54 e4d0 c4bf db2c 980d 3890 b53f
00000760: 3eab 7262 7ed4 893f 23de f889 eb78 ac3f
00000770: c556 cd3a 71c0 b8bf 4bd3 588a c981 be3f
00000780: 0b0c ad9b 3920 b1bf 8db1 3a84 0bae b73f
00000790: 911f f623 65b0 bbbf 5663 cfc3 cc8a c43f
000007a0: f67c de71 839e c8bf 0bc2 bc0b 5b47 a73f
000007b0: 47c2 60af 2c6b b53f 4bda 5e9a 119e bcbf
000007c0: 2e27 e5c5 fec8 843f af68 95f9 a44c d43f
000007d0: bb99 cdc5 4437 d8bf 4f04 1812 d15e c6bf
000007e0: 7c0f 2529 e170 d63f 6134 f69b e0f1 d2bf
000007f0: 4d8b f075 b2ea b0bf 39ca 97cc 2528 d33f

bias f8 [29]
-0.4665793451182225 1.4786169448221838 -0.07987837517859722 -0.05851619507076375 -0.037922474549358175 -0.05764308136266912 -0.03880749978523104 -0.02422836047344605
-0.027638602234290512 0.22708967199526114 -0.05100885600049868 -0.08287032206488054 -0.5184967783156802 -0.4567433534412127 0.004968445711958587 -0.014557415658752224
-0.5514905880595351 -0.08177864302452784 -0.07619339474157029 0.23730138676259943 -0.5047276723566443 -0.029888918726444565 0.01448861940950997 0.021503890415185696
-0.04156034587441883 -0.06328619292985942 0.05519970477074398 -0.4609918729769008 -0.09926798408473196
00000000: 3466 119d 6fdc ddbf d829 d53d 6aa8 f73f
00000010: b2b8 0cc1 e872 b4bf dc06 3bb0 d5f5 adbf
00000020: 131e f217 936a a3bf 7b2f 96da 6483 adbf
00000030: 648d d59c 93de a3bf 6c02 7abf 51cf 98bf
00000040: 0750 d032 4b4d 9cbf 5250 3d3d 4611 cd3f
00000050: 2533 a830 d51d aabf d0e0 134b fd36 b5bf
00000060: 884f 3e8e 8697 e0bf 1181 6c79 483b ddbf
00000070: 3b5b 84fd ca59 743f f854 5941 47d0 8dbf
00000080: 748f f896 cfa5 e1bf 0636 4df5 71ef b4bf
00000090: 5115 960a 6981 b3bf 866c b84f e45f ce3f
000000a0: 420e c5a5 ba26 e0bf b282 c561 339b 9ebf
000000b0: 056b 3994 35ac 8d3f 92ab 47a8 1d05 963f
000000c0: b2a1 aecc 6547 a5bf 430e ec20 8633 b0bf
000000d0: 7f78 7abd 2243 ac3f b615 8a0e e480 ddbf
000000e0: b30b 2f69 a069 b9bf

weight f8 [9, 29]
0.12821390238702363 0.41072702717209564 0.601185127873913 -0.21451123998198546 0.16907874176606838 0.28861323342860135 0.46084798331450333 0.08092462898598318
0.3338758747149148 -0.05105900497406604 0.2607408261137715 0.08252676209338859 0.18369394142666295 -0.029879872120837835 0.27488624131917455 0.30390750076852596
0.27680242869374755 0.22669879443027957 0.3714068738950294 0.406842494514659 -0.21878425063865983 0.4995873075379616 -0.11644383365756346 -0.03216882363232711
0.09715218181930348 0.02027537390097081 0.23618650628063645 0.6425776690449827 -0.17298899821774139 -0.1723943323048731 0.7511165326577861 -0.2496222036226244
0.1016780059837416 0.273663711364307 0.1071584416594447 0.025457518904016884 0.0416816417799555 0.09171868544135613 0.02271848096981063 0.17636908000510715
-0.11399108287712362 -0.013908352861680878 0.38736330421518306 0.30832106383260804 -0.2406575549029012 0.1541946657010038 0.1376370210629213 -0.026432908325773073
0.1054479131690232 -0.021876928206343096 -0.16993482547265853 0.4057627139928757 0.21957655339494675 0.03603246828255782 0.05442947169576244 -0.11474180858733085
0.16852533384548762 0.22669055851608066 0.1551646862019072 0.523427777491868 0.06232899211155596 0.37535683284188054 0.023860484970000997 0.3279941700379883
0.1435220648424552 0.07603263099819141 0.4307402088253765 0.524641940525742 0.13654679816258414 0.12458162408400512 -0.0027551778186348493 0.47517163229938864
-0.12317771937476452 0.14419270324206052 -0.012376260071990225 0.365313485792204 0.5783382638362514 -0.4091783764025855 -0.13966640936730226 0.15164799913058286
-0.031534673353740696 0.08999454253276643 0.4509950196789419 0.4636816408827886 -0.03293161237769854 0.13335029805028714 0.20544312559226785 0.633738884061304
0.6564097411890792 0.24950707344112638 0.5292616528287584 0.036961825748672045 0.29200817089465475 0.18850190840238965 0.3040179589975304 0.1089561458948051
0.002845760066887516 0.06450903359896998 -0.028926953006632814 0.20724708637655354 -0.16357090445125944 0.14393726508516777 0.1714541808964706 -0.09452746086166065
-0.014859503238715464 0.346240493348538 0.20867792773554258 0.44330361435147086 0.2483157284287393 -0.08813604347999042 0.2523679710933778 0.2793580756778314
0.29333038813698104 0.0740279931244972 -0.318582350348524 0.20304244046399583 -0.10706974512542862 0.2048505538018651 0.5238225203188028 0.01143143440855103
0.761993464122668 0.006592965636564658 0.8361591621623392 0.3154505236720471 0.06439693535574073 0.4649721524270908 0.696045966727957 0.38497237279874563
0.3836662906902282 0.0237315372892049 0.3218906426127602 0.7710295979490273 0.5740932357570642 -0.11983352899440623 0.1263756858687951 0.19504111810124158
0.5625377352410308 0.8745353660333487 0.44884876166601045 0.11956900702461914 0.3076292518923983 0.004276596017338495 0.12906926908273234 0.3695305595038982
-0.15466602125189843 0.1497552330518546 0.2113463295909238 0.04217589499428537 0.10329369355710181 0.0648128621842136 0.4595221970435868 0.5442780551041962
0.12119601642072816 0.44408496023642 0.330013283462951 0.3102000469469034 0.1023829348208577 0.7519851355937011 -0.030910715298934577 0.3283696031290578
0.372802087156949 -0.249954798219532 0.022446679834932162 -0.06274432205931431 0.07674644835106911 0.11094209082386954 0.5436300073400375 0.4930857806084709
-0.040659043306683885 0.22735700006088994 -0.30052002298904223 0.3626225922984874 0.39430585614462493 0.34412392033739414 0.1275660121739034 0.1491126288776298
-0.05762102045278675 0.5360252720733084 0.04328817838199325 0.6325139141005244 0.5372052028900894 0.6730303864038019 0.36257288067292415 -0.05216996202029234
0.2749704119610063 0.371182819546844 0.06147018448828396 0.752233610027803 -0.26964395338896074 0.3842567220930738 0.07433505448857754 0.49485492629626643
0.5374189320811126 0.37933070993810586 0.018323501798945013 0.669893987109205 0.24915476040532775 0.46686372734064346 0.6087851030841482 0.3620812215916882
0.07505797388983279 0.13577626522315747 0.5915883320464441 0.6621288763995622 0.01384564918270803 -0.010602981568592677 0.3679138750955736 -0.11806222391198082
0.3044223876804529 0.5973938802870387 0.7139657049194297 0.5237452382064774 0.2450517291575405 0.34454488403607825 -0.11731662165221171 -0.10041837347110366
0.23701969534754871 0.3810419852174 0.3358146374270145 0.2918926564580344 0.70020084576925 0.42394219670513833 0.10120399494103378 0.12850327063767517
0.5922934931919998 0.2584127872248505 0.5023138065424775 0.6448227848395668 0.7319352413460153 0.24445863358134337 0.09093227543908572 0.5004824100967759
-0.23073633565815196 0.7053323955979341 0.3784601388347023 -0.22750271547354298 0.011780359110725329 -0.3078239275285935 0.3987707510342869 -0.05891763131383294
-0.1367924569854864 0.2950708615954973 0.18180028387200642 0.47191638858354934 0.295451779401703 -0.046070995011618154 0.1087926376117459 0.34936124692413334
0.5518100177879823 -0.14416552116506032 -0.22628281046709975 0.19005678473770307 0.4763284091791941 0.3395969866469256 0.45676031798304473 0.1711350924363679
00000000: e688 d22a 5069 c03f a665 5203 5a49 da3f
00000010: cdeb e197 e83c e33f a66b 2cb4 1a75 cbbf
00000020: 8fc3 2a49 5fa4 c53f ac31 b1a3 a378 d23f
00000030: a7da 308a 887e dd3f 188c effa 79b7 b43f
00000040: a3bb b4ea 385e d53f 0451 0fe9 6724 aabf
00000050: c200 394a faaf d03f 6762 3c50 7920 b53f
00000060: 484f 7377 4883 c73f d648 4546 d498 9ebf
00000070: 9b84 2576 bc97 d13f a1d5 3372 3873 d33f
00000080: 675a ac88 21b7 d13f 5e72 0f52 7704 cd3f
00000090: 3de1 3856 21c5 d73f b510 241a b509 da3f
000000a0: 8dbb af50 1f01 ccbf c5d2 d70a 3df9 df3f
000000b0: 2d4e 6159 43cf bdbf f33c e79a 6e78 a0bf
000000c0: dd21 a623 f7de b83f 687e 464f 11c3 943f
000000d0: adac 1d04 5c3b ce3f 0405 360b ff8f e43f
000000e0: 3cdd f4e4 8024 c6bf a0f1 a179 0411 c6bf
000000f0: e100 e889 2509 e83f 6b12 75d0 9ef3 cfbf
00000100: 9c33 6cde 9107 ba3f 0059 9acc b483 d13f
00000110: 63ea 6a52 bc6e bb3f f32c 852c 8911 9a3f
00000120: c3b5 93d0 4b57 a53f b319 6732 e07a b73f
00000130: b7db 1e73 8343 973f aee2 5213 4393 c63f
00000140: d42c fe04 852e bdbf b009 7585 fb7b 8cbf
00000150: da94 d174 8fca d83f 020e 7545 88bb d33f
00000160: c4f0 ebe3 ddcd cebf b7a4 339b a6bc c33f
00000170: ec90 1704 179e c13f 867f 3073 3a11 9bbf
00000180: 150e 7e6a a2fe ba3f 7794 bbcc e766 96bf
00000190: faa2 eda2 6cc0 c5bf 5147 a22c 04f8 d93f
000001a0: 605c e6a1 151b cc3f d448 bc01 d972 a23f
000001b0: 1664 be01 2ede ab3f 80d1 5d1b b85f bdbf
000001c0: 14f9 b4f6 3c92 c53f b4bb 913b 3204 cd3f
000001d0: 0a9b 5dba 6fdc c33f 3fa8 449c ebbf e03f
000001e0: c06d 6ced 95e9 af3f 7bb4 58aa d805 d83f
000001f0: f48f 730a e26e 983f 6de0 6542 dbfd d43f
00000200: ab59 6057 ee5e c23f d4e9 90df df76 b33f
00000210: 7d8a 7e61 3f91 db3f 9360 15e5 ddc9 e03f
00000220: 02ac 3d90 5d7a c13f 0b95 1fd1 94e4 bf3f
00000230: babe 05d4 0692 66bf b49e 2d47 3669 de3f
00000240: 907b 4f34 9388 bfbf c28c 5f10 e874 c23f
00000250: c343 0c82 b958 89bf 4cfa 90d0 4b61 d73f
00000260: c377 263f bf81 e23f 7249 3880 fa2f dabf
00000270: 2d89 4ac2 96e0 c1bf 3285 629e 3369 c33f
00000280: 9d1c 7d0d 5025 a0bf 9228 ffe0 e109 b73f
00000290: 0184 0b37 1add dc3f 6c38 d6c2 f5ac dd3f
000002a0: 1862 558c 69dc a0bf ced7 8460 9f11 c13f
000002b0: fcab cdd8 f54b ca3f 15e6 a7c4 9647 e43f
000002c0: 7ada 6500 4f01 e53f 7e70 4608 d9ef cf3f
000002d0: 42a5 3d22 b6ef e03f 94fd 9411 a9ec a23f
000002e0: 8d11 0a0a 43b0 d23f 6b32 e99d d420 c83f
000002f0: c3a0 d2bd 0775 d33f 1aff 50cb 8ce4 bb3f
00000300: e9e8 6ccd fd4f 673f 00a9 9afd a983 b03f
00000310: d9b0 8bf4 069f 9dbf dcdb 1691 1287 ca3f
00000320: 98ff 9832 e4ef c4bf 8fb5 1b4b 896c c23f
00000330: 553d dbe9 35f2 c53f 6189 f9a0 f332 b8bf
00000340: d28a 8fc3 a86e 8ebf 72e7 dee2 cd28 d63f
00000350: e7b6 8255 f5b5 ca3f 79a4 751f 165f dc3f
00000360: 7d88 574e cfc8 cf3f ab6b 5870 1590 b6bf
00000370: 01da 99fd cb26 d03f d139 bab1 00e1 d13f
00000380: 1b2a fed1 ecc5 d23f 744e 75a1 7ff3 b23f
00000390: 361a f539 a763 d4bf fe16 bf70 4bfd c93f
000003a0: e56b b43d ec68 bbbf 7bc0 92fe 8a38 ca3f
000003b0: 85ae 3572 27c3 e03f 58e2 7227 5d69 873f
000003c0: 0286 051e 4062 e83f 14e3 aebc 3901 7b3f
000003d0: c29d f7db d0c1 ea3f 6d5c ab64 5730 d43f
000003e0: bec6 504b 517c b03f be67 0e8f 1ac2 dd3f
000003f0: 387f f330 0246 e63f 3a2f c229 63a3 d83f
00000400: f0e5 c50e fd8d d83f 0eec 2982 144d 983f
00000410: 3141 ba35 db99 d43f 1d0d 6e43 46ac e83f
00000420: 19ce 0dc7 f85e e23f 37c8 feff 68ad bebf
00000430: 2474 e816 142d c03f a45f cf7b 1bf7 c83f
00000440: 4a09 f422 4f00 e23f 3be0 8997 31fc eb3f
00000450: c528 0d28 f0b9 dc3f f032 c90e 139c be3f
00000460: 56ee 0a9a 32b0 d33f cbd3 8500 5684 713f
00000470: bd81 d080 5785 c03f db46 fc80 63a6 d73f
00000480: f827 8a9f 18cc c3bf d168 2ef2 2d2b c33f
00000490: f47f dc82 650d cb3f 1827 5c33 1498 a53f
000004a0: dff6 b59b 7471 ba3f 7bfc 7063 9397 b03f
000004b0: 45a6 05ca cf68 dd3f d94b d3cf b96a e13f
000004c0: beb8 eebe b306 bf3f bb18 3753 e36b dc3f
000004d0: 5003 ee08 f01e d53f 02b2 364c 51da d33f
000004e0: 885d b99c c435 ba3f 907f 8e21 4310 e83f
000004f0: 5035 38fd 0ea7 9fbf b925 9cf0 0104 d53f
00000500: 8b0e 0e49 fddb d73f bf63 ead1 84fe cfbf
00000510: 54e4 2d2f 43fc 963f 6523 410b 0310 b0bf
00000520: be82 c0bd a7a5 b33f 29a0 d66b b366 bc3f
00000530: 5aca d4c1 6a65 e13f 3f81 75a9 b78e df3f
00000540: cde4 931a 43d1 a4bf ce9b e3bf 081a cd3f
00000550: 9efd a155 b83b d3bf 9d9d ad63 3535 d73f
00000560: e5cb 30a1 4e3c d93f eab4 e755 2006 d63f
00000570: 5c1c 2f45 1554 c03f c599 3964 1f16 c33f
00000580: c450 d09c 8080 adbf b14c ac78 1e27 e13f
00000590: 8c7c e83c de29 a63f 5f74 ead1 8d3d e43f
000005a0: 65ed 34f7 c830 e13f be31 5a05 7789 e53f
000005b0: b207 3ae2 6434 d73f 30e3 6b71 05b6 aabf
000005c0: ef5e af7f 1d99 d13f e39b b295 75c1 d73f
000005d0: e9ce 1c20 0579 af3f 91af 4038 4c12 e83f
000005e0: bca9 57b6 d841 d1bf 3e1b aa81 a997 d83f
000005f0: b58d f943 9f07 b33f bf3e 2dff b3ab df3f
00000600: 9944 3130 8932 e13f 3d5e 6350 f446 d83f
00000610: d80e e663 65c3 923f 7f79 cd83 c56f e53f
00000620: 5ab3 ca9d 4de4 cf3f 6b78 2766 18e1 dd3f
00000630: 9e3a 81e5 2a7b e33f 94d9 4eb7 562c d73f
00000640: b62d 29d7 ff36 b33f 0d6e 5add 1d61 c13f
00000650: 96b5 5aa7 4aee e23f 73f2 bbe5 2830 e53f
00000660: 40f5 7393 1b5b 8c3f 1c19 9e18 04b7 85bf
00000670: 72ed 51a3 e68b d73f 0e51 986e 5339 bebf
00000680: 717f d009 a87b d33f 543a 55c5 d91d e33f
00000690: 7206 239b ced8 e63f a70a b15f 85c2 e03f
000006a0: 59aa 47e5 da5d cf3f b319 3cfc 050d d63f
000006b0: 2201 464d 7608 bebf dcd4 f9bd 04b5 b9bf
000006c0: 0747 0350 a956 ce3f 7358 3aec fd62 d83f
000006d0: 9318 51ad fc7d d53f 3082 5b89 5eae d23f
000006e0: 29bc a69a 0b68 e63f ca8c 8f73 de21 db3f
000006f0: d50c 7f48 81e8 b93f 5faf 6890 cb72 c03f
00000700: 6795 dc7b 11f4 e23f a0ee 7fc9 d589 d03f
00000710: 1abc 6d67 f412 e03f 2d40 9364 63a2 e43f
00000720: 41df 8b74 036c e73f b575 3aa6 6b4a cf3f
00000730: 9c67 296d 5647 b73f 5fd8 f2af f303 e03f
00000740: 3748 d3ab c488 cdbf f7e0 7c3e 1592 e63f
00000750: 5e9e c8df b038 d83f 41e3 5a19 cf1e cdbf
00000760: 9cf4 ec08 4d20 883f 6157 6a21 63b3 d3bf
00000770: adca 92c1 7585 d93f 4928 4da7 732a aebf
00000780: 99cb 8b4c 6a82 c1bf 7388 23e5 70e2 d23f
00000790: d41f d150 3b45 c73f dc6a dacb e033 de3f
000007a0: 0ed2 8494 aee8 d23f f0f7 bc11 9e96 a7bf
000007b0: 0489 9694 d5d9 bb3f 0bda 8146 ef5b d63f
000007c0: 6025 807b 6da8 e13f 78af 4e0b 0474 c2bf
000007d0: 5834 4dcb d5f6 ccbf 9169 6add c753 c83f
000007e0: 5f24 e526 2a7c de3f 16ff ddff f4bb d53f
000007f0: 5641 f6a0 8f3b dd3f 4f27 9b34 c1e7 c53f

bias f8 [9]
-0.11334007483989524 0.8210276231879776 0.2443841640706433 0.20267458299557625 -0.8309698315064953 -0.11354190972760717 -0.7719559279964583 -0.4009322315512213
0.42393121410424595
00000000: 8577 c3ea da03 bdbf 288f d6b8 db45 ea3f
00000010: bbfe 2bf4 fa47 cf3f df24 d9a0 3df1 c93f
00000020: 900e 490b 4e97 eabf a265 0125 1511 bdbf
00000030: fe56 16eb dcb3 e8bf d72f 9ba9 dfa8 d9bf
00000040: 3034 1563 b021 db3f

weight f8 [29, 9]
-0.0620147324078172 -0.1566927438078905 -0.030333101659605517 0.06728740387517841 0.7557601437445918 -0.5119149750417012 0.07586088078135651 -0.4914414855560212
0.36031090761541046 -0.2452438752965162 0.011191959770174656 -0.37738530221744016 -0.2633748572227321 0.13103934889676527 0.29983326004926236 -0.42463402670734635
0.44428255098986513 0.4233985554946629 0.17659014403421674 -0.28666149412663683 0.09589339913966687 0.41108936123623085 0.038620044680469104 -0.11880942760574748
-0.11769690367736851 0.46203580312895853 0.019102535486558495 0.08911927009811571 -0.4383191962070183 -0.10978480700858556 0.45167589684141446 0.5526017149070122
0.4452027377557019 -0.5617118303021379 -0.3464305283999123 -0.04750706445168223 0.5050014822797393 -0.11271023902045244 -0.03214375786858126 0.10481156657907449
-0.267700983957517 0.2548063040582334 0.08108503745147744 -0.004083515115481352 0.3473821054515998 0.07172812932114055 0.566754771931019 -0.47704610347875703
0.1701123619519279 0.14148173607211476 -0.1347222089540251 0.42677951401219966 -0.010300534819768746 0.07098926113458945 0.10481668331309002 -0.005306508696858501
0.11387956223994268 -0.24516115124136517 0.49877078739059777 0.003338806015116506 0.18629873561747448 -0.06359676657068433 -0.24861826693061928 0.3264630587183756
-0.08366721354975952 -0.3305372078023233 -0.12160888514931854 -0.015958065307635275 0.03108957783928346 0.15252570441541588 0.033210131395935816 0.10342656084729293
-0.21330530984949478 0.1691389660905083 0.4019022054309143 -0.3048418617474797 0.09276694239361914 0.27535808079181967 -0.14838596919560804 0.1993978705418599
0.204714142094467 -0.33065610068213463 -0.009276610614328603 -0.6018999134342145 0.3140860896099397 0.2935874605333239 0.6273490995040942 0.045325155706285494
-0.4273454971800649 0.24379260772165878 -0.2998374767599331 -0.029142934463858166 0.21451914157559532 0.2164081018337701 0.14723450445342842 0.3121415363026857
-0.04602949426706387 -0.05851767853389981 0.12682358227023888 -0.12645222081127092 0.004487663087054199 -0.27429422080708765 0.07877392306070713 -0.014087919650565498
0.7602700598412482 -0.04593730137230316 0.26401899885672475 0.11332841049191913 -0.502127520245552 0.20854641683526237 -0.23702898260381916 -0.41915759277101455
0.5022992881728641 -0.20959344358323684 0.03839428912726205 -0.10541527602741046 0.556084309379304 -0.2438394536527171 0.04995439312720246 -0.14752639718151553
-0.2990288806453364 0.06990902104088621 -0.10719605555844662 0.43047347471941744 0.22085605554335278 0.3535665568120251 0.4912461062459271 0.48042176648628543
0.31735072582538637 -0.10157930265472591 0.10920483848220532 -0.05903039436771531 -0.16391681607372277 0.17174261703895363 -0.11598571713650495 0.07234020847049731
-0.020006170511084036 0.1998677400320505 -0.043412385247307825 0.44434977679810156 -0.10066031631613348 -0.2232568256858044 0.27178707655267265 -0.20972208252380423
0.1308343322323887 0.23212905432755226 0.34676532967906637 -0.2693810630618251 -0.45031819959091873 0.2709264147119533 0.5144125678663425 -0.21815871456544322
-0.4106159808547874 0.13297637067538856 -0.1578273469595107 -0.006577619342515205 0.2470126759004851 0.0930121522665304 -0.02441830403715232 -0.2438481657085852
0.17231441595049782 -0.04558308099285361 -0.420724093207505 -0.09651567016842505 0.05608582354488136 0.7552434490349437 -0.1971093608699148 0.16662863693449964
0.05322419493429985 -0.019314041995460943 -0.41659584936058125 -0.36192048585835424 0.24038532221914627 -0.1959107348799136 -0.0168712668751568 -0.2647018572898592
-0.308929363063409 0.07230082812856609 0.6175877399051887 -0.02147349736848054 0.4123071839935687 0.05808446993878986 0.04793631544259049 -0.21652230838607517
-0.11044769759764361 0.18856592138223385 -0.15870713628693997 0.32888406378770774 0.041857405057760644 0.02830762326183968 0.02920474864786458 0.041336121243993995
0.33607189560145073 0.23140102821722178 0.46571480082156247 0.32334976489516865 -0.4422798430544151 -0.1502494762125104 0.10150338517532949 0.1888347119088146
-0.11319280024724275 -0.5520129955479302 0.36717531986572255 0.6169507872292049 0.20740416453169455 -0.7258547261217398 0.06377738536124138 -0.03611311320084702
-0.31783745111642697 0.6032378117057751 0.035913230369428624 0.030304234697820315 -0.23376228352163472 0.3070229129882835 -0.11288724984514872 0.6742510706991347
-0.08100996957382153 -0.29880901014445194 0.07340427733008069 0.08650874678721522 0.024077652516090564 -0.13008585634521183 0.3225471063088191 -0.282188244602996
0.2081123158287581 0.8046235602406351 -0.29467160715786855 -0.1423638358648184 -0.239125760632928 0.2597408181729457 -0.2501802267700771 -0.6308719216921875
0.2344281856097602 0.39895445115290556 -0.19696048091807314 0.4783536738683075 -0.10361963573288424 0.34675573744911514 0.3570167997635559 -0.23321080652532072
-0.1285995449291797 0.21631211760170166 0.10551366482646443 -0.0208356664517582 0.1811705981549474 0.24389545113183175 0.04803839102156145 0.1486161334083527
0.1282101391659933 -0.004590918111639555 -0.12886345427104262 -0.06761793889606385 0.31608334297358914 -0.14830955159322853 -0.1425481404659577 0.2602351048273353
00000000: d29f 1f1f 65c0 afbf 6273 1601 820e c4bf
00000010: b2fd 74fe a30f 9fbf 599e 134f bf39 b13f
00000020: e01a a0e5 2f2f e83f 5d60 8483 9b61 e0bf
00000030: 2d6e 0062 9e6b b33f d016 17fd c673 dfbf
00000040: bf6a 267b 550f d73f f6ae f8bb 2664 cfbf
00000050: 1544 8769 cfeb 863f 76f5 c0ae 1427 d8bf
00000060: 370f 9737 22db d0bf 4418 00bb e5c5 c03f
00000070: 8c89 8ad7 7730 d33f 9984 5e32 342d dbbf
00000080: c8d5 ab14 206f dc3f 687c 4141 f618 db3f
00000090: 4621 b67e 819a c63f 3df8 9273 a958 d2bf
000000a0: 5f07 3545 788c b83f a28f 8fc0 494f da3f
000000b0: 12cf bea9 01c6 a33f 24ee 056e 4b6a bebf
000000c0: a07f 2260 6221 bebf 3647 019e fe91 dd3f
000000d0: 21e6 bd74 9d8f 933f c8c9 833e 85d0 b63f
000000e0: fcc2 3af5 6b0d dcbf 7c15 b36b db1a bcbf
000000f0: 73d2 5405 42e8 dc3f faa6 a7ca e9ae e13f
00000100: 9f06 b09f 337e dc3f 4791 9d16 8bf9 e1bf
00000110: 6412 74f3 ea2b d6bf c741 4c90 d852 a8bf
00000120: 0c56 5ade f828 e03f 5266 8406 94da bcbf
00000130: c0d7 a189 2575 a0bf 5d1c b34a eed4 ba3f
00000140: 7317 cd4e 0322 d1bf e5a9 af19 bf4e d03f
00000150: 488d 0c30 fdc1 b43f 9bbb fa3d e0b9 70bf
00000160: ed55 8827 823b d63f f536 a351 c65c b23f
00000170: 1776 49e7 da22 e23f 1508 4861 ec87 debf
00000180: cb4a 9deb 3dc6 c53f d79c b4d2 121c c23f
00000190: 2c4f c0cc 933e c1bf 3f40 d205 5b50 db3f
000001a0: ac2d 7561 7218 85bf 3eb5 f02a 5a2c b23f
000001b0: 38a8 e722 44d5 ba3f 3e72 f114 47bc 75bf
000001c0: 91db 8003 3627 bd3f 706a 6acb 7061 cfbf
000001d0: 04bd 024f dceb df3f 224a 90d4 fb59 6b3f
000001e0: a5b0 6110 a3d8 c73f 666c 8db0 e047 b0bf
000001f0: dcdd d32e b9d2 cfbf 130b 2350 c5e4 d43f
00000200: 0b94 f1e9 366b b5bf 0ed1 6788 8527 d5bf
00000210: 478d 9e88 c221 bfbf 1137 6aa2 4f57 90bf
00000220: c1c1 4340 f2d5 9f3f cbbc 2158 f685 c33f
00000230: b899 7b18 eb00 a13f 067b 60c0 297a ba3f
00000240: e7f0 eea0 964d cbbf 2143 eb7b 58a6 c53f
00000250: f906 2107 c4b8 d93f 370f aa70 8782 d3bf
00000260: b702 bb07 93bf b73f 182c ec7f 779f d13f
00000270: f2b0 70ba 4ffe c2bf 3546 6f92 de85 c93f
00000280: 0387 a9b0 1234 ca3f 0bc5 a934 7829 d5bf
00000290: be6f a699 9dff 82bf 2c49 759b c342 e3bf
000002a0: b334 c08a fc19 d43f 7f67 600f 23ca d23f
000002b0: be71 316b 3e13 e43f 22a3 e3da db34 a73f
000002c0: 9fcc 9eed a059 dbbf 00e6 959e 9834 cf3f
000002d0: 0224 3387 8930 d3bf 9b1a ba39 a5d7 9dbf
000002e0: 4e72 b7fc 5c75 cb3f db94 fbbb 42b3 cb3f
000002f0: df30 bc8a 94d8 c23f b62a 897e 20fa d33f
00000300: 2792 0e89 2d91 a7bf 35f6 1477 07f6 adbf
00000310: ba2a 1b51 c13b c03f 9b0b 721c 962f c0bf
00000320: 9f1d 1ce3 a761 723f a249 f658 098e d1bf
00000330: 8cc7 521f 872a b43f 22c4 5791 20da 8cbf
00000340: 0cad 64e0 2154 e83f d6fe 1e0e 1885 a7bf
00000350: d42f 67f1 afe5 d03f 9a3c c538 1703 bd3f
00000360: 060a bcbb 6d11 e0bf 1eb2 0024 a6b1 ca3f
00000370: 3e68 3e38 f756 cebf fd94 345e 7ad3 dabf
00000380: 8035 f0f4 d512 e03f e4b0 d23c f5d3 cabf
00000390: 8f3c 4f90 6aa8 a33f bc5a 09db 7efc babf
000003a0: 9a4a 5352 71cb e13f d0da 7497 2136 cfbf
000003b0: 88b4 8b49 9f93 a93f 097d 981d 25e2 c2bf
000003c0: e698 bb07 4a23 d3bf 35e4 10bf 8ee5 b13f
000003d0: f33b e260 3371 bbbf ccc8 ed9d e08c db3f
000003e0: 4954 d7df 0245 cc3f e6e2 9d9f d5a0 d63f
000003f0: 3245 2782 9370 df3f da16 d6ef 3abf de3f
00000400: 9a0a 326b 794f d43f a73f dae6 1901 babf
00000410: b195 d829 d9f4 bb3f 0303 8f5a 3b39 aebf
00000420: 008a 26ea 39fb c4bf 4b81 c17d a9fb c53f
00000430: 7786 e76d 3db1 bdbf 3b0d 914d e384 b23f
00000440: 2bd3 4060 7f7c 94bf 6e46 7b1f 4495 c93f
00000450: fecf c1ed 253a a6bf b54b d50b 3a70 dc3f
00000460: f032 95de dfc4 b9bf 64f3 76fe ad93 ccbf
00000470: 343a 519f f564 d13f 0929 d856 2cd8 cabf
00000480: ebe8 10ed 2dbf c03f 30e5 64a4 67b6 cd3f
00000490: 8aed 9635 6731 d63f bec8 0012 8a3d d1bf
000004a0: 9957 026d 03d2 dcbf 25dd b3be db56 d13f
000004b0: f064 7458 1176 e03f 64af 32f0 9fec cbbf
000004c0: 1d1f 3f40 8847 dabf 4785 98a5 5e05 c13f
000004d0: 7382 cdbe af33 c4bf 72e0 623f 22f1 7abf
000004e0: ee52 5882 1c9e cf3f a285 1df8 a4cf b73f
000004f0: abac 0da5 1c01 99bf 1a38 74ac 6a36 cfbf
00000500: 5580 9116 660e c63f d5fe 3a64 aa56 a7bf
00000510: 95ca 3dbf 24ed dabf ccc6 ec3e 40b5 b8bf
00000520: e3fa c9f3 47b7 ac3f 49f2 434f f42a e83f
00000530: c7fb 5529 e13a c9bf 52f9 1a51 1654 c53f
00000540: ee8e 32a1 3340 ab3f 0174 e56a 0fc7 93bf
00000550: 64cb 29a3 81a9 dabf 64e6 a08a b429 d7bf
00000560: de50 af3c f2c4 ce3f 974d 9f5b 9a13 c9bf
00000570: 1730 e28d b346 91bf a006 100f e0f0 d0bf
00000580: b669 c8a9 7fc5 d3bf 4831 499c 4e82 b23f
00000590: f5b4 295d 47c3 e33f 92a5 b603 26fd 95bf
000005a0: 7a20 caab 3d63 da3f 59cf 9565 3fbd ad3f
000005b0: a3bb 3bd6 1b8b a83f feb1 afc4 00b7 cbbf
000005c0: 50b2 19e1 4c46 bcbf d507 bd98 ed22 c83f
000005d0: ab42 fff3 8350 c4bf bc33 89be 6f0c d53f
000005e0: 5813 a373 556e a53f 6461 8c70 acfc 9c3f
000005f0: fb68 5281 d9e7 9d3f 20dc c511 022a a53f
00000600: 17a1 2db2 3382 d53f 2d14 3a84 8c9e cd3f
00000610: 46ac b273 45ce dd3f ec37 5936 c3b1 d43f
00000620: 8551 661d 504e dcbf 5074 49f5 5f3b c3bf
00000630: 9de6 c237 20fc b93f 83bc ff5f bc2b c83f
00000640: 975e 340f 34fa bcbf 230d 5b28 17aa e1bf
00000650: fb2e aee9 cc7f d73f 2b82 cc93 0fbe e33f
00000660: e5e1 db3b 388c ca3f 8ae0 cab0 333a e7bf
00000670: f3d5 59f8 b653 b03f 660b 4f00 6b7d a2bf
00000680: a34c 7fe4 7257 d4bf c494 1f62 b94d e33f
00000690: b15e dc0b 3863 a23f e86c d4c3 1208 9f3f
000006a0: f3c0 6129 eceb cdbf b711 9a6e 43a6 d33f
000006b0: 3e65 38c6 2de6 bcbf ba43 3efb 7693 e53f
000006c0: 5e32 f8c1 11bd b4bf f283 94d3 af1f d3bf
000006d0: ffea 846a 9fca b23f 71df 44ee 6f25 b63f
000006e0: 70f7 7be8 cfa7 983f 1f61 5641 a7a6 c0bf
000006f0: 1603 419e 9ca4 d43f 4dac 7848 5f0f d2bf
00000700: 308e 30a3 6ca3 ca3f 3c63 9ae8 79bf e93f
00000710: 2861 f34c e6db d2bf b514 9669 fa38 c2bf
00000720: a857 c644 ac9b cebf 284d dff3 979f d03f
00000730: 8655 05ed f302 d0bf 693e f44f 1a30 e4bf
00000740: 4c2e 3a27 be01 ce3f 29e7 1240 7888 d93f
00000750: 1fe3 1244 0036 c9bf a6e4 4bba 589d de3f
00000760: 4038 b202 d186 babf 02d6 02fa 3e31 d63f
00000770: f5d9 c6fd 5cd9 d63f facd 8c09 dad9 cdbf
00000780: e82a e02b f375 c0bf d4f5 698f 1db0 cb3f
00000790: 0af5 b58b f102 bb3f 8bae 00e8 f155 95bf
000007a0: b83f 0921 9930 c73f a48f 2055 f737 cf3f
000007b0: cab6 c7ec 7c98 a83f e9cb 527c da05 c33f
000007c0: f7e4 5d99 3069 c03f 5ca4 5e32 edcd 72bf
000007d0: 3432 df00 997e c0bf 2278 2ec4 684f b1bf
000007e0: 5371 38a1 b53a d43f eb7f e3b0 cefb c2bf
000007f0: 6215 b478 043f c2bf 554a 2024 b1a7 d03f

bias f8 [29]
0.11600980389615621 0.051414184882099215 0.2548534264643127 0.1682688670027816 -0.3324566975305408 -0.13507161509943055 0.8640606659330875 0.2322855120878079
-0.2190555120088648 -0.04760278327780171 -0.17485183895460302 0.25260203626669514 0.04372134439326333 0.4880582385660564 -0.5492302411940868 0.517430121655774
0.06956173012171925 0.22073866480418797 0.07640775316275586 0.2055728634129424 0.012324453323193475 0.0765231964195314 0.10789430352887629 -0.20663943776542815
0.25044931007832666 -0.027264804708965796 -0.5063379582063429 -0.3148638059384183 0.20264350074059795
00000000: 57d6 bf89 d1b2 bd3f 7afc 3cc5 f552 aa3f
00000010: 5304 fcbe 844f d03f 3620 5b90 d589 c53f
00000020: a5b5 ce74 f846 d5bf 7427 bcd4 064a c1bf
00000030: b729 be8d 62a6 eb3f 4439 e01a 88bb cd3f
00000040: 0616 0bd2 020a ccbf 48e3 c05a 645f a8bf
00000050: 214d fa88 8b61 c6bf 13c8 2abb a12a d03f
00000060: bbc8 9ce0 a462 a63f 21d0 4b9f 583c df3f
00000070: b2e3 7c4c 4b93 e1bf 5c42 4f9d c98e e03f
00000080: dd0b ed2b ccce b13f 0efa 2521 2a41 cc3f
00000090: 42b0 fe60 758f b33f 6ade a62a 3650 ca3f
000000a0: 9aab b61f 903d 893f 8edc 0132 0697 b33f
000000b0: e7ca 1409 f69e bb3f 7817 a23d 2973 cabf
000000c0: 37e6 058b 5c07 d03f ed32 3a12 4eeb 9bbf
000000d0: 6f07 67a9 eb33 e0bf 33c6 4c85 ba26 d4bf
000000e0: cec2 36e4 38f0 c93f

weight f8 [50, 29]
-0.27261794490554864 0.17576725053540282 0.11533353402881552 -0.14157448111736007 -0.13564948334278557 0.13736851307569203 0.1921986314456748 0.2567260047914871
-0.1859823790497551 0.5392274458268097 -0.19598614939759249 -0.11457603860070635 0.03699431929358064 0.08219375394491009 0.0469573813287729 0.14354943226612335
0.2918181763731419 0.0844588044764352 -0.06295969401256678 -0.3581285253878376 0.008316663836674832 -0.05441130222574542 -0.05919528783652436 -0.19001929922050936
-0.08105001181421707 -0.13486275354595673 -0.02423877423749918 -0.09112381966093311 0.1035239522960958 0.19086273360961847 -0.2271832306073474 -0.07858357219202587
0.11839219575609555 0.06503765595609659 -0.16423298912594084 -0.1410767364896887 -0.17605754530052461 0.1891424254027263 -0.37020808622581763 0.15418987297780498
-0.013964365039119703 -0.13241242992053093 -0.04215741684673147 -0.010045073094081374 -0.07182759066815525 -0.27799363707907593 -0.06488449319981765 0.09967687218910269
0.23063050855603784 -0.025316542509360513 -0.021690845245424455 0.1296088294025485 0.2705425116464887 0.09144439473847818 0.1518983409454296 0.04917019252935923
0.07714235898512858 -0.11332171060822611 -0.09260022206174408 0.2375087392410091 0.0375300649379699 -0.0891094049619581 0.0005117616447681702 0.18065632760650846
0.05126605529383739 0.08297315674486136 -0.15736015105079498 0.187103240820168 -0.09241400657346027 0.14802556409642287 0.17627802808895685 0.016650358778796413
-0.029827726828447663 -0.006730694153894764 0.2138659754934297 0.03647581758229222 -0.09506570932773176 -0.0956198385054287 0.033614387651830106 0.06412329133988484
-0.16379013038362156 -0.3175645462444135 -0.10075162461860039 -0.15018478100253874 -0.028424651484984433 -0.06445687378953427 0.0924973273765826 0.013172056479301105
-0.21175938249158635 -0.006349070531123706 0.05794839374248282 -0.04446721745831808 -0.1820936894804156 0.061754726899752324 0.0007534456160084064 0.09852272298697942
-0.035554745541973964 0.02198295855314694 -0.2492937766194787 -0.1632974461089825 -0.01153287358927117 0.06561382259017498 0.07666909215558082 -0.11145357086775479
-0.007461232596717644 0.05386379624667303 -0.01637327819957799 -0.030021956090907815 -0.062097767386686424 0.15771341085618368 0.31191258624745727 0.11422296920562677
0.13098043975711815 -0.03501514336304318 0.052656239569054984 -0.04264813457872715 0.0189577956870052 0.17102823284248475 -0.0049669797177233285 -0.03179266569978709
0.057017837822112005 0.16484209854668488 -0.17786187358365876 -0.05762779893545531 -0.0252488092209226 -0.053559054110728234 0.045197406621857276 0.2878842460525336
0.108947882427575 0.017456791932640534 -0.08559505049774903 -0.12576823267336312 -0.003913940184475427 -0.013019238201468619 0.0013662643985134736 0.09073800889940029
0.012413431098020698 0.020905525982645234 -0.11762931443339779 -0.2497364090895786 -0.11699058410600453 -0.10095861793521166 0.12392251887694639 -0.037717326441561755
-0.022372987827065566 0.007202892217875403 -0.1373382156644932 -0.007364823090259242 0.014380358368882677 -0.041198358554627945 -0.12574293402058498 0.275698744631117
0.08253520720988543 -0.046818932863896545 0.06793623295616151 -0.10044480901319687 -0.25271174436099914 -0.04103465547661956 -0.021638597050955655 0.08430367257526906
0.1450701452331334 0.09845627180585827 0.01825539828496483 -0.04196640692456243 -0.12225181812707189 0.014971297366882448 0.045184863854147626 0.056927776320846286
0.13942839425867637 0.0974827475680427 0.06872030550433603 -0.21623326344129304 0.019670407217626456 0.08366272710537283 -0.08179365606625287 0.1261268458364838
0.037914977014937776 -0.005996529804090189 0.00927026293000959 0.06571780241101338 -0.33411803584355193 -0.08186111087364549 0.10223823407764948 -0.018138009447414307
0.1344518418006281 0.15385453381501465 -0.012143145365311579 0.015971091844122785 -0.06239888003423104 -0.13390097642654988 -0.1453839253758001 -0.007222181871857276
0.04597614118876243 0.11354615177806293 -0.04759432634676641 -0.1157513415034377 -0.0001326703054281157 0.0003056223840150484 -0.06301788560017042 -0.04270664239077032
0.28264321767649003 0.0011533141359885057 -0.12442921331594067 0.17198223920137268 -0.14644290724830483 -0.07450507740456606 0.0006577399795038815 0.020095322754671362
0.005373082562539246 0.3417647607533699 0.06678383856730995 -0.13387378025058091 -0.06841397063935667 -0.1395706915244531 -0.01897433877322033 0.03761337356847924
-0.0023698894040643462 0.025703650076307327 0.10264951296839366 0.1337326356242234 -0.010747794831970862 -0.011160230826503869 -0.07099453872209552 0.07266547590537101
0.17256889645485102 -0.02460460260743022 -0.14291307909682385 0.03301684269154932 0.03285546349775486 -0.2988505214518932 -0.019786100504181843 0.13599798326733686
-0.24239130751535107 0.19068604757651159 0.09949211119169762 0.0072702498460454155 -0.030672746097148918 -0.07684888618712021 -0.30283101132054535 -0.049261878232239445
0.14067182305723663 0.15623655430505215 0.11885617363422994 -0.10998244400055769 -0.027093462518043024 -0.015765725472060097 0.017981092150759395 -0.06438505183591334
-0.06775115961352811 0.026461668831784673 -0.0515953366058755 0.010594069116244269 -0.07840189921305116 -0.1997574928501805 -0.0015761832763662733 0.2571841072280009
00000000: 0d03 6b89 9272 d1bf 46f2 6090 8a7f c63f
00000010: 802e c99c 7f86 bd3f 1172 2cd3 1c1f c2bf
00000020: 8b99 5657 f65c c1bf ee82 949b 4a95 c13f
00000030: a393 32fa f699 c83f e62d a7e8 326e d03f
00000040: 1b53 d345 45ce c7bf f9d0 9dea 5941 e13f
00000050: 3fd9 10fb 1216 c9bf 0bfd b1f2 da54 bdbf
00000060: 5de6 015f ebf0 a23f f5fc 205d a60a b53f
00000070: 7dcb 3942 cc0a a83f 7b9f 78ea d35f c23f
00000080: 0eaa f924 26ad d23f 72e6 159b 179f b53f
00000090: 4309 c062 201e b0bf cb8c 13e8 93eb d6bf
000000a0: 3ad3 85b9 5308 813f 5048 2f57 ccdb abbf
000000b0: 8c9c ab42 d84e aebf 0666 e169 8d52 c8bf
000000c0: 251d 158e b1bf b4bf 8ed5 f6c5 2e43 c1bf
000000d0: b9ab 949a 0cd2 98bf 2a8f 5401 e453 b7bf
000000e0: a1e2 76b5 8b80 ba3f c071 70a7 306e c83f
000000f0: 5a3f d410 5714 cdbf a34e 9190 0d1e b4bf
00000100: 6cc2 df70 f34e be3f f205 57cd 4ea6 b03f
00000110: cf30 9c2a 9605 c5bf 3d8d b970 cd0e c2bf
00000120: 37d0 a3bb 0d89 c6bf b006 b2a9 d135 c83f
00000130: 237f c341 7db1 d7bf 5533 e866 7ebc c33f
00000140: 8a2a 3859 5999 8cbf 68d9 0bf8 e3f2 c0bf
00000150: 51f6 472d a895 a5bf 236b 66e3 8292 84bf
00000160: 88c5 de00 4b63 b2bf dd0b f0d2 a5ca d1bf
00000170: 648d 4f28 459c b0bf b742 386a 6c84 b93f
00000180: c0a0 daed 4c85 cd3f 5582 8068 94ec 99bf
00000190: 2b89 cefb 1f36 96bf dd44 c7a9 0597 c03f
000001a0: 72c2 ec89 9150 d13f 2ee5 cd5c e668 b73f
000001b0: 0ab1 56a3 6771 c33f b907 b4e1 d52c a93f
000001c0: 2238 fa04 9abf b33f 2536 fdd0 a602 bdbf
000001d0: fd86 5bed a5b4 b7bf 27f4 c6b5 af66 ce3f
000001e0: f8f8 0c03 2437 a33f 92df 13bc dfcf b6bf
000001f0: 8c43 89c3 f7c4 403f 4e55 711d bf1f c73f
00000200: 2a90 c35d 8b3f aa3f 7641 aa92 ba3d b53f
00000210: ea77 3a9f 6024 c4bf 862c 26be fff2 c73f
00000220: 24e3 ecbf 71a8 b7bf 2c0f 626e 80f2 c23f
00000230: bf9d d246 4790 c63f 26b7 afa9 ca0c 913f
00000240: 7604 f8dc 288b 9ebf 3c61 53f4 a491 7bbf
00000250: 6d57 3cd5 f55f cb3f aebb 3857 f5ac a23f
00000260: 4a9d 88f0 3956 b8bf 3bc8 3aaf 8a7a b8bf
00000270: af83 47af e735 a13f b278 374f 626a b03f
00000280: 98de b332 13f7 c4bf 1549 1f3f fa52 d4bf
00000290: 4d79 c1c4 dbca b9bf 48a4 6141 4139 c3bf
000002a0: 07e2 1c12 5a1b 9dbf daae ede4 3e80 b0bf
000002b0: 83c1 0ca4 e7ad b73f cbb5 657e f3f9 8a3f
000002c0: 1515 3673 ee1a cbbf b8a5 a8a4 7b01 7abf
000002d0: 8d9a f56f 69ab ad3f 8487 7439 68c4 a6bf
000002e0: b42c 9094 d84e c7bf 6ad1 d0c8 509e af3f
000002f0: 255b d923 5cb0 483f 7256 2401 c938 b93f
00000300: d808 a44a 3b34 a2bf 6769 3860 b382 963f
00000310: a0a7 d6c4 dbe8 cfbf ba79 4743 eee6 c4bf
00000320: 5798 2817 8c9e 87bf 9eba 3046 11cc b03f
00000330: 4017 6ceb 95a0 b33f ba40 e6a1 3888 bcbf
00000340: 2e1e da5f ab8f 7ebf 9fbf a216 0994 ab3f
00000350: 3afd 9419 28c4 90bf 7522 4a5e 13be 9ebf
00000360: 972e 2950 47cb afbf 364b e2fa f32f c43f
00000370: e130 4935 60f6 d33f c6af 306d b73d bd3f
00000380: 2815 9690 f7c3 c03f b8d1 373f 81ed a1bf
00000390: f344 c235 c2f5 aa3f 4b88 80ee f9d5 a5bf
000003a0: a774 eb21 ac69 933f 8625 60cd 40e4 c53f
000003b0: 9807 2977 4158 74bf 7cd2 ddd6 2047 a0bf
000003c0: e01d 7829 7131 ad3f e589 21bf 8b19 c53f
000003d0: ffa0 1f89 2dc4 c6bf 4d57 890f 6481 adbf
000003e0: f19b 77e7 d2da 99bf fddb 9ea3 176c abbf
000003f0: a71a 9c4e 1d24 a73f 6a12 750b b26c d23f
00000400: f6b0 fe27 02e4 bb3f 0c6b c679 31e0 913f
00000410: 5559 96a6 8ee9 b5bf a099 1a67 2c19 c0bf
00000420: f201 7451 1008 70bf e666 5a92 d4a9 8abf
00000430: 6b0b 323a 8762 563f fe21 ba2c 9b3a b73f
00000440: acf5 c684 366c 893f 53c4 9a19 4268 953f
00000450: 13d7 8a6a f41c bebf ff81 d4d6 5cf7 cfbf
00000460: abdb ac4c 18f3 bdbf b8f5 478a 6cd8 b9bf
00000470: 507e d0dd 62b9 bf3f 9c3d 1e77 af4f a3bf
00000480: 48cc 1fcc f1e8 96bf 83bd 32a8 c780 7d3f
00000490: 238f 6274 4c94 c1bf 260d 04a5 932a 7ebf
000004a0: 1c61 3107 7373 8d3f 5032 4885 f317 a5bf
000004b0: db26 a92e 5818 c0bf 304a ef58 0ca5 d13f
000004c0: ab2b bcff 0621 b53f 18d6 f7b2 a6f8 a7bf
000004d0: 4399 c2da 4464 b13f e1bf c341 c0b6 b9bf
000004e0: 5f1e 56e1 6d2c d0bf 91a6 8c8e 7e02 a5bf
000004f0: 0d24 a9aa 6d28 96bf a1ba a4ec ec94 b53f
00000500: db7d b394 a891 c23f f903 7e23 6e34 b93f
00000510: e600 700a 8bb1 923f 3f12 8bf2 9e7c a5bf
00000520: ea78 bb28 e54b bfbf 573c 8e84 45a9 8e3f
00000530: bb38 0e71 7822 a73f 4967 1033 a325 ad3f
00000540: 8cc6 bc24 cad8 c13f 949d ba1c a1f4 b83f
00000550: 2656 b668 a797 b13f 8dd3 6415 88ad cbbf
00000560: 1b7a cbae 7a24 943f c9ce cfa4 eb6a b53f
00000570: ef27 d3d5 6df0 b4bf 63f6 01ab ec24 c03f
00000580: 5691 9d84 9769 a33f a670 5e36 d18f 78bf
00000590: dbb0 e0a0 49fc 823f 7ccb 1ec4 e1d2 b03f
000005a0: 7aea 3c9d 3062 d5bf cb3b 048a d9f4 b4bf
000005b0: fca8 c3ef 482c ba3f 6792 9035 c592 92bf
000005c0: 4dd8 b5cb b735 c13f 0bd5 895f 81b1 c33f
000005d0: 7f79 b761 81de 88bf d690 9bd4 b95a 903f
000005e0: 66ac 1bfa bef2 afbf 9dc6 53cd aa23 c1bf
000005f0: 8b34 6dc2 f09b c2bf 6152 20af 0195 7dbf
00000600: 79a1 9a4d 2f8a a73f e032 7950 5c11 bd3f
00000610: dfde 4496 485e a8bf 51b3 3942 e1a1 bdbf
00000620: 2326 f53e ad63 21bf 13e4 ee24 7e07 343f
00000630: c13e b7ad f021 b0bf c8d8 c720 a5dd a5bf
00000640: bad4 1694 d316 d23f d7db bf9f 59e5 523f
00000650: a6e5 dbc9 97da bfbf 6c6e 6e96 8303 c63f
00000660: ae6a ae24 a4be c2bf dbab d6c6 c312 b3bf
00000670: de42 c2d9 858d 453f f3b0 2248 de93 943f
00000680: a832 28de 1502 763f 6e1a 974d 79df d53f
00000690: c745 8ce2 be18 b13f dfeb fba9 c622 c1bf
000006a0: 6c4c 7cf6 9383 b1bf cbef c9d1 73dd c1bf
000006b0: 2811 fa51 026e 93bf ccd9 bc62 0f42 a33f
000006c0: f4fa 89af 046a 63bf d3bd dcc1 0e52 9a3f
000006d0: c94a 260d 3d47 ba3f 77fb 34a8 261e c13f
000006e0: 429f 759a f002 86bf c63d 53d3 2cdb 86bf
000006f0: 9a89 01b6 b22c b2bf 0ad5 8f62 349a b23f
00000700: 664a 4ad3 bc16 c63f 78b5 1eee f231 99bf
00000710: 511d 72cc f94a c2bf 7a9e 2767 95e7 a03f
00000720: b780 6f6a 6ed2 a03f c3d1 01f0 5d20 d3bf
00000730: 22c5 52ba ce42 94bf ea42 3ac5 6168 c13f
00000740: 737a 4ea9 ad06 cfbf d282 1281 6668 c83f
00000750: 1641 c7a3 5078 b93f 8a04 29d5 68c7 7d3f
00000760: 6d8b 7625 ad68 9fbf 845f e85c 5eac b3bf
00000770: ba86 7552 9561 d3bf 8add e457 da38 a9bf
00000780: 9af0 bfc7 8801 c23f d907 9735 8fff c33f
00000790: 8fcc afb2 5b6d be3f 01d6 1d38 cf27 bcbf
000007a0: c434 cd7d 63be 9bbf d96a 33ed e324 90bf
000007b0: a47c efaa a269 923f 168c fceb 897b b0bf
000007c0: c361 ced6 2358 b1bf bb9e eb88 c418 9b3f
000007d0: 875a b236 b46a aabf 7c2f 16e3 57b2 853f
000007e0: c678 1099 2512 b4bf cb13 764d a791 c9bf
000007f0: 06bb f7e7 fdd2 59bf 1a18 6654 b475 d03f
