Trained_models/6/predictor4_50_9.pt (torch, 36037 bytes, 16 tensors)

weight f8 [29, 50]
0	0xbfc4efa36e007e1f	-0.16356318350970953
1	0x3fd0e5c327028ef8	0.2640235787350629
2	0xbfc8dbc2662333ee	-0.19420652377303277
3	0x3fb184bd02835e19	0.06843167601925194
4	0x3f777288b06f7731	0.005724462454024069
5	0xbfb0de21171bb859	-0.06588942350546868
6	0x3fc3bc3307a35055	0.15418088791796217
7	0xbfc6bcddb3f43e38	-0.17763873373813666
8	0x3fc261ffe5bfa81a	0.14361571043201665
9	0xbfa01c96d455ee7b	-0.03146811811435853
10	0x3faaabdba04e5a58	0.052092421835528924
11	0xbfb0fd0a71c2fea3	-0.06636109616646961
12	0x3f9c0fbd5dc40ff3	0.027403792236341883
13	0x3fb87378d0e5d12a	0.09551196193735181
14	0xbfcb4733882a3946	-0.21311039112738167
15	0x3fca6525cef56876	0.2062117825069582
16	0xbfc5344bbd73d63a	-0.16565844297990556
17	0x3fc2d3bd4c2a1ae2	0.1470867750069465
18	0xbfc2bb002da96d1c	-0.1463318083723174
19	0x3faf26892bbfa849	0.06084088000336913
20	0x3fb11b4e7dea59ba	0.06682291578395097
21	0xbfc400a47bdd56e1	-0.15626960800243864
22	0x3fbbddfedb214c20	0.10885613298278018
23	0xbfb06bda70ff61e2	-0.06414571055154952
24	0x3fbbc767ca80fb2d	0.10851143545094706
25	0xbfc5f4b17e461382	-0.17152994790754056
26	0x3fbed437b968d1b4	0.12042568470571419
27	0xbfae8816d2d2682c	-0.0596320278502421
28	0x3fb1176767f6c23f	0.06676336563283146
29	0xbfa72c460bdef9cc	-0.04525965590390832
30	0xbfafb2fc97db40e1	-0.06191243509022271
31	0x3fcde1e2076ee616	0.23345589983891618
32	0xbfd0880dc635c748	-0.25830406528904293
33	0x3fcbb16dadda76e9	0.21635218609747334
34	0xbfb058f81f07a688	-0.06385756261411235
35	0x3f9204eff53053cc	0.017596959438453116
36	0x3f8b0f8f975a114b	0.013213273817435442
37	0x3f9ec86dca555432	0.030061450457044177
38	0x3fa85c7e3af6a732	0.04758066625374936
39	0xbfbc3a3ab271c93d	-0.11026350838236439
40	0x3fb52599c92617bc	0.08260499153956763
41	0xbfbbcf4ea84a35ed	-0.1086320076812723
42	0x3fc79313ce9f156b	0.18417594517647315
43	0xbfcb47d736fabbe7	-0.2131299036459204
44	0x3fc0f01592c62c4b	0.13232679049210314
45	0x3f9c3b2762755994	0.027569404014991486
46	0xbfc267fee2406b07	-0.14379869506304763
47	0x3fd00b7af0c334e9	0.25070069801297606
48	0xbfd01b329f932f23	-0.2516600187634472
49	0x3f9bc2ceba84936f	0.027110319265506385
50	0x3fd5d316f4d852a8	0.3410088912071765
51	0xbfc26c8c398c36fb	-0.14393761453577966
52	0x3fc5cfa0debba27e	0.1703988158763145
53	0xbfb7c161732e9ac4	-0.09279450475751633
54	0xbfc07c46e2b3e36f	-0.1287926299044346
55	0x3fca4088b8ce7a88	0.20509442352063822
56	0xbfa4269bf9401ccf	-0.03935706536872773
57	0xbf9503065e9032c5	-0.020519351503071066
58	0xbfb465698bc8b355	-0.07967242872900944
59	0x3fc95be7b4ee7046	0.19811722120801017
60	0xbfb11fee34034926	-0.06689347047657587
61	0xbfb4e0f022fa7503	-0.08155728200877736
62	0x3f9157ba9d9be15a	0.016936221952137266
63	0x3fab1a1c08afe803	0.05293357473415485
64	0x3fbf0f37daa0395f	0.12132596099420344
65	0xbfd3f8d371893564	-0.3120621308088032
66	0x3fd1421cd000507b	0.26966018974895406
67	0xbf8fa3abe4f00484	-0.015448897289390702
68	0xbfb3705179482b3a	-0.07593259058937188
69	0xbfb57761428ee522	-0.08385284304576548
70	0x3fc953f3e467467f	0.19787453320036616
71	0x3fa7dc62052aabe9	0.046603263025950366
72	0xbfcf21f6c2fa19b8	-0.24322399635657432
73	0x3fc4b17dc40741ab	0.16166660377213068
74	0xbf91707ed82de962	-0.017030698723354283
75	0x3fb986a53dc64054	0.09971077688374069
76	0xbfd0abdc0b5d91d7	-0.2604894743911052
77	0x3fc79a5c350d8b65	0.18439819899057422
78	0x3fbd79f76a828a0a	0.11514231062259497
79	0xbfc27ba962149cd7	-0.14439885415160944
80	0x3fa59d2a27e83222	0.042214696284734524
81	0x3f8026dab6d49e42	0.007886608795686038
82	0x3fc7dd2751a68cfd	0.18643657194943578
83	0xbfd4a29acdbacf62	-0.3224246033744206
84	0x3fc2cd618d0a557b	0.1468927324937502
85	0x3fb9f67aae33c09b	0.1014172244356381
86	0xbfac9807da0c79de	-0.05584740196922032
87	0xbfb60919c925f4fd	-0.08607636605116294
88	0x3f9fdb70dd4efff4	0.031110538013081127
89	0x3fc4ddef22abf19e	0.1630228919310754
90	0xbfc69133b70d1e84	-0.17630621374177136
91	0x3f9f7f70677c1f7d	0.030759579006399463
92	0xbfad0cfa02d036c1	-0.05673962864248728
93	0x3fcb3f663ee6002e	0.21287229605877783
94	0xbfc9e37046645731	-0.20225337445361327
95	0xbf9cca816fc82a4d	-0.028116247604012923
96	0x3fcc40fc68623ade	0.22073321434841991
97	0xbfb2d8b70783dbee	-0.07361930783723356
98	0x3f9b8a3f9937dece	0.026894563414287025
99	0xbfd5f14457a6fd0a	-0.3428507667521933
100	0xbfd225f649cf172a	-0.2835670204916477
101	0xbf82616d97f3bf3f	-0.008974891853057108
102	0x3fd2bc189bf64e1a	0.2927304766719502
103	0xbfcca73628bc529f	-0.2238528918175193
104	0xbfc73f676c89143f	-0.18162243651946317
105	0x3fd3fc79bc5de50e	0.3122848834533024
106	0x3f9d908a8ad73f1e	0.028871693348093357
107	0xbfc98178037e9d74	-0.1992635743201664
108	0xbf987a0e31bc8586	-0.023903104577703192
109	0x3fbbc8176e16e575	0.10852190435152471
110	0x3fc1cafd1ddc6c29	0.13900722463662987
111	0xbfc7f156a450e371	-0.1870525648426127
112	0xbfc22908a77a824b	-0.14187725236571888
113	0x3fd185591ee9228f	0.27376392382260745
114	0x3f972315030adadc	0.02259476500577305
115	0xbfcdf8cc500dc219	-0.23415521534799735
116	0x3f9a17eb43743dd5	0.025481868736333475
117	0x3fc8cb24f5fca4d0	0.1936994744403706
118	0x3f9c78d6961f009c	0.027804711258568746
119	0xbfcbb2aaf3ab8ba7	-0.21639000795320593
120	0xbf8394870650c67d	-0.009560637359842911
121	0x3fd4195aa58420f3	0.3140474907272754
122	0xbfac6c0946e784f8	-0.055511751084631855
123	0xbfd3c05fa325b5e7	-0.3086165517077845
124	0x3fc8c5875ffcdb6c	0.19352810084248107
125	0x3fcb9755c409f158	0.21555587837418488
126	0xbfca3b79471bce4e	-0.20493999454594064
127	0xbfc30897fd8c1530	-0.14869975929483692
128	0x3fb9bf416c5cc2d3	0.10057457824292308
129	0x3fd11d069080945e	0.26739658462094507
130	0xbfb984796fac15a9	-0.09967764831897931
131	0xbfd951fc4aabe58a	-0.39562899868141044
132	0x3fd711675d5dc9e3	0.3604372417240979
133	0x3fd368c4b6cbedb1	0.3032695565341
134	0xbfe3c82b00c82fee	-0.6181845679543565
135	0x3fbcb9aca4c1c2e6	0.11220816633591432
136	0x3fddf23b63fd0f95	0.46790966763023195
137	0xbfd6f24d0ef72938	-0.3585388799807734
138	0xbfbe5049b59f411d	-0.11841259655125609
139	0x3fbefa4ac8b48eba	0.12100665473968322
140	0x3fb5d3e5bcc95d51	0.08526454791114203
141	0x3fc47b94b10c844b	0.16002138752904424
142	0xbfd8ab550241c152	-0.38545727939983465
143	0x3fa2c0cd0a6f1670	0.03662720444075951
144	0x3fe071357d43d696	0.5138194510061165
145	0xbfdda1af656636f3	-0.4629934778430275
146	0xbfd0907ed75c2b0f	-0.2588193038106263
147	0x3fe25ffd749f02af	0.5742175367123162
148	0xbfbbf967b73223a8	-0.10927437040858357
149	0xbfd60b22e97722c8	-0.3444297103820131
150	0xbfb1ea301150f86e	-0.06997967169533734
151	0x3f872b742cdea98b	0.011313350314442491
152	0xbfc7d178858ce90e	-0.18608004113213678
153	0x3f817d38c90e255d	0.00853962291309312
154	0x3fd68327d83977c6	0.35175510516807795
155	0xbfd1d2395c061ca9	-0.2784560583754208
156	0xbfba240aae35415d	-0.10211245301366519
157	0x3fc5d4660c43c3af	0.17054439162123233
158	0x3fb6dd2dae6fa804	0.08931241520591021
159	0x3f80ceb60b08ec79	0.00820677014518466
160	0xbfd6fd5067ff86c1	-0.3592110648734029
161	0x3fcbf28adc384d59	0.2183393073361042
162	0x3fc6ee1213d1533d	0.1791403385892866
163	0xbfce0760832e8490	-0.23460012822491594
164	0xbfb7c374e603ad84	-0.09282618156037442
165	0x3fc040e369b09067	0.12698023472433137
166	0x3fbed5eb45618096	0.12045164531582694
167	0xbfc4b7e4274af07a	-0.1618619148119967
168	0xbf961b15c19af2e9	-0.021587696019866796
169	0xbf950f6cd9062d39	-0.020566654916860137
170	0x3fd2237c4b4e8130	0.2834158645073499
171	0xbfc128be55dbd387	-0.13405589287108574
172	0xbfd01227373a9ec3	-0.2511079825730855
173	0x3fda5d67334e1dda	0.41195087442653533
174	0xbfc8053f51cef19d	-0.18766013617085955
175	0x3fac1c5215b4acff	0.054903569364194375
176	0xbfbb6bb69f778cc1	-0.10711232560383889
177	0xbfb2b6811186790a	-0.07309729268897427
178	0x3fdc74a13fa812b3	0.4446185228010037
179	0xbfd71c1333fa8e32	-0.36108856273696965
180	0x3f92a6593e75e593	0.018212694585121602
181	0x3fc5787201c27154	0.16773820005335927
182	0x3fbafec04c740063	0.10544969431430355
183	0x3f9842028f8232bf	0.023689308175152798
184	0xbfcfd573a170b16d	-0.2487015283853781
185	0x3fd801882130ce1f	0.3750934909942049
186	0xbfa49889c19188ce	-0.04022627342125561
187	0xbfccddce44491fb6	-0.22551897367725154
188	0x3faf10df8b641656	0.0606756074576366
189	0x3fca1087859ef293	0.2036294367261645
190	0x3f6b4ee7a67a9603	0.0033335232181623833
191	0xbfd46d3ee7df4c0f	-0.31916782993101916
192	0x3fc50d1950d14d8f	0.16446224638148663
193	0x3f67476c96f2c4cf	0.0028416748897020848
194	0x3fabff7d675e5ca6	0.05468360792945619
195	0xbfabac1a0e40d9dd	-0.05404740737906242
196	0xbfc3704f3d350775	-0.15186491478567246
197	0x3fd9a3de14389224	0.40062667822556564
198	0xbfc7df090fd8c4aa	-0.18649400018469936
199	0xbfdadf06c16f33db	-0.41986245050503407
200	0x3fd2cbf52f593650	0.29369859336734283
201	0x3f8944cf5caa640d	0.01233827592413841
202	0xbfa06ab80596aae1	-0.03206420009822409
203	0xbfb943837fa8fa59	-0.09868642679882934
204	0x3fdc671c2c405952	0.4437933380262581
205	0xbfe012539987dc8c	-0.5022371290823613
206	0x3fd6ef04e28c60d2	0.3583385670076612
207	0xbfc2c709a9359f68	-0.1466991497247776
208	0x3fa18be910afbff4	0.034270556723526996
209	0x3faa92c1fc6a0fa3	0.05190092283467542
210	0xbf83e56d0e5b311c	-0.009714939118020065
211	0xbfaaf9f0282a33f9	-0.05268812647145888
212	0x3fbc7285eea15ade	0.11112248493132479
213	0xbf5f98403c55dfa5	-0.0019283892919172787
214	0xbfc9422216bfbb21	-0.19733072386539965
215	0x3fd24e2ea2b5b9f5	0.28602186097751253
216	0xbfc3d47c9cf5a177	-0.1549220816043648
217	0x3fba66378ececd11	0.1031222079898735
218	0xbfbe4d14a41ccfaf	-0.11836365706113726
219	0x3fca41d1e3c3462f	0.20513366337995495
220	0xbfcceb0986752b6a	-0.2259227663547237
221	0x3fc961f818228939	0.19830228022062515
222	0xbfb7b57620c3d14c	-0.09261263179707163
223	0xbfba71a4138e3ab1	-0.10329652287894465
224	0x3fcb4588b8b535ca	0.21305951136530005
225	0xbfc713c676b4c52d	-0.18029099270055707
226	0x3fa40361d3b91bc1	0.03908830365667582
227	0x3fc03743c8a83772	0.12668654725751655
228	0xbfb2e92518372c8d	-0.07387000886153512
229	0xbfc0cf7dc3588a45	-0.1313321307980734
230	0x3fcc4d61714de472	0.22111146957812228
231	0xbfd148fe61b65813	-0.2700801805707453
232	0x3fd3e0955ad2a585	0.31058248395364557
233	0xbfd243179c036379	-0.2853449843947185
234	0x3fb732fc7b21442a	0.09062173849203306
235	0xbf5ecd21785e1473	-0.001879961667755195
236	0xbfae1cff6b4bceb7	-0.05881498512999655
237	0xbfa9239d8a3b9543	-0.049099848865618266
238	0x3fbe6c78d67f1252	0.1188426517174517
239	0xbfb4a0c0784967c7	-0.08057787834823592
240	0xbfaa5d40428ac333	-0.05149269878655218
241	0x3fb476eee11b2d93	0.07993977542644463
242	0xbfbc13d1c3773aa6	-0.1096774198733593
243	0x3fca5d3f1957a8e2	0.20597065675185094
244	0xbfc866c9a758568b	-0.19063683196207068
245	0x3fc07548b6dfe7fd	0.12857922486710996
246	0xbfa87a1a2376d791	-0.047806565121773954
247	0x3fb06d4f03635f51	0.0641679175636203
248	0xbfbe99ca06b5ef66	-0.11953413642726005
249	0x3fc257df1e39e094	0.14330662704356156
250	0xbfaac932fa02e29e	-0.05231627752204314
251	0x3f7f2a64321e7a72	0.007608786954647161
252	0xbfb614a0fc679c28	-0.086252271291969
253	0xbfa1f63a005758ae	-0.03508168462910653
254	0xbf97303dc18fc507	-0.022644963206350812
255	0xbfb94d0a59eb5ee0	-0.09883179374025586

bias f8 [29]
0	0x3fa82e0f1143327a	0.04722640119289152
1	0xbf92a117191d494b	-0.01819263544832354
2	0xbf9d6a43d4dceff9	-0.0287256811782157
3	0xbfb9b333d758b7a4	-0.10039066321834739
4	0x3fc6a16a7c3c0468	0.17680102411398768
5	0xbfd8d59b9523ec07	-0.38803758205875777
6	0x3fab8f5c27fc6d59	0.05382812488661654
7	0xbfa0a0cc90cd2e45	-0.03247679965587883
8	0xbf969a190a28fd89	-0.022072211499332837
9	0x3ff15ef8f436ae00	1.0856866397469958
10	0xbfa7ca964ad1182e	-0.04646749175348962
11	0xbf92327b39b5eb38	-0.017770696065308317
12	0xbfad953f958c631d	-0.05777929974119032
13	0xbfb17ca60df0420a	-0.06830823746009443
14	0xbfa6c6be8a728737	-0.04448504867583696
15	0x3ff689f0e330e11a	1.4086769938131227
16	0xbfbccf85ea46960e	-0.11254155130026097
17	0xbfd6c833599315db	-0.3559692740203368
18	0xbfaacfb92ebf658c	-0.052366053539752405
19	0x3fb8306d96dd06f9	0.09448895390690017
20	0xbfacc33de69a630b	-0.05617707672099045
21	0x3f85a77b6e61370e	0.010573353105566532
22	0xbfa97b5e2abdcc82	-0.04976934692140224
23	0xbfd41f4984963547	-0.3144096178810582
24	0xbfded62b84515e76	-0.48182189866699987
25	0xbfd9367aae903690	-0.3939501480789227
26	0xbfa91419fe8e6d48	-0.04898148758294468
27	0xbfd7d9d39c441575	-0.37267008076044955
28	0x3f8a9937d61ddbdb	0.012987552854367415

weight f8 [9, 29]
0	0x3fd755dabbf18ff7	0.36461513856761435
1	0xbf7a8c096a06c1f2	-0.0064812057247967
2	0x3fe2e9a343e1b5fd	0.591020233708775
3	0x3fba04dbe3efbaf3	0.10163664164404533
4	0x3fbd0c09463f03a6	0.11346490826600916
5	0xbfc85b79cdf4e51a	-0.19029161983943582
6	0x3fc097f4aec19137	0.12963732274068615
7	0x3fd7ae61a2156d4b	0.37001839474188064
8	0x3fe17fb836e461b1	0.5468407699691423
9	0xbfa937ba767efa28	-0.04925329872593337
10	0x3fd59c76a14c9ce0	0.3376747679889842
11	0x3fe2a8a8ea24dd61	0.5830883572697695
12	0x3fd5c52b1126b16a	0.34015919375339954
13	0xbfa3686beba920f5	-0.03790604831425696
14	0x3fe034fb98a5ba87	0.5064676267046061
15	0x3fd27d3f28864234	0.28889445264306635
16	0x3fe7f7b159a6fa00	0.7489859343548346
17	0x3fd0fb9d90d2fbaa	0.2653573908136716
18	0x3fe279d308d63818	0.5773711369126913
19	0x3fd0c0980a70cb8c	0.2617549993475954
20	0x3fc685f81b5e04e2	0.17596341453830805
21	0x3fde782d5d939475	0.4760850347359516
22	0x3fdcc401d591725d	0.4494633279444196
23	0x3fc8f8f478480c0a	0.19509750245205765
24	0x3fe0299e69b17b02	0.5050804199525774
25	0x3fda4981a290e5b8	0.41073647380434464
26	0x3fe2e3787bb116c4	0.5902674117903293
27	0xbf715ed2f52f7c5e	-0.004240821889623351
28	0x3fd7f2de271f0b6f	0.3741984731715808
29	0x3fba19956575c315	0.10195287444163299
30	0x3fc877df4b3fa55d	0.19115821050881268
31	0x3fe8eb626ca66111	0.7787334558552478
32	0x3fd0d4909e210930	0.2629739326695413
33	0x3fdfccdfe53116d3	0.49687955266959455
34	0x3fdcf725396e8f1a	0.4525845585687748
35	0xbf81d26eb67eaa8e	-0.008702149338053713
36	0x3fe02f8abf782a50	0.505803464854873
37	0x3fe6343e3a9160d7	0.6938773292449935
38	0x3fc7ae0c006d24e7	0.18499898930375666
39	0x3fcf7b43d03851ec	0.24594924609176816
40	0x3fe575e96ff11bad	0.6706435381282653
41	0x3fc178066729d664	0.1364753726699518
42	0x3fd7f2bc576af23c	0.3741904119195032
43	0x3fd85fbbeb939ded	0.38084314351587417
44	0xbf81c55af270d05a	-0.008677206538870209
45	0x3fc06f4f74191081	0.12839692276805084
46	0x3fd8f1ec92b77166	0.3897658760813755
47	0x3fe0b13ae96739e9	0.5216345366150651
48	0xbfb7eecd4165c699	-0.09348757597561032
49	0x3fd6e40174be3726	0.35766636276899744
50	0x3fca530aafc25861	0.2056592329215077
51	0x3fcf6f7a935544c9	0.24558956331251228
52	0x3fd9f0e754acabb7	0.4053285910510413
53	0xbfcc629f28414bd6	-0.22175969567851322
54	0xbfa379d9310ae9ff	-0.038039004551553283
55	0x3fd0740e45fe1a26	0.2570834811707833
56	0x3fadec04ea901700	0.05844130862537433
57	0x3fdcb4620842d31f	0.44850970083943936
58	0x3fb5c277af9e976a	0.084998588920454
59	0x3fca67c7cd9a04ef	0.20629212893621893
60	0x3fe156efceb14351	0.541862395950469
61	0x3fe6dc6586deff3f	0.7144038805199456
62	0x3fd07376959b7b8e	0.25704731569379013
63	0x3fa35a2335f43cf5	0.03779706987017476
64	0x3fb1062c39dbb4d6	0.0665004388099136
65	0x3fd4e7f0a4aac9a0	0.3266564949109583
66	0x3fdedc8fe305fd89	0.4822120396638288
67	0x3fc81a3ee1b141e5	0.18830095310342113
68	0x3fd5ed56e915cd44	0.3426110531065272
69	0x3fdf4d5b35a10642	0.4890964530678482
70	0x3fe1537273981912	0.5414364106843854
71	0x3fcbb5fc415065aa	0.216491252795817
72	0x3fccad31e2eb7e88	0.2240354879386255
73	0x3fcf11289aca6ee9	0.2427111392797692
74	0xbfa8de98d9c8c6e4	-0.04857328089236804
75	0xbfd9cc232f53b38a	-0.4030845606019332
76	0x3fdfbb43444b692d	0.4958046118678279
77	0xbf8e333527655d70	-0.014746108307618327
78	0x3fd002ddc5c98b9f	0.2501749450222465
79	0x3fc16d28f70f6975	0.13614379943357915
80	0x3fd75c28f109ca02	0.36499999560251706
81	0x3f99db70c5287e9b	0.02525116160734218
82	0x3fe299b6e5dae52e	0.5812639703137046
83	0x3fce474dbf7d3c89	0.2365510163312801
84	0x3fd53ddd66fe73a0	0.3319009309578238
85	0x3fe5856e356bf981	0.672537903155714
86	0x3fcc2026bbbb22f4	0.21973117987206303
87	0x3fd8b202d9927ffc	0.38586493727962057
88	0xbfc4f09ff23b5128	-0.16359328582496713
89	0x3fcf6ed18fe15a26	0.24556941533474336
90	0x3fd496ce9e039c9f	0.32170453482690137
91	0x3fad56b65d5f5127	0.057302187822332144
92	0xbfaa3b69e4aa4f09	-0.05123454014133528
93	0x3fa19c7aab1ef145	0.03439696635129733
94	0x3faa7828022c827c	0.05169796968971682
95	0x3f7c0e1caeeebad0	0.0068493957941615086
96	0x3fe974e8445f4675	0.7955209098237918
97	0x3fdb5016e8124f98	0.42676327384219226
98	0x3fc61126e2aa5fe7	0.1723984343304885
99	0x3fcd078b6a75d7f0	0.2267927427125751
100	0x3fabb81bbac5e338	0.05413900999969318
101	0x3fdaad505edd7537	0.4168282438675592
102	0xbfc72d9fa544bc59	-0.18107982225180555
103	0x3fd7eb393d99f13c	0.37373190894847474
104	0x3fb14654dcb53537	0.06747942341208533
105	0x3fd03d9a6a6a3b6c	0.25375996009909474
106	0x3fa7807157d0044a	0.045901815385157876
107	0x3fcfa331dd63fd43	0.24716780958258697
108	0x3fd858a2e7cb01ea	0.3804099334338661
109	0x3fd9f73ac83de8b5	0.4057146983610765
110	0x3fb11525aa406b85	0.06672892958196826
111	0x3fe21856e1638e88	0.5654711153151348
112	0x3fc1ce3e25698d2b	0.13910652949116672
113	0x3fd0c30acb90c185	0.2619044292396427
114	0x3fa5e3e919184893	0.04275444442113598
115	0xbfd1e24b41e22b3b	-0.2794368880646975
116	0x3fa303abc87c73bc	0.03713738272038067
117	0x3fbffd6b4e19c268	0.12496061951402171
118	0x3fe22b39ea70213f	0.5677766398303347
119	0xbfc78808f9df39a0	-0.18383896065502103
120	0xbfc36d6c1b894eb2	-0.15177680344151195
121	0x3fc723eb654eddd7	0.1807836765926669
122	0x3fe55cd63c819dfa	0.6675826246036529
123	0x3fe04a1c48b0ce59	0.5090466899623137
124	0x3fe40bff8ee030ab	0.6264646330396507
125	0x3fd569c7f6a04543	0.33458136639190544
126	0xbfaa81628ab19c27	-0.05176837866820732
127	0x3fddb9009aae5469	0.46441664796413434
128	0xbfa952b07fb07e7b	-0.049458995425308815
129	0x3fe60d1160211b53	0.689095199349007
130	0xbfbb1a02393d1448	-0.10586561105181247
131	0x3fdd677a6466d17b	0.4594408016667086
132	0x3fa87126e7831a04	0.04773828102183944
133	0x3fd3cf5e1d76322f	0.30953171612853486
134	0x3fcd05c0818cdcc7	0.22673803640075205
135	0xbfd50aac908358a6	-0.3287764941463912
136	0x3fdd2f495cd50f81	0.4560111433568111
137	0xbf67baa9a3967e27	-0.0028966248762143545
138	0x3fc8edb65bd4d46f	0.19475440486863557
139	0xbf60fae4cb29d13e	-0.0020727604508527222
140	0xbfb8bf86f53c24ee	-0.09667247283154598
141	0x3fdcd101cdf1ba46	0.4502567778753569
142	0xbf910db4dc0afb06	-0.01665384858165011
143	0x3fd74966a3710aea	0.3638550373181447
144	0x3fdda98d401be75c	0.46347361813206134
145	0x3fe2474a125407a6	0.5712023122762175
146	0xbfd9574ba5d3444e	-0.3959530944239916
147	0x3fb6c899e8cf89e4	0.08899843152861525
148	0x3fdbed60ce2c151e	0.4363634122276653
149	0x3fa729492c4c2949	0.04523686090222385
150	0x3fd1441dd881ceef	0.26978250640171003
151	0x3fa34e99f971e674	0.03770905656797377
152	0xbfa7ee6650e63411	-0.04674072015323117
153	0xbfb2854337751553	-0.07234592536868449
154	0x3fd0612cf49a1ce6	0.2559311283770981
155	0x3faa01bee9b4213b	0.05079456904246845
156	0x3fa6e551f1f032b0	0.04471832350109162
157	0x3fcacd1936c4e537	0.20938410925172388
158	0xbfae5404572c6e5f	-0.05923474849825249
159	0x3fd0ebc097a337cd	0.2643891793094298
160	0x3fe6432e35f78a9c	0.6957007459680713
161	0x3fb6b49bffad4fe5	0.08869338028063074
162	0xbfb05e544849b700	-0.06393934979288574
163	0x3fc3c4ef2ee81507	0.1544474581752768
164	0x3fc7542cc12b763b	0.1822563117229253
165	0xbfa879c18ca9891b	-0.04780392496174298
166	0x3fd6c90c60a67222	0.3560210174416928
167	0x3fd8428bf2b2ef08	0.37906168652601524
168	0x3fde9fb52e420ba3	0.4784977866876778
169	0xbfbe4e8571e22e70	-0.11838563948020364
170	0xbfc8c91b1d03e6a2	-0.19363726536521592
171	0x3fcdd88c23b652e8	0.23317100280532732
172	0x3fc37e2b81527a69	0.15228790106353365
173	0x3fb790003e2e3b1c	0.09204103010254666
174	0xbf6b6a7b81142f08	-0.0033466732207950746
175	0x3fb3fd1667a0c5bb	0.07808055906277549
176	0x3fd596d6e457d574	0.33733150767451225
177	0xbfd9a9f177176a10	-0.4009975111963806
178	0x3fe9aeadd1829009	0.8025731174461735
179	0x3fc710b393426831	0.18019718828583245
180	0x3fb602312acd587b	0.08597094817136679
181	0x3fd98a5fbe9d0a0f	0.39907067885010944
182	0x3fcd18fc645455c8	0.22732500933550015
183	0x3fe4bc7955559a3c	0.6480070749938203
184	0xbfd09165fe8ad3bb	-0.25887441499372316
185	0x3fd064419657fabc	0.2561191528510951
186	0xbfd46b2c4f8d7c18	-0.31904132622543235
187	0x3fd39dacadab65c6	0.30649868926920154
188	0xbfd2577c012e0ff5	-0.28658962359645496
189	0x3feb44d22caf41b3	0.8521510002847691
190	0xbfc60a72673a5eae	-0.1721938137095455
191	0x3fd90b9b029510fc	0.3913333440034561
192	0xbf8d7e9365812f52	-0.014401580367255615
193	0x3fc856d59a59e703	0.19014997517279406
194	0x3fde903fe6844bbb	0.47755429755596496
195	0xbfd30b1bc54f2b9d	-0.29755300777895305
196	0xbfc1e023b64026e4	-0.13965269469218022
197	0xbfd27b42fae77a3c	-0.2887732935177245
198	0xbfc0c1afd819ee38	-0.13091085483380183
199	0x3fe240713baa4ce1	0.5703664937340386
200	0xbfd06ca28ebc2422	-0.25663055361707354
201	0x3fdb2583bd54f804	0.42416470994419364
202	0x3fd5bcbee9b47ff4	0.3396451265598437
203	0xbfccb61402c6b2f9	-0.22430658469729517
204	0x3fe1a24348f78a2d	0.5510574746261391
205	0x3fcb16009ba94dd7	0.21160895920421183
206	0x3fd9f6af95c7eee6	0.4056815111832591
207	0xbfb68f60cbfcc72a	-0.08812527637635684
208	0x3fa10482a0f79b48	0.03323753561908532
209	0x3fabe987b41b2f32	0.05451606820642353
210	0xbfb26d2b713a02f8	-0.07197829737016181
211	0xbf8e6b092d6038ce	-0.014852592179547843
212	0x3fdc3a61d0eeffc6	0.4410633602492421
213	0x3fe1e31ae81de432	0.5589727910547764
214	0x3fdb275ec0489f6d	0.4242779615183199
215	0x3fdc70dc6672cd58	0.44438848499995265
216	0xbfbf05fcd7b218d9	-0.12118511453636262
217	0x3fdb1d9d7fa3773b	0.42368257012082083
218	0x3fe00177e4ef707f	0.5001792403595714
219	0x3fe315c6b3c7ef29	0.5964082251880188
220	0x3fc0d97515ab8448	0.13163627203087658
221	0x3fd8cdc0547569f0	0.38755806205668275
222	0x3fc3e0fe045d3e62	0.15530371869180032
223	0xbfb4025070ceaa6e	-0.07816031221470052
224	0x3fe0bf21c16867b5	0.5233315255638816
225	0x3fe00d0bf46e33ab	0.5015926145584805
226	0x3fe3bfe74491820e	0.6171757067896253
227	0x3fc11745e0b011d7	0.13352273436625126
228	0xbfbdf9c44d0732b7	-0.11709238892144468
229	0x3fd7b08b58ca1b1a	0.37015041037413854
230	0xbfc83f731382cc8f	-0.1894363255756599
231	0xbfbd032888038391	-0.11332944222114195
232	0xbfa11f51d6347da8	-0.0334420751553311
233	0x3fd3c6a1243861ed	0.30899838006146646
234	0x3fe4907e292f3fab	0.6426382831941643
235	0x3fa8d164490117b1	0.048472532188085345
236	0xbf95c69c26d91a8f	-0.02126544940099478
237	0x3fe301da73b56cdf	0.5939762363372231
238	0x3fe2b4765e849ad1	0.5845290990881385
239	0x3fe44ee17915ac36	0.6346289982733484
240	0x3fe85c1adfc68f01	0.7612432833306856
241	0x3fdc925d511a734e	0.446433381273711
242	0xbfd025c0ff10b1cd	-0.2523043146964284
243	0x3fe48326b2db36df	0.6410096638953425
244	0xbfc8b0506a6ef5ad	-0.19288068005509498
245	0xbf9e1f35c02175d8	-0.029415931560256542
246	0x3fbfbd84de130255	0.12398558065161443
247	0x3fbcac14472ee58c	0.11200072038527348
248	0xbfc43964b754f145	-0.1580015082526051
249	0x3fd3e88c007ce8f0	0.31106853530549383
250	0x3fd2456d60ffcdb8	0.28548750374394727
251	0x3fe251d8c1e32ef7	0.5724910532821629
252	0x3fe3b24bc8944431	0.6155146520196749
253	0x3fc8a25b33ba6f9d	0.19245471978944986
254	0x3fd481e7e8ae04c2	0.3204288265479357
255	0xbfc282fe9bff1891	-0.14462263695731228

bias f8 [9]
0	0xbfe2792720e81986	-0.5772891657550623
1	0xbfeb4acbcd1e55fc	-0.8528803831310934
2	0xbfd71d139b63aa93	-0.3611496942018359
3	0x3fe175144cae1ad8	0.545541906133475
4	0xbfe1433c58c49d07	-0.539457486510316
5	0x3fe1b88ecf48f6f3	0.5537790344748984
6	0x3fd94382cec08962	0.39474554243692783
7	0xbfcc0afab5ed9c0f	-0.21908506282054005
8	0xbfd6fe6afbc4e71a	-0.359278436535179

weight f8 [29, 9]
0	0x3fde2df5fe2f27a6	0.4715552313106123
1	0x3fd313dd419e6874	0.2980874195869838
2	0xbfd7e772901839a0	-0.3735014350103487
3	0x3fc4a23fd212dc16	0.16120145566466765
4	0xbfd65177da2e87f0	-0.34872242266476317
5	0x3fd55aaef51e56a0	0.33365987717966483
6	0x3fc6de3a8f697b11	0.17865688326397636
7	0xbfcb157600b3b813	-0.21159243616369902
8	0x3fda6e97bfc0e76b	0.41300004697733667
9	0xbfe4b13e6db200ba	-0.646636213539771
10	0x3fe6cb42a71d5e09	0.7123120559653567
11	0xbfd3f45b2c66391b	-0.3117893155657769
12	0xbfb1031c27f09642	-0.06645370459644886
13	0x3fc912ccb5be8011	0.19588621973252932
14	0x3f6508e2ead0203b	0.0025677139260587268
15	0x3fb79170cebc5c49	0.0920629982687028
16	0xbfc9c7469f8cdc03	-0.20139391699351003
17	0x3fdb0614836e11f4	0.4222461017127721
18	0xbfdc942450d03f9f	-0.4465418614572573
19	0x3fdc36a8dd0ff775	0.4408361586391643
20	0xbfc071418d95186d	-0.1284563008613903
21	0x3fd8a45dd7eb2867	0.38503213964270916
22	0xbfc9288315213fbe	-0.19654882938129775
23	0x3fd04d0db780d903	0.2547029773735547
24	0xbfded840da5ed24c	-0.4819490559123423
25	0x3fda0ac217ed900d	0.406906627051513
26	0xbfc822a6db912ee0	-0.18855748864222388
27	0x3fd27103e42473b7	0.28814790038614596
28	0xbfcf694150a3e88c	-0.2453996318579964
29	0x3fb006bb662ba637	0.06260272259137244
30	0xbfdbc4845a243a37	-0.43386944582826764
31	0x3fa4a35bba4b40e3	0.0403088250074022
32	0xbfbb1ed37bb59f81	-0.10593911905527699
33	0x3fba49c2db905884	0.1026880060238416
34	0x3fdb5a1221343ce0	0.4273724865206088
35	0x3fde9348ebcfd0b4	0.4777395537232778
36	0x3fcbd73d9316c809	0.21750611955718593
37	0xbfbc3d5bfa2e33c1	-0.1103112684051686
38	0xbfc4bfdb9e35a6a9	-0.16210503792836065
39	0x3fd19b85ec8463c5	0.27511737916352913
40	0x3fe96bdd8a7e8cd1	0.7944171624152664
41	0x3fc243c5499ac5c6	0.1426931962392201
42	0x3fb750272b03a062	0.0910667877211622
43	0x3fae08611eb98421	0.05865767955834423
44	0xbfc61bdd197cbb63	-0.17272533173078405
45	0xbfd64996286cccbb	-0.3482413668418293
46	0xbf7ff04c9ccddf59	-0.007797526614801453
47	0x3fe53a7d6f05b333	0.6633898895648599
48	0xbfaed184ba9f9c12	-0.06019224908941835
49	0xbfa23be0ed895930	-0.03561308765044868
50	0xbfd4edea1f9e83f0	-0.3270211514264352
51	0x3fd5f7c5cfc30e95	0.34324784554721904
52	0xbfe1d363eebc545a	-0.5570544874959851
53	0x3fd6d854edc22ff8	0.3569538423405443
54	0x3fe28e9f295920d1	0.5799098785000983
55	0x3fb75f3e73f3e730	0.09129705744626615
56	0xbf9fb5622f38a8d6	-0.030965360767518067
57	0xbfcac94bb037fac4	-0.2092680559580541
58	0xbfbb6a653a814b82	-0.10709221533151772
59	0x3fc5fbfbe1671e53	0.17175243860241327
60	0xbfc03dd6b1b1c852	-0.1268871657990212
61	0x3fd80de497ac60a2	0.3758479577240995
62	0xbfe72f41abfc80bc	-0.7245186194523039
63	0xbfc836221e8458f3	-0.18915201654517197
64	0xbfb6d5ba9fc620af	-0.08919874573450913
65	0x3fc418d1b8dd3cbb	0.15700742270062115
66	0xbfdccb3748bd430f	-0.4499033174843569
67	0x3fbb7bd413fe4d0d	0.1073582218944475
68	0x3fd924e6386e5309	0.3928771544536152
69	0x3f91692a257ab4fe	0.017002733743244562
70	0xbfd531c6a2c280ea	-0.33116308111676906
71	0x3fe7026fc0db15f9	0.7190474287714884
72	0x3fa581821352e2bf	0.04200369344602483
73	0xbfc62e0b48588c83	-0.1732801535846172
74	0x3fd0c7fd34d9aed7	0.2622063652149626
75	0x3fe606d1cf9970f7	0.6883324675250425
76	0x3f88af5d87e4caca	0.012053232869765469
77	0xbfc610c25aabce88	-0.1723864500742034
78	0xbfaf5e25c26ab504	-0.06126516340496305
79	0xbfbf374429f8cb65	-0.1219370462866159
80	0x3fd54d89cef8c768	0.33285756313408976
81	0xbfa2cbad8b092405	-0.036710189077503265
82	0xbfd6fff6a6fcb35d	-0.35937277133307594
83	0xbfb397b11dc781fe	-0.07653338410410268
84	0x3f98f950e28a1f1a	0.02438856489837269
85	0x3fe30d589d5be151	0.5953791688362263
86	0xbfb1c325eefa0ba7	-0.06938397488015245
87	0xbfe156bb9af9cec4	-0.541837504088527
88	0x3fa470722bf793fe	0.03992039477069652
89	0x3fd6f685d945a9af	0.3587965604589511
90	0xbfc4826c3857d2dc	-0.1602301859963039
91	0xbfb68afb4c1928f6	-0.08805819137447543
92	0x3fdfd482790f94d8	0.4973455602869996
93	0x3f84601c49b1753a	0.009948941229760967
94	0xbfb09adfa80dec26	-0.06486318447962044
95	0xbfcb86698246175f	-0.2150394331076155
96	0x3fc490a0b0555017	0.16066368684789786
97	0x3fd00df5fa885a50	0.2508521029098221
98	0x3fbc53d3bc455757	0.11065409990746154
99	0xbfb73cbbd6fa919f	-0.09077047346597177
100	0x3fa07360661f36fc	0.032130253282600635
101	0x3fd12fdb545ed079	0.2685459445886021
102	0x3f9c6e449eaa03fc	0.02776438921364742
103	0xbfc6230dd4f6242c	-0.17294476412306048
104	0x3fdbd1adfe063bcc	0.43467283064904616
105	0x3fb79063c1661d37	0.09204696151401924
106	0xbfbcb4728f8cd64b	-0.11212841038362702
107	0x3fd1e65cb77dc794	0.279685191336392
108	0xbfbeb8c5f481f0ac	-0.12000691623137766
109	0x3fb2aa7bb276e3a9	0.07291386706391613
110	0xbfc46a119bb5e9fa	-0.15948696234757148
111	0x3f996e8010ea7af4	0.02483558753248878
112	0x3fcd15c5a259b0e0	0.22722692897094188
113	0x3fd9c8af23a8dbf3	0.402873787711939
114	0xbfa241024dbe1f09	-0.03565222929961293
115	0x3fd078193ebf980d	0.2573302376534919
116	0x3fc9e73e8cea4a26	0.20236951714157775
117	0xbfc4b010f3114a63	-0.161623114285777
118	0x3fd6e59f3a733bdb	0.35776501377125464
119	0xbfbca8051768a07a	-0.11193878003598626
120	0xbfcf972a2ebd6408	-0.2468006828519551
121	0x3fb30f38934b6242	0.07445100399071072
122	0x3fd1d67923393057	0.27871540488991314
123	0x3f9db93883930d71	0.02902687361780693
124	0x3fba7c569e9a40c2	0.10345975277073463
125	0x3fa79299648651ac	0.046040338059501223
126	0x3fc5ddb06601976f	0.17082791310093223
127	0x3fd0dc035b11b36f	0.26342853444548714
128	0xbfe3ce712158624c	-0.6189504290842449
129	0xbfe738f480930ac1	-0.7257025252550521
130	0x3fd77f79a5b9123f	0.3671554678333315
131	0x3fbf1402c673c2f8	0.12139909119629155
132	0x3fda8bd9f8d68918	0.41478585529888923
133	0xbfbeb45039f1e57f	-0.11993886389418228
134	0x3fc6ce5d694e63f3	0.17817275659470475
135	0x3fe1c2b754726ddb	0.5550190591197252
136	0xbfd5b42b6bb488db	-0.33912168043219787
137	0xbfd71b2dce268d9a	-0.3610338700475154
138	0x3fe4929a029866b7	0.6428957033815185
139	0xbfcc4c4b6532eb58	-0.22107832375862801
140	0xbfcfbe39783ff32c	-0.24799269076893304
141	0xbfcaab8dcb72c074	-0.20836040910717524
142	0x3fc995caef12a436	0.19988381074407052
143	0xbfc901da93d55954	-0.19536907404353576
144	0xbfbfcf8b10799416	-0.12426060821742654
145	0xbfd32e0c236f7407	-0.2996855112122038
146	0x3fd05ebe6ef3ee64	0.2557827075504291
147	0xbfc955cbffb66799	-0.19793081270182425
148	0x3fe642eec5a60e04	0.695670496017954
149	0xbfd9173faafc5d61	-0.39204398820716874
150	0x3fdb993f7fbd9a49	0.4312285182444709
151	0xbfadb00d13be998c	-0.057983788166256905
152	0xbf91744c995d79e9	-0.017045208798089382
153	0x3fd91cf406023444	0.3923921641042549
154	0xbfc14eee345902cb	-0.13522126728095993
155	0xbfe0445669808f72	-0.5083419857587457
156	0x3fd14fcdcf96c868	0.27049584648478353
157	0x3fc94eb46cb4fc06	0.197714379386497
158	0xbfe4fca00162c128	-0.6558380152764913
159	0x3fda4527b822db6c	0.41047089559599814
160	0xbfd64523ec4f9a96	-0.3479699905132433
161	0x3fd849b0eb762cb1	0.3794977473668935
162	0xbf9caacdc0c4e1e2	-0.02799531449383775
163	0x3fde4dbbb0165e4d	0.47349445529969075
164	0xbfab121b31739506	-0.0528725145211784
165	0x3fae879da4b7362d	0.0596284164017614
166	0xbfbfafe7fb6da510	-0.12377786529909351
167	0xbfdd5d03218cab51	-0.45880201603238385
168	0x3fd1d2581193ad61	0.27846338001719145
169	0x3fdbd88c41c4c5d3	0.43509203360289667
170	0x3faf39dfbc2a4f55	0.06098841831149452
171	0x3fdca16fdb3d81a8	0.44735332880193335
172	0x3fd4557714557f80	0.31771637902965466
173	0x3fc75bb7f74c9142	0.18248653006697607
174	0xbfe21964c57197ed	-0.5655998092959159
175	0x3f8ddd286807159c	0.014581981348679211
176	0xbfc08297b3aa5aea	-0.12898536942221678
177	0xbfd2a1d11bb7d17e	-0.2911265154537189
178	0xbfcfb4ba4fee9cb2	-0.247702874211631
179	0x3fa9554f2bb6d984	0.04947898300763412
180	0xbfd5e06d62f6d8b4	-0.3418229547927567
181	0x3fd43e727160bd12	0.3163114649969013
182	0x3fdd20bf045d1dbd	0.45512366701265333
183	0x3fcebcf14ed8064a	0.24014107084080855
184	0x3fbbf818a7d5d808	0.10925439927618197
185	0x3fb6cb72f9703000	0.0890418871860561
186	0x3fb4537b77b790c4	0.07939883873729331
187	0xbfb558ed62ed107f	-0.0833881727713237
188	0xbfc07f8af6aec367	-0.12889229817440226
189	0x3fc1166a407c3562	0.13349655293169876
190	0x3fd83b52c1f03e6c	0.3786208051614952
191	0x3fba4ee96bfd92a3	0.10276659857260965
192	0xbf9810902ae8193f	-0.023500683420956788
193	0x3fd72111730b541d	0.3613933204154039
194	0xbfb2f95dc049bbc4	-0.07411752647907038
195	0x3fb018c19e5966ac	0.06287775150249314
196	0xbfd4073087e8d987	-0.3129388167611968
197	0xbfd02510051d71be	-0.25226212024224626
198	0x3fd678e97dfeb044	0.351129887620804
199	0xbfc5d33df4f9ca00	-0.17050909482675536
200	0x3fd5bb8f7b822703	0.33957278310172984
201	0xbfbfd8a1e2390105	-0.12439929745687912
202	0xbf9fa6c706ba6c6f	-0.030909642968805103
203	0xbf3571a7adaeaa3f	-0.00032720893585272756
204	0x3fe3086d9b4891c4	0.5947788269882541
205	0x3fc44d9c605f3050	0.15861849504142578
206	0xbfc9cba6c9dbcf99	-0.20152745109919293
207	0xbf725cc0932c7541	-0.004482986684505364
208	0x3fd0911d0fc78667	0.2588570264907503
209	0xbfc26926ff58b7e9	-0.14383399456113402
210	0x3fbfb5ea13a0a8f7	0.1238695428770916
211	0xbf9d7eee315eb61a	-0.028804513705543135
212	0xbfa63fbf219b172e	-0.043455098011277435
213	0x3fd3f0b9120b6160	0.3115675617423417
214	0x3fb5afcc0c211f7c	0.08471370025756458
215	0xbfb3967be5821d3d	-0.07651495316723796
216	0x3fd14ce8f9b775e6	0.2703192175520982
217	0x3fc8248ba26e4859	0.188615278541479
218	0x3fdb1666768ac94b	0.4232422025335338
219	0xbfbcd509d1c0eb0e	-0.11262570734917807
220	0x3f849b8a0c82341b	0.010062292582256707
221	0x3fb84cf0ab66b411	0.09492401299094434
222	0xbfb155070a3ebee3	-0.0677036666881992
223	0xbfd3a7416c1fb04a	-0.3070834689995122
224	0xbfb24ec0eba2590f	-0.07151418450152768
225	0x3fb538673c8754f0	0.08289189555883403
226	0x3fcbdc626ce05e90	0.21766310039742054
227	0xbfe4160eb48ecda5	-0.6276925589103725
228	0x3f9eb94c7f277913	0.030003733883739402
229	0x3fbd27edf131501b	0.11389052523128422
230	0xbfbdd6df577e4286	-0.11655994306625858
231	0x3fc1f16ab7ad9751	0.1401799580445933
232	0xbf803657a0b602b6	-0.007916149703988889
233	0x3fb9e0ce2221347c	0.1010865052532654
234	0xbe2135bc0217fb16	-2.0034960502684705e-09
235	0xbe2d582fc0b24276	-3.4161469257299363e-09
236	0xbe2b0cb0a65e2514	-3.148984450749801e-09
237	0xbe2336d0ff93b718	-2.236818727304e-09
238	0x3e31ced6a8cc05c4	4.146239473936705e-09
239	0xbe361ecf46470ad9	-5.150295388466193e-09
240	0xbe1ec627a45dee2d	-1.7912850243624445e-09
241	0xbe3bb87c90137df9	-6.454216939734982e-09
242	0xbdbf7e5f5e9e698c	-2.86433011976267e-11
243	0xbfd4264431c2b875	-0.31483559474407424
244	0x3fc2fe7af34745bb	0.14839112166241172
245	0x3fc278f075e3978a	0.14431577450085015
246	0xbfbb37dfbfc51625	-0.10632131988412448
247	0x3fd327c5d72c5279	0.2993025399494296
248	0x3f64e2a19b0d4865	0.0025494724617738823
249	0xbfb68fb946e3324f	-0.08813055020000003
250	0x3fd743c383ac5a7c	0.3635109697219503
251	0x3fc3c04b29ee46c6	0.15430583522225144
252	0xbfb02258422e6a1f	-0.06302405944590149
253	0xbfd45c435b15b393	-0.31813129324910355
254	0x3fda85fbe05d61bf	0.4144277278005823
255	0x3fb224ee0f6f982b	0.07087600590566072

bias f8 [29]
0	0x3f7bf8eeb0e717a7	0.006829197298832946
1	0x3fc2f387f4cd6f20	0.14805697873350088
2	0x3fc75cbfd54c8df1	0.18251798548691014
3	0x3fd2b10f2f4afa0b	0.2920568429798613
4	0xbfcc8c964712bad4	-0.22304037542695332
5	0x3fbe61580d617184	0.11867285086322538
6	0x3fca0181ee9aeed5	0.2031710066856848
7	0xbfc7b9d8f5aec006	-0.18535911556455192
8	0x3fcd36c12d7ce991	0.2282334777936055
9	0x3fd7077807e9cadc	0.3598308636930321
10	0xbfaae4dfaf752881	-0.052527418296976165
11	0xbfd6444a4ab1e3df	-0.34791810316488453
12	0xbfdb0e0fc6973745	-0.4227332534181765
13	0x3fc437e74ed32462	0.15795604084840692
14	0xbfb716b341c448fc	-0.09019012790330189
15	0x3fc15afbdd9462c0	0.13558910674398383
16	0xbfd725537dac39b2	-0.3616532065651895
17	0x3fc27e409e384b2f	0.14447791791516226
18	0x3fd752715ac79b89	0.36440690865713826
19	0x3fe21c8cdeb30523	0.565985140761914
20	0xbf82e4e4e82f1b25	-0.00922564347810135
21	0x3fdeb17746cd39e6	0.47958166040635175
22	0xbfe1e0bff5279a33	-0.5586852825334233
23	0xbfd11414530dbcb3	-0.266850548846331
24	0x3fe56aa4802df2cc	0.6692678931718432
25	0x3fcc82b14ce0a418	0.2227384209993779
26	0x3de43e30e4d4dc55	1.472867265787099e-10
27	0x3fc3c5dcbd4f11b8	0.15447577708813554
28	0xbfc20f9800614474	-0.14110088366081508

weight f8 [50, 29]
0	0x3f666efdb1ce7249	0.0027384715053371572
1	0x3fc22a437197d62c	0.14191477819956455
2	0xbf96628630ae8110	-0.0218602149212766
3	0x3fc2a8837177186c	0.14576762237828988
4	0xbf9d671e66d95c88	-0.028713679339798875
5	0x3fd88251c5767b2f	0.38295406611898647
6	0xbfd5e7ae1826a5fc	-0.34226562841885744
7	0xbfda5a39fde52f0c	-0.4117569903798859
8	0xbfb7ea5590038415	-0.09341940656624133
9	0xbfcb5765fd1211fb	-0.21360468728029489
10	0xbfb1f80d44307a07	-0.07019122042445512
11	0xbfc8c92acc2e135b	-0.19363913507199979
12	0xbfb34162d2e0bdd6	-0.0752164616430869
13	0x3fa5665bce6e91c0	0.04179655928536219
14	0xbfb3bc336466cd84	-0.07709046555719651
15	0x3fd7bcc6ed5cd42f	0.37089703731482165
16	0x3fc0ad109df16fbc	0.1302815219122503
17	0xbfd10a0a79b7895f	-0.2662378491060248
18	0x3fcebc0d5bf49cea	0.24011389722838966
19	0x3fc55705d73ac003	0.16671822556736524
20	0xbfae49e0aa220815	-0.05915739132707657
21	0x3fd322c23177b6eb	0.29899649458717076
22	0xbfc4c1023f5b36e4	-0.16214016049928326
23	0xbf985f5671864d49	-0.023801184348099445
24	0x3fbdca4a41d36650	0.11636795146059709
25	0xbfbff8a306a7a5ae	-0.12488764679405648
26	0xbe11d260e699da18	-1.0373647725581973e-09
27	0x3fbbf461d2ba775f	0.10919772524581849
28	0x3fc2e3deb71783fd	0.14757903995544544
29	0x3facca9fc729044f	0.05623339944987348
30	0xbfb651353ac2b1f5	-0.08717663464148713
31	0xbf895576af417770	-0.012370040152912515
32	0xbfa62feeeb2970fb	-0.043334451872142986
33	0x3fb9462735392ea0	0.0987267022075522
34	0xbfcfe86bb3c09791	-0.24928041722267527
35	0x3fce4e10ba978587	0.23675736533099842
36	0x3fd103ff06c64186	0.2658689085156073
37	0x3f80b3a867edc24d	0.008155170127538325
38	0x3fcf17fccd32bb11	0.24291954059068435
39	0xbf6ee674b159a9d8	-0.003771999278616916
40	0x3fc59f16115c6856	0.16891742561057538
41	0x3fc4139f8341bb35	0.1568488493826067
42	0xbf9fcb735e3b2244	-0.031049540163424774
43	0x3f808dd1ac70a131	0.008082998347234667
44	0xbfd1f4a07b13c119	-0.2805558397221986
45	0xbfc23eb4ef4b6cdf	-0.1425386589461146
46	0x3fcfe3b9954b5513	0.2491371134735024
47	0xbfd11aebff0dbcaf	-0.2672681799658205
48	0xbfbcca2771ab1a71	-0.1124596264372515
49	0xbfa80fd361499f0e	-0.046995740533757865
50	0xbfd14d4b32c6f8d5	-0.27034263571466727
51	0x3fc2c5bdd23b65d9	0.14665959134326448
52	0x3f59af8ba17ed3d3	0.0015677321989475592
53	0xbfc30ab7ff9fd819	-0.14876461011562084
54	0x3fbf65cb6eedc30c	0.1226470132658159
55	0xbe185fbfebf2c710	-1.4187548217787711e-09
56	0xbfb5c926c56e6b32	-0.08510057754612602
57	0xbf92ad0a26f1f975	-0.018238218905474796
58	0xbfbd1cb474ed4387	-0.11371925215395438
59	0x3fa34f074f2b33f3	0.037712315000682305
60	0x3fa25c0c83755a74	0.03585852722851693
61	0xbfb19b881571e772	-0.06877947352941563
62	0xbfc2579bb5e14e4a	-0.14329859143127727
63	0x3fbe7e3a978ae5c0	0.11911359977502567
64	0xbfba2fe7b2d8d6f5	-0.10229347339994972
65	0xbfbbab452e78aef6	-0.10808212647014756
66	0x3fa53570a3d7b0a4	0.04142333984404559
67	0xbfd02dbdd6817fe6	-0.252791842916848
68	0x3fb10037b809a017	0.06640957110505528
69	0xbfbf750349499354	-0.12287922419780034
70	0xbfca1706d31634cb	-0.2038277178475368
71	0x3f963941c1965fdd	0.021702792587887976
72	0x3f9e42c624876a27	0.029551597575713153
73	0x3fc23026edd23169	0.14209448444706688
74	0x3fbe4a572706d6d7	0.1183218450813358
75	0xbfc8ad022a459535	-0.19277979911854862
76	0x3fd0362e7f28d15d	0.25330698411860003
77	0x3fac77c45ef0df1a	0.05560125025698266
78	0x3fc35e64a608a87a	0.15131815058822778
79	0x3fcc0a0682094ffe	0.21905595158989394
80	0xbfb7fab8b7c6cf21	-0.09366945730908728
81	0x3f967cbb51639c86	0.021960188715550298
82	0x3fc61dc9eb8285f0	0.17278408050064753
83	0xbfbdd44b51ae4b2d	-0.11652060264740945
84	0x3e122a6abc419791	1.0573823908684824e-09
85	0x3fac5d69d84ae2e1	0.055400188115020794
86	0xbfb494a60d98e05e	-0.08039319831812139
87	0x3fc3b15434b1afa5	0.15384914944604336
88	0xbf50a120242bca38	-0.0010149778251472685
89	0xbfa5983f28b7579f	-0.04217717525504771
90	0x3fc530d44f7cd910	0.16555265313372347
91	0x3fc39363e7cf64cb	0.15293549364904488
92	0xbf9e4911be8a8b08	-0.029575612311087546
93	0xbf9efb78ae555d9b	-0.030256162300558036
94	0xbf9bfc07ccc83f88	-0.027328607438959845
95	0xbfa12d26f6e84fee	-0.03354760898596952
96	0x3fcf33d521fb823b	0.24376930388736348
97	0xbfba103c2e611da8	-0.10181022770222248
98	0x3fac5c748e2c0a34	0.05539287791727468
99	0x3fc9be0e934f4c98	0.20111257737025734
100	0xbf965fb7abf42890	-0.02184950816175807
101	0xbf917601217c4443	-0.01705171362761272
102	0x3f716fef407deb86	0.004257139756982725
103	0xbfb0b9017f0902e2	-0.06532296515889471
104	0x3fba878a2cf4781e	0.10363067243130827
105	0xbfc8b4574cca3271	-0.19300357102874302
106	0xbf8b9499442519bf	-0.013467023269765897
107	0xbfcd7937d5910889	-0.2302617829137186
108	0xbfc3fea32f7b4e16	-0.1562084180683178
109	0x3f857de7f9a24f59	0.01049405317852574
110	0xbfa6c19780772022	-0.044445738250545
111	0xbfc6423804650010	-0.17389583792282837
112	0x3fbc0937b04d00a3	0.10951564840525178
113	0x3df642e18efd4a94	3.2394388472854337e-10
114	0xbf9aaf1aa917cb7f	-0.026058594294180445
115	0x3fc029320d08f902	0.1262571872375205
116	0xbfc41c52ea19228b	-0.15711437635970457
117	0xbf91867965fb9774	-0.017114540910277268
118	0x3fa08d5d0cd1c685	0.032328517737267005
119	0xbfcc5f7f04ef8395	-0.2216643117999665
120	0xbfc06c32199a519c	-0.12830187082421396
121	0x3f85892ea5fb66b8	0.010515560570115809
122	0x3fc14badca9534e2	0.1351220359014525
123	0x3fba7705216996f7	0.1033786017011059
124	0xbf96ec6c35afe535	-0.022386256005096434
125	0xbfcc427d2c05f37a	-0.22077908181736544
126	0x3fbaa13a99a6a4b4	0.10402265788310922
127	0x3f97cbb6f7aa514d	0.023238047472277135
128	0xbfc2d82d5bc85fda	-0.14722220403268588
129	0x3f9f2d2f5d4c1d6e	0.03044580466214824
130	0xbfa52cf6c6c20338	-0.0413586728691428
131	0xbfc092e8e6e37280	-0.12948333047724603
132	0x3f606fa5d62ef08b	0.0020063628193992037
133	0xbf8f1577fc8a7594	-0.01517766704028637
134	0x3fb946efeec21d80	0.09873866633471629
135	0xbf92d698bbbed8be	-0.01839674611957131
136	0x3fd0c18081fd7c94	0.2618104237971661
137	0x3fb82f5ca7ae421a	0.09447268575446124
138	0x3fb4910f5c4e1a8f	0.08033843997518829
139	0x3fae983d89fdee30	0.059755251974788925
140	0x3fc3296c0d45e1d4	0.1497016014871081
141	0xbfbad7c2cacbf3f3	-0.10485475016680805
142	0xbe1e357e70f5543a	-1.7583929345862824e-09
143	0xbf51f2edfb533802	-0.0010955165901580526
144	0xbfbf72baa68e38dd	-0.12284437719629034
145	0x3fbdc8a2c7e27a0a	0.11634271030423107
146	0x3f93bfdcd970a1d9	0.01928658558986904
147	0xbf84a0da0a68db6d	-0.01007242531077931
148	0x3fcd08857881e807	0.22682255157616302
149	0x3fb55d3dec4ff7c7	0.08345400828690606
150	0xbfaf8368ce432cac	-0.06154944913722579
151	0xbfc95047248d39f3	-0.1977623871302537
152	0xbfbc5883569b1159	-0.11072560181043424
153	0x3fb95833eba78bf3	0.09900211814196762
154	0x3fc9d7cd3c6f75a1	0.20189824534365378
155	0xbfb3154d2ccd61e8	-0.07454378455930277
156	0xbfba1b623288d44b	-0.10198034032585317
157	0x3faca4dddea89a2f	0.055945332937245566
158	0xbfaa9f06ae120974	-0.05199452280887132
159	0x3fc007cdf2937a25	0.12523817390952377
160	0x3fc9b361ac3df6dd	0.20078678999191527
161	0x3fa79564471fcdfb	0.04606164329734593
162	0xbfaacecbb6997fee	-0.05235897640227437
163	0x3f8e169dddce0b59	0.014691575366446651
164	0x3fac0a1b5a40fbe3	0.0547646091149472
165	0xbfce70ca372a9414	-0.23781707471530977
166	0xbfa4239081117d79	-0.03933383536854768
167	0xbfc33de140929d20	-0.1503259244247852
168	0xbfb0d114e1d3fbc6	-0.06569033158665069
169	0xbfb96b7ff40800d4	-0.09929656703752993
170	0x3fbe2c6e164e87c0	0.11786544842337232
171	0x3e24569961af65c2	2.3676871691382277e-09
172	0x3f97851abae80584	0.022968690545899687
173	0x3fb723d800287147	0.09039068225724121
174	0xbfa1feb319f5c16d	-0.03514632884878464
175	0xbf8d0d46eca1098f	-0.01418548020968016
176	0xbf8e42af129da2ee	-0.014775626903160224
177	0xbfc7b31028d5636a	-0.18515207284761043
178	0xbfa07a743fccf3c9	-0.03218425062957626
179	0x3fc4d0ec1c2fd466	0.1626258027678517
180	0x3fcaed91c23a12c5	0.21037504180653435
181	0x3fb0eb063ffce193	0.06608618795588077
182	0xbfc565c1366d418a	-0.16716780812795334
183	0xbfc804ff3a9d916f	-0.18765249597630482
184	0x3f96430ec0b0db3b	0.021740179549136967
185	0x3fc552575d6654be	0.1665753561070797
186	0x3fa919d818ef4e31	0.04902530006770823
187	0x3fb345c84dcf8da1	0.07528354549099571
188	0xbfcb3b53657703dd	-0.21274797872868492
189	0xbfca2a02ba836218	-0.20440706355181315
190	0xbfaef6502406b742	-0.06047296943448412
191	0x3fb38460689b4b6a	0.07623865655777498
192	0xbfbec9e78568c4a8	-0.12026831633626733
193	0xbfb82391954d12bf	-0.09429273505254353
194	0x3fc503fac47352d0	0.1641839465361472
195	0xbf711c6bbe88d9d5	-0.004177494884564277
196	0x3fc79cca288ec253	0.184472341350118
197	0x3fafb4bdb4c21d24	0.061925819697586953
198	0x3fa0253024018295	0.03153372230076915
199	0xbfc28a4f2fde1bc3	-0.14484586560521792
200	0xbe200d334bcacb1a	-1.8686479849050585e-09
201	0xbfa56ac55d84b0b3	-0.04183022276478834
202	0xbfac925079ad154c	-0.05580378995231658
203	0xbfb1548c943d8b46	-0.06769636744642779
204	0x3f8e4533512b1474	0.01478042689758239
205	0x3fa2581cb52a7dd6	0.035828492274273024
206	0x3fbf2180d9635ca7	0.12160497004821257
207	0xbf81050123ef8306	-0.008310326489608066
208	0xbfd1cb955db66bd0	-0.2780507483636798
209	0xbfc6d63a865c0c87	-0.17841273842359248
210	0xbf7c8ab9ebca2e8a	-0.006968237165562061
211	0x3fca5bfd5776c6f7	0.20593230028821782
212	0x3fc5d04cce7def01	0.17041931231130295
213	0x3fa3eead2c3d4764	0.038930331850351135
214	0xbfcababf9026c9ce	-0.20882410563133508
215	0xbfc23c240c10b962	-0.14246035184028033
216	0xbfb579a2a32d68f7	-0.0838872574217112
217	0x3fd22450c438c29e	0.28346652185704524
218	0x3fc1875d067061b7	0.13694346250919207
219	0x3fa15f88da2e293a	0.033931995995845246
220	0xbfac046aee1c4524	-0.054721204344000435
221	0x3fc910ff48c2b3b6	0.195831213500609
222	0x3fbe1acede7fca40	0.11759655887707599
223	0xbfb0f9c292e40f2c	-0.06631103597834159
224	0x3fa60bbe77072e96	0.043058349637786694
225	0xbfc74e0f0236b088	-0.1820696602638956
226	0xbfae2b8dadd7ce06	-0.05892603633028774
227	0x3faa140020b8db4b	0.050933841699978354
228	0x3fc60662a6a16899	0.17206986557250017
229	0x3e164abfe9b9ad6c	1.297564645054783e-09
230	0x3fae38181333294e	0.059021713584643906
231	0x3fa2e5c301afd650	0.036909192996898654
232	0x3fc5a575d0a6f404	0.16911194503873628
233	0xbf9725ab83b9e334	-0.02260463706486178
234	0xbfa63e00fb9ca7da	-0.04344180175242203
235	0xbfacf95760d89e71	-0.05658982331470675
236	0x3f9f512c07357629	0.030583084049217533
237	0x3fd76dd0322fa0e5	0.3660774698351033
238	0x3fbe09d290b557c0	0.11733737976950831
239	0xbf9f05c4a16ac358	-0.030295441009630636
240	0xbfc90b7bcd56b49d	-0.19566295172027007
241	0xbfc207f6d6e4a5ce	-0.14086804859952767
242	0xbfb646fcbddd0d1a	-0.08702067981089492
243	0x3fcbcffce48b2161	0.217284785836692
244	0x3fc92c1910672c98	0.19665826130799213
245	0x3fb0f00c1384675b	0.06616282917494003
246	0xbfd47efdcba58f35	-0.32025093924879694
247	0xbf9cdd5a8ddf8104	-0.02818814745830968
248	0x3f984041d3f73023	0.023682621538498105
249	0xbf813f074887f28c	-0.008420998478862594
250	0xbfcc205211a25f2d	-0.2197363458733376
251	0xbfc02638dd8b92a0	-0.1261664468539907
252	0xbfa0dbcebdda46d3	-0.03292699878251217
253	0xbfb46743780718bc	-0.07970067673076903
254	0x3fc37bad68c4eaa6	0.15221183410343037
255	0x3faf0f7e3c3065cf	0.06066507801751763

bias f8 [50]
0	0x3fce56bf1bcc5936	0.23702229363761668
1	0xbfce6026dad3c1f2	-0.2373093193523484
2	0x3fc9c9bebf1a742e	0.20146927195756476
3	0xbfc230b822b1d68e	-0.14211179441524674
4	0x3fad49ce4961e0c7	0.057203718622021386
5	0x3fa14f8792d0d8e8	0.03380988757310083
6	0xbfc0199f355c8882	-0.12578191857852877
7	0x3fc85a53a1040b6e	0.19025655138110714
8	0xbfcce732d0daedd8	-0.22580561826712997
9	0x3fcc6a6afe74746f	0.22199761795573944
10	0xbfc8ae7ab1f6be37	-0.192824684997946
11	0x3fc183d2b27538cf	0.13683541978611521
12	0xbfb4027879ce831f	-0.07816269849582767
13	0x3f90c81944bd0ef3	0.01638831598326269
14	0x3f9da0a8522bc990	0.028933172240564853
15	0xbfb152e11cb45ded	-0.06767088843150022
16	0x3fb86958780fef7f	0.09535744601447325
17	0xbfbfa988027e9273	-0.12368059216402986
18	0x3fc24053c79624dd	0.14258811231073923
19	0xbfc46b0c8b2ba39b	-0.15951687617714758
20	0x3fc4a2e050f3e914	0.1612205882336829
21	0xbfc328f3599dd70b	-0.14968721271332472
22	0x3fbc9a986670f31e	0.11173393727308364
23	0xbfabed03a2661703	-0.054542649816580656
24	0xbf95fe245d94568a	-0.02147728749431236
25	0x3fb8ed220e5e3b14	0.09736836291106626
26	0xbfc503ed5d5fd036	-0.16418234881678168
27	0x3fc9e3585d2979a3	0.20225052403379803
28	0xbfcaf6ee618e4d30	-0.2106607414576529
29	0x3fc7c042ada827da	0.18555482367838644
30	0xbfc21280e27c514e	-0.14118968066089582
31	0x3fb47f220cc94995	0.08006489574589744
32	0xbf993ce40d3534fd	-0.024646342569487157
33	0xbf98fef6353ab482	-0.02441010188947646
34	0x3fabd0bc61696b0d	0.054326903239333736
35	0xbfb34f359a0a640b	-0.07542738924748009
36	0x3fb5ed7fa7f3e1f2	0.0856551919022264
37	0xbfb8cfdac133235d	-0.09692160813132263
38	0x3fb9f27e260e857c	0.10135639599913832
39	0xbfbad1ad9c75abcf	-0.10476193494621032
40	0x3fb92cecb2d8c99e	0.0983417450559387
41	0xbfb59f96c1b1e56f	-0.08446638325576371
42	0x3faaff940d803571	0.052731157920883905
43	0xbf86703f61eb4d11	-0.010956282783274792
44	0xbfa44f18f956efd1	-0.03966596645065546
45	0x3fb51e3aaac638d4	0.08249251050276324
46	0xbfbe251f8baaf224	-0.11775395545823436
47	0x3fc0fe8a92776655	0.1327679839294428
48	0xbfc144b3888beaa3	-0.13490909735977138
49	0x3fbd60812c1a938b	0.11475379301789539
