Trained_models/6/predictor4_100_3.pt (torch, 92695 bytes, 16 tensors)

weight f8 [51, 100]
0	0x3fd0d91e0cad2145	0.26325179326933706
1	0xbfafa808923f5cba	-0.06182886872527989
2	0x3f9089cfc7135cd3	0.016150709653484818
3	0x3fa51b9db0441886	0.04122631813702164
4	0x3fb257be3f43f102	0.07165135426106775
5	0xbfc32f2e9eecd3e9	-0.14987738380446494
6	0x3fc9ae8c5c4a8eed	0.2006392908707463
7	0xbfbe2592f735f1a1	-0.11776083503168035
8	0xbf94eadf5225b574	-0.02042721690070466
9	0x3fbacd698408e892	0.10469684098726109
10	0xbfb2e560462eb55a	-0.07381250108183704
11	0x3faf8ce43afde4fc	0.0616217920314259
12	0x3fac07af7b106501	0.05474613549467656
13	0xbfb8b3421963ecf5	-0.09648526306039058
14	0x3fb79038f6c29334	0.0920444109384107
15	0x3f77c48a6a646a0a	0.005802670179287714
16	0xbfc3ac2da2e93c13	-0.1536919637169097
17	0x3fc94b927d9415ca	0.19761878139267558
18	0xbfc0386e0bd3dc6d	-0.12672210290449773
19	0x3fb27541fd469a56	0.07210171159258869
20	0xbf7786b4ba9c1c39	-0.005743700001182233
21	0xbf7a2d8d008b80aa	-0.006391096868100169
22	0xbfb677787bb11559	-0.08776047725503612
23	0x3fc17789cda85cf3	0.13646051923635802
24	0xbfacffa62d22d37f	-0.05663794804551169
25	0x3fa0846e2282678a	0.03226036235100967
26	0x3fb4d0e99da0a751	0.0813127527077573
27	0xbfc1a7de412d8736	-0.1379354303599542
28	0x3fcaf40a0430b301	0.21057248310662405
29	0xbfb641094ba5be78	-0.08692987534390706
30	0x3f9789fea75edd22	0.022987345662582766
31	0x3fb1fa95df3c68c3	0.07022988033387194
32	0x3f93351e0faa855d	0.01875731440180083
33	0xbfc72c2a7bcd8d44	-0.18103533787789605
34	0x3fd57b9ae929b42c	0.33566925782980905
35	0xbfd4d60daeae4d87	-0.32556478556326635
36	0x3fc51034d07d1568	0.16455707721813018
37	0xbf7ea1a80fd0d2ae	-0.007478386393860488
38	0xbfb749fd23c30eae	-0.09097272990316682
39	0x3fb9c461057980ef	0.10065275558145335
40	0xbf6fef3d0fdc3d93	-0.0038982575050636264
41	0xbfa95497f7d2079b	-0.04947352314140049
42	0x3fbfa5be0664ac9a	0.12362277656636636
43	0xbf832f318d573929	-0.00936735832774767
44	0xbfb2f6f6704568db	-0.07408085099214949
45	0x3fc9306adcd5539b	0.19679008276821439
46	0xbfcf8bd55459d4bc	-0.24645487421699908
47	0x3fcd038eec88fc08	0.22667109059872836
48	0xbfc123400116e6bd	-0.1338882451362248
49	0x3fa81aa07864b243	0.04707814664502454
50	0xbf967852e2331a28	-0.02194337373364355
51	0x3f96e67629f00b6c	0.022363516149208548
52	0xbfb8f7b295b3f9de	-0.09752956538066068
53	0x3fbbf1c8140ca9dd	0.10915804376114786
54	0xbfb6010cb3d70c8a	-0.08595351591707093
55	0x3f61ce85c3a4f3e6	0.0021736729223946647
56	0x3fb2b4ae243224c3	0.07306946166694943
57	0xbfa56412fc9c8f08	-0.04177913030278374
58	0x3faa70a2321666ff	0.0516405759946803
59	0xbfb1922c629f57cd	-0.06863667876981978
60	0x3fbf2b47827cefa4	0.12175414024107895
61	0xbfcb3f3ce7b66efd	-0.2128673678788501
62	0x3fc87b4e8323706e	0.1912630215000521
63	0xbfc07fb47cbf5832	-0.1288972481840474
64	0x3fbb2269b3d9f9a6	0.10599384919075891
65	0xbfb670d3692f4fb8	-0.08765908544529466
66	0x3fbbcb08406688b1	0.10856677601126098
67	0xbfb29b3f311b0d22	-0.0726813788306129
68	0xbf8163af5a7a72af	-0.008490915249518364
69	0x3f92a465b0a3b37d	0.018205250650612726
70	0x3f9fcd35bb544f85	0.031056251104999006
71	0xbf99b13b3e31ced3	-0.025090146704726046
72	0xbf4c368b7d909d20	-0.000860994444455896
73	0x3fa5b6e615a2e196	0.04241103185762822
74	0xbfb5ddad684bde0b	-0.08541377826974654
75	0x3fc07fe7e0c2561e	0.12890337442938543
76	0xbfc613f3ccbf4cd1	-0.17248389718461124
77	0x3fc11f37027fa33e	0.13376510259629443
78	0xbfbd75a721c46d5a	-0.11507649015805069
79	0x3fba8dc054e51950	0.10372545311574766
80	0xbf986a267fdff33a	-0.02384243159757491
81	0x3f81d67c58830733	0.008709880305449147
82	0xbfb3476571d89f72	-0.07530817059943987
83	0x3fc9b33feffc83c4	0.20078276842198595
84	0xbfc4dc07bd3b7ee3	-0.16296478977073212
85	0x3faa9de5ccd2ca1e	0.05198591351781466
86	0x3fb07bc218e3f8ef	0.06438840015104906
87	0xbfbe3631788ee1e7	-0.11801442330659705
88	0x3fbcf4b74f41d266	0.11310907063472939
89	0xbfb6ecde033391be	-0.08955180719528408
90	0x3f9e77976a4340a1	0.02975308023525314
91	0x3f81ae2bad14b264	0.00863298532439067
92	0xbf4860bb6556a704	-0.0007439532297912337
93	0xbfb8ccb434673b3e	-0.09687353400589147
94	0x3fce18aef0c57a1f	0.23512827640929942
95	0xbfbdd120f94ce8ed	-0.1164723023074747
96	0xbf8406fe0ca73145	-0.009778961907522041
97	0x3fb105685cef7f8e	0.06648876446661076
98	0x3f9230e2dbb06e46	0.01776461091877326
99	0xbfb9a6cbf5fd3870	-0.10020136600107477
100	0xbfac61ba7001cebd	-0.055433107540833394
101	0xbfb76f834026b3a3	-0.09154529873076327
102	0x3fc848b287cadd62	0.1897185481118227
103	0xbfc115da15409719	-0.13347936666212304
104	0x3fa24b1d2929e3a3	0.035729323649270193
105	0xbf7c8bc38d838ccd	-0.006969226720886468
106	0x3fb4f2fcaefcf962	0.08183268806621904
107	0xbfba6c0736b50b5d	-0.1032108791887771
108	0x3fbe467698a61730	0.11826268412377483
109	0xbfc42ae5c427d3b4	-0.15755912855061427
110	0x3fc2aaf3a9e5da35	0.14584203525346742
111	0xbfb7c3c731e88d83	-0.09283108681170486
112	0x3f8ba3abad64b109	0.013495770672840484
113	0x3f9a26b62ecdb5cf	0.025538298231756514
114	0x3fa9bcd62dd75e2e	0.050268834205493426
115	0xbfca9c46954ebaf2	-0.20789415636450986
116	0x3fd2c6b2f2b3f000	0.29337762547925195
117	0xbfd04b11ac9ff501	-0.2545818506039979
118	0x3fbcafa7590c1604	0.11205526279453443
119	0x3f859bc0de7168b0	0.010550982273504012
120	0xbfa607f9268dbb21	-0.0430295810282273
121	0xbfa2875b17896e8d	-0.0361889330131052
122	0x3fc2c41ecc1f31b8	0.14661011664283108
123	0xbfd0ef5c4d6c455b	-0.2646094089587529
124	0x3fd402f6dcd4e22c	0.312680926948391
125	0xbfc873467af2fd34	-0.19101792338731516
126	0x3fb5e328d752c09e	0.08549742943682978
127	0xbf6a8477953e2012	-0.003236993370538962
128	0x3f96ade55c9e357a	0.022147735383943858
129	0xbfb7ed50faae8b5e	-0.09346490974580265
130	0x3fc5eea123ac936c	0.1713448929014264
131	0xbfc793a0439d9c0c	-0.1841926889566995
132	0x3fc7caff18d85895	0.18588246071948747
133	0xbfb5a85f1d74d79d	-0.08460039586210973
134	0x3fa72866d508dae2	0.04523011541862389
135	0xbf9b3228c3fcde1f	-0.02655852981771833
136	0x3faca3b9493e50cd	0.055936613264891834
137	0xbfa0d4d5bc42ed46	-0.03287380145180889
138	0x3fbc5e295cfee9a8	0.11081179161457178
139	0xbfba10da30c67ae5	-0.10181964579394849
140	0x3fa07f801179d8a0	0.03222274983720408
141	0x3fc17e414ed87e6e	0.13666550016295126
142	0xbfbcc794b8bbe61a	-0.11242036352259568
143	0xbf750ef72e189933	-0.005141225382919767
144	0x3fc4deb6e20c8368	0.16304670369666074
145	0xbfc324e0a269333c	-0.14956291132184585
146	0x3fc2c2df43fb66c0	0.1465720254844225
147	0xbfab81c39bcad328	-0.05372439648400579
148	0xbfb043ad4532c4dc	-0.06353266658222217
149	0x3fc13777bfdf8220	0.13450524205019665
150	0x3fa3e03564346a6d	0.03881995056345464
151	0xbfcc3e7b39911018	-0.22065677939292594
152	0x3fd326f740e77f22	0.29925328577336263
153	0xbfc12ddf2191ea2f	-0.13421239031943474
154	0xbf9449e4fa64a895	-0.01981313493994515
155	0x3fc0a82c54383749	0.1301322375515446
156	0xbfb6127e64d65984	-0.08621969186638095
157	0xbfa0ffb8a1a9ad14	-0.03320099805281465
158	0x3fbcd092d43e96c2	0.11255757982015793
159	0xbfbcc0d1d7a9d9f1	-0.11231719508382533
160	0x3fa6d868b20db6a9	0.04461981938844179
161	0x3fbeda426482af43	0.12051787332410151
162	0xbfcbfec531b71d79	-0.21871247222427906
163	0x3fcb7ab117d1c763	0.2146817556672956
164	0xbfba50fd8196c3ab	-0.10279831327240056
165	0xbfacc23ce5c2cc2b	-0.05616941742609812
166	0x3fc29725177c2395	0.1452375759766055
167	0xbfb33907a1bb79a5	-0.07508895586531723
168	0xbfc2da0b4377eeb2	-0.14727917475089708
169	0x3fc48b2055d10f49	0.16049579801812744
170	0xbf8220428e0a7cd3	-0.008850593528505623
171	0xbfc4531bbd3e7bcb	-0.15878626575883312
172	0x3fd189971573cd97	0.2740228375907576
173	0xbfce2612736e7609	-0.23553686748793748
174	0x3fc416d1fc92147b	0.1569464190726285
175	0x3f5917f3d024e6e9	0.0015315896021789682
176	0xbfb7fac9fb0be141	-0.09367048625052111
177	0x3fabef9b08a4b46f	0.0545624206591605
178	0x3fb33b59e766d453	0.07512437724547398
179	0xbfc45fc3d31dfe76	-0.15917251404242777
180	0x3fc4d9056deed87a	0.1628729616911107
181	0xbf95e42d020d33d1	-0.021378234148233425
182	0xbfb72e09d11d4536	-0.09054623942690374
183	0x3fc7a7e77a71bb10	0.18481152991031324
184	0xbfc72c174f5e69aa	-0.18103305221013716
185	0x3fad1ae661e30ffe	0.056845855187503944
186	0x3faf4e4fe2fd9f62	0.06114434858210306
187	0xbfbcec1369964b48	-0.11297723129090997
188	0x3fbd4fece3548edb	0.11450081396156568
189	0xbfa59265258ce3ac	-0.04213253100755962
190	0x3f6f635c9885e8b9	0.0038315590392673207
191	0xbf61bcbe0083f107	-0.0021651946045705447
192	0x3fae39f87f32e591	0.05903603127212443
193	0xbfc14bc712ff25ed	-0.13512504985401055
194	0x3fba49632ca93860	0.10268230285984847
195	0xbfb07193daf5179c	-0.06423305602683488
196	0x3f9304b3aa8f8956	0.01857262352485497
197	0xbf852ccaf9bae07a	-0.010339341875223552
198	0x3fad9e4928075161	0.057848249565412464
199	0xbfc0b2652e571d31	-0.13044419062337334
200	0xbfb07d729013375f	-0.0644141771074067
201	0x3fbe6c0016991cfa	0.1188354544802798
202	0xbfc23e904fad9571	-0.14253429308443402
203	0x3fc2a89257f8ae30	0.14576939864615346
204	0xbfa9b0e3315af9f5	-0.05017766931040405
205	0x3f6197eca8885f76	0.0021476385338807203
206	0x3fb53d0984153c16	0.0829626033275733
207	0x3fb3f9f111a56d55	0.07803255730452936
208	0xbfcac5e8786f2358	-0.20916467552731421
209	0x3fd45578b1316b33	0.31771676353462225
210	0xbfc8084b4a235157	-0.18775311584489415
211	0xbf9065e7c54ccf02	-0.016013738076437363
212	0x3fc97065438ba731	0.19874254034157837
213	0xbfc3f08092afda3a	-0.15577704584548419
214	0xbf9ab780830b3f9c	-0.026090629576003374
215	0x3fc3b4ed91f071eb	0.1539589846223771
216	0xbfc736a9ee5a39e7	-0.18135570658019093
217	0x3fc448b909e74f5f	0.158469323955269
218	0x3f9a3c1c2df8d96d	0.025619926744377453
219	0xbfbc5c0d8e3d8d92	-0.11077961657206561
220	0x3fb8323c57ab96d1	0.09451653614413692
221	0x3f9dcc955e82d9e8	0.029100736516477627
222	0xbfbbe8a57b94e98e	-0.10901865260249208
223	0x3fc5e57881e5914c	0.17106539099325813
224	0xbfb41ad4a10c8b09	-0.0785344021974589
225	0xbf90bb37b5b0a9af	-0.016339178528292638
226	0x3fb43596a98bc78a	0.07894269599253625
227	0xbfc037b634627e15	-0.126700187281117
228	0x3faa27973a98b310	0.051083303358927634
229	0x3fafd5f28be9b8bf	0.062179164485188114
230	0xbfc4fab28cc18e01	-0.16390067932944422
231	0x3fb54eb99ce0048f	0.08323249893148187
232	0x3fb7f785b1fea3f8	0.09362063975881074
233	0xbfce7d2ad70ae210	-0.23819480419275907
234	0x3fce4764bfb7b075	0.23655375825126482
235	0xbfc3c194b2a445dc	-0.1543451187394983
236	0x3fa09e05b405f1e9	0.03245561430501082
237	0x3fa7efeca590368b	0.046752352915160854
238	0xbfa4285f9e5be2c1	-0.039370525437282484
239	0xbfb02a5ceabb88b1	-0.06314640742087609
240	0x3fc84b2cf96e1322	0.18979417971800056
241	0xbfd01822b8174a20	-0.2514731214297701
242	0x3fd21ed9d22f0461	0.28313298726795294
243	0xbfcf1822470aea49	-0.24292400807265072
244	0x3fb7532d0e600b0c	0.09111291504818214
245	0x3f9d3fb5ea3cb5c9	0.028563349172306993
246	0x3f956d0d63fcb86d	0.020923814037069045
247	0xbfc8d75d1a2aaa3c	-0.19407237794560384
248	0x3fd5ad5c936a4e03	0.3387061538316802
249	0xbfd2d71b34d18d03	-0.2943790450865011
250	0x3fc5f5bc8e0fe955	0.1715617841399061
251	0xbf929bd16fffce82	-0.018172523938075454
252	0xbf8a2dceed7a464a	-0.012782684919588356
253	0x3f8f8da4c371fd65	0.01540688249065054
254	0x3fb679d5c2ce9aec	0.08779655462295083
255	0xbfc6855985612395	-0.17594450962704103

bias f8 [51]
0	0x3fbe5d8a4ea7c154	0.11861481113715416
1	0xbf9fc746abe0b574	-0.031033615341745827
2	0xbfb56f5178bb761f	-0.0837298316723367
3	0xbfa2217e2f1e3e3b	-0.03541178059742519
4	0xbfbf5cb216a1d079	-0.12250817348996347
5	0xbfa336313dfb0d61	-0.03752282983398448
6	0xbf97d53f25a6762f	-0.02327440898226579
7	0xbfb0901cbd89571e	-0.06469897868495564
8	0xbfefcbe42267dd59	-0.9936390563952201
9	0xbf71916b5cbd040b	-0.004289073356461347
10	0xbfac5af56f55435e	-0.0553814600376714
11	0x3fb8228ba036a54b	0.09427712117635172
12	0xbfc089cc0df97396	-0.12920523340553974
13	0xbfb1326311925983	-0.06717509440418294
14	0xbfc04efbb26922ee	-0.12741037570437846
15	0xbf9454576d057d85	-0.019852987317219756
16	0xbfab1df9b2053a1a	-0.05296306894398502
17	0x3fc79c5e4f4ce96d	0.18445948478786126
18	0xbfb58e8e94e2f678	-0.0842064965717898
19	0xbf9525024d771771	-0.02064899061021869
20	0xbfb5979a39af83c5	-0.08434451969470931
21	0xbfa872fe944cdc74	-0.04775233803086901
22	0xbfb5ecb57fefcfe4	-0.0856431424470539
23	0xbfa080fabdbc00e4	-0.03223403516858683
24	0x3fa0268340e8a45a	0.03154382865279422
25	0xbf439dfb9d15b114	-0.0005986670095530521
26	0xbfa035629140156e	-0.031657295447113806
27	0xbfa78785634ac6df	-0.045955818529717744
28	0xbfa1cc38bca3ea4d	-0.034761212375049234
29	0xbfb34c162d9afbf7	-0.07537973988927137
30	0x3fd1a8f4ec1f0b0e	0.27593730028836283
31	0xbffa642851417f3d	-1.6494525121742776
32	0x3f99578490d73dc0	0.02474791654623032
33	0xbf92b18abe1b5292	-0.018255393841928376
34	0x3f7499739ac1179b	0.005029155330765446
35	0x3f4634646e055337	0.0006776323680620426
36	0xbfa66389df463b34	-0.04372816896931511
37	0xbfa5c4ccdb952be3	-0.042517091564682884
38	0xbf7537a3d4a67b65	-0.005180015529190428
39	0xbfb482aca199a1cc	-0.0801189322024875
40	0xbf9ed705e5922daf	-0.030117122780706825
41	0xbfa249e9153574e0	-0.03572014221092856
42	0xbfadf8fb8c205d4c	-0.05854021153953201
43	0xbfaa42bd5e1a0f53	-0.05129043363288468
44	0xbfb42c43879278e6	-0.07880041179530259
45	0xbfb8d329cbf2e388	-0.09697209576815002
46	0xbfacdecdc3cc3306	-0.05638735785587383
47	0xbfa9c0407cc27e9b	-0.0502948906225786
48	0xbffc1e253cb01410	-1.7573597307794024
49	0x3fb032ab2f1916a7	0.06327314281323969
50	0xbfde4f4f50beb2ba	-0.4735906876110608

weight f8 [3, 51]
0	0x3fe02050d1a0c277	0.5039447874351727
1	0x3fdbed9e32f74886	0.43637804963248816
2	0x3fe0c4b6931cab97	0.5240128396302336
3	0xbfba18af31df81ba	-0.10193915336231543
4	0xbfe4a82d576466a3	-0.64552943295276
5	0x3fdff39bf617744a	0.4992437270391902
6	0x3fd27e0214ac5b8c	0.288940925778143
7	0xbfe750feb6ccd7af	-0.7286370821300262
8	0x3fe62a1c28a33c2b	0.6926403802589268
9	0x3fe22141a6b91ed9	0.5665596252738069
10	0xbfb97e8502248444	-0.09958678533850313
11	0x3fe026323595f281	0.5046626135441131
12	0xbfe5e422937783e4	-0.6840985183918034
13	0xbfe71da3fc7f87f5	-0.7223682338337755
14	0x3fdb527d3252a4bc	0.4269097320016717
15	0x3fe02e61b8ed41b0	0.5056618320323221
16	0xbfe5314e8fb17647	-0.6622689062603023
17	0xbfd4bb19ca106911	-0.32391972287008836
18	0xbfccc2dec02428b1	-0.22469696409127018
19	0x3fde108c18571cb9	0.46975996376972834
20	0xbfe35422af208ac7	-0.604020444913055
21	0xbf9aed419f18a252	-0.026295686088049948
22	0xbfe95bb26dfa34e9	-0.7924434803004746
23	0xbfd599df6be6ad20	-0.3375166467401005
24	0x3fdf4770b399a20d	0.48873536624026387
25	0x3fd6699a3047f194	0.35019545283264475
26	0x3fda0a52803fbb6c	0.40688002132713197
27	0x3fab85a5d0b7803e	0.05375402615368373
28	0xbfb924c8610d2724	-0.09821750993174
29	0xbfe7dc62178d1252	-0.7456522426587731
30	0x3fd2cb274b023e12	0.2936495049006861
31	0x3febee81f024d6f5	0.8728646936712879
32	0x3fdd9181ef253403	0.4620060763743938
33	0x3fdd3bd7aec198c6	0.45677749696768577
34	0x3fdffe63b04f0ea3	0.4999016973272125
35	0x3fe26a61f02846c3	0.575486153657231
36	0xbfe8524a9d9c1c74	-0.7600453451458535
37	0x3fdf360f7aabc5a2	0.48767458896244353
38	0x3fe0729ce5307cf4	0.5139908291202162
39	0xbfe7a5b154190bbb	-0.7389761583839268
40	0xbfcd8c603ab95b57	-0.2308464323748136
41	0x3fc8be62e72d4754	0.19331013000424468
42	0xbfe6fe2ccacdf83a	-0.7185272179629074
43	0xbfe1d36b81d3dd47	-0.5570580993361681
44	0xbfcffdf80bf12b7f	-0.24993801673039326
45	0xbfe1f8110e9cbfe2	-0.5615315709492246
46	0xbfe1cd7115726ef6	-0.556328336609538
47	0x3fdc2eb50a3dfa3a	0.44035078048901577
48	0x3ff1ae5dc0ce68ec	1.1050698787208217
49	0x3fd7febcb21948bc	0.37492291824777246
50	0x3fe2826463ad06b5	0.5784170100016214
51	0x3fe5eea2d15ba8a1	0.68538037195437
52	0xbfe54dc22bd1b298	-0.6657420020906839
53	0xbfe62b35cbb0ca7c	-0.6927746752101736
54	0xbfd5feb8fa38e78a	-0.3436720317437155
55	0x3fe2661d2ee2c3bc	0.5749650874841943
56	0xbfe0f6380ff85a00	-0.5300560295025321
57	0xbfe1aecc5fb33acd	-0.5525876874106302
58	0xbfd320ef740c7d0f	-0.29888521511925686
59	0xbff193471879c431	-1.098456473930366
60	0xbfdedbc9a1e791ef	-0.4821647721385309
61	0xbfdb79f224fdeb9f	-0.4293179856537623
62	0xbfd968d7fcaead08	-0.3970241515732629
63	0xbfd86d4a6d8b47a6	-0.3816705770269614
64	0xbfcecf4f4d0bb438	-0.24070159208295805
65	0xbfe8e2b2eea8f574	-0.7776732121780427
66	0xbfe6279be83d986f	-0.6923350845288619
67	0xbfcb86fc16e2df51	-0.21505690686694348
68	0xbff9ae767abb1fe2	-1.6050934595277728
69	0xbfd4a351a12fd015	-0.32246819249053377
70	0xbfdf1051feaa8ab4	-0.48537111158126867
71	0xbfda593d8cd3f45d	-0.4116968035958218
72	0xbfda36285b390573	-0.4095555201384606
73	0xbfdd044047afbef8	-0.4533844661773254
74	0xbfe14b8b5494d3ba	-0.5404717113475421
75	0xbfe192bd4869dac1	-0.549162522728544
76	0xbfe015e81eda487b	-0.5026741602507764
77	0xbfe3104e41178c62	-0.5957404395416115
78	0xbfd266bfa50e4401	-0.2875212776062313
79	0xbfd8c61ed3edfbfd	-0.38709231086971824
80	0xbfc7ffb7b7be1d68	-0.1874913832836953
81	0xc0002d919770c2cf	-2.022250350121204
82	0xbff4ce6b1d41d6f4	-1.3003951208933673
83	0xbfdd52848d3c667f	-0.4581614856011597
84	0xbfe37862c0054a61	-0.6084455252078663
85	0xbfe025933983773d	-0.5045868037520688
86	0xbfdb85f914159c52	-0.4300520607125168
87	0xbfc821ad633baf5c	-0.1885277494942511
88	0xbfdea8dd51226809	-0.4790566723182797
89	0xbfe4f84780b60f7a	-0.6553075326814757
90	0xbfe3c7d1f0d30c9c	-0.6181420997239857
91	0xbfd4727108c7e51f	-0.31948495728973286
92	0xbfd4827f374e2f83	-0.32046490097922503
93	0xbfd11f54dc35705c	-0.26753732208977055
94	0xbfd57af2791d6297	-0.33562909915557654
95	0xbfdd2192cf5863e5	-0.4551741623741335
96	0xbfd77e731be2438d	-0.36709287379294936
97	0xbfe5df9154dac781	-0.683540979129461
98	0xbfe2b04063224442	-0.5840150772293173
99	0xbfdd36ce85b1d6a3	-0.45647013717766977
100	0xbfdfc167e400cc90	-0.4961795546143515
101	0xbfea4c46eb1a334a	-0.8218111602633169
102	0x3fd7213ecca78266	0.36140413270735505
103	0x3fd9e2657b381175	0.40444314034564083
104	0x3fdb74ac5f615c48	0.4289961749504454
105	0x3fe153b176666750	0.5414664566517136
106	0x3fcddcf36ec5e05b	0.2333053866275375
107	0x3fd8d919be1f100f	0.38825076643502227
108	0x3fdb0af0d1d96698	0.4225427674588018
109	0x3fc4e13a18de42f0	0.1631233807970811
110	0x3fdd07bae329f6cf	0.4535968035123518
111	0x3fdfb528991ef2f6	0.49543204262936
112	0x3fd3870878f528df	0.3051167660929774
113	0x3fdbb0c784b3a5e4	0.4326647563853767
114	0x3fc33e62e69af967	0.15034137973811854
115	0x3fc1f9ada875156c	0.14043207860428752
116	0x3fd876d7571e91f5	0.38225348956828437
117	0x3fd7a572323cc77d	0.36947302728650994
118	0x3fc6d4ba55c6a812	0.17836693943291998
119	0xbfc267a48ed44f90	-0.1437879273804552
120	0x3fe286074a83ab75	0.578860898528872
121	0x3fdb0f6ba340fc69	0.42281619017371114
122	0x3fc3182092fc3bc5	0.1491738050176236
123	0x3fe5b1037189da3f	0.6778580873058856
124	0x3f22d649b06e9be5	0.0001437153771039749
125	0x3fd74f004a8e2cb1	0.3641968467788486
126	0x3fd805f03e982706	0.37536245453576134
127	0x3fd9472dedfa74e9	0.39496944656441585
128	0x3fdc9355cc429d74	0.446492623780123
129	0x3fe102c8708dbab2	0.5315897177041136
130	0x3fd6e75e9b19df96	0.35787167688931143
131	0x3fba91d75f33e1cd	0.10378786157878679
132	0x3fbbc84017c04945	0.10852432803975372
133	0x3fe17eb512082106	0.5467172004873937
134	0x3fd834991c8dda82	0.3782103327606948
135	0x3fd8f26a260fc4f0	0.38979581562951093
136	0x3fda688749b1e5a3	0.41262991139191224
137	0x3fe0df7035c19300	0.5272751855778495
138	0x3fb8515979701380	0.09499129500188808
139	0x3fe0a0065088fecc	0.5195342610313332
140	0x3fd9daf0fb824aad	0.40398811875744906
141	0x3fb3af957ccb286e	0.0768979482337799
142	0x3fe3d6175c15c3ff	0.619884185651358
143	0x3fdf8b24e48c62db	0.4928676826398665
144	0x3fd0afb38853da75	0.26072395623433603
145	0x3fdfecab84918eb1	0.4988201899161409
146	0x3fd057be1621fbe2	0.2553553787365087
147	0x3fd7629b06a40361	0.36539340637687273
148	0x3fc2b913295409d8	0.1462730361746043
149	0x3fdd46d8e044b8f7	0.4574491682168537
150	0x3fe6ca901fd24d14	0.7122269269479227
151	0x3fd811b6e76b392b	0.37608120536323736
152	0x3fdb3c713f5d355a	0.4255641096868509

bias f8 [3]
0	0x3fe78fbe37ae76ae	0.7362967574624315
1	0xbff0a9ae1bb5bf0a	-1.0414258081836487
2	0xbffd7c46ca01eeb1	-1.8428409472389087

weight f8 [51, 3]
0	0x3fe1449ff283cf10	0.5396270500773159
1	0x3fd1700bce8a45af	0.2724637524598518
2	0xbfd84fd888338da1	-0.37987340260425567
3	0xbf27855e1bd44f6c	-0.00017945073879188243
4	0xbf051582939dedd3	-4.0214583761656986e-05
5	0xbf18a20e9c516be0	-9.39675729382662e-05
6	0xbfa094aa98295621	-0.03238423449935746
7	0xbfe8bd8f6dd43c38	-0.7731396813486588
8	0xbf79152a75fb6781	-0.006123700964701829
9	0xbee95917cc1af721	-1.2086877521407285e-05
10	0xbed355dad5771b97	-4.609911534675813e-06
11	0xbf179fadd724ae19	-9.011744058245347e-05
12	0xbf3dbef67bb38c7d	-0.0004538871541638968
13	0x3f57456b6c63e9f7	0.0014203595215450651
14	0xbf1b9117ea579433	-0.00010515888660440967
15	0x3fc0d8a93712bffa	0.13161196889041077
16	0x3ff98d8e7ca359b1	1.5970597141909872
17	0x3f724a8f73e98722	0.004465637552671516
18	0xbf421b67a90551f8	-0.0005525833276274752
19	0x3f606e7b4ae8947b	0.002005806737786884
20	0xbf5dc74fc0213971	-0.0018175391019386834
21	0x3fbd84462459fd55	0.1152995909451325
22	0x3ff658dee55385ea	1.3966969450051416
23	0x3f6b225b58fc7e62	0.0033122810490480584
24	0x3fdae0156274c81c	0.4199269734846227
25	0x3fd2ec85198bfb43	0.29568603033833457
26	0xbfd2d70f942e6816	-0.29437627287700374
27	0xbf560a480e48f9ef	-0.0013452247304851469
28	0x3ffb41dd06c4e000	1.7035799278655759
29	0x3fc486905c43cc63	0.1603565645706083
30	0xbef248d3f76c2b1d	-1.7437443115257614e-05
31	0x3eb67bad8f121423	1.3400982051003743e-06
32	0xbef9cf234b1ade70	-2.4613506588193367e-05
33	0xbe30202c8b8073ea	-3.75455238429646e-09
34	0xbe21bf0be8c3ccf8	-2.065938370133013e-09
35	0xbe4bc8807d24dd2c	-1.2937565606163654e-08
36	0x3fb5a9c723262951	0.08462185485965291
37	0xbfb07ad969c1e5ec	-0.06437453109710817
38	0x3fd6d60338ea4185	0.3568122916995196
39	0xbfe01d9b290b5b17	-0.5036140252730971
40	0x3fe8779a9a14986d	0.7646000871070676
41	0x3fc276195d241b8a	0.14422909782316778
42	0x3fdaa085e0d95891	0.4160475440779772
43	0xbff0d06ac0cfb8ac	-1.0508830577560202
44	0xbfd6eba16b20af33	-0.3581317468804059
45	0xbf04f9734d7a2fe3	-4.0005522973535016e-05
46	0x3ed82108f8a2665e	5.752812180537241e-06
47	0xbee7244d013a0b2e	-1.1034870147646333e-05
48	0xbedb8711b8bfffe6	-6.563094654410384e-06
49	0xbeb9e0042f762932	-1.5422739901593946e-06
50	0xbed7a2c95a6a0fb2	-5.63523409502838e-06
51	0xbfd8f1eb78f11897	-0.38976561365815016
52	0xbff3aaa32000d4fd	-1.2291594743849708
53	0xbf995f03d12d9927	-0.02477651561948693
54	0xbfab31f63ba16d62	-0.05311555364525124
55	0xbfee14677a0ccdc3	-0.9399907478131627
56	0xbf90ce07a0bb3187	-0.01641094130063572
57	0x3fe25b7179fdb04e	0.5736625082622682
58	0x3fd39b60aab6359d	0.30635849639005547
59	0xbfd9c8f361fbb6fc	-0.40289005821874446
60	0x3ec65f3be1321fe6	2.6669511128986246e-06
61	0xbeb0cc1a3534f941	-1.0011956036028675e-06
62	0xbee790403e0ca3ff	-1.1235942964997815e-05
63	0xbfc8ffcb715c737f	-0.19530623469554695
64	0x3fe47ee864bc82e2	0.640491673231818
65	0x3fd1c7003393385e	0.2777710441267852
66	0xbfa0281e37917973	-0.031556076319918434
67	0xbfe1a379f9e8b8d1	-0.5512056237255597
68	0xbf84355b5822bf05	-0.009867395045460645
69	0xbfe6499dbbbbcddd	-0.6964863459274359
70	0xbfd890266f73ef47	-0.38379822620457954
71	0x3fde973457412cbb	0.47797878762203155
72	0x3fd7461680ade500	0.3636528259881544
73	0x3fd259ae8835c859	0.2867237405945438
74	0xbfd04fbd413d847e	-0.2548668992149671
75	0x3eedeec9ea1a00ef	1.4273056254455035e-05
76	0xbeaad33c9893c896	-7.994515708583084e-07
77	0xbef87ceaa41a8a62	-2.3353534067136596e-05
78	0x3fc20dbb6c63c2e5	0.14104407112565479
79	0x3ffbbdc023220850	1.733825814474148
80	0x3f7b7b84c187c65d	0.006709593370474912
81	0xbf9cb07688883dd6	-0.0280169030029905
82	0xbfe557865b5e6de9	-0.6669341835544716
83	0xbf7527cd767b83ea	-0.005164911831998057
84	0xbf291e3fe384c9d9	-0.0001916363705816843
85	0x3f5f134fd1008501	0.0018966941315812782
86	0xbf5a51e0afd59d45	-0.001606435223345874
87	0xbf386066f572b060	-0.0003719569553577492
88	0xbed6534324fcb5b4	-5.322752784126515e-06
89	0xbf321fad1880ef53	-0.0002765462491003307
90	0xbf60b91020906a27	-0.002041369913525121
91	0x3f5b8692da7e7ace	0.001680034076322268
92	0x3f5704b64f7f3df6	0.00140493205798353
93	0x3f09ee659ba8522d	4.945991118546589e-05
94	0xbf0ac1bc8e75761a	-5.103451422415143e-05
95	0xbf418e525610ab3b	-0.0005357648880182983
96	0xbf4e0135e89d9b84	-0.0009156716562131882
97	0x3f223a6027338557	0.00013906882995854783
98	0xbf46c83377d604e7	-0.0006952525433662455
99	0x3f89a9d1f89da712	0.01253093757596305
100	0xbfdf3d284e7b8238	-0.4881077543668968
101	0xbfa4421ea5514eaa	-0.0395669533542365
102	0xbf099d9fb729b9d0	-4.8858105306293456e-05
103	0xbeff389525efe2a2	-2.9774690457148375e-05
104	0xbf26a89c13a4d910	-0.00017287163957186618
105	0xbef64f16d7278e1f	-2.127546526676908e-05
106	0xbefd232c1a37343c	-2.7787582110684115e-05
107	0xbf619dd02243790c	-0.002150446425829183
108	0x3fcaf4e904434156	0.210599066811947
109	0x3ff25e356dd9df54	1.1480001727158724
110	0x3f88efec08c4dde4	0.012176364915474865
111	0x3fc743e1055f1d67	0.18175900232584327
112	0xbfe67a461b4ec38a	-0.7024260075905755
113	0xbfd02f72cbd89338	-0.25289602190814575
114	0xbf176a240375dcf7	-8.931965645852026e-05
115	0xbee1ca04482719b1	-8.482517164132326e-06
116	0xbf01a4b0b641209c	-3.3651964969795225e-05
117	0xbf1f886494cc05c1	-0.00012028802775534195
118	0xbeefa4fb0fa2969b	-1.5089252418508481e-05
119	0xbefddd33b807213e	-2.8480596940190195e-05
120	0xbf896c172e25d74a	-0.0124131976087757
121	0x3fd9c43e960edba6	0.4026028123293436
122	0x3fa34d6402a11053	0.037699818917218984
123	0xbf050018c5e05c0c	-4.005504227693615e-05
124	0xbee23b3fcafd60ad	-8.693429066106444e-06
125	0xbf0274c3e3f0b5f4	-3.520224390061644e-05
126	0xbf164ed644f30115	-8.509810253354664e-05
127	0xbee19f8f8289b091	-8.40343644022853e-06
128	0xbf124847f9a132a6	-6.974162389034952e-05
129	0xbf59a2d85c3a8627	-0.0015647042172662968
130	0x3f3d115cfe3034d8	0.00044353981337581566
131	0xbf58769295e63315	-0.0014931136607600527
132	0xbfcb225a14bf588f	-0.21198583615359154
133	0xbfe54cc90decc6ba	-0.6656232139559599
134	0xbf8b1f78c7727f71	-0.013243621431967974
135	0x3fbaf8597609696b	0.10535201198346093
136	0xbfd73fdda815c44a	-0.36327306189111097
137	0xbfc2b8bbc864377e	-0.1462626198266967
138	0x3f2d0ca0eb39570b	0.00022162880269387843
139	0xbf16c41690a6184d	-8.684528089561543e-05
140	0xbf54805e36f6d3dc	-0.0012513084474055003
141	0x3eed25be6f87681c	1.3898581060201773e-05
142	0xbed543c9f949a32b	-5.0699235499627945e-06
143	0xbf0a6e032c454d81	-5.0410720663275454e-05
144	0xbfe9fb466629eb22	-0.8119232173333766
145	0x3ff72747385b81fd	1.4470894051993348
146	0x3fc40b59d31a32c3	0.15659640128833105
147	0x3f24e66290a3e9fa	0.0001594538992504972
148	0x3f5794e7a0b817dd	0.0014393102636644985
149	0xbf446e18950d1e6e	-0.0006234760313441176
150	0xbfa25e7687cca1b7	-0.03587694556910342
151	0xbfe418bf993f0909	-0.6280210488405668
152	0xbf8779d4e1dc2516	-0.011462844031046287

bias f8 [51]
0	0xbfe7044cc4be6673	-0.7192748873378164
1	0x3efd4a4e5e897364	2.7933367081056813e-05
2	0xbfb99e7c5a5bbaa9	-0.10007455068601225
3	0xbec0609a57c8e257	-1.952332864510024e-06
4	0xbf6587442b8711ad	-0.00262797655543264
5	0x3fb1cc40ab3492e8	0.06952289752787133
6	0xbf6eba37035e6d4d	-0.0037509035564206373
7	0x3faf0093a7f4cbfe	0.06055127549407045
8	0xbfdb3611f0c1efd4	-0.4251751757763007
9	0x3fd08a30113433ef	0.25843431167669356
10	0xbea55ff9ad903036	-6.370217661157718e-07
11	0x3dfbe784299f1e45	4.060618869115466e-10
12	0x3fb91d158e0cc546	0.09810003965391897
13	0x3fd43d64f397ace5	0.31624721325233757
14	0xbfe57586fe58dc64	-0.6705965965001153
15	0xbecc0999bdabd2dc	-3.3423307120812226e-06
16	0x3eb0de5d34c512d4	1.0054474897807301e-06
17	0xbfba07cd25eb7166	-0.1016815393044844
18	0xbfae736ad6a736ad	-0.05947431440618565
19	0xbfe7b8700f9f6f21	-0.7412643723614317
20	0x3eaf091ec26778ed	9.249337196667343e-07
21	0x3fd8a576c97ea3fa	0.38509912183013706
22	0xbfa1abe7249e5bfb	-0.034514640064280365
23	0x3fe0ff632b6b7410	0.5311752174417297
24	0xbfd4ddd1d74b7d8b	-0.32603879952326825
25	0x3eb4ed414dde2e69	1.247333151851733e-06
26	0x3fb3dcb1df99b5a9	0.07758628567690685
27	0xbfb6169e7a7b96c2	-0.08628263941099149
28	0xbf6c591c12cd713d	-0.003460459547950516
29	0xbef7322040d2ba20	-2.2121243138323765e-05
30	0xbf02a56891266478	-3.556466448912608e-05
31	0x3f065be1e00b0588	4.264624658879406e-05
32	0x3f16844e34c2291d	8.589484531476952e-05
33	0xbfb8fabe0a1aac53	-0.09757602450069784
34	0x3ef80ff21e9fe965	2.294758625252229e-05
35	0x3f11ff47c01e7f04	6.865382604681272e-05
36	0x3fc3499249bb46c3	0.1506827220933272
37	0xbfd41d31a9262d4f	-0.31428185957402816
38	0x3ee6bb64406701e8	1.0839461549561885e-05
39	0x3e94c79e0ef7e146	3.0964248673395747e-07
40	0x3fb8051be8e8c2fd	0.09382795749912627
41	0xbeb6bb4d9e85e23b	-1.3549121097006749e-06
42	0xbed4decb1bd5afae	-4.975864098848773e-06
43	0x3f1fbbdeb722ff23	0.00012105509611881316
44	0xbfacaf13f3406d78	-0.056023238605315606
45	0xbfc693183a76c395	-0.17636397223170933
46	0x3f1466d80c98c67e	7.782643947320565e-05
47	0x3eceaf53ac4125d8	3.657921611864507e-06
48	0x3fd98dd12306fd21	0.3992808191359974
49	0xbf73903ebfd45043	-0.00477623473604544
50	0xbfa36cd08e67e4cb	-0.037939565070652735

weight f8 [100, 51]
0	0xbfacd17fcef8adb8	-0.05628585244661671
1	0x3ee753aaea427765	1.1123097756911713e-05
2	0x3fafee184ca750f0	0.062363395077825845
3	0x3ef3c5fb0daf0285	1.8857347509062504e-05
4	0xbf71f7f46e2fb4fe	-0.004386858755407673
5	0x3fbf24e91db1ee1a	0.1216569612023978
6	0xbf6390ec42aaef9d	-0.002388440557607964
7	0x3fbb3526f12dfba4	0.10627978695082035
8	0xbfa1f8415a0af415	-0.035097162477065215
9	0x3fb6e16ce9b73c93	0.08937721925689095
10	0x3ee07a459dd0d0f0	7.857143765923187e-06
11	0x3e292fe713bd0af8	2.9321666465579364e-09
12	0x3f92141e017f6e96	0.017654866067330653
13	0xbfaf981054640bb9	-0.061707029630290795
14	0xbfb4f15846d50209	-0.08180762986467739
15	0x3ecf9c9174c0347c	3.7683957199220746e-06
16	0x3ea83b5aefe62915	7.221655947004002e-07
17	0x3fa51a9fec4baf0f	0.04121875533550511
18	0x3fb6c5c859b3af53	0.08895542325961729
19	0xbfadeaaffd099791	-0.05843114818416873
20	0x3e908a8a19b406cb	2.464826367038852e-07
21	0x3f795a8e107c42bb	0.006189875544592989
22	0x3fab5ec2d01fc7a2	0.05345734396531944
23	0xbfb030aca4dd5bb1	-0.06324271225945101
24	0xbf9c3618f9df1666	-0.027550115824644193
25	0x3eb20d56eeffb148	1.075989469963186e-06
26	0x3fc0eb3d585d24f4	0.13217894377365946
27	0x3fabbd64a854f61e	0.054179330395055056
28	0xbf40c72c1f90123e	-0.0005120244451296064
29	0x3f0ad314b8e8b76b	5.116374005741008e-05
30	0x3f191cb2d1d85402	9.57950728309315e-05
31	0x3ed303ebf32a34a2	4.5336053512537776e-06
32	0x3f11f6caaa0a4d91	6.852733577949177e-05
33	0x3f9fb0ac71384e9f	0.03094739380874378
34	0x3eed4833a0f3d404	1.3962763687017453e-05
35	0xbeefbc8455d1aa40	-1.5133092057880164e-05
36	0x3f9c236702e830eb	0.027478799393109304
37	0x3f82fe5b2cda27be	0.009274208360938615
38	0x3ed7f0dc5adbc753	5.7079463837583006e-06
39	0x3ee1ca95d9a808e0	8.483576313448834e-06
40	0x3f91f27cec7a7ec7	0.017526580747129452
41	0x3ef14af9ef698478	1.6491771896890985e-05
42	0x3ef3044707881417	1.8135746787013235e-05
43	0x3f3aad86ff963065	0.0004070715509321198
44	0x3f96eaf57ccbd589	0.02238067220874521
45	0x3f80abad710511a3	0.008139948855963313
46	0xbeba69e11741713c	-1.5743727006723207e-06
47	0x3ec2b9c270d9c4e8	2.2322682358624547e-06
48	0xbfb74c37f68669b8	-0.09100675362279886
49	0x3f6520d0db45d5b4	0.0025791243771730813
50	0x3faf096e2f26bd42	0.06061882329538061
51	0x3fac08cf6bafb065	0.054754716773317814
52	0xbefbdc7c06ee2407	-2.6570575240057066e-05
53	0xbfaaf6ec74ebb23c	-0.05266512801413056
54	0xbef7c119c4efb0e1	-2.2653865297359784e-05
55	0x3f73c633c519b8dc	0.0048276922476430915
56	0xbfbef98695c8af60	-0.1209949603732503
57	0x3f62923c69b11fbd	0.002266996377816326
58	0xbfbb0f432cd37ef0	-0.10570163578404013
59	0x3fa05fbcff17040e	0.031980425013451094
60	0xbfb66677f1a5ac05	-0.08750104569996615
61	0xbee53ba016a7a93f	-1.0124641183180252e-05
62	0xbe2cf5222e12aa04	-3.3711028279489098e-09
63	0xbf9429be5d84470c	-0.01969048925190635
64	0x3fb38920f14722b9	0.07631116762707792
65	0x3fbc3ecd241dcfe3	0.11033327228307103
66	0xbee2b102367ef997	-8.91277313985472e-06
67	0xbeb9bce3faa9f13e	-1.5340956262258392e-06
68	0xbfb08d75e0e1266d	-0.06465851536008822
69	0xbfb3d0423d6a9cc2	-0.07739652633118779
70	0x3faceb38fe6aee97	0.056482106263016245
71	0xbea3e1354ece6d34	-5.924618143750738e-07
72	0xbf83958a22721c07	-0.00956256787891442
73	0xbfa7c41a725781e0	-0.04641802449964749
74	0x3fb0b19f1fc8cf71	0.06521029020296766
75	0x3f98a85d78c8a9a9	0.02407976197916076
76	0xbead9bd08a9412e3	-8.824065577400354e-07
77	0xbfc0d255649ebbb1	-0.1314188710507245
78	0xbfa76b3cf0be584c	-0.045740036380423094
79	0x3f11d47a66fc896a	6.801602443976475e-05
80	0xbf1ad89de7b40f97	-0.00010240997101012974
81	0x3f35f2f7b853bd1d	0.00033491657116165187
82	0xbefb5a64ec7a4d37	-2.6085951303556425e-05
83	0xbf21465aac8c718d	-0.00013179642544337532
84	0xbf96d337aa5ccece	-0.02229010560331695
85	0xbefeed04b0332852	-2.9493191516384854e-05
86	0xbef751f464b291d3	-2.2239814182827195e-05
87	0xbfad7b33947734d7	-0.05758057772946195
88	0xbf47907d29fe5c74	-0.0007191287186171362
89	0xbee811cd2509c0d6	-1.1477249388408913e-05
90	0xbef233ec2dfbf997	-1.735956436643148e-05
91	0xbf8e5344bb1f7c15	-0.01480725952199972
92	0xbef38ac26e7230d2	-1.8636731422592302e-05
93	0xbefe027697c1fbc1	-2.861940582521059e-05
94	0xbf430da5972c2962	-0.0005814608142327533
95	0xbfa1ccf63f942491	-0.03476686025721521
96	0xbf732ea155c3efb9	-0.00468314191334323
97	0xbf0330511a83bf66	-3.659961231672233e-05
98	0xbed0ccb2615be306	-4.00533601462787e-06
99	0x3fbcfbd844519566	0.1132178465646426
100	0xbf64b660437bc608	-0.0025283699177343112
101	0xbfaafe49a2533f7e	-0.05272131067761075
102	0xbfaa1c281910272a	-0.05099606805749908
103	0x3f066e2a585bbf6d	4.278246619360171e-05
104	0x3fa23c7e33bca84c	0.03561777478746872
105	0x3ef86d4675e6e445	2.3295265572296592e-05
106	0xbf7474d567bea380	-0.00499423371722052
107	0x3fbd3868e6d8fb91	0.11414199481894928
108	0xbf6274b250c70a3f	-0.0022529108739217925
109	0x3fb985f0f0a7c595	0.09970003009200064
110	0xbf9cc795795e9516	-0.02810510209350977
111	0x3fb60af1f43d053c	0.0861045094761907
112	0x3ee6112621a70c53	1.0522359890857496e-05
113	0x3e2fec4abacd649b	3.7163280980517547e-09
114	0x3f964d4fc6d6a828	0.02177929545511162
115	0xbfb26ea3bb75d86c	-0.07200072600048352
116	0xbfc0191a770761a9	-0.12576609432177335
117	0x3eeab395570ec6b9	1.273226618700732e-05
118	0x3ec389224724c12f	2.3288344489712127e-06
119	0x3fb1b57bc87d0b49	0.06917546887147553
120	0x3fabebda76cbc9e5	0.05453379345080459
121	0xbfaac2a18a0245c2	-0.05226616677931474
122	0x3eb13eda765d7d79	1.0279131514508173e-06
123	0x3f9751642044cd91	0.02277141997292415
124	0x3fa0cc9cdf81edb1	0.03281107166636888
125	0xbfb0240650d4ba4e	-0.06304969285404491
126	0xbf94d74585ffd0d1	-0.020352445892016405
127	0x3eb6beca7aa9f1ee	1.355724161072117e-06
128	0x3fbfbd5b4b8402c9	0.12398310273784853
129	0x3f9fb32c9be4f8f5	0.030956933035889162
130	0xbefaf5f30c9211af	-2.571176517964104e-05
131	0x3f21cda19e7e8381	0.00013582799806235657
132	0xbf462bc90e762aa7	-0.0006766063424249084
133	0x3f08d910b85ef1cd	4.739362979886176e-05
134	0x3f289ea30f87fbe1	0.00018783321844747985
135	0x3f854a60fe0ecf5d	0.01039577269862207
136	0x3f05ffbea70f75f8	4.1959768061632736e-05
137	0x3f104fa7886c1714	6.222209968250971e-05
138	0x3fb4c17c532676e7	0.0810773566249413
139	0xbf797438a39ba51a	-0.006214352842769411
140	0x3ef36ebff1e68308	1.8532387110806035e-05
141	0x3efc152b0a8b8068	2.6781738287407283e-05
142	0x3f8bdcf8cdbe2d99	0.01360506418111278
143	0x3ef480b052290c37	1.9552889293683088e-05
144	0x3f024772b4577a22	3.486460495215708e-05
145	0x3f43ff6136566422	0.0006102776211945919
146	0x3fa2ee4f15e82c2a	0.03697440283220772
147	0x3f5f86b73903c107	0.0019242085727989037
148	0x3f13f66b7ac0d9de	7.61511898311538e-05
149	0x3ed7964ce2fecc9e	5.6236054177149656e-06
150	0xbfbc9b65b1799286	-0.11174617369540316
151	0x3f60021e3c702b0a	0.0019541349934163498
152	0x3fa3148ddb761ad7	0.03726619056674501
153	0x3fa7366ecaad97b8	0.045337164154985954
154	0xbf04ac288dd62a07	-3.942965279709128e-05
155	0xbf86c0099fd9046c	-0.011108470144906422
156	0xbeefaea09fb6f375	-1.5107220852844772e-05
157	0x3f75292e2a13e2cb	0.005166225747637208
158	0xbfb9cebfa35a48a8	-0.10081098306753467
159	0x3f657c16114cd6bb	0.00262264547418564
160	0xbfb68a37d6010334	-0.08804654097276626
161	0x3f97eb75585b4bd8	0.023359139936314083
162	0xbfb5fc14b50702f8	-0.08587769908536902
163	0xbedf2238fb0b834d	-7.422848214062188e-06
164	0xbe26a9e8c3aa4d2b	-2.63840285497946e-09
165	0xbf99a6c53d6a3ca2	-0.025050241349671716
166	0x3fa8aa76a392579a	0.04817553278660043
167	0x3fc05681a6410d62	0.12763996713520515
168	0xbee6c6e6725eab7f	-1.0860897940853088e-05
169	0xbec13a957490c14e	-2.053838134695593e-06
170	0xbfacb7c4f8c596dc	-0.05608954941525976
171	0xbf95d9a7fc1fb58e	-0.021338104976100385
172	0x3fa7a3b46537d35b	0.04617084250995759
173	0xbeaf53b93bdcc1b1	-9.336187003269645e-07
174	0xbfa48e4ad0ee3385	-0.040148103718002516
175	0xbf8ac675038332a9	-0.01307383934945368
176	0x3fae0454b2a5e76c	0.05862679177057725
177	0x3f90717f393140ea	0.01605795656752288
178	0xbea745eacc910bbe	-6.935928463864112e-07
179	0xbfbc07719c78f17e	-0.10948858327987485
180	0xbf83e35a7e064750	-0.009710986109698588
181	0x3f296df87f965e00	0.0001940122454413412
182	0xbf1cdac7ef27cb6b	-0.0001100716142799337
183	0x3f4838932703cdbc	0.0007391661183916913
184	0xbf072ba57c9063c9	-4.419420981367041e-05
185	0xbf25a15a6e83f12c	-0.00016502598669621818
186	0x3f702db1efc0a02c	0.00394982820947835
187	0xbf01a4c4f0906cb8	-3.3652553675456024e-05
188	0xbf10f94283c27ce7	-6.47494170515798e-05
189	0xbfb9177c0d55aba8	-0.09801459622910491
190	0x3f899f63db26de7e	0.01251104366825406
191	0xbef26b49bddb151e	-1.7565816839111845e-05
192	0xbef9c944bf9c7cd7	-2.4591641682222866e-05
193	0xbf8c762f043765e4	-0.013897292438673277
194	0xbeeff27cafb210b1	-1.5233619242723284e-05
195	0xbefd3ef0d38aa326	-2.789102765868574e-05
196	0xbf4134088b7b6e21	-0.0005250016901884904
197	0xbf9e5d2f8257fd13	-0.02965234978728144
198	0x3f4b4ba18dda2c56	0.0008329905355862848
199	0xbf13805f0134a2d9	-7.439212668159822e-05
200	0xbed204b40e4e7189	-4.295914753618318e-06
201	0x3fb4e3d5b6756669	0.08160148338847652
202	0xbf48577376d9887e	-0.0007428468504253741
203	0xbf8e5f54b39942d6	-0.014830266695896748
204	0xbfa32338187f2c25	-0.037378075590446515
205	0x3f05680f817213a5	4.082963294486174e-05
206	0xbf923843cd98942e	-0.017792758391937884
207	0x3eeb949e356c0ca3	1.3151425873220086e-05
208	0xbf7002be3c51899f	-0.003908866031539309
209	0x3fb5070b8cfeb0e5	0.08213875000246025
210	0xbf68823f8558153d	-0.002991794647416639
211	0x3fb25f0393e9d8a8	0.07176229821365843
212	0xbf9170404a3724eb	-0.017029766587971656
213	0x3fb654fa703187cc	0.08723416556452362
214	0x3edbdaeac6355fef	6.641184060761348e-06
215	0x3e236cbddf171643	2.26134110804926e-09
216	0x3f9cceebfdd810a4	0.02813309418526501
217	0xbf86c8133a3e6898	-0.011123800482711041
218	0xbfbe32bf2bae5823	-0.11796183411055998
219	0x3ee9aeb43459e6cd	1.2246340371324834e-05
220	0x3ec220542a7176f7	2.1608214697950353e-06
221	0x3f9f7bb642a1ea8d	0.03074536115353026
222	0xbf915536690e9d60	-0.016926622545409997
223	0xbfa33b1ca0b507f4	-0.037560362451145496
224	0x3ea921db83b8f74c	7.489995889687212e-07
225	0x3faead2ea13ce2fd	0.05991502493129095
226	0xbf8393dc466eb6e6	-0.009559365176609668
227	0xbfa99e25c60b05da	-0.05003469507711218
228	0xbf85ad81d6a599bd	-0.010584844935419885
229	0x3e8565acd46df788	1.594213278852933e-07
230	0x3fb6d5d76857190a	0.08920046136254114
231	0xbf8f4b22fff6bd01	-0.015280030666728896
232	0xbf503f0546fc657d	-0.0009915877853415571
233	0x3f1eba435b5fabf0	0.00011721645464006481
234	0xbf401b20d1fe639c	-0.0004915151839553935
235	0x3f02f17a88c400e2	3.613143153025231e-05
236	0x3f230dd146612f18	0.00014537028909199982
237	0xbf93f30268ded8b6	-0.01948169484213543
238	0x3f017caeb41d17c3	3.335388329488112e-05
239	0x3f04afc95e8ce977	3.9456684879773706e-05
240	0x3fbba60f77843790	0.10800263088114392
241	0xbf92e4de77839095	-0.01845119099097355
242	0x3ef26fdb74d4cb7d	1.7582838428963327e-05
243	0x3efb80626771836d	2.622747566894143e-05
244	0x3f8fcc82fababdd5	0.015526793743759018
245	0x3ee9701fce43123b	1.2129776628796575e-05
246	0x3efec4048af4ebf2	2.9340452497122285e-05
247	0x3f3bdf0b7da7075c	0.00042528181588973534
248	0x3f904ab71fb91d23	0.01591001635668222
249	0xbf6f296027b243ff	-0.0038039091137496146
250	0x3f0d69aa90360540	5.61003853603117e-05
251	0x3ecde7a5e5911c98	3.5649389187628526e-06
252	0xbf9f54d64b7725e9	-0.03059706531147369
253	0x3f379a9ae20f8dec	0.0003601673252530957
254	0xbf86696e3d9c1869	-0.010943280463390619
255	0x3f9a78646fc54fa7	0.025849885293908106

bias f8 [100]
0	0x3f7d116e175ccace	0.0070967007102804135
1	0xbf85124a9d97942d	-0.010288794454888695
2	0x3f8b7c7e0c2ca25a	0.013421044107944247
3	0xbf94189291cc61ce	-0.019624986790491232
4	0x3f992a4de06d6b12	0.02457544023796305
5	0xbf9fa7667eb020d8	-0.03091201923601336
6	0x3fa127c06bbf9faf	0.03350640597619702
7	0xbfa122b62e819c3a	-0.03346795385078179
8	0x3f9b9dd171022729	0.02696921589134785
9	0xbf9151fbe46b7514	-0.01691430646575494
10	0x3f6671720bd32ad9	0.002739641901461237
11	0x3f86879f9192af4e	0.011000868444476144
12	0xbf9a145f668fc18a	-0.02546834052549366
13	0x3fa1a83a37f69d6a	0.03448659833093866
14	0xbfa4703753f3be18	-0.039918641088544315
15	0x3fa3869585a3b9ef	0.03813616997091517
16	0xbfa153d39c138fd7	-0.03384267120580347
17	0x3f9994d274f862b9	0.02498177374772823
18	0xbf92e3c8df201155	-0.01844705449913538
19	0x3f8745f5d0f3a5dd	0.011363907279206603
20	0xbf8576e7f5ea23f3	-0.010480701629846911
21	0x3f865e86910edfd0	0.010922480871030787
22	0xbf9071341cc15b52	-0.01605683732517644
23	0x3f93d4be8f49c2a2	0.01936624288140599
24	0xbf9789673b16c8a4	-0.02298508928442601
25	0x3f93bd9d876cd8f0	0.01927801264829382
26	0xbf8994eaf963ab6c	-0.012491069541700837
27	0xbf5fd8096e877d86	-0.0019435970408422112
28	0x3f92e0c0f3150c86	0.01843549235969679
29	0xbfa3ab7d18845944	-0.038417729609295154
30	0x3fab5f8ec220ea37	0.0534634220097882
31	0xbfb09f3062a100d5	-0.0649290314477214
32	0x3fb0eb37d9c04b49	0.06608914438429027
33	0xbfaf36aa665efb13	-0.06096394061704848
34	0x3fa79302c5473761	0.04604347856694236
35	0xbf9c979c050324e2	-0.0279220941600088
36	0x3f774c7576c96cf2	0.00568815121058751
37	0x3f88453b1e474c22	0.01185079752113977
38	0xbf9b254d4d62ae6f	-0.02650948319266749
39	0x3fa0776e0f698ab3	0.032161177998906075
40	0xbfa147f3c5c0d9f7	-0.033752076997576035
41	0x3f9cd86ac0bfcf9e	0.028169315351945216
42	0xbf9740d61e85d7de	-0.022708268750157738
43	0x3f909618bc353557	0.016197573172850834
44	0xbf8f8b8b99aba515	-0.01540288031306373
45	0x3f9180765458fe17	0.01709160699669895
46	0xbf9a64b95814e3f1	-0.02577485656840745
47	0x3fa1eafda6d2cddc	0.034995962728682634
48	0xbfa7a31841185428	-0.0461661891423904
49	0x3fa9939a00b5558f	0.04995423563620271
50	0xbfa9630cebb54fc3	-0.04958382012651399
51	0x3fa3a3f86300e6ce	0.03836036881007275
52	0xbf963e185b55b1a3	-0.02172124917471908
53	0xbf67c4d250b0ff55	-0.0029014690130963285
54	0x3f9a99c66deb1238	0.02597723050964104
55	0xbfa91dae48eeaa91	-0.04905457153593774
56	0x3fb0172fcd518e50	0.06285380137119856
57	0xbfb21bb597ffaa03	-0.07073531113534419
58	0x3fb10c12aae876c9	0.06659046814499016
59	0xbfad62960e5000c8	-0.057392777678616336
60	0x3fa4c07e1c84f31f	0.04053110216270838
61	0xbf99cd95f7e1ab83	-0.025198310141074664
62	0x3f8272774a96b4e8	0.009007389034048477
63	0xbf49f51130d42c86	-0.0007921537341259034
64	0xbf72605b3e689731	-0.004486423893956191
65	0x3f6de2ca8164f697	0.003648181456042131
66	0xbf6dded1acad15d8	-0.0036462874608413735
67	0x3f556e6b8a1c797f	0.0013080644789123794
68	0xbf70a3587272d7d9	-0.004062028404566897
69	0x3f82a212aa840ad5	0.00909819205162902
70	0xbf9532d0a9155d1a	-0.020701656646761803
71	0x3fa08e5802eb9b54	0.032335996967779806
72	0xbfa7dc0daa616caf	-0.046600749061974304
73	0x3fac73a4b943ed10	0.05556978951968905
74	0xbfb0062c036712b4	-0.06259417613098145
75	0x3faeb9b61a497724	0.06001061507116237
76	0xbfab4f177b292a00	-0.0533377969591875
77	0x3fa384d77da2a96d	0.038122877203323614
78	0xbf961659489c15ae	-0.021569628769631137
79	0x3f594cbbb1c43494	0.001544173522293667
80	0x3f8d4c5764f98055	0.014305765885353742
81	0xbf9d08c186f22e09	-0.028353713857127292
82	0x3fa1d3a60197472a	0.03481787461681869
83	0xbfa3a728beeb9a36	-0.038384698205664966
84	0x3fa23eb01027743f	0.035634519550264525
85	0xbfa0dc4bd8c9794b	-0.03293072720838327
86	0x3f9c4df8f4cc2e22	0.027641191426523666
87	0xbf9a637aaf779349	-0.025770108184491467
88	0x3f9869900a44e0d9	0.023840189577840263
89	0xbf9abb3ec7991654	-0.02610490887879842
90	0x3f9b674aedb183fe	0.02676121783986573
91	0xbf9e3bf17ea78258	-0.02952554069077204
92	0x3f9ce440b4999ef7	0.028214465163187232
93	0xbf9afae4322bd8b3	-0.02634769970151103
94	0x3f9340d9f527ee64	0.018802075946935295
95	0xbf85e571199c8794	-0.010691531747912632
96	0xbf52ed64d8d115a4	-0.0011552319367792241
97	0x3f85688d2fc2c72c	0.010453322429700394
98	0xbf94aeb84829d43b	-0.020197753338340823
99	0x3f991c3442d578a0	0.02452165277406293

weight f8 [3, 3]
0	0xbff457e803f277fb	-1.2714615015206607
1	0xbfc60a591f2afd56	-0.17219079992171754
2	0xbfd599206524b00f	-0.33747110249783047
3	0xc00c3cbf5e3179cc	-3.5296618803833777
4	0x3fd744c50061669c	0.3635723594394251
5	0xc000892b37a459b5	-2.0669769618063705
6	0xbff0aba2d1e8cbb9	-1.0419033240875548
7	0xbfe4f754d8c5917b	-0.6551918252776397
8	0x3ff9e711963c6fb6	1.6189132565113886

bias f8 [3]
0	0x4009d5d78b9b990d	3.2294150263652512
1	0xbfd9c22d121036ec	-0.40247656597135406
2	0xbfe471eddc3b7260	-0.6389073659334592

weight f8 [4, 3]
0	0x400675d96637d353	2.8075435624872767
1	0x3ff4e03545a4c920	1.3047383041817469
2	0xbfe08787f30d8606	-0.5165443179250253
3	0xbfec103868c7f363	-0.8769800230507879
4	0xbff65c377a5ca8b8	-1.3975138454211855
5	0xbffae54093cdc0ed	-1.680969788893033
6	0xbfd002960bd53d39	-0.25015784411967307
7	0x400893bf74294112	3.072142512806871
8	0x4000928ca8fc3dbb	2.0715573503473173
9	0xbffb60de282d17f7	-1.7111493653660526
10	0xbff7e4faaeb38739	-1.4934031318920928
11	0x3feedf02fe82d186	0.9647231074255138

bias f8 [4]
0	0xbfdb73d4156cd16d	-0.42894460766117143
1	0x4007545657c781db	2.916180310989359
2	0xbff79ac5d03377f8	-1.4752863056996812
3	0xbff1762214e2b96b	-1.0913410964818364

weight f8 [2, 3]
0	0xbf3162ff30aec47e	-0.00026530008534126476
1	0xbf13b21ed22e36de	-7.51334487587257e-05
2	0xbf44e8a837d517ca	-0.0006380864503305825
3	0xbf7ec99a32f05215	-0.007516481723560027
4	0xbf1605c1906df7f6	-8.400911256775654e-05
5	0xbf335ea07e795eb3	-0.00029555719672689633

bias f8 [2]
0	0x3f210629032f987c	0.00012988329544255997
1	0xbf598f4fd6508124	-0.00156004711721642

weight f8 [1, 2]
0	0xbf25a14d42c4d455	-0.00016502445340341407
1	0x3f380b442e85c406	0.00036688246338828533

bias f8 [1]
0	0xbf523985a25fc0c1	-0.0011123471281245109
