Trained_models/6/predictor4_50_3.pth (torch, 27909 bytes, 16 tensors)

encoder1.weight f8 [26, 50]
0	0x3fe67129afeae291	0.7013138233079009
1	0xbfc46205b5540ff1	-0.15924140314029914
2	0xbf8a65fd307c00be	-0.012889841119886444
3	0x3fa2192aa7a40201	0.035348256076762403
4	0x3f810d15345d7379	0.008325734768442438
5	0x3f8c7bf5106e7014	0.013908304752298796
6	0x3fb5df61f44e997a	0.08543979849364361
7	0xbf9244895dda1fbb	-0.017839571336054166
8	0xbfb813f624d51320	-0.09405458831049573
9	0x3fc6e204b9b49a34	0.17877253596926013
10	0xbfb1ff797188ec47	-0.07030447980734876
11	0x3fb282af2c6b0ec7	0.07230658373287745
12	0xbfaa26544a35650d	-0.05107367902628299
13	0x3fa105ef3b2c7331	0.0332484016164244
14	0x3f93cae0fef210a4	0.019328609047548753
15	0xbfb3fa06d4a69248	-0.07803385440508592
16	0xbf7093073afbc925	-0.004046467059867252
17	0x3fae017c07262934	0.05860507571476817
18	0x3fc456251bb211bf	0.15887893535922434
19	0xbfda127bf8b56b25	-0.4073781899257248
20	0x3fcfac9080a84ec2	0.24745374948598992
21	0x3fa6ae8877d3d55e	0.04430033171403623
22	0xbfab9b0750885ae6	-0.05391714914383332
23	0xbfafed728bd8b5e1	-0.06235845524893669
24	0x3fa6aed1f680176e	0.04430252203023498
25	0x3fad27055acc1bd6	0.05693833096852756
26	0xbfb7ed8bce54fe86	-0.09346841609385068
27	0x3fbf5ef984721f98	0.12254294856586367
28	0xbfc78bf479a50bf3	-0.1839585870712593
29	0x3fc27a19db24d493	0.14435122681030474
30	0xbfa398c9d7fbbce5	-0.03827505837932125
31	0xbfb558c45acd3a82	-0.08338572708928818
32	0xbfa2cdacb686c332	-0.03672542312722839
33	0x3fd139b6830f28a7	0.26914751814605115
34	0xbfd080d4ffa93f8b	-0.2578632828417475
35	0xbfb338cc1b3cfb33	-0.07508540787692368
36	0x3fd77ba67b6e9bdf	0.36692201665795027
37	0xbfd3ff4ed60da982	-0.31245776084565346
38	0x3fc5b4c2832bbc80	0.1695788517458574
39	0xbfaf9cc8c016d540	-0.06174304337347758
40	0xbf7fbe8e2a0b8526	-0.007750087098174851
41	0x3fc1b96f54ef2612	0.13847152373482224
42	0xbfbccaa2a83fb569	-0.11246697051656941
43	0xbfb4e39e280d0078	-0.08159817197611285
44	0x3fcc8e4401843775	0.2230916030316014
45	0xbfb33499c00c6145	-0.07502137125664372
46	0xbfc222ae04a67553	-0.14168334223806286
47	0x3fcba33c214fb0d2	0.21591903330352707
48	0xbfc9484afdfa7e54	-0.1975187053803774
49	0x3fd3db4058fb38af	0.31025704087813727
50	0xbfdd9065442341c9	-0.46193820623468845
51	0x3f583c14f31b6c05	0.0014791683756161255
52	0x3fcfa8d257fefa25	0.24733952805213835
53	0xbfcf7e43e937387e	-0.24604081046567566
54	0x3fc219848d5fd197	0.14140374091188043
55	0xbf5b4e3c831f66f1	-0.0016666022242958734
56	0xbfc57413d3a6eb05	-0.16760490259715524
57	0x3fd656fba57750a7	0.3490590206031449
58	0xbfc0d9cda996c364	-0.1316468313284772
59	0xbfce73c8336e2caa	-0.237908387291417
60	0x3fd4db3441fc259d	0.3258791584381358
61	0xbfc142b7a32f2aaf	-0.1348485514448234
62	0xbfccd95cb01d1557	-0.22538336371705256
63	0x3fc723f2d12c49fe	0.18078456128621662
64	0xbfb8632b5931b303	-0.09526320388404134
65	0x3fbc6e96829c8148	0.11106243790391546
66	0xbfa253486b636c99	-0.035791648014957995
67	0xbfbe7b449478ba1b	-0.11906841873926803
68	0x3fc9b301d58f9a2a	0.20077536514072963
69	0x3fa7831153cff31b	0.045921842080110596
70	0xbfc348ff1a5b1da7	-0.15066517626676765
71	0x3fb58c9d64beca5d	0.08417686185456703
72	0x3fcc08c0e11c1249	0.21901713363344502
73	0xbfccdb91ba7aba23	-0.2254507217925986
74	0x3fa67dbbb7b1219c	0.04392801873524663
75	0x3fbf618e49ffa225	0.1225823336277548
76	0xbfbdd5910e2e9902	-0.11654001804581429
77	0x3fb9b8462d6d365c	0.10046805008934129
78	0xbfbeac8237b717e2	-0.11981977329477858
79	0xbf74c5dd9c333602	-0.0050715119024977735
80	0x3fcb8c26ce600943	0.2152145869914169
81	0xbfd1273bc8355258	-0.26801962424841497
82	0x3fb9da682ab1c117	0.10098887483923523
83	0x3fb2789114ab69a7	0.07215220217350425
84	0xbfc6f364a3fdd415	-0.17930276877783116
85	0x3fd1827953db2f89	0.27358849705773786
86	0xbfccb48d3de26f6a	-0.22426000138954844
87	0xbf9a266258d585aa	-0.025537048980714218
88	0x3fcba8e65782bcef	0.21609191201193975
89	0xbfd42c53bfe1fca7	-0.3152055143218128
90	0x3fcad730a9447ea3	0.20969208016412208
91	0x3fa7f00dfbc8eeeb	0.04675334642931069
92	0xbfce0f7dfd88d5c9	-0.23484778289427613
93	0x3fd51f5f4dba0c9d	0.3300398119974462
94	0xbfd487593fce285e	-0.3207610247706095
95	0x3facda40b8af1e21	0.056352636856498835
96	0x3fdc1f8cedf19dd0	0.43942569004726995
97	0xbfe4777f3fab6f55	-0.6395870441005892
98	0x3fc425f7ca1c304c	0.15740868919999895
99	0x3fe7e3c39334c987	0.7465532183762641
100	0xbfd329304ab46811	-0.29938895507223245
101	0xbfb4a872a4dde790	-0.08069530987805096
102	0x3fd6710592d3b7e3	0.3506483014924681
103	0xbf918082389412e6	-0.0170917841942523
104	0xbfd2280fadf2ee2f	-0.2836951445312676
105	0x3fc208728fdd6636	0.14088279747629578
106	0x3fc810c90bb74275	0.18801224777282113
107	0xbfb062cb9938958f	-0.06400749674556593
108	0xbfc62c49673e0267	-0.1732265237915442
109	0xbf91aeb5d77836ee	-0.01726802947637556
110	0x3fd4aa260bbd7c2d	0.3228850474023968
111	0xbfaa90bc62ca6be9	-0.05188549714986108
112	0xbfd7c141e100d91b	-0.37117049191455614
113	0x3fc9f19525b4ae41	0.20268501607039194
114	0x3fd4ceda0ff4cab5	0.32512523229813023
115	0xbfd233b931213e0b	-0.28440694616162493
116	0xbfcc632c7226ff04	-0.22177653859943558
117	0x3fd2ad1b636a3ae4	0.29181561192028327
118	0x3fc0d4259efad018	0.13147421133692272
119	0xbfcf317ec5c35e18	-0.2436979737892535
120	0xbfb44c8205a0e978	-0.07929241788307262
121	0x3fd2482c37625b76	0.28565507324804373
122	0x3fb9f827ec157df5	0.10144280923622502
123	0xbfd5e5516385a5a5	-0.34212145537329725
124	0xbf9af124f51f01d8	-0.02631051775074575
125	0x3fdbe8e189f0c05c	0.4360889288973391
126	0xbfc24ceb049c838c	-0.14297235226788663
127	0xbfdd2ea05d843c47	-0.4559708512542255
128	0x3fd712dd260b448a	0.36052635874973105
129	0x3fd51d6bd1e2371d	0.3299207257885984
130	0xbfdb938ead7685cc	-0.4308811849569707
131	0xbfcb46fddbe237b1	-0.21310399281031558
132	0x3fdf78ac2b21360e	0.49174026691329764
133	0x3fbfdc4190778b92	0.12445459153199881
134	0xbfe114ca8ee818a9	-0.5337879935402913
135	0xbfae91db10edba78	-0.05970654088638566
136	0x3fe2eb01e31d005f	0.5911874233061204
137	0xbfb506a6e7a97716	-0.08213275104341408
138	0xbfe245cbd679b8b5	-0.5710200489973177
139	0x3fc4ba6ae285d2bc	0.16193901119881626
140	0x3fdd57af7a5bdda2	0.45847689580065254
141	0xbfccfed3c3f86920	-0.22652670925965257
142	0xbfdd023416297bb4	-0.453259488718625
143	0x3fd45a9a5bdf0959	0.31802996608543804
144	0x3fd91501dd30355a	0.39190718269749925
145	0xbfdeefb42fc528c0	-0.4833803621774102
146	0xbfd06d19feadb0e6	-0.2566590296835457
147	0x3fdd777b5119c76e	0.4604175846098916
148	0xbf44b6ddfadab848	-0.0006321510206441861
149	0xbfd74d0438635246	-0.36407571322095966
150	0xbfc581601f75c99b	-0.16801072631967603
151	0x3f84453338fcfb2e	0.00989761369384964
152	0x3fc0df245131a693	0.13180974926517716
153	0xbfa057e2df678bce	-0.03192051865678246
154	0xbfb5e7a038260db9	-0.08556558008972716
155	0x3fc8b6d2b74534b0	0.19307931851145588
156	0xbfc1c08048a577df	-0.13868716761766017
157	0x3fb2dfdcf9b75f8e	0.07372838112439536
158	0x3f97b38baeebf00b	0.023145849753731833
159	0x3f98d1872f0a0e1f	0.024236786123323136
160	0xbfbd021aff985e8d	-0.1133133768092824
161	0x3fd0f0a2082f62c0	0.2646870689327834
162	0xbfd296d862a907df	-0.2904568637351285
163	0x3fd43a725382b2d0	0.3160672965557696
164	0xbfb4a1c03474aa55	-0.08059312134415937
165	0xbfb99733b4c7a3c2	-0.09996340907640813
166	0xbf6106e2a2c9cddb	-0.0020784784776936966
167	0x3fd4441c14a3a958	0.3166570855670634
168	0xbfddac69989625b1	-0.46364822293306945
169	0x3fd1b8a41079e269	0.27689458474154677
170	0x3fa75fc148db42ad	0.04565242781030086
171	0xbfc4fa9639607728	-0.16389730264284563
172	0x3fb28ec90078833e	0.07249122869008048
173	0x3fb8d38f451b0b85	0.09697814404630208
174	0xbfae486e95ddbc48	-0.05914636210842922
175	0x3fa74886434e7738	0.04547519275295858
176	0xbfb16a9815f6c00b	-0.06803274666049235
177	0xbf99d78bc54007c7	-0.025236305154983343
178	0x3fd023f6f3b4fd52	0.2521951084090307
179	0xbfd326d460a1cb48	-0.2992449706718401
180	0x3fb528d3d9443b62	0.08265422872885389
181	0x3fcb8621b1249387	0.2150308718638849
182	0xbfbf73f56863bef2	-0.12286313818526276
183	0xbfcebe77b38f1b87	-0.24018760936288805
184	0x3fd3cff22bb6c905	0.3095670153517321
185	0xbfc37a3d8a6c4321	-0.15216798075609808
186	0xbfb48b48529bb1f8	-0.08025028244782806
187	0x3f92e919edf80480	0.018467335843528776
188	0x3fc0af1504016ed2	0.13034308143220713
189	0xbf8aa2bb9868506b	-0.013005700672728623
190	0x3f9839dcf9ef110c	0.023658230547668288
191	0xbfc10aacc4e90fea	-0.13313827147260265
192	0x3fc67b4a4ced5424	0.17563751941875794
193	0x3fa966803ecd246b	0.049610145250490977
194	0xbfd3140fb593170e	-0.29809944850818304
195	0x3fc99bb803a1d9f1	0.20006466081004207
196	0x3fc96e6539cc20ce	0.19868150064599494
197	0xbfd0278c02240673	-0.25241375168852825
198	0xbf8e345abdbebce7	-0.014748295703468318
199	0x3fd922daaf397b42	0.3927523337533111
200	0x3fccd1cc9a039b36	0.2251525642415914
201	0x3f82016e3a05b7fe	0.008791791101170784
202	0xbf98c629a5dde334	-0.024193430660918128
203	0x3fc00e30eca19164	0.1254330783296026
204	0xbfc5fb0a111a8aa3	-0.1717236121667912
205	0x3fc5e2ca24fb97c8	0.1709835701541904
206	0xbfa315bf2bec0c3f	-0.03727528964193327
207	0xbfaab832755c9bad	-0.05218656237257533
208	0x3fc0f6ffe702aaec	0.13253783016019527
209	0xbfc0f1d0dcfcd159	-0.1323796347657076
210	0x3fc717a6ebc6b1ad	0.1804093028307653
211	0xbfcb8dd580ef9592	-0.21526593013474532
212	0x3fc2ded92b9befb8	0.14742579106666454
213	0x3fbc960e05e55e95	0.11166465419716538
214	0xbfdd0d69ce6f6f0d	-0.4539436832398998
215	0x3fd7d90b792132a6	0.3726223643214247
216	0xbfc2e33d4ba4f349	-0.14755979722567705
217	0x3fc6a4baad6c0006	0.17690213649621017
218	0x3fb2a7fea6390359	0.07287589605495039
219	0xbfd6d47d2aac9956	-0.3567192951908472
220	0x3fe316613b1ad383	0.5964819101705959
221	0xbfdb9cdb8cc1a262	-0.4314488291334212
222	0x3f901016bc9fcc00	0.01568637396117012
223	0x3fd596b7d52f59f3	0.33732410258144724
224	0xbfd7930abc3f587c	-0.36834972747363515
225	0x3fd4c690c168a2af	0.3246194733388092
226	0xbfca3389a1ff4058	-0.2046978035928102
227	0x3fb911c3bab5e4d2	0.0979273157917249
228	0x3fc19e68e8a030d9	0.13764678343466732
229	0xbfcb5f01e3b2c2fd	-0.21383689516144236
230	0x3fd0ef721bcc88fa	0.2646146079515713
231	0xbfb7a2554b1d9cad	-0.09232075771216115
232	0x3fb2424bfa354d3c	0.07132410868262168
233	0xbfb7425d5f2d0afd	-0.09085639546996656
234	0xbfab32dba65a6d8f	-0.053122390801230705
235	0x3fb47c3b184de88e	0.08002061217658449
236	0xbfc210696f1951d5	-0.1411258499598619
237	0x3fbd8d52d00bc07f	0.11543767527814629
238	0xbfc430f2fa501573	-0.15774380895906467
239	0x3fc77dd4663f524f	0.18352751724764224
240	0xbfb3e7a3351f4307	-0.07775325819899247
241	0xbfb7d3c97a89ac67	-0.09307536355633915
242	0x3fd118745f60ebb5	0.26711758913341593
243	0xbfd42c0d344a75fe	-0.3151886950161894
244	0x3fc668948c109631	0.17506653632260474
245	0x3fb1bfe9bccc6167	0.06933461055121413
246	0xbfcf80af032095db	-0.2461146130819277
247	0x3fd6ff2d56596e24	0.3593247740988963
248	0xbfc7503fd3424e43	-0.1821365148103827
249	0xbfd85ad09fa84b05	-0.380542903819489
250	0x3fd5a34487d9b09b	0.3380900694526276
251	0xbfc2c60a1a599221	-0.14666868483176734
252	0x3fb7bd924ca2f0ec	0.09273638125427269
253	0x3fa4381c33a0adbf	0.03949058656902648
254	0xbfcdb72769caaf37	-0.23215191522228348
255	0x3fd13dfa08ef12f9	0.26940775749635254

encoder1.bias f8 [26]
0	0xbfb38059409c478d	-0.07617719485668158
1	0xbf9413e4368dcf5e	-0.01960712988825663
2	0xbf9b3d144d64e374	-0.02660018656135628
3	0xbfa2811395ac6d1a	-0.036141025562949916
4	0xbfd80920c8f36ed7	-0.37555713295090015
5	0xbfa5b1140237bb8c	-0.0423666241366539
6	0xbfb0a12cae5f4f7a	-0.06495932824264897
7	0x3f7c87aec8c68e32	0.006965334654896392
8	0xbfb1c7bf1e1ae50d	-0.06945414051996952
9	0x3f9573e33906a5bf	0.020949888568486005
10	0xbf912eb3e6398eb4	-0.016779719282921504
11	0x3fbd11bf4ef5f5be	0.11355205228570406
12	0xbfcb35a2129df1db	-0.21257425221473522
13	0xbfef304bdb1199d5	-0.9746455458342164
14	0xbfb5bad360626240	-0.08488198378689393
15	0xbfe85b34b1140f82	-0.7611335238038779
16	0xbf830a690a46c654	-0.00929719984637526
17	0xbf98554072230145	-0.02376270958552708
18	0xbfa0476b23d1321c	-0.031794880029881706
19	0xbf9245e53ae9d3c9	-0.01784475490645202
20	0x3fcf869199161cd3	0.2462942121021344
21	0xbff6b56d1d6ca03b	-1.4192935132396218
22	0xbfb40df1d174b8f5	-0.07833777774496638
23	0xbfaa7e2fc92b68e6	-0.05174397783930988
24	0xbff32a4fb4f5fd30	-1.197829920652861
25	0xbf9f1c5dec8176ab	-0.030381648597873106

encoder2.weight f8 [3, 26]
0	0x3fda3895dbcb9101	0.4097036978185003
1	0x3fd488b903cf3132	0.32084489223486223
2	0x3ff3ed224dce8850	1.2453940429045538
3	0x3fe2ef7fd62524db	0.5917357618829117
4	0x3fb0eb0cd1af60f3	0.06608657950653533
5	0x3fd55eff8798ff8a	0.3339232277103227
6	0x3faf47a6d6673a36	0.06109353415705636
7	0x3fe607edcd252dce	0.688467884706762
8	0x3fbce65417b022a9	0.11288953378983514
9	0x3fe3534fe3e58e1d	0.6039199305636803
10	0xbfc651299af572aa	-0.17435188356730197
11	0x3fe09df32d4f40fc	0.5192809948876227
12	0xbfb0651dbd765efd	-0.06404291034266048
13	0x3ff2e517d39d6e0f	1.1809309259614371
14	0x3fe181e735268cb6	0.5471073186967235
15	0xbfd07a8d9c32f582	-0.2574800515538628
16	0x3fe4deda8eb3ddbc	0.652203825679798
17	0x3fc5a2b76eb3af94	0.16902821450582606
18	0x3fc697914da5c71b	0.17650047580132697
19	0x3fee30b0d88170be	0.9434437016129988
20	0xbfd5af8f0ed7c0cd	-0.3388402600239829
21	0x3ff73885ed52650c	1.4512995977768837
22	0x3fe69d10eb88d48c	0.7066731071742125
23	0x3fb6419c73a2bbe4	0.08693864653717714
24	0x3feea069187099b1	0.9570813634243703
25	0x3fe2201eb0aa17bf	0.5664208841778801
26	0x3fe073f0cc6a4be9	0.5141529076084882
27	0x3fe2c31afe7fb796	0.5863165827447456
28	0x3ff5c3ddf05249e8	1.3603190791660555
29	0x3fe1274ca431ee61	0.536047287648625
30	0x3fcbf6c6d46b25b1	0.21846852657317364
31	0x3fe20eeb82cb846a	0.56432128473183
32	0x3fd80aabf2b0e32c	0.375651347163102
33	0x3fe77141d486b403	0.7325753355886494
34	0x3fd51e109e691ecb	0.3299600169161578
35	0x3fe0d698eb5d0936	0.5261959645215828
36	0x3fd82ed82b692df0	0.37785915603009723
37	0x3fe2ef405107ec42	0.5917054731975286
38	0x3fc73bc8a8df28d9	0.1815119576043063
39	0xbfe26a708484b663	-0.5754931057214886
40	0x3fd9f087dac6b990	0.4053058277594568
41	0x3fd4ee51fad5745b	0.3270459126995939
42	0x3fe35ad505fa4204	0.6048379055737887
43	0x3fe1180d0eecba69	0.5341859141825128
44	0x3fe27b1842bef76a	0.5775262168533406
45	0x3ff2be03bcf0697c	1.171390283625981
46	0x3fd9be7f629861bb	0.4022520506710198
47	0x3fe41e8a0d01a509	0.6287279371291855
48	0x3fe553ea399c03b3	0.6664935231384476
49	0x3fd9aaa6b6b38559	0.40104072420043263
50	0x3fe6a20d2e4bc7a1	0.7072816757411041
51	0x3fe1f947f7163d1e	0.5616798234858924
52	0x3fd92a5d7abddf0e	0.39321076380245834
53	0x3ff03954fa435fc5	1.013997056570575
54	0x3fe66cfd6539ac37	0.7008044220978097
55	0x3fb4278f91684f2b	0.07872865009295242
56	0x3ff3951206cd67aa	1.2238941446034723
57	0x3fe76beeab051732	0.7319253292305119
58	0x3fee00de1f88cca0	0.9376059165864667
59	0x3fd92c33948edcee	0.3933228445780078
60	0x3fed42f85651ca7d	0.9144250570228248
61	0x3fc72627c15e6d51	0.18085190717543267
62	0x3feb1750067f7242	0.8465957762633212
63	0x3fbc57b7da2173bd	0.11071347308593622
64	0x3fecfb18f34f91d8	0.9056515457310139
65	0x3fe71aeaacbe3e81	0.7220357297791936
66	0x3fc3bbb794447dbe	0.15416617145181805
67	0x3ff49901a8a84d52	1.2873550975972035
68	0x3fcca0d0b3346582	0.2236576914809057
69	0x3fe9a3b292400a4c	0.8012326103638059
70	0xbfc419dd9666fa36	-0.1570393547426236
71	0x3fe98afd1c512d85	0.7982163956707359
72	0x3fe8d79164a3cbe7	0.7763144460317307
73	0xbfc640c9ef3d0e08	-0.17385219747130543
74	0x3fd477c35214eb0b	0.31980975166122566
75	0x3feef1307736b4e2	0.9669420555489092
76	0xbfdc60f2c31e0c46	-0.4434172540133584
77	0x3fc82a9bb51b4b21	0.1888003000554699

encoder2.bias f8 [3]
0	0x3fd0876c7951812b	0.25826560828683637
1	0xbfd163f67cbeb828	-0.2717262476170412
2	0xbfd3624d2c3c443f	-0.30287484474053267

decoder1.weight f8 [26, 3]
0	0xbfee658b0553c9ee	-0.9498953918503596
1	0x3ff097d2a0962056	1.0370661042125184
2	0xbfcbbf368b5412b8	-0.2167728596033578
3	0x3fd753613440451f	0.36446409323350965
4	0x3fa364d35fc117c7	0.03787861389041285
5	0xbfe3d7abfe658508	-0.6200771301920733
6	0xbfdf4a8e4b74adac	-0.4889255272743991
7	0x3fd97205b8f10c9a	0.3975843721456812
8	0x3fc91e8628fb24f3	0.19624402047183018
9	0x3fe26927d6323569	0.5753363784330477
10	0xbfcc123966b1232f	-0.21930615915541682
11	0xbff0bf7759bb8719	-1.0467446808983765
12	0x3fd9189dcd7d8d64	0.3921274668448034
13	0xbfbdf7d56a530cd9	-0.11706289144335659
14	0xbfe1475ce002f987	-0.539961278460212
15	0xbfb78897dd727e5e	-0.09192799717356467
16	0xbfc0610b89d09670	-0.12796158055532514
17	0x3fdedc6167160f3f	0.48220095698365023
18	0x3fe64fcf4e2dc896	0.6972424055986888
19	0xbfe9775f4e22dd9f	-0.7958218122575323
20	0x3fd774625d16b411	0.3664785298413458
21	0x3fd4c44ff8296c55	0.32448195681144415
22	0x3fe3d06e3584baf4	0.6191931767733352
23	0xbfe06de4d440ec56	-0.5134147782877203
24	0xbea48a9591479e88	-6.121797775900055e-07
25	0xbe8bc613cd18f50f	-2.069304856788753e-07
26	0xbea2c2fb391cc055	-5.591406184498555e-07
27	0xbfc97f8045e1ec3f	-0.19920352375251757
28	0x3fe22d8dca445653	0.5680607748533454
29	0xbfd3bb7f6b07c583	-0.30831895305808404
30	0xbeb0ae4b6d34415b	-9.942554484756352e-07
31	0xbe8419cc56642cb8	-1.4976243818023754e-07
32	0xbe7bea71414ab5b2	-1.0399442402594049e-07
33	0x3fdf7b64b2b3062d	0.4919063325033644
34	0xbfea170a5b98ed5e	-0.8153125561724825
35	0x3fc8fe257c701817	0.195255933533361
36	0xbfde411baea10125	-0.4727238850937446
37	0xbfbf149fde184106	-0.12140845463023106
38	0x3fe921df6892501a	0.7853848497784413
39	0x3fe65dd51b8ef353	0.698954156708718
40	0x3fcc006185c44eb7	0.21876162559111886
41	0xbfe0e2e9006ba387	-0.5276989944660365
42	0x3ff29743fd3e9ec3	1.161930073963888
43	0xbfe082ecde5e8db3	-0.5159820883895264
44	0xbfa6bd0db95f7591	-0.044411114576841666
45	0xbfca0f904a64f232	-0.20359996445212541
46	0xbfd00e166279ea87	-0.2508598291093808
47	0x3fd29a2229ef46f6	0.29065755934890036
48	0xbfe23136d0d87541	-0.5685075835241734
49	0xbfc56bca6e2726c8	-0.167352012429822
50	0x3fd87cae022ddcc6	0.38260984623725525
51	0x3fdc4b2b6fd42317	0.4420879928662073
52	0xbfe0a4092a7a34f9	-0.5200239019046925
53	0x3fd6906af081811c	0.3525645588579367
54	0xbfe53314c90aae74	-0.6624854971500569
55	0xbfdaaa775146cc7b	-0.416654424068106
56	0x3fe1b81cc2402747	0.5537246507603663
57	0x3fcf0524e2f6001b	0.2423444851119719
58	0x3fa393111d1d00b1	0.038231406024807575
59	0xbfddec0fc0ea36e0	-0.4675330528196877
60	0x3fe4e4a048195726	0.6529084594901391
61	0x3fa31a5dc70799db	0.03731053404390013
62	0xbff0e47a042fe1f7	-1.0557804263645474
63	0xbfc9fa8cfca87f19	-0.20295870148492481
64	0xbfbd67777a9c0d16	-0.11486002677343196
65	0x3fd61fe22f225c76	0.3456960163397932
66	0xbfe106d917fbb497	-0.5320859402105665
67	0x3ff0afdfe932e0d4	1.042938147480574
68	0xbfee8df1bdd48cf2	-0.9548271854040691
69	0xbfd21518e7f5bc85	-0.282537676356647
70	0x3fd52d065a024761	0.33087309637004664
71	0x3fc98a71d21f4703	0.1995374942767328
72	0xbfe3298f9d62628b	-0.5988233636772561
73	0x3ff014ec7ddb807c	1.005108348494132
74	0xbfdc3af984587437	-0.4410995285450698
75	0x3fda8b086df3654c	0.4147358964670118
76	0xbfe6ce89a58166b4	-0.712712119343641
77	0x3fe180dddc0b8d6d	0.5469807908779508

decoder1.bias f8 [26]
0	0x3fbdd41e1d646c7e	0.11651790826401684
1	0x3fb8a6590ba59212	0.09628826650948266
2	0xbfadb65b004cd5df	-0.05803188685096549
3	0xbfd03fc4ec263ab4	-0.25389216481645893
4	0x3fcb31adb6de856e	0.2124535696903353
5	0xbfaf7d037a72cdbb	-0.061500652978249325
6	0xbfc39fa384df8e65	-0.1533092879100081
7	0xbfc25d7012e15be0	-0.14347649499788329
8	0xbe8b376a06f3c2ba	-2.0277844068425479e-07
9	0x3fb9e0b08dde29fe	0.10108474219865823
10	0xbe529a77e9d914a2	-1.7325759152251934e-08
11	0xbfd764eb5d8f90a1	-0.3655346311263746
12	0xbfc483c47581f9a8	-0.16027122247392112
13	0xbfca6eb77762f03c	-0.2065038044873989
14	0xbfc3ab3a023430e9	-0.1536629210244265
15	0x3fd0addfd711a81d	0.26061244967297786
16	0x3f8fbb8cfa159d82	0.015494443304034492
17	0xbf6ae0fde7f43c6c	-0.0032811125853480696
18	0xbfc85fea06bc6ceb	-0.19042706803234152
19	0x3fdd1e3f8261db7f	0.45497119648592127
20	0xbf206b7977f808bc	-0.00012527330180495632
21	0xbfa3754b93180834	-0.038004266458316144
22	0x3fd25a7dbcf55172	0.28677314236599394
23	0xbfa599866219f57c	-0.04218692729498749
24	0x3fc1ce1295202099	0.139101336302933
25	0xbfcb879110262251	-0.2150746659138059

decoder2.weight f8 [50, 26]
0	0x3fcb0ed7b98f8deb	0.21139046249946544
1	0xbf86bcca4c21ddc2	-0.01110227627599059
2	0x3fa181dfabe6ad6f	0.03419398282434371
3	0x3fa422be4a028508	0.03932757047119578
4	0x3fa22a5ae8315097	0.03547939381010783
5	0x3fab45ac9bbe14eb	0.05326594735292097
6	0x3f9a1fb1169e4749	0.02551151943732258
7	0xbfc77f493708ef39	-0.1835719603276347
8	0x3e93b977d341367e	2.939177250513738e-07
9	0xbfaf8bf9ed1a57b8	-0.06161480922052881
10	0x3e93d49f37b7bbce	2.9549828869842314e-07
11	0xbfc0477b08178830	-0.12718141455758447
12	0xbfa9262c4d387c66	-0.04911936228403917
13	0xbf9eaa1d0802be86	-0.029945806135116125
14	0x3fc8f17eeb714ba3	0.19486986633509415
15	0xbfb3ede211d0b30d	-0.0778485578054637
16	0x3fb3b6e975037d55	0.07700976473596673
17	0xbfa7b2fe520f9776	-0.04628748656959562
18	0x3fafe2ce37e5b70a	0.06227726394977935
19	0xbf8826ca67dfeb21	-0.011792737288478574
20	0x3f41829873be7724	0.0005343670268193918
21	0xbfa602ef409adba0	-0.04299113906511498
22	0xbfb887edf4fdfe49	-0.09582411986593188
23	0xbfae72aa89e3a943	-0.059468583423795816
24	0x3f9ae1649046ca0d	0.026250430398883796
25	0xbfb5bc2df22b7438	-0.08490264093730182
26	0xbfca076b27c5e103	-0.20335139696158686
27	0xbf90f4a4cd56f310	-0.016558241875588797
28	0xbf82eed8e8a33ab3	-0.009244627570663999
29	0xbf90d63ae57009bd	-0.016442222837221843
30	0xbfa8441e13987104	-0.0473946951790101
31	0xbfa50c8981e3bcd2	-0.04111127577368169
32	0xbf98b574f584d2ef	-0.024129703030854207
33	0x3fc7fba0fdc1925e	0.18736660376011377
34	0xbe85f15c67920ee2	-1.634867208591027e-07
35	0x3fa4ee60a983af6d	0.04088117665545963
36	0xbe896cf7ccacd79e	-1.894359001553725e-07
37	0x3fc3c52baaa1311e	0.15445466834570082
38	0x3f888acad9e9f68b	0.011983475470738433
39	0x3fbc26ad90f4b341	0.10996517933808737
40	0xbfcef876567c0537	-0.24195746634362944
41	0x3fb0fb5b1fc3b4c2	0.06633538747310566
42	0xbf9d88785643c8c0	-0.02884090448873944
43	0x3faa77a2bdc41e4f	0.0516939980171257
44	0x3f545051cdde5e8c	0.0012398527974023825
45	0xbf97256a5ae1c6b8	-0.02260366611193973
46	0xbfa6eddc0c92d5f1	-0.044783474478588554
47	0x3f90ea6bbb5657cd	0.0165192444888687
48	0x3fbba7ee6bf5fedb	0.10803117881550454
49	0x3fb2d63cb74acf05	0.0735814998141074
50	0xbf8ca96eed68978f	-0.013995043392309529
51	0x3fb79d188a79f19c	0.09224084263582316
52	0x3fc3e3f3a0a7adf0	0.15539403290254894
53	0x3fa6bab6e240098d	0.04439326774447059
54	0xbf5e83caa30344f7	-0.0018624762415593835
55	0xbf8a14f343e15185	-0.012735271939313684
56	0x3fb0694c14265731	0.06410670749604887
57	0x3f94adfe35c134db	0.020194980650832455
58	0x3fa1b6cccbd13973	0.03459777820590917
59	0xbfc4931e19e2ec01	-0.16073967231736222
60	0x3e5460e9e11d77b5	1.8979021083337812e-08
61	0xbf971dfdb33080ac	-0.022575344144684692
62	0x3e713835df262e44	6.41479045769041e-08
63	0xbfc451b0b89ce818	-0.15874299063017427
64	0x3f951c49387d0d9d	0.020615715096267462
65	0xbfc3ec2995992810	-0.15564460568049343
66	0x3fcca0cbf73708f0	0.2236571271042247
67	0xbfac40fedd3c6c76	-0.055183376795150105
68	0xbfa03c74db7e5e41	-0.03171124629369305
69	0xbfa16e16c9cf0110	-0.034043037543144306
70	0xbfafeaefa4ac1be7	-0.06233929524574205
71	0x3fada860f5eb0522	0.05792525293282781
72	0x3fb6ea2c1e32cadb	0.08951068627610985
73	0x3f7c0af65221bf1d	0.006846391859752801
74	0xbfbcd3aebbece793	-0.11260501945517225
75	0xbfb3014e880ff2c1	-0.07423868963082737
76	0xbf982d8512909181	-0.023611144312000846
77	0xbfb3d5f780f1df5f	-0.0774836244398762
78	0xbfb2326b3e1e3ba3	-0.07108183161311259
79	0xbfb18b51c6ab067b	-0.06853209591192837
80	0xbf7772fdcffeee41	-0.005724898772253407
81	0x3fa8569d14f67cb2	0.047535809334698156
82	0xbfb725c215f0c0f9	-0.09041989360480675
83	0xbf4a0093590bd952	-0.0007935256454334827
84	0xbfab30511a6974db	-0.05310300300036782
85	0x3fbb6f39649696e0	0.10716589647071428
86	0x3e76555fbc7ce0ce	8.319874133806532e-08
87	0x3f8799945710137f	0.011523398310609554
88	0xbe5eddcd74e6eb0a	-2.874659026941417e-08
89	0x3fc0ffc530b3926f	0.13280548933029787
90	0xbfa38f09c75625b8	-0.03820066984469456
91	0x3fc43dbca47d7353	0.15813406020870477
92	0xbfc21201d48388bc	-0.14117453457499163
93	0x3fa8bfde959d68bb	0.04833884788850314
94	0x3fb54a41b5950e6f	0.08316431697044789
95	0xbf6ffa9a79bc3550	-0.0039036767101438344
96	0x3fb96f61c4ac6bf1	0.09935580302810344
97	0xbfb87cd5e692f882	-0.0956548393178043
98	0xbfc076043b63ae43	-0.1286015787112423
99	0xbf962dc4557315b2	-0.02165896197836554
100	0x3fbe1617a8b00db2	0.11752460354187269
101	0x3fb1498b32c142f0	0.06752843846448875
102	0x3fb4433e6b5f5179	0.07915105935473389
103	0x3fa9012444286899	0.04883683521275479
104	0xbfa10a22d1215f8a	-0.03328045657025232
105	0x3fb73983c3d0867a	0.09072135477665624
106	0x3f9f72152fd19f6a	0.03070862869608907
107	0xbfb6450356efc872	-0.08699055550076354
108	0x3fbe594dc99627e8	0.11855016871973556
109	0xbf8b58934592ed68	-0.013352537689903257
110	0x3fb23236d3b40a3a	0.07107870739495406
111	0xbfa5d5645738cf94	-0.0426436764213626
112	0xbe81f22631f05700	-1.337073393953625e-07
113	0xbf84d80192fb99a3	-0.010177624033030968
114	0x3e77791944df4b0a	8.744389498543698e-08
115	0xbfb451c28036e4c3	-0.07937255506739675
116	0x3fa5f16cf5246b48	0.04285755627116444
117	0xbfbe7bda9b56286b	-0.11907736103435844
118	0x3f91df1b4c593ad1	0.017452646765657335
119	0xbfabe3916d154a57	-0.05447058159429179
120	0xbfbc908eb4cc3610	-0.11158077157980295
121	0x3fa9214179038dbc	0.049081846258356404
122	0xbfb9a99eb79e1417	-0.10024444563721634
123	0x3fc08719f07c4969	0.12912296526389902
124	0x3fc4e2867b8b7986	0.16316300423109115
125	0x3f98ac17310585f0	0.024093973509826172
126	0xbfbf73257b304ed4	-0.12285074479614916
127	0xbfabca8a105e1af9	-0.054279627321241315
128	0xbfc1d907d5b1ca21	-0.1394357484274034
129	0xbf8b53bc423c7026	-0.013343306323399483
130	0x3fc13b7c6d938ce1	0.13462787008675206
131	0xbfbc3821cd0e72b2	-0.11023150688419994
132	0xbfb1489ed1517dc0	-0.06751434908209486
133	0x3fc04cc9536e191b	0.12734333585485377
134	0xbfc2c55482ab2880	-0.14664703731824957
135	0x3f92859a11920b39	0.018087775537888737
136	0xbfb55500a7256aa7	-0.0833282859870602
137	0xbf87115f00dc318a	-0.011263601506947624
138	0x3e74c36b1045f787	7.734951529798822e-08
139	0x3f8ae09fe22a5ebe	0.013123749818347515
140	0xbe8c856b16da9c1d	-2.1249924080543918e-07
141	0x3f8b75d9158eb879	0.013408370943434488
142	0xbfa200544464a481	-0.0351587613570894
143	0x3fac0da5774b383d	0.05479161339972947
144	0x3fbbc9c1494c4f16	0.1085472873640437
145	0x3fb1fb3034bdf720	0.07023907935760265
146	0x3fba69b6fd143e9b	0.10317557982147678
147	0xbfb4c8d8ebaf9d21	-0.08118968729069255
148	0x3fada6ad47fe92b5	0.05791226867521485
149	0xbfc40e6c20afd6ec	-0.15669013591803294
150	0xbfc88e4321a23e00	-0.1918414987780892
151	0xbf8f97eb96f02a93	-0.015426483672873281
152	0x3fc097fc6f19a9e4	0.12963824677292657
153	0x3fa88556879808c2	0.04789228825758719
154	0x3fc7b9436d93dfff	0.18534129000158825
155	0xbf913a56c252c522	-0.01682410775237487
156	0xbfca7eec7e11ede8	-0.20699840694201943
157	0x3fc0a685ef819daf	0.13008188433307796
158	0x3fbb044c59c629c2	0.10553433601140852
159	0xbfc5b6e045821397	-0.16964343446684602
160	0x3fc54ed351fdee5f	0.16646806243430753
161	0xbf8d4d00a4de5866	-0.014307026893032492
162	0x3fb5c968f320eb87	0.08510452209240614
163	0x3fa37011e555793a	0.037964400524958156
164	0xbe85a2fb807d9ad0	-1.6120560552696772e-07
165	0xbf92c5ba265d83bb	-0.018332394210464047
166	0x3e76a0b50f83b354	8.429498510641566e-08
167	0x3fa842b4a0f6a898	0.04738392319571111
168	0x3f99bf145a235ad0	0.02514297294768647
169	0x3f8198464b13d059	0.008591221967869144
170	0xbfc9530ecde3a183	-0.1978472237890508
171	0xbfb99480aff149f9	-0.09992222114059492
172	0xbfaeebafc0bf95bd	-0.06039189556012612
173	0x3fb74d546b84f4a7	0.09102370858177498
174	0x3f94a578a3651d58	0.02016247269901092
175	0x3fc5cece827e017a	0.17037373897256797
176	0x3fcc84516c60616b	0.22278802673168782
177	0xbf6f3de8755cdcb2	-0.0038136997417513524
178	0xbfc173d2f1885f24	-0.13634716790760948
179	0xbfa95b9d0d61189c	-0.04952708042451201
180	0xbfc9a3dd9fe73973	-0.20031328494810516
181	0x3f9dba1d7ce791b9	0.02903028559548357
182	0x3fce2ccd33d260a7	0.2357422354732581
183	0xbfc2c74553d4b4ae	-0.1467062625246504
184	0xbfc053a49656ca11	-0.12755257931492328
185	0x3fcabab40903633e	0.20882273140048285
186	0xbfc6e94a1e12ecaf	-0.17899443119481392
187	0xbf55d61393c66e2e	-0.0013327780899094021
188	0xbfb0d1edc787b408	-0.06570325967159374
189	0xbf99e013463eb7a0	-0.025268841898359207
190	0x3e7c45983a68fbd5	1.053208636770037e-07
191	0x3f93810e2d688e1f	0.01904699470664017
192	0xbe794cae9eeff5ea	-9.424812906496574e-08
193	0xbfb7a5c2aa621464	-0.09237305316681127
194	0xbf936294574f8529	-0.01893073828603523
195	0xbfa8ef49d83ef440	-0.04870062603684078
196	0x3fcbaefcd92b63ef	0.21627770046214276
197	0x3fc0bf9757eca1c2	0.13084689896756002
198	0xbf8067481932f19a	-0.008009494084370062
199	0xbfb02cb1e6de2040	-0.06318199049394568
200	0xbfbcdc8a6e2398d5	-0.11274018467847509
201	0xbfc633931f168d12	-0.173448934726459
202	0xbfd01a4007a12093	-0.251602179956998
203	0x3f996b0df063629c	0.02482244281495359
204	0x3fc25e3afac3e024	0.14350068325416132
205	0x3faf754e614a5cb5	0.06144185006740469
206	0x3fc64db3cf3d9490	0.17424628848235502
207	0xbf936541a063915d	-0.018940949835170574
208	0xbfcbf7d4c119af3b	-0.21850070408560804
209	0x3fc4a5be942900d7	0.1613081191480947
210	0x3fc091cd55aef807	0.12944952663195883
211	0xbfceaf9e4586851c	-0.23973444361494323
212	0x3fc6c24ecb3fe4e4	0.17780480312629898
213	0x3f9a6ca3cecab182	0.025805053230827386
214	0x3f927c2fdd467cba	0.01805186069543361
215	0xbf953503bbc18fab	-0.02071004708740502
216	0xbe6694699eb00b91	-4.205803690734161e-08
217	0xbf940043f0949fcb	-0.019532262381431836
218	0x3e8222c510f4b848	1.3512238481713763e-07
219	0x3fbdd0d24113e1a0	0.11646761025247665
220	0x3f9c041b89477605	0.027359419111112632
221	0x3fa7fa1bda3c8479	0.046830053701577286
222	0xbfc37cca969cb057	-0.15224583009819767
223	0xbfc46b3aba4bb5c8	-0.15952238174888422
224	0x3fb3d71a47509670	0.0775009559734714
225	0x3f7588989eda24eb	0.005257221387759285
226	0x3fc7f7ef2f6764ab	0.18725385489122934
227	0x3fc561537b0a91fb	0.1670326567447232
228	0x3fd1c0df62a6bd87	0.2773970092193498
229	0xbfa4e4c8b15725e8	-0.04080798306274486
230	0xbfc276c071ee3910	-0.14424901545539415
231	0xbfb3ff348cb98e39	-0.07811287341751773
232	0xbfbbea3988db002c	-0.10904273596952468
233	0xbf8bb1bea4d2ab20	-0.013522614865299654
234	0x3fc4b5d37e6b4071	0.16179889366913217
235	0xbfc60568fa64c659	-0.1720401022553684
236	0xbfb99ad848210612	-0.10001899491273772
237	0x3fd0a80d211b0248	0.26025703652343113
238	0xbfc5264f35da5390	-0.16523161057980618
239	0xbfac82369e8e2034	-0.05568094907272361
240	0x3fa95d04f2a86a39	0.04953780614978993
241	0x3fb780fe407c2c6a	0.09181202959386928
242	0x3e436ed3e68835d2	9.049158936959879e-09
243	0x3f9268bb7bc95bf5	0.017977647238094325
244	0xbe653a687755bb11	-3.954052278208727e-08
245	0xbfbf021cdd2bd567	-0.12112598800361739
246	0xbfac2fdfb44f3cae	-0.055052748451651964
247	0xbf7a8d4efdced34b	-0.006482418594647775
248	0x3f96051c08467bd5	0.021503866200528982
249	0x3fc60e1337bdc335	0.1723045370267983
250	0xbfc0a55c8ca488d4	-0.13004643313713038
251	0x3fb3f57eec0c3dde	0.07796471846471983
252	0xbfcb8b63768ca067	-0.21519130028287067
253	0xbfc414602fbb18ca	-0.15687181788070453
254	0xbfd2dfab46003026	-0.2949016746140408
255	0x3fa623b4ce99d3d9	0.04324116727813249

decoder2.bias f8 [50]
0	0x3f7e29f5760d1fa6	0.007364233810967768
1	0xbf8740b6fd2b1680	-0.011353902436336272
2	0x3f95a4639acdefba	0.021134907077324995
3	0xbfa5a8439d948238	-0.042299378381589425
4	0x3fb12ce6f8cac6ba	0.06709140371347191
5	0xbfb864d29110d8b0	-0.0952884296574179
6	0x3fbda46e3a632a5e	0.11579026151154312
7	0xbfc04d39f5ae63b7	-0.12735676284935746
8	0x3fbee6b5a0a773f1	0.12070784733027985
9	0xbfba0c584b9ec1c3	-0.10175086828417705
10	0x3fb1aa536c36ad05	0.06900521652157827
11	0xbfa1846dcd0dfc42	-0.03421347740276605
12	0xbf4a04658f8d58db	-0.0007939811613180374
13	0x3f9a0b319527b924	0.02543332550879386
14	0xbfa44101f614afbc	-0.03955846909442992
15	0x3fa3015ae7553c50	0.037119713534246146
16	0xbf99662d32554296	-0.02480383510311642
17	0x3f77a4b202019713	0.00577230009375797
18	0x3f860c42e00d2fb4	0.010765573942670283
19	0xbf9852eaf28286e5	-0.02375380616343294
20	0x3f99632f43f67963	0.024792421839828004
21	0xbf905a8c58e40d3a	-0.015970414090600495
22	0xbf7913e687b6956b	-0.0061224942286676005
23	0x3fa0232de06694f2	0.031518396036782095
24	0xbfad4822b7c038ee	-0.057190976076627695
25	0x3fb2adff3872e6aa	0.07296748283524815
26	0xbfb40579f206d618	-0.07820856245856367
27	0x3fb0f23d8ba9720c	0.06619629535402555
28	0xbfa588284c32cd40	-0.04205442361981193
29	0x3f7ee823383ad72e	0.007545602394818647
30	0x3f986161e2281663	0.023808984211447625
31	0xbfa9418a83b88df7	-0.049328163699353604
32	0x3fae4f1a0997e2f0	0.0591972481451587
33	0xbfac9b0fdd2d4089	-0.05587052893554396
34	0x3fa213e20e5b73a8	0.03530794549235533
35	0xbf79b231a71f8ca8	-0.006273454624508158
36	0xbf9c016848f545e7	-0.027349118664750007
37	0x3fab348fa0395114	0.053135383900242555
38	0xbfb215e8246a945c	-0.07064677132673708
39	0x3fb2bfed43170b5d	0.07324107063236114
40	0xbfb0ec5cd710aa3f	-0.06610660791981447
41	0x3fa80120d2e1cba9	0.04688360761874517
42	0xbf9a6ec1a4a3532b	-0.02581312720652133
43	0x3f761b8948ecc133	0.0053973543825097
44	0x3f75ea41bc99898b	0.005350357803396109
45	0xbf84b77f83bee0f6	-0.010115619857842689
46	0x3f6787171c0b8562	0.0028720332487501147
47	0x3f822ad700f71e54	0.008870773045500581
48	0xbf99a0573edfec83	-0.025025714123313236
49	0x3fa1f7a0564e877f	0.03509236386822944

classifier1.weight f8 [3, 3]
0	0xbff1cacefa999a56	-1.1120137967169703
1	0xbfc956ecbfa5926a	-0.19796523435356345
2	0x3ffa180058902159	1.6308597049229177
3	0x3fd2da52bcafb36a	0.2945753901138263
4	0x3febfd730c0d02ec	0.8746886477821056
5	0x3fd224bff8a5bb0f	0.28349303514453167
6	0x3ff4e2b1adc65aad	1.305345228965659
7	0x3fe77dc8f736e2e7	0.7341046169668431
8	0xbff4d47f415078f6	-1.301879172453082

classifier1.bias f8 [3]
0	0x3fde0e7d410e00d7	0.4696343550967987
1	0xc0020be8a7bfa285	-2.25581484845708
2	0x3fe6e11e82b3dc59	0.7149803688797746

classifier2.weight f8 [4, 3]
0	0x3fef8ee9e077a5a2	0.9861955055359213
1	0xbffebc0cd5d72552	-1.9209106782094136
2	0xbff4e6c71874114d	-1.3063422160349376
3	0xbff8b6e8814eb097	-1.544655327898942
4	0xbfec57e24eca952a	-0.8857280291455585
5	0x3ff06d25d72b7de6	1.02664741564501
6	0x3fd41ac19f220a69	0.3141330770523952
7	0x3ff71dcd27365d44	1.4447757274372899
8	0xbff1ca62b7ce678f	-1.1119105510647136
9	0xbff13ffc4ca44b7b	-1.0781214708156017
10	0x3ff2f4da1621cb57	1.1847782959491349
11	0x3fd5d2e73e5d9017	0.34099751558665176

classifier2.bias f8 [4]
0	0x3ff6c6413895a2da	1.4234020433743155
1	0x3fecc7d2c0c17261	0.899392487026102
2	0xbff748983845b33b	-1.4552232931266207
3	0xbff090d7f9310b9e	-1.0353622182890159

predictor1.weight f8 [2, 3]
0	0x3f8923f0821b4a6a	0.01227558037809225
1	0x3f6e047fb4a2d9b3	0.0036642545938676218
2	0x3f6b89df8c05f778	0.0033616415168457557
3	0x3f71b4ea87b2d188	0.004322925694556175
4	0x3f7e15750ccdfb40	0.007344681955941124
5	0x3f68599a60c94ef8	0.0029724135586465215

predictor1.bias f8 [2]
0	0x3f6d63574ac43076	0.003587408535286991
1	0x3f70018b54caa10f	0.0039077227235469044

predictor2.weight f8 [1, 2]
0	0xbf8042ee414b54b1	-0.007940160148260796
1	0xbf737f59c12668f1	-0.0047601228747231475

predictor2.bias f8 [1]
0	0x3f4b17ef2c285263	0.0008268277964043721
