Trained_models/6/predictor4_200_9.pth (torch, 357143 bytes, 16 tensors)

encoder1.weight f8 [104, 200]
-0.08569458146775649 0.0910854823736047 -0.09004702029582308 0.058178774822987035 -0.06448850001356699 0.027525724390936222 -0.025464175692098426 0.08498359181914777
-0.1273718869591399 0.13883058497737422 -0.13364447003937935 0.090596441384281 -0.0289158845000545 0.02351592061963886 -0.015976834511710215 0.047074619097595374
-0.06226529353558216 0.11628656728606207 -0.1283141027893037 0.08717369449081416 -0.027375614055679856 -0.03056776433469068 0.03845300065350163 -0.04449941106818
0.028080981182447638 0.0023958730216054745 -0.024650053560981433 0.05376747329432563 -0.021953785938467887 0.03559795409590853 0.008256787587004745 -0.025982348676219777
0.0018158244810277664 0.03381370748595831 -0.06020792531229633 0.10154908199369608 -0.08160619698343141 0.027837858236401655 0.06706260770935782 -0.11891631593752827
0.15664469994439867 -0.09248368944530025 0.04334847057698415 0.027684205054857393 -0.04128006491363954 0.015601775527669547 0.0739405406080569 -0.11718737604521413
0.10186058702646264 -0.03588549743398452 -0.05082954555890965 0.105805929031154 -0.11670435624343489 0.07830223802666647 -0.019115440949548125 -0.01106747424220613
0.017008688036945694 0.03498421444601491 -0.0639160340390034 0.1293992070099386 -0.14595529252528439 0.13106032930146003 -0.051341877799711486 -0.013597972176722551
0.04940314184576634 -0.028515882784986582 0.02664827185602577 0.040048470917863836 -0.05423221205923378 0.026348517344074906 0.03177619411196654 -0.0687839168818531
0.1079187641458621 -0.0773970632160477 0.02288075050885014 0.05680770994253423 -0.09154421406088804 0.12188141557380475 -0.058870932890492424 0.00028595537176748286
0.07367027139819203 -0.07255977724613796 0.09902492032963298 -0.09111145458165172 0.028553067296908298 0.02136454401562271 -0.03691146425614026 0.0020618942858871823
0.0596621950568076 -0.13910771042931971 0.2039221203428891 -0.17895646312836191 0.0661342935643049 0.06029787999424291 -0.14005898253644258 0.0822254388485254
0.004416380958622117 -0.14583177662134267 0.20204376755097525 -0.2101939936747294 0.1529960679902122 -0.06162122982164941 0.01643649624781876 -0.036946100865473196
0.07871327522644138 -0.09953427435726317 0.0950915675239171 -0.08885230077485913 0.09211542782663353 -0.05601821399978744 -0.0030828882274374116 0.05342826488297077
-0.08240512860000786 0.08313356401619887 -0.0564182057731215 -0.005699636296851612 0.04735929321391897 -0.07306635743837936 0.07237075194559847 -0.0023249625008677833
-0.07409890111957264 0.12614853319096114 -0.0754753873306227 0.02982385494631523 0.017782535143385087 -0.04284355706605636 0.001147175481382489 0.0592109383023353
-0.14911156071482612 0.2088602163260901 -0.21545611656137353 0.16873304928154229 -0.11637796825045671 0.11113790952008416 -0.10379870265069734 0.10270801059595351
-0.09419649902471718 0.1015618025310982 -0.07400230478614143 0.009076562777539682 0.013909266394235294 -0.02773218215586183 0.012614298343258959 0.006648853815208716
-0.016021047180256986 0.005304987941336531 -0.012416647518019372 -0.00269445353504816 -0.01386238965450033 0.05850387771437457 -0.07699717007654183 0.09312117023908742
-0.07372975752038778 0.05221248599646226 -0.03933163978180222 0.02388629965770475 -0.01761837051419181 0.04097992154482356 -0.06389854906739559 0.07240612017244526
-0.008293357970152196 0.01672999767443526 0.009762394148410177 0.01729276599582149 -0.031530754780289605 0.07459453748632419 -0.07199818377181591 0.09170339161657264
-0.06606193599313223 0.060102096313955945 0.032511319050047706 -0.03906854667950958 0.04453465723849519 -0.022150720360457687 0.021755353537980908 0.009763736996757425
-0.002081300827877423 0.008572748936632126 0.058554462021993846 -0.11342328976516186 0.15126033221738946 -0.10125917976757845 0.05026564237338702 0.025757199829946977
-0.02379857253124495 0.0012732198049704901 0.015453183853865408 -0.041078890701235105 0.06174307537085018 -0.036953228088783145 0.016831575909866336 0.01125569093796705
-0.04454776413661326 0.044016240159699474 -0.03707565813656026 0.05199017028658493 -0.031807825452470684 0.013461554280918109 0.022057683037648792 -0.029955486523459914
-0.03927406194914577 -0.01598313048830522 0.06252276616561214 -0.053590704426243314 0.08440665688962136 -0.06261059340261951 0.0954108595015101 -0.06472025837961505
0.0502681638565622 -0.01894519206981934 -0.0020682180349445734 0.00681670453758107 0.05133894932245772 -0.06510299274627132 0.07573932575603554 -0.014521298911611124
-0.07115492680412124 0.11437128976491379 -0.14305118004245695 0.11716567087003738 -0.06754451463781243 -0.0034958541762634206 0.050314565639658866 -0.04671293977544984
0.002495926818941357 0.0708619028602319 -0.08771464329032658 0.1285764217282095 -0.1105379169346731 0.06382678122777434 0.02334637568858666 -0.10053937305324734
0.11201867378407848 -0.11669964885319613 0.0467134370865618 0.03238672522153891 -0.09375322059563497 0.12254935076263077 -0.06743539373648422 0.003076873816182971
0.07763356772270416 -0.05846451339515537 0.02192835003860541 0.05425605280454377 -0.06401224311134225 0.12423369897414832 -0.13912106236357233 0.06899119673896054
0.007125154664638344 -0.08480847878908783 0.1367678365719303 -0.1354963254618917 0.09470430570870898 0.01102248350210877 -0.03773653801364334 0.06250792192297681
00000000: 2c32 d980 14f0 b5bf 405d efcf 6051 b73f
00000010: c5d6 454f 520d b7bf 8d45 5fbe 9bc9 ad3f
00000020: e8bf 867e 5182 b0bf d62a 3b18 b42f 9c3f
00000030: d4c5 44e7 4713 9abf 8452 8f13 7cc1 b53f
00000040: 1bac 75d4 b84d c0bf 94c8 145b 33c5 c13f
00000050: 2221 0e12 431b c1bf ce24 e110 5431 b73f
00000060: 70f3 0c29 209c 9dbf ef99 fcb7 8e14 983f
00000070: 8db6 e236 3b5c 90bf 52dd fd1a 2a1a a83f
00000080: 4c84 d28e 3ce1 afbf 742e 75db f4c4 bd3f
00000090: fd3d 8cb5 986c c0bf c2d7 e8e6 0351 b63f
000000a0: 94e9 4e5c 5a08 9cbf 856f 84f0 274d 9fbf
000000b0: 6cce 7a98 1cb0 a33f bf4b 7576 a0c8 a6bf
000000c0: 46d7 45bf 42c1 9c3f e1c2 bd88 82a0 633f
000000d0: b066 8e17 dd3d 99bf 407e c606 6987 ab3f
000000e0: e733 84a2 0d7b 96bf b6f9 4a21 e539 a23f
000000f0: f4e7 3f45 efe8 803f 6cbc 59e7 1d9b 9abf
00000100: 7efb b8b0 1ec0 5d3f 190e 9ebf 0750 a13f
00000110: 0d47 5abc 92d3 aebf 1a0c 1ae2 1eff b93f
00000120: 90dc 31cb 24e4 b4bf cc36 dd0a 8781 9c3f
00000130: 5a6b e5da 032b b13f c898 e9b7 4c71 bebf
00000140: a82c adfb ee0c c43f 6ebb 94d5 02ad b7bf
00000150: 5766 eb4e c531 a63f 0a34 4e8d 3f59 9c3f
00000160: 1dca 8f21 a922 a5bf 59fd 34dd d2f3 8f3f
00000170: 219a c26b c4ed b23f 8945 9eeb fdff bdbf
00000180: 52af 0712 8913 ba3f 3262 c27b 955f a2bf
00000190: a52e b187 5406 aabf 6565 e9ec 1816 bb3f
000001a0: f0c4 5d31 56e0 bdbf 3034 878f 9d0b b43f
000001b0: ea5f e886 ff92 93bf 0b56 5b3f 8baa 86bf
000001c0: 6958 77bb b96a 913f 4901 d871 73e9 a13f
000001d0: fa35 e31b cd5c b0bf e935 1e39 2790 c03f
000001e0: b47f 09bc a9ae c2bf af8d 13ba 95c6 c03f
000001f0: 4646 218c 7b49 aabf 07d9 53ee 40d9 8bbf
00000200: a12c 185d 5e4b a93f 948f e97f 4433 9dbf
00000210: 5558 7740 af49 9b3f 37ae b1b1 3b81 a43f
00000220: 5f48 5e12 53c4 abbf 33df 2911 1bfb 9a3f
00000230: 2226 0125 f844 a03f 4d93 7fa1 d29b b1bf
00000240: 5097 a16a 90a0 bb3f 32c2 513f 4bd0 b3bf
00000250: b2e3 922c 0d6e 973f 0c49 ba70 e615 ad3f
00000260: c58f 870d 716f b7bf 7a32 e1d5 9e33 bf3f
00000270: e53b e6b6 5424 aebf 0a8a 48f8 88bd 323f
00000280: cfb9 570e 0edc b23f 12f7 460e 4793 b2bf
00000290: 0206 4e7a b259 b93f 691c b88d 1453 b7bf
000002a0: 3a7c f6e8 033d 9d3f c03c 5d47 96e0 953f
000002b0: 95ba a737 0fe6 a2bf bd7d d210 1be4 603f
000002c0: 1233 2711 0b8c ae3f b92a 750d 48ce c1bf
000002d0: 26df e6ba 1e1a ca3f 85a6 459e 0be8 c6bf
000002e0: 69b4 0054 2dee b03f e8d2 2f1d 5ddf ae3f
000002f0: ada5 c0e6 73ed c1bf 28f0 c0f2 b90c b53f
00000300: b818 8b3c e916 723f 0233 a79b 9daa c2bf
00000310: fafb fef6 91dc c93f 1e05 5304 a3e7 cabf
00000320: 769f 370a 6095 c33f 7f85 a55d d18c afbf
00000330: 487e 6197 bad4 903f 3b25 dd6d 99ea a2bf
00000340: 0bce db9e 8d26 b43f b20e 3205 147b b9bf
00000350: 57fe a3c4 eb57 b83f ad9b 003e 06bf b6bf
00000360: c9f1 f86d e094 b73f 6d05 385a 6bae acbf
00000370: 0870 a603 4941 69bf ea71 b514 f35a ab3f
00000380: d315 5ca4 8018 b5bf 6845 a6c2 3d48 b53f
00000390: bf9c 63d9 d8e2 acbf 46b8 e777 8058 77bf
000003a0: f1e9 072f 7a3f a83f 4cbc a20f 7ab4 b2bf
000003b0: fe13 cbbc e386 b23f 0d1d fbbc cc0b 63bf
000003c0: e964 fa44 25f8 b2bf 9a2c 3f98 a225 c03f
000003d0: c4ea 3ce0 5a52 b3bf 4050 8a06 258a 9e3f
000003e0: f5f2 85bb 9535 923f c0d3 e238 97ef a5bf
000003f0: fd4a 384b 9acb 523f d6e3 2567 e550 ae3f
00000400: a0e3 5c6e 1616 c3bf 642c 477b eebb ca3f
00000410: 8058 2de7 1094 cbbf 0b94 3568 0b99 c53f
00000420: c452 9c4f f2ca bdbf af0c bcb6 8873 bc3f
00000430: 5781 4041 8d92 babf d3fd 8b7a 124b ba3f
00000440: 9977 b502 431d b8bf 1cd5 644c f4ff b93f
00000450: 0796 e2a6 d0f1 b2bf 5026 51a2 bb96 823f
00000460: 845d 3222 767c 8c3f 84e3 9f3d d365 9cbf
00000470: a830 c576 86d5 893f e046 131b d43b 7b3f
00000480: a05c bf46 d267 90bf 2d60 6bdb aeba 753f
00000490: 6b77 2038 e66d 89bf 0534 09ba ad12 66bf
000004a0: 2714 af71 e263 8cbf 4ce1 f162 38f4 ad3f
000004b0: 0801 5d27 16b6 b3bf 2afc bdfc c9d6 b73f
000004c0: 77c5 4a11 f4df b2bf 5667 984f 98bb aa3f
000004d0: 622d 1fd5 4623 a4bf c8c0 686f a675 983f
000004e0: 6447 abd4 8c0a 92bf 71c3 a7fd 51fb a43f
000004f0: e29d 81c2 a75b b0bf fdbf 2b1e 3589 b23f
00000500: c8ed 0baa 1bfc 80bf fad3 7e23 ab21 913f
00000510: fedf c85c 4efe 833f b642 a3e1 31b5 913f
00000520: d8f6 3291 cc24 a0bf 42c9 f6aa a018 b33f
00000530: 6add ab14 796e b2bf f3ea ec9b df79 b73f
00000540: bed7 995e 6fe9 b0bf b5d0 2db4 b3c5 ae3f
00000550: c5b9 23d8 52a5 a03f 46dc 94e4 ca00 a4bf
00000560: f67c c120 3fcd a63f 53c0 1fae adae 96bf
00000570: 0e8d d50f 0947 963f 22da b398 02ff 833f
00000580: 56d5 a4df cd0c 61bf a1a6 8ee2 968e 813f
00000590: 6bb3 d6b6 d9fa ad3f ec66 2508 4f09 bdbf
000005a0: e523 07a2 7f5c c33f 4683 8521 1fec b9bf
000005b0: 8d56 3614 6bbc a93f 27e8 9f6b 1860 9a3f
000005c0: 1f4c da2a a75e 98bf 57e7 115b 45dc 543f
000005d0: 02e2 2b3a eba5 8f3f 784b 3cd8 4a08 a5bf
000005e0: aacc f1d2 c99c af3f 97f3 3e94 88eb a2bf
000005f0: 10c5 4af0 4b3c 913f f094 c743 390d 873f
00000600: 0742 27ec f6ce a6bf 1a24 f5ef 4b89 a63f
00000610: 1631 59a6 94fb a2bf 114f 30a2 749e aa3f
00000620: 9885 2684 1d49 a0bf 4075 1e3b bb91 8b3f
00000630: e7c4 160d 4a96 963f ffec d0ab a6ac 9ebf
00000640: 5529 4ed7 ba1b a4bf 5a9c f0ba e15d 90bf
00000650: 78cf eff3 7d01 b03f f9b8 c2a5 3d70 abbf
00000660: 81d6 e7b6 ac9b b53f ae22 0c73 3f07 b0bf
00000670: 3a03 3e99 d86c b83f c90d 21c1 8191 b0bf
00000680: 927a 96af bfbc a93f 37dd 6c51 5e66 93bf
00000690: a452 461a 5ef1 60bf e0f0 e230 d5eb 7b3f
000006a0: acb0 b348 1949 aa3f ba8a b7f8 96aa b0bf
000006b0: e4ac 2407 a763 b33f b9d1 5dbf 57bd 8dbf
000006c0: 75ae 9293 3537 b2bf cc42 24d5 6f47 bd3f
000006d0: 37e1 f745 804f c2bf 28c8 99c4 91fe bd3f
000006e0: d1c2 64e9 984a b1bf 11f3 796b 56a3 6cbf
000006f0: 819b deab d4c2 a93f 0a6a 4529 c2ea a7bf
00000700: a520 f081 5672 643f 8b28 5173 0124 b23f
00000710: 2cf0 4f84 7774 b6bf a0ff 2d33 3175 c03f
00000720: 8acf 3382 364c bcbf eb73 fbb1 f356 b03f
00000730: 9f1c 40c0 1ce8 973f c05a 39c7 f2bc b9bf
00000740: 10a4 717c 41ad bc3f 1d77 4737 07e0 bdbf
00000750: 5b1d 24d9 d2ea a73f 2956 4d2b fe94 a03f
00000760: 5959 5a08 3600 b8bf 82e9 abed 645f bf3f
00000770: d0ea b02a 7243 b1bf 54f7 420d ac34 693f
00000780: 4ad9 7022 cbdf b33f 637a 048a 0fef adbf
00000790: 488e 15a9 6274 963f 29a6 cf08 73c7 ab3f
000007a0: e9f1 b43a 1b63 b0bf 0cb3 279a c7cd bf3f
000007b0: 1fa6 840e b8ce c1bf 34ab b435 68a9 b13f
000007c0: 668e 3724 442f 7d3f a998 d22a 02b6 b5bf
000007d0: 724d 9cc4 9b81 c13f b722 4b8f f157 c1bf
000007e0: b52d cf97 8a3e b83f 404d 4cb1 f492 863f
000007f0: 1706 4419 3452 a3bf 676d 66e8 8400 b03f

encoder1.bias f8 [104]
-0.10418686774599452 -0.1327314181476518 -0.0812219108578421 -0.5412283163228173 -0.13623083735612962 -0.2562804135358129 -0.1398359322409582 -0.17519966724859895
-0.26669169113272373 -0.20363985145297886 -0.12539019152731704 0.2099666172676248 0.4479198345498144 -0.1049437789670557 -0.1403918412045947 -0.1462671316011877
-0.8252883864936954 -0.12105161906291792 -0.131713467536793 0.12809994120173218 -0.15696113962779817 -0.2171307460050218 -0.0971282385968169 -0.09659457183572771
-0.13735425908443502 -0.10545324292653731 0.2570609090413901 -0.13342677859345867 -0.19786142193898743 -0.4628178847338955 -0.5416055027878819 0.09324406969461604
-0.12774835621733435 -0.14559894475927065 0.1260010897314963 -0.14551464106867146 -0.6708040881204692 0.20682809234075145 -0.14454837693694933 -0.13267579539981722
-0.16836385789780342 -0.12284496855391572 -0.46329596930460215 -0.2029472146105512 -0.14283824815386406 -0.2742469617650756 -0.2422126426103761 -0.11823107236598915
-0.6169376042639444 -0.10906954618394804 2.030161336765646 -0.16831963510090736 0.04934779765097895 -0.18117137634743538 -0.1449956093301158 -0.16671865341068293
-0.16138846635036763 -0.4847273784207401 -0.1975459822748275 -0.16002494480581214 0.15216567437940465 -0.03162009630286437 -0.3034954655419313 -0.09613550601168472
-0.2521549553597996 -0.14566819476435006 -0.2153296285334018 -0.14487778626661602 -0.17472736376230677 -0.18549679901188587 -0.15727888591653422 -0.1893374023218864
-0.25809749345585953 -0.16752504633294965 -0.18868342113017472 -0.20058230128685026 -0.20123924140971164 -0.433361207628775 -0.1256371935417248 -0.18713958073232084
-0.23662901594388971 0.16320252867691543 1.079416640844406 -0.5975905546055156 -0.7396859541228059 0.44813264764337873 0.1398916510631397 -0.16700790506550836
-0.33330335413995393 0.19411378367400828 -0.13154155875758733 -0.19023484372630203 -0.28678138882038384 -0.09357609003795249 -0.14210645042533093 -0.22337123875192688
0.1005291632877959 -0.17954792610625173 -0.3933982423999897 -0.08546414560184834 -0.0958105012736448 -0.2440315710802414 -0.129370081947779 -0.3057544523867879
00000000: 0148 a495 fdab babf 5145 0cd6 57fd c0bf
00000010: 1562 da8a f5ca b4bf 12d2 c80b be51 e1bf
00000020: e05c 9317 0370 c1bf 8e77 aff6 e566 d0bf
00000030: 4aea e3d1 24e6 c1bf 0929 8d54 f16c c6bf
00000040: 38eb e106 7a11 d1bf 5690 13e3 de10 cabf
00000050: 21ac ec29 c90c c0bf f545 35a5 2fe0 ca3f
00000060: 79c1 27f4 b7aa dc3f 3c08 9572 98dd babf
00000070: b4aa 4c1f 5cf8 c1bf 6279 5aa1 e1b8 c2bf
00000080: f949 b830 c368 eabf 06ca 0029 3dfd bebf
00000090: 47b3 c1a5 fcdb c0bf fc5c 0a31 9465 c03f
000000a0: 42de b878 4d17 c4bf 7019 86b6 f0ca cbbf
000000b0: 139a 4a70 65dd b8bf 3f6d 01ff 6bba b8bf
000000c0: 61f2 5d09 d394 c1bf 3d6a a0d5 fbfe babf
000000d0: 566b 5a99 af73 d03f d119 3cf1 2014 c1bf
000000e0: e21a 2fe8 8553 c9bf 14e7 bbe7 ce9e ddbf
000000f0: c6d7 3910 d554 e1bf d662 e2e5 d7de b73f
00000100: 631d 09e2 0e5a c0bf e65d 0979 fca2 c2bf
00000110: 191d d4bf cd20 c03f e253 3d48 39a0 c2bf
00000120: 3d04 9022 3a77 e5bf 36b1 3fca 5779 ca3f
00000130: 7829 d1ab 8f80 c2bf a843 1b3d 85fb c0bf
00000140: 35ee bf67 f28c c5bf b2ce 6a92 c472 bfbf
00000150: 6c0a 2223 a4a6 ddbf b486 c8a0 2cfa c9bf
00000160: e529 3812 8648 c2bf 35bc f320 438d d1bf
00000170: 073b 58e9 d200 cfbf aed4 2e3d 6444 bebf
00000180: 358f 3fee f3bd e3bf 9880 d955 fbeb bbbf
00000190: c418 183a c53d 0040 023b 0470 7f8b c5bf
000001a0: eec6 1452 1d44 a93f ef17 31a8 9f30 c7bf
000001b0: dc76 1154 378f c2bf f419 046e 0957 c5bf
000001c0: 1c95 7694 60a8 c4bf cabe 72fb c505 dfbf
000001d0: 5ecd a9ce 2f49 c9bf fe19 3e88 b27b c4bf
000001e0: 1844 8431 2a7a c33f e6ca 085f 8230 a0bf
000001f0: 3429 bf3e 786c d3bf 16fa 4d26 569c b8bf
00000200: 06dc b289 4e23 d0bf 5e45 4a62 41a5 c2bf
00000210: bd94 34d8 eb8f cbbf 924b f7f4 5a8b c2bf
00000220: cfa6 895c 775d c6bf e865 a2ee 5bbe c7bf
00000230: 3271 aeeb b621 c4bf 8ae8 703f 353c c8bf
00000240: b0a3 6459 ab84 d0bf 4965 a1f1 7571 c5bf
00000250: 6a97 8641 c726 c8bf fb7a 174c aeac c9bf
00000260: 5566 431c 35c2 c9bf cdb8 87a5 30bc dbbf
00000270: 9622 b62a e114 c0bf f827 8495 30f4 c7bf
00000280: e7bf 610e dc49 cebf 785b a509 d2e3 c43f
00000290: 5bf5 3262 4a45 f13f f0bb 0d3a 761f e3bf
000002a0: 8593 c8e0 81ab e7bf 297c 798e 34ae dc3f
000002b0: 3b5a 2639 f8e7 c13f b504 37d9 8360 c5bf
000002c0: c467 6b97 d754 d5bf 6695 4a70 b8d8 c83f
000002d0: a4df 7692 5ad6 c0bf 139c 2e88 9d59 c8bf
000002e0: c870 8553 a05a d2bf ed8a 6646 9af4 b7bf
000002f0: 0250 904e 8b30 c2bf 803c a7c2 6d97 ccbf
00000300: 1686 9d7c 47bc b93f e571 582b 6dfb c6bf
00000310: 875b 5ad2 6f2d d9bf 602c 576e fae0 b5bf
00000320: 726b 9579 0987 b8bf df95 7d30 6d3c cfbf
00000330: 60f5 85e7 328f c0bf a0e3 661f 7b91 d3bf

encoder2.weight f8 [9, 104]
0.17763162705994467 0.19081647884718037 0.19019589088248504 0.29740747400129297 0.20130806337791765 0.18660800291937707 0.1105550318185474 0.18319374552972942
0.17773688850127203 0.19101934026842002 0.201126376555952 -0.045601443961599576 -0.07082356342156186 0.2280214482092246 0.09257773226537307 0.1904526122642245
0.3031594381916982 0.17546514357424406 0.20529937151250688 -0.12368652213019256 0.19699792218101825 0.18161634020215817 0.19230756110671166 0.1960537648695192
0.19674134070064517 0.2070986436681507 0.09023888023319919 0.017320358924537045 0.20262705231958703 0.14952667051514804 0.18214754205796044 0.03642153819120339
0.0209194416411756 0.19148870828243947 0.22269340495623396 0.188051805010137 0.048458330329365265 0.011630158561746325 0.1510653875009716 0.1826175532124812
0.18782251406135672 0.1795218870566742 0.18102312383320215 0.1908863973870873 0.20808938264889745 0.3240097692013829 0.12931709560019405 0.20417261655981675
0.2168221653869939 0.1970717159168433 -0.39818097831874005 0.14573209612941157 0.02396921356090307 0.11214560550626297 0.1858915019933198 0.20260942906912224
0.16709505754739148 0.34095852205653254 0.18392291240919215 0.1410679467811523 0.029120080086256283 0.2151947474023819 0.21075991735337501 0.09984675230601175
0.2071745861807234 0.19030205073012454 0.16565934408415234 0.18845735400130936 0.14364879723182983 0.18694083865426753 0.18348257551533842 0.18086711354153567
0.20463806350603073 0.1816526533466566 0.21488811541686414 0.20688779859605988 0.2296653546245284 0.27122861605222454 0.1636289448536991 0.1856425390810831
0.12471728360429565 0.4281183369493398 -0.15868545636390172 0.2574013381147787 0.22016899545820173 0.17745562700896517 -0.33213105340136245 0.1001803562290615
0.09151059440040991 -0.239808259941709 0.23411797269357051 0.21295974374548385 0.011153095787389286 0.14045107418453412 0.19689391016582342 0.1622169364636019
-0.3134998603232748 0.17617194571209668 0.17593990594303005 0.19980095182017002 0.21345299760325548 0.32428262277064107 0.22359466672831635 0.1772296568046249
0.1691287916189326 0.15983015768210046 0.29379546622137503 0.04575619867785183 0.19530791367498124 0.31336952453690325 -0.03932141432811036 0.11552558447637427
-0.0959806228603071 0.23883593296548097 0.30666227441938815 0.33789759858426643 0.25432676016590233 0.2944311485851574 0.4147866542715222 0.23805969091504184
0.5873755655268672 0.016544506470620803 0.2691326763835132 0.024200042352992546 0.13612080851733463 0.1554703932388168 0.2669673083795984 0.3235898441296033
0.1516496821520601 0.3373779353835585 -0.10144149691189823 -0.033123367034573935 0.2541151526520825 0.5701920456130133 0.4001984996209599 -0.2689034405881368
0.2327752629156339 0.2455542968934173 -0.18845427651465102 0.014596210778645483 0.518527974758468 0.36546621744122904 0.23622778605019576 0.3001628658586479
-0.01237400770869439 0.2155101022260317 -0.022181120918354908 0.3124571760729231 0.29890144298396815 0.047304686859349646 0.06711291173488572 0.3397489414859212
0.5189367366154305 0.2809902973386599 -0.1516939253677187 0.2266265476961723 0.04462520731641467 -0.05743299621892303 0.23384978781322716 0.22857381956360784
0.05377672013048703 0.24482875321931916 -0.012744068478135952 0.031003540412341386 0.16111961486660545 0.18370865202353057 0.07014127442778034 0.2144061192514206
0.3473756367999571 0.24429346967768162 0.04795665218218985 0.201122644780276 0.3723753027669043 0.20748906329275946 0.27171606589604413 0.28693246835515357
0.26933295631508963 0.2038084757946743 0.07828648247067002 0.09144151210497763 0.31812047627866924 -0.20913318861832214 0.29417217210137103 0.2286004495709216
0.29237534781616553 0.07989973576863237 -0.20509159174230432 0.37382090611627045 -0.024950388299079 0.1890395430080515 -0.054689212624638564 0.10086236474658276
0.11782021580423732 0.5466867856705259 -0.03920265144380035 0.2807930069116288 0.44030442832352373 -0.04566045724698209 0.39423780109609025 0.0005598387976711662
0.16410423347601694 0.07931732215891485 0.24792446564583379 0.18289009664898437 0.20135527445554466 -0.14053156811426806 0.3092302080456294 0.3710320810385124
-0.012844568272085105 -0.014991140345754269 0.05524516627595389 0.0003783242270278742 0.06672711172092802 0.08519748267178752 0.017695907399090147 0.05081201213816863
-0.05240597707304565 0.04892318107549421 0.047301461653041284 0.4257010182274011 0.2680238759493188 0.051507249235620556 0.0931136140813345 0.04625261382813935
0.03373421476788134 0.09758976136861476 0.09830653732215941 -0.17780698815785356 0.0453708162983481 0.06806343487903202 0.05635327963287192 0.06288833651192316
0.028512363290891192 0.12238681995881932 0.1629591749404531 -0.15736103587527958 0.06952313085395166 0.05738081226339302 0.11251107670395986 0.08807579616319003
-0.13710479265119313 0.010805824974279659 0.27283161140179946 -0.008331810725288975 -0.19220938009249397 -0.21006120487459248 0.03454318522379093 0.07079650048054664
0.0033739185304316527 0.02263947437648245 0.14432867589713816 0.06267392930526061 0.05467713878524477 0.5830742485511623 0.08098167210773327 0.11624498770343472
00000000: ee96 7a16 a2bc c63f bddf 17a4 ac6c c83f
00000010: f940 96c5 5658 c83f 3efa 9a5b b908 d33f
00000020: 518b 506e 76c4 c93f d8f4 da62 c5e2 c73f
00000030: 76a3 11a6 554d bc3f 37e3 f084 e472 c73f
00000040: 01f0 b315 15c0 c63f 339d ad5d 5273 c83f
00000050: 9cdc d554 82be c93f 0d4f ee8c 1259 a7bf
00000060: cb89 ae38 7e21 b2bf c62e 6c8b ce2f cd3f
00000070: 3be9 6a9c 2cb3 b73f 186a 8e4e c060 c83f
00000080: f473 20d8 f666 d33f 21a2 9e4e a475 c63f
00000090: 988d 44f3 3f47 ca3f fd51 817f eba9 bfbf
000000a0: dede 9258 3a37 c93f 8632 cb48 343f c73f
000000b0: 5c09 ddbe 889d c83f 2ca6 2f2e 4a18 c93f
000000c0: ab4c 0afc d12e c93f 95e2 cc56 3582 ca3f
000000d0: 6be3 6d2f e519 b73f 1221 8b9c 6dbc 913f
000000e0: 51ae 7fe9 aeef c93f 9d04 df9f b023 c33f
000000f0: d3c5 1754 9c50 c73f 7c6e cd06 d8a5 a23f
00000100: 5137 ccf6 e76b 953f a02c d0b5 b382 c83f
00000110: 5234 a9ad 3781 cc3f 9174 3ce0 1412 c83f
00000120: ba7e f7bf 87cf a83f 4426 5c75 8dd1 873f
00000130: 1ae7 6f51 1c56 c33f 1090 5c11 0360 c73f
00000140: 9f4a ac71 910a c83f 328d e9bc 92fa c63f
00000150: 6378 5706 c42b c73f b6af 0329 f76e c83f
00000160: 9998 8f42 aca2 ca3f 127c 9378 93bc d43f
00000170: 2651 356c 768d c03f 0f7c 6e0b 5422 ca3f
00000180: 0e49 b126 d4c0 cb3f 3e2b 6a5f a539 c93f
00000190: 652b f111 cc7b d9bf 9a3a 6d6d 59a7 c23f
000001a0: ba6f 6bb1 628b 983f c91d 0a0c 93b5 bc3f
000001b0: 4733 d5f0 4acb c73f 3f47 db13 1bef c93f
000001c0: dfa0 beef 5e63 c53f 8c9e 61b1 43d2 d53f
000001d0: b12a e436 c98a c73f 742e f8b4 830e c23f
000001e0: b36d 827e a7d1 9d3f 799e 2e61 808b cb3f
000001f0: 8292 2b54 2efa ca3f 4c21 c487 8e8f b93f
00000200: 75b1 1a64 b284 ca3f f1b1 1f4e d15b c83f
00000210: aa22 8f4c 5334 c53f 342b 10de 5e1f c83f
00000220: 8637 1c73 1563 c23f 3a48 276a aded c73f
00000230: 88b3 9c66 5b7c c73f aa99 ca50 a726 c73f
00000240: df38 237f 9431 ca3f 8481 ade6 6440 c73f
00000250: 4cdb 012a 7481 cb3f 6cac 74a4 4c7b ca3f
00000260: d77b 91a1 ac65 cd3f d7c0 eb44 cf5b d13f
00000270: 16ae 6913 cbf1 c43f 75c1 0c7d 22c3 c73f
00000280: 668f 53ce 78ed bf3f 0dfb 0074 4a66 db3f
00000290: 8786 b716 ce4f c4bf 4293 4976 4379 d03f
000002a0: ee06 8b65 7f2e cc3f aa51 3fb1 ddb6 c63f
000002b0: 8912 169b a241 d5bf 4f98 b479 6ba5 b93f
000002c0: abf1 2f02 3d6d b73f be51 e17c 09b2 cebf
000002d0: 61f6 0fe6 93f7 cd3f ab2d 60cf 4342 cb3f
000002e0: eb78 3f2d 6fd7 863f 2ec3 2701 4dfa c13f
000002f0: 92cd 78d4 d133 c93f 28f7 7b4a 86c3 c43f
00000300: ece5 d8b7 6110 d4bf af2f a764 cd8c c63f
00000310: b216 0be7 3285 c63f a17e e3dc 1393 c93f
00000320: 0636 f885 6d52 cb3f 2981 dde6 0bc1 d43f
00000330: de3d 9402 c09e cc3f adb7 ed1d 76af c63f
00000340: 395c 6822 03a6 c53f da5e 148a 5075 c43f
00000350: 7791 c87f 8bcd d23f fc40 d241 5b6d a73f
00000360: 1428 f186 d9ff c83f 8cbd dc0c 3f0e d43f
00000370: d6b5 24b9 ef21 a4bf 5f64 2daf 1593 bd3f
00000380: 3317 3ca4 2f92 b8bf 4723 9904 2d92 ce3f
00000390: 8516 e3cd 5aa0 d33f 3f3f d43f 1da0 d53f
000003a0: 7d40 5abf e346 d03f b834 86be f5d7 d23f
000003b0: e975 ba52 dd8b da3f afec 7c6d bd78 ce3f
000003c0: 6b09 8dd7 c7cb e23f 270d e108 0bf1 903f
000003d0: 7989 d642 7839 d13f dd25 df59 e5c7 983f
000003e0: 378a 711a 686c c13f 3f7e 3a2f 74e6 c33f
000003f0: 7fdb a50c fe15 d13f 39ae 762d b2b5 d43f
00000400: c05c a5bc 4169 c33f 1552 b79f 9997 d53f
00000410: a3a2 b1e7 11f8 b9bf 6b36 4bc4 8bf5 a0bf
00000420: 6ec2 8333 6c43 d03f 871c 8b63 033f e23f
00000430: 4af0 f12a da9c d93f 45e8 c6c6 b635 d1bf
00000440: 712d c56e 94cb cd3f 1256 46bd 526e cf3f
00000450: 76fc 350d 451f c8bf 82b8 843f 9ee4 8d3f
00000460: 6dc2 b4fa c797 e03f 5ffc ec6a cc63 d73f
00000470: 57fc be4b b63c ce3f ab89 154f de35 d33f
00000480: da31 6f33 8b57 89bf af5b 82c4 d595 cb3f
00000490: c558 bbd3 a5b6 96bf d88e 2862 4cff d33f
000004a0: 7af9 9584 3321 d33f a250 04e6 5138 a83f
000004b0: 4569 0ad1 4f2e b13f ed16 2258 72be d53f
000004c0: 8499 0e37 219b e03f e605 64ba befb d13f
000004d0: 4e65 3ae0 b46a c3bf 3c56 6145 1902 cd3f
000004e0: 08a0 007c 1dd9 a63f 1c71 f190 db67 adbf
000004f0: fbcb 6a33 caee cd3f 1aae df2b e841 cd3f
00000500: 9b40 7e4c 9f88 ab3f 6745 1970 8c56 cf3f
00000510: 9412 a7ea 8f19 8abf b25e 8660 64bf 9f3f
00000520: d14f 4c4a 919f c43f a376 37de c383 c73f
00000530: 345f c44f c7f4 b13f e0a1 1fe3 a871 cb3f
00000540: 4ee9 de05 673b d63f 642d 7227 0245 cf3f
00000550: d60d 7f39 c68d a83f dd7c e806 63be c93f
00000560: 7734 ce38 ffd4 d73f a65e 8f6a 008f ca3f
00000570: 0690 34c8 cb63 d13f 79bd efff 195d d23f
00000580: 7fee c64b c03c d13f 1fc6 1769 6516 ca3f
00000590: 062f ee39 950a b43f bfd7 fcff b568 b73f
000005a0: 4e82 73fc 155c d43f badb cf56 e0c4 cabf
000005b0: 2065 a484 b7d3 d23f 5306 618f c742 cd3f
000005c0: 49bb 4117 47b6 d23f 5dd7 1520 4f74 b43f
000005d0: 3de0 9bf7 7040 cabf 6326 9585 aeec d73f
000005e0: 5874 1137 988c 99bf 2d68 6f9f 7232 c83f
000005f0: 8268 5577 3900 acbf 13da fbad 1dd2 b93f
00000600: 2ad6 af35 7729 be3f 5587 3349 757e e13f
00000610: 5637 bcb3 5e12 a4bf 7261 683b 83f8 d13f
00000620: a3be fb9f f22d dc3f 6040 31b5 ce60 a7bf
00000630: 8f7f a32f 313b d93f 491b dca9 4458 423f
00000640: f612 f515 5e01 c53f 28c8 add8 234e b43f
00000650: 73df e927 fdbb cf3f 4051 ef53 f168 c73f
00000660: 17f3 5477 02c6 c93f c99d 8d3c f0fc c1bf
00000670: b670 9f7f 6dca d33f 60f1 7457 fdbe d73f
00000680: b05c 47c5 404e 8abf de3a 1ecc acb3 8ebf
00000690: e1a8 d52c 1849 ac3f 71bf af2e 3acb 383f
000006a0: 8e11 992a 0715 b13f e9df c691 80cf b53f
000006b0: 4c63 353e e01e 923f 2c39 c134 0804 aa3f
000006c0: 658d 49cb f4d4 aabf e197 788d 750c a93f
000006d0: 91a3 b4ad e537 a83f 1147 ca7b af3e db3f
000006e0: 91f7 6f9d 4d27 d13f 80a4 f27d 285f aa3f
000006f0: a4ac 4a37 4bd6 b73f fa24 7e2f 6cae a73f
00000700: 565b 5e6a 9c45 a13f 51ad 8081 a4fb b83f
00000710: 0e1c c802 9e2a b93f dcb1 911f 61c2 c6bf
00000720: f771 63f8 d73a a73f cade dbf2 9a6c b13f
00000730: 6b4f 174a 56da ac3f 7859 9e34 7319 b03f
00000740: 72d5 764f 5832 9d3f eb3f 2f1d be54 bf3f
00000750: e0e7 79a3 d8db c43f 83df 5f0b 6824 c4bf
00000760: ef4f 5595 44cc b13f 26aa 2d90 0461 ad3f
00000770: ef99 e1a2 86cd bc3f 660e 17a8 228c b63f
00000780: f4e6 475c a68c c1bf 5676 f746 5d21 863f
00000790: 1049 12b8 1276 d13f 7712 a7b4 4410 81bf
000007a0: 2fa8 bd24 519a c8bf 2120 8c1a 49e3 cabf
000007b0: dbf4 abf5 a4af a13f d035 3c2e b81f b23f
000007c0: ce1c ecb7 9ea3 6b3f 90b7 2e68 cd2e 973f
000007d0: 6435 6daf 5c79 c23f 888b ad0c 660b b03f
000007e0: 28cc d755 a4fe ab3f 3558 9553 8ba8 e23f
000007f0: 3432 4701 37bb b43f c89a 8244 3bc2 bd3f

encoder2.bias f8 [9]
-1.5717048831693292 -0.8318410212002167 0.4981624763602326 -0.7942875885544434 -0.9950906691115011 1.3728047554307625 1.3342866511357376 -0.1578167969239078
0.04104518003865986
00000000: f4cf 0205 b425 f9bf 6ad6 b00f 719e eabf
00000010: ccf0 03de e4e1 df3f a2b8 0ece cd6a e9bf
00000020: dc6f 0c63 c8d7 efbf fbe4 851e 02f7 f53f
00000030: afe0 a1f5 3c59 f53f a319 c63e 5733 c4bf
00000040: ef54 d9b3 df03 a53f

decoder1.weight f8 [104, 9]
0.18983466023574058 -0.059149277828967554 0.16007313671339016 -0.014753386557208146 -0.18469223479253355 -0.07964730203589292 -0.09823556724907179 -0.022216130348822884
0.1509762592864235 0.0007944246214081055 -0.010076706127670662 -0.051242816571099165 0.021899928640045904 -0.012192357414083692 0.08101519663910715 -0.05513013079902528
-0.0007496122792897414 -0.01077047081407476 -0.09042853658090176 0.29940231866067535 0.04531467792441716 -0.046709399700841814 -0.11980805634306385 0.25793787923728645
-0.374032326444597 -0.07936404758066584 0.05788474118026513 0.11229075411026662 -0.09050394500926004 -0.21326841576082095 0.015227225546365675 -0.11330000125732019
0.10639064444106583 0.047292659232891894 0.20619535222141955 -0.019815733726005275 -0.11463703950525689 0.10833491424723754 -0.15559366149778925 -0.04974196034552586
-0.021691493196183565 -0.12658486373718347 -0.05959653370679463 0.15764487301128483 0.05916431166932126 0.3044456236442393 0.1618191160338632 -0.29240827520602514
-0.20954843039453883 -0.1940644527252378 0.03099287943096391 0.17961335642973694 -0.09873748791998634 0.005744197725467055 -0.03513914944778892 -0.09555099110969328
0.1633358666695336 0.14978434919314526 0.08778804588729203 0.05337122827362779 -0.09026681672560732 -0.46522063633562627 -0.007456740871325419 -0.25820432023081896
0.12277800697214243 -0.30555860513293776 -0.058155385025188626 0.11311670486615814 -0.0005232958348564863 -0.009942907373763242 0.2911291387424961 -0.03716484305622965
-0.10654486843562376 0.10060785088555689 -0.0435351881589148 0.1277946656608105 -0.039752893594676035 -0.051739405220354716 0.011498407672065615 -0.11161306126158856
-0.010792897547023292 -0.17459827866160077 0.12890812737679333 -0.18088731741508313 0.09449070704491877 -0.09277425857212665 -0.15223772276916356 0.14484488018747962
0.12147994725178225 0.018016159116371864 0.022731393349755432 0.04470752079622228 -0.0898223813395639 0.179270388299087 -0.2575026086978393 0.05830476485508442
0.26698633064827043 0.12907387519780716 -0.047941087570055954 -0.05714022414758691 0.3424162035070176 -0.13907470291217336 -0.09281082461703373 -0.11701195342511657
-0.051479701594577404 0.1683527679283755 -0.15034833994810587 -0.026102750362427606 -0.11619105151917972 -0.20666987015654997 0.016252220952324665 0.313751455974691
-0.01330296866151239 0.0805955118046468 -0.02327951672897763 0.09412625715067485 0.006175725013953725 3.0995728705175134e-06 -2.3512000584087596e-05 5.30786485089996e-07
1.2268674526862607e-05 -9.907897091291741e-06 5.7011721424229275e-06 5.6138135730945115e-06 3.4979174851999483e-06 7.3102807024058505e-06 6.954028974850948e-05 -0.0003990909798396247
-0.00033122813356514775 -0.00014868510570661337 -0.0004055593876116947 -4.943025423161166e-05 -0.0002850111676413216 -0.00024506275896584817 -0.00011617647743009664 0.27144914557921335
0.03565344137604229 -0.05748728738648407 -0.11257400869383381 -0.2693157326292942 -0.10978688504764299 0.18874286896190334 0.13231738397471376 0.06709263626477527
0.05060432426925112 -0.13092641471432553 0.28819546009508196 -0.03785147203515533 -0.1431231362001915 0.1570112982872943 -0.5576026646009318 0.19744907686079513
0.06343932888951008 -0.13875855557016573 0.15131686576817532 -0.09833527997896097 0.24943830553137053 0.03353584286009787 -0.08402042353351248 0.07150469327202146
-0.3082416952303832 0.005327716336134181 0.13083365375551068 0.1369690192915841 0.008966051921163424 -0.49057431708122035 0.11771741319469244 -0.09766573287283871
-0.0036638515158955707 -0.2587173218341309 0.10268040356760669 -0.00035068457474177363 -0.0006639722787161427 0.00016602563773105472 -0.0006105885328953819 -0.0012456259905033633
-0.00027296444987198764 -0.000309601604302237 -0.0005930029984112196 -0.0005784807363866034 0.053581528954167935 0.00016075025437570966 -0.010643117087645905 -0.009461001942089608
-0.025093592239441624 -0.03920848283178368 -0.0006497086680747144 0.015284101537577088 -0.005775046671299497 -0.05071296625724064 -0.2946146502478793 -0.0017458517490613402
-0.2896223032080201 0.2966196497021408 -0.3675582694250341 0.10893785273020966 0.36745787094636395 0.008718735908634208 -0.2007198948498432 -0.09752450651970185
0.08089695999387274 0.10685659343523699 0.09478996367913445 -0.2268079594054741 -0.11076574350473405 0.01901218077458982 0.11070098880253222 -0.47581619281365056
0.057887666560375826 0.11418246850141225 0.2351987491287579 -0.08636370364405896 -0.21634153134030112 -0.14768713787016205 0.23380951549673124 0.050642271371802994
0.19223882565305442 -0.09593158600072837 0.3266108511348053 0.21801307842789813 -0.3195599923559067 0.04344822315941683 0.009306757687026141 -0.27988802930188805
0.035993285673390295 0.15834073068166787 -0.16568761532531998 -0.11588408362787195 -0.01736190225611519 0.15734964010980249 -0.33531583111666735 0.49066927232284335
-0.3116028963873937 0.06096504109597249 -0.08793623062350962 0.3112917220065718 0.09570220847143103 -0.27871264482856445 0.06350974070638862 0.09050463545860665
-0.15464630653676834 -0.12212016345209856 -0.018828597559206565 -0.05838430962575416 -0.1025904164762564 -0.06516609946082835 -0.12725940993460827 0.04646330507684336
-0.038102391642330924 -0.013414509169146993 -0.06018048714871744 0.4599789293249142 -0.04964126029157866 0.08426277264440406 0.10961751515401354 0.03193725113096861
00000000: 300d ae8c 804c c83f 8701 b76b d048 aebf
00000010: 9379 93cb 467d c43f bfcb 2506 0637 8ebf
00000020: b229 21c2 fea3 c7bf 8b73 75fd c363 b4bf
00000030: 9086 a354 f725 b9bf 47df 2a45 d3bf 96bf
00000040: 02c6 0da8 3053 c33f ee9b 50e2 1d08 4a3f
00000050: cb71 289a 18a3 84bf 1cd5 a79a 7f3c aabf
00000060: ccc7 2c55 ef6c 963f 9c49 d682 4ef8 88bf
00000070: e741 0b74 69bd b43f 1fae 9c39 043a acbf
00000080: 058d b31c 3490 48bf f293 451f d40e 86bf
00000090: 0778 3d17 5326 b7bf 80a0 bf57 6829 d33f
000000a0: 65a4 6d47 7c33 a73f 5806 4360 4bea a7bf
000000b0: dc70 caa3 bdab bebf cd51 eee0 0d82 d03f
000000c0: 5b7c 6e48 25f0 d7bf 504f d6c4 3351 b4bf
000000d0: f502 9d9c 11a3 ad3f 4cf9 8b3c 16bf bc3f
000000e0: f647 f93b 442b b7bf ca31 7b23 614c cbbf
000000f0: 7af9 d79d 732f 8f3f 7f75 0998 3a01 bdbf
00000100: b088 79d2 6a3c bb3f 7906 7e51 be36 a83f
00000110: ca68 30fb 9b64 ca3f 959f 3261 934a 94bf
00000120: bcd8 955f da58 bdbf 1af4 b441 d6bb bb3f
00000130: f687 cc3b 7eea c3bf 888e d839 c777 a9bf
00000140: 7d1c 8477 4b36 96bf a4bc f5cc ee33 c0bf
00000150: b087 73d6 6f83 aebf dc96 fb0a b52d c43f
00000160: 6490 6bdf c84a ae3f da96 3d7f 097c d33f
00000170: 4bd5 9d21 7db6 c43f c1bc c532 d1b6 d2bf
00000180: ab80 bca3 7bd2 cabf 42b1 e29e 1ad7 c8bf
00000190: f26a 42ee 98bc 9f3f 7b2f e509 92fd c63f
000001a0: d56a 8129 dc46 b9bf e153 f655 3a87 773f
000001b0: 4b01 6033 c2fd a1bf 04a1 ea9d 0776 b8bf
000001c0: e402 ce8e 30e8 c43f aa5c 9e30 222c c33f
000001d0: 86cf 1002 4779 b63f f914 f73f 7953 ab3f
000001e0: 6021 c0e1 b91b b7bf be17 9fc6 2cc6 ddbf
000001f0: 815b d5a2 f58a 7ebf 22f2 c469 6b86 d0bf
00000200: 8d08 9d24 616e bf3f 8cab 03ae 458e d3bf
00000210: 67f8 89e9 8ac6 adbf 030c 0864 37f5 bc3f
00000220: a281 983f b925 41bf bfd1 fa6f f25c 84bf
00000230: 5bf2 731c dca1 d23f da96 f932 4507 a3bf
00000240: 1bd5 7c45 8646 bbbf 4739 46a5 6fc1 b93f
00000250: 2449 bc82 3e4a a6bf 5ae7 ce5a 935b c03f
00000260: 3f2d d2c3 7d5a a4bf 13fd ab5a 967d aabf
00000270: 61c2 4227 7a8c 873f a9ca ec6f ac92 bcbf
00000280: 05c7 f22f 961a 86bf 5a0d 6584 3c59 c6bf
00000290: 97ce a2bf 0f80 c03f c88b 47cc 5027 c7bf
000002a0: eea9 8800 8b30 b83f ba59 7ac6 0dc0 b7bf
000002b0: cf6a 4194 867c c3bf 4bfa b2eb 468a c23f
000002c0: 21f3 9050 4f19 bf3f f940 d1f8 d372 923f
000002d0: af6c 1efc e546 973f acf7 6877 e7e3 a63f
000002e0: 6961 4d7e 99fe b6bf e361 7103 55f2 c63f
000002f0: 5f7b bf38 ec7a d0bf 53d2 8144 1fda ad3f
00000300: 5b41 a7d5 4d16 d13f 720c 5f24 7e85 c03f
00000310: 0a02 7ff6 bb8b a8bf 61ff ffc3 7b41 adbf
00000320: 42b8 eba6 25ea d53f b3b6 5a2a 33cd c1bf
00000330: 59e8 7140 73c2 b7bf 0db3 33d1 7ef4 bdbf
00000340: 645a 8325 8c5b aabf fcc2 3860 958c c53f
00000350: 72e1 8a49 9d3e c3bf 83b1 91ec adba 9abf
00000360: bedb 5c5e b2be bdbf 9a0a b286 2874 cabf
00000370: 1510 e915 6ca4 903f a4f4 9efc 8014 d43f
00000380: 4b2e ba3a 963e 8bbf 5cc4 674f e8a1 b43f
00000390: 3811 12ec 95d6 97bf 6c33 288c a818 b83f
000003a0: a6a0 6c8f b74b 793f ec5c c534 4800 ca3e
000003b0: 563b 8d60 74a7 f8be 04de 0ed3 6bcf a13e
000003c0: 4404 97c9 b1ba e93e c1bb e001 43c7 e4be
000003d0: 88c3 0044 96e9 d73e dba9 2f53 c98b d73e
000003e0: 955a 5779 b857 cd3e 9b50 9da8 5aa9 de3e
000003f0: e9a7 b514 c53a 123f 8fca dfb4 a227 3abf
00000400: fd29 4d00 16b5 35bf 19fb 3355 0b7d 23bf
00000410: 28ca 6e4e 2894 3abf 5728 559a 6aea 09bf
00000420: 2d1e dea4 b1ad 32bf ac8f 0489 780f 30bf
00000430: 9bd9 3baf 7874 1ebf 238d b23c 6c5f d13f
00000440: 7c60 66f9 2a41 a23f c97a 8546 f96e adbf
00000450: 0f3a b875 a6d1 bcbf f63a fc0d 783c d1bf
00000460: c730 cf48 fe1a bcbf 12b5 c5f0 b928 c83f
00000470: be8c 6eaa c6ef c03f 2244 8fa6 fb2c b13f
00000480: e393 8b5b cfe8 a93f 3cb6 b05e 32c2 c0bf
00000490: ffb2 fd5e cb71 d23f c92e fea4 4461 a3bf
000004a0: 79f0 a3e2 db51 c2bf 038b 9f3b f218 c43f
000004b0: 60f3 138b e1d7 e1bf 6b0a dfe7 0246 c93f
000004c0: 7f52 dc52 8f3d b03f 5566 1b21 d7c2 c1bf
000004d0: 4e5d e7de 595e c33f e079 8d3b 802c b9bf
000004e0: 023e 502a 98ed cf3f 89e4 a728 9c2b a13f
000004f0: e1c2 45cb 5c82 b5bf d724 1daf 214e b23f
00000500: 4fcc 1160 3bba d3bf 9a25 d1f6 83d2 753f
00000510: 334d 0c3c 28bf c03f 0316 3669 3388 c13f
00000520: 0f80 341e cb5c 823f 9ec4 07d2 9165 dfbf
00000530: b946 d777 ba22 be3f 6df3 a018 9f00 b9bf
00000540: 3d80 054e a703 6ebf 52ec 0b19 d38e d0bf
00000550: da50 434f 4349 ba3f 1f3a 9cc7 82fb 36bf
00000560: e012 7c9c cdc1 45bf dd70 635e e5c2 253f
00000570: b842 dae3 fc01 44bf cfc7 1ab9 8868 54bf
00000580: 048e 9a62 95e3 31bf cc8d e8c3 404a 34bf
00000590: d892 073e 786e 43bf bdfd 0cec a5f4 42bf
000005a0: 853f 0ec5 096f ab3f 1245 b52b e211 253f
000005b0: 542f 8dfe 0ecc 85bf 26e9 6d2f 4a60 83bf
000005c0: 1ebe 0778 22b2 99bf ef00 fa5e 2213 a4bf
000005d0: 5285 9bbd 264a 45bf 8066 0562 454d 8f3f
000005e0: a3af 6049 93a7 77bf 2fb2 1dc7 0cf7 a9bf
000005f0: f92c ef67 f7da d2bf 1fd3 9d0a a29a 5cbf
00000600: 011f 1efc 2b89 d2bf 4196 b4fb d0fb d23f
00000610: 2083 a31e 1386 d7bf a3d0 c5e2 59e3 bb3f
00000620: c2d5 9704 6e84 d73f 6469 b8ec 20db 813f
00000630: 78b0 0484 30b1 c9bf 4c87 0fb6 5df7 b8bf
00000640: 33fe 84c5 a9b5 b43f 5e93 2a26 f45a bb3f
00000650: 4cac fdb1 2744 b83f 9e3b 0f10 0b08 cdbf
00000660: 83b5 decd 245b bcbf ce29 9cda ed77 933f
00000670: 59af 8a66 e656 bc3f d3ad c2c2 c573 debf
00000680: 03e8 6fc5 73a3 ad3f 3a78 fdef 0f3b bd3f
00000690: 47b8 c81b fe1a ce3f 7e71 b682 ee1b b6bf
000006a0: 75c3 ef4c 14b1 cbbf a799 9881 69e7 c2bf
000006b0: 18aa 465f 78ed cd3f f091 aca6 c8ed a93f
000006c0: adc4 9926 489b c83f 50cb 86f0 f88e b8bf
000006d0: 3722 0933 31e7 d43f 865b f940 dae7 cb3f
000006e0: 10d5 11c1 ab73 d4bf 79f8 1373 d83e a63f
000006f0: 373b 2edf 6b0f 833f 162f 197b afe9 d1bf
00000700: 0b83 af41 b66d a23f 5c85 f351 8244 c43f
00000710: 4955 9674 4035 c5bf f802 4f4d 94aa bdbf
00000720: d6a2 8b89 51c7 91bf 618c 2773 0824 c43f
00000730: 8d89 1e88 d075 d5bf b7d6 7117 2067 df3f
00000740: a6a7 5446 4df1 d3bf 16ba 6953 cf36 af3f
00000750: 3f57 a922 fd82 b6bf f328 621d 34ec d33f
00000760: 652e 8a9f f07f b83f 614d a18f 6dd6 d1bf
00000770: 8ab6 4fa3 2c42 b03f b85d 6ed1 4f2b b73f
00000780: ebe4 823e 73cb c3bf f27c 355c 4443 bfbf
00000790: ee3f fcca cd47 93bf c361 e258 8ce4 adbf
000007a0: c506 a693 5d43 babf f4fc fdb9 b9ae b0bf
000007b0: d881 e34d 094a c0bf 2ec9 89cf 09ca a73f
000007c0: c8a2 011c 2882 a3bf 4014 63f1 1079 8bbf
000007d0: 597a 5210 facf aebf ad2c 9376 4b70 dd3f
000007e0: 6e17 f84a 946a a9bf ef2a c7bc 3e92 b53f
000007f0: f1bf a7ba e40f bc3f 8667 4352 145a a03f

decoder1.bias f8 [104]
0.24942211640446518 0.014208936390614638 0.3138307798952818 0.08062848411466504 0.1357703983631625 0.10673095633622003 0.20735918751079352 0.02082708388319933
0.04642864478835064 0.04077004722393649 -0.633411868264645 -0.01127065079601693 -0.02795940575579136 1.88111112568318e-06 -0.00014651296458682655 0.1944102488466495
0.3313872501954307 0.08041060625728685 0.21524293950210124 -0.00037325820114260426 0.05154531691326978 0.07041487928329779 0.16871299330523462 0.031164459816672273
0.034910704885698904 -0.15495978000193267 0.039665744595225705 -0.07319146725953794 0.05419775303754386 0.23705304368647617 0.07653374799237976 0.06520788784839208
0.07532723804926066 0.0887531341104784 0.2619497009428062 0.12603796333937703 0.034398632598542214 -0.11065758661672692 0.04068025804383993 -0.0002750649145917099
0.24244999370163278 0.1036125361087952 0.11573251913916588 0.7415885595996499 0.01783497357378861 0.10049164630101298 -0.0014260660902065416 0.003554039428500727
0.15376333998858208 0.00014246488283591028 0.140475268141564 0.1406574415163543 0.06230649098502297 0.08192322018566894 -0.1095257264443496 0.13832025568312903
0.06813152112750977 -0.20122970259124798 0.03216680588813197 0.2651774878008582 0.010561902472177292 0.11185971929149215 0.14352608494682367 -1.117783205718502
0.041518038797114444 0.04571646101555086 -1.3018878629141124 0.07653711268432954 -0.1414100904334481 0.10658014263904124 0.4355177494310138 0.1364327112015898
0.04997921943015793 0.07455718426886253 0.11970621583328647 -0.2157339673215033 0.010472902433399713 0.21626025769827778 0.15701214696703736 0.0018854624910511343
0.2471288392249581 -0.10031891873669317 -0.0014356709004409757 0.5997649787923113 0.09383361979531174 4.599796022204753e-06 -0.051560996978386515 -0.241322937314301
0.07622704673254585 -0.0029447190631012765 0.053842630912871815 0.05607188533890409 0.08210235741274025 0.3188280089184868 0.07259336105147467 -0.6560630620585445
-6.831080350345323e-05 0.039140024964194775 -0.08630770004747383 0.08873312586044806 0.2211957449834472 0.15378299497684872 0.12652028264771042 0.1868440035503655
00000000: af9a 6d5c 10ed cf3f 957b de28 9319 8d3f
00000010: dd37 08b2 cd15 d43f d706 667e 11a4 b43f
00000020: d309 5ea6 ec60 c13f 9353 ef4e b852 bb3f
00000030: 9426 71f0 be8a ca3f a4f9 98f0 b153 953f
00000040: a258 edcd 7ec5 a73f bd63 f7c6 cfdf a43f
00000050: 8209 63f7 e844 e4bf 6a96 9624 1115 87bf
00000060: 9ecc 58f5 63a1 9cbf 4eb5 4a8e 4f8f bf3e
00000070: b8c5 5dc8 2834 23bf c1db 665e 6fe2 c83f
00000080: cca5 79de 7235 d53f 8c67 201c ca95 b43f
00000090: 8b9f eda4 148d cb3f 07ad 51c4 3b76 38bf
000000a0: fd13 cfd4 2564 aa3f e66d aca3 b506 b23f
000000b0: fdff 532a 6398 c53f 0328 d77e 93e9 9f3f
000000c0: 5e5d 87df d0df a13f 30de a6d9 b8d5 c3bf
000000d0: f8af 9d87 114f a43f 2fd9 390e adbc b2bf
000000e0: 1639 a0d1 cebf ab3f 807c 060f c157 ce3f
000000f0: 4fe6 aa38 b797 b33f 3b05 c0d1 76b1 b03f
00000100: af69 eb57 a548 b33f a308 6c80 86b8 b63f
00000110: ebc3 afad c8c3 d03f d56c 4c11 0322 c03f
00000120: 2a62 1394 b29c a13f 9cb8 923b 0e54 bcbf
00000130: a442 c8f3 0ad4 a43f c19e fccf d206 32bf
00000140: e494 eef4 9908 cf3f 22fb 0ae6 5986 ba3f
00000150: 4452 c978 a5a0 bd3f 0c2f 52ee 17bb e73f
00000160: 42d5 e5d0 5443 923f 1c51 620e d2b9 b93f
00000170: 862f 0ace 5a5d 57bf d9bf a663 5c1d 6d3f
00000180: 698f 4962 84ae c33f fba5 7406 54ac 223f
00000190: f14c 48f5 17fb c13f 243a a023 1001 c23f
000001a0: 14e8 37ea a2e6 af3f 1cff 7a8f ebf8 b43f
000001b0: fc2c 26c5 e009 bcbf 5d46 4467 7ab4 c13f
000001c0: 61c3 113f 1171 b13f e17d ce17 e5c1 c9bf
000001d0: 47d4 9ce6 2a78 a03f 355e 6fff aaf8 d03f
000001e0: 96c2 9c8d 7aa1 853f 45c1 18ac d6a2 bc3f
000001f0: 6a19 7c10 105f c23f 9c43 89a4 70e2 f1bf
00000200: cdc3 a735 da41 a53f 95bb e6e1 2568 a73f
00000210: 3868 245e 88d4 f4bf 83d2 e8ab ef97 b33f
00000220: 4837 ded0 b919 c2bf 87a6 0913 d648 bb3f
00000230: fb8e a8d6 85df db3f 9393 5b88 a076 c13f
00000240: f040 dd51 e096 a93f 2bda 1dfc 2d16 b33f
00000250: 12c3 210a 11a5 be3f c81e 24af 2b9d cbbf
00000260: 41b1 902b d172 853f 9a8b 1e87 6aae cb3f
00000270: 782a 265a f918 c43f be5b 29ef 33e4 5e3f
00000280: 4450 2ff5 eaa1 cf3f e7e8 242b 80ae b9bf
00000290: 9272 2ce4 a385 57bf 1d5f 2653 4631 e33f
000002a0: ec41 49e8 7a05 b83f 9353 8e4d fe4a d33e
000002b0: 19eb 8af7 3366 aabf fc10 c585 abe3 cebf
000002c0: 6e75 c9a0 9d83 b33f 693b 4d02 861f 68bf
000002d0: 1582 cde5 4291 ab3f 34e5 8243 74b5 ac3f
000002e0: 0421 03fc a804 b53f f9a2 d697 ad67 d43f
000002f0: 1370 9f7f 7a95 b23f 4ff6 74f6 77fe e4bf
00000300: fee1 04ab 42e8 11bf 7026 5f4e 290a a43f
00000310: fbcc 18ed 4218 b6bf 5379 a4d1 36b7 b63f
00000320: 01f0 5b65 2450 cc3f b6a1 0d43 29af c33f
00000330: f454 200e d131 c03f 6eec 591a 81ea c73f
