Trained_models/8/predictor4_50_9.pt (torch, 36037 bytes, 16 tensors)

weight f8 [29, 50]
000000 2e 25 92 15 36 62 91 3f ff 03 d2 2c 9a 13 99 bf
       0.016976208750326176 -0.02448883913575983
000010 c2 ca 7a 70 6d e0 bd 3f c8 72 2e 81 6e c6 ba bf
       0.1167057418449913 -0.10459032682269787
000020 3a 34 25 3f c9 84 90 bf 0c e4 2d b4 b9 e2 c7 3f
       -0.016131538848004313 0.1866066102773235
000030 2b d9 01 c9 be d0 c7 bf 26 5b c0 08 46 86 bb 3f
       -0.18605789961629546 0.10751760209710123
000040 35 d4 a3 20 d5 17 8c 3f 03 4f 61 5f 86 d2 ab bf
       0.0137173319421696 -0.05434055246646887
000050 3f b0 2b e6 3f 62 ac 3f 8b 5b 01 ba ec a6 a5 bf
       0.05543708500576416 -0.042289159494138216
000060 a0 43 2d cb 49 1b c3 3f e4 c0 ab c5 b5 ac cb bf
       0.14927027149908856 -0.21620819236660005
000070 8b 67 46 6f d1 b9 c3 3f 48 40 4d da ef 78 92 bf
       0.15410821851110898 -0.018039462756235275
000080 8b b0 1a 2a a2 07 98 3f c9 e6 28 5d 5b 33 d1 3f
       0.023466619319763054 0.2687595758212465
000090 01 a0 28 ed e7 d4 d5 bf d0 ac ed f1 1c 15 d0 3f
       -0.3411197486880156 0.2512886393148621
0000a0 1b fe e5 77 07 20 b8 bf 77 37 99 50 7e 02 96 bf
       -0.09423872639853707 -0.021493886632291983
0000b0 64 fa d0 0a 32 2d c4 3f c5 07 f8 81 77 c5 c6 bf
       0.15762925651684434 -0.17790120931755218
0000c0 f0 41 e3 81 ab d9 d1 3f 01 04 5f 38 ab 58 d0 bf
       0.2789105194506467 -0.25541191582675543
0000d0 a9 1f ab f1 b3 e5 bf 3f ce 36 a8 5d 75 07 b7 bf
       0.12459873819454849 -0.0899575570731159
0000e0 17 b3 28 85 ef c8 bd bf f2 fa a2 df c1 d2 d0 3f
       -0.11634728432609297 0.26286360587611945
0000f0 8a 0a 57 8c 6b 68 cf bf 25 58 ea 52 6a 61 d1 3f
       -0.24537414886988912 0.27157075974662553
000100 fe 77 fd 03 7d fa c7 bf 1f 72 d2 a6 0a 5b b7 3f
       -0.18733179755048462 0.09123293469242143
000110 e0 e5 88 27 38 ce bb 3f b2 83 05 16 7f 32 d0 bf
       0.10861540761188548 -0.25308205748120394
000120 7b de 38 96 81 d7 d8 3f ff 33 e6 d1 ff e8 c9 bf
       0.38815345449572874 -0.2024230742357815
000130 58 41 a2 86 ec af c5 3f 4d 9d 5d c1 0b 45 91 3f
       0.16943127225796206 0.016864951779465277
000140 ac 44 62 b4 6b 69 c6 bf 87 3d 32 be ea 74 c8 3f
       -0.17509218509488755 0.19106802260328612
000150 75 c9 65 88 f4 38 c9 bf 98 56 d9 2c 0f 1c c7 3f
       -0.19705063495673483 0.1805438012112759
000160 25 29 b8 56 7d 5e bf bf 0f 6f 7d 68 dc 9f a3 bf
       -0.12253554694340048 -0.03832901740562821
000170 41 ab cd 51 43 dc c8 3f 1e 8e a4 f8 44 64 d1 bf
       0.19422189230257383 -0.27174495965502554
000180 d1 51 e6 c7 b6 9d b8 3f 87 4a 71 08 88 a0 c3 3f
       0.09615652447093416 0.15333652889474456
000190 5f dd eb ea a9 46 be 3f 8b 08 51 d1 7f ab 5b bf
       0.11826574311623038 -0.0016888378352324675
0001a0 25 6e 71 56 c5 b1 ac 3f 05 9d b3 51 b8 6b 9b bf
       0.05604378395284141 -0.026778106676741426
0001b0 05 19 85 d5 3e a3 a5 bf f5 5a e9 18 d8 c8 a9 3f
       -0.04226108890957118 0.05036044410797117
0001c0 0c 13 2d 07 a5 87 7c 3f 5c 66 79 52 bf 77 9c bf
       0.00696529831003968 -0.027800549897028723
0001d0 e1 fc e9 53 23 f6 ad 3f b0 47 21 42 56 ad a5 3f
       0.05851850890484812 0.04233808095217684
0001e0 2c d4 f9 3c 4f 2f b0 bf e2 04 11 38 17 4d a1 3f
       -0.06322188604993134 0.03379128035931857
0001f0 0b e2 57 70 4c 5b a0 bf 7a 6a 5e 66 8b 55 b1 3f
       -0.03194655295732581 0.06771155595053271
000200 da fb 13 d4 a3 52 99 bf 29 00 61 1d 17 6b 94 bf
       -0.02472930890962375 -0.01993976704420689
000210 f7 49 5d d4 e9 12 8b bf b9 73 ac 13 91 46 a7 3f
       -0.013219668191287488 0.04546025624424694
000220 57 3f cf 47 a7 a4 ae bf 2c 3a 6a a4 49 d2 a2 3f
       -0.05984995605069681 0.036760617561516135
000230 9b 3c d3 d4 70 39 a5 bf 6c 73 01 bb 93 44 ac 3f
       -0.04145386312449625 0.05521070153984095
000240 00 45 fb 3e e4 da b0 bf 63 2f 04 cb e4 ea b6 3f
       -0.065840020538662 0.08952169376806078
000250 40 20 a5 64 b9 c9 a4 bf 00 43 ad a4 85 29 b5 3f
       -0.04060153344704576 0.0826648261111238
000260 51 bd 98 f8 dd 31 ae bf cc 42 85 51 ef ef a6 3f
       -0.058974205585736635 0.04479930753826053
000270 54 cb a6 a5 59 ec a8 bf be f6 b6 f4 30 1f 8c 3f
       -0.04867820880044485 0.013731367557621051
000280 76 5c 55 37 e3 2a aa bf a7 4e b1 2a 76 8f b2 3f
       -0.051108456139154976 0.07250155012416802
000290 a7 c8 b1 99 37 05 7e bf 33 0f b3 08 66 af a8 bf
       -0.0073291942490973155 -0.048213184892601645
0002a0 e9 ea 52 c6 6e bb b1 3f d2 9f 6e db 78 c7 b4 bf
       0.06926624624149337 -0.08116870267133372
0002b0 95 a7 09 a5 11 ae be 3f ce aa 50 34 26 60 c0 bf
       0.11984358100167321 -0.12793424181412266
0002c0 98 66 d8 ce 27 0f c9 3f 0a 08 4e 2f 26 79 c0 bf
       0.19577500915402335 -0.12869717893414673
0002d0 34 14 04 65 e6 fe d0 3f d5 12 be d6 37 7f cf bf
       0.2655578600391124 -0.24606988893005757
0002e0 c2 49 44 dc b4 e2 d8 3f 97 7d f3 c2 e0 4a d5 bf
       0.3888370657961354 -0.3326951888866118
0002f0 ba d4 35 87 c7 83 d9 3f ca 30 63 72 a7 4b cb bf
       0.3986681766903747 -0.21324627957654335
000300 8a 08 9e ec 72 c5 c7 3f 98 71 7a 2d a9 ad bb bf
       0.1857131629331586 -0.10811860428152043
000310 86 f1 9c 80 16 1e d0 3f 11 e2 3c 23 b5 97 e3 bf
       0.25183641967648673 -0.6122689903486976
000320 6a de 84 89 de 54 e8 3f 61 cd ab 8f b9 90 cf bf
       0.7603600202482543 -0.24660415187063747
000330 65 09 e2 87 0c d0 ba bf 05 26 0d f9 52 8c c9 3f
       -0.10473707501845338 0.1995948520728207
000340 1b 9c b4 93 a2 24 c7 bf 4c 47 7a 10 6e d0 a9 3f
       -0.18080551349814375 0.05041831923621362
000350 72 f7 f8 5c de b9 bf 3f d8 db 69 4d 6d d4 c0 bf
       0.12392987985455564 -0.13148275642353613
000360 a1 3e 3c 3f 3e bb 92 bf 9c 25 f6 16 de 80 c8 3f
       -0.018292400941446577 0.19143272515456722
000370 a5 c3 cc e2 62 90 d3 bf 63 1b fc 92 8c 4b cf 3f
       -0.30568763874458177 0.24449307610503998
000380 91 58 6f 00 00 46 bc bf ca d3 90 d5 c6 6d bb bf
       -0.11044311533564356 -0.10714380945212479
000390 69 da 4e db b7 c1 ca 3f 9f 5f 26 25 d1 84 c5 bf
       0.20903681000136778 -0.16811575235328477
0003a0 23 08 d9 64 7c a3 5f 3f e5 58 1d a1 5c 78 c1 3f
       0.0019310679230248949 0.13648565165448825
0003b0 09 f1 b5 ab 0d 6f b1 bf fe 66 9f ae b7 19 c7 bf
       -0.06810079042583451 -0.1804723360681279
0003c0 a6 60 a8 ca d8 c1 d1 3f 07 1a cf b9 6e 9f c7 bf
       0.2774564723090499 -0.18455299446777948
0003d0 54 d0 51 83 75 4a b3 bf 0e cd 96 03 b4 0d cc 3f
       -0.07535490470928724 0.21916818785903341
0003e0 f0 b8 d6 8c 86 cb c9 bf f3 19 24 05 81 aa c4 3f
       -0.20152360798733282 0.1614533686735765
0003f0 a6 8f e4 ae dc e9 b5 bf c9 18 06 40 5c 7f 6a bf
       -0.08559970159382022 -0.0032345582732800954
000400 b3 71 12 db db b1 8d 3f 20 19 60 e9 9f ff c6 3f
       0.014499395010994265 0.17967604537279502
000410 d6 66 3e 9b 62 bf d2 bf 92 30 2f b2 2b 6b c8 3f
       -0.2929312244465171 0.19077058983237244
000420 12 21 12 a3 82 55 95 3f 35 b7 48 e8 ad 2f bf bf
       0.020834008410504153 -0.12182127877232747
000430 b7 f4 78 78 78 21 b6 3f 35 5a c6 e1 9a fa b9 bf
       0.08644822064612155 -0.10148017894821566
000440 45 5e 4f bb 2f c9 a0 3f cf e2 8b c6 01 8a a9 3f
       0.03278493081569115 0.049881034361481384
000450 f7 62 c3 1b 9b 04 b3 bf 1b 51 17 05 e8 4c a8 bf
       -0.07428903034032062 -0.047461748715848816
000460 0d f3 1b 9d 59 7a be 3f 24 28 4b 0e ed 22 be bf
       0.11905441365884091 -0.11772042845692049
000470 e3 5f 81 b7 9d f9 a4 bf 6b bf 7a 60 4c 18 c3 3f
       -0.04096691956573275 0.14917902670776625
000480 71 44 99 fa fe 00 cb bf 7f 90 30 06 00 68 ac 3f
       -0.2109678958536594 0.05548095775182648
000490 31 33 6f 52 00 b2 8b 3f bb 4a 2d ef 26 5f 76 3f
       0.013523104205796695 0.005461837851572222
0004a0 54 48 06 10 bb 32 b6 bf e8 64 7f a3 65 e3 d0 3f
       -0.08671158925270223 0.2638792130142762
0004b0 9d fb 03 8a 78 0a d9 bf 43 8d 12 d8 c1 d7 c9 3f
       -0.39126409032899706 0.2018968873063419
0004c0 2f c3 07 3b fa ca c3 bf 35 e1 5e fa 8d 9a c4 3f
       -0.15463188059177344 0.16096663212898368
0004d0 41 c5 a6 45 6b 41 c2 bf 1e d2 68 b9 f2 c4 bb bf
       -0.14262143040608957 -0.10847394014928866
0004e0 ca c1 32 2d e2 61 d1 3f d6 37 44 c8 2f 6e d0 bf
       0.27159933484929566 -0.25672525937340873
0004f0 21 7e d2 a1 1a c5 b1 3f 30 0a f8 4f 58 96 ac 3f
       0.06941381884325228 0.05583454109366348
000500 23 56 ae f5 24 0c 92 3f 08 dd c5 be e2 e5 c0 bf
       0.017624452109506927 -0.1320155555256195
000510 60 2c e7 d0 f9 a5 c7 3f e8 42 d0 e9 d6 09 c9 bf
       0.18475268078177276 -0.195612777868994
000520 95 0c 3f c2 89 52 ac 3f aa 68 3c ab dd 8d ab 3f
       0.05531721588297348 0.053816725876644725
000530 91 66 5c 16 42 5e c7 bf 50 70 6c fd 26 b3 d1 3f
       -0.18256403056948448 0.276559588893865
000540 e1 15 95 84 35 a1 c9 bf 86 23 95 4a 08 10 b6 3f
       -0.200232209908946 0.08618213482726675
000550 d0 9a 54 6a 99 90 92 3f 9f e0 2d 17 36 a5 a4 bf
       0.018129727473161605 -0.040322962121480226
000560 0d 9a d0 b9 c1 be af bf 39 5b 58 e8 46 c9 ad 3f
       -0.06200223344085396 0.05817624651188286
000570 29 81 7e bc 45 91 b0 3f 8f 7d f1 93 f7 31 c8 bf
       0.06471668102176821 -0.18902487491412187
000580 95 d5 16 f4 53 c8 d0 3f 90 97 41 2f 96 3c d0 bf
       0.26222704731784435 -0.2536979161726487
000590 48 fb 91 76 ff 05 cd 3f eb c4 d9 91 7a ac c4 bf
       0.22674554147303128 -0.16151363488783174
0005a0 99 72 92 b6 ab f9 95 bf 23 05 f6 d5 b7 f1 7f 3f
       -0.0214602308447974 0.00779887972692109
0005b0 ea 9f 05 ac 59 76 9c 3f 5b 67 3c 9e a1 44 b6 bf
       0.02779522049368658 -0.08698473084623741
0005c0 29 be e3 b6 dc a5 a1 3f 82 64 3b dc 59 2d a4 3f
       0.034468552899735556 0.03940850079897819
0005d0 1a 47 e6 ea 57 09 c1 bf 86 8c 32 2b 0c 01 c4 3f
       -0.13309763879492992 0.1562819682049829
0005e0 b7 43 cf 08 84 e1 c6 bf 11 c2 79 29 8e af ab 3f
       -0.17875719480664795 0.05407375580114516
0005f0 09 b8 17 0f 0a d6 9c 3f 60 ea 7f 70 32 c6 c8 bf
       0.028160245104963653 -0.1935484933199687
000600 dd dc 0a af 49 10 c1 3f 85 72 6d a3 88 4b b9 bf
       0.1333095650386217 -0.09880880346231365
000610 2b 1d 8d 57 5a 7f a5 3f ee e3 32 88 8d ea 89 bf
       0.04198725050678783 -0.012654405325848796
000620 0d 6a 2b 19 51 d2 70 bf 22 56 32 70 05 61 b3 bf
       -0.004106823721225184 -0.0756991766850992
000630 2d e5 3e 54 07 1f c8 3f 14 2c 7b 8d 94 3c c7 bf
       0.18844691861685572 -0.18153626354464392
000640 f6 c5 ee aa 7e 7d e1 3f 8a b6 81 aa 59 bc d0 bf
       0.5465691889314133 -0.261495987425271
000650 d7 87 eb 39 c1 72 a2 3f 65 98 bc e7 82 89 d1 3f
       0.0360317595675636 0.2740180266431536
000660 c8 30 d1 2e 2e 6f de bf 8f 4e b1 88 82 3d d9 3f
       -0.4755359132002579 0.394379266251442
000670 5b f1 68 2c d9 44 b0 bf 9d b8 db c6 1b bf c6 bf
       -0.0635505422041595 -0.1777071686732982
000680 8d a5 0f dd 8a 49 cd 3f e7 ab 72 07 be 54 d4 bf
       0.22880683702468865 -0.3176722595914598
000690 04 47 6f 04 99 a2 d3 3f 08 8b ee 99 3c 0d bb bf
       0.3067991774852177 -0.10567072637654118
0006a0 29 3a 59 c3 63 82 d2 bf e3 72 34 18 19 da da 3f
       -0.2892083556843397 0.41956164706952687
0006b0 03 7f 5e 52 f8 4c c6 bf 9b a8 67 55 12 9a b5 bf
       -0.17422393819742163 -0.08438219628411263
0006c0 41 bb fe b3 a1 95 d0 3f 63 23 e5 8f 0a 03 d9 bf
       0.25913279130593386 -0.3908106236672692
0006d0 f6 df 37 ea 4a 36 d1 3f 45 8a 8c 2b 09 07 98 3f
       0.2689387595451075 0.02346433952619466
0006e0 32 2e 24 ed fc 69 d0 bf e3 d0 f7 db 91 55 d5 3f
       -0.2564689937432575 0.3333477638364128
0006f0 63 ea 61 8d b6 83 d2 bf 7c 43 41 19 d4 e0 c3 3f
       -0.2892891293228443 0.15529872162963076
000700 b8 4c 57 98 e7 7b a9 3f 0a fd a9 e2 3f e6 d2 bf
       0.049773442598643525 -0.2953033174052996
000710 a0 86 cb 32 5a 22 d4 3f ec 2e 2a c1 15 9a cd bf
       0.3145967002911707 -0.23126480037568997
000720 1c 8f 8c 3a 74 4d b3 3f 2d 63 c3 5e dd 95 a7 3f
       0.07540060452862146 0.04606525213029609
000730 2a 21 53 a0 46 9f ce bf 8f c3 00 9e b4 a6 cf 3f
       -0.2392357142291613 0.24727494921674206
000740 53 6b 0d 22 99 7d c0 bf 9f 7d d7 1b 80 79 bf bf
       -0.12883295214381948 -0.12294769935350879
000750 57 dd 6f e4 71 e3 d2 3f 5b 9e 2c a1 53 1f d0 bf
       0.29513213451669656 -0.2519120286910714
000760 58 79 61 04 35 05 97 bf 3e 23 eb 8b 5f c0 c7 3f
       -0.022480801002865064 0.18555826503713918
000770 4e ce 96 33 de 49 cb bf 0c 54 0a 80 0d 15 b1 3f
       -0.21319177168844522 0.06672748924241051
000780 1e 4a 3e 21 0e d7 a9 bf 4d 10 dd ce 44 e3 b0 3f
       -0.05046886592676379 0.06596784639720106
000790 4f 18 4c 30 0f 68 c4 3f e8 2f c5 d8 ad 99 d2 bf
       0.15942563875450097 -0.2906298272034733
0007a0 e7 3e da f9 34 1a b6 3f 3d cd f8 83 55 50 c0 3f
       0.08633738613047691 0.12745160049380813
0007b0 11 92 20 49 9f d7 bb bf 41 65 79 e2 e3 49 a3 3f
       -0.10875888381321654 0.03767311229303028
0007c0 8d 5b ee a7 c7 04 b4 3f e8 6f 6b 97 b0 a9 90 bf
       0.07819793558006279 -0.016272315256045916
0007d0 39 1c 1e 14 59 cc cf bf 42 99 83 f0 e0 41 c1 bf
       -0.24842370493226598 -0.1348229574570699
0007e0 17 e5 df e1 b7 ae c9 3f 35 6e 3b 13 e9 26 d0 bf
       0.20064447907478986 -0.25237490537776647
0007f0 be 9a 07 21 60 34 c4 3f 2f cf 4b a9 85 cf b1 3f
       0.1578483735349518 0.06957278617101957

bias f8 [29]
000000 ff 8d 3d d3 07 89 da bf d0 3f 44 c9 f8 8d d6 bf
       -0.41461368206930155 -0.3524152722829941
000010 78 81 46 39 df c0 b3 3f 53 1a c2 0e 21 71 d6 3f
       0.0771617426712562 0.3506548542140184
000020 c3 82 a7 5f 85 58 ac bf 12 58 09 d2 b7 0d b3 bf
       -0.055362861563258224 -0.0744280708107399
000030 45 e4 3c 1f d0 1e a4 bf e0 aa d3 98 fd 53 ab 3f
       -0.039297584355559446 0.05337517252504198
000040 de 40 3c 67 32 02 90 bf 62 2f 91 0c 69 61 70 bf
       -0.01563338046168005 -0.003999147747048544
000050 53 07 9a 5c fc 14 d6 bf 29 9d a6 35 4f 71 61 bf
       -0.3450308708489633 -0.002129225450704948
000060 d6 35 ea a0 70 9c a5 bf c9 05 80 fc 4c 3a 9e 3f
       -0.042209167139940426 0.0295192746270965
000070 95 61 ff 54 f0 a4 da bf e5 9f c3 99 5f e4 d8 bf
       -0.41631706524415196 -0.38893880859404667
000080 4b 14 4a 45 88 3b 90 bf 59 fa b7 43 71 e0 a6 bf
       -0.015852097729766517 -0.044681109920919844
000090 df 1a 9c 3f 99 53 a5 bf 7b 44 af 7a d7 42 d9 bf
       -0.04165343190657266 -0.3947046945659804
0000a0 52 c0 38 98 a0 57 da bf ae 5f 53 cb 6c 2a 43 3f
       -0.41159834733389744 0.0005848914358024171
0000b0 c7 05 cf 26 c5 f3 a7 bf 17 67 7a 25 fe 59 dc bf
       -0.04678169344652932 -0.44299272212957547
0000c0 3d 90 24 14 23 cb da bf 27 5e d3 b0 6b bc 89 3f
       -0.41864850012848703 0.012566415151396516
0000d0 3f 6a 23 1b 78 c5 af bf e1 e6 75 8c 1e 69 9f bf
       -0.06205344516066135 -0.03067443592360675
0000e0 2e be 0a f1 c9 b0 d8 bf
       -0.3857903341222223

weight f8 [9, 29]
000000 54 2a 1d 3b d1 b7 d4 3f c7 7c 89 ad 22 7b b7 3f
       0.32371931813091703 0.09172264801735529
000010 51 2d 7c 8d a0 18 cd 3f ea bd 82 7f f6 a5 c3 3f
       0.2273140612454463 0.15350228525265602
000020 bf 58 23 8f 56 47 c4 3f af 97 ab 81 96 c6 a4 3f
       0.15842706669963566 0.04057760556115341
000030 cd e4 a4 7b 3b 2c e0 3f d4 30 b8 ea 98 8b e8 3f
       0.5053994574474473 0.7670406898846758
000040 4d 73 ee d5 31 46 cc 3f db 85 d6 dc 08 37 9d 3f
       0.22089217134353092 0.02853025291336118
000050 57 cf 7c b1 56 d0 b3 3f 93 7f e8 28 7f e1 d0 bf
       0.07739774544898857 -0.2637632274145229
000060 b9 50 65 30 7b 5c e2 3f 38 ba d3 66 d5 e8 c5 3f
       0.5737892098645921 0.17116801758625555
000070 d7 68 75 04 c0 95 cc 3f 50 25 43 14 00 eb d1 3f
       0.2233200094004306 0.2799682805894763
000080 9d a9 1a 95 94 f2 e0 3f 9e 4b be 79 52 96 d3 3f
       0.5296118652525369 0.3060499371433084
000090 69 ab 50 9c ce 0e c7 3f 57 3c 81 33 e8 a3 dd 3f
       0.18013937599729538 0.4631290915467096
0000a0 f4 2a 1c cf 80 c8 d4 3f 66 2d 53 b9 39 2e d1 3f
       0.32473774171437175 0.2684463796437825
0000b0 ed d1 dd 13 df 38 d7 3f 37 ee d4 34 74 14 c7 bf
       0.3628461545952451 -0.1803117044417932
0000c0 74 95 1d ab 9a 9a 8e bf cf 2e af 4f 5e 45 d5 3f
       -0.014943321558983348 0.3323589113394804
0000d0 39 af d9 d4 0d ea a6 3f ff e5 2d ca 06 7e d9 3f
       0.0447544405295432 0.39831704849311217
0000e0 4e e7 97 b2 f6 dc ca 3f a2 b9 3c 40 49 4d d0 3f
       0.20986827583674955 0.2547171714130859
0000f0 a9 40 9a cc ce e6 93 3f 7d 45 ba a8 22 04 c8 3f
       0.019435149419735485 0.18762620199826677
000100 8e 9e 64 13 a7 ea cd 3f ee 4d 4e e6 e5 c8 cf 3f
       0.23372353026319498 0.2483184217968381
000110 35 c1 af 28 7f 73 c7 3f 3a 9c 7d 90 14 b9 d6 3f
       0.1832121800102954 0.35504640684525024
000120 e8 de 14 2e 22 bf d3 3f d7 40 8e fe fa f0 ac 3f
       0.30854086399220515 0.05652603490227797
000130 98 bc 1b 57 68 88 e1 3f 93 8b 5d c0 49 6a d8 3f
       0.5479013158163921 0.38148731027302424
000140 cd 22 83 8c 92 fa d6 3f ff de 65 26 6d a9 dc 3f
       0.35904372903727905 0.44784096479223473
000150 1e 33 24 89 4e 7d dc 3f bf 8a e2 66 8b 9e e1 3f
       0.4451481189033063 0.5506035813781053
000160 2b 3e 90 6a 55 16 be 3f 16 78 d3 9a 62 f8 9a 3f
       0.11752828456541724 0.02633813924773428
000170 bc ad 5d d8 60 03 98 bf c5 29 8b 57 f4 ed d3 3f
       -0.0234503871974263 0.3113985876958874
000180 4a 39 5f bc d0 63 c2 3f 2b 59 35 1d f6 09 e1 3f
       0.14367112348413463 0.5324659891582874
000190 b2 96 e2 47 a7 fa d1 bf 6a a8 11 6e d7 15 b0 bf
       -0.2809236719134375 -0.06283327519636975
0001a0 69 d4 a7 d3 36 3b bb bf f4 77 9c a3 ae c8 cb bf
       -0.10637228648541143 -0.21706183422878633
0001b0 cf 54 f0 69 1b c7 c0 bf 6e 5e 24 ca 73 02 cf 3f
       -0.1310762660292881 0.24226233835428296
0001c0 19 df 44 89 d0 5b c0 3f 33 d3 4c 21 ad 19 86 3f
       0.1278019590624744 0.010791161135423976
0001d0 43 13 f3 ed 57 5c d7 bf 0e 20 c6 9d e8 5f d1 3f
       -0.3650111983991346 0.2714787998925211
0001e0 2d 93 fa a7 b8 1f a3 3f df 08 75 eb ab ef d6 3f
       0.037351389413095105 0.358378391207351
0001f0 10 4e 8e 2a 63 eb cb 3f dd 0b c9 9f ee ff b6 bf
       0.21812095239566576 -0.08984271431931697
000200 8c 77 72 c4 c6 f4 d8 3f aa fc 1f e7 12 65 d1 3f
       0.3899399679593152 0.2717940575675565
000210 ad 4a df 2c 85 c3 b3 bf 0b 23 bc 30 0e e3 d2 3f
       -0.07720215173257357 0.295108363716779
000220 e6 6e 75 95 53 37 c3 bf 0c 66 9e 88 66 7e d7 3f
       -0.15012593076504926 0.36708987561868933
000230 db c3 72 1a af de dd 3f 43 90 83 68 b4 79 e1 3f
       0.46671655257074257 0.5461065331733227
000240 d1 b3 96 5a 79 eb c2 3f 00 fb 93 52 76 2a e3 3f
       0.14781109736705259 0.5989333737232698
000250 b5 6f bd be 72 53 d1 3f 63 17 3d 6c 52 48 c3 3f
       0.2707182753272222 0.15064459118928672
000260 f1 1c 68 df 05 c2 d1 3f 13 3f 72 57 1f 3f c3 3f
       0.2774672204690907 0.15036384363019603
000270 e4 50 b6 2c de 05 ce 3f 4e 2d dc 1e 75 5b 62 bf
       0.23455407317363275 -0.0022408759604154787
000280 d1 2a 9e 37 01 f3 d6 3f 63 04 11 ac b1 ac 9a 3f
       0.3585818331854798 0.026049400450805737
000290 9e 8d ba 07 e5 1f e0 3f d5 8c 79 7f c5 db b3 3f
       0.5038933897925977 0.07757219659974919
0002a0 e5 70 e0 f2 f3 4c c5 3f 6e 5b 29 2e bb 79 cf 3f
       0.16641091689314816 0.24590244058591842
0002b0 f2 70 8d 86 6f 2c d8 3f 3e 91 ba 5b 50 03 cc 3f
       0.37771213664906533 0.21885113219208024
0002c0 22 ac 20 0e 83 b8 8a 3f 5f 5e 99 a1 d1 a5 c7 bf
       0.013047241085663745 -0.1847478903825843
0002d0 f2 45 79 5e 8b a6 de 3f bb e3 e7 05 6f e3 c3 3f
       0.47891506410550655 0.15537822521562625
0002e0 2d c6 70 da f7 72 a2 3f 5c c2 10 2b bf 22 d9 3f
       0.03603338758001615 0.3927457733689488
0002f0 0f ac 04 d9 b2 59 da 3f 67 ea a2 a5 ed 1b b7 3f
       0.4117247695273258 0.09026990217072638
000300 8f 1d 8b dd 99 87 c4 3f 80 07 6a ae 3b 89 db 3f
       0.16038821523237032 0.4302510455382773
000310 93 41 ad 02 f4 82 bb 3f e9 11 b6 30 18 f3 d6 3f
       0.10746693673468703 0.3585873103804987
000320 2e 5e 81 b9 55 12 d3 3f 20 19 65 45 e0 d9 be bf
       0.2979940711570376 -0.12051202482425483
000330 39 59 74 68 d3 36 af bf 98 e5 d8 7e 5a fc d2 3f
       -0.06096516275481396 0.2966524351828297
000340 3d 7c a7 14 f6 6b cb 3f e9 9d 11 68 ad 61 c8 3f
       0.21423221596248423 0.190480876746036
000350 02 30 3f 85 7f 99 d5 bf 05 19 53 6c ef e4 d9 3f
       -0.3374937821615732 0.4045980985505511
000360 bd 09 41 45 e3 74 b9 3f a7 11 12 05 68 bb d1 3f
       0.09943981591008018 0.2770633744733239
000370 1d 70 d7 87 b0 8d e1 3f c0 b2 07 7b 57 07 7f 3f
       0.5485460904269562 0.007575360985793977
000380 4f 73 a9 55 6e 23 ca 3f a5 cd 34 94 70 e3 b0 3f
       0.20420626814566353 0.06597045534436193
000390 d2 b9 b5 66 6b a6 d1 3f 0d cb 77 66 77 06 e1 3f
       0.2757824423814813 0.5320393563582414
0003a0 4d 54 cf 82 c4 1e e1 3f 8e 49 3d 45 cc ce af bf
       0.5350058131103964 -0.062124618007732044
0003b0 7d 21 49 8e fe 67 da 3f e2 1f dd 29 58 fc c6 bf
       0.41259731192669574 -0.17957593959931645
0003c0 a2 68 1d 5d bb 8f e0 3f 39 3c 6a 65 d5 dd e2 3f
       0.5175453966760595 0.5895792942773205
0003d0 97 55 18 cb 5b cf e0 3f 90 bd 47 62 4e fa b4 bf
       0.5253123251629174 -0.08194436931056814
0003e0 16 2c 41 b1 d1 fd bc bf 82 35 d2 2b 9f 5c d8 3f
       -0.11324797227386826 0.3806531837406838
0003f0 1a 69 79 38 91 dc 89 bf ac 26 dd 7e fd 12 c0 3f
       -0.012627729927022591 0.1255795354321
000400 b2 1c 34 45 c5 2a e5 3f 28 fa 4c f2 db 63 b3 3f
       0.6614710189468467 0.0757424799494194
000410 85 df 28 07 b3 1a cc bf c4 ef e5 3e c1 c8 b3 bf
       -0.21956479882805638 -0.07728202615356766
000420 f2 f7 01 cf c8 6c e8 3f e3 a7 71 e1 aa 2e e4 3f
       0.7632793467635095 0.630696716614008
000430 0e 5b b5 dc 0a 9d e0 3f 8c c9 7f 76 23 cf dc 3f
       0.5191702185355511 0.4501427323549698
000440 2c d6 2b a0 8a 85 9d 3f fc 42 be 1a b8 6d d1 bf
       0.028829732919765913 -0.2723217259563595
000450 68 f4 33 bc 1a d7 e5 3f 0a 48 2d 51 02 6d e4 3f
       0.6825078655089216 0.6383067689405391
000460 3c fc 66 0d 37 f0 e0 3f c9 61 49 a0 9a 45 e9 3f
       0.5293231260074047 0.7897465830420113
000470 4d 09 80 3e 8a f3 e2 3f aa ca f5 71 1d bd e6 3f
       0.5922290058809182 0.7105853296073594
000480 01 c7 9d 91 e5 92 c9 3f 65 44 23 b2 14 e1 b3 bf
       0.19979543314143913 -0.07765321110788788
000490 71 9f 9d 42 09 a6 da 3f 6c 23 0b 5e b3 e9 e0 3f
       0.4163840437454303 0.5285279118335047
0004a0 ae ec 4b 67 f6 b2 b8 3f 2d a9 6f 86 4c 1f cb 3f
       0.096480751246349 0.21189266742960325
0004b0 c3 85 ee b2 d9 97 d4 3f 8c 12 8f f2 4f 39 e1 3f
       0.32176821206857315 0.5382461297491132
0004c0 d5 7c 72 23 ae 51 ce 3f ef 24 6d d8 24 f9 d0 3f
       0.23686768275090367 0.2652065385378383
0004d0 b4 e8 13 0c 59 85 b1 3f 11 28 24 27 c3 4d df 3f
       0.06844097657077236 0.48912123510729183
0004e0 c5 e3 80 91 ba 7d e7 3f 35 1a 43 4a cc 04 e9 3f
       0.7340977517952686 0.7818356943542485
0004f0 06 35 c4 1e 04 10 dd 3f 7e 91 ef 0a 4f ce df 3f
       0.454102544827791 0.4969670874400193
000500 dc c3 f1 16 03 66 ca 3f db e2 2d 79 20 56 da 3f
       0.20623816128093508 0.41150676568899563
000510 78 92 81 40 df 2a c5 3f 50 81 89 d3 34 d5 d2 3f
       0.16537085199083257 0.29426308305666726
000520 71 4f 77 33 63 4a b6 bf f5 7f d3 86 df 95 d6 3f
       -0.08707256323333269 0.35289753119104655
000530 fe f6 9d 2f 88 5f da 3f 5e ae 4c 2d bb 1d b2 bf
       0.41208080911734146 -0.07076616149850554
000540 4c 0c 01 c2 88 6c c3 3f 88 10 da c5 59 3e c1 3f
       0.151749701241075 0.13471529160245077
000550 99 91 3e 42 cb 5e 7c bf 9d 47 d6 4f bc aa cd 3f
       -0.0069263400836558015 0.23177293680469982
000560 88 1e 61 0f f6 bc d3 3f bb a2 f3 d9 93 24 d3 3f
       0.3084082746686154 0.299107516139468
000570 c9 7d 59 18 3e 08 e1 3f 96 bf 84 c6 37 19 97 3f
       0.5322561717584274 0.022557136050806635
000580 c8 9a 44 b6 f8 a5 d1 bf 28 a1 cb fe 43 c9 dd 3f
       -0.2757550983391579 0.4654092777477836
000590 53 68 ea 01 00 1f e9 3f 2f 12 b3 24 55 26 e8 3f
       0.7850341832556843 0.7546792713915859
0005a0 02 bd fb c0 8a 91 e2 3f 06 84 8d f3 cc e9 a4 bf
       0.580266358299838 -0.04084625695282544
0005b0 51 dc 3a f6 4b 26 a5 3f f9 e0 1e 39 5c ca a7 bf
       0.041307805831302453 -0.046465761158687564
0005c0 da 07 6a 8d 8e e5 be bf b4 d2 1d 90 40 78 8f 3f
       -0.1206902594804257 0.015366081617437778
0005d0 a8 90 c2 ab 9f 52 dd 3f 05 1a 1f ee fe c9 bc bf
       0.458167951330561 -0.11245721162331541
0005e0 20 54 64 88 55 f4 ce 3f 84 28 c0 22 80 36 90 3f
       0.24183148536454357 0.015832903023728764
0005f0 c7 09 83 21 bb 13 d9 3f 55 a5 74 d5 33 d7 e2 3f
       0.3918292834534011 0.5887698334746952
000600 96 bb 18 0f 60 fe ea 3f 42 2d 96 02 90 37 e2 3f
       0.8435516638618192 0.5692825365562515
000610 e8 ee 46 21 87 f1 b7 bf 60 6f 6f 43 f4 4d c9 3f
       -0.09352917253903181 0.19769147198428083
000620 44 c3 85 f4 67 7b e0 3f 94 07 7f 22 8e 09 e0 3f
       0.5150642181234635 0.5011664079431619
000630 7a dd 02 0f 3b 81 e0 3f 7c b1 22 f3 d5 36 d3 3f
       0.5157752316653579 0.30022190803244775
000640 35 b7 67 e8 d3 76 e8 3f 7e 56 9d a2 8b e0 d7 3f
       0.7645053424036862 0.373080166629144
000650 80 83 90 36 60 8d d2 bf ca 89 34 82 f5 5e bf bf
       -0.28987889603200045 -0.1225427096256119
000660 97 42 2c b0 e8 19 e6 3f b1 d6 e6 7c 28 e6 c2 3f
       0.6906627121807841 0.1476488695022247
000670 29 ff 3d 1d fb e3 c6 3f 33 26 9e 68 b6 5c cd 3f
       0.17883242538300095 0.22939186199464387
000680 67 6f 21 3e bc 86 dc 3f 43 a1 07 79 df 72 e0 3f
       0.44572359149400714 0.5140225757468574
000690 2b 05 6f 51 25 d6 de 3f 2e 42 b4 4e fe 16 c3 3f
       0.4818204207659444 0.14913920252776464
0006a0 85 e6 9b f2 3a 20 d7 3f f7 eb e4 41 b5 09 dd 3f
       0.36134217922481354 0.45371753153784716
0006b0 6c ca f9 ea 67 21 87 3f 06 94 77 18 87 ca d6 3f
       0.011294185503378538 0.3561113108574435
0006c0 8b 88 e0 25 0d bc cc 3f b8 84 1b 96 35 69 c8 3f
       0.2244888720461556 0.19071073369472002
0006d0 57 c5 92 d1 61 49 bc bf 75 45 e1 04 dd d0 af 3f
       -0.11049472204719755 0.0621403759438505
0006e0 1a 1e 76 d7 79 60 cd 3f 39 c1 c4 92 bb b4 df 3f
       0.22950671215606705 0.4954060490881776
0006f0 5d 03 df 3d 8c fd c1 3f d5 d5 7c d3 b2 25 d4 bf
       0.14055016537715917 -0.31480093625154143
000700 8d b5 c3 3e 37 3d c1 bf 1f 6d 00 ed 48 07 c5 bf
       -0.13468065800354304 -0.1642848164782231
000710 b6 e7 26 e1 e9 46 82 3f cb c1 2b 7a fc 1a d1 3f
       0.008924319442360811 0.26727210932497475
000720 c7 84 2a be 78 45 d8 3f 76 e1 96 4b 8e bb c7 bf
       0.37924021311671335 -0.18541125002753817
000730 05 58 53 0b 63 d3 c0 3f 44 a2 58 e1 2e 97 cb 3f
       0.13145101597791622 0.21555124285920801
000740 3a 54 2f c5 d0 b3 af 3f 0b e6 ae 49 cc 62 dd 3f
       0.06191875845949153 0.4591551513254621
000750 de 66 da 35 24 a1 c8 3f f3 13 c2 64 96 3e d4 3f
       0.19241764668986766 0.3163200363126741
000760 a1 83 e6 40 4f 16 c9 3f 46 f5 8a a3 57 44 ca bf
       0.19599333447424974 -0.20521064267624406
000770 ba a1 59 61 d9 fd da 3f e8 26 62 87 ad 72 cb 3f
       0.42174372202728316 0.21443719015615348
000780 e7 38 87 59 77 c3 e8 3f 61 ce 78 83 ec d4 d4 3f
       0.773860621318616 0.3254958423524155
000790 4e ae 17 ce aa 89 bb 3f 25 97 45 b5 8e e1 e3 3f
       0.10756938487582454 0.6212838688340737
0007a0 b9 bb 26 ec fc 51 e0 3f 3b dc 58 29 5a 7b c0 bf
       0.5100082981424442 -0.12876441019918325
0007b0 d1 7d a0 8c 18 ef ce 3f be 64 5b 01 27 50 e0 3f
       0.24167162767933673 0.5097842241767905
0007c0 f2 80 05 6f 5c ac b2 3f 4e 65 c3 95 c5 25 b0 3f
       0.07294252119527636 0.06307635217981053
0007d0 2a 71 ea 9e 0e 4a d1 3f 6f d2 22 9a ee 1c b2 bf
       0.2701450874244694 -0.0707539678867961
0007e0 c0 3d 09 92 06 7c cb 3f 37 bc b5 51 b6 1b a3 3f
       0.21472246294659492 0.037320802187302986
0007f0 53 94 99 3d 4f 8b c8 3f fd 87 c5 09 8f df 97 bf
       0.19175138957794732 -0.02331374642506744

bias f8 [9]
000000 4b 56 ae 35 62 c7 dc bf 38 57 6a 4d cc b9 d6 3f
       -0.449669411108833 0.35509021339509017
000010 37 7b 88 9a b3 db c9 3f ae 4a ca 2d ec f1 d1 3f
       0.2020172600323009 0.2803907820863668
000020 76 9f da 5c f8 b5 d4 bf f2 35 96 9d 42 e2 e4 bf
       -0.3236065775658895 -0.6526196554056567
000030 69 a8 4d e6 96 40 b0 bf 70 4d 10 f2 57 00 cc 3f
       -0.06348555681839375 0.2187604839278765
000040 4c 45 c7 4a 10 43 b0 bf
       -0.06352330995220717

weight f8 [29, 9]
000000 8e 58 ba aa 9e 0b d5 3f 40 96 c4 83 77 dc da bf
       0.3288342158570082 -0.4197062289043494
000010 98 73 95 cc 18 99 aa 3f dd 33 1b 2e 5a 54 c4 3f
       0.0519492864357069 0.15882422686846
000020 6a f0 91 8b f1 7e d7 3f 8d 10 10 6f be 65 de 3f
       0.36712301854982476 0.47495995374652794
000030 ef de 5e 34 7d a8 d3 bf b9 4f a6 13 12 2a d2 3f
       -0.30715875734629966 0.28381778639709015
000040 6a 76 b3 87 6c 5f cc bf 86 f8 ba 59 b1 49 d3 3f
       -0.22166210771586076 0.3013728500626559
000050 f6 98 13 b1 d1 01 d0 bf c4 33 18 eb ba 94 d2 bf
       -0.25011102955467324 -0.29032776792956505
000060 27 75 17 a2 91 d4 d9 3f 5d 1c 6b 52 a6 8e e1 3f
       0.40359917477856516 0.5486632928594976
000070 e2 4e d3 34 65 34 e0 bf 37 1b 6f 1b 92 99 88 3f
       -0.5063959151979953 0.01201166292402221
000080 da 9a 20 3b fa 65 d6 bf ae dd 6b 56 16 0f af 3f
       -0.3499742104926732 0.060661981629830705
000090 0a f2 3f 74 26 bf b7 bf c2 31 58 9f 93 f6 d0 3f
       -0.09276047075395169 0.26504984436976653
0000a0 11 4c 62 a6 75 2a e4 3f 6e d4 e1 39 50 9a c8 bf
       0.6301830529868103 -0.19220927072788946
0000b0 89 6c ee 96 d9 05 d1 bf 59 53 9a 7d 1e 8d c8 3f
       -0.26598205317868256 0.19180661328268903
0000c0 19 14 01 2f c1 73 cb bf 67 7b 54 34 e2 e3 d0 bf
       -0.2144700507653006 -0.2639089118037447
0000d0 d5 86 76 d7 1d fc c5 3f d7 2d be b2 c7 b8 d5 3f
       0.17175648708967253 0.3394030805145269
0000e0 ab 61 b7 ef 2e 9f e4 3f bc 02 13 cb 8e 2f df bf
       0.6444315607032441 -0.4872776969096255
0000f0 60 98 d0 f0 c1 90 d1 bf 72 b5 79 09 11 27 e0 bf
       -0.2744603015620495 -0.5047688660685437
000100 58 a9 64 71 06 a1 d0 3f ab 10 62 eb e1 a8 c3 bf
       0.25982819627337994 -0.15359138482393084
000110 64 e7 d4 3b 82 ff d0 3f 7b eb 29 b0 20 d5 bd 3f
       0.26559501498160487 0.11653332043526447
000120 23 30 2c d0 e2 7e df 3f 17 da 1d 2d 1c 0d c5 bf
       0.4921195061622276 -0.16446258738479066
000130 2e 17 4b e8 bc bf d3 3f 98 a6 1d c4 a9 83 a5 bf
       0.3085777538766362 -0.04202013510696395
000140 52 87 0d 6c 79 00 d6 bf 78 e6 29 b9 73 0d 8c 3f
       -0.3437789492801261 0.013697532737967352
000150 01 10 15 d7 48 55 de 3f 68 fe 63 6b 7c db c0 bf
       0.47395535472992384 -0.13169818156892465
000160 0c c9 97 ed 6c 30 c6 3f 5e 1f 4d 90 d1 e3 d9 be
       0.1733528289910925 -6.172637090191698e-06
000170 37 a2 e5 2d 09 8a e5 be 44 9b 12 bf dd c7 cb be
       -1.0270692140949406e-05 -3.311720768356577e-06
000180 4d c7 12 9b 29 2e ec be 7b 51 aa c4 72 1a ea be
       -1.3437424828264102e-05 -1.2447029935893448e-05
000190 4c 54 d1 00 cd 7f ea be 79 52 eb 57 43 f7 ee be
       -1.2635813641784708e-05 -1.4765678085928675e-05
0001a0 79 f9 25 ca c3 c8 e5 be 78 aa f9 2f 5d 44 e2 be
       -1.0387533909247904e-05 -8.7104067454009e-06
0001b0 78 ff 28 ef 56 6b d0 bf d5 72 3f f6 18 cf bd 3f
       -0.25655148845179765 0.11644130718145658
0001c0 a3 9e 77 71 7c 48 54 bf 3a 1e 1d 47 db cb a2 bf
       -0.0012379851594860678 -0.03671155207717587
0001d0 6c 79 13 4f d2 18 d1 3f 5f ad 73 39 31 50 bc 3f
       0.26713998529694183 0.11059863712914851
0001e0 86 50 59 66 15 74 da 3f 3f 7d 3a ff 6c ef e3 bf
       0.41333518023498816 -0.6229767785006642
0001f0 1c 27 1a 35 34 76 d7 bf d0 e3 12 a4 7a 94 d3 3f
       -0.36658959565885296 0.30593744299727366
000200 91 08 0b 4c af bf c5 bf 9c 88 10 ce 35 16 be bf
       -0.16991225445787397 -0.11752640038369794
000210 93 14 b6 66 90 ac d1 3f 97 2f 73 54 47 4c c5 bf
       0.27615747480769776 -0.16639033912212817
000220 e8 f6 4d f2 83 e4 b3 bf 82 6e 72 39 35 d0 ca bf
       -0.07770561853063962 -0.20947900109318957
000230 07 ce fc ab 78 ec de 3f 04 a8 0c 3e 7d b2 cc 3f
       0.48318306728035093 0.22419705896146536
000240 a3 a1 6c 04 e9 74 e0 bf ee 21 e8 a6 6c a6 cf bf
       -0.5142712675488393 -0.2472663702940418
000250 97 10 e4 a6 4c 34 c7 3f 3a 31 63 2e 11 3d d5 3f
       0.18128355168312701 0.3318522408487926
000260 28 58 39 98 9c a0 d3 bf aa 48 33 15 e5 00 e4 3f
       -0.30667796006798875 0.6251092351979157
000270 29 04 a1 8b ba 3f d6 bf 30 d4 48 6b 18 0f d6 3f
       -0.34763969073907447 0.34467134930611376
000280 05 ae 1b 95 05 85 99 bf b6 22 9a ff 5e b8 b6 3f
       -0.02492150042136922 0.08875077953610852
000290 b2 e7 df c0 05 85 c0 3f 36 b3 39 f2 9e 4e 80 bf
       0.12905952375132085 -0.007962457434780395
0002a0 f8 38 05 d9 78 40 c6 3f 06 fe a9 a4 8f 31 d5 bf
       0.17384253117274517 -0.33114996986839207
0002b0 70 c9 7b 5a d7 2f e8 3f 98 e4 5a b4 8f d8 d8 3f
       0.7558399932152451 0.38821785557554156
0002c0 82 29 f7 72 40 9e bb bf 30 76 f2 f8 24 75 d7 bf
       -0.10788348013662666 -0.3665249282001666
0002d0 c5 26 c6 f1 17 f2 d5 bf 19 95 7a f5 05 fd b0 3f
       -0.34290121660943057 0.06636082881103213
0002e0 31 da 98 04 13 f2 e4 3f f0 50 46 cd 66 fd c9 3f
       0.6545500840937334 0.20304570220162743
0002f0 15 91 98 b7 61 c7 b8 3f 94 76 3f 5b d2 74 74 3f
       0.09679232342074713 0.004994222359497553
000300 45 11 20 21 1d 66 bb 3f 8f 82 d5 76 22 ba c2 bf
       0.10702688273164991 -0.14630537798349905
000310 8d 86 6d b6 f7 50 c7 3f 67 40 0c 02 e2 a7 df bf
       0.18215843589409922 -0.49462175559984306
000320 42 74 e0 5d 72 e7 e0 bf 45 94 1a 2a a8 8a 9d bf
       -0.5282527764826528 -0.02884924656850198
000330 44 df 52 3a b3 7e d0 3f 14 f6 3c fd ab 26 d5 3f
       0.25773316093135556 0.33048534136091345
000340 53 81 dd cf ea 33 b0 3f 84 5c e1 a3 be 07 d0 3f
       0.06329219412646596 0.2504726982492189
000350 50 02 18 c2 41 71 d5 3f 3c 5a 0d 1c fa 43 d8 bf
       0.33503765062781543 -0.3791489862391335
000360 8b a0 fe f8 a9 f9 e2 3f 35 66 cf f4 5b 94 db 3f
       0.5929765570808895 0.4309301272129205
000370 da 3b 96 37 de 67 c2 3f 81 dd 72 07 08 f6 db 3f
       0.14379480089379976 0.4368915627232682
000380 dc a1 c1 af 7a ee bc 3f 5f 41 27 99 bd 26 cd bf
       0.11301390448500775 -0.22774476984205713
000390 4c 87 e9 f1 8b 32 ca bf 67 08 87 ef a1 9b b2 bf
       -0.20466756164665367 -0.07268726442183181
0003a0 ca 83 96 2e 48 cd b1 bf 4b 59 37 cc f6 0d c6 3f
       -0.06953860413933835 0.17230114909643598
0003b0 f1 8e df e2 49 43 ac 3f c1 7c 0b 44 ca c6 ba 3f
       0.05520087141465336 0.10459579621555105
0003c0 6a cc 72 ee 4a 88 c6 bf 18 d5 6a c9 57 a4 d1 3f
       -0.17603432314863038 0.27565569562587333
0003d0 e9 1c d8 3e 62 8e c2 3f 75 eb f9 7b 04 63 bb bf
       0.14497020786823292 -0.10697963740123646
0003e0 de ad ce 73 10 da d9 bf c6 e8 15 f1 78 b3 de 3f
       -0.40393458661375614 0.47970412772668813
0003f0 ef 52 8d e0 af 45 d6 bf a5 c4 f7 ff d2 f9 d4 3f
       -0.34800335816298306 0.3277480601964931
000400 32 10 f0 c4 b9 7f 99 bf 55 d5 eb 3c f2 0e 89 3f
       -0.024901297230840842 0.012235538944404803
000410 bc f0 b4 e3 7a d4 c4 3f 18 f2 f8 b4 55 99 a6 bf
       0.16273437613006603 -0.04413860162864952
000420 34 ff 72 6a 94 11 ab 3f 51 94 91 d0 95 47 c6 3f
       0.05286849784306327 0.17405960735337314
000430 fa 75 94 8d 4a a7 cd 3f 49 10 5d 28 44 69 b9 3f
       0.23166782296259197 0.09926248536527384
000440 09 7a 6d c5 ba ce d8 3f 0e 9c ce ea bb 0b e3 bf
       0.387617771912034 -0.5951823793483315
000450 ba 59 4b b4 1e ec d8 bf f4 c2 de 39 74 60 c1 3f
       -0.38941161734456 0.13575604272548214
000460 62 7b 8d 70 07 42 d1 bf 61 b9 78 eb 29 27 e2 3f
       -0.26965509406539045 0.5672807311109801
000470 9d 13 e1 d6 48 b8 cc 3f 0b 86 e0 22 89 80 ce bf
       0.22437391750477512 -0.23829759791355828
000480 b9 89 19 5b 19 30 cb bf af 64 0c ea 3d ae da 3f
       -0.21240536640386923 0.4168848786953942
000490 c5 34 0b 19 0a 6a cd 3f 28 b0 18 d8 48 3b 97 bf
       0.22979856703606152 -0.022687090100746016
0004a0 9c 12 de c3 ae 29 d8 3f 02 2a fa 55 8c 09 cf 3f
       0.37754410865481147 0.24247888753991736
0004b0 c9 40 a0 59 76 d7 d2 bf dd 93 c4 4c 92 c5 be bf
       -0.2944007754567904 -0.1202022015973649
0004c0 31 6b 73 22 74 1e a2 bf 7b 90 f4 05 fa de c8 bf
       -0.03538859291594177 -0.19430470743930414
0004d0 65 82 bc 28 30 3d ca 3f 70 d1 f5 5b 28 99 c4 bf
       0.20499231328087145 -0.16092400064702472
0004e0 9d 28 7d 37 e5 d3 df 3f 8a 00 cb da 2f 15 c6 bf
       0.49730806750143036 -0.1725215738606532
0004f0 94 40 e5 58 0f 7e 98 3f a9 d1 80 af b6 81 d5 bf
       0.023918380547286747 -0.3360420907877378
000500 60 cc 58 d5 af a0 d2 bf 0d d6 c3 f6 06 25 e2 3f
       -0.29105754694609764 0.5670199222210514
000510 15 62 44 df 45 d0 c3 3f 5f cd 4f 5c b0 4d e1 3f
       0.15479348565783427 0.5407335093463351
000520 16 f2 4f e2 ca f5 cf 3f de b7 be 4d 8f b6 d2 bf
       0.24968849230198548 -0.29239256469997865
000530 ed 46 4a 3f f4 4e 9e 3f 2f b4 e8 00 bc 6f b0 bf
       0.029598060954021333 -0.06420493147079818
000540 3a ed d7 fa 3b 3d ba 3f 5b 86 91 3e 9c 0d de 3f
       0.10249686121089932 0.4695807086010057
000550 f3 53 42 0d 01 75 c9 bf 97 02 c3 14 36 d7 30 bf
       -0.19888318202416108 -0.00025696821536417544
000560 aa 92 b6 83 5d ee 3b bf 5e c3 cd 81 ce ee 3f bf
       -0.000426194983186338 -0.00048725644756246976
000570 cd f4 1e 62 00 e1 2f bf ba fd d8 55 bf 92 37 bf
       -0.00024321679762621118 -0.0003596989753056019
000580 ea 16 45 e1 3c 47 4b bf f1 43 16 54 92 77 41 bf
       -0.0008324668183738702 -0.000533052873082805
000590 23 70 a9 7a 61 51 38 bf c4 00 43 55 e7 d0 33 bf
       -0.0003710616098595595 -0.0003023686197245574
0005a0 31 bb 4f 78 d1 f2 e4 3f a1 b4 e4 a9 ea 3f 9d 3f
       0.6546408986886033 0.02856413518855006
0005b0 a3 e8 0d 3b 7c 42 b6 bf 51 67 79 32 3d 33 cc 3f
       -0.08695198480373505 0.2203136917549338
0005c0 32 8b b2 9c 7f d5 b8 bf 92 85 0d c9 1e ee a1 3f
       -0.09700772834416396 0.0350198383737378
0005d0 2d 31 ca 0f 8b 5a e3 bf e2 73 9e 90 6e 29 d1 bf
       -0.6048026379008086 -0.26815380213684936
0005e0 f3 5c 91 9e 8e bf cc 3f 8a ff 81 39 9b 4f ba bf
       0.2245958589798885 -0.10277719644545705
0005f0 c6 16 1f f1 c6 9e be 3f 2d 71 1a 49 af c7 ae bf
       0.11961024653200089 -0.06011722342847956
000600 fa 8a bb 60 8c b4 e3 3f ce c7 c6 85 5e e8 ac 3f
       0.6157895936306368 0.056460336523187146
000610 5b 98 56 67 48 a4 c7 bf 86 94 50 da 86 e3 92 3f
       -0.1847010140019759 0.01844607074248874
000620 ac 2c ee 5b 97 f5 dc 3f 56 d5 e1 54 71 31 bf 3f
       0.4524897001035224 0.12184818575209042
000630 90 2c c1 6a 19 a2 d6 3f 95 8d e4 a8 74 da c0 bf
       0.35364375519993363 -0.13166673895566974
000640 b5 20 f2 8a 7b c5 e4 3f 2c 9d b0 94 ca 98 da bf
       0.6491067613397009 -0.4155756427812374
000650 2c fe 35 75 d9 48 db bf 82 df 6c 59 97 ab a7 3f
       -0.42632137724283115 0.04623101202599768
000660 67 20 25 ea 42 79 d6 bf d1 b6 68 bb 65 1e d5 3f
       -0.35115120759701884 0.3299803095022585
000670 6a 3e 9d 85 6e 20 bd 3f 1a 05 82 16 21 b3 95 3f
       0.1137761188704133 0.02119113635899792
000680 82 e5 57 51 5c d5 9e 3f 2b 3c d8 2d 1d 92 b0 bf
       0.030110781159213847 -0.06472952241186707
000690 24 07 e0 05 3f 93 da bf 6d 2f a2 eb 32 80 b6 3f
       -0.415237193810855 0.08789366009494666
0006a0 66 82 c1 fc 88 58 c4 3f b7 08 c9 a8 c6 5f b2 3f
       0.1589518770370148 0.07177392597899056
0006b0 b2 96 0b c4 ce aa de 3f 04 35 1b c4 c5 7a d5 3f
       0.4791752733711788 0.33561844016078646
0006c0 2c 53 b5 61 f1 10 96 be 69 f3 f9 41 d4 93 a7 be
       -3.2881175267744953e-07 -7.026629908615163e-07
0006d0 5b 7f ad a2 16 05 a5 be 72 ef 7d 39 f5 a2 94 be
       -6.264411401661443e-07 -3.075086225585143e-07
0006e0 a6 0c 73 1c 7b 8f 74 3e f1 f6 86 4a 7b 09 bc be
       7.659372790445301e-08 -1.671137662125963e-06
0006f0 80 0e b0 ca fd 84 91 3e 5e f9 06 36 e1 de 77 be
       2.6106085709873495e-07 -8.892500381102287e-08
000700 d6 40 66 45 58 f8 9c be b0 2d 6e 2a ec 9a a3 bf
       -4.3168808385678654e-07 -0.03829134004544288
000710 03 39 69 7b a6 c1 d5 bf bb 83 d0 64 0e 14 d3 3f
       -0.3399444775758555 0.2980991348759365
000720 58 4f d1 7d a0 af 82 bf a6 51 2b b1 e5 8e bb 3f
       -0.009124044265412287 0.10764918876095084
000730 0a 3b 85 be 6a 0d 81 bf b4 65 09 37 cd 79 84 bf
       -0.008326372088644191 -0.009997943155371704
000740 de 74 ec a2 7f 99 ca 3f 02 5d cc 5c 58 1a d7 3f
       0.20780940490013838 0.3609829813226072
000750 50 31 24 90 1d 17 c4 bf a2 95 c9 37 55 e9 9d 3f
       -0.15695542848733135 0.02921040680884846
000760 e8 88 e2 4d 31 38 c3 bf 02 da ff 0d 9e c7 d2 3f
       -0.1501523618981715 0.2934336792672242
000770 f6 e1 ea 56 6f f8 c6 bf 48 13 f9 e4 47 01 b5 3f
       -0.17945663208025991 0.08205079403076099
000780 f9 9f df e4 f9 ac db 3f b3 7a 6a 19 57 94 86 bf
       0.4324326262562859 -0.011025124037869238
000790 3a 1b 93 ed d3 d1 da 3f 2f c5 23 5c 40 86 9b 3f
       0.4190568752350604 0.026879315971148173
0007a0 0a d8 19 62 ae 21 ca 3f 16 ab 3b a3 9b 02 dc bf
       0.20415286817632278 -0.43765917721491243
0007b0 c1 fa 09 6c df e2 b2 bf 66 82 09 c6 ac 04 d1 3f
       -0.07377430331869574 0.2659103330570701
0007c0 da e2 96 e1 c3 6d d2 3f 5b 15 57 46 3c 54 95 bf
       0.28794953375067467 -0.020829145234320872
0007d0 9b b1 7c 8e 29 a1 a9 bf 31 8d a9 df 5a 74 db 3f
       -0.05005769600242901 0.42897674409887815
0007e0 55 dd 87 50 7a ac bd 3f 40 36 04 cf 75 c8 d7 bf
       0.1159130522354322 -0.3716101190228507
0007f0 63 f0 10 8e 18 14 e0 3f a2 7c 8a 97 f9 e0 e0 bf
       0.5024531149606556 -0.5274627647194345

bias f8 [29]
000000 80 ad 43 82 ce 91 d9 3f 77 79 fb a3 40 69 c5 3f
       0.3995243332016898 0.16727455145787548
000010 7e 93 50 8a f8 cf b3 bf 5c d4 d8 4a c6 1e b4 3f
       -0.0773921334917542 0.07859458281821347
000020 79 5a f4 78 fc cd bf 3f 14 6f a9 cc 66 88 e5 be
       0.12423685029021127 -1.0267648027077347e-05
000030 68 4a 4c 00 3f e8 c5 3f 90 84 b4 7a f0 56 c0 bf
       0.17115008844901358 -0.12765317908727924
000040 00 67 64 fd 1c 60 7a bf 71 56 33 81 fd 82 d1 3f
       -0.006439316979845122 0.27362001054039015
000050 9c f6 14 a6 54 02 c6 bf 5e 80 00 05 70 9a 8c 3f
       -0.171946126074478 0.01396644130005614
000060 d7 e0 b6 b2 ba 3d bc bf f3 cf 64 b1 53 5b d2 3f
       -0.11031691420692212 0.28682415317166415
000070 8d 42 e4 d1 ab 11 c3 bf 61 3b 57 36 2b e3 b0 3f
       -0.1489767813550497 0.0659663207691046
000080 25 e1 b1 bb 0a e7 a1 3f ea eb 2f bc c7 09 bb bf
       0.03496583501049803 -0.1056179842416182
000090 b3 07 ca 34 a5 93 c0 bf 6a e7 1b 10 4d 91 23 bf
       -0.12950577809902838 -0.0001492888041452715
0000a0 20 0c e1 a6 45 35 cd 3f 4a 5f 8a be e0 08 d3 bf
       0.22818823479073647 -0.29741686446640314
0000b0 cf 65 95 bc cd ea a4 3f 12 62 51 22 81 09 c3 3f
       0.040853909750420685 0.1487275521819958
0000c0 d1 f2 d3 05 a5 e5 88 be eb d6 3e 8a 6f cf b5 3f
       -1.8549747241710605e-07 0.0851964676392886
0000d0 a9 10 fa 7c 15 3a ac bf 18 63 88 5d 07 6f d1 3f
       -0.05513064528079898 0.2724016583829765
0000e0 dd 58 8c 7a bc a4 a0 3f
       0.03250683780622563
