Trained_models/8/predictor4_100_6.pth (torch, 96855 bytes, 16 tensors)

encoder1.weight f8 [53, 100]
0	0x3fc8b908835a12ee	0.1931467667929136
1	0xbfb611d812324ebd	-0.08620977825404004
2	0xbfa30274925d13d3	-0.03712810789742318
3	0x3fbc7cc18fc5cbb1	0.1112786270148678
4	0xbfb34769f975d3b4	-0.07530844059313219
5	0x3f8b12e3f557f744	0.013219624447625151
6	0x3fa1fedc39980204	0.035147554426661315
7	0xbfb5c3cf88e11637	-0.08501908389833877
8	0x3fbf93979db8b212	0.1233458290159393
9	0xbf8aaa9eab8fa964	-0.01302074395239989
10	0xbfb40c311c4b4c38	-0.0783110326840849
11	0x3fb9f6a5fb36d86e	0.10141980536613612
12	0xbf9787cbc027dc3e	-0.02297895775151581
13	0xbfae0daa1d7d60ce	-0.05869800195677187
14	0x3fc53c14187da098	0.16589595027767667
15	0xbfc9d13080649a67	-0.20169645566166425
16	0x3fc4516cdc6889e1	0.15873490106703428
17	0xbfb7806bbd97c75c	-0.09180329684002458
18	0xbfa40b721b2f08c3	-0.039149823969198326
19	0x3fabceb7501ccf0e	0.05431149342476092
20	0xbf9e7f0f26c2f6e7	-0.029781567326373184
21	0xbf878618630ac0c9	-0.011486235163232899
22	0x3f90bab4beac5cf6	0.016337226999067554
23	0x3facd131cfe5dad7	0.056283527973325746
24	0xbfa32dccf735fa4f	-0.03745880620680408
25	0x3fb713557fda20ff	0.09013876315487222
26	0xbfb7b96aea485431	-0.09267299861706203
27	0x3fbae14d73c54bb8	0.10500034405167369
28	0xbfbdeb12352f63e7	-0.11686815069641875
29	0x3fb423a62430d0e3	0.07866896041452125
30	0xbfa3767418222abc	-0.03801310343358952
31	0x3f97af2f2c143171	0.023129212441788952
32	0xbfa44f985c5cb981	-0.039669762873347565
33	0x3f8b412935bfcbfc	0.013307878449245074
34	0x3f9926519bc372b2	0.02456023705677763
35	0xbfc292e2565b7d15	-0.14510754791897598
36	0x3fc88da4cbbe4630	0.19182262371445935
37	0xbfcb082f09fc07c2	-0.21118724811100092
38	0x3fbf521a29a77b60	0.12234653012226948
39	0xbfa650c25087dc6d	-0.043584892588051406
40	0x3f90dd8236a0f67e	0.01646998842647073
41	0xbfb856ae202a3a94	-0.0950726345565534
42	0x3fc73276d584e470	0.18122754503000094
43	0xbfd06e524ee87913	-0.2567334909998788
44	0x3fce1fec40c131e1	0.23534920846795074
45	0xbfbff00757ab55c8	-0.12475629701960778
46	0xbf7ae5900019989d	-0.006566584111714982
47	0x3fa4367206dc618b	0.03947788556814932
48	0x3fb3234ce0c26468	0.0747573899010533
49	0xbfc8d3de493174e4	-0.19396570752989029
50	0x3fcdb7d5c62e02d9	0.23217270066017795
51	0xbfc64823b1c6c435	-0.17407652073373617
52	0x3fa08584a9295d89	0.03226866307221161
53	0x3fa037d5b53d25bf	0.03167598569286722
54	0xbfb63dc4174aafe5	-0.08687997406622079
55	0x3fa9bf7e20bdbb27	0.0502890982596596
56	0xbf95ecb1b04b3a55	-0.021410728821871967
57	0xbfbd68ba8c0c20b6	-0.11487928313374848
58	0x3fc9edef2f00f02e	0.20257367892361472
59	0xbfb89cba178b513f	-0.09614146303949143
60	0xbfac63d57dfd9cb2	-0.055449172620506984
61	0x3fc48e0c11365ad7	0.16058493462033738
62	0xbf92553d04e37b13	-0.01790328352296473
63	0xbfbff92f3f3ad57f	-0.12489600461670668
64	0x3fc97addd7b69c95	0.19906209023358615
65	0xbfc0f10ca5a4c0dd	-0.13235624397339665
66	0x3fb6d48d81261ba2	0.08918079760597533
67	0xbf9719d239a8e831	-0.02255943753173301
68	0x3f9a0fefc11fa304	0.025451418077781632
69	0xbfb173c3cd60d285	-0.06817268146626006
70	0x3fc4258eacd31f18	0.15739615858751033
71	0xbfc5a6e26b68d7ce	-0.1691554092846545
72	0x3fc6b9037d93efbb	0.1775211680577494
73	0xbfb3a1e0f9dc00ad	-0.07668882465441369
74	0x3f92f0a489e0a79d	0.01849610415971591
75	0x3fa3e3b8435e6daa	0.0388467390286807
76	0xbfa57fc06b35beb4	-0.04199029263224699
77	0x3faa4d5b04e1eab7	0.05137142595863991
78	0xbf91472cf59647aa	-0.01687307595199853
79	0xbfbb065b53928279	-0.10556574621524274
80	0x3fc3f5d6ca3e6012	0.15593991160562887
81	0xbfb261234ce3e12d	-0.07179470660401384
82	0xbfaede848c3f7038	-0.060291425819486155
83	0x3fc03d9c31b72db7	0.12688019206539788
84	0xbfb34fe060a5a798	-0.07543756827877102
85	0x3f5455c106b610f6	0.0012411484738957235
86	0x3fc48f0ebbe2ab90	0.16061577009290007
87	0xbfbc73ce7976c4b6	-0.11114206757953835
88	0x3fbaf0a3b3e07fbb	0.1052343668129642
89	0x3faeab65620a1bc3	0.059901397912703234
90	0xbfc1a820a85901ec	-0.1379433462152656
91	0x3fc3ed2a8e866a7f	0.1556752391741902
92	0xbfbd90b011e5944a	-0.11548901020940253
93	0x3fc22a4d4c828d60	0.1419159530242764
94	0xbfbb9bbf1162b370	-0.10784525083972851
95	0x3fc20b98caad3e08	0.14097890755009268
96	0xbfc4f8eb3964375b	-0.16384640028303007
97	0x3fcb498d545fdf58	0.21318213100289074
98	0xbfc1ebec8475186b	-0.14001232593199417
99	0x3fbdb42601ace82b	0.11603009739784002
100	0x3fc1b34493312066	0.13828332125763437
101	0xbfa37f94b5507a55	-0.03808273995695247
102	0xbfc06a904fad6a0c	-0.12825206652162568
103	0x3fd0a0195e1260ab	0.2597716730756569
104	0xbfc3f20c583465e4	-0.15582422549122932
105	0xbf92542388c164e8	-0.01789908907116891
106	0x3f9ce055a1178bf6	0.02819951816298879
107	0xbf9e44c609531d47	-0.02955922538674585
108	0xbf59abd25cb79bac	-0.0015668443983203146
109	0xbfb2066b2e21f132	-0.0704104411724458
110	0x3fa13394da382766	0.033596660268883125
111	0x3f815c4481bc2a20	0.008476767739485302
112	0xbf91153b4aa902e0	-0.016682554656884174
113	0xbf961b12222c2acb	-0.021587642036176285
114	0xbf916f56dca0ab42	-0.017026288238564342
115	0x3f831a8cc99d3f39	0.009327983763483526
116	0xbf9849d2d1ffa581	-0.023719114367769748
117	0x3fb039f3eb1212f5	0.06338428963688243
118	0xbfbde145a30edd50	-0.1167186282244661
119	0x3fbd6686c5462d0f	0.11484567943823641
120	0xbfb783ba06682350	-0.09185373932281249
121	0x3f9f45c18aa5b083	0.030539535605769174
122	0x3f99b83daae8a3b0	0.025116885715906256
123	0xbfb5ba7d6d60f0fb	-0.08487686081292971
124	0x3fa916af21609c46	0.04900119097174431
125	0xbfa8e2832352a0a5	-0.0486031513804062
126	0x3fbddaaf79b20561	0.11661812516287774
127	0xbfbaef4e4988c2df	-0.10521401686925057
128	0xbfa0dbef7261c89f	-0.032927973473207965
129	0x3fb61f7d49c83430	0.08641799022025576
130	0xbfc26231553e224b	-0.14362160360566842
131	0x3fb46ab008349fe6	0.07975292396861242
132	0xbfbe68b16ce12efd	-0.118784989435138
133	0xbf9bb0bf054235d1	-0.02704142064663079
134	0x3fb10a1a1b19c861	0.0665603939212658
135	0xbf995cf11a4975d7	-0.024768607358387342
136	0xbfb77e552389d972	-0.09177143209112673
137	0x3fc6bd4868bc9a8f	0.17765145410631475
138	0xbfc1b572f5a4ef9f	-0.13834988588666605
139	0x3f640833cf45c104	0.002445317450273989
140	0x3fb1c5b04f64ff3d	0.06942274034827008
141	0xbfc5632ba4ca89f0	-0.16708894297069277
142	0x3fd253395c52d74c	0.28632959381080947
143	0xbfd30f41689df1a0	-0.29780612198353573
144	0x3fb927c341c1fd54	0.09826298098959302
145	0x3fbc89d7257f1a75	0.11147827783052285
146	0xbfd0a0697cd0536b	-0.25979077519268995
147	0x3fb8ed4651d425bd	0.09737052438517586
148	0xbf7b74d639206d9b	-0.006703221139129491
149	0x3fa420e3c01cd197	0.03931342811702903
150	0xbfb63fe95db13dfa	-0.08691271340762077
151	0x3fb9137d274a0d1c	0.09795362672052871
152	0xbfbd8b6198009383	-0.11540803872101262
153	0x3fc3c4e9e47e733e	0.15444682747775035
154	0xbfbba823f37d1837	-0.10803436941668641
155	0xbfb82fd690c4be17	-0.09447995218646842
156	0x3fd26097edfe50a7	0.2871455978540873
157	0xbfc6b737fee58be7	-0.1774663920033099
158	0xbf8621052c6e6418	-0.01080516855090434
159	0xbfa8b716aa092357	-0.04827185464507149
160	0x3fc033127fc2597f	0.12655860174409025
161	0xbfbc53dff28f4d0c	-0.11065482780331964
162	0xbf9208a5d90c8fdb	-0.017611113903640657
163	0x3fac421d47f26cce	0.05519191268214173
164	0xbf6a5adecd4eb022	-0.0032171584702691694
165	0xbf86de2ab790e169	-0.011165937163341426
166	0xbfc0878647bec5f5	-0.12913588050064076
167	0x3fd126042a04a79d	0.2679453287442984
168	0xbfc964415b2ed1e0	-0.1983720488766627
169	0x3fa9af9fe238c4d8	0.05016803394790664
170	0xbfb03cb40f0e7bc8	-0.06342625968544191
171	0x3fae34cbd0a38da8	0.05899655267583209
172	0x3fb578de7503d8f3	0.08387556416332469
173	0xbfd1f0a69c42f2d3	-0.28031316051400984
174	0x3fbf72dd2e31a550	0.12284643533498252
175	0xbfa314490050cf25	-0.03726413849690705
176	0x3fc23f646c7c6309	0.14255957886850748
177	0xbfce79490decd1d1	-0.23807633571563128
178	0xbf7f82331ed23d53	-0.007692527474446226
179	0x3fcc6b581f1aa184	0.22202588576079674
180	0xbfb51d226bcc1635	-0.08247580653922955
181	0xbfc4268fd317cea6	-0.15742681319499247
182	0x3fb0f00a380bfeff	0.06616271847087417
183	0x3fcb5be19745e4f8	0.2137414921415155
184	0xbfd008b1e4543494	-0.2505306939863854
185	0x3fbd8cf4d7d301a5	0.1154320742525728
186	0xbfab9f217397396d	-0.05394844566363841
187	0x3fb70d8dbf875f2f	0.09005056310649871
188	0xbf95e824f28696c5	-0.021393372824283902
189	0xbfc58e18f9b5cdc3	-0.16839897339705887
190	0x3fc1bc7e5a71ab9d	0.13856486717426444
191	0x3f8828e491d1c1a4	0.011796746921590558
192	0xbfbf6ef2a76c1bda	-0.12278668010195251
193	0xbfaddca0233d50e7	-0.058323864270876595
194	0x3fc8d5d69722beb6	0.19402582530664397
195	0xbfc2870a1a2bb30e	-0.14474607732645278
196	0x3fb2d6d5bf385a9b	0.0735906211706187
197	0x3f8015f992916c11	0.007854413781549526
198	0xbfc49f8a955aa0f3	-0.16111881535221748
199	0x3fd55ee8b414f464	0.33391778551214757
200	0xbf9243d61f86feb4	-0.01783690040042414
201	0xbf84371f98a96907	-0.009870764585845139
202	0xbfb0700fdb3af5a4	-0.06420992948820597
203	0x3fb71b3babafff0b	0.09025929395283698
204	0x3fae4c05815f40f7	0.05917374805687985
205	0xbfcd1f69f19e5d64	-0.22752117440971198
206	0x3fb6dd13c29e7637	0.08931087018432825
207	0x3fbbd545aa91023f	0.10872302450389613
208	0xbfc969a2b3af14eb	-0.19853624127987443
209	0x3facafd8788ab32d	0.056029095377516526
210	0x3fb0668cb4064c9c	0.06406478304988855
211	0xbfc968b0654b5dea	-0.19850735612884246
212	0x3fc527d18494d523	0.1652776620264059
213	0xbfa32f889713db75	-0.037472027246557106
214	0xbfc38943b6e3d432	-0.15262648039029753
215	0x3fd07c1c12fee830	0.2575750527863674
216	0xbfbbc74d6b5e3e3a	-0.10850986357967765
217	0xbfbe19342075a05d	-0.11757207672565202
218	0x3fcd74143dbeef98	0.23010495200093994
219	0xbfc386e1211a6b5d	-0.152553692973778
220	0xbf4621ed5a645c5c	-0.0006754311514524203
221	0x3fc356fe9669455e	0.15109236091897577
222	0xbfc898b49d6b31c9	-0.19216020285092686
223	0x3fc180586df11ee5	0.13672929161315675
224	0xbf6fa32ebb1026b7	-0.0038619911870270934
225	0xbfc813cdc8260139	-0.18810436509012066
226	0x3fce6ae80fab5a36	0.23763752713303327
227	0xbfb17f21bb6a8dd4	-0.06834612680045576
228	0xbfc0773fe23a5c22	-0.12863920732772366
229	0x3fc7642b1fe1717c	0.18274439865752956
230	0xbfc49f1c8ae3abac	-0.16110569745737047
231	0xbf99867ff8088a2e	-0.024927138818506993
232	0x3fc9b406b273c504	0.2008064624165301
233	0xbfd0039f75aec41c	-0.2502211236233636
234	0xbf98021a99c71128	-0.02344552577575701
235	0x3fc6eb9753e7f1f4	0.17906467053388975
236	0xbfc5b0a296160a11	-0.16945297554418962
237	0xbf91b51f1e7c4e77	-0.017292486415568988
238	0x3fb46d3f1d99ca77	0.079791969992394
239	0xbfa507c507ee10e9	-0.04107490274239629
240	0x3fa79a4a1e98186f	0.046099010691293844
241	0xbfb82e0917fec9fe	-0.09445244632551206
242	0xbfb89cf87a399986	-0.09614518150337945
243	0x3fc9d1ade25ae7ae	0.20171140244002345
244	0xbfbf3a2e1aac3cd2	-0.12198150778953057
245	0xbfcaa962cd79f68d	-0.20829424889591444
246	0x3fd0fc784ec4dea8	0.265409542963861
247	0xbf8e887276904922	-0.014908689730905925
248	0xbfccfae6b169d737	-0.22640689528241761
249	0x3fc3555fbd6894b5	0.15104290722334715
250	0xbfa5485251c08fed	-0.041567394713894014
251	0xbfa9a157a6b8b4f8	-0.05005906973051738
252	0x3fbccb0c5de4feb9	0.11247327129694441
253	0xbfc2796e70b092c3	-0.1443307924502247
254	0x3fb524f0f29c1e1b	0.08259492800799999
255	0x3fbdd02d4995857d	0.11645777746664084

encoder1.bias f8 [53]
0	0xbfa7c635b83c4a21	-0.046434096088109784
1	0xbfb7a4eb5ee101e0	-0.09236022058849569
2	0xbfb8266a3ce8706a	-0.09433616625796196
3	0x3f83f254cc4366e1	0.009739553912754885
4	0x3f86099d9a836ae1	0.01076052787577936
5	0xbf88f62608577e53	-0.012188241128512056
6	0xbfc02a7680ee0ec4	-0.12629586501508616
7	0xbfd26c8798d99cb2	-0.28787412573587823
8	0x3fd855c682a09b70	0.3802353168161323
9	0xbfb8d651a5fae1ad	-0.09702024748083345
10	0xbfbf25200a17d03b	-0.12166023489390991
11	0xbfa6334eb2db8ae9	-0.0433601945240037
12	0xbfa6b0d86e7ee2c0	-0.0443179736025221
13	0xbfa37c28f8b35fcb	-0.03805664096734026
14	0xbfeb0018ccfd2611	-0.8437618259133065
15	0xbfe322ef4e3e8c2c	-0.5980145004472255
16	0xbfb6afd7d54281db	-0.0886206527379793
17	0xbfa540631e2db1e9	-0.0415068601931557
18	0xbfb1a4344463e083	-0.06891180677109969
19	0xbfabdade5ec2f3f2	-0.05440421015507714
20	0xbff62cf3e5da75be	-1.3859747866293755
21	0xbfbf3290315b2283	-0.12186528401356082
22	0xbfb1446c9f0147de	-0.0674503219791229
23	0x3ff81927cc1fea93	1.506141469347004
24	0xbfa41d44123d5662	-0.03928578112269744
25	0xbfabae33085f6e37	-0.054063410541598626
26	0xbfeb842e7a78e983	-0.8598854438817373
27	0xbf74460db707a649	-0.004949620794357631
28	0xbfb3549871d20de5	-0.07550957468816184
29	0x3f8dc128fc348cab	0.01452857989949615
30	0xbff4be48a1abbfc1	-1.2964559855717968
31	0xbfbfb1b889e9dba3	-0.12380555502919192
32	0xbfa7ae29dfb2b2ed	-0.04625063758553503
33	0xbfbe8aebde5061f7	-0.11930727174365773
34	0xbfe9bca09177a10a	-0.8042757836492751
35	0x40048413637d8f5a	2.5644901058857785
36	0xbfca6c97c47e57bd	-0.20643899053965056
37	0xbfb4b2c67a414657	-0.0808528946374961
38	0xbfb0fd42ecfd1f4f	-0.06636446271761297
39	0x3f915e41c90b35f0	0.01696112432073521
40	0xbfa261b4f394130d	-0.03590169404382069
41	0xbfd3203a486e4ad0	-0.2988420207340541
42	0xbfc1d756e2566fa4	-0.13938413669245364
43	0xbfa60926a3f5f498	-0.04303856612657703
44	0xbfc277b4989fc37b	-0.1442781205401181
45	0xbfb7aac320ef2fb6	-0.09244937471447554
46	0xbfc8784f9d222f0d	-0.19117160007987657
47	0xbfb76c81af5fb069	-0.0914994290503174
48	0xbfa62352ac96ede0	-0.04323824269109955
49	0x3fa2cd520d220b1c	0.03672272119822237
50	0xbfa28460d5a7d092	-0.03616621597385107
51	0xbfba78acebfbbb16	-0.10340386163055046
52	0xbfacd6152be59d96	-0.05632082138873355

encoder2.weight f8 [6, 53]
0	0xbfa1201bf1d90064	-0.0334480984424779
1	0x3f9f5f6b9b5d8f6c	0.030637437207942694
2	0x3fc1a6e6782716c4	0.1379058920558035
3	0x3fb5caf9d086f662	0.08512841549869557
4	0x3f86d28f381546cd	0.011143797778149356
5	0x3fb629b1931427c8	0.08657369461812359
6	0xbfb3bcd47688cc13	-0.07710006612687463
7	0x3fd43b70dbadf5c9	0.31612798169211637
8	0xbf9d58b3454a2813	-0.028658677200418547
9	0x3fb830c4a189bac9	0.09449414199637397
10	0xbfab65e928f7f29a	-0.053511892558139
11	0x3fc4d1819c856584	0.16264362471228477
12	0xbfb2f5df82d7ded1	-0.07406422562041405
13	0xbfa4120c0172955b	-0.03920018689795298
14	0xbfae92d627da4d85	-0.05971402393802364
15	0xbfce30f11e785d2a	-0.23586858737756106
16	0xbfbdd48340a0c596	-0.11652393653709789
17	0x3fb2ec80ddfd6f79	0.07392125529935169
18	0xbfa02c6f9081eb26	-0.03158901824004649
19	0xbfa1a6a7e6cf338e	-0.034474608349774546
20	0x3f719beb8c085136	0.004299087625004019
21	0x3fb7e5c770ed26be	0.09334990031234278
22	0x3fb04e803890479e	0.06369782811114397
23	0xc005299c442e1a86	-2.645317585617991
24	0xbf949cc38805281a	-0.02012925641728467
25	0x3f8d557227008720	0.014323131385086507
26	0x3fc1ba4e8daab10d	0.1384981338245627
27	0xbfa485e5f7159b05	-0.04008406296889259
28	0x3f97f6f6618093fc	0.023403024388375812
29	0x3fa160a6e809b8ad	0.0339405210732918
30	0xbfb76fd503091d36	-0.09155017208205582
31	0xbf92481252c8013c	-0.017853056242530516
32	0x3fc0193e7d2b22dc	0.1257703887152023
33	0xbfb1a2a3241524f6	-0.06888789778635726
34	0xbfb2cce0a08b035c	-0.07343868178851437
35	0xbfd00408a71a411f	-0.25024620360001565
36	0xbf6de6ba211d5f2b	-0.0036500583018258723
37	0x3f8d6de33ee75fd4	0.014369750363513768
38	0x3f936f729c9d860f	0.01897982674507231
39	0x3f9985292a8f0fcc	0.024922030661187297
40	0x3f90a91ef00c705a	0.016270144845393332
41	0xbfbaba6781fe124c	-0.10440680431026655
42	0xbfb0c577a4c7603b	-0.06551311276359766
43	0x3f9976979bd44233	0.02486645592313348
44	0x3fd9861ead20d2e3	0.39881102473309066
45	0xbfc0009a5c43ab38	-0.12501840119451813
46	0xbfa86e4aca29ef3b	-0.0477164623052588
47	0x3f8e5d3aaff811c4	0.01482625817789874
48	0x3fbe53087ee560b4	0.11845448587462465
49	0x3fba2527459e88ea	0.10212941598595973
50	0xbf7d776156483216	-0.007193927977379852
51	0x3fac6cbb903e7583	0.05551706443587092
52	0x3fb63f36ea3c72b0	0.08690207689910312
53	0xbfce540f029a2eee	-0.23694026591362366
54	0xbfcc2a73af7a9eec	-0.22004552906331953
55	0xbf82b951a7ab0acb	-0.009142530373883592
56	0xbfcf6fce4575e6e4	-0.24559954063061362
57	0xbfc6c80e280a5b15	-0.17798020320034227
58	0xbfc5e91ead43f875	-0.1711767526648519
59	0xbfd0389907e6cab2	-0.25345445415147616
60	0xbfe2998a9ae1cf7d	-0.5812428498306726
61	0xbfddb86eb1b381ff	-0.46438186029084244
62	0x3f97ae2c12804a86	0.023125351552219196
63	0xbfb897afb4a88954	-0.09606455002407205
64	0xbfeacbdb0a91b58a	-0.8373847204617715
65	0x3fd8097797f964ca	0.3755778297541609
66	0xbfde48482dd9415e	-0.4731617400875815
67	0x3fd0f536d4049122	0.2649666853415217
68	0x3f7b46db58dd7ec9	0.006659371208882888
69	0x3fce1edb4722e24a	0.23531666730356654
70	0xbfcfb6e7d51cc936	-0.24776933580285182
71	0xbfbecd353e17892c	-0.12031872526089121
72	0xbfb73e8f0d1e14c3	-0.09079832144023485
73	0xbfe271273546e56d	-0.5763126411977005
74	0xbfd6cb7e42091daa	-0.3561702389601701
75	0xbfc92cd170d30209	-0.19668024071690152
76	0x3f983439f6dda3a2	0.02363672799348005
77	0xbfc6c0fcc1d022ce	-0.17776450599219235
78	0xbfc2882324c21960	-0.14477958006700486
79	0xbfda0b69ff5b488a	-0.4069466584888991
80	0xbfc28064049ea9c0	-0.1445431730802067
81	0xbfbeb1f97197e766	-0.1199031736686301
82	0xbfc3dc6422d40cf1	-0.15516330433465655
83	0xbfdde2f27a2c2a01	-0.46697675639066466
84	0x3fb3ff297fc9d6f0	0.07811221475443708
85	0xbfbe340cf102e8f5	-0.11798172840181904
86	0xbfd8d5a6a9f37d77	-0.3880402240447078
87	0xbfe32d3a743e6f51	-0.5992710371387863
88	0xc006565cc4b647b8	-2.7921691291930664
89	0xbfc5f023ef32d291	-0.17139100246062758
90	0xbfc25cd294373d19	-0.14345772015665473
91	0xbfc81f8024bf878f	-0.18846132082313402
92	0xbfcd66cbd4008b77	-0.22969959117571268
93	0xbfc5b60bc499e23d	-0.16961810207046027
94	0xbfb9d39f0ec21e33	-0.10088533506688506
95	0xbfaee4df61a953b8	-0.06033990924030469
96	0xbfbb7d1e1a1e8217	-0.10737789285349951
97	0xbfd85326a93c0b2b	-0.3800751354867084
98	0xbfd1a6aceb8f89e9	-0.2757980633161013
99	0xbf9cd5f7e471d422	-0.02815997440162133
100	0xbfc17426300c1d40	-0.13635709138928043
101	0x3fbd70ae05343dfa	0.11500060679485805
102	0x3fcdd548310ef519	0.2330713500540831
103	0xbfd9656f391b124d	-0.3968160684274025
104	0xbfd481dadd4f808b	-0.32042571651801016
105	0xbfe125291bea337b	-0.5357862038814426
106	0x3fd179b02311464b	0.27305224823530655
107	0x3fca152504b03e61	0.2037702820675689
108	0x3fe0a3665c86ff26	0.5199462706732205
109	0x3fcb0d9b0fbdb6f2	0.21135271328551358
110	0x3fd43e24b323598d	0.31629292959169036
111	0x3fdc8a14e5a0774e	0.44592783379072365
112	0x3fb7a7ce6c4ea2a0	0.09240427154748909
113	0x3fcad0aa2e722baa	0.2094929434573179
114	0xbfd5b329f269c21b	-0.3390602938953024
115	0x3f90015ad3124f0c	0.015630168087752458
116	0x3fb28a573e1619a8	0.0724234129503204
117	0x3fd05a154605c917	0.2554982360662889
118	0x3fa9f7833567fed9	0.05071649577075527
119	0x3fd29751a86a7f25	0.29048577734828235
120	0x3fd38bc1c6b09e04	0.3054050865489162
121	0x3fd26715fd69982e	0.2875418638926729
122	0x3fb8b2377ea048a5	0.09646937219102598
123	0x3fd559f146fb5baf	0.3336146538908293
124	0x3fa0d935ae055ee3	0.032907178395076085
125	0x3fc3bb3f46165ece	0.1541518299315982
126	0x3fe15e4f27bd80bf	0.542762353532474
127	0x3fb5964ce9275699	0.08432465259769585
128	0x3fdb2b8d7469f359	0.42453323715726793
129	0xbf80f70093118348	-0.008283619392558741
130	0x3fd1872e6eaf9e7e	0.2738758164327705
131	0x3fd121b6edcdb964	0.2676827738095169
132	0x3fe0c6cc50656b7b	0.5242673464048119
133	0x3fd3f60457231b62	0.3118906832645988
134	0x3fe3975c505e8845	0.6122266359054797
135	0x3fd76c1ed9f53f3b	0.3659741524215751
136	0x3fdeb15e9fc38245	0.479575782794232
137	0xbfa2660a722d1aa5	-0.035934759557269026
138	0x3fd979eeb6da92a6	0.39806716782394813
139	0x3facac88cc5931bd	0.056003832764506246
140	0x3fcd5f8b9f12906a	0.22947831408703517
141	0xbf93acc0a1e74a5b	-0.019213685876659486
142	0x3fd2412f016b979e	0.2852284921522087
143	0x3fda1a271f4178f8	0.40784624149627247
144	0x3fc9ded975e7367a	0.20211332566252677
145	0x3fd452409b0daf0d	0.3175202860063429
146	0x3fd3e8363ab03006	0.31104808551094754
147	0x3fded9e1c8bd26da	0.4820484600391929
148	0x3fd4292b8d4c7ce8	0.3150128249998958
149	0x3fcf73085503327e	0.24569801474571656
150	0x3fa2e3a71ac9eaca	0.03689310266505215
151	0x3fb385746ecf1d81	0.07625510888384747
152	0x3fca6a53b0bce998	0.20636983995229907
153	0x3fc7354c2fe925c2	0.18131401385680418
154	0x3fe4c16fc69ac666	0.6486128691669364
155	0x3fd778ae6eefe603	0.3667408069009925
156	0x3fd4d462c9fd0ff2	0.3254630062622247
157	0x3fd73f2e376bbe01	0.3632312337130941
158	0x3fd20afb7d9c3957	0.28192031160951586
159	0x3fc6dcd03a706714	0.17861368993254045
160	0x3fbfa1b0b5a2e667	0.12356094774704617
161	0x3fc6dbf363032a0a	0.17858736357295896
162	0x3fb9e5c04261e115	0.1011619722429525
163	0x3fc3d63a01f22aca	0.1549751767637047
164	0x3fc4448a4fb0ede2	0.1583416833035321
165	0xbfcc68becb24265f	-0.22194657248501223
166	0x3fc189e59353a8ea	0.1370207757348177
167	0x3fcde407502bdf9d	0.23352137961023525
168	0x3fca21ecf7d1367d	0.2041603288693529
169	0x3fb91def9a4f4af4	0.09811303632094931
170	0xbfb3106d6989ef8d	-0.07446941210394993
171	0x3fc70c945a21d0c6	0.18007139588337945
172	0x3fc64af8bb313610	0.17416295185323394
173	0x3fd87db08b42fc96	0.3826714858987058
174	0x3fc70423e14be344	0.17981384754946295
175	0x3fc59fcc98cc3a25	0.168939184768946
176	0x3fc20cf5d6d07ac6	0.14102051724417758
177	0x3ff4cc02a2aa8cf4	1.299807200827499
178	0x3fb2da365e0047ad	0.07364215655277802
179	0x3fc8b232c3b6d1f6	0.1929381805072265
180	0x3fc32fbed00b956b	0.14989457281550797
181	0x3fc7e218141073fb	0.1865873430223529
182	0x3f8848c116f5a49f	0.011857517731828358
183	0x3fc53b2f07671b50	0.16586864339316287
184	0x3fbeaa42c09e465b	0.11978547289461387
185	0x3fd23d4700180598	0.2849900723377572
186	0x3fbf71d5ca68067a	0.12283073607980013
187	0x3fd04cb29d67f680	0.2546812569779391
188	0x3fc698810fffbd38	0.17652905732345814
189	0x3fe002ba9eda635c	0.5003331282233421
190	0xbfd5399de8fec26d	-0.33164165261681583
191	0x3fc036fe7d20aede	0.12667828664540698
192	0x3fb347430e5e97e6	0.07530612088029862
193	0x3fce51a76bee56cc	0.23686688203877393
194	0x3fa544a2cd5b437e	0.04153927571099468
195	0xbfd3299f0e374f0a	-0.29941536320005524
196	0x3fcbb28a3da48200	0.2163861084927845
197	0x3fc50beba31936db	0.16442628349107377
198	0x3fbd356f10e80a71	0.11409658587221273
199	0x3fc33109081e8c8d	0.1499339379925896
200	0x3fc16558b6b9f6d4	0.13590535089672662
201	0x3fc781ddb90a5f70	0.1836506989973219
202	0x3fbcdee0206b52f0	0.11277581016049587
203	0x3f874cd8868b7ace	0.011377040487272973
204	0x3fc12948437740b9	0.13407233518819853
205	0xbf99c1d8386300b8	-0.02515352100522314
206	0x3fb56a8473440588	0.08365657629112466
207	0x3fbd76be722dbbe0	0.11509313857617043
208	0x3fbc253537f1d103	0.10994274726710178
209	0x3fc6eacfb7fecdc0	0.17904087528368784
210	0x3fc596c83a2f4d1e	0.16866400567105527
211	0x3fc3bdd2b8eb5fef	0.1542304423262517
212	0x3fd3df41082f6204	0.3105013446743501
213	0x3fd2e63d0b948865	0.29530264025573266
214	0x3fe0f5e63642a3ba	0.5300170001765914
215	0x3fcffce061d3b0f5	0.24990467812256836
216	0x3fd68d3f79b23d38	0.3523710907401951
217	0x3fd963ab888e8e3d	0.39670837722426083
218	0x3fbf24cdbf50192a	0.12165532990193087
219	0x3fd1a3b13f6d9ebd	0.2756159896293687
220	0x3fe322f19327a644	0.5980155824774518
221	0x3fd1dad0a767366f	0.27898041103330845
222	0x3fc766ebf2526cf8	0.18282841999175736
223	0x3f87b27e54cebf72	0.011570918048022103
224	0x3fd36508b7527f9f	0.30304162886204183
225	0x3fd39ee5e97a2f35	0.3065733699847784
226	0x3fe2c7f3632bb25f	0.5869080483367489
227	0x3fd10f19ce635c95	0.2665466800221535
228	0x3fd2fa475e56ddb8	0.2965258046419552
229	0x3fd519795ba8a64f	0.3296798129182194
230	0xbfc45d1654dcb743	-0.15909079688702307
231	0x3fd2de502ff003ed	0.29481892281915983
232	0x3fe14f9ea0343829	0.5409691933616659
233	0x3fbc706fa9c49f5f	0.11109064001777601
234	0x3fdbb3a1f50e78e7	0.43283890658666596
235	0x3f89489289f56d29	0.012345452151456176
236	0x3fd3939089d42cb8	0.30588162860722035
237	0x3fd1165552fa642d	0.26698811629609304
238	0x3fd6d2dfd85954ca	0.3566207516463008
239	0x3fd2e76cad1786b7	0.2953750315046863
240	0x3fe4b18db58bdac5	0.6466740175081546
241	0x3fd6695b9110e30c	0.35018052260015575
242	0x3fdcd6cace8bc026	0.45060987635133853
243	0x3fd6ef101fa48464	0.35834124651052535
244	0x3fd80bb7a90a6c8c	0.37571517475016303
245	0x3fcba9b545f3db7c	0.21611658015873647
246	0x3fd8b0d8d6db9ef9	0.3857938860150934
247	0x3f77cc120d3c2fca	0.005809851183368362
248	0x3fd896f4eec3b1fe	0.38421366993750883
249	0x3fdffefbb376b4b4	0.4999379398894448
250	0x3fd1a590222472c0	0.2757301648542061
251	0x3fd40554c0f39c01	0.31282538264207466
252	0x3fd445eb91cd1f32	0.31676758993534115
253	0x3fae4726ee108d46	0.05913659721434299
254	0x3fdbd7095405b501	0.4349997826128203
255	0x3fd7eb8b3759006d	0.3737514534477729

encoder2.bias f8 [6]
0	0x3fc5e97cd9d9181d	0.17118797909842068
1	0xbfceca4fdb1c892b	-0.24054907034685277
2	0xbfee87d2dc39a20d	-0.9540800381919908
3	0xbfb3c6151fa40e78	-0.07724124929887377
4	0xbfe51d15d28b942a	-0.6598004448138728
5	0x3ff04bd451891560	1.0185130295734197

decoder1.weight f8 [53, 6]
0	0xbfc128eba500e63e	-0.1340612941437928
1	0x3ff02d1e1be80a3e	1.0110150423139568
2	0x3fb3feed7ca5ae10	0.0781086377443716
3	0x3f712fd481c2c759	0.0041960049676833195
4	0x3fb7e47b2ae2222d	0.09333009526211163
5	0xbfb144a6e2d28e9c	-0.06745379483850872
6	0x3ed517673d3bbfd0	5.028586162344987e-06
7	0xbec078e4da0aeb35	-1.963644266159658e-06
8	0x3ee1e1a4790202d6	8.526523544328932e-06
9	0x3ef92232e003a699	2.3969258109801832e-05
10	0xbf183ec605489622	-9.248813268721752e-05
11	0xbef56a478a898e19	-2.042308247708459e-05
12	0xbfb8ff48e0179141	-0.09764533492085993
13	0x3fc58e6a910855ea	0.1684086998144914
14	0xbfab255d265d83de	-0.05301943867994628
15	0xbfa28575e03a363f	-0.036174472447879406
16	0xbfdaa8b872934b52	-0.41654788197518144
17	0x3fe7a4f73d974e3a	0.7388874247503232
18	0xbfd4b21acb9e4cf4	-0.3233706463299335
19	0x3fe4252c3ff161df	0.6295377015003928
20	0x3fd7485bd302bd5d	0.36379142385972846
21	0xbf65b05086377e46	-0.002647549890511222
22	0xbf8a37be210d9cc8	-0.012801633247092062
23	0xbfe2affa5288d51f	-0.5839816677095405
24	0xbff5c66a2bc1fe60	-1.360941096238001
25	0xbf963f875656d71e	-0.02172671761009958
26	0x3fa01f2c0518f8f0	0.031487823126086556
27	0x3f62ec8211905063	0.002310041465998268
28	0x3f9a5403f2a50c1d	0.025711118397577438
29	0xbfa35720bf9f1ef9	-0.03777410830622147
30	0xbf8c11bb3e2ab0b8	-0.013705694994620252
31	0xbfb9714688f7abe4	-0.09938469737942018
32	0x3fb2b3f8784db09c	0.07305863320442757
33	0xbfe5465699b8871b	-0.6648362161979294
34	0x3fd0a84e95ab3ddf	0.26027264228920716
35	0x3f8120d737a11110	0.008363419900100172
36	0x3f4764ba9eda01a8	0.0007139121277788723
37	0xbf36d7d15c5b9be8	-0.0003485571036052058
38	0xbf47408508925e62	-0.0007095956399493892
39	0x3f5ba83307af8585	0.001688051065450531
40	0xbf50e78d90dbbed5	-0.0010317690352472004
41	0xbf58e5873f084a28	-0.001519567562472299
42	0x3fdce4c1a5352706	0.45146218427235885
43	0x3fee1139eb92b8af	0.9396028138196665
44	0xbfc80a82a52d95ec	-0.1878207499059238
45	0x3f74b4346ba4166b	0.005054669158430873
46	0xbf9668772263056c	-0.02188287875538235
47	0x3fdfa0cad608ccd6	0.4941889848880242
48	0xbfa5a1027a730942	-0.04224403137915768
49	0x3fdb693d1505b21f	0.4282982545180704
50	0x3fbed2b9b0416168	0.12040291360006494
51	0x3fb8e83f3911df63	0.09729380744272258
52	0xbfc7f4a17f845c2e	-0.18715304113786274
53	0x3fc507f8c004ea08	0.1643057763665896
54	0x3fc6504b9f117459	0.1743254210186105
55	0x3fdb947c9f194918	0.43093791520108615
56	0x3f96b0c34d4581ad	0.02215867194297665
57	0xbfb29c0ee1b72ffb	-0.07269375811227967
58	0xbfd0e161ef10f545	-0.26375625940621134
59	0x3fde89b587ecd794	0.4771550967592415
60	0xbf364d18837b4c5e	-0.0003402886245400023
61	0xbfe9a293122bb5b1	-0.8010955195328987
62	0x3f757a34af7e8cc4	0.0052434976604757745
63	0x3f63473bd9de3335	0.0023533028569943334
64	0x3f83c13df91fc9c9	0.009645923772016911
65	0xbfb5965a49a152c5	-0.08432544992076448
66	0xbff6c06722663794	-1.4219733566019146
67	0xbfc31e4a1a86554f	-0.14936186118272096
68	0x3f761dce1869328b	0.005399518070203012
69	0x3f84d2481945c48b	0.01016670539022104
70	0x3fb369ccb0a6a7a6	0.07583312332886169
71	0xbfe0600642a20b60	-0.5117217351365575
72	0xbf8d53c6d5ac6863	-0.014319947620198009
73	0x3faacd4711e5bca3	0.05234739392732848
74	0x3fe489bbc865874f	0.6418131746288313
75	0xbfb4cc2d7dfdcb31	-0.08124050451241939
76	0xbfdd484690ccc2a4	-0.45753635540590154
77	0xbfc191e9fc10c5a9	-0.13726544196974302
78	0x3ed7dafa07724b3d	5.687565241124454e-06
79	0xbef3c14c83561550	-1.8839906450481448e-05
80	0xbf458ec7d6af1ae8	-0.0006578899168453141
81	0x3f1935a80f5ce694	9.616697556404991e-05
82	0xbf2c8f6ff220e75c	-0.00021789781118447093
83	0xbf46043439244e41	-0.0006718878742355065
84	0x3ecb2867bd709100	3.2374659713220845e-06
85	0xbee473c2a6fc4837	-9.752363638013916e-06
86	0x3f336a5f5a848f8b	0.00029625728577031195
87	0xbf3192d12be8e8ee	-0.000268150393739965
88	0xbf49ffc1054cf126	-0.0007934277042305523
89	0x3f16954a0398b910	8.614792104630711e-05
90	0x3fb6e477a5c2639e	0.08942363545283036
91	0x3fbd0f90b1e8e0f2	0.11351875632761102
92	0xbfc59eac30fa49d6	-0.1689048041485665
93	0x3fd88683abaefb32	0.3832101036641006
94	0xbfcdcedde3895925	-0.2328755723016879
95	0x3fcd13da287ed44f	0.22716834046664977
96	0xbf94cdd6110f01a6	-0.020316452780890913
97	0x3faaadf7b4ea414c	0.05210851748882081
98	0x3fde5f88ef15ba89	0.4745809874356515
99	0xbfa8074f013c87fe	-0.04693076028912911
100	0xbfd59add74d37675	-0.337577213371197
101	0xbfe0071ead049cc8	-0.5008691195734167
102	0x3ea8babad7b309d9	7.369939533308117e-07
103	0xbea3d3654ced1a12	-5.90853824402478e-07
104	0xbe99ec725044b658	-3.8629202971343743e-07
105	0xbedaea1d25a115e9	-6.4169185752297235e-06
106	0xbf10c486aa0ed70f	-6.3963622337262e-05
107	0x3f030edc01e7c336	3.6350335211105e-05
108	0x3fe1e12f6ae3ed60	0.5587384307577103
109	0x3fc18bc63dbbc870	0.1370780755456198
110	0x3fa295fbd7a64a5e	0.03630053527298992
111	0x3f9944d7507b11bf	0.024676670348314774
112	0x3fa86a3034af5846	0.047685152465121436
113	0xbfa645130b7c95ce	-0.043495745804004934
114	0x3fb7390b15d3a8cd	0.09071416170960163
115	0x3fef45683a2db3c9	0.9772225509928997
116	0x3fc5e74cc8bd80f0	0.17112121392984347
117	0xbfb1e794de62f58c	-0.06993990353926999
118	0xbfc8345a1b7ed194	-0.18909765570209613
119	0x3fd63ade2c35ce98	0.3473430091610026
120	0xbff0d93938ba4f3c	-1.053033086388452
121	0x3f95a2516dafd9d9	0.021127006835706872
122	0xbfbb614558b11476	-0.1069529859097019
123	0xbfa19975681e641d	-0.03437392135601434
124	0xbfc3d2b19b3698a8	-0.15486736372731014
125	0x3fd3af43d40ca321	0.30757232387490957
126	0xbfa64e1375b377b0	-0.043564422719767903
127	0x3fb8ac947cc53881	0.09638336225654777
128	0xbf6e60bc3828b48d	-0.0037082363280860954
129	0xbff2460878bc62c9	-1.1420979229207424
130	0x3fb9206730fde02f	0.09815068193518138
131	0x3fe34ba22f7116a7	0.602982609424278
132	0xbf3f7526cad53f8d	-0.00048000523641621927
133	0xbf33edac54406d31	-0.00030408341649642
134	0xbf44f44671122bb9	-0.000639471431115416
135	0xbf0c7435e1f57cda	-5.42715972595643e-05
136	0x3f3d3b4326e5b4ad	0.00044603719188425034
137	0xbf36b7cab3b9b005	-0.000346648204618161
138	0xbf9d262ccfa24c96	-0.028465938733074646
139	0xbfb3d4756ee6c6ce	-0.0774606128459496
140	0x3fdad11aa4c34dce	0.4190126999867204
141	0xbfd5a2d3a3536b5a	-0.3380631537417479
142	0xbfc196a2690cecbf	-0.13740949754160245
143	0x3fc5131aa9f68c08	0.16464551257112725
144	0xbfb274bf385741ad	-0.07209391713627751
145	0xbfe559dbdafce034	-0.6672190930467026
146	0x3f9a44f540aca2c0	0.025653678963098114
147	0xbfa3aa4d7018151e	-0.038408679898603845
148	0xbfb40ccac8c05088	-0.07832019234803245
149	0x3fc3df113b7904bd	0.1552449741739447
150	0xbface4088e8fb898	-0.05642725696803658
151	0xbfc1ca0a2ec15f2f	-0.138978264646306
152	0x3fa002a7604d960d	0.03127024698805423
153	0xbff10e3490ee20e4	-1.0659680997214815
154	0x3fdce0ba302c7d9d	0.4512162657210526
155	0xbfe26bc849d20462	-0.5756570283703122
156	0x3faab495ca4f2cc3	0.05215900511356033
157	0x3fa2199c23c09c0f	0.0353516381876987
158	0xbfb0104626915eca	-0.06274832192991223
159	0x3fe60dfbffe7ecd9	0.6892070768511999
160	0xbfd146a91860974a	-0.26993777638050587
161	0x3f853b894e5b3027	0.010367462829343378
162	0xbfa8117e1fd4b964	-0.047008458505262835
163	0x3fbca1e4917063b5	0.11184528876073226
164	0xbfd857bd79c75527	-0.3803552331203996
165	0x3fb7af839b0e8918	0.09252188239637282
166	0x3fd9cdea7794f191	0.4031931083479999
167	0xbf9cf3770eac622d	-0.028272495527831665
168	0x3fc77d4cf20cd6cc	0.18351136988501648
169	0x3fdacde9f1270974	0.41881798315093666
170	0x3fb69c0b8e7e30ce	0.08831855992156365
171	0xbf7b81d55c6380f5	-0.006715615693082312
172	0x3f94d849388874ad	0.02035631568479761
173	0xbfa95f4fb1a635e0	-0.0495552925450331
174	0x3fe4b1eefd8748d1	0.6467204047896989
175	0xbfca08f223c08b78	-0.2033980059214533
176	0x3fd6bcc9ad14ed7e	0.35527269270433937
177	0xbfaf7c6e792a9589	-0.061496212282956604
178	0xbfb953a496e7a683	-0.09893253978921206
179	0xbfebee8215510ed5	-0.8728647629108887
180	0x3fb3428027a8f499	0.07523346870671545
181	0xbff24780d8890dd1	-1.1424568613446022
182	0x3f9dd767835ecdde	0.029142014878471893
183	0x3f88a4a2b3e775eb	0.012032767405737629
184	0x3f9e458941722440	0.029562134379862437
185	0xbf9d25d37c3a15ba	-0.02846460767479695
186	0x3ef4da92ebd26e5e	1.9887737597741566e-05
187	0x3eebf7f6654f43c3	1.3336469388310312e-05
188	0xbec75edc7912566a	-2.785986858609356e-06
189	0x3f14585b4abb1353	7.761056138651011e-05
190	0xbf1d16a22b5f5df3	-0.00011096348575222858
191	0xbf09740b42458983	-4.854831084590268e-05
192	0x3fd6d2a46344b575	0.35660657591036876
193	0xbff20ca144a34803	-1.1280834847607373
194	0xbfad9e97fe10bba6	-0.057850599063719074
195	0xbfa7d9656a741ce4	-0.046580476040668534
196	0xbfcb6fcd3550e858	-0.2143494139034512
197	0x3fdca2a68431d779	0.4474273959125337
198	0x3fc113eb67c2ccc2	0.13342039648487086
199	0x3f7c369f5c0c0bb1	0.006888029573704311
200	0xbf97f4dc42fe88ab	-0.023395005787855066
201	0x3fab455f8e50b6b7	0.053263651010963135
202	0xbf8a80ad76e090d1	-0.012940745535225425
203	0xbfb9e20d244ba4f4	-0.10110551963920839
204	0x3fd482cbabcf002e	0.32048312929328204
205	0x3fa312c9713c1a64	0.03725270755062551
206	0xbfa9fa282fa999e2	-0.05073667127435379
207	0xbf9b515c56d18fa6	-0.02667755393885298
208	0x3fb231338576c83f	0.07106325157545344
209	0xbfb219b65d9ee8ce	-0.07070483956968873
210	0xbfb67449f58b9ea8	-0.08771192784080972
211	0x3fa9b4efdd2567cc	0.050208564515471815
212	0x3f5ffdb8718d6288	0.0019525815207172299
213	0xbf9e3af042a986a0	-0.029521707600344116
214	0xbfcca8911a109d42	-0.22389425060939955
215	0x3fd7a3e3b514a3e5	0.3693780201306807
216	0x3fc3fc7f33c8dc62	0.1561430933813624
217	0xbfd69e7baf1b4c03	-0.35342304325348567
218	0xbfd17508a36b4f47	-0.2727681728258528
219	0x3fa7051c5edbbb03	0.04496086748064523
220	0x3fd02018eed4a0c4	0.2519590694742073
221	0xbfaa0fc0f70dc58c	-0.05090144172471431
222	0x3facc897fc3a3614	0.05621790842006305
223	0xbfa7ecb9f57ff664	-0.04672795411896116
224	0xbfabc0b5c8d350d5	-0.054204636349511816
225	0x3fe367c5148105e1	0.6064172172993346
226	0xbfd2291bf05e030a	-0.28375910256731685
227	0xbfed6c025b57c2c7	-0.9194347175635692
228	0xbfb9361c882ea351	-0.09848192524681322
229	0xbfd0424acffdd79f	-0.25404615699459926
230	0xbf96d4029c0cf4d1	-0.022293129705975915
231	0x3faa9bbd936620f8	0.05196945595077013
232	0x3fd3b4d159b43217	0.30791124115128937
233	0xbfde05472fbde2ff	-0.469072147963331
234	0x3fbedf94c3fd99f5	0.1205990770809889
235	0xbff8b83f040974dd	-1.544981971520705
236	0xbfab9d1112753004	-0.05393269872965337
237	0x3f9475b429a43908	0.01998025421294705
238	0x3fc30d8aa3a7a2c9	0.14885075560530073
239	0xbfe22019ee5299b1	-0.5664186148394973
240	0x3fd4d6569f55da8e	0.32558217582792615
241	0x3fee2552d443a56f	0.9420560975824354
242	0xbfd752645d327ab3	-0.3644038114670522
243	0x3fc26f962fde7d46	0.1440303548560939
244	0x3fe01ca6368f4d12	0.5034972253437522
245	0xbfe6b4e674e45528	-0.7095825465245627
246	0x3fc518ae3ec31a83	0.16481569351727296
247	0x3fcf2354ef4f1f62	0.24326574025166808
248	0x3fb474940deb3cd8	0.07990384425942254
249	0x3f9ebd3819a01568	0.030018688739820304
250	0xbfc1236861ff003e	-0.13389305863347717
251	0x3fc2272d3cb4352b	0.1418205782323779
252	0xbfe233c49ce53716	-0.568819338260911
253	0xbfae8373174bd6d1	-0.05959663066270838
254	0x3f66ac912c979e24	0.0027678332742089463
255	0xbf900bd225cd781e	-0.015670093114174326

decoder1.bias f8 [53]
0	0x3fcbdbbf1b4af397	0.21764363129286998
1	0x3ee0c9495327c3d7	8.004319714567942e-06
2	0xbfe0a5a19f33d565	-0.5202186688826883
3	0x3fe0d2a8c117e228	0.5257152339318667
4	0xbfa958df4463c698	-0.0495061655982571
5	0x3fc391868c62c4c2	0.15287858824516404
6	0x3ec8273e0173e710	2.879296527089142e-06
7	0x3fc3f49767e5eedb	0.1559018380465805
8	0x3fb5d5860f78767c	0.08528936269473236
9	0x3fb2d18852587df7	0.07350971231834778
10	0xbfbb3b0377505d98	-0.10636922514856051
11	0xbfc6ef6568ba7978	-0.17918079007808863
12	0x3fd6819ccd2021fe	0.351660919492616
13	0x3efbb51439662ccb	2.64237783880572e-05
14	0x3ef5960d2056b7b9	2.05861452024431e-05
15	0xbfc8ae8e97d5af31	-0.19282705701641015
16	0x3fd16cd5b152e7db	0.27226774517805347
17	0x3ebc0167394a2a24	1.6692567658427944e-06
18	0x3fcda1e8bb8f7e5f	0.2315035739729749
19	0x3fd7f3f22806dbb9	0.3742642775427459
20	0xbfd12b7c057c400e	-0.2682790807311911
21	0xbfb3e23bdb1eb0f8	-0.07767080401999127
22	0x3f2865a2666bfb8c	0.00018613440916933862
23	0x3fc130fb17f045c0	0.13430727642893991
24	0xbfcfe93749c00c1b	-0.24930468655665625
25	0x3fd35b65f91d645e	0.302453511501488
26	0xbfa805d44bb92a33	-0.0469194738803548
27	0xbfb05c374c3bb479	-0.06390710459864292
28	0x3fc88a7b9e6f1eef	0.19172616230047576
29	0x3fe4e31242687132	0.6527186677008443
30	0xbfc83ade087763b8	-0.18929648793598886
31	0xbed1d94b7db9b534	-4.255487478494348e-06
32	0xbfdd516f4ba23916	-0.4580953825578872
33	0x3fa7e8e0f3c6cb84	0.04669859863078954
34	0x3fc1b80cbddf27b5	0.13842925330237468
35	0xbfc9dba15c7aada1	-0.20201508536898152
36	0xbfb696279b6ed5f4	-0.08822867913007554
37	0x3fa15399c82b231b	0.03384094780409993
38	0x3f7eab22dda60d9a	0.00748742694338791
39	0xbfd7b6dc27b86334	-0.3705358875172806
40	0x3fd83a43509ccd45	0.3785560881835475
41	0x3fb99a4a7b26b643	0.10001054293271587
42	0xbfb738e4096e0f0a	-0.09071183424208243
43	0xbfd1b5104e86bf4a	-0.276676251111884
44	0x3fba855e98197ef1	0.10359755719536758
45	0xbfe3cefeea3c9f95	-0.6190180373132416
46	0x3f9742024187e2b1	0.022712741136248386
47	0x3e97847ffac6ad58	3.5043921788975975e-07
48	0xbfbf287f45921e92	-0.12171168755059572
49	0x3ed9691403cc8eea	6.058326161437658e-06
50	0x3fa8f672af58342d	0.04875524893223147
51	0x3fb07cd54bb2847d	0.06440480325774618
52	0xbf92b4080523a5db	-0.018264890016245743

decoder2.weight f8 [100, 53]
0	0x3fb49485e2f6c94f	0.08039128104318148
1	0xbef2b7a27541c8bb	-1.7850229895485038e-05
2	0xbfbbd945a968dc7a	-0.10878405939080152
3	0xbfc911348edc2b4f	-0.19583756423556983
4	0x3fc02b23d751d605	0.1263165284505449
5	0x3fa162863fc463e7	0.03395480659873567
6	0xbf392cca2374a3ed	-0.00038413939496933955
7	0xbfa0c7e23062a6eb	-0.03277499046937556
8	0x3fa19e19b256394a	0.034409335155134516
9	0xbfa8d2600839772b	-0.04848003483196658
10	0x3fb81a765ee2e460	0.09415378395614615
11	0xbfcb6660460cc6da	-0.21406176968007778
12	0x3fad01873db22f40	0.05665228489041718
13	0xbf162d6074c9c85a	-8.459950658748616e-05
14	0xbf1406c60a53ddd7	-7.639487974474918e-05
15	0xbfa13e12f02479d5	-0.03367671185900504
16	0xbfa93c166481533e	-0.04928655602330999
17	0xbee0fe49aefc292c	-8.103042517433415e-06
18	0x3f959d39590f9a9a	0.021107574520920915
19	0x3fa59c3339e0a57f	0.0422073372031475
20	0x3fc3f2baf7ab2d7c	0.15584504216381478
21	0x3f929735e2db4198	0.01815494725343711
22	0x3ee3c2ce34c30938	9.42275951166094e-06
23	0xbf9dc507eeaf72f6	-0.02907192606277228
24	0xbfa5b548d83f237a	-0.04239871635178978
25	0x3f863d63da988b3e	0.010859279736057933
26	0x3fc1277b8e29c684	0.13401741448938165
27	0x3fa977de21c03378	0.04974264299389736
28	0x3f83e51bbd0f0fd8	0.009714333254926474
29	0x3f71ed6147e7353e	0.004376773837475865
30	0xbfa1dd37d4a2738c	-0.034890885073060124
31	0xbee759a148e7702c	-1.1134203558187191e-05
32	0xbfca849287619892	-0.20717078791057425
33	0x3f77284d49186cb2	0.0056536692586874205
34	0x3f90d84b2f42c7d2	0.01645009494740874
35	0xbfa4968b329af6b3	-0.0402110575937348
36	0x3fb3892280dde23f	0.07631126066360937
37	0xbfa1800bee16eaad	-0.03418004304281417
38	0xbf9fd17031d0ebfe	-0.03107238105824805
39	0x3fc11e3b81d92eb3	0.13373512115719208
40	0xbf977bf4a356b3e6	-0.02293379065456582
41	0xbf6156f39e9e7d5c	-0.0021166570849825827
42	0x3fb664694d421090	0.08746965538199647
43	0x3f126456c13c43c5	7.015971669611851e-05
44	0x3fb95dc20cbfe5ab	0.09908688365239608
45	0xbfbe60b8ee66aaf7	-0.11866336651170771
46	0xbfa789c18abe9198	-0.04597287005097711
47	0xbebdb23643c5e1c1	-1.7700279065485915e-06
48	0x3fc1505ac76baea8	0.13526472794852862
49	0xbef9cee99f40808f	-2.4612667360313574e-05
50	0xbfb1188d198918fe	-0.06678087113786899
51	0x3fab3761aec7be9e	0.05315690287158968
52	0xbf8754e367d181b5	-0.01139238033846444
53	0xbfc106e439cd0461	-0.1330228121023849
54	0x3ef30e7a9c3c5a7e	1.8173750290529586e-05
55	0x3fc1984084a74d1e	0.13745886304114036
56	0x3fc56c0df18c38c2	0.1673600606376962
57	0xbfc40f901c94e91b	-0.1567249431189531
58	0xbf8e767df2b4420b	-0.01487444302486642
59	0x3f2757c26a9c7419	0.00017809150932005037
60	0x3f9505f202eea44e	0.020530492238013225
61	0xbfa31a0fbf9c65a9	-0.037308208599095956
62	0x3fa8b003b1c6ff17	0.04821788354047223
63	0xbfb507b41bb2c147	-0.08214879680850116
64	0x3fc7ba365ef7f82e	0.18537025105610055
65	0xbfb570e5c8f6b0b1	-0.08375393062914573
66	0x3f16cb2b95b1eb91	8.695081253222286e-05
67	0x3f16da22ece4bdc3	8.71738259078303e-05
68	0x3f949055f16a7497	0.02008184705720292
69	0x3fa7f0e589962ae5	0.04675977043651417
70	0x3ee606b8796c111e	1.0502935578589819e-05
71	0xbf9819e9fd78c3b1	-0.023536354156195653
72	0xbfb1b3cd14b6a00e	-0.06914979701707599
73	0xbfc3ee5fdf51232b	-0.15571211246631242
74	0xbfae270c52971db0	-0.05889166362936338
75	0x3f05b53fc1444bac	4.1404731890313503e-05
76	0x3f9e118a384fd8c7	0.029363784491544444
77	0x3fad85eb44aee2e3	0.05766234601418831
78	0x3fb9788862d5c7fd	0.0994954339310254
79	0xbfbfdb328a28c01e	-0.12443843720461742
80	0xbfac3856401cbfd6	-0.055117316557129634
81	0xbf99f4ecd1e7e7e3	-0.025348377524984655
82	0xbf626dbe6c9bedff	-0.0022495955680577047
83	0x3fb354002988ad9f	0.0755004979516145
84	0x3ed24404ead4f967	4.354882247979654e-06
85	0x3fccc89af2efc863	0.22487198698178465
86	0xbf7f80748dc92167	-0.007690863884427613
87	0xbf80686c162df4ff	-0.008011669566025946
88	0x3fabdd422b4ddcc5	0.05442244318595039
89	0xbfb1affe8ab441b1	-0.0690917099602817
90	0x3f7f05719979dc9c	0.007573550937755826
91	0x3fa5f45d747a9529	0.042879982441528526
92	0xbfbbcffda15d2cc0	-0.1086424368815413
93	0x3f796f1fa9a9d0d6	0.006209491427046928
94	0xbf694d133de648ce	-0.0030885101143179666
95	0xbfb58f4490020618	-0.08421734348123555
96	0x3f74ca2f2ad0e7ba	0.0050756304236134146
97	0xbfbef9c79920b96e	-0.12099883545372389
98	0x3fc28d1b2b61b006	0.14493121736757092
99	0x3fa79d1f9dd51e12	0.0461206321875204
100	0x3ec00f11a5d2cf7a	1.914365653188656e-06
101	0xbfc208d4352ffa11	-0.14089443776170232
102	0x3efa092736566e31	2.4829630452678594e-05
103	0x3faf86cf241f0368	0.06157538715297656
104	0xbfb01243ca4aae1c	-0.06277869881403614
105	0x3f9d07e37a62df48	0.028350405068265944
106	0x3fc804c30e6cb01a	0.18764532284092256
107	0xbef14844ffe91612	-1.6481688357458382e-05
108	0xbfc471950e0dded7	-0.15971625505675632
109	0xbfbb1774561df0ce	-0.10582663633789766
110	0x3fc822dc70c6c080	0.18856387621554305
111	0xbf5b784874e57130	-0.0016766269287336703
112	0xbef13e06026d18ab	-1.6443518826813355e-05
113	0xbf540ee3b8e8da2d	-0.0012242530680289896
114	0x3fa59590ca8a2405	0.042156719898294205
115	0xbfa81044293473f9	-0.04699910166730343
116	0x3faf5e88e71d261a	0.061268118106976924
117	0xbfc047dc99be886f	-0.12719304568333054
118	0x3fbbdd7a879b4563	0.10884824572283018
119	0xbf170168962307c8	-8.77590260044684e-05
120	0xbf14f27505d5a001	-7.990683794434351e-05
121	0x3f7b649691409c4c	0.006687725213885786
122	0xbfa4c6a64224a6d0	-0.04057807500278232
123	0xbee41a53056f4cfe	-9.585775996889895e-06
124	0x3f97e839d510131c	0.023346809033699775
125	0x3fb74c87056a68ff	0.09101146585672736
126	0x3fc2132cabe5e041	0.14121015923933736
127	0x3fb907708e3ced96	0.0977697703610175
128	0xbf192919236e2426	-9.597984249699927e-05
129	0xbf9d52494991080c	-0.028634209742683978
130	0xbfb2b29418b1e9d3	-0.07303739169029848
131	0xbfc9618f265ede1a	-0.1982897698742228
132	0x3fba47e29827e0ce	0.10265938009968353
133	0x3fad1c4c37fb2ed8	0.05685651954044396
134	0x3fa5d8ebc05337b4	0.04267060015409588
135	0x3f7a8fe11a1edf1e	0.006484870247667888
136	0xbfbe82ba4d36088b	-0.11918224701915585
137	0x3eda08aa3d78ce32	6.206952967202942e-06
138	0xbfcd8089a86095fe	-0.23048516007945347
139	0x3f74b982de1eab61	0.005059729768542493
140	0xbf6129d2fde9264b	-0.0020951386389114527
141	0xbfb139ffd0222726	-0.06729124862081601
142	0x3fac686258ea7a63	0.0554838880100206
143	0x3f3779236628c2c4	0.0003581725524411212
144	0xbfaaf1ae60c439bd	-0.05262513095123065
145	0x3faf5f6ddcb07a23	0.0612749416252323
146	0x3f498e66f6a250d9	0.0007799151183172328
147	0x3f815f994fa4a995	0.008483121626871074
148	0x3fb361d66d7c8894	0.07571163342484716
149	0xbf8b4f139eadeefa	-0.013334420471202691
150	0x3fc2117d66b098ab	0.14115874780799706
151	0xbfc4bf6bf9a2e53a	-0.1620917290618225
152	0xbfa3c77fdd8e9624	-0.03863143519928894
153	0xbeb9b5a44b12a7c8	-1.5324078897296283e-06
154	0x3fc15c7d9c7c162a	0.13563509121756684
155	0xbef92b7ca18a9307	-2.4003859013038548e-05
156	0xbfabdb746d4e49ac	-0.05440868219661196
157	0x3fb2807922bec303	0.07227284525175652
158	0xbfa78319b2edfc52	-0.04592209157180406
159	0xbfce22af4f2736a7	-0.235433496140492
160	0x3eecfb5d99964ff9	1.381964539141216e-05
161	0x3fc64198c6da476f	0.17387685498811886
162	0x3fa05a932ad7341e	0.03194103143651027
163	0xbfcb4aa42cb61905	-0.21321537192506682
164	0x3f7fbe421dcca6c7	0.007749803797915517
165	0xbf1253519410b000	-6.990609564699879e-05
166	0xbf9736cc7543d6f0	-0.02266997781494856
167	0xbfa9147e7cabaeda	-0.04898448249681815
168	0x3fa7c27a1c3faf5d	0.0464056167109834
169	0xbfa473c6f53cd08e	-0.03994580978033567
170	0x3fa8c65acc582798	0.048388326115016145
171	0xbfc0ef6c0522467f	-0.13230657816579947
172	0x3f1542f3306a354e	8.110627468678919e-05
173	0x3f0edaf51677b7ab	5.885181854724195e-05
174	0xbfa42cd75c2ad3b0	-0.039404611588373384
175	0x3f9c62ee9e88d7b6	0.02772114603632022
176	0x3edc4aaec178aa1c	6.745273843070914e-06
177	0xbf9745fd88305331	-0.022727929532339878
178	0xbfbb5449908a9ce7	-0.10675487307399899
179	0xbfbe1f1a2ec1d562	-0.11766208306820183
180	0xbfc0a7f21ead2094	-0.13012529847970156
181	0x3f27580e409f2c65	0.000178100337789952
182	0x3f99c68b43b37db9	0.025171447760724528
183	0x3fb66bb888260560	0.0875811893838736
184	0x3fd016341e477f5a	0.2513551994033968
185	0xbfb309acc06b6980	-0.0743663759016382
186	0xbfac568a320d5c97	-0.05534774647701928
187	0xbfae2462f5120b37	-0.058871357360678216
188	0xbf8af30f12897a74	-0.013158910515980816
189	0x3fc486f7daab6d82	0.16036890198925496
190	0xbeefad8d7c01778c	-1.5105218949592267e-05
191	0x3fcd15fba81d64be	0.22723336895686502
192	0x3f4b80c50cf24d0c	0.0008393251572606244
193	0x3f862ee28f1552d2	0.010831613532596238
194	0x3fb3afc2848b19d7	0.07690063224718045
195	0xbfa2aeae99a2a257	-0.03648896813803464
196	0x3f861a00c3daa01c	0.010791784264554898
197	0x3faf7f7cf704e0bb	0.061519532350247506
198	0xbf79834fdd178b18	-0.006228744475694346
199	0x3f740821b9e664ed	0.004890567534311813
200	0xbf8e9347494e31c6	-0.01492934887371512
201	0xbfafb04138509783	-0.06189159214436215
202	0x3f93e83154287be6	0.019440432321172006
203	0xbfc419b622fd0437	-0.15703465183654128
204	0x3fc673fb2f0cd923	0.17541446492550347
205	0x3f9c80412d73829e	0.027833002471086325
206	0x3eb458eeb62b781e	1.212799099085521e-06
207	0xbfbf290bf0b382e2	-0.12172007204527405
208	0x3ef427c2d6a221cb	1.922160792181149e-05
209	0x3fa72ff969d9386f	0.0452878896436325
210	0xbfb3d5b9d9165e61	-0.0774799494741898
211	0x3fae837507f1afee	0.05959668848012699
212	0x3fd0fd9d36284735	0.26547937668611904
213	0xbee85122f8c09f3c	-1.1595220506490867e-05
214	0xbfc6ace4dcabcd17	-0.17715130591350522
215	0x3fa22210745f0623	0.035416139798609934
216	0x3fccda58172907ad	0.22541333323357318
217	0x3f6302b656fdc68f	0.002320629246178658
218	0x3f1d353331de8f5b	0.00011141896217608858
219	0x3faa93874e66939b	0.05190680343665762
220	0x3fad7f709627bd8a	0.05761291344594628
221	0xbfa5ce786975f612	-0.042590868829375364
222	0x3f94293a9c5950c9	0.01968852595594298
223	0x3fa03153ca3ba5dd	0.031626337467809164
224	0x3fc32934df62626d	0.14969502360760903
225	0xbf167bf723261b10	-8.57705679547622e-05
226	0xbf07cd2a2123ccab	-4.539761370549988e-05
227	0x3fb089716dfe8b58	0.06459721503646898
228	0xbf8ebd100abcbe66	-0.015009045913387097
229	0xbed3804be91b4242	-4.649438453533318e-06
230	0x3f973417434d59b2	0.022659648402020678
231	0x3fbdf1b053d6b0e8	0.11696912810174676
232	0x3fb63c9769bc603a	0.08686205226365554
233	0x3fc335639fe1d846	0.15006680781124454
234	0xbf2a9d9350e1618b	-0.00020306037225982192
235	0xbf9397bb5b396377	-0.01913349861419841
236	0xbfb993b1bcadad88	-0.09990988594443284
237	0xbfcf2391799fe11d	-0.24327295721719447
238	0x3fa7cb1fe8accaed	0.046471593048769445
239	0x3fa9130bb3e77b9b	0.04897343226524883
240	0x3fb20b500d44474a	0.07048511814016681
241	0x3f944de290465e8a	0.01982835774978623
242	0xbfc87b2bf4d45fd8	-0.19125890211648655
243	0x3eed8eb3772ba380	1.4094078982522648e-05
244	0xbfcc5118b8b289e5	-0.221224870857511
245	0xbf834cb998902ce1	-0.009423685043677245
246	0xbf8e80e11186293a	-0.01489425501565177
247	0xbfb51842dfbee27d	-0.08240144693889735
248	0x3f97f2339ea75fc2	0.023384863432369014
249	0xbfa3be3f061042f8	-0.038560838213134774
250	0xbfb0c48d3211e691	-0.06549913856897606
251	0xbfa48dffdba398c7	-0.0401458697904658
252	0xbf9b445e04d24f05	-0.02662798790386402
253	0x3f961e5d8e052a33	0.021600209992621976
254	0x3fa7dd9ba4b4b7de	0.04661260972567026
255	0xbf98ac453e7d02da	-0.024094659747109094
