Trained_models/8/predictor4_50_6.pt (torch, 33349 bytes, 16 tensors)

weight f8 [28, 50]
00000000: 7d59 ef18 1827 d3bf 4ad9 5ca1 7e07 af3f
00000010: d7ed 4edb 3fa4 8bbf 3b00 b0c3 dc62 b43f
00000020: a3e6 8121 5125 babf 4bea 83f6 fe89 7b3f
00000030: b84f 8570 f68c 91bf 16fe 44fb 61a2 b23f
00000040: f3de e2b3 ebcd c9bf 4dc7 eb9c e4ed a73f
00000050: 9602 2587 6335 b73f d45d f97a 090b b1bf
00000060: 4b19 afd7 9d5c b83f b947 0e1c b7b3 b2bf
00000070: ea09 92b4 6c18 82bf 0adf 5aba 141d ae3f
00000080: 7679 905e a43c b7bf 493f c130 dd25 a5bf
00000090: c397 de1d 2b5e b03f 91ce 7209 c66d b9bf
000000a0: b5a6 3b30 4467 c5bf bbe1 4630 efff cc3f
000000b0: 5027 98fd 6e22 d1bf e501 d3f7 db12 c73f
000000c0: 9796 9261 4dcd babf 5bc6 a43c 3dce ac3f
000000d0: efda 2d08 0e5a c0bf 8550 f31f cfb1 d73f
000000e0: e40e 3130 f642 dcbf ad16 1929 b688 d93f
000000f0: 9310 78c4 7083 c6bf fc81 733f 31ae c33f
00000100: 59b2 8e40 eddd bfbf d175 bfe3 b00b d13f
00000110: c5f9 25c7 7a09 d5bf 8414 9015 f747 d53f
00000120: 37fd 46d7 9af9 d2bf c29a e88f cc5c c73f
00000130: 6c3c fcd5 364f a83f 977f 11de 0c85 abbf
00000140: c472 d7a5 9f82 cabf e766 263c a820 c23f
00000150: 64eb c296 8ef5 c7bf cc48 ae60 b174 9bbf
00000160: 8783 3571 b1f3 b63f 5cfc 5619 ce0d adbf
00000170: 9cf0 2295 1f6b 833f 0691 2ca9 df19 b63f
00000180: ba81 5936 fba9 963f f61e 3d13 6bfe bdbf
00000190: af9e 3e31 b6f5 cd3f 52f2 b186 09d0 c93f
000001a0: 0691 5fe4 72c1 d4bf 020e f502 a902 c33f
000001b0: 8ce1 cc22 e087 ac3f 2301 f003 61fc c5bf
000001c0: 532f b127 09f4 c63f 858b 70b2 0a43 cebf
000001d0: a862 5de7 f902 c53f b041 4dcd a8e4 adbf
000001e0: cfd2 05e4 8894 c4bf 3b64 be23 0cc7 d13f
000001f0: 1007 4312 b258 c4bf 521f 3ddb 7533 a13f
00000200: 2557 256f e7fb c1bf 5c46 92e7 6e04 b13f
00000210: 82a1 0ae6 9bcc cd3f 7393 1fdc 70b7 dabf
00000220: d05b 7fb1 31c9 ce3f 5a53 8f7e 191f 95bf
00000230: 89ef b83d 3e51 bfbf c1b4 e3d1 7bd6 b43f
00000240: d437 9071 79fd ccbf bf39 aa0d 4d1e d53f
00000250: 6266 62f0 bb5e c6bf a5ff 5880 eb76 d0bf
00000260: 6c8b ff11 d282 d83f 6a69 806b d034 cebf
00000270: dc41 0774 ff50 17bf 30ca aa25 dfb6 983f
00000280: b716 4c12 14c6 c4bf 29fe 6abd f4e9 d93f
00000290: acb5 ddfb 0327 d9bf 1eb8 aac5 bed3 743f
000002a0: 083e e452 aaaa d43f 95a7 94c1 bcb9 dabf
000002b0: 00ee 553d f487 d73f e5ec 41e9 9f1b d0bf
000002c0: d329 1332 1791 b13f 3688 785e 322c d33f
000002d0: e064 40c4 1af0 debf 1ca2 5524 a182 d53f
000002e0: 8ba2 9af3 e2c1 b0bf 6b71 2724 d193 98bf
000002f0: aa7c 9c97 4284 bf3f 8e9b bd86 6f08 c1bf
00000300: 9106 1a96 0e91 c93f cf60 3c1f 642f b8bf
00000310: cd42 1668 5d73 a13f 71db cc6b f63d c73f
00000320: c323 37c9 9e92 c33f 36cd 1ca6 9be3 c6bf
00000330: e3f9 52a8 fd15 cf3f 152c e492 5dc8 d0bf
00000340: 2723 cd36 e409 d33f d502 2a13 20d8 cabf
00000350: b90c 8589 f407 c13f acd8 e2ad 3cf3 833f
00000360: 68e6 91bb e39b b8bf 304d 5590 3e6a c03f
00000370: 360d a81d e9ad c4bf 07b9 8bc7 3fa2 c43f
00000380: 4b6d 20e8 f44f c1bf 6477 f1e9 8455 c03f
00000390: eb84 1fa2 30e9 a6bf 78d0 1bb9 bf18 90bf
000003a0: 642b ee6e 384b a63f 365c 8d9f 77d9 9ebf
000003b0: c6f6 fd1a 6eaa 803f 7443 4b71 c4a4 9f3f
000003c0: 0570 d9f5 5010 95bf 4082 b669 5fa1 96bf
000003d0: 11b9 5f78 36f2 ae3f 6644 b8a2 ad3e c0bf
000003e0: 7a04 7a2b 62af c13f 6580 4395 4d7b c1bf
000003f0: cb76 086b 2782 b93f ee62 3a10 5a73 a5bf
00000400: 2f7f 6d75 654b 9e3f ec61 ebc1 9f47 91bf
00000410: f2fe 2907 24dc 6a3f c66a 153c a16b 80bf
00000420: 35d2 4604 502e 9e3f 112a 423e 97f9 90bf
00000430: 0f4b d4ff 06d6 85bf 371d 1434 2cf1 b03f
00000440: d588 56a2 5497 bcbf fbd9 6955 0633 c33f
00000450: 3ff7 540e 9f2e cabf 3d93 aa30 80f5 c43f
00000460: 75f7 9643 d570 c6bf ece4 348f 8a28 b63f
00000470: 899e 0906 5ae6 a6bf d664 f57c 673a b4bf
00000480: bc9c 30a6 c162 c63f fde7 1ad5 1a93 d1bf
00000490: 6496 f897 f973 d03f 4294 9aaa 9dea c9bf
000004a0: f0cf 45df 79ad c53f d037 4e2d 3ca9 b8bf
000004b0: aa1d ce1f a293 c73f 752e 7288 4f61 a6bf
000004c0: 4d39 c560 f4d2 c2bf b8ad 2010 c6ee 7f3f
000004d0: 2e88 a856 8ed0 c23f 216f 364b d75a 943f
000004e0: ded3 8da9 b830 d2bf e0ac 9009 0e45 b33f
000004f0: 9037 f933 f3a2 d33f 2104 6f95 26bd cdbf
00000500: 74f8 54a5 8a76 cbbf eefa 3f35 ff96 d23f
00000510: f543 7bca f781 9f3f 63d0 5201 b9f6 cdbf
00000520: fd35 7fbc fa81 aabf 3c92 a0c8 86a9 cd3f
00000530: 39f8 7f34 ec79 be3f df92 2fd5 7efa d1bf
00000540: 86c0 6dc4 0a37 babf 91b4 c496 b456 d53f
00000550: b0b8 2342 717b 9f3f 8a37 163d 2f6f d9bf
00000560: a42b 4028 5e22 70bf 71b0 1c7a 1d42 d53f
00000570: edda 3ca7 82da c1bf 13b5 420e 99b2 d4bf
00000580: 8868 c887 87b8 cf3f 58dd 5aa2 962a c13f
00000590: b421 0c81 89a7 c2bf e20f 7678 3481 b7bf
000005a0: 1acb ddff 8653 81bf 9ec7 23f0 f39b d23f
000005b0: f14c 0255 b682 aebf aefc d14e 82f8 dbbf
000005c0: c096 e58e fed1 d63f 259e bae1 dc05 d03f
000005d0: 2af8 8538 eaa6 dfbf ed0a a03d d8c1 b33f
000005e0: 36c1 7784 9f70 c63f 625a f1d7 2c7c 9cbf
000005f0: 95a1 2019 12fe a83f b247 a44d 9c61 debf
00000600: b63a a1e7 0671 d13f faa6 73eb 69ce db3f
00000610: e3ac 8abc 4a68 e6bf 8e1c 40f3 7783 aa3f
00000620: c033 a623 e796 e53f 4748 3216 f2a6 e0bf
00000630: 5c6a f248 e006 c4bf 85ad 2eb7 3b57 dc3f
00000640: a754 4870 968a cc3f 7cb6 50be 38c7 77bf
00000650: f291 5f5f e904 ac3f ac28 06ae 488b a63f
00000660: 8d70 93d9 69a2 b03f 45b0 4456 05b1 bfbf
00000670: 02d1 8b5c 4d49 ca3f 07c0 0c60 53e4 a9bf
00000680: 1751 3658 2779 b3bf 19d7 e40d b183 b23f
00000690: a6ef 9e3f 6aaa 76bf 2b1d 78d5 9507 b3bf
000006a0: df83 8dfb 741c 5d3f 209c 2bc8 487b 933f
000006b0: 8515 4bb7 4185 aebf 0a4c 4855 ce0f bb3f
000006c0: 4819 12af c308 c7bf 3d40 51fa cd19 c03f
000006d0: 7fc5 5c8f a4a3 b7bf e52d 057e 1a47 603f
000006e0: 029a 9c38 1a61 b2bf de5d 0d69 b552 cd3f
000006f0: 96a2 1c26 c77b c2bf 9ec8 4865 3022 cf3f
00000700: 8fff fb34 46ac b5bf fde2 2c32 bc67 b23f
00000710: 8e9c 3c54 ca0d a1bf 27a8 62e2 881c b93f
00000720: c588 7727 5752 c5bf 0194 f058 886f c83f
00000730: 298c 9b5f 7329 9abf d097 5941 0a64 b3bf
00000740: c407 468b 36eb b93f 1748 d48e e588 c0bf
00000750: 0e68 ac91 42dd a03f 3625 235c f62f b5bf
00000760: ec30 2fec 24cb c43f 84df c436 7984 d1bf
00000770: 44a8 e223 6bb7 d33f 87aa beef 7bb9 d1bf
00000780: 3190 28e2 fed4 cf3f d45d fc5a ccf8 bfbf
00000790: ef23 8d12 63de d13f b18f e290 5cb2 d8bf
000007a0: 121c 4ef5 180e d33f 0e9c e358 bc1c ccbf
000007b0: 65a5 5625 f643 a73f 9f02 14f3 0c0b a6bf
000007c0: ca45 a903 c4eb b63f 60e9 6aca 77a9 d4bf
000007d0: 332d ba1b 15b0 d03f 4028 5753 e821 a1bf
000007e0: b649 0240 2762 c8bf baff 9d25 b66b d93f
000007f0: d0e5 c88d 0d86 d5bf 4056 4f2f 0cf8 aebf
-0.29926111636213887 0.06060405463942915 -0.013496874695070922 0.07963351991202298 -0.10213191097309475 0.006723400067353123 -0.017139292352410712 0.0727902639819081
-0.20159670146471562 0.046736854701420506 0.09065839814594265 -0.06657466175362653 0.09516321674081955 -0.07305473742442715 -0.008835648785184131 0.05881562018242732
-0.09076907452297242 -0.041304504586718034 0.063936896126136 -0.09933126192737009 -0.16721393923881114 0.2265604959227526 -0.267726657534344 0.1802630386428198
-0.10469516403335387 0.056260980274953375 -0.12774825477000415 0.37022760505829694 -0.44158701616491514 0.39896921170689376 -0.1758862456628135 0.15375342939570646
-0.12448008371456733 0.26633856049542454 -0.3287035889442474 0.33251740556472265 -0.2964846708600421 0.1825195028952376 0.0474793564045449 -0.0537494679526837
-0.20711131665929916 0.14162161767017453 -0.1871813045634908 -0.026812335515906935 0.08965596212284598 -0.05674594935725771 0.009481665362152385 0.08633230095125918
0.022132802192915448 -0.11716336459823737 0.23406102566263118 0.20166129185590137 -0.3243071775634835 0.1485186829032586 0.05572414803322365 -0.17176449482213582
0.17932238042919355 -0.2364209529196978 0.16415332600697252 -0.05838515764355934 -0.16078292020724524 0.27777389040562966 -0.15895677463236568 0.033595736515563815
-0.14050000121158593 0.06647389558409017 0.23280667049881393 -0.4174463414804485 0.24051495711202486 -0.020626448011017963 -0.12233342177290586 0.08139776109938436
-0.22648542447171727 0.3299744256445613 -0.17476605641859339 -0.2572582963366535 0.382984654976261 -0.23598675965406396 -8.894499934020784e-05 0.024135100053806535
-0.16229487317484878 0.40490454194875497 -0.39300632091802856 0.00508474846234999 0.32291658491973907 -0.41758650688518034 0.3676729773503382 -0.25168607501082213
0.0686201569798535 0.2995725557867702 -0.48340481915654543 0.33609798954287995 -0.0654584736572678 -0.02400137694518049 0.12311187936255644 -0.13306993559964692
0.1997392876547122 -0.09447313082307861 0.03408328910439238 0.1815784479492453 0.1529119951722163 -0.17882104502641888 0.2428586074729103 -0.26222934098103795
0.2974787268799894 -0.20972062049624776 0.13305527415113774 0.009741281563361369 -0.09612868623107718 0.12824232146759007 -0.16155733058995175 0.1612014507622421
-0.13525258383092828 0.1276098387051504 -0.04474784831087127 -0.01571940963090454 0.04354263643388981 -0.030126446831982366 0.008137569617015738 0.030901975073735113
-0.020570054059462013 -0.02209996302338113 0.0604416868153398 -0.12691278882315088 0.13816477892763485 -0.1365754107309868 0.0996422420798481 -0.04189568946930487
0.029584489147395473 -0.01687478657808754 0.003278799407155358 -0.00801778759585171 0.02947354341604776 -0.016577113318399898 -0.010662131006517165 0.06618000289391977
-0.11168412173586557 0.14999465151386446 -0.2045477695445985 0.16374208809170368 -0.17531839180258726 0.08655611034636806 -0.044726193654068665 -0.07901617813822112
0.17488880743733215 -0.27460356532139923 0.257078550729011 -0.20247240858330612 0.16935656930911547 -0.09633232217876686 0.18419291069970473 -0.04371117153740737
-0.14706282353513203 0.007796071704471989 0.14698962432254475 0.019877780881514377 -0.2842237144280356 0.07527244313739656 0.3068206794313193 -0.2323349218040969
-0.2145551020893809 0.29046611976802594 0.03076922582005533 -0.234091878553616 -0.05177291441905749 0.23173603817225963 0.11904789239631065 -0.28091402834824736
-0.10240237517951031 0.3334170791957343 0.030744332944714514 -0.3974111649084696 -0.003939025689770146 0.33216034817701884 -0.1394809071150215 -0.3234007491362984
0.24781889085790376 0.13411219527709295 -0.14573782731191687 -0.09181526127764486 -0.008460097011015178 0.2907686085810556 -0.059591005208085586 -0.4370427865723724
0.3565670390583868 0.25035783809514306 -0.49456267852645175 0.07717658524056122 0.17531198471216108 -0.027817440681554458 0.04881340557796247 -0.47470767576407547
0.27252361888978827 0.43447349541985114 -0.700230949635991 0.05178427547803564 0.6746707626604049 -0.5203791078113306 -0.15645984231817323 0.44282429589176103
0.22297935946031552 -0.005805226949673444 0.054724972622157156 0.044031401866122394 0.06497823297417167 -0.1237948737731936 0.20536200541358346 -0.05057011172755215
-0.07606740859620618 0.07232195462424008 -0.005533614190365832 -0.07433449231767912 0.0017768042000272306 0.01902497979872575 -0.05961041796175962 0.1057099302491197
-0.17995496796010912 0.12578749392059932 -0.09234074115808787 0.001987029783924165 -0.07179416544077102 0.2290865672064077 -0.14440240250521147 0.24323086686633116
-0.08465994638026884 0.07189537262901165 -0.033308337004478536 0.0980916550348928 -0.16657533099266267 0.19090370505105628 -0.02554874678652311 -0.07574524016817397
0.10124531650765706 -0.1291777560623479 0.032938080103306885 -0.08276309728093598 0.16244946987570275 -0.2737105402807105 0.3080699778025784 -0.27694605267121414
0.24868761103528095 -0.12489011021931812 0.27919842540410306 -0.3858863272564533 0.29773544269159047 -0.21962694492614826 0.0454403801516701 -0.04305305926573521
0.08953499879250795 -0.32284350173326537 0.260747220113177 -0.033461818860431425 -0.1904954016250266 0.3971991889338785 -0.33630694242637293 -0.06048620297921703

bias f8 [28]
00000000: 4be2 b170 b2f6 eabf e1f1 2f11 f097 b2bf
00000010: 30a4 62fd 66cf d23f abfc 9f31 4b14 9fbf
00000020: 1c39 c59b ec14 dbbf bc56 bd7c db7b a6bf
00000030: 0b0b 9ff1 438d d2bf 1530 b67d 3aa3 dfbf
00000040: 5ab3 b231 4a26 9fbf 7610 0444 0ced c1bf
00000050: 8332 e317 8bd3 e8bf 1f7c 0229 14ad a2bf
00000060: 5a77 9326 4665 dfbf 446e 71d8 c341 a3bf
00000070: d33b ff52 cbf5 b2bf d429 9d16 0b08 b3bf
00000080: 2a00 92ff 45e2 adbf 8887 7906 424c b0bf
00000090: 603b b56d 3b65 dabf d41d 4947 505e aebf
000000a0: 7cfd 4490 abc2 b5bf f2b0 4480 fe72 bdbf
000000b0: 3d45 74cc a69c d9bf f6dc 911f 86b4 dbbf
000000c0: 8bee e503 b3e8 dbbf 0b44 1719 6897 d6bf
000000d0: f67a bcaa f247 adbf 5139 7471 aa10 aebf
-0.842614383799693 -0.07263088626491011 0.2939088320222849 -0.030350851920954252 -0.42315211498216043 -0.04391370675754788 -0.28987215610338585 -0.49433767582445515
-0.03041950157482929 -0.14004662819946007 -0.7758231607964067 -0.03647673607451218 -0.4905562760085239 -0.03761112229468869 -0.07406302238744837 -0.07434148122880596
-0.05836695427660772 -0.0636636033828194 -0.41242871965089556 -0.05931330557046591 -0.08500168106274048 -0.11503592139769461 -0.40018625227192556 -0.4328933056162464
-0.43607783680611395 -0.3529911274936814 -0.05718954405005221 -0.05872089991508978

weight f8 [6, 28]
00000000: 53e7 9bda 8aba d03f e8cb 2d53 93b1 c33f
00000010: 7f1f 0e20 52ad 78bf dbec 602e 0117 e43f
00000020: 1893 1138 abb5 e03f 1611 4a42 3372 cf3f
00000030: 1b0f 343b 29e8 d73f 251f 427a e8b5 dbbf
00000040: f160 2208 2678 e23f 19bd 7319 a206 c03f
00000050: 9f04 87bd 1456 e13f 7170 fb17 fe39 d03f
00000060: 012f dcee ce59 cf3f df34 3c4c 4c25 da3f
00000070: 37e2 31d4 3102 cc3f ae48 11d5 ab9b d63f
00000080: 4b85 86db 30c9 da3f b72d a341 e496 d43f
00000090: b0e9 84a3 f4b6 8e3f 0894 1a7d 8f82 e13f
000000a0: 425b e513 a4c1 c63f c2d5 6bad 9639 d93f
000000b0: 3932 36e2 483b e43f 3a6d bfe0 e026 d5bf
000000c0: 8c28 260d e4f4 9e3f 76a2 cc43 3a1e e73f
000000d0: 34c0 3cb8 d173 d73f 72cc b802 8873 cd3f
000000e0: 78a6 ff8e 457a e13f 7fb2 8aba 840f cabf
000000f0: 3a2f ea9b ad4f d63f 0dcc 02ab c436 df3f
00000100: 0231 2180 6fca e23f 91ff 79cd a061 a8bf
00000110: 8d56 dcf8 ba4b ccbf e40c ba4e c0c7 b23f
00000120: d7ce 7616 6068 d83f 5cfa ddb9 4b0c ee3f
00000130: 3f4b be70 87a7 dd3f ddc9 70b3 ecb5 b9bf
00000140: 92b3 d753 258c a83f 48e5 3672 54d9 d53f
00000150: 92f9 95b3 ccf5 d03f 73c7 3d79 1a96 d23f
00000160: 518c 1e57 8eb2 c73f 70df 1188 da90 d43f
00000170: 86d6 e1ae 6482 a5bf 6292 90d1 9c75 ca3f
00000180: c890 4091 d7b6 bcbf 005c 7453 cd1c cb3f
00000190: 6b22 f72a bd2a a13f 5334 8b08 bcba d13f
000001a0: 3f25 be50 e3bc b63f 57b0 b939 ba11 b53f
000001b0: 47a7 624e deaa c73f 6335 abd4 7c33 e03f
000001c0: 0f36 02e9 feeb e83f dcb3 816d d0a6 c83f
000001d0: 7ad9 9391 7a72 e83f d3d0 201b 73b3 e23f
000001e0: f690 f502 5837 cc3f 865b 421b 7e58 b33f
000001f0: 2ad8 1400 b058 e33f 4772 4cf2 26ae a13f
00000200: 7741 9cf1 5337 e03f 149b 9182 3cd6 ca3f
00000210: 841f 79b2 dbb3 e93f 6e6a d163 77e8 d33f
00000220: 8184 692d be10 8e3f 0257 5003 c644 e33f
00000230: 497b 4dc6 4a01 89bf 2a7c 8741 c1d3 e03f
00000240: 86c9 3e2b 9e8d d33f a3a8 4d00 35cf c83f
00000250: 629b dcc4 8569 e63f 1514 679f 4aa2 db3f
00000260: 410e f61d 9972 c8bf 1be1 d766 956c c63f
00000270: 01a4 7b5b 769b c2bf fec8 9829 0c3d d23f
00000280: f492 e43b 102e c1bf 2e3b 26e8 52da da3f
00000290: 8c87 be11 4a08 d43f 5ea6 cac5 a159 c6bf
000002a0: 59dc a556 544c d13f 0f7b 767e 7f16 cb3f
000002b0: 0d62 eddf d84a d3bf 7130 6cd9 2070 e23f
000002c0: f4fb 933e 3ac1 c6bf 997b 20c9 e435 d63f
000002d0: 7fcb bea3 f55e 9ebf fa6a dc22 36c6 dc3f
000002e0: f247 e573 6532 e33f addb be09 6cdc df3f
000002f0: b2e4 84a3 385e d43f ef32 512f aba9 d33f
00000300: 57b3 7684 27fc e43f ddb2 024c 4250 d83f
00000310: b3ef 20e0 04e1 d13f 2999 9341 297f d13f
00000320: 0d40 e028 ed8c da3f a8b4 307d 225c d73f
00000330: 8122 a913 b936 e33f e3c1 6fa3 438f de3f
00000340: 269d d784 dbed dd3f 0f70 bddf 5e4e d93f
00000350: 5fa3 b1a1 3a9b 973f 3eab 19ea 3740 b23f
00000360: 1b78 7173 7516 c9bf a13f 86ad 2d9d d23f
00000370: 00b9 149f 1213 d73f 3177 bb96 0a75 d23f
00000380: fb8b 36b7 de4a b0bf 3df0 e7da a393 ec3f
00000390: 9863 a799 adeb d73f 82dc 443d c308 e53f
000003a0: 6b69 b246 923e 86bf a86b 3235 f3b4 ec3f
000003b0: 58f3 fa5a 98e3 52bf 457a f550 26a3 e93f
000003c0: f88b e9f0 c7aa e63f fa37 50ee 2cf0 b7bf
000003d0: bf69 ffc9 8f7a b5bf 656e 9763 9900 e83f
000003e0: 8a38 b6e2 be79 e53f e3a6 1e8c 7818 d23f
000003f0: b825 5a1c c628 ed3f 6d61 f2f3 ad10 c63f
00000400: 7740 f2ed 8f4f e83f 5658 ee1c 00f8 ec3f
00000410: 6941 305b 3722 a2bf 879b e85e 02d3 e23f
00000420: a18e e0c0 6f0c e63f e33f e14d 4714 c9bf
00000430: e24e ef32 e6ee e83f 012f dc5e ba0a 92bf
00000440: 988b 4568 4e9a ea3f 505d 003c df52 b5bf
00000450: 22f0 4a30 1d58 db3f b099 7f8f b849 e33f
00000460: 078e 3ad0 ca6d e33f f0a2 e17c 75a0 c33f
00000470: 1e96 5cbb 1432 cebf df59 6afa 4c47 e73f
00000480: 9ac8 cd76 8d8e dd3f 100e d0f0 c4fd d53f
00000490: 45ac c566 f764 e03f 2281 3209 42da c33f
000004a0: 6ef1 fd2a f956 e53f be74 f705 fbf9 b63f
000004b0: abe9 ced0 ca3e d83f 67ab 2e91 6255 d23f
000004c0: 4906 ad73 f50e d1bf 05b1 4081 dd05 e03f
000004d0: f0f6 90a5 12f4 b63f 1f32 4561 5c00 db3f
000004e0: d6cc 1cf6 8e40 db3f 1895 2f58 e0e4 d03f
000004f0: 8781 bad8 703e ca3f 82a3 6749 9b39 e63f
00000500: 4d36 f88d 1edc d23f 321a 3c76 328b e13f
00000510: 3dcd 6f32 8e2d a33f 15a6 7849 364b e73f
00000520: 0627 a3d8 ac4c da3f 3f9e cb69 c1ee a0bf
00000530: 51f5 9c4f 4549 e03f 8ff7 9be3 a9f2 b13f
0.2613856444219113 0.15385667382687918 -0.006024666597006844 0.6278081804115588 0.522176370152553 0.24567261444838867 0.3735449865491646 -0.43297779025350486
0.5771665724633107 0.1252024292257168 0.5417579366404829 0.2535395845604916 0.2449282327946705 0.40852649159280746 0.21881697522236873 0.35325141723036324
0.4185297149470741 0.3217096940031427 0.01499739765187233 0.5471875613626489 0.1777844521663728 0.39413992820422206 0.6322369020650235 -0.3304979510118816
0.0302310593629405 0.7224398922163136 0.36644404403614605 0.2300882352152232 0.5461757462446277 -0.20359858616338397 0.3486131689648918 0.48771778774533986
0.5872113707096391 -0.04761984356173266 -0.22106110717202335 0.07336046144523639 0.38137056535491126 0.9390009527413201 0.46335016260234235 -0.10043219929574528
0.04794422768086472 0.3413897624373772 0.265002417923733 0.2904115852353392 0.1851365971934649 0.32134116447513517 -0.04201044688026649 0.20671425087597856
-0.11216494842716707 0.21181646895340123 0.033529197211071025 0.2770223697123743 0.08881970139750182 0.08230174931822042 0.18490198924456022 0.5062851098715949
0.7788080740880917 0.1925907644939845 0.7639744609175942 0.5844054727408782 0.22043895859236046 0.07556903996952088 0.6045761109915067 0.03453180034395991
0.5067538947060218 0.20966297507694576 0.8032053457072696 0.311063621023698 0.014680372010106748 0.6021452011798092 -0.012209495712964051 0.5258489875667511
0.30551866744203726 0.1938234569054816 0.7003811688381172 0.4317804867426401 -0.19099725687930127 0.17518870851177656 -0.14536933390562015 0.2849760442942538
-0.1342182438321725 0.4195754305919078 0.3130059407504795 -0.17461034925263424 0.2702837797327838 0.21162408518736028 -0.30144330852411444 0.5761875387702401
-0.17777183585710044 0.3470394100312944 -0.02965911685869171 0.4495978680076146 0.5999018920504098 0.4978284926577839 0.3182508084169725 0.30723075505083747
0.6557805621319898 0.37989861891655413 0.2793590725666448 0.27338630107841994 0.4148514651469675 0.36499845719920154 0.6004300483701429 0.4774941536007004
0.46764266941905175 0.39540836190804013 0.02305308925534477 0.071292395261179 -0.19599788796307469 0.29084340997450836 0.3605391076588518 0.28839363784742306
-0.06364242527938295 0.8930224681385038 0.37375965123424626 0.657319659868236 -0.01086153295755273 0.8970886267664939 -0.0011528957219717108 0.8011657315472084
0.7083472924535945 -0.09350853746602175 -0.08390139276108409 0.750073141588882 0.6711115291561935 0.2827435844761636 0.9112272790672966 0.1723840180536728
0.7597121856106374 0.9052734913882527 -0.035417299157532174 0.588257966392903 0.6890181319362975 -0.1959313516877038 0.77916250179484 -0.017619049110222388
0.8313362156444439 -0.08329577650908004 0.42725305286490045 0.6027491381362804 0.6071523730246903 0.15333431813930742 -0.23590335033911541 0.7274536982466165
0.4618257198518535 0.34361384884707125 0.5123250014561412 0.15509820412717895 0.666866859406168 0.08975190063161428 0.3788325347083183 0.28646148851355807
-0.2665380124709356 0.5007159733263796 0.0896617559637567 0.4218970250992999 0.4258153346483601 0.26396950351620907 0.20503054220627012 0.6945320542991882
0.2946850191518465 0.5482418355248397 0.037456935555292926 0.7279311594949741 0.4109298816298267 -0.03307156006286193 0.5089441828674045 0.07010900313249933

bias f8 [6]
00000000: 91a5 0210 64b1 b0bf 95c9 180b ec7e c63f
00000010: 2859 7843 d8f8 c63f 7cf1 2b9b 7c89 c8bf
00000020: 2c25 66c0 cc51 d4bf 2581 b277 e734 c6bf
-0.06520676985623754 0.17574835340344622 0.17946913999976144 -0.19169576241246122 -0.3174926642319231 -0.17348950714677716

weight f8 [28, 6]
00000000: 0beb 319f 35d2 e33f 894d f4ec b5c5 cd3f
00000010: 46e3 5aad 879a c1bf 174f a9d7 41ee ca3f
00000020: e7c5 af07 6d51 e3bf 599d 7181 cf2d b73f
00000030: a943 810d 2760 e63f 7c69 ea56 143d bcbf
00000040: 7cf9 8156 3294 ca3f 2b44 e451 efbc b33f
00000050: 842d 37dd dea2 d9bf b44a 971e 99aa e1bf
00000060: 81ed 7de1 874f dfbf 916c 290e 04be 97bf
00000070: 224f 05f8 b64f b0bf abfc 99bd 7218 da3f
00000080: eff6 a34f bd73 d63f 3d36 3aa5 5e7f ddbf
00000090: 99be 1c54 669d 74bf f1bc bd90 a5b3 e8bf
000000a0: e8a7 3470 0362 ab3f ff58 bc2d fd21 a03f
000000b0: f064 f7d7 08b5 d13f 4849 7675 fa7e bebf
000000c0: 5013 423f cac3 a7bf a0e3 1f5a e981 b5bf
000000d0: d77e 2cd9 4510 e0bf 04e9 d620 bdd2 d43f
000000e0: f29a 725e f585 f03f eb65 896d 46e3 c2bf
000000f0: 815a 92d5 7a2c ccbf 0290 e600 f40b c83f
00000100: 1062 00ab d1a4 de3f d2dd 779e b752 dcbf
00000110: 3c09 af4c 3e44 e23f b835 1513 a10a dbbf
00000120: 1054 13b6 469e e0bf ad8e 9a77 0345 dd3f
00000130: b6eb fbea 138c a63f 931d 2f6b 6546 ca3f
00000140: 1db6 ff70 c941 d1bf dbaa aec6 66ab cd3f
00000150: 6c56 e368 3370 e93f 89d1 158c 3717 c7bf
00000160: 58e0 7f18 ac8e c3bf 3685 3196 938d d13f
00000170: 894b 8048 8a74 d03f cb81 2f76 bc81 e3bf
00000180: b70d ce90 5072 77bf ddfb 3e7e 0545 d8bf
00000190: c3d0 a078 04b7 d4bf 7ca9 dcc4 5f1e ddbf
000001a0: b41f a50c edc5 da3f 3b57 7580 41d3 db3f
000001b0: ef70 9a5b 3944 c0bf 00d3 3523 a424 e23f
000001c0: e143 b7c5 9862 d0bf ab54 609f 7b62 db3f
000001d0: c2a1 8496 8a1c be3f 0a04 4572 3402 d3bf
000001e0: 638f d5e0 a63c e6bf fa72 e03f 1ab1 b63f
000001f0: 5f00 583f e392 c3bf de81 1c3d 073e aabf
00000200: f389 34be 52e7 dc3f eedc c2d3 9e4a e43f
00000210: dad0 5c38 3a5e d73f 971d 8604 f1f9 c0bf
00000220: 15f5 5b1c 3b96 babf b078 957a 494e c13f
00000230: d12e 3340 04cd 8cbf 5501 5fde 150e e03f
00000240: 81cf 3080 b22d d5bf 24ef 66df 635d c1bf
00000250: 0c07 b113 4cea e53f f94d 4a49 e8d8 e03f
00000260: 9b50 daee 9297 dbbf ab60 e82b 5dd5 b5bf
00000270: ab27 7f43 d724 dcbe 35e0 d72b 5aac e5be
00000280: 81f0 35cb 57dd e4be 2cdf 2364 0d65 ddbe
00000290: 4fa9 437e e5c3 dcbe 9b60 8141 24c6 d0be
000002a0: 34af 4409 9e1e dd3f 9c0f 191b d1a2 d53f
000002b0: b9d3 0ade dc96 ddbf 10fc 1655 c904 e3bf
000002c0: 8455 3759 6fb8 d43f 0edc cdd2 69ef ce3f
000002d0: c9e1 2eb2 e329 b7bf e099 c745 b47c c63f
000002e0: 734a 0ca0 8da7 b7bf 48aa be4d 7560 cdbf
000002f0: f70d b70a ae04 d1bf 1d28 27dd 463c e53f
00000300: 4eec cd66 0847 d9bf 59a9 3167 add2 dabf
00000310: 247a 20a5 0276 cb3f 0643 0d73 3ef7 e83f
00000320: b9ab a743 5053 cf3f 0ead 2e37 d67d c8bf
00000330: f93a 1259 3935 db3f 161d b9c9 1273 913f
00000340: b75f 0cd0 ef00 e0bf 0287 0bd0 e1bc c33f
00000350: f9e4 634e ab5d cf3f 03d3 6211 3ecd e0bf
00000360: 3458 b266 bdb8 d23f b0f2 86dd a7b8 e9bf
00000370: 3555 ed20 c9de d63f 15aa d6c3 ffff e3bf
00000380: 346f 12b1 4c94 cabf 8335 4e91 59a8 dc3f
00000390: 9f25 abd8 4502 a7bf 3a17 5574 d036 c2bf
000003a0: f231 e15c 8ff7 e13f f824 20af dd36 a3bf
000003b0: 2ae6 e105 f687 d03f 013e 5f04 03e2 a2bf
000003c0: f73b ed62 19fa ca3f b444 3f35 9667 cebf
000003d0: 0baf e216 b6d0 e2bf e62b ab9e 5727 de3f
000003e0: 51d3 5fb0 680d d0bf f601 b989 012e de3f
000003f0: 604e bf75 f35e 953f 20da d215 3a51 d5bf
00000400: 62e0 b90e 809a d13f 0ef0 8a31 4dd4 cc3f
00000410: 792e 1d48 c7a4 e0bf 4174 1e0b de03 da3f
00000420: 54db e99c c8ab d13f 0a59 9736 10ad d93f
00000430: ebb8 b587 0e2e df3f d42b f222 ae1d e7bf
00000440: 6031 2787 2a2d d7bf dedc e52d b105 c33f
00000450: 8965 e29a b4bb c93f 916f fdfa 7e21 dcbf
00000460: ab6d 8ec3 32fc af3f a62e 9777 6b42 c7bf
00000470: 8faf 65ae 7ce5 c23f a78c e906 c72b cb3f
00000480: 9b0f 40df 0cbd aabe 4c55 b368 9085 c1be
00000490: 7f01 877a 04e0 a8be 138c 5986 57ae c9be
000004a0: c518 0a63 8f5b a2be 13d9 d462 3a5e bdbe
000004b0: 7e3e 6e7b d227 c13f 2d5c 700d 7d9f d83f
000004c0: b77d c792 3374 d83f 07c6 de4b 7d1b dabf
000004d0: 4109 afd4 f7ef c73f be0f 84e9 9504 b6bf
000004e0: 6796 72b7 6e37 debf 9e5c afe1 8721 d33f
000004f0: 21ee 0c32 41bc e1bf 73a7 3065 62d4 b4bf
00000500: d687 424c c9fc d63f e7a6 8014 8ec6 c13f
00000510: 1c93 5c10 ebba dfbf f729 3e74 f941 b53f
00000520: 1359 ed34 9639 c53f b061 90ec e6bf cbbf
00000530: b511 d11e d6b3 bcbf a474 2bde fbaf db3f
0.6194103345181657 0.23259615011248183 -0.13752838101006598 0.21039603262271875 -0.6036896848801775 0.09054276380776595 0.6992373718040784 -0.11030699846233988
0.20764760231027057 0.07710166692074043 -0.4005658302600852 -0.5520749661903523 -0.4892291738576305 -0.023185790409439525 -0.06371635012811486 0.40774220004818557
0.3508141782511833 -0.4608990300701839 -0.0050329205712810405 -0.771929533670031 0.05348215813349083 0.03150931533143541 0.27667447176425153 -0.11912503593183488
-0.04641563436692897 -0.08401354265505612 -0.5019864312816605 0.3253624745081114 1.0327047051775335 -0.1475608858916496 -0.2201074164228949 0.1878647808454162
0.47880975436558604 -0.4425486609975141 0.570830487988395 -0.4225237547260252 -0.5193208271181238 0.45733725242664997 0.044037458834245966 0.205273320518455
-0.26964031252905035 0.23179325772556222 0.7949463890642625 -0.18039602604006813 -0.15279151150002934 0.2742661444409181 0.2571130474108761 -0.6095869358360287
-0.005724253377482772 -0.3792127354499238 -0.32367049961181865 -0.45497888779450313 0.418330442761085 0.4347690348125643 -0.12708203289810835 0.5669727981281483
-0.2560178690737854 0.427885919228468 0.11762300657995353 -0.2970095745004647 -0.6949037925046294 0.0886398702572925 -0.15292015641171283 -0.05125448819149246
0.4516188485596608 0.6341089378319376 0.3651261854568141 -0.13262760849850672 -0.1038548416363095 0.13520163045445122 -0.014062913140512919 0.5017194121537992
-0.3309141399251914 -0.1356625405149937 0.684850729427326 0.526477950234436 -0.43112634015529644 -0.08528692552534049 -6.710030952159216e-06 -1.0334611370219161e-05
-9.949026525950474e-06 -7.0082510907827225e-06 -6.8581630083642465e-06 -3.999231033523363e-06 0.45499373345477356 0.33806255003241303 -0.46233293231790246 -0.5943342840108716
0.3237570163012935 0.24168131631060458 -0.09048293209241999 0.1756806698533202 -0.09240040929243225 -0.22950617118961447 -0.265910635436938 0.6636080092805546
-0.39496049918642917 -0.4191087253335773 0.21453888953051703 0.7801811453919931 0.2447300272318367 -0.1913402337498628 0.4251235360942896 0.01704053264827817
-0.5001143516010335 0.15420172365616486 0.2450460560574255 -0.5250540103503173 0.2925256255051665 -0.8037909819318738 0.35734775748763364 -0.6249998879405348
-0.20765074392408567 0.44777526082983615 -0.04493921537284539 -0.14229779892246502 0.5614697279029868 -0.037527969005234085 0.2582984025426379 -0.03688058308000209
0.2107574208298215 -0.23753621673544034 -0.5879774519903277 0.47115126128181684 -0.25081841682486067 0.47155798387032577 0.020870021878933165 -0.33308269625868725
0.2750549453553558 0.22522892874792472 -0.5201145561672568 0.4064860447486503 0.27610984157165785 0.4011879475705348 0.487186081437257 -0.7223730738199898
-0.3621317214827027 0.14861120930775135 0.20104081690514544 -0.43954443464985454 0.062470995303751074 -0.18171447123892398 0.14762838855255864 0.21227348172678726
-7.968687314456668e-07 -2.0887535519912623e-06 -7.413348060356501e-07 -3.0614165094518854e-06 -5.471008020653309e-07 -1.7504738808022939e-06 0.13402777697455187 0.3847344046820947
0.38209237417137437 -0.4079278222007762 0.18701074490497585 -0.08600747061797073 -0.47213333048634926 0.29892155684997046 -0.5542303063916202 -0.08136572809658364
0.35917885253195203 0.1388719177351085 -0.49578358266653466 0.083037939910504 0.16581990799267796 -0.21679388571716407 -0.11211908581123604 0.4326162023188067

bias f8 [28]
00000000: c659 8eac 570e 923f 7983 3b6d 2947 c33f
00000010: 0b8a f09a 67e0 873f 8059 e9ef 8c67 c63f
00000020: 641b 0e7d bff5 8ebf 8375 49f0 4deb c1bf
00000030: 5799 48ef e683 c13f 3930 d8f9 ed33 b6bf
00000040: fc1d af67 9e9e c23f e8aa 7afd d8c4 b03f
00000050: f05c c291 a836 993f be02 2457 7ab7 c53f
00000060: a9cc 1614 d5f6 96bf 9ea1 46be e4e6 ddbe
00000070: 5ccd 3fce 2bde ac3f c70c 8cca 3e2b c43f
00000080: 2811 aa53 0af9 bb3f a01f de25 b889 c03f
00000090: 800c ae41 534a c53f 376e acde 8e6f a3bf
000000a0: e7b6 e20e d87c a03f 707f 0a07 870c ca3f
000000b0: a4c9 3c84 b63a c6bf 4865 8c45 c118 c03f
000000c0: dd62 5e23 f1c0 643e ff87 ebc2 35b2 b4bf
000000d0: 6307 9911 13ce c43f b878 cf1b a569 c53f
0.01763283720682709 0.15060918649308144 0.011658486762887518 0.17503511156492024 -0.015117164615515662 -0.13999342186700056 0.13683783229607613 -0.08672988271445171
0.1454656606931478 0.06550365627723986 0.024622568031728187 0.1696618009082353 -0.022425965644015253 -7.129175149258111e-06 0.05638253109637034 0.1575697411536565
0.10926880400262873 0.12920286034591033 0.16633072573685936 -0.037960495645361574 0.03220248395642305 0.20350730747031376 -0.17366677719981027 0.1257554616538903
3.8656740405229155e-08 -0.08084426888265737 0.1625388942648512 0.1672865281861442

weight f8 [50, 28]
00000000: 97c8 8364 a15b d1bf 4cef 6004 53e6 bb3f
00000010: 1df2 7729 a766 a73f 8316 951a 1b8c c4bf
00000020: ce4c 836d 8259 b7bf 5b44 9d46 cbd6 b4bf
00000030: 76dd e83e bb4a c8bf e8cc 44a8 e4c7 b53f
00000040: b973 7447 51f0 cabf 52d2 df59 7f4c b83f
00000050: c6b7 ebe4 c715 9f3f f4ce dbd7 f308 adbf
00000060: 93de 942d cb92 a2bf 77e3 0ea4 8a0e b23e
00000070: a23e 51cf c7b8 ac3f 2353 14a9 b452 c0bf
00000080: d18d 4ecd 6a7f b53f e909 f784 9f11 b33f
00000090: 8a81 2378 1bf1 c33f e68b 7f47 8aa1 a53f
000000a0: b544 b795 f854 a83f 50cd 2dc8 3fd1 babf
000000b0: 8203 cb3c 2fc6 d03f 073b 5210 3cf3 a0bf
000000c0: 1411 8ccd d110 a5be f7af c282 f1de b13f
000000d0: 8444 e333 e1ab ca3f c2d8 1dbf 3dfb b73f
000000e0: 93b5 362f d57e cf3f cf3b 4226 5035 b6bf
000000f0: ba9c c407 aa45 b3bf f34b dbc5 eea0 c73f
00000100: c5ff a4c8 9d0f be3f 7b17 9aa5 d72e 5abf
00000110: 4967 fb18 e681 c73f b35a 8f86 15d4 c0bf
00000120: 3273 c51f 5584 cf3f 1676 8eb1 74af a7bf
00000130: 5dfe a904 2d5b 95bf 8791 794c a011 b93f
00000140: c872 85c8 e39d b13f 5f12 a32e ab20 b4be
00000150: 414b ba3f 1821 b9bf a459 3c98 32d1 ad3f
00000160: 53e4 6352 efbf b0bf 67fa 02f7 98e8 bcbf
00000170: 0777 6178 358d cbbf d1db 23b7 1c20 adbf
00000180: 5941 7de5 e3e3 933f 9c0d 3c44 f088 a13f
00000190: 4197 d2fd 0cbb c5bf b7ab 3da0 3105 5d3f
000001a0: 649e 0d6c dd3f 9f3e e05f bfef e65a b6bf
000001b0: 79d2 1f02 f122 c3bf 6e03 7ce0 a4b5 bbbf
000001c0: 9bb4 dd73 69e4 c9bf ce1d ef37 e9a1 b03f
000001d0: 3948 09c6 b008 b53f c2d0 aa1f e54a c5bf
000001e0: 9280 6245 1851 c1bf ea5c d119 ee62 b53f
000001f0: 5ac1 96e5 853e c4bf 4a6d 3420 7cc7 c43f
00000200: 9a8e b0d5 9cda cdbf 9aa2 a978 ecbb 93bf
00000210: ffa5 2634 bdaa 923f 228b 7704 59b4 c0bf
00000220: c611 165c f8c9 b7bf 3cf1 c330 1116 be3e
00000230: 88f4 7bab 6e2d c13f 1c65 58b5 01f9 7e3f
00000240: 048f 0520 1586 a73f c7c6 efee fe50 c03f
00000250: 30ba 3b89 adbd d03f bf65 2004 52e5 b13f
00000260: 03d1 8e54 cd90 b5bf 34d8 8420 31d6 913f
00000270: f84f d8f9 4363 b33f cbfd 1fb0 1a73 aa3f
00000280: 363c 3384 3f6b 87be 536f 50b9 808b b63f
00000290: b9c7 8b27 1c48 b03f 5465 0c6f 74d8 bd3f
000002a0: bcc4 3b48 44e7 c33f 2f83 2e7e 4781 a7bf
000002b0: 11c9 cfd7 6239 b2bf 4615 c60d 8393 bb3f
000002c0: 671a e732 4331 c33f ab4e 720f f0de c1bf
000002d0: 4289 0866 914a bf3f f6fe cc76 cbdf c5bf
000002e0: 58a9 a783 6bc8 c53f 8915 8687 85e6 b63f
000002f0: 0312 35e6 b1ac 9bbf 5449 5e77 7e36 c23f
00000300: 06a5 51b0 d871 bb3f dec6 efab dc3d aabe
00000310: b94d b1ff 5d0f c4bf 8f6b eca8 b6b5 acbf
00000320: 6460 9910 cf72 a1bf d7c2 99a4 e1d7 bdbf
00000330: a003 fe80 02c2 d2bf 5ae9 5344 cd13 b5bf
00000340: cef1 3a87 f4bf bf3f ebec 4278 cda8 a2bf
00000350: ec9d 6579 4c05 45bf f954 88e9 6e17 bdbf
00000360: 3a6f 1603 fc35 863e e8cf 22ac c14a b3bf
00000370: ee84 27e9 5810 973f 3c30 9b55 2862 bebf
00000380: 966a 53e5 d700 bebf 2b77 0b7b 7b8f 9f3f
00000390: b6f8 a3d6 64b7 a33f 17a1 d109 bd42 96bf
000003a0: c5e7 54c1 5f96 c4bf 9cb3 0c24 ff8e c43f
000003b0: 74da 269d fc78 b6bf 2397 1fde f635 c43f
000003c0: 226b 6d9b 02a9 b4bf ba27 e591 7bdd c2bf
000003d0: 81fb f846 25cb ab3f eea7 f355 5c01 c1bf
000003e0: b4f9 0f4d b6ef bcbf da49 4cfc 97f7 b33e
000003f0: d8f7 3661 1c01 c53f f553 8b78 03c5 b23f
00000400: 622d 6bad 53aa a33f d34e 4066 edbf b43f
00000410: a133 b828 10f9 d33f 87d9 dbff 4617 b63f
00000420: be60 e204 e638 c0bf ff2e ff47 3854 9d3f
00000430: 2455 9829 9ce9 a0bf 2d31 1951 ffe7 c63f
00000440: f49b e297 7066 8c3e 2f73 a37f 70c0 a63f
00000450: 12a8 7934 8063 b5bf 6039 d8df e1ca be3f
00000460: e346 4865 11d2 b83f f534 9a4b 93c3 98bf
00000470: 19c6 512f 5582 6ebf aa0b dc8b 5aa7 b0bf
00000480: 4c51 bf7a ff80 c53f 012e da14 0a51 c2bf
00000490: 2e79 b525 da53 b03f 56a0 748f 9815 c0bf
000004a0: 8845 0487 d92b 80bf 710d 912f b8c6 c73f
000004b0: 81a3 322e aeb6 b7bf 4c1f af90 7952 b93f
000004c0: 0971 9819 839d bb3f ece2 df6d 862e b9be
000004d0: 56f5 143d c7a5 c3bf 13e4 d543 3bc3 b0bf
000004e0: 74f4 0ba0 22c4 adbf cf89 8bd5 c6bb a0bf
000004f0: 096f c139 f6a6 d4bf 676e 75eb aaf8 b4bf
00000500: f376 b716 1b03 b53f a181 2dc5 0ade 813f
00000510: 5747 be0b 4a75 9c3f 547f 004a 12d2 ccbf
00000520: d726 732d 4643 90be af2a 63eb 389e 1f3f
00000530: cfee b7c1 4e6e b83f 8f7d 0583 0c0f c0bf
00000540: 2b25 65b5 db1b b8bf 4a82 4448 251d 943f
00000550: aac7 a05b 1afa 99bf f45a 6022 0273 bf3f
00000560: 4db4 b025 027e c5bf 733c 1049 cd61 b93f
00000570: 5c37 8eb3 5213 adbf 57eb 7711 05e1 b43f
00000580: cab1 1433 9e8c ae3f 5e1e 8215 9d08 c9bf
00000590: adb2 cf82 01b3 c13f 5e16 5196 73c1 a7bf
000005a0: 9ec1 592e f93e b8bf 56c2 e832 addb 8fbe
000005b0: b32a ec03 859f c03f d409 e8b1 cebe a13f
000005c0: 8e21 5fbc a6e1 b63f b2b8 5e10 fd74 8abf
000005d0: 89aa b257 65da d43f 9995 81a4 34c9 b03f
000005e0: f995 37f6 2d23 62bf 47b9 f4d8 51ab adbf
000005f0: 3061 e50e d13a 8a3f 7bb0 a5a7 c669 cf3f
00000600: dadc 6bfb 9dbb 9b3e 77fc 467e d145 adbf
00000610: 2bc2 87eb f9ec adbf 7d2b ba88 7e7d c13f
00000620: e95a 7248 fe29 bc3f 7d8e eb7b 266b 88bf
00000630: ccce 1e49 906e 9f3f 6c44 0331 7e46 c1bf
00000640: 6614 095d 8d2b c53f f80e 3aad 9e38 a4bf
00000650: 4ebd a678 3b3e b13f 70e6 de40 10fa a3bf
00000660: b18c d462 f7bf aebf 49bf 00cd 3ba0 c63f
00000670: b71d 4ac2 5a6b c7bf 2033 77f0 5547 92bf
00000680: a49c bbce e26e b43f b210 0a75 5b60 ad3e
00000690: b37c 2fb3 e5de b8bf 3fdd 80c3 7a80 55bf
000006a0: 4b26 f5dd 3cae bebf 6076 7ba1 0697 a43f
000006b0: bd2b ae08 3177 d4bf 49cc c519 c428 a7bf
000006c0: bf9b 2f28 7b55 b8bf b19a 9e6e 1fed b83f
000006d0: 32c6 0f75 3003 b1bf 837f 4aa6 6f57 cdbf
000006e0: 6f92 cdf8 3fa1 8b3e fed5 3aed 26ef bc3f
000006f0: 72e7 4460 bff0 92bf 974a 6ce1 490f c3bf
00000700: b162 5cbf 63f9 c0bf 9c5c 859d e1af 7bbf
00000710: c358 fe85 208f 83bf 800e 5c06 1e0e b93f
00000720: 410b 6fad 27ba c4bf f8a5 a129 72e7 8cbf
00000730: 8bec 4615 e9cb b6bf b495 5bd3 cadf 883f
00000740: c342 671f 11f1 773f 8da4 e353 b731 c1bf
00000750: 6a43 979c dd33 cc3f ccc9 0bc7 6a08 b33f
00000760: 1904 bcfe 0326 b1bf 89f9 1a24 776b a0be
00000770: 6bcc 6774 5171 b13f 6147 bd3c 3477 95bf
00000780: 824a 6959 48e6 c23f c848 4954 f116 a6bf
00000790: 0030 59e0 c748 d43f 5ec3 d38e d7b3 913f
000007a0: 9622 54ea 9352 c83f 28a2 6f22 0575 bcbf
000007b0: ff3d ba83 2864 bc3f c628 fce1 ea0c c73f
000007c0: 91b5 7922 900d 9bbe 9fe8 ec2f 4b3f c4bf
000007d0: 079c f0c9 f616 ba3f 42d7 071c 2199 c43f
000007e0: 022f aed6 9c9d c33f dd47 1209 0b3e a23f
000007f0: cec6 24a5 2348 9fbf 10bf b8ec 4441 9abf
-0.2712176782216686 0.10898321968937558 0.045705055057599454 -0.16052569196670072 -0.09120955632834013 -0.08140249704344298 -0.18978062221297493 0.08508137806056804
-0.21045890797623004 0.09491725868412829 0.030356524798598426 -0.056708927249841695 -0.036276196779394664 1.0762693280886933e-06 0.05609726339082256 -0.1275239778120972
0.08397548210501006 0.07448765751090715 0.1557955109228824 0.042248078563510025 0.047523277545800914 -0.10475538861446876 0.2620962232286318 -0.0331057329104763
-6.278068226122279e-07 0.06980809633631667 0.208370352111647 0.09367738643581716 0.2460581284080204 -0.08675099309969812 -0.07528174104355659 0.18459877644508502
0.11742578648136177 -0.0015980821539484924 0.1836516973478928 -0.131472292616953 0.24622596789677115 -0.04626049678266157 -0.020855620774908313 0.09792520396292136
0.06881545682467582 -1.199699165386644e-06 -0.09816123538830103 0.05823667629572363 -0.06542869340400274 -0.11292415648038344 -0.21524685266461338 -0.05688562141033738
0.019424019700921977 0.03424788315717395 -0.1697708358162178 0.0017712578419046673 4.656534251996175e-07 -0.08732455590450128 -0.14950382808423848 -0.10824041824890937
-0.2022830787422308 0.06497056594445569 0.08216385683888995 -0.16634811445476855 -0.13528731716087755 0.08354080324476212 -0.1581580515899173 0.16233779499530449
-0.2332340281874295 -0.019271559586203503 0.01822944289020789 -0.1305037757693635 -0.09292556999395804 1.7932772520815366e-06 0.1341989838910289 0.007561690018996783
0.045944843443775724 0.12747179667308314 0.2615770187539139 0.06990540123697196 -0.08424075426484383 0.01741863976459275 0.07573342179995268 0.051659425735120466
-1.7448468456754962e-07 0.0880661442210429 0.06360031095007813 0.11658408843176932 0.1554952004148954 -0.045908197548902734 -0.07118814247931861 0.10771960340760697
0.14994087205396342 -0.13961601976608526 0.12223156682060668 -0.17089217472857116 0.17017883232558506 0.08945498045621582 -0.027025966335047624 0.14228802517443262
0.10720590881978262 -7.820620665495217e-07 -0.15671896920194486 -0.056073864098116315 -0.03407904698968947 -0.11657533901758242 -0.2930914172830459 -0.08233340185316732
0.12402275373000934 -0.03644411175761227 -0.0006415007981503385 -0.11363881303289593 1.654839266008222e-07 -0.07535944416559881 0.02252329752980569 -0.11868526544566377
-0.11720036839271084 0.030820779213960463 0.03850855941890201 -0.02173896191053001 -0.1608390516283277 0.16061391124949587 -0.08778361164773135 0.15789686056012284
-0.08070389074911735 -0.14738411544595725 0.054284253038068726 -0.13285402485718073 -0.11303271657377573 1.1901356497574578e-06 0.16409640070736375 0.0733186883256421
0.03840886585165994 0.08105357881896262 0.3120766065265404 0.08629268404533806 -0.12673640478602083 0.02864158572610531 -0.03303230293037476 0.17895499668009887
2.1159764779685382e-07 0.04443694646918172 -0.08354951172955818 0.12028323855358769 0.09695538256371665 -0.02418356083812952 -0.0037242568746982505 -0.06505361475505703
0.16799920552751713 -0.14309812563111282 0.06377948208453141 -0.12565905575434283 -0.007896136696703207 0.18575193712795682 -0.09263123157383114 0.09891471655202827
0.10787219405068894 -1.5009485916357203e-06 -0.15349665148270714 -0.06547899633541503 -0.05813701823897413 -0.03268262249709474 -0.32269054069705355 -0.08191936729911618
0.08207864098173072 0.008724292890918419 0.0277911729495551 -0.2251608716333019 -2.423344489075875e-07 0.00012061331185290557 0.09543316106276765 -0.12545925519496534
-0.09417508295623082 0.019642431770196013 -0.02536812958005156 0.12284863795535356 -0.16790797081321998 0.09914858850264512 -0.05678804818954461 0.08155852962947328
0.05966657994790443 -0.1955753664990309 0.13827532660743228 -0.046397792910778377 -0.09471089727026658 -2.373614278058224e-07 0.129868151583954 0.03465886995038017
0.08938066576877743 -0.012918450414727143 0.3258298260140369 0.06557015434517267 -0.002214040536034242 -0.05794769070995414 0.012807496325578954 0.24541552720927826
4.13252105798757e-07 -0.05717329660864661 -0.05844861030698597 0.1366422813046845 0.11001576679914717 -0.011923123032324451 0.030695204222594794 -0.1349637736625796
0.16539160769221722 -0.03949447502693987 0.06735583968724265 -0.03901720802191455 -0.060058337034456406 0.17676494131000656 -0.18296370016854066 -0.017850249101502347
0.07981698558033884 8.754848100510721e-07 -0.09715114235540305 -0.0013123701919662415 -0.11984615725409602 0.04021473618716409 -0.31977487418833644 -0.045232895036769145
-0.09505433779814519 0.09736820650742108 -0.06645491464566858 -0.22923083896330007 2.0585866558198858e-07 0.11302417079681246 -0.018496504069140447 -0.1489040709207827
-0.13261076778214467 -0.006759530362919677 -0.009550336922796615 0.09787166266692715 -0.16193099945493297 -0.014113323112002071 -0.08904892701586868 0.012145599913717976
0.005845133672168048 -0.13432971569207944 0.22033281465567295 0.07434718474886565 -0.06698632210829238 -4.893477767093836e-07 0.06813534824304816 -0.020962539870488132
0.14765266767297552 -0.04314378885159581 0.31694218548796016 0.01728760537384077 0.19002007428959605 -0.11116058436130827 0.1109032937622416 0.18008171114371957
-4.0312082425535566e-07 -0.15818157043560618 0.10191290311978217 0.16092313641245864 0.15324745638314857 0.03562960134253477 -0.030548626856392862 -0.025639607380241236

bias f8 [50]
00000000: 67c4 ecd0 dbed 9abf 3dc2 1b3e 0b99 ab3f
00000010: 802b 209b 3ee2 b2bf 1ed5 40bb a494 b53f
00000020: 4344 f60a ab4e b4bf dc06 1784 91a1 af3f
00000030: 27b0 3bae e229 9fbf e81a ce41 d069 73bf
00000040: 6a79 ba8d ca63 a33f 218e e320 f361 adbf
00000050: 8d23 7a56 09cf af3f cbe4 48f0 c572 aabf
00000060: becc 9c59 d370 9f3f cea8 d6d0 6759 62bf
00000070: 3a1e f42f 1a72 98bf 919e e893 720d a63f
00000080: da46 e5c6 b08e aabf 1cc2 e802 d48c aa3f
00000090: 67b5 7d6e 4f15 a6bf 16ed 16cd 6c2e 9d3f
000000a0: 4741 bdcd fe28 8dbf 0ebf fcd5 df13 7e3f
000000b0: 2a64 d315 b23e 81bf c3ae 89a0 f437 913f
000000c0: 0fad da5e 2b22 9cbf e929 eea5 ba5f a43f
000000d0: 3072 7d48 4aa6 a7bf d1b9 be0f 151a a83f
000000e0: f796 abe1 533a a5bf dc6a cc65 d327 a33f
000000f0: 64f4 7690 12e8 a1bf 9c03 f625 179d a23f
00000100: 847c 8bf3 fb5b a1bf e477 031a 56f8 9f3f
00000110: 6725 42be 7f68 98bf 26c4 e0e8 a29e 893f
00000120: 0476 70f8 8d62 723f a13e 7b93 4b46 93bf
00000130: 8d2d f436 6d21 9e3f 4b83 2a18 093e a0bf
00000140: 45f7 c8f2 3e62 993f 1325 177b 2da6 7dbf
00000150: bcd5 6cfb 350f 91bf c7a6 48a4 6954 a53f
00000160: ed59 530b 5a46 afbf 5f18 ceba ed8c b23f
00000170: dfe8 b381 168f b2bf 00ea 9aad ca48 b03f
00000180: 0193 d4ff e236 a7bf 9468 6ef1 9197 993f
-0.026297983767282675 0.05390200741920068 -0.07376471793410921 0.08429936954128833 -0.07932538049341624 0.06177954423357132 -0.030433217892024935 -0.004739583496194945
0.037870721627075124 -0.05738792206264188 0.062126437956130244 -0.05165690000689834 0.030703832954895864 -0.0022398975040306196 -0.023872765709738376 0.04307134681249381
-0.05186989238667446 0.05185568366539803 -0.04313133453147593 0.02849740983741097 -0.014238348630585164 0.007343172415673184 -0.008420363703793472 0.016815016077471833
-0.02747409597820388 0.03979285502926528 -0.04619056830299362 0.04707399193954454 -0.041460629747048054 0.03741322152764834 -0.034973697790953634 0.036354754814062334
-0.03390490863761733 0.03122076543592546 -0.023836132037592075 0.012509606105682702 0.00448852021420754 -0.01882284248023203 0.029424387435069078 -0.031723293495139325
0.024788840835973564 -0.007238557490788072 -0.01665958735539673 0.04165964250962655 -0.0610836161446747 0.07246290026350398 -0.07249584833690247 0.0636107133713395
-0.045340627412121755 0.02499225650863275

weight f8 [5, 6]
00000000: c510 7404 29d6 b2bf bd2c 23f3 beee aa3f
00000010: b5cc a5c8 af13 8c3f 27d3 852b 5177 bcbf
00000020: f893 6b7e 8350 a1bf 1a89 18e5 a4f8 c5bf
00000030: 87d3 0bee dcc3 c73f 3a48 065f 02c9 a0bf
00000040: 8722 6a90 9aaa dfbf 3b0d 4947 26d7 e03f
00000050: 1e22 795c 54fa f93f 4807 e6bb 98e5 bb3f
00000060: 4643 bb23 9f65 c73f bf8e c541 c12f d63f
00000070: 0d1e b4ab 2119 e93f cfac 7a82 6147 b0bf
00000080: 816b 41bd 28e2 f1bf 0665 8798 285c dd3f
00000090: 5676 b089 61b4 cb3f 04ab 7d43 113a d83f
000000a0: 98a6 5b91 6a4e e93f 16f2 38a0 9c74 7a3f
000000b0: 0bd2 381b 67ab eabf beeb 067c ea64 e03f
000000c0: 8b54 9c1e 5a01 d53f 16bf 579c 3829 cd3f
000000d0: 0c14 e848 a187 e13f 3c7d 1d0f e2a7 d13f
000000e0: d63d a4e2 a590 a9bf cd70 60e3 c195 e33f
-0.07358032568669433 0.052602736644609994 0.013709424315243227 -0.11119563400809494 -0.03381739538398415 -0.17165051637955103 0.18566476462697443 -0.03278357896773838
-0.4947878275202488 0.5262633697788383 1.6236156093820067 0.10897211634985837 0.18278874630643765 0.3466647283841943 0.7843178132615677 -0.06358918605353668
-1.117714633254508 0.4587499131717582 0.21644229148016575 0.37854415503413485 0.7908222998641632 0.006458865947533107 -0.8334231883696374 0.512318842163374
0.3282075213367725 0.2278204692261105 0.5478063987690134 0.27587176776974665 -0.04993170158024511 0.61203092965618

bias f8 [5]
00000000: 9576 e009 0ee6 fe3f 2272 646d 8ac7 d1bf
00000010: b72a 62b5 677e d73f 4069 f66a 8ed7 de3f
00000020: 640c 34bd 403e fcbf
1.931165731984412 -0.27780399973724645 0.3670901557276624 0.4819065136486138 -1.7651984587435203

weight f8 [4, 5]
00000000: 6115 1f51 02b2 f33f 7e9b a341 48be e63f
00000010: 66df b3d8 4456 ecbf 761a 54db be1f f1bf
00000020: 8386 85e4 bace f6bf 4ff0 e71d 0089 e43f
00000030: 1dfd 8bc5 c522 f4bf 8464 c344 e56a e43f
00000040: 72c8 2752 d8fd da3f e228 1b35 9c7d ccbf
00000050: 80aa 08c9 743a f0bf 087d a08d 7faf e83f
00000060: 28a5 d7aa 5071 eebf 69ab e13b 5dfc e6bf
00000070: 47b0 0ac1 3b5c e93f ff6e 14ea de9d e5bf
00000080: 0a63 8693 ba03 d7bf c3ec 7b59 7cb0 d33f
00000090: 4f53 6996 6b76 c63f 2213 8a19 44e1 e73f
1.2309592407994716 0.7107278139127258 -0.8855308754418558 -1.0702503745575576 -1.4254712034820904 0.6417236885167855 -1.2584893910096249 0.6380487769157672
0.42174346945751673 -0.22258331864424635 -1.0142715313801602 0.7714231268072647 -0.9513324105038565 -0.7183061761437389 0.7925089617106175 -0.6755213329192599
-0.35960258871777795 0.3076468347423537 0.17548889965351086 0.7462482928100125

bias f8 [4]
00000000: 9238 bff6 4b55 e63f f394 fd53 2181 e63f
00000010: 70ac fdbd 8834 e4bf ef2f a680 5d44 e9bf
0.6979121989513877 0.7032629623833188 -0.6314128599891671 -0.7895953667334633

weight f8 [3, 6]
00000000: c160 d181 43c3 acbf 5836 c59b a76a b33f
00000010: 99ad f522 388f c4bf 57de 7b36 9fea 93bf
00000020: 2a1a 5c5c ba8b ba3f 9095 a26a 1b15 9d3f
00000030: e812 6001 e529 67bf 96cb 3055 d3bb 86bf
00000040: c66f f22b d3ca 73bf 8457 c185 b838 58bf
00000050: a36a e061 5343 7c3f ca4e 16b9 8cc3 8bbf
00000060: 923b 2fe5 74b6 a6bf aff5 d066 24f0 c6bf
00000070: 0e55 c120 4b9f a23f 5e18 377e 7124 a43f
00000080: 22cd 6629 1716 c03f 31a8 a2d0 c00f b2bf
-0.05617724380198431 0.07584617188441578 -0.1606207056714595 -0.0194496991161642 0.1036945796478014 0.02840082968090979 -0.0028275940667320427 -0.011100436246214856
-0.004832100762680319 -0.0014783670403821511 0.006900144302586372 -0.013556575201426741 -0.044360783554672115 -0.17920355816197062 0.03637156271785545 0.03934054055893975
0.12567414781151692 -0.07055287450444393

bias f8 [3]
00000000: 29d4 a6f3 695b a73f d234 ae57 f6bd 5bbf
00000010: c4c1 d7ba 1d11 85bf
0.045619307510982594 -0.0016932397545333278 -0.010286552681436308

weight f8 [1, 3]
00000000: bff1 d0bb 6c16 a83f 8e63 835a 93d8 153f
00000010: a8a5 a3ae 73e6 acbf
0.04704608719518743 8.333587050247794e-05 -0.056445708339946166

bias f8 [1]
00000000: 84eb 5d4d 53b0 50bf
-0.0010186017511546195
