Trained_models/8/predictor4_100_9.pt (torch, 103639 bytes, 16 tensors)

weight f8 [54, 100]
000000 19 6b 01 e4 28 5b c3 3f 05 43 ce cd 25 81 ba bf
       0.1512194741543105 -0.10353313707879515
000010 a9 85 c5 55 80 d6 b1 3f 9a 4d 95 41 2e 16 b1 bf
       0.06967928022415627 -0.06674470044281691
000020 23 b4 ec 86 80 d6 a8 3f 92 f7 a1 1d f4 23 62 3f
       0.04851152083424661 0.0022144096265596736
000030 08 d0 3e d9 11 80 aa bf 2f 19 70 7c c6 ed 78 3f
       -0.0517583444301693 0.00608613523127692
000040 79 db 8b bc 8a 9e 93 3f 08 2b d6 b7 d8 08 ae bf
       0.019159477003053624 -0.05866124385928201
000050 67 82 ac 80 d4 15 73 3f b0 2e a1 12 4d ab 81 bf
       0.004659490669638978 -0.008627512103110163
000060 78 fc 3c 57 ac 81 b5 bf b0 2f b0 34 c4 27 c2 3f
       -0.0840099060996965 0.14183857510249487
000070 8e fc 00 85 ee 96 ad bf 62 09 6d 10 c2 cb b4 bf
       -0.0577921426161022 -0.08123410130523248
000080 4a 0d 46 95 d1 86 c0 3f c7 84 1d 83 09 46 9a 3f
       0.1291143397212216 0.02565779555095984
000090 ce 3a 78 59 58 79 b5 bf 50 44 f0 41 44 5b a8 3f
       -0.0838828295165783 0.047571309136522744
0000a0 f3 b6 0b 82 31 20 49 bf 02 d7 de ba 5c bc 81 bf
       -0.0007667772043455631 -0.008660053685030093
0000b0 36 d6 76 b1 d0 cc a6 3f bd c4 81 d8 52 0e b2 bf
       0.044531366026984306 -0.07053106103718938
0000c0 dd b3 e9 8f b2 e8 84 bf bc a0 ab d4 a3 72 bd 3f
       -0.010209460274575416 0.11503051702641448
0000d0 a7 4a 69 3e a2 0c ba bf 4d b2 c9 d6 73 86 a0 bf
       -0.10175527595246568 -0.0322757911388619
0000e0 34 ee e9 80 5c 61 c5 3f 1d 53 fd 6e 45 f8 c4 bf
       0.1670337323629255 -0.16382663649951548
0000f0 33 9d ed a8 62 fa a4 bf 76 16 41 e7 fc e9 c7 3f
       -0.040972788926234925 0.18682824413024307
000100 9e e3 d8 aa 87 71 c8 bf 8a 58 54 e0 4f 42 b7 3f
       -0.19096465913915223 0.09085559107583854
000110 0f 0f b4 9d 84 3b 99 3f 46 d5 55 96 4f 78 ca bf
       0.024641105771492863 -0.2067965969141971
000120 01 98 13 2f c3 b6 c9 3f c5 c4 4d 6d e7 d8 ad bf
       0.20088996695193376 -0.058295471279856716
000130 38 96 18 f6 81 8a c9 bf fa 43 38 34 49 90 d3 3f
       -0.19953941837700184 0.3056815156897411
000140 47 7a 33 77 ba 12 c7 bf db 9c 74 4b 8e 8d c0 bf
       -0.18025904484143693 -0.12931994137145505
000150 e6 e8 f0 dc b4 ca d1 3f 8a 9b 1a 8e e2 a6 d1 bf
       0.2779972226741293 -0.27581085088098034
000160 48 bf 2b 66 e9 b4 b5 3f a2 9f f2 5c 37 f9 b0 3f
       0.08479174370199616 0.06630273837310921
000170 4a d0 86 77 81 3e be bf 27 b2 c5 1a 0d d1 b1 3f
       -0.1181412617505099 0.0695961180078447
000180 72 f1 74 30 8c 59 b2 3f 14 b7 52 67 02 32 d3 bf
       0.07167888815906112 -0.29992733087679935
000190 dd b6 d8 68 69 0d d1 3f 5f d6 c9 8c 15 66 b4 bf
       0.2664435886280055 -0.07968268096177543
0001a0 0b b6 50 53 b4 19 bb bf 36 77 d8 00 62 be bd 3f
       -0.10586096796097182 0.11618626137393737
0001b0 37 0e 6d 7a 4c 5b 89 3f d6 4b 86 ff 6c 42 b2 bf
       0.012381169782776797 -0.07132607687371659
0001c0 2e 57 69 5c 18 3e b8 3f 75 72 96 42 e6 df ac bf
       0.0946974969495755 -0.05639571726644458
0001d0 12 17 c2 d6 3a 29 96 bf 87 78 5e fc 84 3f b1 3f
       -0.021641654355810287 0.06737548028329075
0001e0 35 4f 54 5f f5 93 80 bf 35 da 63 90 dc 8f c4 bf
       -0.008094708415718447 -0.16064030695243195
0001f0 db e1 1f 8f b5 bc c6 3f b6 4d 55 7c 20 c6 b6 bf
       0.17763394821646625 -0.08896067653159076
000200 82 11 67 fe 0a 16 b1 bf 83 22 50 80 c1 94 b6 3f
       -0.0667425986385464 0.08820733435289622
000210 5e 47 30 c5 ba d2 a1 3f 45 d1 a7 ec 35 61 ca bf
       0.03481086403929966 -0.20609163337179318
000220 1a 48 fe 1a 77 47 d3 3f dd d3 79 5c a6 14 d2 bf
       0.30123689304412127 -0.2825103667340139
000230 f8 10 7d c4 31 8e c9 3f 9b 65 81 a0 a2 d1 97 bf
       0.19965192884604455 -0.023260632559276222
000240 6d 7d 69 a2 37 37 bb bf c6 49 8c 40 f2 5d c7 3f
       -0.10631129946840696 0.18255451347120139
000250 93 90 b1 66 11 7f 81 bf a2 38 af 28 b7 97 ba bf
       -0.008543144175014816 -0.10387749427101992
000260 60 98 33 b5 7e 35 cf 3f e7 55 2e bc eb e4 cf bf
       0.24382003638965255 -0.24917360962415033
000270 04 0a b0 0e e9 4a b6 3f 72 9a 6e 36 43 dc ba 3f
       0.08708054169259333 0.10492343977839783
000280 5f d3 ce b2 5e 1d d1 bf cb fa 10 40 d5 c3 d1 3f
       -0.2674175974055312 0.27757769829251505
000290 31 0f a5 cb a9 45 b4 bf c6 6a 41 76 ee 5c c0 bf
       -0.0791879770450208 -0.12783604406543797
0002a0 a4 bb bc 40 1c de d1 3f f6 f2 94 65 f7 72 ce bf
       0.27918154069896617 -0.23788349590349583
0002b0 47 d0 be 03 0a b0 b4 3f 2a 02 db 88 bb 62 b4 3f
       0.08081114379348363 0.07963153926085256
0002c0 dd c9 f0 3e 3b 71 c2 bf cc 8c 4d 0f 32 c8 ba 3f
       -0.1440805489852001 0.10461724160772973
0002d0 6a 6a 88 33 7a e0 87 3f f1 9d 6e bc 78 30 a6 bf
       0.011658625314386845 -0.043338559152569796
0002e0 4b 0a c6 6f e3 5a a5 3f 30 43 74 10 91 56 91 3f
       0.04170904864715349 0.016931788090974453
0002f0 76 51 22 8e 77 4a a9 bf c8 94 f5 db 59 dd bb 3f
       -0.04939626321825845 0.10884629840946325
000300 e9 18 2d d7 4a bb c5 bf d6 f3 13 99 f7 aa c5 3f
       -0.16977820879601005 0.16928000425823936
000310 a3 22 1a 26 19 d5 b7 bf 22 18 c8 52 d2 0c ca 3f
       -0.09309537105776626 0.20351628343650058
000320 8f 7a 8a ac 2a e9 be 3f ef cc 38 ed 75 27 ba bf
       0.12074534141945946 -0.10216462174939854
000330 e6 c0 78 3c 08 31 b4 3f a1 52 d5 55 4f ee ad bf
       0.078873171580884 -0.05845878527421645
000340 6c b4 03 a8 af b2 b2 3f 10 7e ae 71 a0 61 b8 bf
       0.0730390343848783 -0.09523966575078924
000350 05 98 e7 8e 44 3c 9e 3f fc 04 79 e1 4a 4c 97 bf
       0.02952677843304487 -0.022751970302356192
000360 a8 fc ae a3 f2 f5 98 3f dc 9b 4f fb 8d 1f 95 bf
       0.02437571643872319 -0.020628183807186548
000370 86 b1 10 07 d1 14 b2 3f 42 41 6c 37 e9 f6 b1 bf
       0.07063013479700517 -0.07017381289575034
000380 4d 3c 57 38 b1 ca 9f 3f 3b 84 69 72 7d 7e 7a 3f
       0.03104664713265164 0.006468286540070751
000390 3b 16 55 9f 9c d7 ae bf 82 ec b9 ce 78 0f b0 3f
       -0.060238737535240415 0.0627360825255199
0003a0 8b 6a f1 8a cb bc a3 bf 7e 00 93 78 b4 5a a0 bf
       -0.038549767218417484 -0.03194202396252964
0003b0 1b b7 4a 4f fd 64 a7 3f 06 55 b9 90 4e f2 be bf
       0.045692363671476076 -0.12088480981158875
0003c0 83 73 80 26 64 8d b6 3f 6e 37 8b 41 2d 8d a2 bf
       0.0880949586866802 -0.03623334336371796
0003d0 19 f7 4b aa 8f 9c a3 bf 83 c5 89 fc 8b d5 8d 3f
       -0.038303842104126136 0.01456746448932012
0003e0 e8 e0 09 b1 a7 8d b2 3f 66 ab 50 7a 4a 21 b9 bf
       0.0724739844534984 -0.09816422926148291
0003f0 df 88 b3 74 c6 3f ca 3f 44 ce f8 72 a1 4e c6 bf
       0.205071265204487 -0.1742746173273294
000400 9f 50 1a 47 32 5a cc 3f a2 0b 59 55 65 40 ca bf
       0.2215025756055455 -0.20509020488142676
000410 61 af 72 52 6d 2f b7 3f fd f0 e9 9f d3 e3 94 bf
       0.09056742918863626 -0.02040033973251897
000420 c5 70 13 91 7b 71 a6 3f 1f 43 a3 d9 0d 73 bb bf
       0.04383455415674712 -0.10722433627530535
000430 e4 20 2a 12 ef 83 b8 3f 38 d0 0a 96 8d 10 b8 bf
       0.09576315110655603 -0.09400257981434457
000440 d2 b5 33 46 ab ef b5 3f da 30 9c 1a 5a 24 a9 bf
       0.08568830932536933 -0.049105468509965625
000450 57 0c e9 b9 b8 c5 b1 bf 01 aa 40 9f fa dc c4 3f
       -0.06942324198557635 0.16299374366765565
000460 d3 31 c4 14 d7 c9 cf bf 4f 12 5a c0 ee e3 c8 3f
       -0.2483471728704801 0.19445595161609439
000470 da f3 56 8f 5c 02 c9 bf 36 7d 6a 86 a8 f6 b2 3f
       -0.19538456915861852 0.07407620698585479
000480 fc 95 6a 7f fe 16 91 3f 00 53 5f c8 d3 dc 88 bf
       0.016689278151394746 -0.012139944603327901
000490 1a 4d 22 53 56 3c c1 bf cb a4 1d ec 4a 1f d0 3f
       -0.1346538453986817 0.25190995271857436
0004a0 3b 21 9a ff 91 52 d2 bf 30 4a b8 2f 29 26 cd 3f
       -0.2862896915544472 0.22772707777092327
0004b0 69 67 a4 4e bb 6e c7 bf 84 cd 99 ff 3c 06 6e bf
       -0.18306676235152544 -0.0036650840163987026
0004c0 4c b3 0b e7 3d b1 c0 3f e9 7e 31 b9 88 bf b9 bf
       0.13040899068382783 -0.10057882806131214
0004d0 82 ae 2b 65 50 81 a6 bf 26 32 93 e2 92 18 cd 3f
       -0.043955337858133894 0.22731243193847311
0004e0 31 32 2c f3 bc b9 d3 bf 95 2e 74 a1 95 b9 ce 3f
       -0.30821155307129106 0.24003858932006908
0004f0 a2 74 37 40 39 89 b7 bf 43 13 fc b8 47 00 a8 bf
       -0.09193761651791246 -0.04687713749993929
000500 59 82 73 d8 8a 69 bd 3f 98 9f ff 68 a0 19 c0 bf
       0.11489169868901551 -0.12578206183320328
000510 85 7a 9f 66 fb c7 62 3f 88 23 bc 27 14 d8 cb 3f
       0.0022926244900952097 0.2175316995638037
000520 9b bb 42 5e f5 2e d3 bf 68 1d fc 9c 4d 5e cd 3f
       -0.29974111752647453 0.2294404045608005
000530 16 21 dc aa 51 81 b4 bf 17 7f 10 d7 2f 1d ae bf
       -0.08009825154670511 -0.05881642818735438
000540 bc 63 be f0 7d 52 bb 3f 46 b0 0a 4b cf a9 b0 bf
       0.10672747733623472 -0.06509109098505048
000550 ab 0a 47 4f 53 42 b2 bf 8e f5 74 06 c6 09 c1 3f
       -0.07132454572187423 0.13311076464917132
000560 1b a9 df 64 ae a1 c0 bf ca a1 76 a3 6a dd b2 3f
       -0.12993411946747177 0.07369104853444877
000570 5f 8c 3e 9c 89 e8 83 3f 1f b8 c7 46 01 7d a4 bf
       0.009720873909662751 -0.04001621235862295
000580 73 3a 43 d6 30 8a b7 3f 49 ea c5 04 ec e7 b1 bf
       0.09195237380047576 -0.06994509808092987
000590 2a 69 71 12 66 e8 a5 3f 44 f6 6c 2f 84 f1 96 bf
       0.0427886865151826 -0.02240568675482836
0005a0 47 5a 20 f6 ee a4 a0 3f 85 01 95 e3 8a 33 b4 3f
       0.03250834230873472 0.07891147667124272
0005b0 e9 97 bf 5e 60 2e b8 bf a0 51 16 52 ab cb b8 3f
       -0.09445764840310712 0.09685774568635575
0005c0 30 22 fd a9 92 4a 96 bf 3d c5 0c 06 32 bc 92 3f
       -0.02176884806184115 0.018296033496146825
0005d0 65 8f e6 bf fb eb a7 bf fd b5 73 40 13 3f 9c 3f
       -0.04672228543793614 0.027584362801396967
0005e0 1b f7 cb 71 aa be 90 3f 05 fc a7 30 9d 84 a9 3f
       0.016352332301713717 0.0498398897070658
0005f0 c7 8f b7 c1 cb 5c b2 bf 54 58 b6 cc 4d 19 b9 3f
       -0.07172845343990196 0.09804235694750335
000600 e4 59 0c 8c 6f 6d 93 bf b2 ff e8 a1 d0 8a a0 bf
       -0.018972151682726493 -0.032309074177191546
000610 c7 e2 8f 8a 08 4e 9d 3f 6f 2c 99 96 2c f1 ba bf
       0.02861798616138136 -0.10524252583233971
000620 91 92 39 f8 8e be c8 3f a0 40 03 ab 4a 9b bd bf
       0.19331538315158928 -0.11565081286539902
000630 f5 18 09 d4 23 c7 b6 3f 1d b2 d1 21 90 c2 88 3f
       0.08897613455437521 0.012089849502637634
000640 d7 3c d1 e1 06 e4 98 bf 57 9b 0e 5b 6a 28 b2 3f
       -0.024307353527828503 0.07092919085571957
000650 8a 85 ea f9 b5 c0 c0 bf d2 1c ed 46 f8 c0 b3 3f
       -0.1308810682576616 0.07716323596570199
000660 7d c3 9e a2 ec 12 53 3f 0e 05 2d 2a f1 38 c1 bf
       0.001164179886910171 -0.13455023345344624
000670 62 dd 8d f5 39 93 cc 3f 03 fe a7 d4 3b f0 c8 bf
       0.2232429932589453 -0.1948313511238525
000680 91 b2 c9 5b 8a 9c af 3f 65 e4 71 ac 39 e3 a0 bf
       0.0617411839528802 -0.032983591366197364
000690 75 83 b3 22 99 07 b0 bf ac 76 b9 45 20 cc c5 3f
       -0.0626159391135966 0.1702919331027507
0006a0 b6 7e b1 07 b7 29 d1 bf 36 62 ee e1 77 eb c5 3f
       -0.26817107917120653 0.1712484219722385
0006b0 e4 6d f2 ed c6 6a 81 3f 94 d3 5f 58 a7 24 b4 bf
       0.00850444234520515 -0.0786842909581778
0006c0 f7 61 c9 65 a4 43 8b bf d4 da 7d ea c0 89 ad bf
       -0.013312610965997769 -0.05769160139509713
0006d0 cb a4 cf 5c f3 0a c7 3f 77 76 b6 63 f0 7a cb bf
       0.180021686857151 -0.21468930119310745
0006e0 1d bf 32 d9 0b f7 a0 bf fb 20 e8 4b 47 da c4 3f
       -0.033134813559966704 0.16291133123764454
0006f0 64 02 d9 81 4b f8 6e 3f 30 98 f8 7b 22 0b bd bf
       0.003780505633386876 -0.1134511521018744
000700 ed ae 9e 72 29 19 b4 bf 0b be 11 55 ee ad b0 3f
       -0.07850894020401329 0.06515397622001033
000710 26 b2 2d 2b 28 c2 ba 3f 7f 2e 13 0b 9a 31 c1 bf
       0.10452509931719386 -0.13432622471588115
000720 4d ad e9 2e a2 3c b7 bf 42 4a 44 29 1a 51 c8 3f
       -0.09076894421894117 0.189975042485985
000730 76 47 2d 4f f9 e9 b2 bf ee ec 0d 54 da 90 b0 bf
       -0.07388265784291356 -0.06471027900800028
000740 c1 2d e9 34 a4 93 bf bf 7e a5 78 b2 7c 58 b1 3f
       -0.12334657947319895 0.06775645596703403
000750 57 98 67 44 f9 57 c4 3f 38 e1 5b 0e 8b 57 d6 bf
       0.15893474426337903 -0.3490932121490178
000760 5b 91 8e 23 3d 81 b3 3f 7e 77 4a fa 22 be c5 3f
       0.07619077795113098 0.1698650095103708
000770 fc 81 06 1e 84 45 9a bf 6a d2 ae 77 59 2a c2 bf
       -0.02565580781231523 -0.14191740363971245
000780 0a c2 e8 df 08 88 b8 bf 2e 43 55 af ac cc cb 3f
       -0.09582572428258387 0.21718367158111945
000790 cc 0b 4c d8 5d 01 c0 bf 3c 91 33 79 5c 6e ca bf
       -0.1250417047632183 -0.20649295728720485
0007a0 a6 7b d1 cf b2 44 b6 3f a1 55 65 5f a3 5e c5 3f
       0.08698575566948694 0.16695062788009543
0007b0 29 39 a7 69 ed 31 c7 bf 61 89 2b 0d 53 11 c3 bf
       -0.18121116312836108 -0.14896619933194713
0007c0 05 f6 cb da 23 da cd 3f 06 69 dd e1 e9 ab 9c 3f
       0.23321960624154783 0.02799954835004661
0007d0 87 35 e9 05 2c 8d b7 bf a6 a2 cb 7a 97 05 bc bf
       -0.09199786323843827 -0.10946032283721738
0007e0 31 f6 e1 7a d9 06 cc 3f 93 c7 bd 6b 16 c8 5b 3f
       0.21895903110628148 0.0016956538156276165
0007f0 64 f7 4e 50 98 2b d4 bf 39 dd 98 84 e7 97 c8 3f
       -0.3151608261358574 0.19213575338810943

bias f8 [54]
000000 1c c4 81 d2 35 db ac bf 47 68 65 3e 68 e7 c0 bf
       -0.05635994143165865 -0.13206198736844696
000010 b1 3f d1 09 59 34 c7 bf e8 72 33 68 3a 92 a4 bf
       -0.18128502826084295 -0.040178132266850686
000020 c0 70 b8 7d 58 33 c1 bf a4 9d 33 c3 17 7b ab bf
       -0.13437944544501157 -0.053673498705218564
000030 92 c0 03 b4 81 5c ba bf e8 d9 ce 56 d4 eb ce bf
       -0.10297403950585451 -0.2415719436518906
000040 5b 44 d6 3a ca 5e d6 bf ac 67 d5 d8 93 82 b3 bf
       -0.3495355200366867 -0.0762112049464167
000050 7d 58 b7 19 e0 a5 de bf a5 6f ba b6 3c c8 dc bf
       -0.47887423049304073 -0.4497215065437053
000060 95 26 e4 c2 55 44 b1 bf b2 cb f0 45 cd 75 d5 bf
       -0.06744895942770264 -0.33531505422723307
000070 33 98 97 b2 fd 82 c2 bf f8 fa f2 8d 2f 33 ad bf
       -0.14462252826996433 -0.05703114135530102
000080 52 bc 86 b0 3e 0f b8 bf 4c 55 8f e6 26 4b a6 bf
       -0.0939826184246482 -0.04354211391879889
000090 bc 8a 37 56 8f 15 c1 bf a3 62 91 49 2f 8e b4 bf
       -0.13347045621693165 -0.08029456659404359
0000a0 72 48 6e 90 e3 c0 de 3f 46 38 07 50 60 77 da bf
       0.480523005529114 -0.41353614630941526
0000b0 2c 80 e4 ad 5c aa a9 bf a0 20 5f 54 cc ad dd bf
       -0.05012788412773292 -0.4637327979985546
0000c0 26 16 1a 88 8e 62 b8 bf bc e7 00 4a 3f d1 bd bf
       -0.09525385687637619 -0.11647410923697427
0000d0 b7 d9 e3 d3 47 db bd bf e2 31 96 08 da ff d9 bf
       -0.11662720606896114 -0.40624094809098044
0000e0 9c 59 02 fe cd 99 c5 bf ce 80 dd d3 ca 99 b1 bf
       -0.16875624563972458 -0.06875293419352888
0000f0 5e ca bd ee 24 f5 bb bf 9a fb 10 3d b3 15 be bf
       -0.10920935467383105 -0.11751861801984234
000100 e9 c1 ca b5 1d 8a b8 bf 34 b0 e7 e0 3d 70 ba bf
       -0.09585748375207682 -0.10327517262311475
000110 71 26 4a 5b 77 b2 c3 bf 0a 33 94 cf 72 4c b4 bf
       -0.15388385732176205 -0.07929151122898417
000120 68 a1 56 f2 92 73 dd 3f f4 c8 68 e9 75 de ac bf
       0.4601790777765218 -0.056384739630077535
000130 bc 7b 64 36 10 4a b7 bf 74 b9 94 aa 24 ce c0 bf
       -0.09097386672918523 -0.13129099206112083
000140 1c 06 c3 36 8d 99 b9 bf 67 12 6c d6 f5 80 dd bf
       -0.09999926173170376 -0.4609961122480741
000150 4a 01 6e 10 24 dd db bf 82 da ba 86 ab b4 b9 bf
       -0.43537236790145484 -0.10041305579475515
000160 a9 17 d2 2e e6 bb b5 bf 2b 5d 6b 9d c5 8b d2 bf
       -0.08489836352427339 -0.28978100178706495
000170 18 84 2d e1 6b a0 df bf 24 cc 28 58 e1 af b0 bf
       -0.49416634550112937 -0.06518371965721365
000180 a4 f4 cf c8 91 08 a3 bf b1 e6 2b 4e 7b 22 bd bf
       -0.03717475487062785 -0.11380739840015043
000190 cb 0b c8 45 fe 44 b1 bf 5f f7 a9 77 1d 1f e1 bf
       -0.0674590034832782 -0.5350482308565282
0001a0 46 6b 6c d2 5d 13 b3 bf 0d be e3 08 17 78 e0 bf
       -0.07451425921719332 -0.5146594213128438

weight f8 [9, 54]
000000 75 e3 24 2d 41 a0 d4 3f 7c 9c b2 34 e9 75 d6 3f
       0.32228116425135706 0.35094671388873855
000010 e0 a8 2a f6 c5 4c b3 3f 2f 55 1e be cc 35 d3 3f
       0.07539021739890783 0.3001586777330258
000020 58 11 fb 1f f7 ca be 3f b5 37 1d 3e 3e 5e d0 3f
       0.12028450518397926 0.25575214448769695
000030 45 e6 8b 73 2d a4 d5 3f 5e 54 67 8f a7 76 c6 3f
       0.33814560207210703 0.17549604894762444
000040 c7 68 b1 f2 3e da ce 3f 96 d8 aa 41 d4 cb da 3f
       0.2410353360199393 0.41869074261502115
000050 9a ea 62 a8 86 4f bc bf f5 3f 18 2d 01 f8 b7 3f
       -0.11058847056384949 0.09362799979157883
000060 4f ee 04 12 71 cd d7 3f ca 7c 3b e2 68 0b da 3f
       0.3719141651124333 0.40694639294629253
000070 7f c6 5a a1 74 a5 c7 3f 74 4f bb 18 21 98 a4 3f
       0.1847368038047996 0.04022315432453541
000080 ca 04 74 1e 85 ee d5 3f 2d 40 1d b6 2d c8 d6 3f
       0.34268310522027134 0.35596792969318153
000090 55 ba 3b 8b 9a 67 bd 3f f4 5d 94 c8 13 dc c0 bf
       0.11486211680651455 -0.13171622556613694
0000a0 f0 a2 71 97 fb 03 c1 3f 9b 71 45 bc a4 be d4 3f
       0.13293404478761017 0.32413595567575165
0000b0 50 e7 f2 61 4d c7 d7 3f 21 48 d4 ed 16 fa e2 3f
       0.3715394455463086 0.5930285115339339
0000c0 42 56 c0 f6 d9 ea d0 3f 61 39 08 32 15 cf 5d bf
       0.2643341931992361 -0.0018193919169139027
0000d0 2c 73 fa 03 bb b3 cc 3f 57 c0 f3 2e 76 db cc 3f
       0.22423494047407055 0.2254474381693423
0000e0 f7 45 5d 02 02 50 b9 3f 3e 16 1f df 4a dc da 3f
       0.09887707288478241 0.4196955851478811
0000f0 2c be 6d ec 47 f8 d2 3f d6 f2 e9 76 a4 04 d2 3f
       0.296403866660486 0.28153335201913643
000100 8c 10 87 77 1c d0 c3 3f ee 7b 02 43 d0 80 bd bf
       0.15478854976948175 -0.11524678836802568
000110 a1 fb fa 52 dc 0e cc 3f a8 29 5f 7f 89 1a a9 3f
       0.219203510778212 0.04903058700400048
000120 db da 2c aa 16 e9 bf bf 51 94 dc ca a4 e1 d0 3f
       -0.12465039877575228 0.26377219973284577
000130 fa 91 24 2c b7 f5 d8 3f e8 d8 bc 49 d0 12 d2 3f
       0.38999728499246056 0.2823982925505235
000140 3a be 1f 4c 4d a5 dd 3f f4 ff e6 74 ff 83 a0 3f
       0.4632142299078371 0.0322570638850265
000150 0e 6f 58 e7 42 4b b0 3f 97 bf 7d 3d 85 0d d3 3f
       0.06364839695055144 0.29770022397041757
000160 10 dd cc 01 94 ba d1 3f 43 83 ea d2 57 22 db 3f
       0.27701282668881877 0.4239711341597749
000170 02 f0 7b d5 e0 15 bd bf f5 a9 7f 36 fe f7 de 3f
       -0.11361508571638981 0.48388629266869937
000180 00 8f ba 2e 26 33 d5 3f aa 4b 4d 00 bf ed b0 3f
       0.3312468963942905 0.0661277175652645
000190 24 b4 60 e9 c1 6d ce 3f ac 5c c1 90 d5 04 c5 3f
       0.2377245320834912 0.16421002929812312
0001a0 dc 72 30 85 b0 5a d5 3f 0e 43 ab ba eb 72 af bf
       0.33366024977457953 -0.06142365125345438
0001b0 ec 33 8e 07 b3 e6 d2 3f 45 ee 83 3c 80 1b c2 3f
       0.29533076989974805 0.14146426157809536
0001c0 e3 e8 2e c1 28 eb b4 bf 95 b0 5c 82 67 00 d6 3f
       -0.08171324459445688 0.3437746785227856
0001d0 40 78 0c b5 04 64 c3 3f ba b9 a5 07 1a 94 b0 bf
       0.1514898189570335 -0.06475985228255512
0001e0 71 27 da 8e 58 9e 41 3f bc d8 56 f3 d5 53 e1 3f
       0.0005376751339138797 0.5414838555068608
0001f0 42 93 bf 18 e7 91 d3 3f 69 25 bd a2 d0 29 e1 3f
       0.30578019539671086 0.5363543680661397
000200 c5 a3 0a 2b 61 42 d7 3f e9 88 cc e6 12 92 51 3f
       0.36342648700025065 0.0010724243722469112
000210 e8 40 40 91 3f e2 c8 3f 90 70 8d 52 cf 27 da 3f
       0.19440455047925487 0.40867980062262976
000220 0e 4e 24 6c 40 83 d6 bf 13 6e 0e a0 66 b4 ba 3f
       -0.351760964972727 0.10431519897104406
000230 d6 7f f9 7c 2b 25 d9 3f 57 b9 01 f2 29 65 dd 3f
       0.392893669171824 0.45929955132932804
000240 cb a3 9d 79 d0 e7 cd bf 4d 75 03 4f af 02 bd bf
       -0.23363691271086248 -0.11332221678772676
000250 b6 96 f6 b8 cb 86 c2 3f 14 ce 30 1c 40 cd d3 3f
       0.14473864108474793 0.3094024920748961
000260 71 12 95 0a 1d 5e da 3f 0b a5 2a ce 38 24 cb 3f
       0.4119942286818406 0.21204290453651028
000270 61 49 67 63 64 76 c8 3f dd 42 01 6e 80 b7 bf 3f
       0.19111304143604982 0.12389376340548659
000280 00 b6 ee 72 7a b2 c9 3f 53 b8 22 f4 4e 33 c6 bf
       0.20075922595917461 -0.1734408084934694
000290 98 25 01 6e f3 3a d4 bf bd 9b 2f 25 62 42 d9 3f
       -0.3160980772268771 0.3946767199653854
0002a0 ac b5 a0 4e 49 b6 d0 3f 3f 6d 33 11 c9 13 d2 3f
       0.26112587622159356 0.2824576061227226
0002b0 72 e4 33 25 5b 95 a7 3f d1 c9 92 29 1f 73 c4 bf
       0.04606137112745835 -0.1597632363314703
0002c0 9c 43 14 a1 c8 69 c0 bf 7f 0c 81 2b b6 2f 4e bf
       -0.1282282625693626 -0.000921215009846668
0002d0 49 3e 0a 0e 28 e0 e4 3f 29 a8 f3 f9 3b a6 c1 3f
       0.65236284963789 0.1378855677097033
0002e0 34 ee 23 98 af d3 d4 3f 04 6d 9f e8 bc af e4 3f
       0.32542028291183844 0.6464523833668925
0002f0 c3 ed 1d 23 8f 5e ce 3f 83 1a 8f 82 ca 88 b5 bf
       0.2372607156247409 -0.08411851584888023
000300 b6 59 97 e6 6e 24 c3 3f a5 c9 e9 0c 67 a4 d2 3f
       0.1495493532117515 0.29128433476503296
000310 09 8b fb 8f f9 3a c9 3f ee 79 d4 04 79 e6 ba 3f
       0.19711226969146647 0.10507923477096145
000320 2b 51 b1 40 f8 b2 b0 3f 2e e8 19 c2 51 ff e0 3f
       0.06523086146745942 0.5311669150389713
000330 d9 5c 52 ae 1c 9d d5 3f 6b 6a ae e4 a7 ff 5b 3f
       0.33771435760122653 0.0017089023192286233
000340 19 50 39 ce 20 2c b3 bf 36 9a 21 84 24 3b b0 bf
       -0.07489209208262117 -0.06340244508610557
000350 56 ce ed f9 0f 71 d2 3f 30 dd c1 71 79 90 ac bf
       0.2881507816993908 -0.055789752136599424
000360 60 6c 38 5f ed a2 cc 3f c3 ac f9 88 47 49 b1 3f
       0.2237221445983293 0.06752440542338704
000370 7f 65 e9 e6 92 7b e2 3f 04 b4 c1 c1 4b 71 bd 3f
       0.5775846967691648 0.1150100086249069
000380 42 c5 e0 9c 88 8b d1 3f 1c 2e c6 31 43 49 df 3f
       0.2741414577495399 0.488846586806831
000390 f9 73 f4 72 de 96 d9 3f 85 b3 95 89 8b 31 a5 3f
       0.39983330942214895 0.041393623871818476
0003a0 1c 24 e5 ea 38 6b c2 bf 29 d1 f9 35 56 d5 a2 3f
       -0.14389716596113622 0.03678388031849728
0003b0 12 78 9a 03 07 80 c8 3f 6a d4 23 a2 57 1b cc 3f
       0.19140708614298824 0.21958442131986838
0003c0 bc 51 86 ea 48 98 cc 3f 6f 32 e7 bb 43 da b2 3f
       0.22339736415291422 0.07364295327642777
0003d0 b5 e0 10 60 4a c1 d4 3f f0 e7 4a bf 3d 4b e0 3f
       0.3242975175994716 0.5091847168143868
0003e0 e4 5b fe 1a e0 be c1 3f 0b a8 32 21 80 80 bc 3f
       0.13863755529447908 0.11133576212401423
0003f0 b7 20 35 d8 16 a0 e0 3f 8e 82 d7 ab 90 2a e4 3f
       0.5195421431353883 0.6301959377561432
000400 0c b5 25 40 69 14 c7 bf 0b a9 36 c4 a9 ab d2 3f
       -0.18031039840881424 0.2917274871966959
000410 df 32 05 53 bf db b5 3f 5c 8f de e5 32 d5 b1 bf
       0.08538432862151123 -0.0696594058231858
000420 f9 c9 0d ec 1a 91 c8 3f 48 75 c6 b8 14 ee e3 3f
       0.1919282581907991 0.6228126152888445
000430 a1 10 36 d5 02 66 ca 3f 55 2e 11 30 64 e1 e0 3f
       0.20623813067152688 0.5275135935602956
000440 0b 6f 64 2e d6 ed d8 3f 30 47 79 77 55 ee c7 3f
       0.38951639681339206 0.18696087201765854
000450 79 ea d9 7f 2f 95 bd 3f 86 6e df 8c da 65 cd 3f
       0.11555764075630205 0.22967082861474725
000460 44 da 40 e8 0b 20 d9 3f 21 da 08 6f 39 cc e5 3f
       0.3925809639071398 0.6811797302860364
000470 60 a2 0f 8e 33 b2 9c bf 3a 78 91 d1 49 af d2 3f
       -0.02802353434154481 0.29194875207565796
000480 f1 4d de 2e 69 73 bb 3f 9f 15 41 e4 24 09 d2 3f
       0.10722978014228325 0.28180811205342055
000490 1f ab 70 16 d1 75 c3 3f aa c9 85 a8 49 4d c0 3f
       0.15203298183163214 0.12735863426821697
0004a0 c9 72 40 5d f6 38 a0 3f 8e a3 93 f8 3a b9 de 3f
       0.03168458832099003 0.48005556368894353
0004b0 7c a0 18 c7 f9 06 a4 3f b0 4c 8c 84 44 e4 bc 3f
       0.039115720323310094 0.1128580878833414
0004c0 98 2b 9b fe c5 62 ca 3f 54 f2 4f 05 2e da ae 3f
       0.2061393254465116 0.060258329533074445
0004d0 de a8 8d 74 dd b8 ce 3f 9c ca 19 8b 1d af ae 3f
       0.24001663390237743 0.05992977450377632
0004e0 e0 e9 c2 d2 64 2e c7 3f 67 ce fa 4d 76 ba e4 3f
       0.18110332766612114 0.6477614901582002
0004f0 21 8d 22 94 6f 8a df 3f cf 28 c4 74 bf 3f e3 3f
       0.49282445398621816 0.6015317230788017
000500 26 f5 1b aa 85 ee cf 3f 38 58 b7 f6 a7 5e cb 3f
       0.2494666176425337 0.21382617518128355
000510 1c 69 2b 33 e5 44 b5 3f b5 49 6a ee f8 72 c1 bf
       0.08308250903374809 -0.13632117883078157
000520 70 ab df aa 7f 0a c9 3f 11 44 02 3c 4e d4 b3 3f
       0.19563289493029457 0.07745827641544191
000530 18 39 c5 b8 0c c7 cf 3f 87 42 2a 2e 29 2c dc 3f
       0.24826201459877306 0.4401953650313221
000540 42 99 2e af 48 7a e1 3f 72 00 c2 2b 9d ce bd bf
       0.5461772367023416 -0.11643392866426597
000550 cb f6 03 1b a3 65 a5 3f d9 76 47 7e 31 2f bf 3f
       0.04179105477122177 0.12181386311518895
000560 b2 19 8d 5a 83 82 c8 bf 08 95 55 1c 71 7d e6 3f
       -0.1914829437393571 0.7028127244381333
000570 ab 7e 88 59 03 91 b4 bf 2a e4 ae a5 f6 5d c6 bf
       -0.0803377240740654 -0.17474253740309226
000580 e3 f4 c7 29 c7 93 cd 3f 33 99 52 93 24 a9 df 3f
       0.2310723260888273 0.4946986616800075
000590 ee 69 dd aa 62 4a b8 3f e5 36 62 52 df 8e aa 3f
       0.09488503142839708 0.0518712795320491
0005a0 96 19 7e 23 2f ce da 3f 92 55 2c 3d 57 24 db 3f
       0.4188344809157568 0.424093065013346
0005b0 85 20 b7 f4 bc 91 df 3f 19 75 c8 4a 89 0d a2 3f
       0.49327014825804155 0.03525952375296466
0005c0 74 89 98 4b 59 68 c6 3f 97 c5 1d 9c 82 18 cf 3f
       0.17505947295382962 0.24293549177995707
0005d0 26 91 fa 16 59 68 b8 3f e3 47 22 e8 22 53 d5 3f
       0.09534222422604852 0.3331992403919896
0005e0 80 15 7e 39 0b de bf 3f 0d d9 98 c1 ce d8 db 3f
       0.12448187020898693 0.4351078882786091
0005f0 84 2f ac 41 12 27 e1 3f 19 cb 8e fb a0 dd b2 3f
       0.5360194475810975 0.07369428769633792
000600 17 ce 3b 7d 4f 24 b0 bf 6f 79 56 d0 13 1c c3 bf
       -0.06305405433141008 -0.14929435417884515
000610 8f fe a9 bb 14 5b d7 3f e0 06 9f ee 9f da d8 3f
       0.3649341423660894 0.38834379484988624
000620 44 9a 45 93 7b d4 ac bf 7e ca 7c e5 cc 19 d4 3f
       -0.05630861447098259 0.31407473002324326
000630 33 fb c4 a3 01 5d dc 3f a8 00 eb 44 67 b4 cb 3f
       0.44317666047202237 0.21644297471175844
000640 39 9d 7f e8 94 93 a0 3f 46 fc 30 1d 90 6f be 3f
       0.03237595880619399 0.11888981545142582
000650 47 2c 7a 70 c8 41 b7 bf 06 40 f2 d5 8d b7 9a bf
       -0.09084751840616533 -0.026090828116650776
000660 c7 ec 78 40 e7 b9 d0 3f 50 46 d3 93 3c a5 c4 3f
       0.2613466386425895 0.16129262178451365
000670 5e ec 43 94 56 bd bb 3f 20 01 09 fe 49 43 c5 3f
       0.10835782165297433 0.16611599830685808
000680 8c 64 ae d1 78 68 d0 3f 84 e5 f0 89 1f 0a c4 3f
       0.25637646176034745 0.1565589355030107
000690 92 7f e9 06 e9 75 67 bf f9 1d 2f 54 fb 4a d2 3f
       -0.0028638411816217036 0.2858265230283617
0006a0 6c 88 15 5f dc 10 d9 3f 7a 25 6a 37 c3 dc db 3f
       0.39165410314138316 0.43534927760682474
0006b0 01 16 53 59 23 23 7d 3f 16 aa 3f 23 d8 fa d2 3f
       0.00711358841107801 0.2965603203034858
0006c0 61 65 ca e0 aa 73 c8 3f e9 78 07 c9 9d 6d ca 3f
       0.1910298917398832 0.20647022548559527
0006d0 f9 6d 01 26 ce 12 d1 3f 8d 89 f5 8c df d1 c2 3f
       0.26677278243525354 0.1470298231389048
0006e0 ce 34 25 63 6c 66 bd 3f bf 25 2a 24 4a 33 d9 3f
       0.11484410687008337 0.3937554696245477
0006f0 a1 93 e6 7d b8 70 cb 3f ec 2a 87 4b 6a 64 c5 3f
       0.2143774618863548 0.16712692916765748
000700 2c 36 f1 1a 1e 4f e1 3f 85 dd ca 8e 1b 4e c7 3f
       0.5409079099860654 0.18207115623748052
000710 c9 21 c7 3d 27 a0 cb 3f 37 74 b9 98 90 f0 d6 3f
       0.21582499042984996 0.35843291201109956
000720 2b 51 8d 76 52 0d d0 3f 7c e2 4b 2c c4 3d a0 3f
       0.2508131177649086 0.03172123947837677
000730 1e a8 32 15 f1 96 d0 3f e5 ce de c2 22 2a cb 3f
       0.2592127520571256 0.21222338214067019
000740 91 50 84 81 11 a0 ca 3f 39 d5 df b5 7e f2 ca 3f
       0.20800989936890749 0.21052535896857608
000750 0f c1 48 b0 95 1f ce 3f 6b 89 dd 43 54 1f d2 3f
       0.23533888919474363 0.2831621802089532
000760 65 6d bb 59 41 44 b2 bf 30 2b 38 10 35 0d d3 bf
       -0.07135399285055184 -0.2976811083214441
000770 76 c2 a3 37 55 b2 c3 3f 44 ff cf 1e 17 99 a0 3f
       0.15387978760510962 0.032417986403741966
000780 70 b7 25 27 66 0a c9 3f a5 f1 03 39 f9 3c c3 3f
       0.1956298533581804 0.15029826435046548
000790 8c 5f 06 75 b0 fc c1 3f 90 65 bd b3 0b 6c ce bf
       0.1405239650164244 -0.23767229343756613
0007a0 ec 32 21 9c 55 21 d2 3f f9 98 57 ef b4 37 ce 3f
       0.2832845711425722 0.23607503592138082
0007b0 73 41 b8 53 ce 44 c6 3f 13 a3 1b a5 b1 e0 cc 3f
       0.1739747914111934 0.22560711442863432
0007c0 91 e7 3c 6d e0 2d c8 3f a1 e4 92 aa 6c 61 cf 3f
       0.18890004476434943 0.24516065911101229
0007d0 bf 2c 5c b9 ac 32 b7 3f b0 43 2d 72 f6 d1 c2 3f
       0.09061698460952793 0.14703255248107672
0007e0 a5 c1 b1 7a d5 74 bf bf 89 77 a6 db 40 56 ca 3f
       -0.12287649388759421 0.20575724339590476
0007f0 b4 66 88 b7 2c 76 ca 3f 30 5a a7 61 49 39 c3 3f
       0.20673140489161812 0.15018574970481913

bias f8 [9]
000000 a0 c3 9b 7c 98 82 f1 bf 77 f3 a3 b2 79 c6 93 3f
       -1.0943837039487576 0.019311810997339997
000010 1c c5 1c 59 0d de f0 bf c4 f7 29 a1 3a 84 cd 3f
       -1.0542119484856078 0.23059780949910025
000020 49 8a f4 08 7d d2 ee bf f8 cf 9d ee f0 af e4 bf
       -0.9631943869502005 -0.6464771900632504
000030 2e 3c 54 fa 2b d6 a0 3f 75 fc d1 0a 1d e0 82 3f
       0.032884001071686306 0.009216524975498278
000040 9a e4 2e d5 9a 2f 71 bf
       -0.0041957901148005575

weight f8 [54, 9]
000000 28 cd 73 9e ae 4d df bf 27 a2 44 e9 59 c6 c0 3f
       -0.48911633943426347 0.1310531987194434
000010 43 f1 1e 8e 3a 82 da 3f 86 dd 89 c7 56 f1 d0 3f
       0.4141985309504614 0.2647301624887962
000020 81 31 20 56 86 23 c0 bf f2 c8 c8 de b5 3c c7 3f
       -0.12608412938460492 0.18154023531094016
000030 4f cf 30 c8 4f 8b b4 bf 4c 1f 4a 11 24 04 d6 bf
       -0.08025072705714574 -0.3440027397959866
000040 2a 1a 53 9d 06 07 bb bf 04 3a 03 ae bb 01 bb 3f
       -0.10557595578129822 0.10549519537310209
000050 22 d8 c5 2b ca e1 d2 bf a7 f5 01 90 0d 8c b6 3f
       -0.2950311114758525 0.088074538858527
000060 c4 19 a1 87 fa 02 c2 bf a9 db 5c ea 9b ff d2 3f
       -0.14071590063595185 0.2968511379908088
000070 c2 20 fc 0d d8 bb c9 3f d5 63 bc 59 3d 20 bd bf
       0.2010450428281328 -0.11377318802659826
000080 28 53 b6 eb c8 0c be 3f 4b b7 ef 42 03 94 d9 3f
       0.1173825812787298 0.3996589807201089
000090 53 e1 7c f4 f5 b9 a8 bf 38 04 4e da 9a 36 d1 bf
       -0.04829376801939369 -0.2689578182108252
0000a0 4e 84 81 a1 61 c7 d8 3f de 4c 59 ea ff b6 d7 3f
       0.3871692731100368 0.3705444134295258
0000b0 de 08 70 b6 3b b4 cf bf 9c d5 29 43 86 8d c3 bf
       -0.2476877823647276 -0.1527564838358274
0000c0 3c fd 4f d5 2f 86 d3 bf 2e 44 be cf b0 b4 9e 3f
       -0.30506511527342517 0.02998615520442998
0000d0 e8 ba 3e a1 c9 38 c3 3f 1d a3 a5 21 b9 fc bf 3f
       0.15017052052777236 0.12494999953709081
0000e0 f7 c4 ae 4e 45 de b2 bf 7e 5d f5 49 af f3 d3 3f
       -0.07370408221210654 0.31174833509927413
0000f0 34 33 d2 54 4f 9e b9 bf a6 0f e4 f4 2d 80 d9 bf
       -0.10007186718776212 -0.3984484569084493
000100 5f 9e 5c e7 32 f4 b7 3f 5f 3f a7 7d e9 7f c0 3f
       0.09356992863160361 0.12890356669822275
000110 76 84 8c ff c4 96 d3 3f 3a 65 fc 13 e2 4f 45 bf
       0.30607724147745985 -0.0006503919503046192
000120 db 30 0e 12 18 61 dc 3f 8b 5d 0c 96 11 1c b0 3f
       0.44342614901758076 0.062928294308554
000130 b1 88 5f c3 e7 45 d4 bf 60 f0 fb 9d 33 ee cf 3f
       -0.316766682428475 0.2494568368346135
000140 c6 a6 c1 f9 77 2b c6 bf e9 e6 42 32 69 03 87 bf
       -0.17320155806674203 -0.011236974569658513
000150 cd d5 f3 8e f7 47 d5 3f 26 14 68 4d a7 1d ca bf
       0.3325175186176608 -0.20402995376221716
000160 d8 b9 7f 73 62 a1 ca 3f f8 10 8e 45 8c 1c bd 3f
       0.20805006637188117 0.1137168569385415
000170 be 56 4e b1 2c bc c3 3f 96 ea 50 b7 72 0f c0 bf
       0.1541801324607856 -0.12547143889408535
000180 78 90 30 fd 01 ce 8c bf 40 29 4b 70 83 70 c0 3f
       -0.014064803637730203 0.12843363745771263
000190 8d 37 27 06 ad 01 c2 3f 96 6f 80 9a e6 55 ba bf
       0.1406761436505203 -0.10287324211134172
0001a0 9a 76 12 90 4f 40 77 3f b0 80 c5 de b8 45 d8 bf
       0.005676565925708888 -0.37925550227192684
0001b0 00 e6 59 f7 3b de e0 bf 77 8c 83 cc f5 60 c8 bf
       -0.5271282034947831 -0.19045898901012823
0001c0 c8 6f 48 e8 8a 8e bd 3f 10 ee 6b 54 0a 1b bb bf
       0.11545627757044408 -0.10588135300707102
0001d0 69 b0 e7 86 55 83 d2 3f d4 2a 76 a7 e6 e1 c8 3f
       0.2892659966880787 0.19439395119510172
0001e0 9f 7e 8e d9 dd dd d2 3f eb 35 a3 c6 f3 bd 9a bf
       0.2947916626526225 -0.02611523532759989
0001f0 07 01 3c 8d 47 74 bb bf a0 bc c4 a1 08 58 b9 3f
       -0.10724303434472314 0.09899953793932292
000200 fb d2 db 49 ac f3 d2 3f c0 a5 04 25 c9 b1 80 bf
       0.296122619750619 -0.008151599352077876
000210 6d 61 7b 97 d2 c6 c0 bf c5 4a e6 0c d6 d8 a5 3f
       -0.131067584958838 0.04266995341744954
000220 f0 bf 64 96 6f 72 a5 3f 37 06 45 bd 41 76 ba 3f
       0.04188870154246149 0.10336695547905426
000230 6f 24 72 e3 cc 81 cf bf 4c 18 b0 af 32 2d c7 bf
       -0.24614869218592925 -0.1810668332911426
000240 d9 82 c8 89 08 84 de 3f 0c a4 db ec 45 5b cf bf
       0.47680867629428075 -0.2449729353459421
000250 68 1d 59 90 94 1a 98 bf 85 81 0b f8 5e 3b d1 bf
       -0.023538895902928486 -0.2692487165750424
000260 b4 23 d7 ea 27 64 c5 3f 53 bc 19 d1 f5 50 cd 3f
       0.16711901633087012 0.22903320989596185
000270 82 37 0d a9 46 51 b0 bf 7c 6f b5 5e e3 3f bc bf
       -0.06374017359959619 -0.11034985601639663
000280 99 16 0b a3 4b 5b e1 bf ef 54 65 ba 03 f7 c0 3f
       -0.5423944649162024 0.1325382862220645
000290 1e f3 23 5f 1e b1 b3 bf 93 63 4f b2 54 5f c7 bf
       -0.07692136595501295 -0.1825967665343141
0002a0 31 8f 95 b2 23 ee ae 3f a5 af fc d4 ce f8 b0 3f
       0.06041060976966007 0.06629650783423686
0002b0 38 9b 96 d5 ec da d5 3f af b8 de ee 98 47 dd bf
       0.341487129766779 -0.457494958182802
0002c0 e9 88 8d d7 c9 de b1 bf f1 d3 01 b1 72 8f d3 3f
       -0.0698057318927884 0.30563037191251313
0002d0 1c e4 f4 e9 f0 ef 82 bf 91 39 1d d2 e0 9a a0 3f
       -0.009246713771618835 0.03243162693853486
0002e0 ce de bd 1e 88 9f b7 bf 42 6b 8f 2e 01 9a d9 bf
       -0.09227801085023232 -0.40002469584367273
0002f0 16 5a 31 40 85 b5 b5 3f 53 f7 93 a9 62 ea c2 3f
       0.08480103318411411 0.14777787475753232
000300 19 e9 c6 db ce 74 b0 3f f1 88 db b6 5b c0 dd 3f
       0.06428234925889277 0.46486561639007024
000310 e8 b8 2c 9d 3b 6d cf bf 70 34 50 3d 3c 8e c7 3f
       -0.24552102255387998 0.18402817720235332
000320 28 48 40 5d 05 a1 80 bf cb 7a 53 05 90 f9 cf bf
       -0.008119623096750031 -0.24980354557097537
000330 7e 5e 88 67 42 e0 e0 bf 4c 05 44 0b dd a2 c6 3f
       -0.5273754140971076 0.1768451981552438
000340 99 f8 2d 6b 91 31 92 3f 3e b9 45 f7 49 0d c6 3f
       0.017767212073061065 0.17228054593892667
000350 96 65 64 66 c0 cf a6 3f d7 d0 fd 32 d6 94 d1 3f
       0.0445537686338852 0.2747092721904329
000360 38 77 48 8c 29 79 c5 3f 8e be fc 94 d4 58 9d 3f
       0.16776007985839114 0.028659173577749324
000370 fc 07 cf f9 11 b5 a4 3f 33 86 c0 03 77 9e cf bf
       0.04044395613119886 -0.2470234649963899
000380 4f f4 6a ed 85 01 cc bf cd 7b 88 ee dc 3a cd 3f
       -0.21879648296990914 0.22835885665059977
000390 91 7a 94 b9 9c 2d b2 3f 66 89 c5 55 cb bb a8 bf
       0.0710084870411072 -0.048307756633920104
0003a0 4b 1c 9b 5a d4 3f bf bf b3 f4 e0 2e 9c 20 b1 3f
       -0.12206771099146001 0.06690384048939073
0003b0 42 20 f9 f0 83 d5 dd bf c1 59 a8 1e a1 fb cf 3f
       -0.46615694553884535 0.24986661908105925
0003c0 c2 54 31 87 3e ed bc bf 96 16 de de 5c 57 df bf
       -0.11299505997279183 -0.48970720066459117
0003d0 3d 66 2c 1c f4 84 83 3f 5d 61 89 44 53 7a e3 3f
       0.009530932531151776 0.6086822832685744
0003e0 92 72 85 d5 6a 6d a7 3f 30 4f 6e ec 59 7b ac bf
       0.04575666290722781 -0.05562859545821508
0003f0 81 d9 34 68 0b d9 c9 bf 44 9f 4e 52 39 47 ce 3f
       -0.20193617428021685 0.23654858130361778
000400 0e e8 16 96 a6 97 a1 3f e6 16 39 31 45 f9 e0 bf
       0.034360128232450035 -0.5304285012614087
000410 b8 c2 3c 82 fa 6e d3 3f 5a 39 8e 6c ff 7a 8f bf
       0.30364859312525594 -0.01537131834063803
000420 78 ca 7d 4f 5d ff b2 bf 4d b6 82 ec e4 39 d5 3f
       -0.07420905295092861 0.33165858360994066
000430 14 24 18 79 a6 ac b6 3f e6 34 91 65 49 9e d3 bf
       0.08857193428424665 -0.3065360538356131
000440 df 7c 44 fa ae 8c ac bf c8 62 f4 40 7d bb b1 bf
       -0.05576082997344555 -0.06926710925871327
000450 7e 62 fa 6a fc 4c dd 3f 23 a1 80 22 f2 f0 d6 3f
       0.45782385298802086 0.3584561669290613
000460 53 9b c4 9d f4 e2 d3 bf 50 e8 df ce 15 8a d2 3f
       -0.31072726637869613 0.28967805101968214
000470 99 47 26 56 09 0d ac 3f b2 b2 ca 75 d2 57 da bf
       0.054786960378933 -0.4116102361975137
000480 a8 5b 9f 78 dd aa bb 3f 49 2e 76 01 48 0f c7 3f
       0.10807594485173289 0.18015384742135357
000490 36 ab fb f4 ee 6d bd 3f 08 95 05 61 cd 4b 7e 3f
       0.11495870095283753 0.007396509420094739
0004a0 fe b8 4e 63 a3 ba b4 3f 78 eb e0 24 b5 a9 b8 bf
       0.08097287344455492 -0.09633953237873338
0004b0 60 84 2e eb 01 61 e2 bf 3c 6f af 73 47 b9 c8 3f
       -0.5743417352097246 0.19315426968284466
0004c0 b9 fa 0b 4f ab f1 b0 bf 77 93 3a 84 27 9b b9 3f
       -0.06618757896283513 0.1000237176727533
0004d0 7f d9 9f 98 8b 15 d3 3f e5 7c 19 a7 cc 8e cc 3f
       0.2981900206063059 0.2231078926006155
0004e0 c2 fe 47 d9 ad 48 d0 bf fb 9e 67 06 3f ee d1 3f
       -0.2544359800231001 0.2801663935228899
0004f0 0b f1 1f fd a2 7d d1 bf 1c 6e f9 89 60 e8 cb 3f
       -0.2732932540818786 0.21802908646610397
000500 2a 8a 3d 93 f4 0f 84 bf 17 30 f7 76 93 2b bf bf
       -0.009796057456417168 -0.12175866751130147
000510 6b d0 37 93 b8 06 d1 3f ac f4 4c 17 4a 98 d1 3f
       0.2660352170635238 0.2749200084252361
000520 d6 7c 94 0a ce 3a b6 3f 89 10 8e d9 77 92 b1 3f
       0.08683479078580389 0.06864117680930994
000530 4d 17 29 08 4a e2 ce bf ec 9b b2 94 96 84 cf 3f
       -0.24128079794371118 0.24623377094869114
000540 72 ba bc d3 11 a0 d7 bf 9d 18 6d 08 92 6c ce bf
       -0.36914487531149753 -0.23768830691750945
000550 ce 1a a5 ea 22 d1 ca bf 84 e6 fe aa 22 75 df 3f
       -0.20950733620903467 0.4915243787650996
000560 8b 6b ac 4b 8e 5c b6 bf 33 ec f1 4d f2 ae b0 3f
       -0.08734979007242154 0.06516947176889758
000570 65 11 8f 92 2f 97 d0 bf a5 63 9b 80 ab 84 d8 bf
       -0.25922765076054183 -0.38309752997661867
000580 78 d5 5b 96 fc 55 b2 bf 1e f5 03 70 77 54 c9 bf
       -0.07162455244891486 -0.19789021462921935
000590 b8 2e dc dc b4 0e d3 3f 2a 38 8b e4 9e f1 b9 3f
       0.29777261322372395 0.10134308890994306
0005a0 bb 54 12 e7 a3 dd c5 3f 0d b4 13 e3 5b d9 d2 bf
       0.170826423480923 -0.29451653647885295
0005b0 01 c6 db 20 a7 82 a8 3f 94 d3 03 0c a8 0b d1 3f
       0.04787180210213294 0.2663364522298306
0005c0 0c e7 07 9b 41 c2 cf 3f 3e 4b f0 86 35 e1 d8 bf
       0.24811573095194495 -0.38874567201235155
0005d0 98 b1 05 a8 0a 95 b7 bf f6 23 57 f8 25 61 7a 3f
       -0.0921179447374868 0.006440304108260788
0005e0 0c 5f 08 fd 9e e5 a4 3f 5f bc a6 2e cb 0f d0 3f
       0.040814369571476744 0.25096396976272745
0005f0 f1 be ad fd 22 11 e0 3f e5 13 07 c5 9e b0 9b bf
       0.5020918802892692 -0.027040940070737114
000600 ad 65 74 66 a3 ec bf bf 19 0b 6c 3e 00 5c d9 bf
       -0.12470456363043665 -0.39624029251005904
000610 5a 1a e4 15 af 68 a2 bf 25 85 81 fa bc f9 43 bf
       -0.03595492498611881 -0.0006096050974628049
000620 ae e9 9a 22 09 87 b7 3f 0f c6 8b 01 09 9d d5 bf
       0.09190423102237474 -0.3377096667382781
000630 e3 ce de dd 73 77 98 bf 97 d0 54 92 e4 55 dc 3f
       -0.023893175522700438 0.4427424839989355
000640 6f 52 b9 f8 9e f1 c5 bf da 86 b2 64 1d b7 ce bf
       -0.17143618721697204 -0.239963220757139
000650 3b 57 5d 31 56 03 ba bf 09 2c be 40 1e 40 b9 3f
       -0.10161341386023263 0.0986346157134649
000660 b7 bf 13 38 57 d0 9f bf e7 2d 9d 4b b0 b6 d1 bf
       -0.031068194196393253 -0.27677543052842996
000670 e9 93 5a 01 8b 6d d8 3f bf 42 21 23 b9 e9 dc 3f
       0.3816859734745877 0.4517653315606757
000680 56 00 28 f5 46 14 29 3f 16 aa 70 59 79 59 d3 bf
       0.00019133917028568936 -0.3023360608519011
000690 3c 64 48 40 dd d8 b1 3f 8a 48 30 5e 59 73 bd bf
       0.06971533603099628 -0.11504133748556647
0006a0 fa 7c f9 25 42 0c a4 3f 86 92 db 7b 5d 6f ab bf
       0.03915602410847359 -0.05358402382788534
0006b0 68 11 38 30 1c 6f ce bf 31 82 df c2 af a9 b9 3f
       -0.2377658114857113 0.10024546153682291
0006c0 14 c9 20 98 86 48 ba bf cb a9 ab 2c e3 76 a7 bf
       -0.10266915525497594 -0.04582891388220708
0006d0 2a 28 11 2d fc 61 d9 3f ac 56 64 bc e9 21 c2 bf
       0.39660553361011586 -0.14165994356942713
0006e0 41 0b 16 49 80 50 c1 3f 31 81 f9 29 71 e3 ce bf
       0.1352691990724342 -0.24131598043005334
0006f0 6b 52 8e 9f a9 25 ca bf d0 36 96 67 36 5d d2 bf
       -0.20427437105958587 -0.2869392406072224
000700 48 a7 49 72 75 cc d3 3f e2 78 dc 13 d3 ef d0 bf
       0.30935417328747805 -0.26463772716114253
000710 74 74 ec db f3 06 cc 3f d7 4f bb 93 3c e3 b6 3f
       0.2189621757360417 0.0894048557923378
000720 93 ea d5 fd a5 a8 b9 bf 1f e5 c7 ee c5 5e b5 bf
       -0.10022962042959653 -0.08347737388239239
000730 1a 9d 7c 0d 7f 48 df 3f ba b9 bb 10 7a 4c d2 3f
       0.4887998229700813 0.28591777452575295
000740 19 e0 c7 f5 0b b5 c8 bf d0 46 7c 4b a5 bf a1 3f
       -0.19302510739339665 0.034665265526326317
000750 57 72 48 7d 04 f4 dc 3f 34 a4 e4 57 26 aa cc 3f
       0.4523936484781976 0.22394255916268124
000760 30 28 04 75 7b 44 d1 bf 5e a6 eb 33 29 4d a4 3f
       -0.26980482509009374 0.039651191318466714
000770 fc 49 5a 13 8f 31 d0 3f a7 01 a5 6f 42 89 d3 bf
       0.2530248345366599 -0.30525265600956647
000780 bb de cc 1b bf 8e ca bf 44 46 38 d8 58 8b a9 3f
       -0.2074812780135654 0.04989125861551405
000790 b4 e0 6d ef e8 25 ca bf c9 67 89 a9 7d 7e cc 3e
       -0.2042819184387149 3.396762007929083e-06
0007a0 3a c4 e3 ae 14 d1 ef be 36 1c 2f 16 a1 21 dd 3e
       -1.5171395230303032e-05 6.94545846874951e-06
0007b0 70 b5 8e 05 e5 12 eb be 87 bc 74 19 8d 6b d3 3e
       -1.290979723641658e-05 4.630117835176885e-06
0007c0 57 b4 56 91 78 ac b8 be ba 83 50 dd 8c 4a d2 be
       -1.4706680010288027e-06 -4.360964756451011e-06
0007d0 3d d6 48 1d cc 65 94 3e da 5b e9 bd f7 56 d2 be
       3.039486078688816e-07 -4.372529444815964e-06
0007e0 86 84 45 f1 56 9d c7 bf 29 83 bb 86 61 3e bd bf
       -0.1844891241153485 -0.11423310794226595
0007f0 19 83 38 ea 08 de ab 3f ab f8 61 89 fa 07 be bf
       0.05442836627140064 -0.11730924467153396

bias f8 [54]
000000 de bf 3d b4 b5 a7 4e 3f af f8 26 cc fc 06 d6 3f
       0.0009355199076548323 0.344176482551016
000010 9a 63 1c 66 fb 5c c1 3f ed e4 f4 77 d7 6f ac 3f
       0.13565008626826797 0.05554078425707041
000020 41 75 6c d0 15 87 c9 bf 1d 3b 2b b2 ab f0 c5 3f
       -0.19943497349678732 0.1714071865048589
000030 be 90 11 eb dd 1f c5 3f 6d 2a 81 cb 9a 34 be 3f
       0.16503499963721951 0.11799018352864162
000040 b8 52 8c 30 73 a7 df 3f 70 d0 0a 28 21 b5 cc 3f
       0.4945953344443228 0.2242776341933026
000050 7c f2 e5 5d 34 38 b6 3f 37 79 36 6e 73 92 cd 3f
       0.08679511349141394 0.23103182679637665
000060 fd 46 c5 bb a5 6b cb 3f a7 de b3 95 95 a1 a4 3f
       0.21422263782965692 0.040295290493245255
000070 60 2b d1 94 76 b5 c3 3f d9 93 84 29 a7 f1 ce bf
       0.1539753176351395 -0.24174966361274988
000080 eb 91 92 49 fb b2 d2 3f 34 5b f9 7e 3e 15 ca 3f
       0.29217416939562096 0.20377331924347575
000090 66 81 cb ed aa 2f d1 3f d4 0f 56 ce 9e a2 d1 3f
       0.268534404965996 0.2755505576135395
0000a0 30 da d9 5f 65 dc d3 3f d5 fa 58 0d 6b 84 d2 bf
       0.3103269039196759 -0.289332163843864
0000b0 68 49 05 93 4e 7b c0 bf ab 40 36 5c 42 88 c4 3f
       -0.12876302889578572 0.1604083013776337
0000c0 90 cc c4 d1 28 bd cc 3f a8 22 9e 76 25 46 b0 bf
       0.2245226883183915 -0.06357034822407093
0000d0 7e 7f 03 a5 97 ad c6 3f 02 ea 3f 9c 9c a9 b3 3e
       0.17717261845882243 1.1719790657937225e-06
0000e0 64 a6 b0 ad 9f c8 c0 3f eb bd 76 bb 9b b0 b4 3e
       0.1311225507827657 1.2332127264750007e-06
0000f0 55 5c f2 97 7a 34 aa 3f 49 0b 98 a5 3f 55 bc 3f
       0.05118163208788277 0.11067579071827284
000100 7f 67 79 b6 80 44 84 bf 01 32 0c 7d c0 48 c0 3f
       -0.009896283692046868 0.12722021203843784
000110 3d a7 e2 49 b1 05 c9 3f dc c6 ce fe 21 50 c3 bf
       0.19548622234042937 -0.15088295881064695
000120 16 00 4c 75 2e 39 bf 3f c3 69 eb 7e 64 6e c7 bf
       0.12196627010052938 -0.18305641362424127
000130 b1 fc 86 e8 6c 86 d3 bf e3 6e f6 6f e0 35 99 3f
       -0.3050796767019604 0.02461958583226832
000140 66 c0 c2 8c 8f 0e d8 3f 23 27 be 1f 17 7d d9 3f
       0.375888717137974 0.3982599077213413
000150 40 41 3d ff bf c5 c7 3f 67 6b 0a f6 73 9c c1 3f
       0.18572235071997945 0.13758706582742805
000160 a3 cb f2 ec 0d 0a 8b bf d8 21 f8 3e 5f 14 a0 3f
       -0.01320277098998252 0.031405426441839246
000170 31 1b 58 2c d1 ba b6 3f 19 91 30 c7 86 b2 c1 bf
       0.08878810246106351 -0.13826069570598845
000180 6b 2c 9c 33 ee 0c d0 bf 83 0b 24 5a f2 57 d3 3f
       -0.2507892135624334 0.3022428398400551
000190 1f f6 b0 cf 3a 04 d4 3f 43 16 1c 77 ca a7 d6 bf
       0.3127581623301427 -0.35399114257629466
0001a0 1f d6 b7 6d ea cf dd bf 9e d8 59 68 b8 48 d6 bf
       -0.46581516947421336 -0.3481884974529609
