Trained_models/8/predictor4_50_3.pt (torch, 29829 bytes, 16 tensors)

weight f8 [26, 50]
00000000: f073 5ac3 cd76 dabf 3cc8 1c50 e33e cebf
00000010: bc42 9530 5756 e13f d4f0 5665 d581 dcbf
00000020: fa5c 6a41 9fa6 6c3f 49a7 b7d6 4fd3 d83f
00000030: 0509 ee11 a9c4 d6bf 63b8 714d c02c c93f
00000040: 9167 bc74 37d4 b2bf 8603 fb01 1f76 b6bf
00000050: 195f 7f11 e8f7 c93f bf23 a961 76f3 c5bf
00000060: 166e 926a 7c55 a0bf 7197 749c 4f1f be3f
00000070: c2d7 4779 49c9 c7bf 6ccd 93c8 8621 a33f
00000080: a488 c40b b884 bd3f 8554 c2ac fd27 cbbf
00000090: e436 1b32 ab28 c23f 3f6e f56b 4047 a9bf
000000a0: 9998 9b25 fde1 94bf 9c29 b8a7 086d 80bf
000000b0: fde5 2dce 498b a6bf 3e6e 6f61 34b2 b03f
000000c0: af72 20ad fd9a babf f81f ef20 6b64 a93f
000000d0: 97ae 26c6 ec38 a23f cd52 a3e5 03b4 b93f
000000e0: c0b2 63a0 ae0f cebf 1fb8 6030 cdc0 b03f
000000f0: e296 49dd 0eb2 c53f 06fd 985a 4d49 cdbf
00000100: 8843 faa7 c1b1 c13f 0a15 ae85 4164 c6bf
00000110: 0977 9c35 5f00 c13f 621f 1e11 414a b83f
00000120: df02 a73a 1528 cdbf 75f1 866e 0282 bd3f
00000130: 8b9e 6979 f204 b83f f44f d2cc 47fd bfbf
00000140: f44f bb40 f351 b03f 0291 1412 8b03 82bf
00000150: 730b 0345 6de9 b0bf f9a6 b758 4251 d33f
00000160: 6cd9 940f d444 d6bf bb83 dffb 3531 ba3f
00000170: 8812 b84c cf32 d53f 1484 90ae 511f dbbf
00000180: b7e1 a2e8 fd4d ca3f 600a eee8 4a3a cc3f
00000190: aab4 e3c4 0319 a5bf acef b068 5bc8 c43f
000001a0: 9758 09eb 18fb c4bf ad7f f4e4 d03c a93f
000001b0: f6f0 fa16 30cb c13f fcd3 e8fa e8dd cebf
000001c0: ae00 e21a 011b c73f 1686 29a5 8cd9 c1bf
000001d0: 5891 2435 9d79 b33f 3a80 f4da c568 a53f
000001e0: 4b0e 55fe 1756 d5bf d7d6 4b65 c58e d33f
000001f0: cec4 1876 ce55 c5bf 7ffc 69bc a11d a33f
00000200: 7c4c 778a 26a8 8ebf b1b2 6a87 ff6f c3bf
00000210: 63be 4802 917b d33f 557b a058 350b d2bf
00000220: f0eb 89b7 bec7 bd3f 10c8 ab96 72cd bb3f
00000230: d3bf 547d 5cf8 cdbf 03e2 0280 2331 d03f
00000240: 40fe fa79 581a c9bf 4337 129e 7128 b13f
00000250: 0ee4 1d07 9c6d c43f 7a93 ae1b ba97 d9bf
00000260: edd6 625f cbdf d63f c4bd 5026 3865 a8bf
00000270: 817d ac23 9998 c8bf 97c2 eab4 a529 d53f
00000280: 3d84 1241 6201 d6bf 75e6 4dd1 87a8 cf3f
00000290: 751e e50c a30d ac3f 82e5 4e2c 3717 d7bf
000002a0: cefa 26f6 1564 db3f 61dc d9f4 ae66 d3bf
000002b0: e4be b547 1829 ae3f ec65 c79a d9d8 b53f
000002c0: 1b3f f32a 7712 ccbf 57b5 6d90 06cd d93f
000002d0: 4846 a11c 02b0 d1bf 4505 1f2e b2c5 b53f
000002e0: 6360 c717 becb b73f 5dcf 8a08 5b84 c6bf
000002f0: 2e1b 0769 bc6a c23f ac6f ff59 8d59 c5bf
00000300: f6f2 7bf0 900b a23f 525d 06dc a82e 9f3f
00000310: 836f 83ad bd3f c4bf 73c9 a23f 581f b13f
00000320: 6b4c a54e c762 d6bf 7751 1d4a 321e bdbf
00000330: c8df dbeb 45d6 d23f b090 aa2c df1c d1bf
00000340: 45ee bac9 69e5 c83f 1ae8 980e 752b a5bf
00000350: b62a 4e37 f9ec c5bf dfe7 0780 5fae d63f
00000360: 696a 8f64 4de5 d7bf 7570 3683 1a32 d13f
00000370: 8050 c628 41bf b1bf 15dc 6ca5 a26a c2bf
00000380: 2ed8 a5cc aec8 d13f 617d 64b7 e349 cebf
00000390: 1110 feb0 12a8 cb3f 57fe 636c ec2e bfbf
000003a0: 3caa 6e21 e498 b1bf 6bc2 9b80 244a bc3f
000003b0: c2c9 7519 ddb1 bcbf 57be 89c0 3f3d ba3f
000003c0: 7f81 47fc dfcc c1bf 0f92 3ede bb99 c43f
000003d0: 84c7 a5cd 95d7 c1bf a401 dfae db02 b03f
000003e0: eed1 5629 3f43 b33f 9fb6 bfbf 4735 d1bf
000003f0: 49af e69c 9552 d43f 0033 559c 7bb1 d7bf
00000400: 100c effa 789c d13f 0ab5 fb84 a966 b7bf
00000410: 7b95 8d9f 7434 c0bf 3027 35be c835 d23f
00000420: 8c86 3780 59dc d4bf dde2 566a 695e cf3f
00000430: 99a2 3acb 17aa bfbf 1979 1c14 1db5 ae3f
00000440: 6620 25b4 e685 a83f fc51 c712 e537 b3bf
00000450: f310 5fae fd78 c43f ff4c d4a7 1e90 c2bf
00000460: dbeb 9bfb c2e8 9a3f 7256 0c21 4340 93bf
00000470: abd9 88e0 2c2c a63f 6141 c350 b68f bc3f
00000480: 4eaa 7d26 5ca9 c7bf fd53 c9e0 48fa c03f
00000490: 461c 49c0 f967 c2bf 00b9 71d7 ffee c13f
000004a0: 19d0 1e85 bcf0 aabf 41d3 0a6f e543 d4bf
000004b0: ce4b b8f5 8472 91bf 90f2 a975 70d9 bebf
000004c0: 0e04 964b 0b8d b53f be33 1269 1074 b5bf
000004d0: 9103 ab9a c6b0 8cbf 6109 6d84 5732 b63f
000004e0: 8be8 aec0 c918 90bf cd7f 9ad2 292f c9bf
000004f0: 55af a59d aaab cb3f 9743 ed65 55cb a73f
00000500: 30a7 1098 2820 c8bf e42c 5cd1 9aac cc3f
00000510: 7457 d411 9f2b a1bf aeec f3c2 4295 c5bf
00000520: 3e72 ba5c 7f28 ba3f ba87 f18c 1479 c33f
00000530: fa8c a35c 5625 d5bf 8382 5c7f 5978 d53f
00000540: f537 18b6 f032 c8bf f0de 5dd2 9659 7d3f
00000550: 4a50 d088 3e85 c33f 4c4d 5d94 b118 b33f
00000560: f140 212f a32e d7bf 4cdd 1960 6261 de3f
00000570: f02c 8c42 f93f d5bf 6823 d9ac 7332 a2bf
00000580: 2ffd 6a89 1163 ba3f b1b2 804d 54c3 8fbf
00000590: 554a ae77 d5d9 cfbf b749 207d a25a d83f
000005a0: c24c 7968 80d0 d2bf 9d3c 7c37 43f6 b63f
000005b0: 97e4 5d23 ae79 c23f f300 fafc d6c3 c7bf
000005c0: 998d dfb7 4edc 95bf e008 b207 4d1f d03f
000005d0: e8c7 20c5 2932 d2bf 4869 e67f d6ad a73f
000005e0: fdb1 afa7 2c32 c93f fb2f 1681 842a c8bf
000005f0: adb5 0e5b 5895 733f d4a6 d9f7 bdc6 b53f
00000600: 5b28 bd18 c4fa c6bf fd24 043e dca2 a93f
00000610: bf5a 4f69 aed6 c13f 2745 2cff 61ac c2bf
00000620: ca8a 4981 a732 9fbf 6535 a583 8ea3 c93f
00000630: 5cd2 b72a 4643 bebf 1ae4 1edb fa11 c1bf
00000640: 2d7c 87de b08f ca3f 68f1 6796 99e1 9ebf
00000650: afab e563 0550 b6bf 101c df59 598e a63f
00000660: 02c0 8b1f ed8f c1bf 2862 7d44 d34d c53f
00000670: a5ab 96d8 4e0e c2bf fbff e2d9 3df8 b5bf
00000680: bbee 663c 4db5 d03f a06e 9425 3262 cebf
00000690: eebb c173 aea2 b53f 378b 48ac f2df 9bbf
000006a0: d403 3d07 4080 afbf f9a9 6f9a 5992 cd3f
000006b0: c773 cf2e 174d cfbf 2583 d00d 3472 c83f
000006c0: 5b9c ddc5 b2a1 783f fc08 d4c5 828c cbbf
000006d0: 3a85 b244 b407 c53f c121 9176 1e7c adbf
000006e0: bc09 503f 6d3a af3f 83eb 2220 d2e0 9fbf
000006f0: f3b9 77ad 139f c3bf ae15 f2ed b6e1 bc3f
00000700: 0d86 d84d cb2b 863f ac49 41a5 06cc c3bf
00000710: 9873 d713 5450 c03f 731b ccea ab24 7e3f
00000720: abaf 4554 539a c4bf dd07 bb23 24c1 ba3f
00000730: 50dc d0fd 4570 aebf a643 b38b e019 8e3f
00000740: 55a1 af5d c17e c73f bc0a 9653 d652 d4bf
00000750: e5b9 42da b804 d03f 1830 217d 32db b73f
00000760: cdf9 7e76 4cdf d7bf b807 57f5 43ae d83f
00000770: e94c c22f 89ab cabf 3aa4 82ef 708d b03f
00000780: 3c73 81a1 92a4 c63f 3d02 b292 c528 ddbf
00000790: c23b 483c 8cc4 de3f 22ab bd8d afd1 cabf
000007a0: be83 e4fa 47c2 d1bf 2c63 87d4 7883 dc3f
000007b0: f84d 6597 510a d5bf 7370 a393 5f49 d13f
000007c0: df0e 087c 3240 a9bf 352d 9336 15cc e2bf
000007d0: c2cb ba8e f582 e13f 85e8 8cdc a0b8 b5bf
000007e0: aa9d 0a84 95ef d0bf 5cf4 62e2 c290 d83f
000007f0: 84d6 5619 18f5 d2bf a659 e167 f2bb a13f
-0.41350120618318353 -0.23629418765773547 0.5417896222007452 -0.4454244126934672 0.003497420354800715 0.3878974530076574 -0.35575320006331906 0.19667819768386882
-0.07355066871642026 -0.08773988531448937 0.20287800649998003 -0.17149238365735006 -0.0319022064297451 0.11766526765549458 -0.18583029195695927 0.03736516188100833
0.11530638015077216 -0.21215792594435726 0.14186611124608028 -0.049371731928399935 -0.020393329067609576 -0.00802046548689788 -0.04403143541180652 0.06521918658057133
-0.1039274737999658 0.04959425713565219 0.03559055250965775 0.10040306431194353 -0.23485358077541285 0.06544191771601547 0.16949640088130652 -0.2287995045062205
0.13823719694167047 -0.17493456866592566 0.1328238498471637 0.09488302867805268 -0.22778573383222686 0.11526503752151547 0.09382548774885373 -0.1249585032513208
0.06375046091426367 -0.008795820702808491 -0.06606181082592659 0.3018346659069802 -0.34795094987511876 0.10231339835401247 0.33122618190854114 -0.4237865643245311
0.2055051217955801 0.2205289494850886 -0.041206472191200064 0.1623644124209681 -0.1639128825797271 0.04929211420881017 0.13901330110628124 -0.2411471581596344
0.18051160633695446 -0.13945158066330582 0.07607443377907452 0.041814978578486664 -0.3333797439301846 0.3055890549870645 -0.1666811062473585 0.03733544754958817
-0.014969159222266486 -0.1518554125990668 0.3044168970400049 -0.2819341054436582 0.1163291166393916 0.1086036317681478 -0.2341418849914577 0.2529991865262959
-0.19611650425030014 0.06702337369116855 0.15959501597879505 -0.3998856802302765 0.3574093276505284 -0.04764724223820907 -0.19215692750820426 0.3306669489639175
-0.34383446078033214 0.24733064384399808 0.05479154140863055 -0.3607919628808177 0.42798375166232183 -0.30314229880554505 0.058907278779654765 0.08534011868268693
-0.21931352231194343 0.40313877205229204 -0.27636769100090364 0.08504785181050518 0.09295261459863151 -0.17591417233563336 0.14388232353504676 -0.166795414871442
0.035244492870310326 0.030451429776431845 -0.15819521877608275 0.06688453248606212 -0.3497789638542545 -0.11374201116024617 0.2943281939801605 -0.26738719331684546
0.19450113630397162 -0.04134717753591151 -0.1712943573041536 0.35439288619056514 -0.37337050266584143 0.2686830788968629 -0.06932456250643959 -0.14387925221828426
0.2778737066759075 -0.23662992911065842 0.21606668131073595 -0.12180974622969508 -0.06873918358056924 0.11050632610182169 -0.11208898421845162 0.10249708605419393
-0.1390647870857826 0.16094158508089193 -0.13939163724313286 0.06254361171068595 0.0752448535848271 -0.2688769695804271 0.31754055330633385 -0.3702076937377541
0.2751753283047842 -0.09141025063191335 -0.1266008166377722 0.28453272414172925 -0.32594907303983045 0.24506871883729434 -0.12368916236540385 0.05997553701875997
0.04789658497844655 -0.07507163723432336 0.15994235052324476 -0.14502318568029435 0.026278540236471897 -0.01879982842645806 0.043305780800824444 0.11156787368532185
-0.18485595588147635 0.13263808227443966 -0.14379808319992743 0.14010618228662253 -0.052617923021358766 -0.3166440567395519 -0.017038419244339846 -0.12050536034252901
0.08418341250764191 -0.08380224766933872 -0.014009048075765114 0.08670565589003366 -0.015719559083415418 -0.19675181182264936 0.2161763448487998 0.046473187153089394
-0.18848140168238947 0.22401747915896586 -0.03353592960972565 -0.16861757773572122 0.10218044294237758 0.15213257677083708 -0.33040389105572354 0.33547055661805575
-0.18905457393014982 0.0071655169939430635 0.1525037925754325 0.07459554550341813 -0.36222152330903074 0.4746938646780634 -0.33202964304719185 -0.03554116711581551
0.10307416539125279 -0.015509279837794794 -0.24883526176252482 0.38053190440509915 -0.293975927376959 0.08969516853925304 0.14433838583844213 -0.18566405632373736
-0.02134821889184266 0.2519104552412852 -0.2843117165640465 0.046248152840422 0.19684370220001304 -0.18879753401813545 0.00478109849875123 0.08506381321935957
-0.1795277710719486 0.05007065064462244 0.13936405317391196 -0.14588570556274158 -0.030466668382710428 0.2003038542556325 -0.11821402113839369 -0.13336120318652506
0.2075100981300876 -0.03015747051721132 -0.08715852440734183 0.044054786892552156 -0.13720478096320227 0.16643753856875887 -0.14106164527524104 -0.0858191163015362
0.2610657777656617 -0.23737170062019164 0.08451357198804008 -0.027221481099455516 -0.061525345691286454 0.23102874794797382 -0.24454011712705734 0.190985209222185
0.006013582545938946 -0.2152255502661048 0.16429761270868842 -0.05758757779455293 0.060992635706515114 -0.03113106080193574 -0.15329214067556016 0.1128191309854489
0.010825718224682946 -0.1546638781461075 0.1274514290697908 0.007359191466781978 -0.1609596406445893 0.10450960037545039 -0.059450328095799976 0.014697794211686443
0.1835557658626025 -0.3175559822340508 0.2502882129146243 0.09318843417094091 -0.37300407001376074 0.38563631972294443 -0.20835985977155438 0.06465822074336894
0.1768973625757101 -0.45561351133077094 0.4807463253682124 -0.20952410145704287 -0.2774829816935912 0.44552441363116446 -0.32875480446565986 0.27010335367027166
-0.049317910805283686 -0.587412458984011 0.5472362315834902 -0.084848455281561 -0.2646230496852363 0.38383552654324204 -0.29620935892612743 0.03463704603261712

bias f8 [26]
00000000: 5a84 e4b7 f57e 80bf a0ba 724a 8bca 8b3f
00000010: 1a96 5b34 7b88 da3f eb6e 0c1c 6c2e b3bf
00000020: 7c94 81a1 500b b93f e77d afda 6a8a 94bf
00000030: 5876 dbec a1e0 e43f 0645 2f9d 186f a0bf
00000040: 02b9 7fb1 b6a4 d0bf e823 8410 1b39 8abf
00000050: 6ffa 8198 7c05 ccbf 2310 e141 c16d c3bf
00000060: c7de ab3e 1369 debf cec3 01a0 bc59 a3bf
00000070: 9b34 5021 75f4 803f ff62 248c 1d4c a4bf
00000080: 4ddd c2a3 114e aabf e8dc 4c3d 8f4f 96bf
00000090: df73 06ac ba52 bdbf 5cae 0dba 9b0b 95bf
000000a0: 97a8 0a79 77b3 973f da26 c745 a523 d03f
000000b0: 8511 de00 0fe9 f7bf 8f45 54ba c712 ea3f
000000c0: 323a 7d70 b090 b5bf 1c4e 9635 655a aabf
-0.00805465667196097 0.013569915971257729 0.4145801554971925 -0.07492709812907676 0.0978289026548555 -0.020059270474915094 0.6524209619635242 -0.03209759634740732
-0.2600533231151446 -0.012804233018430325 -0.21891744085947404 -0.15178695408587925 -0.4751632797265128 -0.037794012577144195 0.008278765753880804 -0.039643214566416056
-0.051376868477229644 -0.021787870518179014 -0.11454359721979256 -0.02055209467964257 0.023145548594279388 0.2521756345200693 -1.4943990739712671 0.8147925032846376
-0.08423903223340615 -0.05147091178073657

weight f8 [3, 26]
00000000: 6e7b ec61 a8cf eb3f 0ca3 11ee 6b2b ed3f
00000010: d905 dd86 786e ec3f e510 2abe 30f7 cf3f
00000020: 8540 5ea5 29a8 ee3f 86fc b22c 58b8 f03f
00000030: b8a3 43b8 92bf d5bf f854 0460 b051 ee3f
00000040: f311 3467 8e0b c43f 26d7 9235 5f19 e93f
00000050: cbdd 7bed 1018 e63f 62f6 571b 09be ca3f
00000060: af09 e0ef 1b47 f23f 9a1c 69bc 858d ca3f
00000070: 3f7c cd63 607a ed3f 603a 98b4 a9ec eb3f
00000080: b1ea b94b d32d f03f 68c7 a3c9 819e e33f
00000090: dfdc a276 8de3 d3bf 22e7 d316 b843 d33f
000000a0: 2ee2 6084 a0fe d23f 81cf f31c 686e e73f
000000b0: 52dd b61e 33fd dfbf 1c26 2f1b 5a9b d0bf
000000c0: a7a2 9b8f 6ebb d63f 2423 fecc e7b4 cd3f
000000d0: bc7f 6623 571d ce3f 842c 54fc 1f02 753f
000000e0: 02e9 f280 be67 d5bf fd64 678d 1135 ea3f
000000f0: e9cc 0101 5ac9 c1bf 611e 377d 6d42 ce3f
00000100: 2c44 4f98 3dba e43f 2c50 274a c62b f03f
00000110: 218d e595 4578 e93f 0bed d3dc e892 f13f
00000120: a2f4 be65 70e7 e73f 8240 0a2a 1eef e93f
00000130: 2ae7 2ccb 8c68 ccbf 4327 5794 ec3a e63f
00000140: c760 14ec 5688 e23f b840 f112 9e64 be3f
00000150: 13f9 6dfb 3775 9c3f 5b50 e090 1d2a e93f
00000160: 8cb1 136f bb8a ae3f f242 db67 19d0 e63f
00000170: 4cbc d135 a153 e53f 3deb c164 8077 d6bf
00000180: 3d3d a01e fda9 f83f 7105 5032 8af3 e53f
00000190: 1edf b63f c533 e53f 86d0 31a4 bad8 e63f
000001a0: 8d1b ad29 5c48 e43f 2f0b 886e 3d9c e13f
000001b0: 7c75 59fa 758e d43f cb00 f2cd 7132 df3f
000001c0: ec0a 6e98 dee8 e13f 6817 d964 ede3 e63f
000001d0: 42b2 300c fee1 d33f 12b1 4939 07df f03f
000001e0: b15a 002b 682e d93f d267 692d 9e22 f03f
000001f0: e8bc dd0c 4b39 e5bf 2ae2 cf17 4c7a df3f
00000200: f311 366c 676e d83f eb92 c56a d246 df3f
00000210: 5a96 72ca 53b4 e83f db36 aa74 62c0 e03f
00000220: 0986 48b9 2c49 e13f 8b6f be94 d9c9 e73f
00000230: 9cf4 1f31 ef63 e33f 94c7 52ad a509 de3f
00000240: ac10 67fa cc41 e13f a6b9 7d93 1490 df3f
00000250: dd9f f764 4d76 d03f 44ad 3e19 3135 b93f
00000260: 3e08 6058 0e5d e03f f9ba f269 37f4 dc3f
0.8690988457272917 0.9115504884512986 0.8884852060365872 0.24973115239493562 0.9580276708457097 1.045005964857212 -0.3398176955657237 0.9474717974977969
0.1566026691363188 0.7843471571311269 0.6904377592426781 0.20892442546021345 1.1423606271861038 0.20744392108665438 0.9211885403891599 0.8726395156134679
1.011187835507979 0.6130989969517318 -0.31076370797695846 0.30100824574729945 0.29679119994719627 0.7322273793674726 -0.4998290824837187 -0.2594819322081052
0.3551899340077775 0.23208329686556184 0.2352703974584055 0.005128979629499434 -0.33445704071677096 0.8189780961794494 -0.13895726250812082 0.23640221227673222
0.6477344488904513 1.0106871506332125 0.7959316184682487 1.0983666063392004 0.7470018374657637 0.8104391881079354 -0.22194061203645649 0.6946928879999422
0.5791430102281304 0.11872280085049425 0.02779090377907163 0.7863910512555877 0.05965219241065531 0.7129027393767429 0.6664587069661905 -0.3510437950096053
1.5415011593175472 0.6859789831798208 0.6625696415348761 0.7139561850476788 0.6338330091465295 0.5503222616974649 0.3211951203173482 0.4874538909134684
0.5596764542718495 0.7153231591880571 0.31066847982836887 1.054450248509117 0.3934574527678861 1.0084516309639082 -0.6632437945644627 0.49183943105120653
0.38173852508069145 0.4886976282780739 0.7720126108221834 0.5234844473468131 0.540182458764492 0.7433898835329144 0.6059490165204298 0.4693388168917576
0.5392823115039582 0.4931689682333861 0.25722060070120084 0.09846789232567682 0.5113593793942142 0.45240578981876883

bias f8 [3]
00000000: 4693 82d9 edb0 e0bf b89a b385 3d6e e1bf
00000010: 5488 133f 2dbf e4bf
-0.5215977905505518 -0.544707070480249 -0.6483370048483814

weight f8 [26, 3]
00000000: 7c6f 5f8f a9ac e03f 63aa 802e e496 cebf
00000010: b569 290a 13c2 e2bf 4a6a 72b8 d965 28bf
00000020: ee10 b165 37da 39bf 5e55 fc53 6447 263f
00000030: 2100 268e 1900 e33f bca6 733c e052 ddbf
00000040: 6f44 58b3 42fd c23f f8c6 1373 1d31 77bf
00000050: b5c8 bf4a 1c8d b03f ae1f 8e49 52a5 a93f
00000060: ab5e 74de 92fb eebf 4d3f 7e6e 41c7 da3f
00000070: c030 fd10 2f64 c5bf ff71 67d7 7d13 e03f
00000080: 40dd 105b eaa2 d83f ac27 6644 98da ecbf
00000090: 2209 35f8 2e4b c63f 0822 1884 0762 de3f
000000a0: 0cfb 3375 b85e e7bf e902 0487 bbf5 d73f
000000b0: 39d2 3b28 f334 d43f 8e2e b9d7 b0a8 eebf
000000c0: 1c72 1570 684b eabf b8ca 63c6 41e9 e43f
000000d0: 74e1 dbef c55c ccbf 4b08 a40b 805d e73f
000000e0: 4359 a9e3 0b3a f3bf 79c9 1e8f 85b2 c5bf
000000f0: f077 5b0a b3f5 d1bf 8b56 57e0 6865 f2bf
00000100: 6ef8 48b5 1b65 ed3f 495e 7cc4 c5a2 f3bf
00000110: ac39 9d67 5a0d ed3f fe64 ed0b 0191 c6bf
00000120: 9d47 77cd 87e1 e9bf bf57 94ef 723d e13f
00000130: eb88 0e5e 5d98 dfbf e370 d30e c5bf eebf
00000140: b55a 3502 76a2 d6bf 6c16 93cb d9a4 f13f
00000150: 15a5 fe90 2369 d2bf 2809 a8b2 81db e43f
00000160: cfa6 be19 9767 e6bf 075a 0c5e 1e61 eebf
00000170: 0cd0 aed9 3b66 d83f 7d66 c6a9 e0ca b53f
00000180: 2690 0b34 e728 bfbf 1d2d 59fc 5424 db3f
00000190: c094 3f95 b4e0 c5bf 1cb2 f029 4851 433f
000001a0: 5ae7 bb1b dd71 74bf 3100 dbfb ce97 4dbf
000001b0: 84c3 223f 4158 de3f 8db2 5897 e43f c83f
000001c0: 1d02 1b18 318d debf 1b0a e5dd 7110 d63f
000001d0: e467 92cf a9b4 c8bf a835 6011 d61f debf
000001e0: d9f2 9703 6b9d d93f fec1 c1e7 d23a da3f
000001f0: 1a1c 203e 31f1 e4bf 2800 b2a8 b14a 25bf
00000200: bb9a 7ed4 a971 5cbf b617 d7f6 c4b4 63bf
00000210: 5174 8d6f 4461 d8bf 9d67 11b4 4405 e33f
00000220: 73ca caad 7433 bb3f 9b67 3b74 0bed da3f
00000230: d599 d747 697e d1bf e3f9 78c0 d4b1 d63f
00000240: a250 e0c2 45d3 2fbf 8bbb b6c8 06a7 21bf
00000250: 5a22 0990 d74e 213f ba7c 2e95 96d3 d2bf
00000260: 63a2 857e d50f e4bf 1bb7 8591 ac87 e83f
0.5210769462823772 -0.2389798380912281 -0.586190719458776 -0.00018614084931274844 -0.00039447643729696627 0.00016997432430147346 0.5937621857010563 -0.4581833448743102
0.1483538985926631 -0.005662074124517018 0.06465317559176038 0.05008942745104093 -0.9682096810165225 0.4184115962061597 -0.1671198685602402 0.5023793418036461
0.38494357007171587 -0.9016839347761922 0.17416941756716492 0.47473323726492866 -0.7303125657198009 0.37437332329868284 0.31573180131025286 -0.9580921376559262
-0.8217050732742481 0.6534737467576042 -0.2215812131105498 0.7301635959013394 -1.2016714947727258 -0.16951055038732557 -0.2806212998528954 -1.1497582209898691
0.9185923138354732 -1.2272393870570275 0.9078800224031531 -0.1763001735915068 -0.8087805760389873 0.5387510947500614 -0.4936746042750559 -0.9609093942231336
-0.35366583076158103 1.1027467682009968 -0.2876671710933619 0.6517952432043659 -0.7001452925516903 -0.9493553006057603 0.3812398553666305 0.08512691635987753
-0.12171788235315315 0.42409252780335455 -0.17091996467130421 0.0005895235407301111 -0.004991401390492667 -0.0009031067526947876 0.4741366497574335 0.1894498576160867
-0.4773676619916232 0.3447537104549682 -0.1930134070906312 -0.47069312760216997 0.40023303366596746 0.40984032280451277 -0.6544424260508805 -0.00016244333923865037
-0.0017360838410042506 -0.002405533500424685 -0.38093672651104266 0.5943931118920208 0.10625390284511997 0.42071806288515184 -0.27334053054656 0.3546039466490624
-0.00024280764176920928 -0.00013467748463599454 0.00013204938297152713 -0.29416431969179835 -0.6269328566678037 0.7665617792351641

bias f8 [26]
00000000: 809d d889 534f c53f 4a40 02f5 3748 ed3e
00000010: 8a95 1b47 7042 84bf 0027 01ea e27f dfbf
00000020: b366 a23e 5b18 c33f d364 bb15 4ec2 b63f
00000030: 60d8 3f1f 890c 803f d404 98d5 4dfb 10bf
00000040: 3721 7e13 da88 c23f fb2d f4ad fdd9 b33f
00000050: d0c3 127c 2c90 843f efc3 6ad6 47b4 c03f
00000060: 2eeb 2c3a 88da be3f 98cb 7ad1 824b b53f
00000070: 7740 a898 8e9f c73f 12c2 87c3 7aec d43f
00000080: a364 4e72 415d a63f 47b8 ea57 4c16 013f
00000090: dcfa d952 9e83 b03f fdb6 d4bb 6844 a33f
000000a0: 26f8 bd97 1b75 a03f aa75 51da 3bea 47bf
000000b0: 7875 5d8d bc94 eabf 8273 56c5 a321 943f
000000c0: 902c 22cc 3c8b f13e b92f 56f2 3b84 a73f
0.1664833472325249 1.396279517987277e-05 -0.009892346544300396 -0.4921805653763016 0.14918079908675494 0.0889023593002947 0.007836409822612633 -6.477987826515884e-05
0.1448013873271152 0.07754502770347209 0.010040614639679563 0.13050172776777866 0.12052203579234508 0.08318345655679449 0.18455679372755515 0.3269335660434375
0.0436802341493572 3.259106141705096e-05 0.06450833819142637 0.03763129513604999 0.03214346148796236 -0.0007298271417643294 -0.830656314948711 0.01965957538560615
1.6731163448951774e-05 0.0459307416268468

weight f8 [50, 26]
00000000: f893 f724 0013 a73f 28c8 ab94 b77b f1be
00000010: ce77 9112 0402 a5bf 24d0 659c 13f1 96bf
00000020: 0e1f 50a4 d951 be3f 7478 0984 977b a53f
00000030: b47a f3f2 12a8 be3f 7b0c d5b3 bd8f d1bf
00000040: 522b 657c f1f3 b9bf a424 055f c1d4 bc3f
00000050: d4d1 060d c980 c9bf a4d0 6489 6687 c5bf
00000060: 072a f6c8 0b6e c53f 7659 fca7 063e be3f
00000070: 9448 9ced 3b2b ce3f 4811 4782 308d 6b3f
00000080: b674 c23d 2c8b 98bf 7ee6 29f1 2d97 383f
00000090: 9e69 2044 cad6 b93f f1d2 b3fc 0e10 9e3f
000000a0: 1fe1 86d2 eb78 b03f a7b8 a4bc 0370 4bbf
000000b0: 1a48 b548 d1c4 adbf 31cf 2c33 1ce3 a8bf
000000c0: 3055 8f16 9bca e23e dc87 360e fcb4 b43f
000000d0: c99a d248 ec29 b1bf 4a9f d4b4 b9b4 ef3e
000000e0: ae1b 20e1 f938 7b3f 9091 4582 3945 a33f
000000f0: c8ed 6cb2 9356 bfbf 10a9 7a82 f652 bcbf
00000100: e158 e483 8b7e b2bf 4d78 0bf6 3086 d43f
00000110: 8196 463a 2d8d b23f 6a89 0502 9444 8dbf
00000120: 1ab4 d755 98bb c13f e0ff a697 ad74 c23f
00000130: ab13 dd49 ff8e c6bf 5997 1587 13e8 b5bf
00000140: bd9e b1aa 9a96 cfbf e8da adbf c4ad 75bf
00000150: f1f4 ad18 6983 a23f ba97 af79 44d7 fe3e
00000160: f82a 4941 fdb2 b0bf d269 3a98 c404 b3bf
00000170: 1990 475f a976 bdbf 74f8 8370 5045 463f
00000180: 49ce 4808 f335 ba3f b7f6 8d94 c525 b23f
00000190: b4d6 4618 a610 b1be 759e cc0b 6131 c1bf
000001a0: e86a 68b0 7b37 ad3f 73fc b5e9 3b21 04bf
000001b0: ba04 ff46 bf87 a13f 1d03 4527 5572 acbf
000001c0: cd36 bb46 b434 c03f 2760 4595 96ad c53f
000001d0: 19b0 61c6 516a 9b3f f71d f0e0 7644 d5bf
000001e0: 68e3 c425 87c8 a3bf 9a15 4579 2a6b b7bf
000001f0: 7bf6 ea30 c3cc a8bf ec1c 080e a3e5 bcbf
00000200: 1a52 29eb dfd2 c43f 0451 8df0 41fa a03f
00000210: cc18 fc90 8d4c d03f 188f 8aaf 411c 903f
00000220: 6306 dd43 0f00 a9bf 5f08 7983 75db 3bbf
00000230: b6e7 5dde d91a a03f 17d1 2936 733b bb3f
00000240: c9ab 3e10 7c42 c23f a992 8921 d5fc 40bf
00000250: b130 4a4c 10f4 c1bf 61fb 0093 eacd b6bf
00000260: 60a7 56a5 d8e5 e6be b0a3 3180 3231 c93f
00000270: aec2 e786 e99f 91bf ff2a 240f e4c4 103f
00000280: 14a8 a78d 9934 b2bf 136b abfc 92f0 b23f
00000290: 4f45 c5ae 9b6c c0bf c21f 5c8b 116e c9bf
000002a0: b278 fd02 516d 74bf 25b8 78f1 77d6 d33f
000002b0: f8fa 16bb b526 7a3f da7e cdc7 9d3f c63f
000002c0: d6b7 7546 e9ba a7bf 64df 178c 7ae5 b33f
000002d0: 1fdd ce9b d448 c1bf e03d 1f88 46ae a23f
000002e0: d904 94cc 2642 d0bf f265 6bf9 4754 a3bf
000002f0: 07ba bfb1 048d ac3f d69e 2807 75b1 4d3f
00000300: 5521 6fd2 1078 8cbf d94d 28be 856c bcbf
00000310: cc10 b659 cda5 c1bf 6a1c 850e c78d 413f
00000320: e1f0 c5eb 88d0 c53f f391 04fa 86e2 b93f
00000330: 1e69 5d70 ba3a fd3e 8562 5551 62bd d0bf
00000340: 0d55 1c52 a11a a9bf daef b56e 103c 12bf
00000350: 5c7d 82c6 3a8f ba3f b207 c176 e5c1 b7bf
00000360: 4808 5f6d 4b76 bf3f 93b4 116b c34c c83f
00000370: 2d5d 8f1e 1944 833f 3aca 898b c582 d0bf
00000380: 2856 baf3 da6d 973f c11b f4ab 3606 cbbf
00000390: 013d dd81 ae54 c03f f853 1d68 4536 a5bf
000003a0: a56b 3576 0838 b83f 6efc 9849 e57e bbbf
000003b0: 91ca 93f5 9a11 d03f 2985 2099 2507 b13f
000003c0: 6856 a120 d120 abbf 97a8 75cc 965f 4cbf
000003d0: a18f f3b2 8fb1 953f 3f15 4295 842c b73f
000003e0: 2122 b687 41eb b83f 98d6 9c23 4247 3bbf
000003f0: 663a 19f3 23bd c8bf 00be 9467 a5d0 bcbf
00000400: be78 abf0 5c58 00bf 3e94 d2bc aab6 d33f
00000410: c548 59d5 96c0 be3f 9319 d709 5614 063f
00000420: b5e4 fd17 364b c0bf 1988 17f8 94e7 bb3f
00000430: a77e bb9f 56db bbbf dbd7 ebf3 4363 c1bf
00000440: d194 1016 6d9a a2bf 723b 7e65 8cee c73f
00000450: 8dc5 58a4 fa11 a8bf 2a9d f2fe 121b c83f
00000460: 5907 b881 b5fe c5bf aa32 a8e9 b249 7a3f
00000470: 09dc 219f bd14 a9bf d520 75c3 b996 c53f
00000480: 2987 60ca 951b cfbf 2577 1fc8 fe91 b9bf
00000490: ddbf 1b92 7849 a13f 4af5 a09b ae10 423f
000004a0: 6170 a96f e89a acbf d819 14c7 49bc a6bf
000004b0: 8802 4b11 97a9 a1bf dd95 5754 f0bd 073f
000004c0: 33e8 5af2 8911 cb3f c043 823a 8a43 c03f
000004d0: bdec f5f6 584a f33e d592 480b ace1 d4bf
000004e0: 8ad5 504f 024c c6bf 0274 2327 758f f8be
000004f0: 5309 746e 662a c23f 1f7c 2c26 989f bebf
00000500: d3b9 52a8 3ce3 b33f 36a1 224a cf79 a73f
00000510: 7812 ff84 e5ef b33f bfc0 a915 a678 bcbf
00000520: 9280 315f f54b b13f 2500 323e 58ac bcbf
00000530: 21ee 8d60 ee6f c53f 147d 0e8e 30c4 9c3f
00000540: 847c 3de6 65cf 7c3f 321d 70ce b982 cabf
00000550: f23e c311 f7ad cd3f 173f e8c4 beb5 c03f
00000560: 5637 e7c0 78c5 6cbf 26cc 0347 7dd3 283f
00000570: 49e3 fbd3 e8bd bb3f 95cc 4469 3b8d 8cbf
00000580: 2790 df1f 368e a2bf facd 8121 dc57 373f
00000590: fe1b 53da 90ff ccbf 9f9f a211 9d65 c2bf
000005a0: 960c dd59 f770 e0be 495e 76ae 734c d33f
000005b0: 7d63 9e80 2d35 c83f 3709 e0a0 7901 b4be
000005c0: a348 f18a 4297 c2bf d32e dcbd b3e3 bf3f
000005d0: de89 985b f416 a4bf f0c9 1073 e028 ae3f
000005e0: 4ab5 a4f1 b7ac bbbf b605 3e2a e49d a43f
000005f0: 60c2 ea40 81da b4bf 4bfe 4642 90c3 5f3f
00000600: 0365 1351 0fd4 bcbf 6567 edd8 d80e b0bf
00000610: 6f52 84f4 e09b 9a3f d6b4 575c b350 cc3f
00000620: 0014 7824 1bf9 cbbf d72d 471b fc8f c3bf
00000630: 1dc7 fb18 dc99 a3bf 44f0 5e25 1ae9 3fbf
00000640: 002d f8ff df58 c4bf 8bfe f2d1 7746 b13f
00000650: 1ef4 f554 9feb b73f 0d26 27e0 4029 48bf
00000660: 2c22 e66e 83e5 ce3f c53e 1bb6 ad60 c43f
00000670: 9a6c 2f2b 72ff b2be f030 c324 2d22 cebf
00000680: 8697 cd8a d8e7 c3bf bbce 8646 f70d d7be
00000690: b401 5d0b 3940 c23f b4d6 403b d423 c0bf
000006a0: a782 bbec bc25 7bbf c713 9679 daad c3bf
000006b0: bf37 979a f398 be3f 9c8d a04c c18f 803f
000006c0: 63a5 c9ee fa3c b83f 489a 86c7 f3cc bb3f
000006d0: ff81 1939 00b9 943f 4a7f 2658 eddd b83f
000006e0: f0d2 b58f 3995 a7bf 51f3 97b4 dd64 cabf
000006f0: 1eb1 7bef 710a ca3f 258b aab1 af78 c43f
00000700: 870c f84a 92fc b23f a269 b325 ebbc 473f
00000710: 5df1 999d 4aff c73f bca0 fcb6 bf74 b8bf
00000720: 9807 9e7b 3219 bfbf 7ed7 50b2 0139 483f
00000730: e9c7 51b2 5235 d0bf b5f4 0a90 81c5 c5bf
00000740: 99ab b79e e4a7 b4be 1f96 1fee 564a c13f
00000750: 2662 a69c e4c5 b43f 92b5 cbe4 f9ea e83e
00000760: aff3 25b8 569c c1bf 1e1a 35b3 86b1 bf3f
00000770: c6c0 d274 3ead ab3f 33d0 6fa9 dab0 cb3f
00000780: 246f 60ac 2798 b8bf f772 7307 d3c9 a2bf
00000790: f374 a350 b15a bcbf cbee 7544 d22b c8bf
000007a0: 73f9 c86d dbcd b53f 264e 54a5 9822 c1bf
000007b0: 281d 7602 ebe0 aa3f ed91 53fa 9997 c53f
000007c0: 79ff 8076 db4e c6bf 7f88 5d51 d9ad c3bf
000007d0: fb8e bffa 6071 b9bf d473 560e 3afe 40bf
000007e0: 2b31 9cc6 b664 c7bf 8030 c1fd 3325 b83f
000007f0: f358 8b3d e71a bc3f 777a 4234 b681 49bf
0.04506683779963078 -1.6673345537073083e-05 -0.041031005159979025 -0.022404009266623018 0.11843643437907422 0.04195855604915347 0.11975210601256486 -0.2743982559370079
-0.10137852942459105 0.11262138910128044 -0.1992427171332013 -0.16819459637338696 0.16742083847596254 0.11813394166197164 0.23569439985346163 0.0033632228316681535
-0.023968402165895873 0.0003752219355771315 0.10093368685958246 0.029358133481724506 0.06434511079612946 -0.0008373277899289725 -0.05814222347784455 -0.04860771298117895
8.960451582421843e-06 0.08088660571095779 -0.06704594400307963 1.5118579222830577e-05 0.006646133510009129 0.037637517120660324 -0.12241480928508175 -0.1106409138252824
-0.07224342317599365 0.3206903841763776 0.07246668503520405 -0.014290958701796714 0.13853744689495856 0.144185732888217 -0.17623892885799583 -0.08557245300252471
-0.2467835744348487 -0.005292671727935107 0.03615883280051858 2.941216335363543e-05 -0.06523115962879078 -0.07429150311001045 -0.11509188247833925 0.0006796496172965087
0.10238570167785456 0.07088885189838377 -1.0171553138488094e-06 -0.13431943012368533 0.057063927921452706 -3.83945855117967e-05 0.0342387937703363 -0.0555597887455461
0.12660840467144965 0.1693599919187829 0.026772763951541465 -0.33230373350713144 -0.03863928161667368 -0.09147897206010783 -0.048437213632024766 -0.11287898151941861
0.16268538458338427 0.03315931378770823 0.2546724239222271 0.01573279031676042 -0.04882857993517289 -0.0004250680826524185 0.03145485724867518 0.10637588569972355
0.14265394967273284 -0.0005184212378251579 -0.14026073193634184 -0.08907953347168764 -1.0918539525689864e-05 0.19681388148754086 -0.017211579188315333 6.396905863341114e-05
-0.07111510952350414 0.0739833704823634 -0.12831445726127774 -0.19867152504616398 -0.004987064792514472 0.3099651201363279 0.006384572874081888 0.1738164163207248
-0.04634789452653336 0.07772031707997723 -0.13503511054816728 0.03648586665769549 -0.25403757074680083 -0.03775238914176872 0.05576338453089496 0.0009061643052676548
-0.013900882169665488 -0.11103092091098378 -0.1378723800700129 0.0005357000309594965 0.17042647850383388 0.10111278156234231 2.7875335056528753e-05 -0.26155908529975874
-0.049031296990657315 -6.955957694815222e-05 0.1037480101244816 -0.09280237340229183 0.12289878292270473 0.18984263160692602 0.009407230610959683 -0.2579816687276978
0.02288000214192301 -0.2111271228424965 0.12758427945161802 -0.04142968078546255 0.0946049965472598 -0.10740502402130556 0.25107454282912395 0.06651530254795958
-0.05298474810903714 -0.000865887291110273 0.02118515519840936 0.09052303928372839 0.09733972132938408 -0.00041623463367854987 -0.19327210779234177 -0.11255868700822447
-3.117593413092108e-05 0.3080241054506735 0.12012617787084696 4.211318558193784e-05 -0.12729526683304973 0.10900240952426578 -0.108815587994736 -0.13584184084146397
-0.03633442777963015 0.18696742015569218 -0.04701216942010964 0.18832623909586604 -0.171835602130211 0.006417940976927975 -0.04898636405498997 0.16866228145432297
-0.24302933103268146 -0.0998839605885818 0.033763664088723756 0.0005513050630338381 -0.055869353895759095 -0.0444052749171992 -0.03449699483963281 4.528417279540582e-05
0.2114727433561839 0.1270611558616377 1.8396778100432334e-05 -0.3262739286604249 -0.17419461129035724 -2.342260490527729e-05 0.1419189490625948 -0.11962271625496655
0.0776861105866609 0.045851209449497096 0.07787928101522279 -0.11121595410236561 0.06756528448159063 -0.11200477140846539 0.16747836794444118 0.028092154188581978
0.0070337276882518375 -0.20711443500497634 0.23187149398153611 0.13054642309770578 -0.0035121305911393437 0.00018940834298283963 0.10836653876675685 -0.013941253805205537
-0.03624123705938614 0.00035618900574904656 -0.22654925022490596 -0.14372599946113682 -7.839810503568097e-06 0.30154125249234603 0.1891228559514068 -1.1924363465536935e-06
-0.14524108681013556 0.12456820855384913 -0.03923762910951088 0.058905614896861525 -0.10810422563073022 0.04026711478855864 -0.08145912012947454 0.0019387158182410265
-0.11261077622784303 -0.06272654815748309 0.0259852551690351 0.22121278771320502 -0.21853961258617005 -0.1528315671151705 -0.03828323178266955 -0.0004869164307554944
-0.1589622497416272 0.06748150706970983 0.09343906234967433 -0.0007373396659257639 0.24137919344890812 0.1592003955070053 -1.1323592559096016e-06 -0.23541797919313678
-0.15551287438864508 -5.496634095814442e-06 0.14258492522095667 -0.1260934151957166 -0.006627786624193866 -0.15374308525875177 0.11952135585963129 0.00808669104669129
0.09468048410203304 0.10859607335314891 0.0202369723177771 0.09713633920773393 -0.04606037024760734 -0.2062031871609187 0.2034437579490111 0.15993305373293612
0.07416643457695403 0.0007244251422904755 0.18747837729814423 -0.09553144662334295 -0.12147822874069758 0.000739217594520211 -0.2532545796776718 -0.17008990796413107
-1.2311835416677117e-06 0.1350811636649931 0.08114460777722651 1.1881768978006997e-05 -0.13758357993711232 0.12380258441144362 0.054056121597911 0.2163346602752668
-0.09607170065322329 -0.03669604745821247 -0.11075885981286486 -0.1888373216896667 0.08517238073634363 -0.1338682944557245 0.05249723820730373 0.16868900988551108
-0.1742815331108394 -0.15374294732015767 -0.09938627359184331 -0.0005185874439806956 -0.18276104638824484 0.09431767411405367 0.10978551151797315 -0.0007784022968911471

bias f8 [50]
00000000: 6d70 6fef 2e85 94bf d157 9a54 d11d 953f
00000010: 5725 7dd0 5ab5 8fbf 4226 a14d 8377 793f
00000020: 6b12 8c71 3d8b 7a3f 0e2a 34f0 b0ba 92bf
00000030: 2885 b16a 4920 9d3f 2430 dbf2 5ba8 a1bf
00000040: 2adc 797a d78d a33f bf33 5753 374e a2bf
00000050: b979 09da ccb0 a03f 6b28 f40f acb9 9bbf
00000060: 153a a7ed 58cb 973f 175a aeca e480 94bf
00000070: ca5f 4926 efd9 933f e20f c9d5 94ab 93bf
00000080: a1ab 4577 f8b1 943f 6314 a797 f4ae 91bf
00000090: a08d d182 b089 873f 88c4 0d0b 54f3 66bf
000000a0: 98f6 8ae1 bb02 72bf 3e18 b008 771d 8b3f
000000b0: 4e9b 8e4d 3a5a 95bf fc82 70ef 27d2 9c3f
000000c0: ccb1 ef27 61e4 a0bf 522d 2ab3 16af a23f
000000d0: 0bd0 ca24 5b91 a3bf 8ce3 cdc1 727d a43f
000000e0: ec1e b4fb a897 a2bf 0b96 d1a3 f985 a03f
000000f0: 30e3 f630 c9e0 98bf 63ab 8d03 7434 903f
00000100: 5dca a506 8589 72bf 4b26 acaa 9db2 79bf
00000110: 30e9 2bbb 9ffd 913f feb0 2d90 6c65 99bf
00000120: c51d 7f9a 0062 9d3f a871 6b1b 44e4 9dbf
00000130: e0d9 c960 2652 9c3f f9b8 2f61 abc1 96bf
00000140: 7eb4 771c 377f 903f 852d 9d17 9e53 81bf
00000150: 2a08 d7d2 bcfe 713f 69c8 3efa 7744 50bf
00000160: 218e 2e07 2a25 553f d16d 4e11 4c3e 68bf
00000170: 0444 b726 f4d5 7a3f 8ad2 22bb 02c9 82bf
00000180: 7866 e4f6 a784 833f e000 da5b dd81 78bf
-0.020039304126712332 0.0206215579879297 -0.015482625472616958 0.0062174920113392 0.006480445875017264 -0.01829029527747577 0.028443476807642615 -0.03448760356477035
0.03819154138630439 -0.035752991603295474 0.0325988784941162 -0.027075470422495956 0.02323664618034556 -0.020022940512342737 0.019386040412740425 -0.019209218548226555
0.02021015384654457 -0.017268964534896358 0.011493090622201774 -0.00280157484706273 -0.004397138509998698 0.01323979373229289 -0.020852004035670384 0.028145431508280958
-0.032992397427594605 0.03649207055158378 -0.03821835350154864 0.04001959434294297 -0.03631332466653511 0.03227214932193697 -0.024294990171003394 0.01582509299934588
-0.004525680191692941 -0.006273857007508331 0.017569061087649718 -0.024800964641529248 0.028694161824913928 -0.029191078351560457 0.027657127053737685 -0.022223165327823733
0.01611028777363232 -0.0084602690655149 0.004393327324068644 -0.0009928867011521853 0.0012905989103523324 -0.0029593930907603 0.006551698413617583 -0.009172459922731652
0.009530365201999333 -0.005983223612588712

weight f8 [3, 3]
00000000: d85f ac9e 614f f93f c12e ddd0 477b f4bf
00000010: 955e 7ab2 4cbd d43f 1fe6 66d3 ffd2 eebf
00000020: 87ef 15e4 a2d4 f23f b0fa 80f4 78e9 c53f
00000030: f174 5d2c 3ce9 c23f 4073 bf14 39d7 e23f
00000040: 503a 67eb f287 e33f
1.581880206887936 -1.2800977858304778 0.3240539305638575 -0.9632567528671564 1.1769131574246516 0.17118751467383708 0.14774276891959162 0.5887723355514041
0.6103453252524762

bias f8 [3]
00000000: 83e6 1fe2 e5b7 ad3f c136 3704 d355 e83f
00000010: 37d2 1fe5 c791 02c0
0.058043655255414904 0.7604765970551953 -2.321182050737004

weight f8 [4, 3]
00000000: 8506 70e8 d0de e93f 6b89 aa2b eff6 f4bf
00000010: 2cb6 187f 5e8b 00c0 d1b1 a89d a1ba f9bf
00000020: 3a6d 6f26 fa07 f13f 3993 47ed 0789 e3bf
00000030: dae1 a30b 85ec e33f 5826 30f7 8fe5 f1bf
00000040: 7c28 81f3 c8b8 f43f e295 a5bc 2762 f1bf
00000050: 7e65 676c 061b cb3f 3c1f bc69 43e2 f43f
0.8084492244526734 -1.3102866845807408 -2.0680513314644227 -1.6080642851403477 1.0644475461366043 -0.6104774126402851 0.6226220347735378 -1.1185454993996213
1.295113516988322 -1.0864636773125018 0.2117622403446084 1.305240071322216

bias f8 [4]
00000000: 52fa fa72 83eb fc3f 9bdd 50de 30eb eb3f
00000010: a5d3 e787 a557 fdbf 1c25 e3e7 6058 eabf
1.8074984065457511 0.8724598257166919 -1.8338980969249203 -0.8232883957909141

weight f8 [2, 3]
00000000: d2cc fdd8 6128 b13f 6085 0d35 73c9 92bf
00000010: 822f bdba 8481 b7bf 111b b71d 805a 8fbf
00000020: 9f28 6af3 5f75 a3bf 7ac3 b8db 01fa a83f
0.06702243373529207 -0.018346595872008264 -0.09182004508073585 -0.015309334666097326 -0.03800487371798166 0.048782404014111116

bias f8 [2]
00000000: 4fa9 928a 25b9 973f 18db a426 e8e0 863f
0.023167215903108936 0.011171163253135982

weight f8 [1, 2]
00000000: e343 b273 7f73 a8bf 524e bb5b f6fc 943f
-0.04775617873486462 0.02049622473607677

bias f8 [1]
00000000: f793 bd38 29c2 523f
0.0011449244074921408
