Trained_models/2/predictor4_50_3.pth (torch, 27909 bytes, 16 tensors)

encoder1.weight f8 [26, 50]
0.23703104225332108 -0.3245621943991362 0.24305306954856937 -0.17710690933125933 0.13471873288801653 -0.012054465620442606 -0.09776012669906749 0.19383948257405179
-0.26482066293483203 0.2806776288704069 -0.20916385103621887 0.11743769950972405 -0.02116712209950424 -0.012269830423935894 0.025952320319712088 0.015373372712215675
-0.146453306273523 0.3351605793887561 -0.46691607276971625 0.5412150373083036 -0.4799166342932035 0.24512058335511552 -0.0039022953346985485 -0.2107711139652715
0.3956706624370816 -0.49590790062093987 0.5368248925049846 -0.5041397284213271 0.41586503116172496 -0.2520108087489413 0.09164916271234108 0.04728681276140145
-0.0925087005544531 0.07214460768445678 0.025891176794675806 -0.12017431101697593 0.24133517087979897 -0.2719604996708853 0.21685367301139608 -0.10369120720911659
-0.0810544023778404 0.19193618304772173 -0.29130261547314956 0.44365928116031705 -0.5367866039609117 0.4489093059057336 -0.21665855287228633 0.10073776422153674
-0.02876346824691595 -0.03972148176959036 0.18969332287935556 -0.13574273983713317 -0.04756129823487449 0.06727503470046042 0.10582598905992285 -0.28041328820460837
0.1796794186129946 -0.11409933581169666 0.12042645987265665 -0.1289371128301144 0.057664427788986804 -0.12988338370055272 0.23824493716654235 -0.22289416960992733
-0.011570544421511003 0.05125008518391462 0.15794545181653374 -0.24228652102335715 -0.018031858598436416 0.19883623591635247 0.08690833408838604 -0.3308962707183577
0.06120219282178251 0.3135326521740736 -0.11727992643452634 -0.2601654019613908 0.2058789602571964 0.1660838028094207 -0.23177207962590077 0.030776488219693747
0.13143802624723494 -0.07489231260090173 -0.015558860491737402 0.07021212517762164 -0.14932764827266384 0.20383466713106224 -0.006942468785057789 -0.22553062412541372
0.12130069478118474 0.3213859678563329 -0.46825380151183355 0.2032981382538881 0.08344152711312748 -0.05454031190114413 -0.11653479283114539 0.19497890024101175
-0.18976567092859803 0.17861981140432295 -0.06727906759185084 0.014913469206412202 -0.4299541146502531 0.11583882131840688 -0.0588070270791402 -0.03718051717732202
0.1394530275862297 -0.18784995298183002 0.049042124005300856 0.029795917436527063 0.028390794063787212 -0.08922120471882358 -0.12261726315201232 0.07615019988060114
0.14702130874895328 -0.20933772839299905 -0.021226235989955357 0.22618633757514772 -0.24926545467853078 0.13999253266101935 -0.04299928240477189 -0.020221935888025826
0.03288500631237105 -0.08571546339904335 0.07152363092863694 0.0040393290283983595 -0.004068615043766254 -0.12067707638360882 0.16863388391222695 -0.1172242045787754
0.02937013874565163 0.03881267249936841 -0.13777429799468438 0.11308633600792574 0.06072772710767909 -0.10247159690801906 -0.2066614728885357 0.2641099577862786
-0.018320136642600182 -0.14093923706736722 0.00857306906870959 0.028485491468721088 0.10083096402194308 -0.1527812655673815 -0.0070582620470473825 0.16276582423646713
-0.039395597534624016 -0.2250976895542213 0.2829993602200091 -0.0439227328135818 -0.21689231504088652 0.4102193134943755 -0.45719163404065 -0.25054939929665554
0.41600122998192035 -0.19732975938005562 0.06741597000003031 0.02796420888744764 -0.2520789063657875 0.30969087224497893 -0.22913202483074085 0.0558071449001896
0.06435684238853771 -0.18621801408084307 0.19226950075426485 -0.24174909404744127 0.045803152339940645 0.03405791059914395 -0.1009420358909322 0.093993857657373
-0.14802334707973236 0.006448349802056868 -0.02027730015999333 -0.06451063758836893 0.09419593485484534 -0.0952358616242669 0.015398449365871017 0.028522178418035588
-0.09917178502186387 0.13158054556321258 -0.10337358420320983 0.00356327283434715 0.08596213346047384 -0.21193622843909143 0.18715561665289482 -0.1690583018688979
-0.02578976252061038 0.1493697395686367 -0.3207559771214557 0.2651277617223055 -0.14417318511546434 0.025710946161681167 0.08022001361952256 -0.3334642798309618
0.3507604400391199 -0.18590852842888483 -0.036932041789271765 0.1332804411098046 -0.2595270778208042 0.2554979985412808 -0.2422819623574576 -0.4398515887413417
-0.10715987529408928 -0.08603702140207897 -0.1166321851022764 0.015714708125286275 0.22878763221524032 -0.13587543035261448 -0.2656208653223019 0.24241230296256006
0.16250345475702374 -0.28354104779297346 0.06628893691691533 -0.020233370998510317 0.10657292822651558 -0.09147726796188545 -0.08771329503246188 0.03600347296670783
0.269098050746947 -0.31930244626258725 0.06078827448485454 0.1760513842430937 -0.001476924373439668 -0.28601093860852034 0.2756777775977552 -0.029083545402832037
-0.08122473391564901 0.0350423289800048 0.024783384664786252 -0.15527872352543892 0.26950852476564297 -0.1665183533036865 -0.12722530190234888 0.21088388665230476
0.05083251741671756 -0.30776616673883794 0.21183908205069105 -0.07676388237878155 0.12569367473776832 -0.14173475187599227 -0.12732632544682115 0.21350395397419863
0.18090282266578075 -0.5634304668839021 0.28258119094995326 0.3560938620497736 -0.40985255343095317 -0.05042547260122391 0.34598069951606764 -0.15062392701177055
-0.07225383015060687 0.19499648293692862 -0.06361102748169468 -0.05846252461501025 -0.11671571869399744 0.09617801895676102 0.1266183381446932 -0.23924031271950624
00000000: 09b2 4e7f 0857 ce3f 1196 9d82 a0c5 d4bf
00000010: 82a6 73ec 5c1c cf3f 3e98 bc6f 70ab c6bf
00000020: c5cf f4a3 763e c13f e36b e2fc 02b0 88bf
00000030: cd7a 06c3 ce06 b9bf 6b20 2a6f bbcf c83f
00000040: 950c a75d d2f2 d0bf fce6 2d4d 9ff6 d13f
00000050: 6a5d da8d e1c5 cabf 9834 b6a6 6510 be3f
00000060: 46d6 ab84 d5ac 95bf 6fa8 2fc3 ec20 89bf
00000070: c729 1dbc 3e93 9a3f 22b9 3928 137c 8f3f
00000080: 3afd 6a60 fbbe c2bf 0685 d85b 4573 d53f
00000090: b673 a1f3 f3e1 ddbf 72f6 aa32 a251 e13f
000000a0: f81f 4642 f4b6 debf c717 8b7c 1c60 cf3f
000000b0: 048c f0da b4f7 6fbf e90e b640 8cfa cabf
000000c0: d8d9 c90a ab52 d93f 57ad bf7d f4bc dfbf
000000d0: 9e9a 9f65 ab2d e13f b0e2 c5a3 e921 e0bf
000000e0: b1ef 185d 889d da3f 752c 74f1 f120 d0bf
000000f0: 5427 8ecc 5176 b73f 4041 af24 fa35 a83f
00000100: bc11 7a73 a6ae b7bf e365 96aa 1178 b23f
00000110: 6633 5a76 3783 9a3f 6e22 a35f bec3 bebf
00000120: cdd2 2625 12e4 ce3f 34fa f802 cd67 d1bf
00000130: 76fb cc74 dcc1 cb3f e68d d8c7 818b babf
00000140: c4de 6837 fbbf b4bf d7f4 8d66 5d91 c83f
00000150: 7d92 acb9 b3a4 d2bf a8a0 c9e5 e964 dc3f
00000160: 382d 9e19 5b2d e1bf 470d ef18 eeba dc3f
00000170: 9d19 7eab 77bb cbbf 9cbc cd3a f3c9 b93f
00000180: 7199 c2ad 2b74 9dbf 6350 4cc2 5f56 a4bf
00000190: c7a8 04ed de47 c83f d98c 22a2 0460 c1bf
000001a0: b9bb f258 f459 a8bf ac30 e0c9 ef38 b13f
000001b0: ec47 147a 6917 bb3f a7f7 8c93 4af2 d1bf
000001c0: 6f82 5a35 bcff c63f a37a ce33 9d35 bdbf
000001d0: c8e2 b9ba 44d4 be3f d649 6ce5 0281 c0bf
000001e0: bb14 fe1e 3186 ad3f 23d3 a4ca 04a0 c0bf
000001f0: 1bb0 c862 cf7e ce3f a7cb 78d0 cb87 ccbf
00000200: 5d33 192f 4cb2 87bf 0273 907f 733d aa3f
00000210: 704e 0d7b 8e37 c43f a949 07a6 3e03 cfbf
00000220: ee92 dd8b f176 92bf e89e 423d 7773 c93f
00000230: 5fd2 a8e4 9f3f b63f 2aa3 468d 672d d5bf
00000240: 9fe0 39d1 e455 af3f e535 d441 eb10 d43f
00000250: c079 83a8 0e06 bebf 3c64 3ec9 8ca6 d0bf
00000260: 379c 9ee4 3d5a ca3f 701b bbea 3b42 c53f
00000270: 5d40 0f1f b5aa cdbf 4ea8 8e29 df83 9f3f
00000280: 8661 1714 f6d2 c03f fcb9 5781 242c b3bf
00000290: 0ce1 cce7 52dd 8fbf b7a8 6bfd 6bf9 b13f
000002a0: 8b1e dc1a 2b1d c3bf 083a 8f1e 4117 ca3f
000002b0: 8f49 2ac6 b46f 7cbf 45bc 6eff 2fde ccbf
000002c0: 5e38 11f5 8f0d bf3f 3c85 5573 9691 d43f
000002d0: df24 eeca def7 ddbf 70ae 9163 ac05 ca3f
000002e0: 2145 1486 6c5c b53f ebac db2f b5ec abbf
000002f0: c54f 0e64 39d5 bdbf 0dfc f88f 11f5 c83f
00000300: 925a 45d3 3d4a c8bf c91a 3394 03dd c63f
00000310: de2a 0373 3339 b1bf ae6f 17f4 f38a 8e3f
00000320: ae05 4d43 5e84 dbbf 6b74 2bed 9ca7 bd3f
00000330: cfe7 2864 f41b aebf b961 a622 5309 a3bf
00000340: 3dd0 67c8 98d9 c13f 3759 4e9e 770b c8bf
00000350: 5352 759d 0c1c a93f 56dc c62b d282 9e3f
00000360: 25b6 0bf0 7912 9d3f 8a87 606c 33d7 b6bf
00000370: 0cb5 294f d863 bfbf 0130 125a 947e b33f
00000380: e528 7220 98d1 c23f 8528 a224 94cb cabf
00000390: 4a7e 9395 54bc 95bf a4f8 5785 acf3 cc3f
000003a0: 44f5 ee2f eee7 cfbf 164d bb7a 46eb c13f
000003b0: 2d24 5c7f 0004 a6bf cb19 3425 0fb5 94bf
000003c0: d5e0 47b5 4dd6 a03f d074 0fd8 72f1 b5bf
000003d0: a3cb ba67 5f4f b23f ae31 3221 8b8b 703f
000003e0: b20b d988 40aa 70bf 59ca 7160 b1e4 bebf
000003f0: c642 338c cb95 c53f fb27 f7cc 6702 bebf
00000400: 1df4 90a5 3413 9e3f 153c 1c2e 41df a33f
00000410: 62ea 0e94 96a2 c1bf 514c c7e2 39f3 bc3f
00000420: 179a c663 b417 af3f 6524 7d1d 943b babf
00000430: 3a21 b315 e273 cabf 475c cf73 2de7 d03f
00000440: b0ef f38e 83c2 92bf 68b9 f602 4c0a c2bf
00000450: 042f 36da c18e 813f 6f17 13f9 4c2b 9d3f
00000460: 6cfd e5dc 0ed0 b93f a1d5 8625 568e c3bf
00000470: e8e5 89ca 1fe9 7cbf 2845 00b2 82d5 c43f
00000480: 5801 09e6 a82b a4bf 7530 8547 00d0 ccbf
00000490: 67c4 3b59 a91c d23f 9b76 f859 0a7d a6bf
000004a0: e65a ed9b 20c3 cbbf a956 e981 0841 da3f
000004b0: ae66 0db3 a042 ddbf bebd 0059 0009 d0bf
000004c0: 528f 779f c39f da3f 414e 88ff 1942 c9bf
000004d0: d1d4 604a 2c42 b13f fa38 854a a6a2 9c3f
000004e0: 6b8f b690 0f22 d0bf 8c5c 0aaa f9d1 d33f
000004f0: 1ea1 8ebc 3254 cdbf 257a 750c c192 ac3f
00000500: 0325 55a5 b079 b03f f59e 33ec fdd5 c7bf
00000510: 1400 e178 499c c83f dcbc 6262 a2f1 cebf
00000520: d81e b5c2 8273 a73f 4c07 63d8 0970 a13f
00000530: 5876 f156 56d7 b9bf c8cd a940 fb0f b83f
00000540: 823e 60d5 6df2 c2bf ec41 35b8 9569 7a3f
00000550: 6a44 2794 92c3 94bf b7a7 afe6 c483 b0bf
00000560: 1022 9e8b 391d b83f c825 159f 6061 b8bf
00000570: 15f6 7be3 3889 8f3f f886 10fe ea34 9d3f
00000580: 51d7 5a75 5263 b9bf 56ee fd9d a1d7 c03f
00000590: 864f 6cf3 b076 babf 79b2 4989 b930 6d3f
000005a0: 2d39 e847 9d01 b63f c4e2 fdf0 b920 cbbf
000005b0: 04b9 641a b7f4 c73f 8b75 d2d2 b3a3 c5bf
000005c0: 9ff8 63aa a168 9abf 62cb 3a31 8c1e c33f
000005d0: 5dec ee13 4487 d4bf 93f9 766e daf7 d03f
000005e0: 36fa 8355 4474 c2bf 8c90 a763 f853 9a3f
000005f0: 9f03 fb7e 4c89 b43f e985 1090 7a57 d5bf
00000600: aeb5 acea db72 d63f 5824 d3c4 d9cb c7bf
00000610: 7da0 51af c1e8 a2bf 1bac e15f 550f c13f
00000620: deac ea75 179c d0bf 8f68 fb46 145a d03f
00000630: b534 5e68 1803 cfbf 8d36 2f47 8726 dcbf
00000640: 95e0 d45f d46e bbbf 64cc 2ab1 8506 b6bf
00000650: 2be0 ac5c 9bdb bdbf d86e db35 8417 903f
00000660: 73ff 0bc3 e948 cd3f 43e2 d8b8 5d64 c1bf
00000670: ce72 6ca8 eeff d0bf 8aa5 afc8 5d07 cf3f
00000680: 338f d5c7 e9cc c43f 8d0a d659 8925 d2bf
00000690: e30e 25d0 4ff8 b03f 04df e78a 0eb8 94bf
000006a0: e330 5f09 5d48 bb3f 2546 39e2 0d6b b7bf
000006b0: 1bbd 96e5 6074 b6bf a36d de15 0c6f a23f
000006c0: f507 d807 e738 d13f 4fc2 0e87 736f d4bf
000006d0: cb12 c905 a41f af3f c6ab de0c da88 c63f
000006e0: 2b55 7c78 ab32 58bf 88cc e7d2 004e d2bf
000006f0: 630b c167 b4a4 d13f d175 6db1 13c8 9dbf
00000700: 8944 cbe7 24cb b4bf febb e371 11f1 a13f
00000710: c24f 7aca d060 993f a837 a757 2ce0 c3bf
00000720: 2725 f7ae a03f d13f f9c1 cf30 7950 c5bf
00000730: ea78 722f eb48 c0bf 0d67 3642 3efe ca3f
00000740: 2e9d c13f b806 aa3f 9259 3ddd 70b2 d3bf
00000750: 8110 b604 8b1d cb3f 13b3 543c cca6 b3bf
00000760: 0e09 28f7 ba16 c03f c4cc 0146 5d24 c2bf
00000770: b262 dba1 3a4c c0bf 4464 f1f9 1854 cb3f
00000780: 4943 8ddd d227 c73f 8cc3 9a54 9f07 e2bf
00000790: e210 666b cf15 d23f e5d8 f3e8 3dca d63f
000007a0: 1cc1 4a34 063b dabf a54a 6a17 5ed1 a9bf
000007b0: 67ff 5d3b 8c24 d63f d55c 4114 a547 c3bf
000007c0: c3f1 811d 3a7f b2bf e849 860e a5f5 c83f
000007d0: e9e6 b2f2 cf48 b0bf 54b0 86ce ccee adbf
000007e0: 6848 b8d2 14e1 bdbf 576b 0366 1f9f b83f
000007f0: bee1 b39a 0735 c03f 8aee 8133 6d9f cebf

encoder1.bias f8 [26]
-1.4721882094373266 -0.006218570586397353 -0.03909016468239373 -0.0854651770997442 -0.02258825360051583 0.007773338754673572 0.0118334719859374 -0.7526903074482031
-0.0005701706365722191 -0.0553999006391101 -0.013110391747951623 -0.015488684061488574 -0.010379168840267005 -1.1143405281592302 -0.15938672186925817 -1.2415383323395637
0.5434353093137901 -0.010075468639970086 -0.0004405891713188866 -0.7490344323735628 -0.07472036968775479 0.1394113419046945 -0.004005534692100511 -0.0202934281653481
-0.022966054749719966 -0.05976672509051579
00000000: 1e71 5139 158e f7bf 3f3c bed4 a478 79bf
00000010: f7f0 cf45 a003 a4bf 971a 97bc 0be1 b5bf
00000020: 57ae f309 6021 97bf 897c b6bb efd6 7f3f
00000030: 70ff 6bb9 253c 883f ef32 d0fb 0916 e8bf
00000040: f521 5d1e f0ae 42bf 58ac e432 605d acbf
00000050: 1492 5cfe 9ed9 8abf a471 04fc 87b8 8fbf
00000060: f930 d475 ac41 85bf f7d1 d0bb 56d4 f1bf
00000070: a02c ecba c866 c4bf 960f 624c 57dd f3bf
00000080: e7d1 1f72 d263 e13f 3384 6782 72a2 84bf
00000090: 6af3 ef14 dcdf 3cbf 81ea d30e 17f8 e7bf
000000a0: 6368 27c8 df20 b3bf 9808 1619 3bd8 c13f
000000b0: 75cb 1688 1b68 70bf e8f2 2ce9 ccc7 94bf
000000c0: 50d4 45d8 6984 97bf 393a 4e83 be99 aebf

encoder2.weight f8 [3, 26]
0.09341404605466229 0.6086891723383658 -0.20421256044120017 -1.0130614847100678 0.7181690795414555 -1.0248774903865314 0.7731596160654557 1.0927508055860689
0.491007654155296 -0.6655605751562711 1.2804415103224607 1.3120649154260393 0.6474298556450528 1.2188975403656885 -1.036395004973007 1.2542444855847816
-0.9787929131490852 0.8472710094110972 0.7453844973878337 -1.8753187251732066 -0.9800348198081607 0.5027927559886222 0.9104753649473464 0.6872576977312191
1.068912404307807 -0.9390994409991962 2.356377612007442 0.28465152838045876 0.17059595822869278 0.16778387368818884 0.35294967559221524 0.0626447532297049
0.33179948831603057 0.1681622656372307 0.34076995566329865 0.16371735363281814 0.6153255816478085 0.648327541885196 0.47862666048567243 0.7165584626869301
0.15818866722519287 0.5856442161924473 -0.20603115556443083 0.45046817402609945 0.43998877140321363 0.024618269913428432 0.1650447385580107 -0.21596392115836804
0.5956872143198055 0.3144083210035187 0.5659570679433344 0.11978748653511095 -0.16438394038806456 0.5593685678391528 0.45286380670285276 0.23714918432493878
0.6850724333247961 0.08857266437107814 0.7804462671651834 0.5082884226075637 0.8244519448951383 0.3176592094522037 1.2959220119040775 1.4302218061790655
1.1527543024969455 0.503203736684331 0.1557312723962184 0.4531592579037331 0.05902678632989188 0.9756953224710652 0.8279407346280184 0.08271891798847651
0.23786261567521688 0.39988788249747154 1.3462693045054046 0.7067227405905192 1.2660282519419437 0.38588010424662905
00000000: 37b4 caa0 fbe9 b73f 40ec 13b7 617a e33f
00000010: 2081 431e a323 cabf cfab 9af5 7f35 f0bf
00000020: 8e20 b4b8 3dfb e63f 08de 79f0 e565 f0bf
00000030: 7cd9 323c b9bd e83f 95b7 ca44 e87b f13f
00000040: f2b0 2b5e ab6c df3f 47b3 f9b0 454c e5bf
00000050: bd69 b43c b07c f43f d4bd dfc7 37fe f43f
00000060: 5462 0ed1 beb7 e43f 41ba 10b5 9a80 f33f
00000070: 968c c1ed 1295 f0bf 5266 6caa 6211 f43f
00000080: 3d05 f183 4552 efbf 53a0 8817 d81c eb3f
00000090: 913c e796 30da e73f 1720 2335 4e01 febf
000000a0: bf8d 80fb 715c efbf ff60 74d5 e016 e03f
000000b0: 8b66 883b 9d22 ed3f 3fc1 f5da 03fe e53f
000000c0: f5a6 ace4 431a f13f da11 5945 1a0d eebf
000000d0: cfc9 6481 dcd9 0240 91a1 490b bb37 d23f
000000e0: ac04 b69e 16d6 c53f 4dbb 2425 f179 c53f
000000f0: 185a 733c ba96 d63f fb37 638e 7c09 b03f
00000100: 9266 c9eb 333c d53f 54a5 aa53 5786 c53f
00000110: 9120 c2c9 2ccf d53f dcff d1b3 b0f4 c43f
00000120: 7839 3246 bfb0 e33f 8dc6 af66 19bf e43f
00000130: ede5 71b7 d1a1 de3f 6432 5d03 0cee e63f
00000140: 703e 2ab8 863f c43f 706b 74f0 98bd e23f
00000150: db9b 8d99 3a5f cabf 052e d576 78d4 dc3f
00000160: 6d2d f2a9 c628 dc3f a52b a620 8835 993f
00000170: 2fe4 3d9d 2f20 c53f ccdc 3ead b4a4 cbbf
00000180: dac3 04a2 de0f e33f 7839 1314 441f d43f
00000190: a736 38ff 511c e23f 606a 2389 64aa be3f
000001a0: 2b28 fa6f 880a c5bf d1f1 28e9 58e6 e13f
000001b0: 202c d579 b8fb dc3f 9b6e 798b e75a ce3f
000001c0: 2dad 1006 1dec e53f f819 cbb8 b2ac b63f
000001d0: cd4f 3873 6af9 e83f 021e 0115 e643 e03f
000001e0: c357 8e0b e961 ea3f 1cb5 f74a 8754 d43f
000001f0: 6bb6 34b8 18bc f43f cd0a b942 30e2 f63f
00000200: 44c3 d87e ae71 f23f 2518 09b9 3e1a e03f
00000210: 33ff f398 00ef c33f dcdf 24b0 8f00 dd3f
00000220: 5fee bf49 c238 ae3f e2f2 9b65 e538 ef3f
00000230: 1d1d 4891 7d7e ea3f 1761 8527 112d b53f
00000240: b20e a23d 4872 ce3f 562c 5958 c397 d93f
00000250: 9d59 a7ae 518a f53f ec9f 4502 799d e63f
00000260: 7271 1ed7 a641 f43f 5ba5 fa76 42b2 d83f

encoder2.bias f8 [3]
1.1246851072829387 0.5909861708700448 -0.30027164646037824
00000000: 6d41 a1cf b5fe f13f b4cd 88d4 5be9 e23f
00000010: 53a8 5d91 a637 d3bf

decoder1.weight f8 [26, 3]
-0.05611434123973589 0.8742390908552139 -0.4412067509361362 0.38390285671785995 -0.005376924547630824 -0.44440753090756424 -3.4104116499098267 -0.015009376705586368
-0.07802803724435285 0.6402375092309882 -0.10030560274487502 -0.4215715459591874 0.4060835094732003 -0.15478309973263393 -0.23807346947354782 -0.15481440374325237
-0.10280606251875633 0.21947760175104267 -0.043554652512582 0.6146146557789673 -0.5363227667299406 -0.000164801227489076 -0.0003759906054429863 -0.0007721468377626653
-0.4501964827174117 0.15910982201125523 0.2944573240880035 0.7304671648839065 -1.2261197034658695 0.034908937098774726 -4.7639530494721335e-06 -1.6037687079595898e-05
5.038403571078682e-06 -5.600135309147848e-05 -5.247367797422613e-05 6.157949905698001e-05 0.8611832815316653 -0.07147003565708941 -0.5536353937761281 0.5876831197840401
-0.04224956601629527 -0.3921969134971108 0.41530422243550486 -1.1188576985798802 0.18220456980848398 0.30568717447290283 0.4581944921801975 -0.4834251658405917
-0.8532000573093405 0.11876235490094944 0.3855806417233161 -0.1401118614027405 -1.0148200699248207 0.4956737271615284 0.3123095629215588 -1.010155383599292
0.4427737731035475 0.486046961368403 -0.11817991141530076 -0.3856196944519132 0.6413501374947244 -0.04626033676940053 -0.4280400569568173 -1.1609431747948398
-1.3423534006480762 0.698270092467639 -0.9483617526349685 0.3035375736408262 -0.35919400409577823 -0.1256976232090535 -0.37194141209403925 0.36803074324016044
0.7528953287026592 0.009366022223710512 0.03054823130524311 -0.2161131062021255 -0.967808588559614 0.5575246596779869
00000000: ed28 ecd8 04bb acbf 0d74 0342 c4f9 eb3f
00000010: 49e3 823d bb3c dcbf 7c6d 9c49 dd91 d83f
00000020: 74b5 5c31 1d06 76bf b205 d648 2c71 dcbf
00000030: b314 32e7 8548 0bc0 16b3 ab70 3cbd 8ebf
00000040: 6bb4 223c a5f9 b3bf 1a3a 7a5f d37c e43f
00000050: 0212 65c3 a0ad b9bf 6168 b438 07fb dabf
00000060: a177 28b0 45fd d93f 249f a9bf eecf c3bf
00000070: f991 b702 3179 cebf 0775 8358 f5d0 c3bf
00000080: 2f3d 5984 7f51 babf afd4 dc90 d717 cc3f
00000090: 77a7 42a0 cb4c a6bf 96d0 c65a ecaa e33f
000000a0: 1492 e65c 8e29 e1bf 19c0 cac3 cf99 25bf
000000b0: 727d 9e5a 13a4 38bf f839 3cb5 3c4d 49bf
000000c0: ade9 82e8 04d0 dcbf 585f 01ed b55d c43f
000000d0: 38a4 4188 63d8 d23f 904d ffac fc5f e73f
000000e0: c1df b5b1 2f9e f3bf bece 5a8e 95df a13f
000000f0: 28a7 6971 41fb d3be 7e8d d376 15d1 f0be
00000100: 2e02 f5d3 f121 d53e 5683 29d7 5f5c 0dbf
00000110: fabd add8 e582 0bbf 54ab fbbc 8724 103f
00000120: 7a4b c13d d08e eb3f ff88 ca39 dc4b b2bf
00000130: 51a6 c592 61b7 e1bf 4b47 7cd4 4cce e23f
00000140: 12d0 9e30 bca1 a5bf 9bfb 4315 c119 d9bf
00000150: b513 5029 5894 da3f 5f74 8454 d7e6 f1bf
00000160: 102d 41b6 7a52 c73f a4bc 4af0 6090 d33f
00000170: fcc2 c7fd 0e53 dd3f 6451 561b 70f0 debf
00000180: 9fd8 e234 6a4d ebbf 68a7 4bae 3567 be3f
00000190: 8c07 8b6d 5aad d83f 86d3 407b 2fef c1bf
000001a0: b36c 3af8 b33c f0bf d14a e94b 1eb9 df3f
000001b0: 3b79 be3f e1fc d33f 28ff 06b1 9829 f0bf
000001c0: 9466 c0ce 6756 dc3f 1670 d9b6 641b df3f
000001d0: 2ca9 92e6 0941 bebf a353 173a fead d8bf
000001e0: f265 3ab9 f085 e43f 3c94 0d53 6faf a7bf
000001f0: 017b 801f 0265 dbbf c921 8426 3993 f2bf
00000200: 7253 378f 477a f5bf 8a8c 5d85 3a58 e63f
00000210: 9505 0bbf fa58 eebf 2540 f9db 286d d33f
00000220: 9dae 20d9 08fd d6bf 9314 6f16 dc16 c0bf
00000230: 8d34 3e5a e3cd d7bf 65e6 88d1 d08d d73f
00000240: d6d9 c2f1 b717 e83f 39d3 2739 7e2e 833f
00000250: 266c a019 0948 9f3f 6703 b021 98a9 cbbf
00000260: c7d8 94b7 49f8 eebf b9f9 80f4 3dd7 e13f

decoder1.bias f8 [26]
-0.20514747287788296 -0.35894424924617047 0.08681634206332045 0.28043042082533254 -0.2315815910984674 0.04892523809319661 -0.6061841082140448 4.2497333109907384e-05
0.15150277507528084 0.11652236821705923 3.3803809390057025e-06 5.146984571679781e-06 -0.36560297868292674 -0.2696774917128776 -0.01556461943355256 -0.18726254803947756
0.3699593786889663 0.12150855991415356 0.40725043350435647 -0.5085636552389987 -0.29244424939299357 0.5215457903107388 0.10442466444689304 0.34129498630992205
-0.07906582306607483 0.5536836136489943
00000000: 050c 6fbb 4542 cabf 6f5f e64c f1f8 d6bf
00000010: 7899 eb85 9839 b63f 7ce4 8f6f 92f2 d13f
00000020: e3d0 0f30 77a4 cdbf a25b 1e93 ba0c a93f
00000030: c14b 0437 dc65 e3bf 6602 3b3f e547 063f
00000040: 37cd 1964 7164 c33f 3ba7 bef0 68d4 bd3f
00000050: 1636 0a13 505b cc3e 2065 9c58 8896 d53e
00000060: d1da 3009 0a66 d7bf 96f1 d761 6542 d1bf
00000070: 72cb 88db 57e0 8fbf 062f cc1b 38f8 c7bf
00000080: 6353 141a 6aad d73f b9ed 035b 2f1b bf3f
00000090: d3b6 4b1f 6410 da3f 68f1 6549 2746 e0bf
000000a0: 89f4 c215 68b7 d2bf fc08 18cc 80b0 e03f
000000b0: 49f7 b126 93bb ba3f 3e5a 1fed c6d7 d53f
000000c0: 43d4 4c64 a83d b4bf 5183 9eb2 c6b7 e13f

decoder2.weight f8 [50, 26]
0.057219129059344516 0.0379083750881326 -0.32430700044174454 0.041047790697199264 -0.009406713988157683 0.003363696244237147 -0.08493224029669329 8.765241602677048e-06
0.012629887071443847 -0.13041538945934977 -2.193790051722329e-06 -1.5587950417333276e-05 0.002508380168348454 0.0042442593579380605 -0.04483949160396457 0.04813913031342488
0.01744081869996833 0.18976752987889844 -0.08397801960046068 -0.0018168839135057765 0.004570645136008769 -0.049509414921779474 -0.0013770660617773846 -0.08211390439719728
-0.08220189023509565 0.010143080680592421 -0.014339755638176145 -0.022983617317451785 0.21392125547197727 -0.060668894478225016 0.028111196130614476 -0.019966281725402355
0.05849335118350433 4.445080039326043e-07 -0.002735358294548842 0.1494091056393623 3.699158274640673e-06 3.0884611924276364e-05 -0.03408672036091154 -0.027091747603002946
0.060761662662928435 -0.04961281096872311 -0.05335421524153758 -0.18571985330950755 0.106192273888964 0.037944092414230676 -0.02941443698786088 0.16346959935648717
-0.033425453740007494 0.059574584726462425 0.06673348197477898 0.03810686720629653 -0.0420781003718202 0.001422047688364646 -0.020615416499833103 0.0799298680662208
-0.04787131414760116 0.03535967397313604 -0.018527206507991778 -1.3673864510353962e-05 -0.01220984395503497 -0.16326287574815282 -5.087562769218094e-06 -4.54184496726291e-05
0.06339628969074033 0.04900812807698286 -0.07602965083825317 0.05892939387817948 0.07281005540637409 0.16057393628806285 -0.12919605790878952 -0.07499945951916821
0.05328181453606299 -0.24885944744994232 0.052137755993962975 -0.029297989090615588 -0.02883957771697878 -0.07485867825796964 0.10256971772802839 0.02699879860189427
-0.20924140530210808 -0.10071089028502594 0.06745183055882958 -0.042828651630157234 -0.027731604991659702 1.094652947915905e-05 0.03486919003124794 0.1756673955788673
5.106153547013563e-06 5.046034465600089e-05 -0.089411283966093 -0.06829033930839548 0.0948771157255367 -0.07490629268081582 -0.07728778395617089 -0.12021275752680523
0.14187152940058614 0.10916895992117336 -0.07435010216413851 0.2736357789944685 -0.05315698777387909 0.003104782537473504 -0.021915631126249686 0.09616039751531479
-0.1562548176514715 -0.05907111877027477 0.4088063684734117 0.1226936190712268 -0.08044822334916232 0.03828907460972818 0.07489043052088969 -6.642656288605454e-06
-0.06081854182785132 -0.1853354906155901 -5.157806427915222e-06 -5.221393706258387e-05 0.11269124515553205 0.08456643844257015 -0.11885794959263332 0.09060356396925151
0.06808772707587701 0.07487156063303188 -0.13817202517192034 -0.13559155382902233 0.09217137397309005 -0.21519981670681657 0.03960587870601185 0.008579513035459405
0.0695306588289327 -0.10830012249054129 0.19181927692400555 0.0898814955995425 -0.5079168679347714 -0.1427370910110978 0.08563337772638473 -0.02386499077227889
-0.1155105945991917 1.7387718007906394e-05 0.08383280370375183 0.1935928514190961 5.246388512842919e-06 4.667557216194492e-05 -0.13451960961286832 -0.09851609735075241
0.14588314563922233 -0.09522399899567965 -0.054123692316025616 -0.0308240522445845 0.1134926619505807 0.1530795670661399 -0.10747884782751913 0.07549110408649563
-0.018864001372922594 -0.0060926084072346655 -0.09750058152500345 0.12096754936745761 -0.2054372514852 -0.11598515142651114 0.46032323076372184 0.15721348100854235
-0.08360773096707869 0.0038436179201844457 0.1448667706686587 -3.369943061792424e-05 -0.09888019643686584 -0.20278791242730715 -4.547929609897404e-06 -2.8365598679873678e-05
0.1557848155328393 0.11170039427020731 -0.1740558953716953 0.08341975516036682 0.0455288331195228 -0.003888343779798701 -0.0648022623502112 -0.1605549607437702
0.12193179749248427 0.11414603805666224 0.002480640418376833 -0.007613049240795499 0.09124341809275127 -0.14092065289876549 0.19867418212475155 0.1351718884024047
-0.2594869700203786 -0.16418185856779827 0.0770787370259766 0.016220093140928447 -0.16235209681649806 4.829562629517457e-05 0.10260932148951447 0.2124875882310468
3.0122346594205952e-06 1.7371057822386349e-06 -0.17676047453128108 -0.12466346132136939 0.201741700096911 -0.052224204008250605 -0.0542020176420652 0.025283295813008595
-0.003954239794387382 0.15831483599025484 -0.13608929579204845 -0.3042507672500521 -0.0014566687454929538 0.027787686458010715 -0.04767603490987281 0.16920693823078273
-0.17573153744692802 -0.14567494883425836 -0.049093899848985545 0.16443695118348248 -0.06402532864479336 -0.035095679730328726 0.1687929562566851 -6.431025489893283e-05
-0.09357627308198176 -0.21492651805610538 -2.579141403690126e-06 2.0896862356403918e-05 0.19683997308314224 0.1365573104001258 -0.22474806932976912 0.0037964752766408145
0.08333561152024226 -0.03609416595953833 0.08388564087756988 -0.14964923470652056 0.14899875113789068 0.4481673157214005 0.02240381182104946 -0.05200255882943566
-0.026158984814682245 -0.20544776479513133 0.1433397186238238 0.1427756886887166 0.38472114031656085 -0.15680484601737224 0.04821788808057082 0.05218371371820137
-0.1668917110471844 8.524712641575897e-05 0.07248549237913895 0.20216931000719413 2.5850864619698412e-06 -3.5451748666887934e-05 -0.21284896561745267 -0.14432094915706706
0.23599603357929974 0.05947523606134858 -0.12989115464448642 0.045571149481496764 -0.1601937307705058 0.1405070529577882 -0.1574440277004757 -0.5120214923990583
00000000: 09ee 0760 d34b ad3f dffd 7efe b968 a33f
00000010: b0b6 3026 72c1 d4bf 172c 3c4d 3704 a53f
00000020: e323 89c7 d343 83bf e70b 9bab 2e8e 6b3f
00000030: 9547 738a 1ebe b5bf e841 ffa1 cd61 e23e
00000040: fa66 64bf b2dd 893f cebe 4f94 73b1 c0bf
00000050: ecb9 dbd5 2067 c2be cff8 cacb 5b58 f0be
00000060: 476b 3f59 748c 643f 9799 35b2 6d62 713f
00000070: 2a3f 04ac 33f5 a6bf 0145 b52c b1a5 a83f
00000080: 7031 ba87 01dc 913f d416 566b 4d4a c83f
00000090: af4e c45f 957f b5bf 4100 4e3f 90c4 5dbf
000000a0: ddab 1736 abb8 723f 2ac4 dd4b 4c59 a9bf
000000b0: bef4 c86c d58f 56bf 23ce eeb5 6a05 b5bf
000000c0: 73a7 3ade 2e0b b5bf 7440 6e3e e5c5 843f
000000d0: 0721 fd6b 295e 8dbf 7c91 e372 0489 97bf
000000e0: 8cf0 158e c561 cb3f 443f 564b fe0f afbf
000000f0: 9235 2170 2ec9 9c3f 1920 227c 0a72 94bf
00000100: 35b2 bb2c d7f2 ad3f ecf0 37e0 96d4 9d3e
00000110: ecad 5f4d 7668 66bf b90b 396b d61f c33f
00000120: be0c 9ac4 e107 cf3e a3d3 702f 4331 003f
00000130: 7024 5b8a d073 a1bf e618 c967 f0bd 9bbf
00000140: 09c9 f913 271c af3f 0887 25b1 d966 a9bf
00000150: 3cde 2163 3e51 abbf 0b54 170c abc5 c7bf
00000160: bfe3 70b7 6a2f bb3f 1eb5 fd77 686d a33f
00000170: cc8c 9273 d11e 9ebf bf2b 9063 92ec c43f
00000180: 70a7 551d 241d a1bf 0758 255a 8f80 ae3f
00000190: e53f a10a 7215 b13f c1e0 ce48 be82 a33f
000001a0: 7915 f3c1 428b a5bf 61f8 2614 804c 573f
000001b0: fc0b a42e 351c 95bf 4e69 51a9 4876 b43f
000001c0: 1169 5cc1 9682 a8bf b6a9 9fc6 a91a a23f
000001d0: 00fa 26c8 cbf8 92bf ea16 d3a0 19ad ecbe
000001e0: b221 cf83 7901 89bf 059f fe43 cce5 c4bf
000001f0: cfb2 fe9a ba56 d5be f3b2 3e0c f6cf 07bf
00000200: 23d3 e83e bd3a b03f 325b a8e6 9717 a93f
00000210: 9e68 e0df ad76 b3bf 49b3 f556 fe2b ae3f
00000220: b852 ca06 aea3 b23f 6d3e 79ce af8d c43f
00000230: 8cc4 be15 7f89 c0bf a93d da21 2a33 b3bf
00000240: a5cf ce05 c147 ab3f 9e8f 0c5a a0da cfbf
00000250: 3005 c3c9 ccb1 aa3f 4e58 eec3 4a00 9ebf
00000260: 06df 7f4c 1f88 9dbf 7f94 f036 f029 b3bf
00000270: 5aab 334f 0242 ba3f 870f 1bb4 92a5 9b3f
00000280: e7ed 5e20 6cc8 cabf 1c0f 205c 30c8 b9bf
00000290: ac35 4eee 8544 b13f 9da6 2a14 a3ed a5bf
000002a0: 1be2 0482 ac65 9cbf 84ae 468e dff4 e63e
000002b0: e8f9 a4dd 5fda a13f a20b 7eeb 447c c63f
000002c0: dd81 aecc b06a d53e 4fe0 863d ac74 0a3f
000002d0: e119 876c a8e3 b6bf 6a59 f6c5 797b b1bf
000002e0: a813 2edd dd49 b83f 3726 540d 0f2d b3bf
000002f0: 6ad9 78d8 21c9 b3bf 3dbd 2366 43c6 bebf
00000300: 9127 81a5 d828 c23f cf8a 9938 7ff2 bb3f
00000310: c8cd 3fb9 9b08 b3bf 8ffd 72a4 3f83 d13f
00000320: 7cda 1588 6437 abbf 3160 b56e 336f 693f
00000330: d571 d51b 0d71 96bf a7a6 7fc2 f79d b83f
00000340: dfe7 d369 2800 c4bf f94e 83d6 913e aebf
00000350: 5a59 bf2f e229 da3f aabb 5659 d968 bf3f
00000360: 1e53 4e38 4198 b4bf 9e5b 7c26 a09a a33f
00000370: 6dde deed 042c b33f 8974 0875 7fdc dbbe
00000380: 0435 48a0 9b23 afbf 9db4 7dc7 12b9 c7bf
00000390: 8a3b 0b09 27a2 d5be b44c 7537 0960 0bbf
000003a0: 3610 7d5c 55d9 bc3f 8f35 7367 25a6 b53f
000003b0: cab6 5e7e 796d bebf 8023 2690 cb31 b73f
000003c0: fcc3 0c81 326e b13f 1ec1 5158 c82a b33f
000003d0: 3af1 aaf4 9eaf c1bf dc9c a764 105b c1bf
000003e0: b080 d70c 8b98 b73f 5134 6ee7 aa8b cbbf
000003f0: 8117 8bc3 3847 a43f a525 39bf 2292 813f
00000400: 6656 bde1 c2cc b13f 4dea 3f8c 8eb9 bbbf
00000410: abc3 90b8 888d c83f 2898 1d44 7902 b73f
00000420: 24bb 1be0 da40 e0bf c5cf e880 3545 c2bf
00000430: f3e4 c7ac 11ec b53f e28c 8b6b 1070 98bf
00000440: 8321 2532 1a92 bdbf 023b 15e2 7a3b f23e
00000450: 8b56 3d0e 1176 b53f c8cd ca8a a6c7 c83f
00000460: bfeb 1d4b 4401 d63e 80eb 9972 b078 083f
00000470: 539e fa45 f037 c1bf c143 40d8 5938 b9bf
00000480: ac6e c785 4cac c23f 7614 7b99 9960 b8bf
00000490: 0b48 dfc0 19b6 abbf dd61 4821 5790 9fbf
000004a0: 0fea 69e7 da0d bd3f 8411 1e7b 1c98 c33f
000004b0: 1653 6ed8 bb83 bbbf 11c0 308f 6253 b33f
000004c0: aea4 dfb3 1551 93bf 64d8 b31d 90f4 78bf
000004d0: c3a9 fd50 ccf5 b8bf 4316 69b4 baf7 be3f
000004e0: ed28 4192 c44b cabf 22cf 32f0 33b1 bdbf
000004f0: 2208 6e91 ef75 dd3f 4f04 b643 921f c43f
00000500: 4445 32f6 5067 b5bf 7612 7fa8 a67c 6f3f
00000510: 5346 268d fe8a c23f a1bd 829e 0fab 01bf
00000520: e71b eb69 3650 b9bf 6a1f f34d f4f4 c9bf
00000530: c8c3 415f 4d13 d3be f4d1 3c19 55be fdbe
00000540: e4a5 f6bf c1f0 c33f b241 57a4 6598 bc3f
00000550: 2812 26ad 7647 c6bf e00c 4140 ff5a b53f
00000560: 0cfa 8b22 8e4f a73f a2bb d5ab 72da 6fbf
00000570: 853f 808d e196 b0bf 8172 cda0 108d c4bf
00000580: 6f9d 921a ec36 bf3f a8dc 6bbc ac38 bd3f
00000590: 31c4 0aaf 4752 643f d95f 3158 dc2e 7fbf
000005a0: d001 af88 ba5b b73f 3afd c31d b009 c2bf
000005b0: 8986 64d5 276e c93f 2171 03fc 4f4d c13f
000005c0: 3171 7e3c 6f9b d0bf 9e95 9240 e903 c5bf
000005d0: 8b59 be9e 6ebb b33f 063e 5006 009c 903f
000005e0: fbc6 2119 f4c7 c4bf 5549 7515 2152 093f
000005f0: 4ded 0fc0 9a44 ba3f ae0e 2115 cb32 cb3f
00000600: b0c0 4d84 b944 c93e 227d 9901 d024 bd3e
00000610: 6c2c ab54 16a0 c6bf 37a6 61d1 f1e9 bfbf
00000620: 16ed 130a acd2 c93f c6d5 8c80 21bd aabf
00000630: bcbd 4cea 5dc0 abbf e29c 9b42 dde3 993f
00000640: 9a18 8f29 5232 70bf 275e 8619 a943 c43f
00000650: 359a 61c1 5f6b c1bf e9cc c735 d878 d3bf
00000660: 4231 df27 b6dd 57bf 4f4e 4612 6074 9c3f
00000670: be51 7b45 fe68 a8bf 7d8f faac 92a8 c53f
00000680: ebec 1afb 5e7e c6bf 7078 8b0a 7aa5 c2bf
00000690: f8a8 91ec d522 a9bf 0123 cb1f 450c c53f
000006a0: 4f21 a5c4 f663 b0bf d765 5899 0ff8 a1bf
000006b0: 9c74 75f1 019b c53f dfbb 2fc4 c9db 10bf
000006c0: cd94 9158 9df4 b7bf 530c 0c4f b682 cbbf
000006d0: e2c1 44fb a9a2 c5be 6383 5172 75e9 f53e
000006e0: cf03 785f 0d32 c93f 9e60 19bf b57a c13f
000006f0: d524 ce73 8bc4 ccbf bf61 e724 c919 6f3f
00000700: 7754 128e 7b55 b53f 35c7 be3c ef7a a2bf
00000710: 6f54 2c84 8779 b53f afcc 77c4 b427 c3bf
00000720: 4e1b a41d 6412 c33f 9b35 0af7 c5ae dc3f
00000730: 44ff 4e5c 06f1 963f d823 f652 14a0 aabf
00000740: 5b3c 1ac1 6bc9 9abf f66a 6ac3 1c4c cabf
00000750: 6584 dab5 f458 c23f 307c ca48 7946 c23f
00000760: 3f53 ef6a 459f d83f eddc bf62 2e12 c4bf
00000770: 61c7 c6d8 03b0 a83f 8b64 9bdf d2b7 aa3f
00000780: e1e7 7524 b55c c5bf bb1a ea7a d658 163f
00000790: 92ee 33c3 688e b23f 2e2e 5e17 afe0 c93f
000007a0: 7bc8 d64f 6eaf c53e 1cea 12cf 4096 02bf
000007b0: db3d 2889 a23e cbbf 9cee 60de 1b79 c2bf
000007c0: 4bba 1a37 1e35 ce3f b859 9cc3 8973 ae3f
000007d0: 846e 9efa 45a0 c0bf 400c 5409 1a55 a73f
000007e0: 9c7e 5769 3a81 c4bf 2cd0 a796 22fc c13f
000007f0: a347 f63a 2027 c4bf 887f 96e5 7a62 e0bf

decoder2.bias f8 [50]
0.05467300108323421 -0.06309334798170979 0.06648243241726005 -0.060943153251333586 0.050533643161705034 -0.03560545695729761 0.020309081154233695 -0.0055868204750357114
-0.004628208490999251 0.01221287902281856 -0.01575379798527017 0.017721965629845935 -0.018869587893895715 0.022301575559562106 -0.026266260609173253 0.032637665145670784
-0.04059880042932652 0.05159533492813324 -0.06066201020365014 0.06637294307484495 -0.06450168423822297 0.05502601451110401 -0.0362958393202214 0.011718132845462229
0.015906687561479168 -0.03886785688524915 0.054959012341264164 -0.060868122255288544 0.05884811325389211 -0.04815781728690903 0.03389022390512713 -0.02099494784368891
0.01467823884806159 -0.013046987417375531 0.016070610767038286 -0.02200658528645072 0.029710394262847366 -0.03350858649422607 0.03001905907116444 -0.020394671495011906
0.007985288103270509 0.00934635810838167 -0.03055289951125929 0.05054297277718408 -0.061705164797785386 0.06426344182531006 -0.05894677968247912 0.048750681508376165
-0.03285563241882803 0.01742914343583648
00000000: 0ada 407f 19fe ab3f 1435 2dba e226 b0bf
00000010: 099c fd20 fe04 b13f 1f5a 42e4 f033 afbf
00000020: 0d5b 74b1 8bdf a93f 38a7 61e2 e03a a2bf
00000030: 021b 7a5d e7cb 943f b094 a9b3 34e2 76bf
00000040: 3101 ba41 07f5 72bf 4faf f1df 1003 893f
00000050: 34c1 897c c321 90bf b93f 34fb b425 923f
00000060: e4b7 929b 8c52 93bf b7da b566 39d6 963f
00000070: 40ec 37e9 8ae5 9abf bf3f d650 e2b5 a03f
00000080: 829a 33b0 5dc9 a4bf 99f5 4828 b46a aa3f
00000090: 005c de4b 170f afbf ae81 d833 d1fd b03f
000000a0: e60f 57b0 2e83 b0bf 7142 82a9 5e2c ac3f
000000b0: 10f2 b845 5e95 a2bf d546 bb2a adff 873f
000000c0: 1ffc 74bb d749 903f 3b21 60dc 7ce6 a3bf
000000d0: f99b 4071 9623 ac3f 6929 e944 1b2a afbf
000000e0: a8aa b603 5721 ae3f 7e89 9634 24a8 a8bf
000000f0: 273d a736 0f5a a13f 18bf 7a19 b37f 95bf
00000100: a8bc 85de 9f0f 8e3f ffcf 2602 61b8 8abf
00000110: 7a48 af6e d074 903f 2063 68f0 e488 96bf
00000120: 7b3d d7ce 666c 9e3f 927a 4196 0928 a1bf
00000130: 458f def3 50bd 9e3f d3bf 553c 57e2 94bf
00000140: 8f7f 053a 975a 803f 7431 4cf3 2e24 833f
00000150: e39a cb60 4249 9fbf 6bc2 3dbe c4e0 a93f
00000160: aaff 99c1 d197 afbf bfd5 f7a4 9173 b03f
00000170: f6ab e1b5 452e aebf 94ed 786d d9f5 a83f
00000180: fdde 7415 74d2 a0bf 0683 3704 f2d8 913f

classifier1.weight f8 [3, 3]
-2.377213478432184 0.14950461297864495 0.6155916598721118 -1.238417774480459 0.18187987058710944 1.2875650051178218 -0.8046454319162294 0.20040065797779388
2.128513140296702
00000000: 24d0 0b80 8804 03c0 dd15 ac97 f722 c33f
00000010: 18ea da47 edb2 e33f dadb 0228 8fd0 f3bf
00000020: e175 fcef d647 c73f 2948 47c3 dd99 f43f
00000030: 8d97 dec6 a7bf e9bf d645 0e90 baa6 c93f
00000040: dc71 b5e5 3107 0140

classifier1.bias f8 [3]
2.3682276791235166 -0.6200270806487993 -1.4676025612747603
00000000: 368a 7a5a 21f2 0240 9aab 4008 43d7 e3bf
00000010: 0437 c3d2 4c7b f7bf

classifier2.weight f8 [4, 3]
2.1249128152519665 -0.12454540508043481 -2.376105175653142 -1.9024732455874145 -0.7428372511242729 0.2334957812251538 0.2517351670446873 1.6795196843621296
-0.03853502954190568 -1.5638107954632559 -0.2921666357218154 1.712925221905247
00000000: 2ede 424a d2ff 0040 9b02 b029 35e2 bfbf
00000010: eb4a 2a6e 4302 03c0 ba01 35c9 8770 febf
00000020: 8e89 7aa0 52c5 e7bf 4cd9 0e94 30e3 cd3f
00000030: 1d71 6dd1 6d1c d03f 6c2d 5508 50df fa3f
00000040: af08 4407 ddba a3bf c657 fa77 5e05 f9bf
00000050: 2d15 5ab0 dbb2 d2bf ab39 0947 2468 fb3f

classifier2.bias f8 [4]
0.2530573055458811 3.133151000372782 -1.7193705042205374 -1.8148795010392558
00000000: 0f57 d544 1732 d03f 0b3f c078 b110 0940
00000010: 0a59 55a5 8a82 fbbf 784f 7216 bf09 fdbf

predictor1.weight f8 [2, 3]
-0.09747874476462708 -0.0767499229813412 0.047816478217082195 0.051711394279784564 0.00583569106262708 -0.005131041398171602
00000000: 63b7 d1f4 5df4 b8bf a8e5 2c09 e2a5 b3bf
00000010: 9af5 4dc4 667b a83f d243 8676 ea79 aa3f
00000020: a778 3764 2ae7 773f 373c fe6f 4904 75bf

predictor1.bias f8 [2]
0.031262195754959546 -0.009489261250364207
00000000: 6ac6 bc38 9901 a03f c43c de15 1b6f 83bf

predictor2.weight f8 [1, 2]
0.08445717345238749 0.01686126102485196
00000000: 9afe e33d fc9e b53f fd29 af12 1444 913f

predictor2.bias f8 [1]
-0.002239869852829297
00000000: dc80 7cf8 5859 62bf
