Trained_models/2/predictor4_200_3.pth (torch, 336471 bytes, 16 tensors)

encoder1.weight f8 [101, 200]
000000 ad a2 c4 a3 fc 2e ad 3f 14 73 44 97 d5 e1 9e bf
       0.05699910639879611 -0.030158364637020332
000010 2a 1a c1 d7 a6 af 6f bf 30 02 c9 1e c9 c4 a2 3f
       -0.003867936959099501 0.036657605178792685
000020 05 50 a4 f1 b5 dd 65 bf e6 b9 21 cc 57 74 a5 bf
       -0.0026691964714107307 -0.04190325133173527
000030 ee 40 1e df f5 c2 b4 3f 4f 5a d7 ba cc d8 b3 bf
       0.08109986016484402 -0.0775268512873961
000040 a8 f9 8b 93 54 c6 6b 3f 64 2a 78 64 08 ba a5 3f
       0.0033904697305608585 0.04243494249756877
000050 ed 20 54 81 02 11 b5 bf 46 e3 fb ed 7e f7 ac 3f
       -0.08229079873501961 0.056575743246816176
000060 a8 b9 8a e5 87 40 9b bf 7a 72 60 89 fc d0 6b bf
       -0.02661335314285798 -0.003395550952531243
000070 9b a7 1f 70 d7 52 95 bf 2c 8d 62 68 5e 18 a2 3f
       -0.020823827951893397 0.035342169039063925
000080 bb d3 70 29 c2 93 b1 bf a9 fa 88 2e ca 99 b6 3f
       -0.06866086494194594 0.08828414569959854
000090 6c 74 d2 17 f9 fb b3 bf 3d dd a9 f3 fe 26 a9 3f
       -0.07806355315774888 0.04912564014824248
0000a0 42 ae d3 bb cb d6 8d bf 8f a9 2f e8 d2 91 94 bf
       -0.014569846791764655 -0.020087523862380826
0000b0 88 af 89 66 3d 72 92 3f 94 b6 57 f5 5d 20 99 bf
       0.018013915427601584 -0.024537532901311623
0000c0 48 6a 06 c8 2f 9b 68 bf 3f d8 0f b6 54 e7 83 bf
       -0.003003686259217351 -0.009718572431648307
0000d0 ce b3 92 fc ed 77 88 3f 6f 46 4d 4b 23 f1 a2 bf
       0.011947497625749561 -0.03699598592960462
0000e0 30 9e 8c e1 c5 55 9f 3f 2f b1 a1 2b 06 c3 9d bf
       0.030600635425029832 -0.02906427041345799
0000f0 05 c3 be 23 a7 16 a6 3f 02 fe 16 32 1d db b0 bf
       0.04314157782881093 -0.06584341500182947
000100 37 8c a0 c4 b4 bd b5 3f c2 bc 11 ca 8c 29 b2 bf
       0.08492593574969552 -0.07094650204975309
000110 51 57 1c 97 02 5b a9 3f fc fc 21 8f 61 04 80 3f
       0.04952247709859015 0.00782085626656092
000120 a9 64 a7 e7 87 06 9a bf a5 a6 8c dc 09 8a 97 3f
       -0.0254155383243854 0.02298751267077272
000130 43 d4 09 b4 d0 74 53 3f ff 52 49 e1 21 24 90 bf
       0.0011875188939971671 -0.015762833953277596
000140 81 52 b2 45 6d 5e 86 bf e3 4f fc 4d 98 14 a9 3f
       -0.010922292413206637 0.04898525192234595
000150 3d 3f a3 72 83 96 b8 bf 69 d9 18 f0 d6 5c bd 3f
       -0.09604665325900626 0.11469786988968668
000160 e6 88 5c 46 f3 d3 bc bf fb 1a b6 2c 18 02 bb 3f
       -0.11260910480317285 0.10550070849977182
000170 a6 25 88 5f 91 f4 b6 bf 59 69 cd e4 b9 4f b0 3f
       -0.08966930944747861 0.06371652446742838
000180 3d d8 df e4 a3 3c ad bf eb 48 c4 c1 5d b9 b1 3f
       -0.057103273094910346 0.06923471432336085
000190 52 34 f3 2b 41 7e b3 bf 80 79 05 b0 1a a4 b0 3f
       -0.07614524195669617 0.06500403211018657
0001a0 73 37 2d 59 ee 35 a1 bf e3 3d 2c b5 e6 18 5e bf
       -0.03361458624441029 -0.0018369915966934762
0001b0 55 49 89 de 2d bc a7 3f 30 45 55 21 1d 18 b4 bf
       0.04635756818301454 -0.07849294723316258
0001c0 e8 52 b3 19 2c 2c b4 3f a5 67 30 6b 49 a9 b1 bf
       0.0787990153069803 -0.06898936144753394
0001d0 d1 95 8a 8b 02 da ab 3f 48 15 8e 2d b3 a1 ae bf
       0.05439765885720827 -0.05982742243854006
0001e0 82 a4 57 b5 82 fa bb 3f d9 4e 2e 30 bd b8 c2 bf
       0.10929123809150279 -0.14626278736670065
0001f0 8e 24 0a 57 7a c2 c3 3f c1 85 62 a8 24 b6 c1 bf
       0.15437249422055682 -0.13837106916348144
000200 bc 95 b3 b3 2b 30 bb 3f 10 12 55 74 d0 7e b1 bf
       0.10620377671474207 -0.06834128227371417
000210 00 56 9e 70 12 e0 a3 3f 0c e5 84 a0 08 cc 9d bf
       0.03881890892732187 -0.029098639294919557
000220 73 8d 27 c1 52 b2 89 3f 0c eb 35 57 2e 7f 7e 3f
       0.012547155875785454 0.00744550802061884
000230 cd 0e ff b1 8c f7 a3 bf b9 c5 f3 e3 a1 35 b1 3f
       -0.03899802849585186 0.06722461524238711
000240 b7 e3 f1 3d ca 6f b6 bf 8a b8 12 b8 7e b7 b8 3f
       -0.08764328014684862 0.09654991144154415
000250 c7 fc d5 34 d5 8a be bf 38 26 14 82 aa f4 bf 3f
       -0.11930592098177605 0.12482705760717117
000260 4e a4 55 a0 fb dc c0 bf 17 ff a8 61 3f 60 c0 3f
       -0.13174386338076477 0.1279372431617893
000270 1b e5 e9 7a f5 b6 b9 bf 7d 4c b5 95 8f 72 b1 3f
       -0.10044798136540971 0.06815431027398407
000280 06 d4 99 d9 61 f8 9f bf 1e 69 9f b2 3e c8 8b 3f
       -0.03122094050054971 0.01356553061116422
000290 ad ac ce 6f 59 87 81 bf 65 4e 45 62 ec 1d 6a 3f
       -0.008558939671124166 0.003188096701856757
0002a0 90 9b ea 21 1a be a1 3f 1f 28 16 53 2d 88 ae bf
       0.034653488769712415 -0.05963269843330487
0002b0 71 b7 4d 11 f0 69 b9 3f c5 d8 0a 64 14 90 c0 bf
       0.09927273199511234 -0.12939696202164988
0002c0 07 9d db 18 f3 26 c1 3f 64 d5 49 2d ab 37 c2 bf
       0.13400114740145616 -0.14232387267444857
0002d0 ed 86 92 f0 04 2e c2 3f 79 42 9e ce ec a5 bf bf
       0.14202939745614832 -0.1236255649985284
0002e0 99 ee a8 54 7b 24 bc 3f a2 1b 0c 30 69 3e ba bf
       0.10993166748897422 -0.10251481459645942
0002f0 32 5c 6b dd 1f 60 b7 3f 89 45 8b 69 c6 b1 b9 bf
       0.09131049304720376 -0.10036888195761241
000300 1f 4f af 6e de 38 b3 3f 00 2b ef ee 39 2f b1 bf
       0.0750865001894536 -0.06712686618190489
000310 0f 64 39 36 fe c2 97 3f 9e cd 65 27 dd bc 9d 3f
       0.023204776820737346 0.029040771035807482
000320 a3 9f cf ef 93 04 ab bf 2b fc f5 17 09 8e ae 3f
       -0.05276930143719418 0.05967739503375243
000330 63 e8 4f 38 a2 53 ad bf 5a ae 37 5d a9 0f b2 3f
       -0.05727869927791642 0.07055147672479603
000340 e8 b1 f0 95 7e 5b b6 bf c8 96 af c4 e7 52 b6 3f
       -0.08733359490060588 0.08720253517057153
000350 2d f7 d7 ec 3a 0d b1 bf ac 64 72 2f 87 8e b1 3f
       -0.06660812647166088 0.06858105572099998
000360 0a 78 b7 74 d4 61 b2 bf 86 9e 36 bb 11 4d b1 3f
       -0.07180526589897354 0.06758223362577995
000370 2b dc ca 31 90 76 a9 bf 59 26 d9 bd 91 fe 97 3f
       -0.04973269088571216 0.023432042324463918
000380 75 d4 46 5e 5d db 88 bf 56 d3 27 52 e2 40 8c bf
       -0.012137154998393943 -0.013795631534756641
000390 16 09 bd 38 0c e4 a1 3f 14 f9 67 9b 8f a0 a5 bf
       0.034942991186215064 -0.04224060794875775
0003a0 f6 61 96 d9 ba ed 9c 3f 99 af a4 03 09 31 6c bf
       0.028250617533190657 -0.0034413505610668246
0003b0 e3 3a ac de 55 81 6a 3f a7 7a 92 ee db d9 82 bf
       0.00323550006340355 -0.009204595773835434
0003c0 49 21 ca 6b 70 c6 96 3f 72 c9 05 4b 3d ff 9a bf
       0.022241360262826224 -0.026364286140457556
0003d0 52 d8 76 0c 73 de 8b 3f c3 de f8 61 97 3d 80 3f
       0.013607882326010099 0.007929976155636514
0003e0 dc 13 35 ab 0d a4 90 bf 89 3c bb 5d c3 ef a6 3f
       -0.01625081403223648 0.04479799765760457
0003f0 5b c9 5c c0 dc 10 b3 bf 9e f4 29 c5 67 c2 b1 3f
       -0.07447604843472304 0.069372640262332
000400 1e ba ee e5 fc f8 b3 bf 4f b3 2c b7 01 dd af 3f
       -0.07801800359332176 0.06223302231805993
000410 e7 70 a2 1d 20 5d ab bf 17 bf 53 bc 5e c1 b1 3f
       -0.053444865815636615 0.06935684297399934
000420 db 73 8a 43 2a 46 b4 bf da c0 dc a2 8c e5 b5 3f
       -0.07919563435503056 0.08553389526491931
000430 8c cd 60 ff c2 ff af bf 2a 64 7c 1c 4e 5d aa 3f
       -0.0624981819859399 0.0514931115887481
000440 24 05 c6 39 58 72 a2 bf be b9 b6 4a 0f 1a a0 3f
       -0.03602863030665507 0.03144881999047609
000450 a4 83 86 7e ea 17 35 3f e1 44 37 d5 4b de 91 bf
       0.0003218600745871719 -0.017449555290856792
000460 79 25 d3 22 a5 c6 a1 3f 7e d2 22 f1 d3 88 a7 bf
       0.03471866655452067 -0.04596578901820168
000470 8c a4 29 59 0f ec ae 3f 19 96 60 49 2d 4b b3 bf
       0.06039474452411139 -0.07536585847318412
000480 f4 d5 0d a3 32 0f b7 3f 5d 54 5b 82 2b e4 b5 bf
       0.09007565003215473 -0.08551284725702275
000490 fb e8 c8 bf 34 49 b6 3f 78 aa 89 05 3e 42 b5 bf
       0.08705453569647041 -0.0830420268554607
0004a0 19 94 ca bf f0 f5 b7 3f 0e 18 33 e9 ae 98 b4 bf
       0.09359650308995561 -0.08045476144170058
0004b0 e9 41 c4 15 ae a5 b4 3f 48 1e 0e ff 61 fe ae bf
       0.08065307647144206 -0.060534536728536426
0004c0 ce 41 06 d3 e8 bb a7 3f b9 42 1f a9 89 cc 8c bf
       0.04635551048261598 -0.014061999772736799
0004d0 e8 76 a3 7d db b1 88 bf 3a 2d e8 e5 23 56 a2 3f
       -0.012057986041721105 0.03581344777566149
0004e0 41 18 d0 4f e7 cd a0 bf 2d 79 1a c5 86 44 83 3f
       -0.032820919506818765 0.009408047571295508
0004f0 f2 4e 7c e0 1b 2b 9e bf 3e aa 32 49 d0 d2 a9 3f
       -0.029461322380554607 0.05043650525597741
000500 ed 34 6a 67 3f c0 b0 bf b5 d7 de d7 a8 55 b5 3f
       -0.06543346667077161 0.08333831091189732
000510 32 48 55 04 2b 83 b0 bf 1a c7 31 54 a7 35 ac 3f
       -0.06450146537579896 0.055096844699518324
000520 a9 4c c7 9c 91 da 8f bf 8e 7f 4c bf a5 92 a2 3f
       -0.015553605648994955 0.03627508125487032
000530 4d 41 94 92 bd d6 a1 bf 1c 8b 30 cb eb 3c a7 3f
       -0.03484146513267437 0.04538666587202142
000540 9e 0c a8 37 61 a3 a7 bf e9 bd 4e 60 01 5b 99 3f
       -0.046168363613128025 0.024761220458172337
000550 da 40 3c e4 c2 c1 94 bf 17 92 15 ab 66 cd 51 3f
       -0.02027039068258394 0.0010865690822693447
000560 21 dc 7c 7c 95 5b 93 3f 18 e1 5d 7d 99 8e a7 bf
       0.01890405247032956 -0.046009823373369396
000570 38 b2 7c f9 7e d4 b0 3f ac 53 cc 27 8c 93 b0 bf
       0.06574243155473247 -0.06475139590868534
000580 0b d3 f9 2d e1 3d ae 3f 96 f0 9e cd b9 e9 ab bf
       0.05906585394123994 -0.054517561292841396
000590 73 eb 6d 05 88 08 b1 3f bd 73 ef 7c a1 0b b3 bf
       0.06653642780831408 -0.07439622211627657
0005a0 be 1c 18 5a 87 4d b8 3f 84 0d 0f f0 9d 05 b7 bf
       0.09493299436154509 -0.08992945776758715
0005b0 c0 05 dd e9 9c 92 b0 3f 24 51 37 1f 80 83 a5 bf
       0.06473713597826869 -0.04201889401488959
0005c0 36 1c 00 1c 09 21 a8 3f e2 7a ac b4 1e e5 b0 bf
       0.04712704150011186 -0.06599609290104128
0005d0 dd 3b c8 ea 78 9d ad 3f 73 bf de 96 54 d5 af bf
       0.05784204355233389 -0.062174456993829084
0005e0 6c cb 5a 75 a9 ee a6 3f 6f 76 77 68 14 06 9b bf
       0.044789596152802286 -0.02639037978757702
0005f0 4f 9c 72 65 52 17 65 bf 22 57 75 64 20 15 37 3f
       -0.0025745972921700565 0.000352211387924727
000600 6e a4 32 81 4a c3 72 3f e7 ab fa 51 b5 f8 86 bf
       0.004580775293257051 -0.01121656090193386
000610 e2 a6 f2 2b a9 01 90 3f e6 b0 b8 44 73 00 98 bf
       0.015631335551609456 -0.023439217633652108
000620 38 9c 60 9c b7 17 83 3f 1c c8 b6 69 f7 d6 88 3f
       0.009322580775984787 0.012128765977511384
000630 03 84 e0 94 e3 aa 95 bf 0e 12 89 d7 21 58 5e 3f
       -0.021159702264530022 0.0018520670402192327
000640 3e db 39 38 23 e0 c8 bf d5 1e 80 c6 8a f8 b2 3f
       -0.19434013600740657 0.0741049513454713
000650 5a 6a 40 e7 f1 46 8a 3f 9a c3 ab 4b 12 4f a6 bf
       0.012830629224528756 -0.04357201741903012
000660 eb db be 63 33 ee 6e bf 9e 71 6e ba 68 38 b3 3f
       -0.003775692339299299 0.07507948447750443
000670 9e d1 49 fe 74 12 be bf 2f 30 ec d6 c0 5f bc 3f
       -0.11746913154804026 0.11083607909330405
000680 7a cf d8 b9 29 a0 b5 bf f7 ed c2 52 f8 78 a5 3f
       -0.08447514331129283 0.041938552954402235
000690 00 93 c4 6a ff 72 8a bf 5f 6c 23 b5 99 b0 9b 3f
       -0.01291465324954677 0.027040864640053616
0006a0 2c 36 e3 5d a5 d3 af bf 6f 60 10 7b 46 4c b4 3f
       -0.06216160555923653 0.07928886894694796
0006b0 65 13 73 59 0d aa b7 bf 8c bb 9b d0 73 63 b3 3f
       -0.09243853982759516 0.07573627322174853
0006c0 55 fe 65 6b d6 f2 b0 bf 23 90 72 10 4b 63 b2 3f
       -0.06620540735274834 0.07182759429503043
0006d0 8d 53 fb 67 ad 48 b6 bf b7 c9 a1 06 18 cd b0 3f
       -0.08704646862618244 0.06562948381341625
0006e0 ba 1f 00 f2 f5 3b 9a bf 0f 86 32 03 7a 40 64 bf
       -0.025619357009446488 -0.002472151094097048
0006f0 08 7c 35 71 03 ab a3 3f 52 d4 4e b7 a7 d4 b5 bf
       0.03841410405106421 -0.08527610993663018
000700 17 68 5a 15 2b ba b9 3f ad 8e 4e a5 00 34 ac bf
       0.10049695273701818 -0.05508424775987684
000710 c9 78 7d 78 79 e8 93 3f c3 fa 3b 5a 6e ca aa bf
       0.019441507319577753 -0.05232567645542965
000720 24 41 54 05 fb a2 bd 3f fa 9c b5 f7 85 9f c7 bf
       0.11576813583474582 -0.1845557651060757
000730 3d 87 80 d8 78 84 cc 3f c1 85 5f c6 bf da ce bf
       0.22279272624387572 -0.24105069338024346
000740 ac 3e 36 aa 63 3c cc 3f e5 cd 64 fa 5e e3 c5 bf
       0.2205929356682551 -0.1710013125062765
000750 5f 82 79 43 8f 0c ba 3f 3b 0a 3f 8d a3 2a b3 bf
       0.10175414464311804 -0.07486936758417866
000760 4f 67 d3 a3 7a 7e b0 3f f8 e7 cf 1b 8e 6c a6 bf
       0.06442991733220292 -0.0437969597769125
000770 e3 62 6a 86 cb 4e 91 bf c1 b7 dc 64 e6 37 a2 3f
       -0.016902141646457102 0.03558273297527093
000780 3a db 2e 68 b6 c7 9c bf e1 30 f0 c6 a6 6a 95 3f
       -0.02810559283144729 0.020914655582644385
000790 8a ed 96 dd 1f f9 ad bf 11 33 a6 b7 45 3e b8 3f
       -0.05854129390669545 0.09470020040152984
0007a0 71 01 45 e9 b5 fd c2 bf 8c 78 7d f7 02 2d c6 3f
       -0.14836763277163414 0.17324864468077228
0007b0 e1 c8 55 c3 bd ef c8 bf 68 86 28 3d 8e fb c5 3f
       -0.19481632268759255 0.17173936830754433
0007c0 30 47 17 df 0b 93 bc bf 1d c2 a7 4b 7b b0 94 3f
       -0.11161874958568485 0.020204473965295223
0007d0 2c 68 b8 a7 f9 57 a2 3f 28 62 d5 8d 1e 92 99 bf
       0.03582744762771059 -0.024971463591415027
0007e0 2c 62 d0 0b 7d b8 a9 bf ba de 9f 8d 13 c3 bb 3f
       -0.05023566025937884 0.10844537932995993
0007f0 c5 8e 36 cf 28 77 c0 bf fa f8 82 0c a6 8c ba 3f
       -0.12863645665958337 0.10370862775286929

encoder1.bias f8 [101]
000000 fc 3b f2 93 86 c0 eb bf 2a c7 f3 50 e3 b3 c5 bf
       -0.8672516717505228 -0.16955224468943558
000010 92 be ed cb e4 b9 c5 bf 29 8d f8 8a c8 d2 c2 bf
       -0.16973552663283847 -0.14705759797753018
000020 89 dc e5 eb dd 21 c7 bf 2b 84 54 de a6 cf c1 bf
       -0.1807210351796338 -0.13914953094448043
000030 73 c9 d3 09 5d e8 b9 bf 1a 85 b4 3a f1 e1 c2 bf
       -0.10120183458255898 -0.14752021185362524
000040 dc c7 43 ef 39 8a c3 bf de ae 66 ee 16 20 fd 3f
       -0.15265583212709444 1.8203343689482874
000050 68 12 6b 81 ed 8a be bf 09 ce b7 89 01 74 c6 bf
       -0.11930736932397112 -0.17541522240172494
000060 ed c2 38 20 b5 f4 bd bf c4 ef 33 41 ae aa 02 40
       -0.11701519047415916 2.3333401769614017
000070 c4 db 14 a9 1e ab bc bf ff b7 11 24 7d ef be bf
       -0.1119860804363802 -0.12084180956455269
000080 60 24 0e 86 d6 38 bb bf 17 22 9f 2e 5e 6a d4 3f
       -0.10633602879365034 0.31899218132869706
000090 fc a1 6d 74 b3 a0 c9 bf ff 8c d5 b4 7d 96 b1 bf
       -0.20021670517895973 -0.06870256104371107
0000a0 f3 7d 88 ac 95 50 e7 bf 60 59 26 17 06 bf 7c bf
       -0.7285869951046479 -0.00701811198304933
0000b0 21 c9 b3 25 49 51 c2 bf da 12 2c 2b 6b d2 c3 bf
       -0.14310564366275805 -0.15485896690383677
0000c0 d1 fe 7a 23 87 15 b5 bf 07 c2 dc 9d fe dc d0 bf
       -0.08235973945829335 -0.26348843971484864
0000d0 1a 5c bb 93 45 15 cc bf 3a b7 5e f8 a8 63 d5 bf
       -0.21939916337461868 -0.3342077661026114
0000e0 69 6a f3 88 08 8b c3 3f e5 d8 63 6d 34 56 bd bf
       0.152680460806397 -0.11459663077025402
0000f0 48 3d 79 5b cc c9 c2 bf 7f 87 99 9b b1 7b c4 bf
       -0.14678339449390365 -0.16002483461039316
000100 36 e0 8d ae 02 9f cb bf 23 d8 f8 c2 89 06 e2 bf
       -0.2157901146235887 -0.5632981117294132
000110 36 6a 8f ad ff 69 e1 bf cc 8a 68 5d 5a a4 c5 bf
       -0.5441892995689332 -0.1690781551452204
000120 c1 37 19 89 56 5d f1 bf 2c 08 e1 28 62 48 e9 bf
       -1.085287604847949 -0.7900858686846326
000130 19 e4 26 31 75 0b c2 bf a4 f2 67 da 82 10 d5 bf
       -0.14097466373439785 -0.3291327603217644
000140 38 1a eb 18 4a c5 d7 bf f3 2e c5 3c 49 17 ba bf
       -0.3714165919631429 -0.10191781743668198
000150 4b 6b 46 68 75 6c c8 bf ed 42 aa 9e 7b cf c7 bf
       -0.19080989448124294 -0.18601937529867688
000160 3e 66 a2 94 ce 1a c0 bf ed 6c 01 a1 ec e9 c2 bf
       -0.12581808335817074 -0.1477638040695192
000170 72 1b 73 af be 5a cb bf 65 b5 d3 d6 fc fa c5 bf
       -0.21370681349636872 -0.17172203530882793
000180 c3 75 bd 82 3b a4 c4 bf 92 9a 70 33 7a 6f c2 bf
       -0.1612619770411766 -0.14402701865875095
000190 19 b5 97 94 bd 85 c6 bf c3 9e 0a 68 f4 05 b3 bf
       -0.1759564376401748 -0.07430961170268362
0001a0 72 44 46 17 d4 a1 c2 bf 1c 4e df ad 82 6a c0 bf
       -0.14556361328553497 -0.12825044145448394
0001b0 72 70 4f 0c 2c ce bf bf a2 83 31 62 70 00 c0 bf
       -0.12423968601746241 -0.12501339716530163
0001c0 2c 8d 0e d0 aa b9 d4 bf 9a bc 7d aa 75 a1 c1 bf
       -0.32383222883273066 -0.13773985695613505
0001d0 09 71 45 7a 5c 61 bb bf b6 90 44 dc f6 c8 bf bf
       -0.10695436463487708 -0.1241602218402161
0001e0 0d ac f2 0a 50 44 f2 bf e5 f0 30 69 93 02 c5 bf
       -1.141677897229559 -0.16414110790527228
0001f0 d6 08 00 6c b1 2d b2 bf 99 4e bc e3 26 b1 c0 bf
       -0.07100972067567865 -0.13040624732876863
000200 6f 49 75 d6 af 2c ca bf 2d 34 ce 6c 51 c5 c4 bf
       -0.2044887349280304 -0.1622716695095802
000210 a1 25 8d 03 27 04 d0 bf aa 3d 90 30 0f cb bc bf
       -0.25025344225704244 -0.11247343955641634
000220 f4 f2 1b 9d 1e 57 cb bf 99 ef 09 96 f3 8e de bf
       -0.21359617873522263 -0.47747506763675457
000230 a0 c3 e9 22 ad e2 ba bf fe a9 d3 2f ab 84 c0 bf
       -0.10502130606052029 -0.12904872737210832
000240 02 aa a2 97 c7 39 c4 bf 73 2b d0 70 a0 bb c0 bf
       -0.15801329521248425 -0.13072591312842582
000250 c3 9f eb 24 d6 51 d9 bf 7a 40 47 fb cd 74 b9 bf
       -0.3956199036169858 -0.0994385469887237
000260 99 4f 8e 74 41 ac ce bf 33 27 0c 69 59 54 bf bf
       -0.2396318263168922 -0.1223808175529058
000270 22 cb 7b a7 c8 72 c4 bf 03 4b 14 89 0c b9 c7 bf
       -0.15975292375477418 -0.18533474629710875
000280 16 78 f4 05 4e 42 be bf 8e 0f e2 75 88 b6 b9 bf
       -0.11819923062691404 -0.10044148328785082
000290 84 bf 3d a5 f0 94 c5 bf da 63 a7 a6 00 15 af bf
       -0.16860778873842375 -0.06070711168621985
0002a0 99 66 e4 6f c2 d7 c2 bf c9 f0 fd ad 20 67 e8 bf
       -0.14720945800290933 -0.7625888250618341
0002b0 8e c9 7f 53 c9 4c bf bf ae db 6d 58 18 58 a6 bf
       -0.12226541794351517 -0.043640862268993316
0002c0 41 0b df 6b 65 9a c4 bf 45 96 15 77 e0 82 c0 bf
       -0.16096179740096697 -0.12899404349006907
0002d0 e7 fe b1 b1 9a 02 bf bf b2 71 06 83 0f b3 be bf
       -0.1211334880663305 -0.11991974781853434
0002e0 de 20 06 45 03 04 c8 bf 01 fd b8 43 05 f1 b4 bf
       -0.18762246008214495 -0.08180268195518538
0002f0 23 4b 04 35 f0 b9 96 bf dd d5 e4 29 55 b5 c5 bf
       -0.022193673358809406 -0.16959633393859877
000300 06 35 51 1b c7 c5 c0 bf 07 16 cb 3c 5d 83 b8 bf
       -0.13103569825981526 -0.09575445875369591
000310 2e f2 5b 58 83 92 ba bf 88 51 b7 81 bc 43 be bf
       -0.10379811198431163 -0.11822107474228549
000320 c7 72 17 84 3a d1 f3 3f
       1.2385811958148893

encoder2.weight f8 [3, 101]
000000 a6 a0 3e 56 e5 eb d4 3f 27 17 3c 31 dd b2 b6 3f
       0.3268979398949433 0.08866674854297384
000010 ef ed 6d c3 23 55 73 bf ad 7b 2f 1f 75 80 99 3f
       -0.0047198674209272115 0.024904089001093577
000020 92 0e 8d 09 d9 a0 8c bf d0 89 79 9b 86 5d 98 bf
       -0.013978667835210321 -0.02379427265112516
000030 ba 3b 71 8c ec 7b 78 bf 3c 3a d8 b2 1f 44 a1 3f
       -0.005977558153133106 0.03372286852037518
000040 d1 4b 48 e1 e9 9f a8 bf f6 f0 20 96 d4 c4 cb 3f
       -0.04809504389790898 0.21694428759099765
000050 c0 b5 51 25 75 a2 c1 3f 61 04 8b 87 fb 9d b8 3f
       0.13777031252122462 0.09616062220722334
000060 4a 0d a3 ec fb 7c b0 3f bc c4 fe 94 4d 6f d2 3f
       0.06440710570591537 0.28804339933692424
000070 68 54 df f3 a2 82 aa 3f a1 c9 ea ab 68 28 b1 3f
       0.051777927655771105 0.0670228404731348
000080 21 07 34 48 ca 6d b1 3f 70 1e 62 87 26 46 eb 3f
       0.06808151495718252 0.8523132938580158
000090 73 a9 66 e5 42 64 b8 bf 3e 4e 69 ec 8a 12 b1 3f
       -0.09527986622439304 0.06668918868791082
0000a0 20 b9 48 95 19 d6 cb 3f 15 09 ab 32 3e e5 92 3f
       0.2174713114668032 0.018452617495094154
0000b0 78 88 f0 e4 d4 58 89 3f 94 4c 8b 4d f8 ab 74 3f
       0.012376464115792837 0.005046815808515199
0000c0 08 16 4f fc 92 bb af 3f b2 bd 3c d9 61 b2 b1 3f
       0.06197795228903763 0.0691281466831615
0000d0 8b c4 61 3a 37 24 95 3f 9b 80 3c d7 4b ad bf 3f
       0.020645964563702306 0.12373804096978562
0000e0 91 20 6a 29 5d 4e da bf d3 34 f5 4b 42 8e 98 3f
       -0.41103295368567055 0.02398017490968558
0000f0 67 95 ca 33 84 d7 b8 3f b1 a6 c4 0d 12 42 93 3f
       0.09703851952015939 0.018806726541845623
000100 e5 c5 e6 c5 7b 62 b4 3f 9c 47 eb ff d8 b1 a3 3f
       0.07962773877695602 0.03846624492656689
000110 d0 b7 c3 e9 e7 f6 c6 3f eb 6e cf 26 73 6d 7d bf
       0.17940997041972517 -0.0071844575986365995
000120 88 42 ac 22 37 96 bb 3f ed 51 e3 b8 af cb ce 3f
       0.10776085468774899 0.24059101608021596
000130 6e a8 7d 2a 92 67 a0 3f a8 74 85 f4 ce 15 e7 3f
       0.03204018372237348 0.7214121604735242
000140 05 df e9 0c 03 46 a5 3f 0f dd cf b6 a1 df b6 3f
       0.04154977352749082 0.08934984887297424
000150 1d 93 68 61 47 48 a3 bf 03 58 2d b0 3d dd a9 3f
       -0.037660818710980794 0.05051605964278851
000160 c7 f0 fc dc 7b 67 ab 3f f0 4c 77 56 69 62 a8 bf
       0.05352389404876728 -0.04762581997388249
000170 8f 65 bc 8d 43 ea ba 3f 4c 95 5f 1c 4c 9d 59 bf
       0.10513708315229152 -0.0015633815069063415
000180 05 97 63 d0 1c 18 c2 3f 29 ba e0 57 52 45 79 bf
       0.1413608567738082 -0.006169625905427392
000190 fb 7e 67 46 fd 89 97 3f d3 24 ef 49 87 5b e9 3f
       0.022987325117241202 0.7924229091669538
0001a0 7b 00 4c 39 aa 95 a9 3f 71 41 5d 02 59 60 b4 3f
       0.049969977850197154 0.0795951491138618
0001b0 3a 6f 91 62 1a 1f ae 3f e0 81 de 6e 12 08 a4 bf
       0.05883104756568831 -0.039124084504922996
0001c0 43 9c c0 e0 54 93 b2 3f e8 a9 fe c7 bf 53 98 bf
       0.07256060111159095 -0.023756977636063242
0001d0 70 70 19 53 08 01 af 3f 03 e0 99 a9 c8 2b 9f 3f
       0.060554752487150476 0.030440459586742474
0001e0 8f 03 a2 24 34 bb a0 3f 95 4d 2c 02 e7 53 a4 bf
       0.03267825076273489 -0.03970262433554265
0001f0 63 38 32 3e 61 79 e2 3f 72 40 22 aa 1d c4 ab 3f
       0.5773168768662454 0.05423062040165484
000200 47 8a 52 e0 f9 20 67 3f 10 c5 a6 54 99 91 ad bf
       0.002823341407365096 -0.057751456817081714
000210 ca 4a 11 3c be 26 bf 3f 3b c1 88 24 ca b2 ab 3f
       0.12168492285244806 0.054098431548825286
000220 ac 1f 72 37 b4 22 b2 bf ab 7c a9 3b c0 b4 c2 3f
       -0.07084204057366489 0.14614108002840473
000230 f1 7a 3b 2d 96 b3 b7 bf d9 72 05 f9 94 f0 a0 3f
       -0.09258402447037974 0.03308549442110626
000240 e2 97 22 20 11 a3 ae 3f d2 97 96 66 5a 36 9b 3f
       0.05983785168909585 0.026574528228273504
000250 20 62 df 29 db 12 c8 3f 86 1a 19 57 02 01 aa 3f
       0.18807544273910626 0.05078894913872482
000260 4e 4d 7f 6e 35 df b5 3f 12 e1 c6 94 fc aa 86 3f
       0.08543714473426187 0.011068318643865403
000270 f7 6d ea dc 43 3f b0 3f 7b 2d 43 3c e7 17 2e 3f
       0.06346534865809149 0.00022959420869593156
000280 ee 89 cd cd 94 76 90 3f 7a 62 fd b9 a8 da 85 bf
       0.016077351628505036 -0.010670965362508545
000290 a5 e5 a0 61 11 63 82 bf 23 fe bf b1 67 af b5 3f
       -0.008978019515882016 0.08470771874998966
0002a0 a6 bd 17 2a ce 24 a2 3f 5c 79 d8 df 00 59 cc 3f
       0.035437052381776454 0.2214661686893561
0002b0 f0 40 d1 76 c3 c3 95 bf 62 26 38 28 8e 11 ca bf
       -0.021254591109312437 -0.20366074527582884
0002c0 f8 c3 ea db d3 3a b4 bf 7d c4 c1 fb b6 94 84 3f
       -0.07902263754910155 0.010049275930415153
0002d0 de 4a 50 db 9a e0 c0 bf a1 51 c6 05 33 3e a6 3f
       -0.13185439785646386 0.04344329305164086
0002e0 33 38 07 c9 a3 88 70 3f f1 41 15 1a 12 7c 94 bf
       0.004036559854695243 -0.020004542200071588
0002f0 2e f5 aa cd 31 02 90 bf 43 c7 4e 8f 8e 8c 91 3f
       -0.015633371522871524 0.017137744423684664
000300 e3 8b 32 f1 5e bb a3 3f 43 d6 a5 10 6d 54 66 bf
       0.03853890127472661 -0.0027258043457390204
000310 bc fb a2 ff f3 54 c1 3f 27 ce 07 ce f4 ca 64 3f
       0.13540506345995407 0.0025381833404425516
000320 6e 18 d2 57 88 e0 b4 3f 72 e2 70 44 b5 f1 93 bf
       0.08155109542903613 -0.01947673063497963
000330 f4 4f d9 ab b9 2b ad 3f 4a ed 6e b6 a8 60 ce 3f
       0.056974222400327706 0.2373247996127737
000340 b9 e9 f5 11 c4 18 d5 3f ca 12 28 ba da 9c d9 3f
       0.3296365905186139 0.4001986329970292
000350 f1 c2 90 bc 3a ff cd 3f 11 08 88 10 8a c3 c7 3f
       0.23435148436831058 0.18565488631435348
000360 5b 27 3e 1b 87 8b c7 3f 3a ca f2 ec d3 3f d4 3f
       0.1839455492993761 0.3163957418393327
000370 dd 4f 8a 73 fd b6 c7 bf 62 7b cc 10 c4 29 b4 3f
       -0.1852719129716424 0.07876229677320404
000380 89 a0 4f 3b 53 ba b7 3f fb 3b 90 c3 bc 57 c1 3f
       0.09268684576056975 0.13549003170962223
000390 20 dc 5a c1 6e 89 e4 bf 24 f3 ce 28 04 da c3 3f
       -0.6417764450515087 0.15509082787129913
0003a0 e2 95 28 68 11 7e c2 3f cb 3e d7 fd a1 d8 c1 3f
       0.1444722899042708 0.13942360777445226
0003b0 96 47 20 df 98 09 e1 3f b0 47 3c 9d ff 4f e7 3f
       0.5324215276652804 0.7285154410367252
0003c0 26 aa 78 8b fb 46 c0 3f e8 2e 05 88 7f af ac bf
       0.1271662169468339 -0.056026444772752815
0003d0 c8 48 e4 0d 94 4c e8 3f 6e 38 0e 32 7d 6a ea 3f
       0.7593479415247879 0.8254991510055001
0003e0 5a 27 5c 7a 89 a8 cd 3f 44 85 53 e0 3c 57 c0 3f
       0.23170584177597214 0.12766228631429943
0003f0 69 c7 4c 45 db c8 ae 3f e1 4b 07 d2 80 e7 e6 3f
       0.060126163682425134 0.7157596685523197
000400 90 70 d8 6a b3 ff ea 3f 19 7a 6e e5 1d fd c6 bf
       0.8437134825540102 -0.17959951117241316
000410 de d3 4a d6 71 54 c2 3f 35 0c ab 1a 50 a2 b4 3f
       0.14320204699984534 0.08060169840887073
000420 74 64 6b 84 1f 06 c2 3f 5d de ac 1b a0 d0 e8 3f
       0.14081186261936163 0.7754669704945162
000430 3c 95 1f 30 b7 9f ef 3f 61 66 3a f7 c9 c6 b3 bf
       0.9882465305242145 -0.07725202833025825
000440 59 dc 02 9b f2 e4 c7 3f b9 d4 34 14 34 bd f7 3f
       0.18667442864327446 1.4836922444640506
000450 2c 65 79 96 eb 96 ae 3f 6e 98 7d 00 0b bd c3 3f
       0.05974518024295103 0.1542066337962668
000460 98 8f 78 ab a8 bd da 3f cc 30 22 9e 59 53 ed 3f
       0.41782585854729737 0.9164245689912831
000470 40 b3 de c3 2f e5 b3 3f d2 1f d1 f1 f2 5c e4 3f
       0.0777158597181371 0.6363463137613456
000480 07 76 a0 11 0b dc e7 3f 9b 89 e4 84 92 a9 c5 3f
       0.7456107467912155 0.16923743714239667
000490 a4 7c c1 cf 67 42 e0 3f f0 40 e5 86 9a 24 bb 3f
       0.5081061418276431 0.10602727692935665
0004a0 26 72 cb ab 1c 01 b0 3f e4 7b 2f 33 32 70 7f bf
       0.06251696771818924 -0.00767535790779925
0004b0 f9 ff f1 cf 3c 0c ca 3f 80 41 fc cc 2e fc c7 3f
       0.20349846032695476 0.18738350876857268
0004c0 34 fb 80 76 c5 77 df 3f c2 d6 f9 91 8b a7 c6 3f
       0.4916852624191279 0.17698807361346353
0004d0 7d 20 04 50 8a 17 b9 3f 35 f2 ac 4c ee fa c0 3f
       0.0980154462196214 0.13265780204700808
0004e0 20 f9 2f 4b 16 4c dc 3f e2 83 05 fe 33 81 b5 3f
       0.4421439871074586 0.08400273276994555
0004f0 31 82 d9 fb ff d9 d3 3f f5 a8 a3 02 01 9d bf 3f
       0.31018066019717866 0.12348944010196646
000500 af f6 f9 47 5f 3d c9 3f ca 20 0d 8b 04 1e d2 bf
       0.19718543066476488 -0.28308213786341396
000510 85 88 33 70 28 5f db 3f 00 93 c6 92 0f 6e d5 3f
       0.4276829810825194 0.3348425801616912
000520 0b c1 c4 52 e0 70 c0 3f e3 9c 70 ab 75 cb d6 3f
       0.1284447101729785 0.35616819135834826
000530 57 72 76 29 4d 92 dd 3f 80 e8 04 10 97 fd bc 3f
       0.46205452965822275 0.11324447766392787
000540 81 c5 32 77 e8 60 b5 3f c2 45 0d 00 5b c2 e6 3f
       0.0835099497806109 0.7112250329029666
000550 80 f6 55 f0 d4 3a 9f 3f 6c 9f db 4d 12 e6 d0 bf
       0.030497862976963663 -0.26404244998274495
000560 9a ec d4 e3 b4 9c c7 3f 6a af c7 f0 3a 57 c4 3f
       0.18446980595203827 0.15891205555760318
000570 b6 93 75 b8 e4 72 c6 3f 1b 6c d5 6f bf ce b6 bf
       0.17538126951981575 -0.08909222107233498
000580 9b 7c af 44 ce b2 c4 3f 8e 1c 56 8d 7e d8 b9 3f
       0.16170671800407352 0.10095969153018045
000590 2c 67 b9 fb b2 4d c6 3f 64 d0 ff 81 7c f6 be 3f
       0.17424618998739427 0.12094858335314168
0005a0 5a 56 da 7b 1f 06 e6 3f 1f 05 fe a5 cc cc c6 3f
       0.6882474345208707 0.17812498192874046
0005b0 72 cf 08 97 84 10 c7 3f 1b b6 87 81 b8 e4 d4 3f
       0.180191587207101 0.3264600052778818
0005c0 49 92 91 48 2b d4 b9 3f be b1 a5 d8 b3 11 e7 3f
       0.10089369317717813 0.7209109527007553
0005d0 d0 6c 80 f3 c9 36 a1 3f 06 db 13 78 b5 b4 d2 3f
       0.03362113091881158 0.29227959371876044
0005e0 5c 1d 54 cb 8c 72 d1 bf 67 28 da 4c 2a 0e e3 3f
       -0.2726165757780643 0.5954791546839829
0005f0 a4 9a f7 e1 5d fe ca 3f ec ea 87 b0 6d b7 e4 3f
       0.21088765653185704 0.6473911712522216
000600 ee 4c 74 cb 9c 48 c4 3f de a2 6a 4f 6a a3 ca 3f
       0.15846595701496063 0.2081120384002792
000610 40 f7 7e 61 92 65 c3 3f 72 61 41 39 db c7 e5 3f
       0.15153722534699376 0.6806465261716268
000620 ad 16 ea df e3 c4 c5 3f 69 e4 0b 5c 31 8f c6 3f
       0.17007111008949974 0.17624489778953326
000630 ad db 37 60 de 11 c9 3f cd c7 d9 7a b3 77 75 3f
       0.19585780809549416 0.005241108983328813
000640 7c f9 1d 24 b2 fb c9 3f a9 84 9d 89 16 b6 c3 3f
       0.20299364818124477 0.15399438590524042
000650 4f a8 c6 13 9e 9d ea 3f 1c a1 d1 8d 6f a7 df 3f
       0.8317404161691772 0.49459446763514037
000660 50 f8 1e 02 7b 5a d1 3f 4d c0 c4 54 9f 0c d2 3f
       0.27114749152304274 0.28202040937595
000670 c4 8b b7 4a 56 e9 c5 3f ae 6f 70 16 a8 2f cf 3f
       0.17118338249482978 0.2436418637815882
000680 b2 41 e0 d6 f7 7a d8 3f 60 aa 38 7e e3 1a d8 3f
       0.3825053785704099 0.37664115263274844
000690 df ce 87 f1 cd 08 cf 3f 19 90 a5 5d b3 34 db bf
       0.24245619100076163 -0.4250915922659729
0006a0 0e ee 90 b6 fb bf db 3f 05 99 d9 0a 3e 82 dc 3f
       0.433592727935065 0.445449362369246
0006b0 43 fc 80 58 9c 6a e0 3f 81 72 75 53 cd 89 dd bf
       0.5130140045729451 -0.46153576994201023
0006c0 15 0c e8 7a 35 12 dd 3f aa ba b3 0d 2a 97 dd 3f
       0.45423638346272927 0.4623513349351166
0006d0 e9 8b 12 9a bb db db 3f 05 a8 ab 3e 4e 71 c1 3f
       0.43528642698419034 0.1362703138359508
0006e0 26 e7 d4 21 4d 29 a3 3f e5 71 62 1c cd ec d9 3f
       0.03742447889312776 0.40507819911888837
0006f0 96 ab 59 bf fd 52 e6 3f 5d 08 eb 80 03 ed 9a 3f
       0.6976307618436859 0.026294760459457545
000700 c7 2b 6b d4 f3 54 b0 3f dc 63 af af 76 8c d1 3f
       0.06379627166749834 0.2741982188868499
000710 39 3a a4 f7 6b dd df 3f 87 6f b3 97 2f 32 df 3f
       0.4978895109533457 0.48743810476820965
000720 04 52 c7 13 36 84 b8 3f 39 5a d0 af 17 8f 6a 3f
       0.09576738341213092 0.003242059958675794
000730 e9 5a d9 72 d0 8d c6 bf 35 51 ba 7e e9 05 d7 3f
       -0.17620282752860497 0.35973584533464315
000740 ea 4b c8 a6 b1 7d de 3f 1b 89 51 48 6c 21 db 3f
       0.47642174994797293 0.423914976714643
000750 8c 3a f2 7a 65 ee a0 3f 2e f4 f0 98 32 46 84 bf
       0.03306882024582078 -0.00989951638450223
000760 90 68 a8 63 7f 46 e3 3f 47 17 54 02 3e ee d5 3f
       0.6023556658212943 0.34266615130797046
000770 49 26 63 45 0b bb c1 bf 3a 57 df 11 81 12 e8 3f
       -0.13852063072254087 0.7522588109083934
000780 fa de f0 aa 85 a1 d8 3f d2 f3 c9 6c 78 8c d8 3f
       0.3848585290283918 0.3835736334220289
000790 66 1b a5 21 cb 07 aa 3f 9f 50 7e fb 96 97 dc 3f
       0.050840709549951055 0.4467523056021125
0007a0 bd c0 17 70 06 a7 af 3f eb 0c 07 9e 0a 1a ad 3f
       0.06182117574997068 0.056839305677863404
0007b0 f7 4a 86 1e 26 f2 db 3f ab 1b 41 1a 44 fd b3 3f
       0.4366545961467376 0.07808328286146941
0007c0 59 5f 16 eb 55 90 dd 3f 82 c6 5f ad fb b2 da 3f
       0.4619345470214192 0.41717426234308885
0007d0 8e d6 4a 56 f6 72 e0 3f c8 cd 84 ea 2e 1a d7 3f
       0.5140334782979197 0.36097309972975866
0007e0 ad 25 82 dc 9d 9a d7 3f e0 81 ab 94 83 2c c1 3f
       0.368812051143858 0.13417095908427168
0007f0 0e 13 fe fd 3a 1d de 3f 70 74 65 d6 50 87 dd 3f
       0.47053408435776667 0.46138401925219963

encoder2.bias f8 [3]
000000 fe 14 52 76 36 64 f5 3f 79 da 7e e3 a8 c7 f4 bf
       1.3369660016917915 -1.298745049147014
000010 e5 a8 a0 e7 82 fb f1 bf
       -1.1239041374160987

decoder1.weight f8 [101, 3]
000000 1e 87 9a f2 41 30 e6 bf 26 8e 0a b5 38 82 c2 3f
       -0.693390821299747 0.14459904518035777
000010 8d 0c af 4f 89 f3 bd bf 05 dd 12 22 63 7d ff be
       -0.11699732013134874 -3.0031007672373846e-05
000020 f1 9e 21 bb 83 ac af 3e b5 e7 96 70 73 e8 c2 be
       9.439553336877742e-07 -2.254010614347188e-06
000030 fd 01 1c 19 53 2e dc bf e0 d8 fe 55 3b b9 c1 3f
       -0.44032742931452146 0.13846532534598222
000040 82 ed 7b 4a 6d 63 c7 bf 06 2a a6 99 49 1e 43 bf
       -0.1827217687312946 -0.000583444535821543
000050 72 0a ec b0 cc 73 50 bf a3 69 d1 37 36 33 e7 be
       -0.0010041712700405128 -1.1062644029437312e-05
000060 92 81 38 21 06 e4 5f bf c7 2d 87 0a ef 72 71 bf
       -0.001946454988576905 -0.004259999994654823
000070 ea 15 f7 bc da 1c 6b bf 2e 21 5e b5 1a f6 15 3f
       -0.0033096573094748465 8.377588286923442e-05
000080 af 5a 54 f9 5f 75 16 bf b2 b8 3b a6 1e 33 28 bf
       -8.567236212218375e-05 -0.00018462895524557415
000090 1f 78 88 cf 7f 68 1c 3f 13 4d b2 95 dd 78 20 bf
       0.000108368683762156 -0.0001256723870467288
0000a0 22 45 4c 7f b8 91 20 bf fd a9 66 12 84 cd c8 3f
       -0.00012641312755382836 0.19377184771049363
0000b0 ba 10 b9 b6 c1 7c de bf 44 3a a9 0b 87 ad d2 3f
       -0.47636454433473896 0.29184127939962345
0000c0 f1 24 c0 59 50 12 c7 3f f7 12 e0 a6 87 23 d1 bf
       0.18024639494277708 -0.26779357239165286
0000d0 6f 48 9e 5e 64 3d d6 3f 65 80 2f 15 88 c6 40 bf
       0.34749707450931216 -0.0005119480578024248
0000e0 1c 4a 77 de 73 83 45 bf 17 7a 7f 80 96 17 37 bf
       -0.0006565395132674431 -0.00035235809673209287
0000f0 4f 05 c8 1e d8 e1 17 bf 60 4e 9c d4 a7 9a 22 3f
       -9.11033782316124e-05 0.00014193819725304407
000100 ea 28 fc 10 72 fd 50 bf ac 5d ce 68 f6 2b 79 3e
       -0.001036988633077269 9.377199656904019e-08
000110 e1 67 7c a4 c1 cb ba 3e fb 9d ea b7 ee 97 e2 3e
       1.5971615016708543e-06 8.866065170322858e-06
000120 b5 7d 74 d5 cc 80 21 3f b7 2c 4d 9b 3f bb 46 bf
       0.0001335382500906431 -0.000693708475048813
000130 55 3f ca 6b 73 8c 43 bf e6 22 79 24 a0 d9 a1 be
       -0.0005965770320290701 -5.319744297928053e-07
000140 e5 08 90 8d 7e c2 a7 3e 60 9d 9a 47 5e d3 b5 3e
       7.080955369833854e-07 1.300910552984518e-06
000150 70 9d 87 bc 0f ad 44 bf 87 73 ad 9a 4c 74 2b 3f
       -0.0006309820974452051 0.0002094596396443849
000160 e7 77 20 50 8e 06 60 bf e3 d9 d2 c5 ea 1f dc bf
       -0.001956251101559825 -0.43944806402887887
000170 f9 0b 02 8f 75 1d da 3f 7d 48 1c f6 9d 3b dc bf
       0.40804804769157915 -0.4411387351439158
000180 48 22 7e 1a 25 b4 d5 bf 7a 4d 53 51 70 f8 d0 bf
       -0.3391201742856862 -0.26516349737104117
000190 73 af c7 3d 8d e0 c7 3f 6b 5a 77 3c 3c 7a 49 bf
       0.18654027477839072 -0.0007775110361148534
0001a0 99 ed 3d 9f 19 6d 35 bf c8 39 00 5f f1 99 57 bf
       -0.00032693744218877937 -0.0014405114307042156
0001b0 86 41 d2 99 b6 db 1f 3f 7a 6a 29 ef d6 c1 3e bf
       0.00012152959830503103 -0.00046931741159076496
0001c0 d3 70 da 2e be fe 3c bf 9e 98 ea 71 2b 67 37 3f
       -0.00044242995395805707 0.00035710154217339664
0001d0 e9 71 85 b7 81 21 3e bf 38 a5 09 37 77 e3 d9 3e
       -0.0004597608272172414 6.172308403587256e-06
0001e0 2d b0 de 07 53 6c 76 bf de d3 dc 4b f4 28 33 3f
       -0.005474399889788412 0.00029235805765220706
0001f0 7d cf c6 40 c6 3f 42 3f fe 41 e7 a7 5c 2c 26 bf
       0.0005569189102545416 -0.0001691687684357706
000200 1e 8b eb 36 8e 3e df 3e aa a6 dc cf d3 12 1b bf
       7.449235325226646e-06 -0.0001032773761521453
000210 c8 c6 7f e6 c7 e9 d0 3f 2f ed d5 89 29 14 e6 bf
       0.26426885137253153 -0.6899612133123919
000220 e8 2f 60 90 aa 72 da 3f e6 05 1d f5 ed 38 45 3f
       0.41324867343132476 0.0006476556684235607
000230 a4 56 79 64 5f 9d 52 bf db 71 ad 4e d3 37 2d bf
       -0.0011361533705857374 -0.00022291616854887186
000240 23 c1 b3 9b 03 d6 46 3f 0d 98 1d bc 2e 36 33 bf
       0.0006968991869183188 -0.00029314652430512193
000250 9c 74 db c0 30 30 47 bf db c6 65 d5 96 f2 23 bf
       -0.0007076490453205189 -0.00015218821745182392
000260 50 6d 0f 52 bb ce 42 bf c7 a3 aa 6a 0b f0 45 bf
       -0.000573960747824934 -0.000669484686416693
000270 1e 16 e5 e7 cf f1 c5 3e 06 26 17 80 4b 32 37 bf
       2.6159976293262498e-06 -0.0003539499594721055
000280 c4 00 7f d9 3d 8d 0b bf a9 a3 61 3f fa fb f0 3e
       -5.2550745010206064e-05 1.61974785090367e-05
000290 de b8 f3 75 f2 ec 13 bf 25 01 04 bc 95 cb 20 bf
       -7.601003516175288e-05 -0.0001281376153272697
0002a0 9a 97 9d 6f c5 44 42 3f b9 25 34 96 46 33 3e bf
       0.0005575145762406364 -0.0004608199435130706
0002b0 fe 97 75 1d 1b 7c 48 bf a8 e3 f0 5f 23 e4 34 3f
       -0.0007472164533453005 0.00031877387658912426
0002c0 68 a5 f7 c4 69 31 33 bf 4a 61 89 74 45 da 33 bf
       -0.0002928622461398551 -0.0003029269760524046
0002d0 38 cc 62 b3 23 1b d0 be e0 44 68 15 29 c4 e3 be
       -3.839972853625236e-06 -9.425283377802911e-06
0002e0 8f 2f 38 b4 e5 52 d1 be b5 b1 c0 6b 55 20 b2 3e
       -4.1303199540646416e-06 1.0804118764181382e-06
0002f0 21 eb dc a0 7b 47 9d 3e 19 92 35 2f 01 44 f0 be
       4.362945283835298e-07 -1.551212603824641e-05
000300 1f de 50 ec 94 a9 0d bf 14 df 9d d7 e9 ae 53 bf
       -5.657659270535638e-05 -0.0012013705840824883
000310 86 e0 93 97 ff 08 62 bf db f1 47 76 fc 79 2d 3f
       -0.002201556399651197 0.00022488791286424847
000320 2e 96 5f a4 1a 28 2c bf c5 76 49 9d 19 a5 37 bf
       -0.00021481824131723684 -0.00036079287864319534
000330 8c d3 31 d3 9c 52 00 bf 9e e3 0e 9c 9e 8f ff be
       -3.113308994154911e-05 -3.009892839475928e-05
000340 1b 1d 60 30 17 bd fc be 9e 0f 11 28 d2 e4 2d 3f
       -2.7407298169660187e-05 0.00022807183634842866
000350 06 77 c7 0d e0 1b 4e bf 37 01 fc 09 05 21 40 bf
       -0.0009188503277603739 -0.0004922175030231184
000360 73 50 e6 71 eb f0 e0 be e7 39 91 0a 58 7d b1 be
       -8.078142454327947e-06 -1.0424628647146853e-06
000370 ab 45 1d 9e 92 4a a5 be a3 4b 72 64 61 7e d8 bf
       -6.345301779375211e-07 -0.38271364983773476
000380 43 7a c2 ea d4 d2 c2 bf cf 85 89 f9 3a 43 ce 3f
       -0.14705907309412866 0.2364267080729818
000390 bd 2e 2e e4 d8 97 22 bf d0 1d 16 e4 2e d1 09 bf
       -0.00014185450171698934 -4.924225187169127e-05
0003a0 d0 44 99 c7 5a 15 0d 3f 83 1b 88 cf d7 b2 69 bf
       5.547221458058473e-05 -0.003137036805358874
0003b0 82 90 c7 7b 94 2c 59 3f 52 87 4c 73 1e 5d 70 bf
       0.001536507609778887 -0.003995055147955133
0003c0 6d 55 c2 cf 5d 26 c8 3f 92 b3 1e 0a 3e a2 9c bf
       0.18867085117805563 -0.02796265541808258
0003d0 7c 3b ca b1 bb f2 bb bf 8e cb 7b 07 ec 30 1d bf
       -0.10917256441665119 -0.00011135521514997316
0003e0 8c d9 99 09 6b 00 3d bf 35 c8 e8 09 d1 a7 30 bf
       -0.00044252980442340754 -0.0002541432712944742
0003f0 50 67 24 51 43 7c 64 bf c5 12 e5 12 ed 15 77 bf
       -0.0025006594452294043 -0.005636144704401051
000400 15 fb 43 db 03 14 30 bf ed aa 21 a7 04 2d f3 be
       -0.00024533361580829474 -1.8287517783137126e-05
000410 bf 7e 36 d0 8c 5c 08 3f bc ba 91 42 65 48 39 bf
       4.646591880974387e-05 -0.0003857848374257224
000420 58 19 1c 24 33 ae 1d bf 92 4e a1 03 e4 e9 42 bf
       -0.00011322199955197032 -0.000577198348091961
000430 28 62 a6 9f 57 00 34 bf 64 6f 4d 9b 20 70 00 bf
       -0.00030519618271676813 -3.135299213027803e-05
000440 dc 75 07 1a 65 3a ec 3e aa a6 c7 4f bf 4b 0b bf
       1.3460209459854643e-05 -5.206277453224707e-05
000450 79 ac a3 86 b2 98 30 bf a2 90 10 b2 22 85 34 bf
       -0.00025324209731420567 -0.0003131112771959187
000460 5a d9 61 be fa fd 25 bf 66 1a de e0 32 14 6b bf
       -0.0001677864631266051 -0.00330552994904858
000470 87 36 c9 7a 85 e4 68 bf be c2 51 88 28 cc 54 3f
       -0.0030386549972608065 0.0012693782639667107
000480 cc b7 9c 61 a1 3d 17 bf 68 69 4b 70 79 a9 05 bf
       -8.86564015700468e-05 -4.131700373984326e-05
000490 95 65 65 94 5f 9a ff be 08 cc 58 e5 d2 f4 43 bf
       -3.0138989381844184e-05 -0.0006090192570752393
0004a0 78 e5 33 40 39 5b 10 3f 14 99 46 e5 82 71 1e bf
       6.239449435332066e-05 -0.0001161323683108488
0004b0 e6 01 13 a8 e2 15 30 3f aa 19 ea 95 05 dc 1e bf
       0.0002454450951283868 -0.00011771949855630148
0004c0 0d e4 ae 2c 18 69 2b bf 9b 4d 17 15 a3 9c 62 bf
       -0.0002091257104817338 -0.0022719559862964373
0004d0 ae cb 50 93 7b 4b 61 bf b6 ab 7a 77 60 d3 4d 3f
       -0.002111188276580709 0.0009102078465351635
0004e0 5f 82 8b 86 0c be 45 bf 0e fe b9 e4 81 35 3f bf
       -0.0006635247383109491 -0.0004762117502891968
0004f0 63 aa 6f 8e f1 83 15 3f e7 00 0d dc 43 c5 e3 3e
       8.207475512704005e-05 9.42734084363778e-06
000500 50 1d e2 d5 92 f9 05 bf 68 a0 da c5 3a 17 07 3f
       -4.191378933265466e-05 4.404209242397998e-05
000510 95 90 14 c2 1c b7 42 3f 70 4f 7e f7 fc b8 3f bf
       0.0005711450977839034 -0.00048404861399230833
000520 22 b2 5b 43 95 63 2e bf b1 d6 b9 2f fc e9 b7 3f
       -0.00023184964236779108 0.09341407933410541
000530 00 fb e0 05 88 65 cd bf 0f 0d 08 05 af 71 bd 3f
       -0.22966099059154743 0.11501592514837376
000540 e6 ec 51 93 18 5e 63 bf 2c 31 a9 66 8a a7 5e bf
       -0.002364204405748904 -0.0018709994862034602
000550 32 a9 f1 dc f8 e7 42 bf 1f ea ed 00 e8 12 10 bf
       -0.0005769696380302557 -6.131688154013174e-05
000560 59 d5 73 21 fc c6 e6 3e 06 12 b8 fb 53 ab 09 bf
       1.0861055712111754e-05 -4.896020933745433e-05
000570 0c 6f 1e 80 1b d5 54 bf fb e7 3c c7 4b ce 37 bf
       -0.0012715118941519247 -0.00036324834876533236
000580 2c 36 5a bc a5 eb 34 bf 9d f0 70 32 b0 bf d9 bf
       -0.00031922146113391964 -0.40232472349067355
000590 6a ed 31 d7 94 80 a2 3f 1f 85 53 8c b2 81 b1 3f
       0.036137248295711924 0.06838527608808363
0005a0 45 f9 9e bd 85 45 85 be 73 b4 46 8a 3e 21 81 be
       -1.5848556139496808e-07 -1.276274065436804e-07
0005b0 78 5c e3 c9 41 87 79 3e 3a e3 7b 43 2b 07 62 be
       9.510050566777333e-08 -3.3579774015183967e-08
0005c0 71 bf 7c 35 70 c7 80 be e7 bf 44 19 cd de 85 be
       -1.2501370849062717e-07 -1.6294655992002003e-07
0005d0 91 45 9b dc 06 12 06 bf 3f 36 16 ac fc 16 d0 3e
       -4.2095980075661174e-05 3.836105578425947e-06
0005e0 64 cb 87 5e 2b 4c cc 3e a0 bb a6 ab 19 4c 11 bf
       3.3733292534808416e-06 -6.598383598686733e-05
0005f0 c5 4c 03 9c a7 f5 41 bf 2e aa b4 84 d9 02 52 bf
       -0.0005480831532857158 -0.001099312229437498
000600 76 b9 cc a7 72 d2 c6 bf 23 c3 ee 91 c2 24 d7 3f
       -0.1782973594030854 0.36161865473973104
000610 12 4e 98 69 c7 c1 e1 bf 4c 31 b8 7d 2b f0 bb 3f
       -0.5549046575928875 0.10913345164607796
000620 19 8a b8 1c 11 b2 d0 3f 95 41 e9 03 e3 72 d7 bf
       0.2608683376767274 -0.3663871324725048
000630 22 53 30 2f 59 c3 0c bf 33 2b 00 6c 9d 4f 34 bf
       -5.486122054080266e-05 -0.0003099212008243368
000640 81 8f aa c4 c3 0f 3e bf 4c d5 30 e7 27 e0 45 3f
       -0.00045870332238905775 0.0006675906028081129
000650 e1 0b a1 d6 1c 06 5e bf a1 15 b0 6e d9 d9 60 bf
       -0.0018325120568227703 -0.002057003662687421
000660 c6 9b 9c a1 f6 62 bb be b8 e8 58 ce fd 53 be 3e
       -1.632367121870544e-06 1.8076951219374173e-06
000670 3b d8 4b 51 d0 98 d0 3e d0 13 39 85 e1 be 51 3f
       3.957016151847884e-06 0.0010831072185208852
000680 c3 1c f7 23 3a ae 6c bf 7a fa 2f e8 3c d4 64 bf
       -0.003501046710627871 -0.0025426091756338117
000690 e4 62 7c e0 63 f5 32 bf d1 fa e3 ff 6e 50 40 bf
       -0.0002892845954974145 -0.0004978696813678578
0006a0 ab bb c9 85 df 28 f5 3e 2c d0 8b 17 a7 2a 44 bf
       2.0179424938534102e-05 -0.0006154361609263018
0006b0 6a 9c bb 4a 7c ba e0 3e dc 5f de 0f c8 fd 5f bf
       7.976750871786619e-06 -0.0019525960665074315
0006c0 8c b4 0b 26 14 1b 33 3f 05 ca 49 98 0a f7 28 bf
       0.00029153100881169273 -0.0001904678757856522
0006d0 03 4e bb 8f 31 45 37 bf e6 26 ff 67 a2 84 62 bf
       -0.00035507640835172343 -0.0022605106350724767
0006e0 3c 48 df a4 54 9a 73 bf 2a 9e 73 1c 4d ad 4e bf
       -0.004785853043317852 -0.0009361864585146252
0006f0 f5 3e 0e 02 82 9b 4c bf 47 f7 c7 de 2f 53 36 bf
       -0.0008730301670869233 -0.00034065169054985463
000700 a1 24 15 57 58 98 59 bf 69 79 43 25 61 02 27 bf
       -0.0015622008034646211 -0.00017554698809525295
000710 3f 18 1c 2f 89 47 02 bf c6 27 cd 04 a3 10 11 3f
       -3.4865259193537095e-05 6.509776103516473e-05
000720 13 49 0d f5 42 5c 3b bf af 0f 6e 5d d1 6a 3c 3f
       -0.0004174865217027184 0.0004336129326747385
000730 a1 72 c1 5b d4 a2 54 bf 98 f0 d7 10 78 0d e5 be
       -0.0012595247090054012 -1.0038668302840816e-05
000740 06 cf 89 2a 92 78 da 3e d4 2d 96 26 99 e6 f4 3e
       6.311173515006135e-06 1.9932531733197537e-05
000750 3e 87 80 05 f3 0b d1 bf 2f 72 25 62 f3 89 c9 bf
       -0.26635432755766775 -0.19952242176340593
000760 a8 ae 9e 87 4a 60 c2 3f 53 38 18 d6 0c 2d 29 bf
       0.14356357214034188 -0.0001920774621315147
000770 80 fc c8 fa 3a cf 02 3f 08 eb 39 90 47 77 31 bf
       3.587626210732001e-05 -0.00026650902893947436
000780 45 6a f4 b4 85 f5 26 bf a2 59 e6 a5 e1 61 53 bf
       -0.00017516381419897996 -0.0011830047220421154
000790 c6 7b c7 93 c9 a2 56 bf 12 e8 18 49 43 ed ab bf
       -0.0013815849807696664 -0.054544546769150895
0007a0 42 b4 b6 ce af f0 da 3f 2e 94 1f ad 17 f7 d5 bf
       0.4209403532684669 -0.34320632845475785
0007b0 db 0d d9 63 08 6d 27 bf da 1c 81 3a 2c 0c 35 bf
       -0.00017872550408713672 -0.0003211601238075186
0007c0 1c 55 ff 9e da 32 06 3f b8 e7 95 61 d4 58 27 bf
       4.234056166267151e-05 -0.00017812340301387257
0007d0 08 18 43 8f bb 28 ad 3e 74 14 34 f6 9a 2c d6 be
       8.690092543554425e-07 -5.286750681015023e-06
0007e0 39 e0 6c 6f f5 1a 41 bf f1 96 ae 39 1b 39 42 bf
       -0.0005220125593501441 -0.0005561240135320817
0007f0 8c 62 41 76 4a ba 23 3f e1 b5 9b 9e 57 66 02 3f
       0.00015051039656801093 3.5094784676430663e-05
