Trained_models/2/predictor4_100_9.pt (torch, 103639 bytes, 16 tensors)

weight f8 [54, 100]
000000 66 d0 f6 bb 7a d9 af bf 2e 41 01 38 35 4b ca bf
       -0.06220611137851577 -0.2054201625310354
000010 29 11 3e 8e ac ad af bf 20 9c 2d e7 5b ca d7 3f
       -0.06187190281255745 0.3717260129546407
000020 c1 b2 0c ef 2d fa c0 bf ec 4a cf b9 34 fc d6 bf
       -0.13263487026542545 -0.3591434301899159
000030 18 0f f6 80 26 1d d0 3f a0 df f3 61 d4 84 c1 3f
       0.2517791995417027 0.136866138294633
000040 7f 73 2a 71 bc 6e be bf f6 ca 38 96 22 61 cc bf
       -0.11887719881856461 -0.22171432814646835
000050 f8 59 ed d2 ec ae c4 3f 56 31 2a 02 93 f7 c5 3f
       0.16158829020669407 0.17161786657050965
000060 f1 f5 3b 99 fc 4c d2 bf 8c d5 cc 89 26 be 8d bf
       -0.2859488960674233 -0.01452283962280878
000070 c3 ea 46 72 fc d4 bf 3f 40 c7 98 22 3d b4 bd 3f
       0.12434366025892545 0.11603147596977426
000080 99 a7 cd 8d 98 a1 c7 bf c9 4a 31 ec d5 ba be bf
       -0.1846190159224619 -0.12003838554782499
000090 f0 6f ee a8 4e 93 d4 3f f3 27 14 5e ab fd b8 bf
       0.32149092194754214 -0.09762068793148142
0000a0 99 4f b1 91 02 ec cc bf 9d 59 a6 e1 ab 80 b7 3f
       -0.22595245469949246 0.0918071199324459
0000b0 9c ff c1 c1 d0 4c be 3f b5 de 33 07 82 41 9c bf
       0.11835961084761809 -0.027593642892468313
0000c0 2c 8a 66 25 ee 06 c8 bf bf 9f 03 44 3b 45 88 bf
       -0.1877114946956494 -0.011850798619391754
0000d0 bc 1f af a3 16 82 d6 3f 96 f5 a8 61 5c 75 d1 bf
       0.35168996796391716 -0.2727881387434875
0000e0 16 70 1c 34 03 e3 c3 bf 28 da 01 7a 26 6e d0 3f
       -0.15536537212835871 0.25672304072159813
0000f0 a2 4d 98 a6 0a de a8 bf 32 ba 0c 0d 12 50 8e bf
       -0.0485690430033643 -0.01480115988087247
000100 26 c2 e6 fd cb 2e cb bf e0 3a 53 0e 1f e0 d5 3f
       -0.21236562631158157 0.3418042793172571
000110 ce ca b1 d8 35 db a6 bf c7 d2 b3 2f fc 54 d8 bf
       -0.04464119215199035 -0.38018707903328813
000120 2f 28 38 f8 b9 28 d7 3f ff fe 5e 12 48 8a b1 bf
       0.36186074485943015 -0.06851625870239884
000130 cc 85 f7 ab af 52 7c 3f bf e2 4f 95 ef 8c c5 bf
       0.006914793222195081 -0.16836352148654574
000140 ab 83 22 c8 fb e1 bb 3f ad 47 90 b1 53 90 c8 3f
       0.10891698490242045 0.19190450830552433
000150 dc e7 6b 95 26 ad d3 bf 37 de 24 41 36 f0 b6 3f
       -0.30744328109687813 0.08960284319334098
000160 4c 77 f6 10 68 95 a4 bf 83 38 1b ae d2 29 c5 3f
       -0.04020238120140948 0.1653388357285089
000170 80 f2 3e 6c b1 7f b9 bf 6a d1 35 5c 68 f7 c9 bf
       -0.09960469143602246 -0.20286278250172113
000180 35 47 3f 0e 1b 9e cd 3f 5b d9 9f 20 22 5a a9 bf
       0.23138750262892818 -0.04951578758475491
000190 58 b1 49 4b c0 67 b1 bf eb 5e 45 50 4b af ba bf
       -0.06798936689455581 -0.1042372771238395
0001a0 05 64 f9 92 62 19 c1 3f 52 24 d1 a6 23 2d c0 3f
       0.13358719040368797 0.12637754102095983
0001b0 f3 10 70 a0 69 cb cf bf bf d2 3d a5 7a 41 a7 3f
       -0.24839516004443105 0.0454214407645046
0001c0 64 70 46 b5 3e 8c b9 3f 1d c4 5a 80 a9 87 a4 bf
       0.0997962181631365 -0.04009751979663909
0001d0 3d 8f 66 45 67 50 ae bf 75 7a 65 a3 f8 2b b2 bf
       -0.05920717928100181 -0.07098344792528073
0001e0 1a 57 8f 51 ff d2 d0 3f bf 77 b8 f8 30 b7 b5 bf
       0.2628782555087682 -0.0848265273311588
0001f0 e1 c9 d8 85 8a 2e cc bf 09 61 03 be 64 7b d4 3f
       -0.22017032180299537 0.3200313430402422
000200 ff 31 d0 92 5f 6a c3 bf 59 94 bf 2d c1 e5 a4 3f
       -0.1516837565290103 0.04081538852168682
000210 b4 a6 cf f7 6a f9 b1 bf 09 c0 29 fb 80 72 a5 bf
       -0.07021206426693533 -0.04188921991305967
000220 a7 3c 94 52 e2 81 d1 3f b0 92 d7 63 0b f0 d6 bf
       0.27355249466286086 -0.358401153089555
000230 94 c2 e7 15 a4 0c c5 3f 04 56 bf 8a 8a 6d b1 3f
       0.16444827146144247 0.0680777157534394
000240 49 f4 4c 89 06 cf c9 bf a9 27 e0 59 cd 76 c7 3f
       -0.2016304178631876 0.1833130539746979
000250 b0 03 85 e5 f7 ce c1 bf 2c dd 92 38 c2 07 b6 3f
       -0.13912867266665563 0.08605588799661196
000260 12 c3 1a c0 e9 1a ae bf 78 05 37 d8 f8 09 af bf
       -0.05879908056284057 -0.06062295569746373
000270 6d 49 15 24 81 4e c7 3f f6 b6 0f 80 4c bd ce bf
       0.1820832658946289 -0.2401519418048605
000280 9e 3a fd e9 e7 6f 8c 3f 73 98 ea 38 b3 cd c4 3f
       0.013885318592341375 0.16252746848221342
000290 10 58 20 df 53 91 ca bf d4 2b 50 ff d8 22 a0 3f
       -0.20756004710045817 0.03151586643806295
0002a0 c6 3e ef ba 39 42 a2 3f 2a 78 b5 3c 43 87 98 bf
       0.03566151053348458 -0.02395348604238038
0002b0 20 79 01 58 03 25 ab 3f 9a 85 83 44 3d 67 c5 bf
       0.05301676224984164 -0.16721311421774204
0002c0 46 7d cb 41 ea eb c7 3f 63 d2 b5 4a 64 75 a1 3f
       0.18688705647125853 0.03409875308981183
0002d0 54 5c 6d c7 af 9f c9 bf db a0 60 82 2b e2 ba 3f
       -0.20018574941306844 0.10501357968371698
0002e0 a0 92 5d 19 e5 07 ae 3f 72 d3 f8 15 d6 dc 95 bf
       0.05865398344648054 -0.021350236025870335
0002f0 92 c0 b1 ed 4b 8a c2 bf d3 1c 10 05 58 d7 c3 3f
       -0.14484547716302082 0.15500927207197054
000300 7c 16 df 19 24 cc a1 3f 5f 54 61 ee 40 4d c4 bf
       0.0347605973798126 -0.1586075939145841
000310 f7 f6 d4 57 68 9d b1 3f 47 5e f3 8c ec 99 ab bf
       0.06880809921582541 -0.05390872212018088
000320 8c 37 5d 24 29 62 e1 3f 55 18 5f f3 8b 86 cf bf
       0.5432325086819545 -0.24629353888866726
000330 e0 6a 24 4b d8 d0 a8 3f e7 af e3 3b 7c 5c 68 3f
       0.04846836011184563 0.0029737879223059485
000340 82 51 c4 f6 3d 76 95 bf d3 48 a9 01 bb 3d 84 3f
       -0.020958870111898793 0.009883366573522434
000350 f3 cc b1 b3 72 f4 bb bf 0a 07 2f 4c bc ed c1 3f
       -0.1091987312991483 0.1400676128378609
000360 3a 31 f4 5b 7a 3d ba bf bc 8d 9f 87 63 07 a9 bf
       -0.10250057930915527 -0.04888449698026018
000370 bd 64 e9 1c ec 79 c1 3f 47 82 8b f9 1f 60 ad bf
       0.13653327380851535 -0.057373999797850454
000380 19 85 e2 c4 d1 bd b0 bf a2 75 8a 31 df 32 b1 3f
       -0.06539641434439537 0.06718249282353964
000390 ee 53 52 a2 36 25 a4 bf fb 14 a4 87 f3 28 96 3f
       -0.03934641581978569 0.021640591768137245
0003a0 11 bf 97 7c be 94 84 bf 25 a6 22 e5 30 79 c0 bf
       -0.010049331834096205 -0.1286984556984844
0003b0 af 68 a5 5e 9a cd d1 3f e8 34 25 3d 0a 16 d3 bf
       0.2781740116385078 -0.2982202145693251
0003c0 f3 99 89 00 83 be b6 3f d5 72 bc 88 da cf 9b 3f
       0.08884447825548829 0.02716008624621476
0003d0 7a 04 e1 bf fa c1 b5 bf 53 1e 57 40 75 62 b4 3f
       -0.0849911421255615 0.07962735005195869
0003e0 8b c4 d1 f6 dd 2f c7 bf d1 37 a0 fa 51 fb b4 3f
       -0.1811482863591077 0.08195984238429267
0003f0 e2 54 5b 4e 72 2d 93 3f a1 ca 2c 55 b0 ce 95 bf
       0.01872805217029317 -0.021296267698924457
000400 33 99 2b 5e 16 1d aa bf d8 69 fc a9 95 3c ab 3f
       -0.051003169055365304 0.053196599006884504
000410 7d 12 31 19 cc d6 a1 bf 00 63 f7 5f 2c 82 28 3f
       -0.0348418980361531 0.0001869849365750062
000420 4f 51 5b cf 77 1c 81 3f 3e 73 7e ba d1 2a ae bf
       0.008355079665684299 -0.058920434966444266
000430 d4 dd b6 51 e3 6f b2 3f e8 65 7e 81 b4 5d be bf
       0.07201977486589978 -0.11861732636898348
000440 96 cd 58 b0 ef b8 c3 3f 7c 90 29 45 45 13 bb bf
       0.15408130751312105 -0.10576279581579401
000450 00 67 6b ef 5d 3d 95 3f 0e c9 25 d2 83 6d 5f 3f
       0.020741908777245577 0.0019182002366418568
000460 7a a0 5e 4d 31 e4 b1 bf 60 69 ff 37 0a 91 c2 3f
       -0.06988819254786618 0.14505126699698234
000470 94 05 46 df 13 88 c9 bf 94 2b 75 0a 28 14 bc 3f
       -0.19946525957133743 0.10968256240191315
000480 37 0c e5 11 b0 e2 95 bf 33 b5 a4 43 77 6a 91 bf
       -0.021372557728011023 -0.01700769758570182
000490 65 f3 d9 09 66 d1 8d bf 22 e1 15 96 03 42 88 3f
       -0.014559552360191306 0.011844661729569387
0004a0 ba a6 e4 5c d9 3e bb bf 72 7e 7a 21 3b 53 ba 3f
       -0.1064277507581676 0.10283250396104807
0004b0 f0 a8 4d e0 92 bd a5 bf 23 f4 62 c3 06 ec a4 bf
       -0.04246195781782258 -0.040863238669296
0004c0 bd 7e 0e be e6 eb a6 3f 29 88 df e9 c2 08 c1 bf
       0.04476853437449566 -0.1330798761328549
0004d0 b1 87 4c 4b 61 86 c8 3f 1e 0d 91 f0 8b 4b c4 bf
       0.19160095383364031 -0.15855550047317818
0004e0 e1 a4 fe 10 9f f2 a8 3f a7 c7 d2 97 96 5e a9 3f
       0.048726054024266004 0.04954977610886085
0004f0 95 6b d2 33 54 94 ba bf e5 fb 3d 99 a4 7a ac 3f
       -0.10382581963715005 0.055623191553415365
000500 87 d0 c1 05 c8 78 b5 bf 12 a0 c3 aa f3 50 c3 3f
       -0.08387422695688161 0.15090795362561998
000510 1a 88 d7 06 07 8f c4 bf 70 f7 37 02 35 ab 97 3f
       -0.16061485132291936 0.02311404062310579
000520 79 f9 52 8c 31 f7 b7 3f 74 95 55 96 af 24 ab bf
       0.09361562419778648 -0.05301426611076013
000530 f5 fe 24 02 bd 96 aa bf 71 ea f3 ea 6e e9 b3 3f
       -0.05193129206827322 0.07778065906669852
000540 ea f5 6c d1 7b bc b6 bf 6d d8 56 e0 9c f5 a5 3f
       -0.08881353247576099 0.04288950193897354
000550 7e 20 a2 3c 45 44 7f bf d4 f6 6f 62 e9 af c3 bf
       -0.007633467155876981 -0.15380589777480813
000560 1c 45 b8 7c 8b e6 d2 3f d4 b9 32 92 a8 bc d2 bf
       0.2953213422743646 -0.2927647998539247
000570 60 06 f6 7f 8b 4e c5 3f bc 0b 9d ca 3e 82 ac bf
       0.16645950077149774 -0.055681192620361725
000580 bd ce 99 83 b6 eb 98 bf c7 b1 92 b9 46 71 bb 3f
       -0.024336673528934528 0.10719720869628367
000590 31 88 76 7e 23 2c ca bf 1a 61 14 15 5e 2a cb 3f
       -0.20447200465156493 0.21223045377042454
0005a0 4e 11 d5 4a 7a eb be bf 90 4e 04 bc 59 c6 8b bf
       -0.12078060461960158 -0.013561917352979763
0005b0 7d a3 5a 54 48 fe 80 bf 8e 28 70 de 01 bf b3 3f
       -0.00829750544956353 0.07713329010599265
0005c0 f5 c2 bd 0d d1 94 ab bf 6a 47 91 cf c8 6e 96 3f
       -0.053869755675696775 0.02190698401347594
0005d0 6f df a2 83 60 c6 af bf 51 7e df a9 e1 f4 b2 3f
       -0.06206037146460985 0.07404909512796932
0005e0 6c 13 5c 27 b5 d7 a3 bf 75 fa fa 7d f7 dd b9 bf
       -0.03875509362663973 -0.10104319406216596
0005f0 49 1d a2 9f 88 89 cc 3f 05 52 64 61 65 ee ce bf
       0.22294719500153296 -0.24165026908362122
000600 f7 e0 f9 92 0b eb b5 3f d3 03 35 ef 11 d3 ad 3f
       0.08561775530131742 0.05825096173294466
000610 4a ff 51 ce fb eb b5 bf 06 66 e5 84 e2 b6 7a 3f
       -0.08563207423321476 0.006522068825085997
000620 aa cc 68 51 87 dd 84 bf 95 f5 51 dc 86 ad 8a 3f
       -0.010188157245556734 0.013026288603436945
000630 f8 30 56 c7 23 c8 b6 bf 83 c5 48 27 cb 0a d2 3f
       -0.08899139038675574 0.2819087871203793
000640 8f 98 52 b2 a2 52 c1 3f 3a 13 95 af 8c 24 b3 3f
       0.1353343363491075 0.07477645193746421
000650 89 37 84 3e e4 07 a7 bf d6 f8 b8 f3 de 4c a4 bf
       -0.0449820829690984 -0.039648978472983806
000660 31 c4 38 e9 f9 38 b9 3f 97 0b 66 6c 60 d8 c4 bf
       0.09852563804521776 -0.16285329144383517
000670 74 62 52 24 09 ad c9 3f 57 f5 a6 29 3f 76 cb bf
       0.20059313081289398 -0.21454610379979996
000680 0d 22 4b 76 a0 15 c5 3f e9 9b d7 7d e2 c1 bf bf
       0.16472249771165118 -0.12405219623870746
000690 ac f3 54 21 72 4d b1 3f 14 77 2b e6 b1 a4 5c bf
       0.06758797944799139 -0.0017482507034211657
0006a0 c0 db 50 4f fe 94 b3 bf 2f 40 86 fe 56 d5 c2 3f
       -0.07649220882818408 0.14713561466169398
0006b0 8c a7 e2 1d 9d ce c7 bf 09 3e 48 e7 7e 46 c2 3f
       -0.1859928508686689 0.1427763585383988
0006c0 26 7d dc 4a 76 a5 b5 bf 4e d8 30 de 2f 84 a8 3f
       -0.08455600097339708 0.047883506653690774
0006d0 b2 39 2a 96 c5 3b aa bf e5 a9 22 86 6c c5 a8 3f
       -0.051237272816354276 0.04838122498889045
0006e0 45 24 c5 60 e2 e7 ae bf 70 a9 3e 25 16 bb b5 3f
       -0.06036288672709892 0.08488596352859701
0006f0 50 8b 2c da d9 f3 be bf ea 32 41 4b 08 4a c1 3f
       -0.12090837074769678 0.13507178949875903
000700 f7 b3 c2 cb db a5 c1 bf 19 e5 7c ef a3 7e bd 3f
       -0.13787410210844062 0.11521362873908848
000710 20 21 65 04 23 6a ba bf c0 05 9b 90 1e 7d b1 3f
       -0.10318201882649136 0.06831542044076055
000720 62 7a 68 62 ab cc af bf 6a 7b 36 a1 c8 7e a5 3f
       -0.062108379137715955 0.04198290794305744
000730 78 d5 66 ed b8 7d a9 bf 85 b9 aa 86 18 ef a7 3f
       -0.049787310580920285 0.04674603122599578
000740 df 7c 2c 61 e3 0f ad bf 11 c4 2a 4e c3 f4 a4 3f
       -0.05676184235766767 0.040929892818333376
000750 b1 c6 bf b1 ad 5d 9b bf d8 26 95 02 54 4b 96 bf
       -0.026724542592950488 -0.021771729142790658
000760 27 ac 13 92 0d 21 b1 3f 88 d6 86 7e e4 65 b9 bf
       0.06691059891061056 -0.09921100701361685
000770 ed c3 c6 23 ef 87 b2 3f 8d 82 f1 7a 8c a0 a1 bf
       0.07238669036338737 -0.03442801476262956
000780 1d 9f b8 b6 b8 e0 90 bf d4 2c b1 f4 2b e6 b0 3f
       -0.01648224463693203 0.06601214145591722
000790 17 8d 3d 65 d2 d0 bb bf ea 50 3a 9a 92 d1 bf 3f
       -0.10865511867227827 0.12429157510115699
0007a0 7c ae 11 2a 62 ae bb bf b2 fc 86 ca 41 cc ae 3f
       -0.10812963034703132 0.06015210721261023
0007b0 d2 29 d5 e1 c0 47 83 bf 25 5c ee d8 be f2 ac bf
       -0.009414202587000018 -0.05653950117191923
0007c0 1d 14 94 4b a6 5f c0 3f 9f d5 0f db ff 11 c7 bf
       0.12791899385789032 -0.18023679920558508
0007d0 07 0e eb fb d4 36 c3 3f 0a 18 67 38 b5 3e b7 bf
       0.15011083889668006 -0.09080059649485875
0007e0 5a 31 98 b2 be 47 87 3f e7 a2 dc 78 ec c6 a4 3f
       0.01136731131102724 0.040580167535443405
0007f0 e5 08 43 a9 eb 42 b9 bf 09 be 19 a7 6a 74 b8 3f
       -0.09867737657899374 0.09552637652972619

bias f8 [54]
000000 91 16 d1 91 25 ad ba bf 17 59 36 8d 02 d8 b5 bf
       -0.10420450983027708 -0.08532730052533953
000010 8d b8 82 f0 dc 79 ce 3f bf 47 fc 44 e3 c7 b9 bf
       0.23809396499331506 -0.10070629533973284
000020 ec 5f d6 c3 a3 55 b7 bf 1d 78 9f fa 77 90 b6 bf
       -0.09115050822435905 -0.08814191693042557
000030 83 7e 9a 11 00 1a ad bf b8 c9 fd ff eb d8 c8 bf
       -0.05683899130712879 -0.19411993026331031
000040 d1 76 ec 14 43 08 c0 bf e0 66 c5 4f 14 f5 b0 bf
       -0.1252521373907514 -0.0662396139863648
000050 29 2e b0 f6 ad 09 c2 bf c0 f2 3e 47 22 e3 b0 bf
       -0.14092039628336409 -0.06596578826333666
000060 e7 55 3e 25 17 fb ca bf 3c 64 19 38 18 fe c3 bf
       -0.21078767126589001 -0.15619185198991825
000070 65 7a dc c0 fe 85 d4 bf 11 fc fd 2f 5b 03 b0 bf
       -0.3206784137163708 -0.06255121156389999
000080 d6 16 5a a2 90 35 f5 bf 9e 3b 78 b9 70 39 de 3f
       -1.3255773870345613 0.47225587951919035
000090 ac 7d e0 36 2e 3e d5 bf db c0 8d 75 ff 28 cc bf
       -0.33192019805025086 -0.2200011562340539
0000a0 e7 4f 1b ce 31 47 e0 bf 6c 22 a8 50 9e 26 cf bf
       -0.5086907411118745 -0.2433660405952368
0000b0 8f 1b bb 3b f2 8a bc bf de 82 82 d7 17 6e cb bf
       -0.11149515112184204 -0.21429727576198493
0000c0 ed 3d fb 85 05 12 a4 bf 5a bb c4 51 bf d5 b6 bf
       -0.03919999371066383 -0.0891990255956733
0000d0 fc 5a 80 6a 97 78 c4 bf 61 e0 3f 45 7f 3f a3 bf
       -0.15993015957129575 -0.037593819812116853
0000e0 e5 21 d2 c3 0f 25 b9 bf 9b 42 bc 89 f1 06 bf bf
       -0.09822176485807395 -0.12119969952278568
0000f0 39 aa dd 1b 3a 06 cf bf 0a 9d e1 e7 f1 4e f3 3f
       -0.24237753258360487 1.2067736680854204
000100 88 f1 98 41 ce 3d b4 bf f6 24 fa 1f f3 6e c0 bf
       -0.07906807996272935 -0.12838591634162072
000110 02 24 88 da ad ed b4 bf 12 35 5a f4 76 9f d1 bf
       -0.08175169549225816 -0.27535795080696446
000120 b8 f6 92 3c d5 32 b1 bf 1a 5d 14 e4 ca 36 f5 bf
       -0.06718189934596352 -1.3258770856244326
000130 dd 2d 2d ee 51 fe dd bf 61 e7 12 a3 a1 c3 b7 bf
       -0.4686474634115408 -0.09282884818358418
000140 bb e0 34 78 78 64 d8 bf 62 ab 23 d3 ad d7 bb bf
       -0.38113223780556965 -0.10875975041169064
000150 1d 18 da de 64 3b a4 bf 3a 02 b4 8f 76 bf c6 bf
       -0.03951564045296172 -0.17771799103504
000160 07 61 2d 1e e1 f9 b3 bf e0 83 3f 57 4b e5 a7 bf
       -0.07803160654782824 -0.046671251678851666
000170 29 01 23 7f 7e 7e e1 bf 9c 8f 6e 11 e8 29 b0 bf
       -0.546691177667559 -0.06313944268782595
000180 68 d1 9d 22 2d ba ac bf bf 2f 4c e6 4e 13 ca bf
       -0.0561079125172082 -0.2037142395496385
000190 6c 5e 71 1a 8c f7 bc bf a0 5f 7e d9 b5 40 b8 bf
       -0.11315227170541114 -0.09473740157989008
0001a0 fa 8f 15 85 4b 7a b0 bf ba eb 15 ba 27 c0 b1 bf
       -0.06436607360006966 -0.06933830540758282

weight f8 [9, 54]
000000 c2 c5 3c f5 03 68 cb 3f c0 60 d0 3e db 92 ba 3f
       0.21411179995042856 0.10380335124534934
000010 fa fb d1 02 96 3b d9 3f 7b 9e 56 29 f0 08 c3 3f
       0.39426183963217876 0.14871027010416413
000020 15 67 7c 4f f6 ee de 3f 34 94 dd 9c 79 54 bc 3f
       0.48333509218501663 0.11066398696637308
000030 22 b1 1b 73 65 90 c6 3f 67 1c 65 46 a6 d5 dd 3f
       0.176281624989664 0.46616513132580056
000040 5f 1a de f5 f6 3a c0 3f 7f 97 34 05 95 d0 c8 3f
       0.1267994595074979 0.1938654208581134
000050 95 66 80 da f2 6c 95 3f 62 0e 78 2d 6b 9e bd 3f
       0.020923418604161432 0.1156985269554354
000060 64 1d 60 97 de 5e c5 bf 7c b5 ad 47 01 3c d2 3f
       -0.16695768729571647 0.2849124145494313
000070 03 76 21 56 b2 2d e4 3f b3 44 f3 6d be 14 a0 bf
       0.6305782015076037 -0.03140826313177438
000080 ce 89 19 40 4b 90 d3 3f 35 a3 dc 5e 47 d8 bf bf
       0.3056820035909852 -0.12439390245402822
000090 0d db 18 8e b8 1e d5 bf ba 75 cb 1d d5 e5 c7 3f
       -0.3300000560442847 0.186701430843568
0000a0 39 ff 73 70 76 1b b6 3f bd 3a dc c7 93 c5 b1 3f
       0.08635654683530171 0.06942103986169008
0000b0 f0 0b 35 d9 7f 6a e4 3f f5 5a 01 c6 76 57 b6 3f
       0.6380004160240542 0.08727209409822108
0000c0 0f 8e 0c 0f 62 16 bc 3f 88 8e b8 02 84 93 bd 3f
       0.10971653811844127 0.11553216043881254
0000d0 14 98 ef 82 d6 4f ca 3f fa 52 e9 ab e4 0e 9a 3f
       0.20556146043162526 0.025447438233032728
0000e0 ad 73 8b 89 9d 3a d5 bf 0b 16 11 43 79 21 cb bf
       -0.3317025988779346 -0.21195903563254634
0000f0 1c b7 7e 94 0d da a8 bf 17 1e 0e 1b 32 2e df 3f
       -0.048538612725094604 0.4871945633135239
000100 88 83 c6 2c a4 a7 c7 3f 37 85 c4 c0 c2 e0 b7 3f
       0.18480350672055246 0.09327332693330424
000110 25 19 5c 3b 31 20 af 3f 5b 54 76 ce 5d f8 c2 3f
       0.06079248284918241 0.14820454198039354
000120 87 11 75 80 3b ea 9e 3f 37 3c a2 b4 19 7c d3 3f
       0.03019040080586557 0.30444948806774924
000130 f1 74 c9 e4 60 9a c7 3f 40 dd a5 b0 e1 04 ca 3f
       0.18439875766026817 0.20327397466074082
000140 05 36 37 b2 d7 c7 b5 3f 32 b0 45 0e 00 7b c2 3f
       0.0850806055161329 0.14437866875539523
000150 48 03 2c eb 1b 44 c7 3f 48 82 66 70 7c ea b7 3f
       0.18176602347377924 0.09342172378684055
000160 ac 66 b0 14 ee a1 cc 3f 78 e1 85 35 ab 23 c7 3f
       0.2236917115231355 0.18077602494646405
000170 bf a5 58 0f b4 e1 c5 3f ad f6 cf 3d 23 72 c8 3f
       0.17095041989641221 0.19098320501500635
000180 3e 77 93 e6 c2 8f c1 3f 1c 93 7b 81 c6 03 a7 3f
       0.13719974764438264 0.04495067911719827
000190 b8 89 f5 7f ff 06 c7 3f 41 f2 aa e2 50 15 b7 3f
       0.1799010634231999 0.09016900571709476
0001a0 0d f8 19 88 33 4e b0 3f 8f 2c 8e 64 3b 67 c0 3f
       0.0636932570723447 0.12815039071970033
0001b0 d6 e0 e4 25 fa fa b1 3f f4 75 e0 9f 13 f5 c2 3f
       0.07023585724971623 0.14810414606556288
0001c0 db ec 55 a1 19 64 95 3f 03 26 30 3b ed c0 aa 3f
       0.020889664146562886 0.05225316379080527
0001d0 d3 fd 7b dc 47 c7 d9 3f 30 84 ed f2 88 47 c0 3f
       0.4027881291549111 0.12718307363232517
0001e0 12 d9 dc 76 72 49 d0 3f 0d 70 de 4d fa 72 e1 3f
       0.2544828568237715 0.5452853699566745
0001f0 e7 c7 5a 83 e5 bf a5 3f db d3 c4 7d 50 7b c8 3f
       0.04247967937898505 0.19126325741822722
000200 a3 f5 28 ca 52 cb ba 3f 46 6d d7 de f7 a2 c7 3f
       0.10466496882960157 0.18466089611943398
000210 cb 35 ab 1e 25 9a d9 bf 28 f2 61 7a ab 66 c2 bf
       -0.4000332641124628 -0.14375823474610283
000220 b3 9e e0 7b 2c e3 a7 3f 05 2c b2 49 b5 75 af 3f
       0.046655073282008706 0.06144491695985014
000230 b7 33 37 fc 31 48 e4 3f 24 b5 33 66 e8 a7 dc 3f
       0.633812897308977 0.44774827938711526
000240 61 e5 dd e3 32 22 b2 3f e9 dd 53 90 d2 e0 bb 3f
       0.07083433211473313 0.10889926932929196
000250 bc 0f d3 48 c3 8d e5 3f 92 1b 49 0b d1 32 ce 3f
       0.6735550329544746 0.2359257989030224
000260 b4 7a 24 77 86 bd c8 3f 50 f1 ef d7 cd dd be bf
       0.19328385179047347 -0.12057196161180639
000270 d8 85 7f 9b eb a3 c2 3f 5b 93 6c ff 31 1d c1 3f
       0.14562745182688164 0.13370346996193913
000280 c1 fb c0 6f 3a 4f cd bf 9a c9 56 f6 ed 0c c8 3f
       -0.22898035485010662 0.18789457824966577
000290 07 c2 12 47 0c 6b d3 3f 22 cc de bd c9 de ab 3f
       0.30340868893384293 0.05443411295654978
0002a0 8d 9e b6 56 9e 21 be 3f 4c d2 65 b7 46 09 ce 3f
       0.11770047776246369 0.2346580882546213
0002b0 83 70 7e 49 8d 3c cb 3f 9c fc 42 e3 8f 7c bd 3f
       0.21278539742059274 0.11518191622143309
0002c0 c1 0f 32 77 8e dd cc 3f e4 0f 3d c7 d5 e0 db 3f
       0.2255113679894958 0.4355978437126835
0002d0 8e 2a ae c0 e0 0a ba 3f 38 21 c9 e2 c0 46 db 3f
       0.10172848419294153 0.42619344851529517
0002e0 6a 60 f4 e0 6f 7f b8 bf 44 db 7c 5c 39 4e b6 3f
       -0.09569453470283099 0.08713110454560274
0002f0 03 33 ab 41 8c c0 de 3f 27 4a 52 b0 ef 99 c5 3f
       0.48050218975986086 0.16876026257939822
000300 a8 47 40 e3 79 93 c6 3f 46 b4 dd 1d 8d 2e d5 3f
       0.17637561413044733 0.33096626202206314
000310 74 dd e0 96 65 3c cf 3f bf d4 ab 0a e4 6e c8 3f
       0.24403066508396487 0.1908841182809393
000320 ba 9f 5c b9 2f 69 cf bf cf 5c 80 90 dd 90 cc 3f
       -0.245397534855554 0.22317094379170618
000330 d1 30 05 c0 c7 e2 b1 3f e0 61 95 9f f1 af 6f bf
       0.06986664236063979 -0.003868076248789473
000340 cb d5 02 b6 f2 1b b7 3f 27 9a 5a ad ac d4 cd 3f
       0.09027020400647882 0.2330528112845098
000350 c1 08 ad 3f 56 0a c9 3f 9e 5f 72 5b d4 63 bb 3f
       0.19562795743155983 0.10699202759349055
000360 ba 2b c9 44 18 83 a8 3f 9f 00 0d 63 e9 a7 bd 3f
       0.04787517394705483 0.11584337871772953
000370 0e 17 c7 41 c4 68 a6 3f 89 0e ab e7 9b c4 ab 3f
       0.04376805594396958 0.05423438265782205
000380 c9 ef 16 44 61 d3 d3 3f 47 ca 75 0b 59 ca bb 3f
       0.309776607984301 0.1085563328722766
000390 67 20 17 35 14 e4 d0 3f 01 f1 33 d3 76 db 79 3f
       0.26392083344081246 0.006312812957954828
0003a0 30 ea 43 70 35 b9 90 3f 9a 63 4f 6f c5 bd cc 3f
       0.016331515290383958 0.22454135832847727
0003b0 59 c5 c5 06 06 eb c2 3f f3 0d 45 bd 1b bd d2 3f
       0.14779734926882318 0.2927922581040711
0003c0 fa 92 6b 32 81 30 a1 3f a7 96 38 e8 dd fc cd 3f
       0.03357318630677315 0.23427938307684323
0003d0 17 f6 86 4d af 8c d0 bf d3 52 54 1e 8d 83 9c bf
       -0.2585867173291673 -0.027845578170927986
0003e0 ec 1a 03 c9 9f b7 dd 3f 32 eb 57 2a e3 86 bf bf
       0.46433252935496117 -0.12315196784758767
0003f0 9b 0e d9 19 6e e2 d5 3f b6 dc 6c 21 f9 ac b8 3f
       0.3419451954289145 0.09638936105771986
000400 9e 9f 10 69 0a ce df 3f e2 61 70 b6 f0 57 d5 3f
       0.4969507242226373 0.3334924489622876
000410 c1 21 72 ac ca 1d cd 3f e0 92 eb f4 97 c2 d0 3f
       0.2274716703434603 0.2618770496176648
000420 11 ac 5d 9f 42 52 cd 3f 28 87 60 ef 5c 78 c7 3f
       0.22907288342989365 0.18336068809826966
000430 9a 84 96 c7 b6 57 b2 bf 40 4c cd 59 34 8f d1 3f
       -0.07165090916398001 0.27436550874444166
000440 53 1a 22 4f ee 41 da 3f 15 ed fd 57 83 0c d2 3f
       0.41027410247662494 0.2820137366577041
000450 d9 52 7f 3c 4d 1e 85 bf aa 67 d8 13 99 dd dd 3f
       -0.010311702164395186 0.46665026605625803
000460 f4 8a da a3 f9 31 d5 3f b1 3c 0c 24 91 dd bb 3f
       0.33117524148308 0.10884959344933766
000470 00 2a e6 17 d0 3e c9 3f 5d d5 6d c3 e5 90 c1 3f
       0.19722939650485216 0.13723442118104404
000480 68 97 85 8d a8 68 b5 bf 1a e4 57 11 3f d8 e9 3f
       -0.08362821059344372 0.8076472605454257
000490 96 a2 9a 16 53 34 ec 3f d2 4e 73 d9 8e 42 c1 3f
       0.8813872758374426 0.1348436891336094
0004a0 29 a2 63 cb 64 24 d2 bf 45 e5 c2 81 09 c0 cc 3f
       -0.28347129690385714 0.22461050830842502
0004b0 52 d7 a8 26 51 bc c9 3f bc 0c 66 ac e6 a4 bf 3f
       0.2010594786422027 0.12360994061423275
0004c0 f4 f9 48 8b 32 2f ce 3f 52 08 45 87 d8 b5 ca 3f
       0.23581535149601474 0.20867449383701114
0004d0 f1 6e f8 85 0f 79 92 3f 43 5a ac a6 70 f3 d1 3f
       0.01803993468466464 0.2804834010761718
0004e0 b0 7d 68 15 7b c4 cc 3f c1 21 8d c7 67 4a c0 bf
       0.22474611802406974 -0.12727067226138725
0004f0 68 d1 cf a5 3e 76 d3 3f 33 b8 46 78 1c 5f cb 3f
       0.30409208481366656 0.21384006378997497
000500 e6 5e fc 16 08 7c d3 3f f6 32 ab 45 02 b7 c6 3f
       0.3044452881308487 0.1774599876574922
000510 c0 e5 8a 07 a7 82 bc 3f 9a 6c ba 7d 3f 0c 7d 3f
       0.1113685983099435 0.007091758739672072
000520 5d 48 c2 56 07 7b d0 3f 96 71 1b 04 9c f7 a8 3f
       0.25750907394934136 0.048764110089652465
000530 99 43 2a 8a 9c 0c a6 3f 66 98 90 76 58 b0 b8 3f
       0.04306496798120136 0.09644081968926485
000540 83 ce 93 9c cb 1e c5 3f d1 f9 81 db b7 95 b9 bf
       0.16500229974154842 -0.0999407683284297
000550 f4 f4 81 c8 81 52 d0 3f f7 fd 02 75 86 de c1 bf
       0.2550358255464993 -0.13960343087636293
000560 1c 43 7a e4 d3 ce cb bf 82 fa 14 b2 1a 1d c3 3f
       -0.21724938064701227 0.14932569213302221
000570 8b 34 7f 8c 67 de cb 3f ae 30 46 4a b1 a1 c7 bf
       0.21772474632453895 -0.1846219647089859
000580 0b 5f 10 d0 85 4a ca 3f b5 f4 6a 48 23 4f cc bf
       0.20539925250408717 -0.2211650947191736
000590 dc 8e f4 62 bf 35 ce 3f bf 17 0a bf 28 02 e7 3f
       0.23601524669458385 0.7190135699499861
0005a0 a7 d8 0e 3e e5 0a b0 bf 67 0e c3 ff 6c 3b c4 bf
       -0.0626662518032811 -0.15806353081108002
0005b0 8c 4d 5b 7c 42 1a b1 3f 30 86 7a 8e 4b b6 b6 3f
       0.06680694137621951 0.08871910313111964
0005c0 23 44 24 08 48 28 c1 3f ff 98 9e b8 47 9b c6 3f
       0.1340417899851057 0.1766137744390974
0005d0 39 01 d8 3b 5c fd 73 bf 7c 6d 2d ff 5c f6 91 bf
       -0.004880295074599688 -0.017541363787456174
0005e0 b9 e0 e6 cd bb 94 a5 3f 86 83 27 e5 e0 65 b1 bf
       0.04215037239504355 -0.06796079248989714
0005f0 cc a1 73 c5 17 36 bb 3f f9 3c e3 78 25 e3 c6 3f
       0.10629414148900834 0.1788069572707867
000600 33 61 8f f4 29 6c 8f bf 31 ed 9d 7d 3a 8c e7 3f
       -0.015343024993783238 0.7358677342848862
000610 62 54 f1 3e 11 b4 c2 bf ef 57 6c 28 12 75 95 bf
       -0.1461202199303982 -0.02095440265392051
000620 52 9a bb c8 94 36 85 bf 8f 5b f3 38 5b 6b 90 3f
       -0.010358011604194282 0.01603453192805265
000630 87 33 1e c2 a5 b0 b3 bf b8 e4 a8 f5 ce 17 d2 3f
       -0.07691417683800071 0.28270315160950643
000640 5f b7 ab 1f 64 08 cd 3f 7a 55 56 f2 a5 ae b4 bf
       0.2268185763018051 -0.08078992048679892
000650 86 02 f0 f3 6d f9 a6 3f 17 3a 78 0f 2b 59 bc 3f
       0.04487174608948856 0.11073559882809324
000660 86 2a 7c 12 a9 41 64 3f 19 78 83 1b df 5a a3 3f
       0.0024727155868096732 0.037802669628703885
000670 1a f6 ca bd d1 4d ba 3f eb cb 09 6e 1a 72 b4 3f
       0.10274992831815447 0.07986607729416988
000680 6c 7f 53 af eb c1 c2 3f f9 e2 9b d0 e0 e1 aa 3f
       0.14654298840377622 0.05250456377502206
000690 0b 27 7d 74 74 27 b1 bf 49 b0 22 1f d2 4a bf bf
       -0.06700828403441166 -0.1222354246153269
0006a0 a6 db 08 42 0e 9b c8 bf 47 f3 36 88 cc b3 8b 3f
       -0.19223192428918628 0.013526533038083278
0006b0 7e 17 da f3 23 96 c0 bf 5b a2 0a 97 93 09 ab bf
       -0.1295819225962837 -0.05280743807572171
0006c0 5b 08 a5 ce 00 b6 e3 3f ec 25 73 f5 0b 9d cd 3f
       0.6159671817806712 0.23135518536427868
0006d0 40 4a 4b e8 bb 68 cf bf 85 7a 1d 94 a1 94 dc 3f
       -0.24538372843251643 0.4465717264592189
0006e0 1b 9b 42 f5 dc ca d0 3f 9d aa 34 5e a0 2e d7 3f
       0.2623817820662439 0.3622208518960777
0006f0 d8 bc 65 e4 36 54 b3 3f 0d 28 00 6a ad db e8 3f
       0.0755037601099845 0.7768160887073933
000700 e7 62 8b 78 47 fa e8 3f bd dc c9 0d b9 d9 e0 3f
       0.7805516580948194 0.5265774983698958
000710 ab 9a d9 4b b1 cd 94 bf 7e 73 53 56 35 36 bf 3f
       -0.020315904860036465 0.12192090375488182
000720 10 fb c3 fc 74 e7 db 3f 51 59 28 f2 f8 d9 e0 3f
       0.43600201305518826 0.5266079644814373
000730 69 b6 bb e0 07 88 dd 3f fe 2f 7e 1c c1 84 bb 3f
       0.46142765947920467 0.10749442048671651
000740 32 60 77 18 ea 20 c3 bf 03 7d 0c 21 6f a9 b6 3f
       -0.14944196886676903 0.08852285916190188
000750 f6 6e b3 82 24 d1 e2 3f 91 37 4e 7f ae c1 d5 3f
       0.5880301048996148 0.33994638855153264
000760 32 89 c2 b2 66 72 ae bf 64 e8 0f 5a d1 fe c0 3f
       -0.059466561623838024 0.13277642152371805
000770 32 b7 0a 00 ec 8f c5 bf 2c 41 aa 17 18 22 bb 3f
       -0.16845464708370056 0.10598898484955005
000780 22 5a 9b e1 75 e5 c7 3f 82 f0 d9 a1 92 26 c6 3f
       0.18669007793387588 0.17305214789292128
000790 95 ba 12 6a 73 d0 eb 3f bd 42 97 8b e9 34 a3 3f
       0.8691956588498494 0.03751306370725647
0007a0 83 0e a5 c5 fe 3f cc 3f c3 0d 6c 98 29 4f cf bf
       0.22070297861693086 -0.2446033472298109
0007b0 f5 a2 c3 6b c6 59 e4 3f af 99 97 10 31 3c d5 3f
       0.6359588722962984 0.33179880733805595
0007c0 f9 4c 6e ac d6 d3 e0 3f 8a af 6b f3 e3 03 d1 3f
       0.5258592002668642 0.26586245318935
0007d0 4f 61 2e 70 63 60 c0 3f 6f a2 17 a7 55 4b a3 bf
       0.12794154145809464 -0.03768413223935318
0007e0 59 fc ae 9b 92 6e e0 3f 4c 01 02 34 9a 99 c4 bf
       0.5134976425832846 -0.16093757190174995
0007f0 4b 6f c0 33 b1 24 a2 3f ba 8d 11 5f 97 d5 e6 3f
       0.03543618923887822 0.7135731560523972

bias f8 [9]
000000 68 a6 e1 87 b1 62 b6 3f 4e ff 8f b5 58 b5 a0 bf
       0.08744344298761464 -0.032633564151182
000010 4f f8 ee 28 12 6a d2 bf 6f 74 8d 99 4a 82 f5 3f
       -0.28772405621919445 1.3443094251772683
000020 5d 79 00 5f 25 92 e8 bf dd 46 70 71 35 dd f0 bf
       -0.767840085554592 -1.0540060454554159
000030 f6 96 e2 bb be 95 af bf b6 b6 b5 50 86 6c d7 bf
       -0.061689339099116156 -0.3659988201314762
000040 65 f1 8b 9f e2 99 f5 bf
       -1.3500696403781032

weight f8 [54, 9]
000000 57 56 32 b1 31 0d b2 bf 8c 85 bd 01 6c 7f d5 bf
       -0.0705138261422119 -0.33590221567109135
000010 2a 45 0d 8e cf b1 e7 3f ff bf a4 54 19 60 73 bf
       0.7404554151964124 -0.004730318973358293
000020 1b d6 ba 6e 36 47 d8 bf 7e a7 5f 5c f2 4d cd bf
       -0.37934647382221137 -0.22894124517852882
000030 3b 2c a4 f4 c2 13 d1 3f af 25 b4 d2 54 2c 83 bf
       0.266831149013061 -0.009361899070898653
000040 d0 a2 52 51 9f c4 a9 bf d3 e0 c2 3f de 6f 1a 3f
       -0.05032823436460421 0.00010084909439711806
000050 9f 03 f9 f2 65 e2 de 3f dc 51 aa b9 bd fe dc 3f
       0.4825682518749605 0.4530481637132462
000060 24 93 1c 65 d0 55 b3 3f 6d 29 6b a4 6c a8 98 3f
       0.07552816837830939 0.024079988036456102
000070 60 45 4f fa 00 61 b9 bf e2 b9 01 45 e8 c7 c5 bf
       -0.09913641081881996 -0.17016318673581937
000080 31 1e d8 ce eb 40 dc bf 6b d2 01 87 73 9e ae 3f
       -0.4414624710047717 0.059802637319909056
000090 1d ce b3 99 99 78 d7 bf 50 16 a6 89 d1 3b c3 bf
       -0.3667358399390837 -0.15026301594859826
0000a0 df 6d 4d 2e b5 bc b4 3f 63 5b 18 e6 4b fa c2 3f
       0.08100445156508539 0.14826344237436748
0000b0 7c 6e c6 36 ab 5d db bf b3 d8 0a 49 ba 84 d5 3f
       -0.4275920901215853 0.3362260545067201
0000c0 cf d3 ce 2e a5 23 c5 bf e1 33 41 a8 37 b7 d2 3f
       -0.1651503065637869 0.292432703314999
0000d0 bc 76 78 ea fc 69 ab bf b0 0c 0e a8 f3 01 cb bf
       -0.05354299890698885 -0.2109970636921381
0000e0 3d eb af 28 b4 45 d2 bf 78 dd a5 2d 0f 94 d4 bf
       -0.2855043790183805 -0.32153682191661614
0000f0 85 44 23 c7 d6 4f a9 bf 0f fd c1 58 c2 e7 d1 3f
       -0.04943724804764663 0.27977045696020836
000100 ad aa 79 1f 03 ca d4 bf db ca f3 b7 bd 60 d4 3f
       -0.324829846131858 0.31840460743039295
000110 04 1a 58 18 59 d6 ba 3f 0d cb 06 99 e8 6b d1 3f
       0.10483319134082342 0.2722112173461689
000120 2d ac 4a 67 02 87 d1 bf 12 88 29 36 cb c3 a1 3f
       -0.2738653191287906 0.03469691311035218
000130 c8 a3 f9 53 02 80 c4 3f 75 61 81 0b 1f ef c0 bf
       0.16015652752255805 -0.13229740201746734
000140 76 9c 0c 95 d3 d8 c9 3f 92 2d 29 42 9f fe da 3f
       0.20192951944156662 0.4217908998586718
000150 fe 83 52 83 46 db aa bf 70 3c ca ae b4 56 cf bf
       -0.052454188852841796 -0.24483355078379843
000160 5f 4a 37 91 c3 3b e2 bf 2c 83 c9 b9 36 9a d0 bf
       -0.5697954021691877 -0.2594124616935456
000170 4a 00 99 10 c7 86 b4 bf 96 62 57 1b f7 d2 d2 bf
       -0.08018154292312932 -0.29412629766515275
000180 e8 f7 35 ee 4c 2a c3 3f 84 03 eb 93 fa 70 e4 3f
       0.14972840911281016 0.6387913598083377
000190 87 3e b9 44 8c 9b 90 3f b2 ca 27 8c 51 f4 c1 bf
       0.01621836823897962 -0.14026851027991466
0001a0 a3 2c 0c c7 18 a2 b6 bf d4 4c 04 13 6d b9 cb bf
       -0.08841090068397021 -0.21659625462107235
0001b0 78 75 5b 2b 2e 4d b7 3f e3 90 52 a8 84 90 70 3f
       0.0910214286663712 0.004044073289296987
0001c0 c3 e5 fb 81 5f 3d b0 bf c0 46 86 2b 31 a9 96 3f
       -0.06343647883831864 0.022129791528249454
0001d0 f7 27 81 18 4c ea b7 bf c2 62 4a a4 14 a4 cd bf
       -0.09341884229903018 -0.23156984350204907
0001e0 ca 62 b9 3a 2d a0 a8 3f 4a 9e 85 d2 31 ea bc 3f
       0.04809705106589986 0.11294852628417931
0001f0 ac 44 85 d3 9b 1a d8 3f b7 c1 7a 05 0d 30 bc 3f
       0.37662406593615105 0.11010819801118187
000200 61 2d de 9a a7 01 e0 3f 7e 27 f8 eb c3 39 e6 bf
       0.5002019905818252 -0.6945514305855196
000210 5d 60 dc 0d ac 14 c0 3f 77 8f 1a db 24 ae a7 bf
       0.12563086201476184 -0.04625048803907721
000220 39 b0 e6 1d 85 24 dc 3f 93 19 af 33 e2 51 d0 bf
       0.43972900314361457 -0.254997778389588
000230 cc fc 79 1a 67 82 d9 bf cd 91 f6 df e9 c3 80 3f
       -0.3985841520843223 0.008186175486863423
000240 aa 3f 56 1e 0d 40 b6 bf 22 0a 51 5a 13 44 e0 3f
       -0.08691484442374411 0.5083100093837098
000250 33 d7 e6 a8 17 02 d1 3f 15 cc 16 71 39 b5 bb bf
       0.26575271124180516 -0.10823401461566136
000260 74 1f 44 f2 92 7a 91 bf d9 a0 17 05 ea 0a d2 bf
       -0.01706914523768384 -0.28191614625258193
000270 68 d2 fc 3a 05 a5 d6 bf 61 8a dd 26 77 66 cb 3f
       -0.35382204781061555 0.21406449697231536
000280 54 67 ff 37 04 e1 68 3f 38 17 24 bd 90 95 73 bf
       0.0030369837186129765 -0.004781308542311007
000290 51 99 fb 3c 6f 55 a0 bf 90 c5 2b 6d 43 db 9d 3f
       -0.031901813692274524 0.02915673593355944
0002a0 3e 7d 47 bd 88 99 b1 3f e4 f9 8b 24 8b 35 ca bf
       0.06874899502826268 -0.204759018750294
0002b0 ad 45 b4 7c 5a ef c0 3f be cb eb e8 6c 6b cb bf
       0.13230448807784737 -0.21421586392497532
0002c0 58 0d 1a d3 4b b5 d0 3f 76 91 7b 79 aa b6 cd 3f
       0.26106544127852294 0.23213702136775866
0002d0 07 04 c9 96 6d b1 ba bf bd de 82 f1 80 ec b9 3f
       -0.10426983767776231 0.10126500984449201
0002e0 d0 7c 3d f4 de d9 b6 bf fc ba 19 44 f4 09 c8 bf
       -0.08926194632430229 -0.18780377698154627
0002f0 3a 35 e2 c7 0a 66 c9 bf d9 cd 67 d2 c3 e6 c7 3f
       -0.19842657813971148 0.18672988675790128
000300 37 91 43 ea 9a f6 dc 3f f8 9c 4b bf f5 9c d4 3f
       0.4525515830739723 0.3220800750845707
000310 e0 61 a0 c8 f4 97 ac bf b9 d0 bb 93 17 02 b2 bf
       -0.05584683369687915 -0.07034442288187649
000320 60 03 35 02 f7 8a a2 bf a2 cf 0e 75 8c e5 c5 3f
       -0.03621646787588051 0.1710677692004739
000330 7e 8c 37 0f ea f8 d5 3f 15 dd 1c 5b ed 7f cd 3f
       0.34331752286943373 0.23046652745117827
000340 e2 55 91 05 c4 ae d6 3f 67 29 18 02 54 17 c2 bf
       0.3544168524143442 -0.14133691885246977
000350 70 bc 9d 34 1c 59 ba 3f dc 4c 6f 56 bf ee d3 bf
       0.10292221340726981 -0.3114469856347577
000360 de 1e 4b 3c d3 98 95 bf bd c8 a0 17 47 5b b3 bf
       -0.021090794138926998 -0.07561153723580367
000370 cc 83 92 46 f8 a1 9a 3f 66 14 a9 45 8f 1b c3 3f
       0.02600849085559158 0.14927855397596373
000380 28 24 4c 28 29 a0 c8 3f d1 6c 78 31 3e 82 76 bf
       0.19238771884582317 -0.005495303099020536
000390 ca 7a 4d 8a 71 90 c6 bf c5 bc 18 22 94 ba ce bf
       -0.17628306630191154 -0.24006892838358432
0003a0 1c 03 2f 33 01 3f cb 3f ed b5 d2 80 84 7f c2 bf
       0.2128602504654048 -0.1445165280360209
0003b0 5c 46 d7 2d 73 6e 7a 3f 21 7d dd cb ba 4d ad 3f
       0.006452989500262154 0.05723365534390213
0003c0 6b 78 ef 7a 13 47 b2 bf 1b cf 5d 5e a8 11 ce 3f
       -0.0713970351348238 0.23491386993156813
0003d0 1d ea e3 a8 30 30 d0 3f a0 a5 f9 49 4e 24 b3 bf
       0.25294128888313755 -0.07477273279223207
0003e0 cf 71 bc 45 8c 70 9a bf b9 86 ef 9f 20 e7 dd bf
       -0.025819961315493075 -0.4672318994399621
0003f0 43 5a 39 7c a5 2e ca 3f fe 35 e6 a1 ce 03 b3 bf
       0.20454853597284925 -0.07427684261912046
000400 78 69 ae d9 15 26 94 3f 24 8b 57 c9 da 89 de bf
       0.019676534091197934 -0.4771639791708131
000410 d5 f2 9b 1a 1a 8d b0 3f 9c 55 09 6d c6 50 e0 bf
       0.06465304517400779 -0.5098602418535623
000420 d7 ca ad c3 a7 bc d1 3f 22 aa d7 43 33 fb d6 3f
       0.27713960751786487 0.35908204674947986
000430 50 4d bd 1c 43 c5 b8 bf e5 0b 86 d7 8c 02 da 3f
       -0.09675998164793964 0.40640564963558595
000440 16 e1 51 95 2e a4 d8 3f 44 fa e3 af 37 3d 95 3f
       0.38502087194457724 0.02074133883524555
000450 3a 84 de 71 4f ec cd bf 89 30 b7 e4 23 a7 d8 bf
       -0.23377411899585515 -0.3852014287520054
000460 96 9c ad 24 67 b8 c2 3f a0 f3 7b 9a 18 60 63 3f
       0.14625253001142785 0.002365158132191472
000470 78 4c c6 27 64 77 b1 bf 8f 6e f1 da dd 06 b3 bf
       -0.06822801562366176 -0.07432352633753168
000480 a8 51 88 f3 ae 07 a9 3f df 74 b3 d5 b5 ed a5 3f
       0.0488867447167281 0.04282921060232935
000490 ee dc c7 cd 0f 3c e3 bf 42 db 2d 94 56 37 b6 bf
       -0.6010817546038234 -0.08678189389852967
0004a0 49 31 63 36 3d aa c6 3f 5f c0 bd c2 24 f8 b1 bf
       0.17707028537405226 -0.07019262079643472
0004b0 6f 37 55 7c b5 82 c2 bf a4 20 d3 74 cb 87 bf 3f
       -0.1446139199346663 0.12316581346670091
0004c0 a4 39 11 e3 10 8d bd 3f ee 8a 19 23 e0 b9 a9 3f
       0.1154337458003512 0.05024624279464783
0004d0 a5 37 5f 8e bd 3b c1 3f f4 0c b3 b2 f3 05 cf 3f
       0.13463563396220227 0.24236913896138612
0004e0 e5 fe a8 36 e5 a1 c1 3f 97 d6 be b7 88 8d e6 bf
       0.137753154458543 -0.7047771061686089
0004f0 9e 2c f2 48 0d e9 d8 3f e3 25 78 b0 88 b6 b7 3f
       0.3892243587840286 0.0926289969285317
000500 68 77 23 f9 ed 48 e6 bf c0 87 79 c1 27 6e c0 bf
       -0.6964025369631885 -0.1283616728497332
000510 79 c7 5f 23 95 fe a8 3f d4 18 f3 92 f9 21 da 3f
       0.048817310875064863 0.40832366323992386
000520 fd ed 4b ba 0e 67 da bf b8 4e dc 6b c1 29 cf bf
       -0.41254013245608673 -0.24346177832250304
000530 3d 9c 2c 36 26 89 c6 3f 7b 25 63 44 2e 1a cb bf
       0.17606046338298312 -0.21173647250388314
000540 07 5e db 00 f6 af c1 bf 31 08 f9 e1 6f 8d da 3f
       -0.13818240205613128 0.4148826319470827
000550 4d fc 4d 80 f6 be d8 bf 75 ca 3f 47 14 f5 d9 3f
       -0.3866554501509583 0.4055834480088046
000560 33 7c 58 d8 b8 1f c2 bf ec 50 07 11 78 81 d5 3f
       -0.14159308017494396 0.3360271612448418
000570 00 07 dc fe 04 59 e1 bf b8 f5 6e 9d 38 5a 98 3f
       -0.5421166398739103 0.023781666382765215
000580 55 ba b5 f2 05 10 c7 3f ba 43 55 ab b4 f0 ca bf
       0.18017649031704033 -0.2104707562052946
000590 3b 1b 6d 1f 5e 41 d0 bf da 08 d5 1c fc 55 d0 bf
       -0.253989725770612 -0.25524809661523096
0005a0 f4 24 69 2f a8 7a cf bf 7b 5f 44 4c e8 d4 d4 3f
       -0.2459306937692315 0.32549483726460665
0005b0 2c d2 4b ed 70 2f d7 3f 90 fc 68 1d b5 00 c9 bf
       0.3622705762238947 -0.19533409057655549
0005c0 48 24 c2 e5 b8 39 d1 bf 0e 1c ac 3a c2 a3 c4 3f
       -0.26914808690395775 0.16124751915796803
0005d0 21 95 c7 f1 99 a5 bb bf 70 50 2f 5c 14 4a 9f 3f
       -0.10799562599966751 0.030556028486742937
0005e0 4c 34 56 e3 67 bc ac bf 58 02 fb 5a 25 18 c2 3f
       -0.05612492227656016 0.14136187498481223
0005f0 f0 96 45 9d b5 b5 a6 3f d4 ed 2a 13 15 24 b6 3f
       0.044355082939359636 0.08648807256661623
000600 88 1b 1d 01 63 6e 91 3f c8 93 d2 01 8c 9c e4 3f
       0.01702265447900289 0.6441097293469449
000610 d5 83 ac b3 95 75 e5 bf f3 6d 4d 98 99 aa bd bf
       -0.6706036099677656 -0.11588439911195518
000620 06 2c e6 6f 09 1f c4 bf 70 8d 11 fa 62 18 7f bf
       -0.15719716991256422 -0.00759161627601955
000630 63 f6 77 d3 c3 d6 da 3f db 7b c3 3c a7 a6 b4 bf
       0.4193582120059089 -0.0806679271076826
000640 45 03 f4 91 aa 48 b9 bf d3 d4 f5 df 47 25 b5 bf
       -0.09876504958448347 -0.08260010926990739
000650 5b 2c a4 59 06 32 df bf c0 da 3f ce f9 a4 c8 3f
       -0.4874282718089426 0.19253466196797397
000660 60 28 0f 85 7d d2 b3 bf c1 26 2f c1 cd e4 c0 3f
       -0.07743057726398339 0.13198253567525423
000670 9c aa 32 1a c0 f2 b9 bf 76 b9 50 e9 ff 67 a6 3f
       -0.10136032714459947 0.04376220439040683
000680 3c fa be 05 c3 b2 cc 3f ba 06 53 be 6d 29 d9 bf
       0.22420537739340485 -0.3931536062847091
000690 02 47 db 4c 50 e2 82 bf 6e 18 b7 e8 dd 4c c3 3f
       -0.009220721574283445 0.15078328955695802
0006a0 5c a6 c1 ff e5 45 c7 3f 25 8e 83 69 d3 ac c6 bf
       0.1818206309138074 -0.177149225731328
0006b0 38 9d d5 62 3d f6 b0 bf 82 96 31 08 be c7 ab 3f
       -0.0662573210043903 0.05425828790684496
0006c0 b2 be 35 20 1e 2b 63 3f a0 23 3f b2 c9 af d1 3f
       0.002339896049015377 0.2763542404832666
0006d0 74 5c eb 5e f5 d7 b0 bf 70 00 58 1b 97 42 ca bf
       -0.06579526488654769 -0.2051571734919011
0006e0 bf 23 d8 86 5f f0 cf bf 04 3d b9 cc e9 f3 96 bf
       -0.24952310642427553 -0.02241483032258619
0006f0 fd 27 3b 99 f8 33 dc 3f a1 da 96 45 13 12 bc 3f
       0.4406720634839301 0.10965080689389108
000700 c1 36 f2 fa e5 90 d6 bf f5 48 89 13 41 bd a8 bf
       -0.3525938940664269 -0.04831889499168255
000710 ad d3 60 b0 ee 75 d1 bf a5 fc 78 f8 bf 7e db 3f
       -0.27282302116810336 0.42961119904425465
000720 eb f1 df d9 86 d6 a2 bf d9 b6 93 33 78 4f a7 bf
       -0.03679295930485068 -0.04552817945100935
000730 07 02 b1 5b 2b 36 cd bf 3a 77 b0 83 14 45 c9 3f
       -0.22821561791535336 0.19742065839903394
000740 c8 74 0e 9c 95 28 c9 3f 68 4c 95 a3 a1 91 9a bf
       0.19655103797859952 -0.025946164712263103
000750 d1 69 fe 9a ea 1c b4 3f 24 da 96 eb 96 16 e5 bf
       0.07856622966793415 -0.6590075112679341
000760 91 23 92 c0 cb 3f ae bf 00 a3 05 4a e9 6e be bf
       -0.059080474145111535 -0.11887987191370186
000770 a4 12 c9 db bc 71 d5 3f e5 9b 94 ec 67 39 9e bf
       0.3350670000402636 -0.029515861334541333
000780 43 5f 8f 7c ed b5 b5 3f 73 23 3a 2d 80 1d c8 3f
       0.08480724612252026 0.1884002896151987
000790 e8 48 c6 00 c1 0f ce bf 0b 28 d0 ce b7 cc ce 3f
       -0.23485577142543623 0.2406224975423473
0007a0 3b ce 09 4b bc 74 bd 3f 25 df 1d 26 17 d7 c0 3f
       0.11506249267568418 0.13156403885999982
0007b0 df 47 aa f2 e8 15 ca 3f 37 ed cb 31 b6 13 e0 bf
       0.20379363869557118 -0.5024062130536667
0007c0 5b fe 3d d9 ad 34 b0 3f cf 3f 25 8d fe 29 83 bf
       0.06330381921542864 -0.009357441599291775
0007d0 71 98 f9 29 e6 4d ab 3f 94 5d c3 df 39 a4 8b 3f
       0.053328697799586496 0.013496830121239957
0007e0 f8 f8 04 f4 43 e3 c6 bf fe 8d bc c3 d1 de c2 bf
       -0.178810590887174 -0.14742490823219606
0007f0 97 88 f6 ca a8 bd b9 3f fc 51 36 5f ae 38 c9 bf
       0.10055022196914574 -0.1970422711280121

bias f8 [54]
000000 8b 94 3a 13 7b 36 96 bf a5 ec 23 7e 66 13 c6 bf
       -0.021692202614435756 -0.17246705207057747
000010 95 62 aa 59 81 d0 b0 3f b2 12 15 47 8a d9 da 3f
       0.06568153800106764 0.41952759687073204
000020 5f ae f3 8d 3f 2c b6 3f 86 bb 78 8d d2 23 b1 bf
       0.08661267486211831 -0.06695285753151667
000030 f7 8a 58 81 92 15 90 3f 51 23 2b f9 ff d8 ce 3f
       0.015707291741032994 0.24099731127196347
000040 44 b4 37 67 08 20 bc 3f 80 e4 a1 9f f7 d5 bd 3f
       0.10986378211937714 0.1165461315848848
000050 a6 25 db b4 89 62 cb 3f 50 5b 1e ad ed 94 db bf
       0.21394463854657636 -0.43096486955748947
000060 d6 68 d5 75 30 0a c8 3f ff ae 98 50 a2 47 84 bf
       0.1878109526977087 -0.009902256092650939
000070 b8 d9 9c 85 c5 b6 d3 3f 62 da fd 7c ba 6c b4 3f
       0.3080304913341041 0.07978406478455605
000080 71 61 73 0b 30 22 d9 3f e4 5b c3 23 8a a2 bb 3f
       0.3927116500685975 0.10794890759585446
000090 7f 2a e8 7f 54 32 b1 bf 1d d5 99 72 d6 ac d9 3f
       -0.06717422602393162 0.4011741751813405
0000a0 96 e3 bb a4 04 dd db 3f 41 f8 d1 ec bc 7f d6 bf
       0.43536487662600487 -0.3515465080926142
0000b0 c9 db 4b 4e c4 4c ac 3f 0b a8 ca 1f b8 fb d2 3f
       0.05527318435445456 0.29661372284556425
0000c0 4c dc 29 87 53 d8 a6 bf 85 74 8f a7 b2 aa a3 bf
       -0.04461918854661259 -0.038411696390292106
0000d0 18 d9 fd 79 c3 0e d0 3f d4 56 c8 55 e0 bc e2 bf
       0.25090109742395006 -0.5855561900559345
0000e0 8a af bf 1a 57 ba e7 3f 9a 59 b2 e1 ae 04 d5 3f
       0.7414966127812346 0.3284108356541765
0000f0 0b 4e 84 c4 d5 ff c2 3f ac 7b 08 e7 48 b4 bb 3f
       0.14843246551082276 0.10821967735726784
000100 31 47 5f e1 74 04 cc 3f f7 6f 90 bd f5 3b ca 3f
       0.21888600353718737 0.20495483165802827
000110 55 7f 6a cb 28 65 c5 3f db 04 5a c2 74 b5 d0 3f
       0.16714963848516598 0.26107520084049235
000120 0e 78 d9 71 0b 55 bc 3f 0e d6 23 78 2f b8 96 bf
       0.11067267922905463 -0.022186986644518618
000130 15 8c 71 7f ee 48 d8 bf 21 fe 3c de 45 90 b9 bf
       -0.37945139356287544 -0.09985768008936492
000140 46 87 7e 23 0c 9d e5 bf 0f ce bb a6 5f 9a b9 bf
       -0.675420827221594 -0.10001180477757309
000150 64 42 2b c2 71 43 c0 3f d1 1a 53 e9 d9 bc be bf
       0.12705823880107225 -0.12006914087678956
000160 18 5f 29 6f 8c f5 d4 3f 03 71 89 15 32 76 cf 3f
       0.3274870954096385 0.24579454471211912
000170 fa 82 c9 88 3d d6 ce 3f 78 a0 3d e7 34 e6 a3 3f
       0.24091309718189519 0.03886571238291564
000180 16 94 26 8e 64 22 cf 3f fb e2 a6 fc 08 e9 c8 3f
       0.2432370847792817 0.19461166702765084
000190 b3 a6 14 e8 5c 7e df 3f a3 94 28 bc 5a e0 e8 bf
       0.49208758033874317 -0.7773870158167892
0001a0 1a 7d 6a d4 56 cd a4 3f f4 b4 a1 3c 6e 9a bd 3f
       0.04062911360710526 0.11563767414346043
