Trained_models/2/predictor4_50_9.pth (torch, 34117 bytes, 16 tensors)

encoder1.weight f8 [29, 50]
0	0x3fc0ded96e5c1b06	0.13180082214986316
1	0x3fbbffc2bdfc69da	0.1093713487465843
2	0xbfc4a247bb52e96b	-0.1612023987452845
3	0x3fc13995a0563924	0.13456983879991313
4	0xbfb417f456db4d82	-0.07849051590465275
5	0x3f777ebcd97f9702	0.0057361008584615476
6	0xbf660770dae85c33	-0.0026890949441269684
7	0x3fc28393eabc0a7a	0.14464043580672464
8	0xbfd23d7be3641a48	-0.2850026817908753
9	0x3fd254a74c4ed39d	0.2864168400949952
10	0xbfc48a9389c9f38d	-0.16047901370975773
11	0x3fbfd583e975647d	0.12435173463508593
12	0xbfbabc01759f36b8	-0.10443123933438414
13	0x3fbdf4c325e3c215	0.11701602625885983
14	0xbfc34e02ade1fbd5	-0.1508181904827938
15	0x3fc93661704d6f04	0.1969720648147516
16	0xbfcc0a56b309f18f	-0.21906551115160908
17	0x3fbefb7eb90c4fc3	0.12102500932479558
18	0x3fa319fcdb6592ec	0.0373076455896689
19	0xbfc653649d68a998	-0.17441995321253212
20	0x3fbb2f1170af1f19	0.10618695260120282
21	0x3fa8717eb0e6f10e	0.04774089726876883
22	0xbf8cce07057944d7	-0.014064841131729384
23	0xbfc3c598828ad07b	-0.15446764349110595
24	0x3fd013f9191c734c	0.25121905758151253
25	0xbfc88ce9d1c73844	-0.19180033438755306
26	0x3fc5815dfcee868b	0.1680104718225731
27	0xbfc9829f442add2f	-0.19929877117622527
28	0x3fc9239430056387	0.19639828057077244
29	0xbfb71eed34e5cd6d	-0.09031565228888434
30	0x3fb3026c42ad42be	0.07425572040416292
31	0xbfbc5fec06b306f7	-0.11083865321691265
32	0x3fc29d5a0e12c052	0.14542699515505092
33	0xbfb1a587b8f6d063	-0.06893203988767165
34	0x3faae1abe979096b	0.05250298714647069
35	0x3f9d8ee0f4986467	0.02886535160914541
36	0xbfbc8c4a7130d568	-0.11151566756674003
37	0x3fbe2a9237334d30	0.11783708427110606
38	0xbfba163e6fa246b2	-0.10190191483914182
39	0x3fba1b51269e505c	0.10197932427246442
40	0xbfc0c1018b8d95a5	-0.13089007677187428
41	0x3fc9bf05dd947cdc	0.20114205664956486
42	0xbfc0e11a32bb4563	-0.13186957814336173
43	0x3fc17e257bfeafed	0.13666218332707505
44	0xbfc0a62e1a983ef7	-0.1300714139801966
45	0x3fc04290224221f7	0.12703134224672372
46	0xbfbd4237b44381d2	-0.11429165030450086
47	0x3fa52a1a877d8d72	0.0413368502038577
48	0xbf9de4704287a3ab	-0.029191736279162644
49	0x3fc36d259c016b20	0.15176839940507936
50	0xbfb6e10ff5d77af1	-0.08937167884821996
51	0x3fc40ac269937b34	0.15657835154612487
52	0xbfc32916a5d48c5b	-0.14969142052823056
53	0x3faf5c9b20a8e3bc	0.061253402458937484
54	0xbf74137ac264f8ba	-0.004901389626239256
55	0x3f758bea6daf08e7	0.005260387169018644
56	0xbf8909e709f37c40	-0.012225918761428756
57	0xbfa49627b09966e7	-0.0402080920291164
58	0x3fb49a684c970f8e	0.08048107023119952
59	0xbfa9fd8b4afa1d64	-0.050762513067691
60	0x3f99c4caca02cb15	0.025164764957206282
61	0xbfb8b3c75d734b47	-0.09649320632460699
62	0x3fc51d399006a4eb	0.16495437176244052
63	0xbfc594d9a6c09554	-0.16860504762841322
64	0x3fb68120e5b86b05	0.08790784462363994
65	0xbfa74ed5b7ba6f95	-0.04552333705689119
66	0x3fac8becdd9be4e1	0.05575504498660578
67	0xbfa04699b2969fe4	-0.03178863816293623
68	0xbfb2b8795d16e9c8	-0.07312735102360712
69	0x3fb3b0ad2b959747	0.07691461862631598
70	0xbf8ea1513f0a3c2b	-0.01495612596161607
71	0xbf796ab4c2a35d15	-0.006205278487150486
72	0xbfb6ade58f9a1e4f	-0.08859095340641797
73	0x3fc1bfcbbba632c8	0.1386656442886276
74	0xbfb3ccee75a2447f	-0.07734575626297334
75	0x3f80a70bab583cb0	0.008131114164852654
76	0xbfa9864df14db6cd	-0.04985278673744418
77	0x3fb4ce17753bcfa7	0.08126970874928806
78	0xbf8df6248ace9ecc	-0.014629636274391976
79	0xbfbd0920d499a910	-0.11342053595004509
80	0x3fbdedb2a848cb78	0.11690823181633714
81	0xbfb244e6808cd1c5	-0.07136383665494524
82	0x3fb6a1994f30b1b6	0.08840330298762109
83	0xbfc6f5602ffd654e	-0.1793632730794265
84	0x3fc70c5399c9f870	0.1800636769220918
85	0xbfc33e2243f8d87e	-0.15033367461154862
86	0x3fbf1274ad041670	0.12137536262533799
87	0xbfc03a90b828fa6b	-0.12678727142516108
88	0x3fb1566fc98e11f6	0.0677251689031165
89	0xbf83247e5f6fa01a	-0.009346949851490694
90	0xbfa85a6da43f3690	-0.047564913081811544
91	0x3fb327cace9109b4	0.07482593100670593
92	0xbfc3776aea0b3e8a	-0.15208183696676186
93	0x3fca40ad727d8b00	0.20509880152084037
94	0xbfc97d9c054fc10f	-0.19914579638817329
95	0x3fc6e8a9ad1961d9	0.17897530510050677
96	0xbfcd6adb8f0b26dd	-0.22982353672551073
97	0x3fd08c46ac1d89ba	0.25856177147047854
98	0xbfc9598dae6dd538	-0.1980454541878005
99	0x3fb80f499211625c	0.09398326698409093
100	0x3fb5d6617757a563	0.08530244029647842
101	0xbf779135162c957a	-0.005753714913941161
102	0x3f81cc45c1052b83	0.008690400078781973
103	0xbfa5357aa174c1d9	-0.0414236375894494
104	0x3fadbeda4d7cf5a2	0.0580967158880228
105	0xbfbe6df498551ae5	-0.11886528700879813
106	0x3fc86433df824c97	0.19055794156574699
107	0xbfccb254876013cf	-0.22419220552560978
108	0x3fc04c2b7c5e317e	0.12732451985028698
109	0xbfb65a85a8dd1ed6	-0.08731875775003614
110	0x3fc3f4067adf453f	0.15588456153504102
111	0xbfc8b267e1796f4f	-0.192944512457752
112	0x3fcb5fb3bf681eb6	0.21385809751540358
113	0xbfc75a0eea4034f7	-0.1824358600428366
114	0x3fca68ed5978de75	0.2063271223903375
115	0xbfbd29b09e64e8b0	-0.11391738764806081
116	0xbf80dfcf392b40a4	-0.008239382679136327
117	0x3f9d5cbe604e74d0	0.028674101474838676
118	0x3fb9af37f55e230f	0.1003298734705249
119	0xbfc3cd82e0a5cdbe	-0.1547092053329901
120	0xbf9532b494776bb1	-0.020701238214183074
121	0x3fcc502bab34f61e	0.22119661197386703
122	0xbfcd981443be33de	-0.2312035876060738
123	0x3fc05ac1f493eaae	0.12776970331454635
124	0xbfb14718b25c1226	-0.06749109606250467
125	0x3fc3c86a5784b6cf	0.1545536925636299
126	0xbfc46bb7ddafaeb2	-0.15953729939007172
127	0x3fc44c295193c721	0.1585742615057422
128	0xbfc4bb2589462a0e	-0.16196126177631281
129	0x3fd11c1579355042	0.26733910404914607
130	0xbfd05fc523a66541	-0.2558453415054665
131	0x3fbaee815338419f	0.10520180017215928
132	0x3fa6f43415fabf16	0.04483187454513719
133	0xbfae1ec6d0b570a9	-0.0588285569926666
134	0x3f84bf5121c7fc27	0.010130533069057602
135	0x3f91a6b6f5463318	0.01723752853426949
136	0xbfa26a6b52fb9fe1	-0.03596816432928996
137	0x3f934750975ca2a8	0.018826731909174527
138	0x3fb3d512a602d960	0.07746998360639656
139	0xbfccb0ab5c4eadf1	-0.22414152152246872
140	0x3fd172ae7f9980a4	0.2726246114816695
141	0xbfc55624ee6142c3	-0.16669141425747655
142	0x3fc150e848c1d349	0.1352815966853547
143	0xbfb90e80569f4a41	-0.09787752260971506
144	0x3fb5f4dc33e761cd	0.08576751963790415
145	0xbfa644cee65391ae	-0.043493714920063695
146	0x3fc14909733fbd53	0.13504140975372056
147	0xbfc5aecb0bfc0af4	-0.16939676366026613
148	0x3fbdc9f95964288e	0.1163631289711324
149	0xbfa61a809edacb5e	-0.04317094744819515
150	0x3fcd16f57c20a242	0.22726315079605014
151	0xbf9cea6619c71857	-0.028237910579058525
152	0xbfe44093c0806ad9	-0.6328829536244839
153	0x3fae56cec8d2c472	0.05925604058700963
154	0x3fe5e0caa280da48	0.6836903737919977
155	0xbfd59a705a9865e6	-0.33755120131681193
156	0xbfe4baff25f8e3c5	-0.6478267423291234
157	0x3fded830572a1c92	0.481945119020062
158	0x3fddb07c6f83f5de	0.4638968552606836
159	0xbfe19cac28e20a08	-0.5503750608916684
160	0xbfd7f20740ef9965	-0.3741472372188553
161	0x3fdece144e553025	0.4813280835121552
162	0x3fcb48a18197364b	0.2131540186659769
163	0xbfddbf1e4ab9e8b3	-0.4647899369953265
164	0xbfb7b71f1f939eb4	-0.09263796349443504
165	0x3fddb1157b5c81b2	0.46393334433562494
166	0xbfbbb83401e3d715	-0.10827946706907839
167	0xbfdbe607d4e3a411	-0.43591495313609224
168	0x3fd115aa00d9540b	0.266947270230333
169	0x3fd368b1cdbf7482	0.3032650479561384
170	0xbfd4a588fa9f5977	-0.32260345911836147
171	0xbfb5241536e3d96b	-0.08258183088387276
172	0x3fcde53a4ca86e37	0.23355797522605012
173	0xbfa9c254c131f3df	-0.050310753425016
174	0xbfc1bfbe46399cbc	-0.13866403988797582
175	0x3fbb3f83dda374b8	0.10643791352363763
176	0x3fb9bca66c0ff7f8	0.10053482187501561
177	0xbfc4aa3a38973b01	-0.16144492877216268
178	0xbfa55328ba5ae342	-0.04165007853357007
179	0x3fd40070e6f67a30	0.3125269179817307
180	0xbfcb705caf5abae1	-0.21436651766040085
181	0xbfd9452ca01d98dd	-0.3948470653180161
182	0x3fdcba7398c4085a	0.44888009947329055
183	0x3fd119dc517b9094	0.26720340688030686
184	0xbfe2f76adc0da61e	-0.5927023218075111
185	0xbfb185847b3d878e	-0.06844356545255278
186	0x3fe26eafc2eba60d	0.576011543945414
187	0xbfb9d9c0c009a8e9	-0.1009788960306285
188	0xbfdec7b18ed489f7	-0.4809383292032687
189	0x3fc74c0a7651bbb7	0.18200808312709935
190	0x3fdaa0d80745a758	0.4160671301857426
191	0xbfd2ce9a8f3c13ec	-0.29386009204637165
192	0xbfd7f4e4f6088370	-0.3743221666973602
193	0x3fdb3e65f538fcb4	0.425683488345338
194	0x3fd05e6631f39656	0.25576166990353977
195	0xbfe01620251f0d0f	-0.5027008748078589
196	0xbfa4798b047a973e	-0.039989799782502264
197	0x3fdd751692bd453e	0.4602714951516481
198	0xbfb83bab84f25a86	-0.09466049190300838
199	0xbfd2fb115b936544	-0.296573962621171
200	0x3fe4e7f5c8d5d69a	0.6533154413761679
201	0x3f914b05628563db	0.016887745035408002
202	0xbfca6675be716a57	-0.20625182913757342
203	0x3fbe365c1e6e5e20	0.11801696532199246
204	0x3fa4f9bd48571ddb	0.04096786029873175
205	0xbfd34c088476819b	-0.30151570258933597
206	0x3fd62211e3f85942	0.34582946074205634
207	0xbfd0764e4605db24	-0.2572208103005542
208	0x3f65e612a9d0e06a	0.0026731838720728722
209	0x3fbdadffe0a624fd	0.11593627199740193
210	0xbfbef38ce33554be	-0.12090378329351645
211	0x3fc4a7e1331ab1b2	0.1613732814343059
212	0xbfc94402cac28983	-0.19738802814852016
213	0x3faebaab1ab2366a	0.06001791668778085
214	0x3fc61254081796c4	0.17243433375477057
215	0xbfba4875bde5e7b7	-0.10266815077002787
216	0xbfcceac7ba7375f4	-0.22591492275289193
217	0x3fdf19f022d317f1	0.48595813179815567
218	0xbfd6bfff0ff6dc80	-0.3554685264493358
219	0x3fc46493d22da7b6	0.15931937944998048
220	0xbfb701de849f038e	-0.08987227189846989
221	0x3f65c4ad80b0640a	0.0026572598194545315
222	0x3fb519e4c9c8f097	0.08242635656728435
223	0xbf98214f4da097b3	-0.023564566720004353
224	0xbfcadb48b2388442	-0.20981701566873495
225	0x3fd366e42158359f	0.30315497642808426
226	0xbfb5d739bd3c8272	-0.08531533117321446
227	0xbfccdd4c4e824867	-0.22550348123019434
228	0x3fd1f63cc50378c8	0.28065413703542363
229	0xbfb614725da9bd37	-0.08624949251838109
230	0xbfa4bfcdcec93bc9	-0.04052584790462494
231	0x3f932c7f4328610c	0.018724430536253542
232	0x3fa732e74c9ed7a9	0.04531023798283169
233	0xbfbff8fc7a068f9f	-0.12489297846928914
234	0x3fd0d34bdf988f7c	0.26289650760212857
235	0xbfcecdff669c616c	-0.24066154966636633
236	0x3fc0dee7ae6c2c3f	0.13180252091146547
237	0x3f946db84d6d398d	0.01994979832243753
238	0x3f9687116055dddc	0.02199961805805893
239	0xbfb02553108fa8b1	-0.06306952623677621
240	0x3faf93eade337879	0.061675395607140034
241	0x3f6ef11847928a45	0.003777072354368446
242	0x3fc38d3d0d38bc87	0.1527477564390873
243	0xbfccdfea2646786d	-0.22558333271894374
244	0x3fb514e4327fe82a	0.08235002739812161
245	0x3fc7c1223eebcb64	0.18558147499387723
246	0xbfb9d97ce88e5d4d	-0.1009748523487037
247	0xbfbf45b797ebb0ed	-0.12215754946709341
248	0x3fbda62d5e94524f	0.11581691321436803
249	0xbfb507eb3dfd6509	-0.08215208304809009
250	0xbfe11a3296f73f97	-0.5344479511786514
251	0x3fbc96a258fa8d39	0.11167349502880065
252	0x3fbe4a0af278f9c6	0.11831730289211526
253	0xbfd613e3b68270ef	-0.34496395896145676
254	0x3fde2b844e43c1e8	0.4714060558608524
255	0xbfd110bedf95c5fd	-0.26664707025983586

encoder1.bias f8 [29]
0	0xbfd837b611de33bb	-0.3784003424159967
1	0x3fa296d179f19ab1	0.03630690206118937
2	0xbfda03929c853120	-0.40646806035216976
3	0xbf9d98c08e5dd7c6	-0.028903015794149466
4	0x3fb01b2933b4d061	0.06291444313393547
5	0xbfacb66978ceea89	-0.0560791931124714
6	0xbfc19a10f0526127	-0.1375142262884392
7	0xbf9d6cd9e0c5450d	-0.028735546440036553
8	0x3fba53db4b3fba90	0.10284205042965255
9	0xbf794032278e3310	-0.006164737621372721
10	0xbf85a3fbe27f896c	-0.010566680764843205
11	0x3f966497935ec1da	0.021868103379974226
12	0x3fc339e9d315dbd7	0.1502048760118828
13	0xbf927a136a2a5a64	-0.018043807368110967
14	0xbf9e0000036e5dc5	-0.02929687519971737
15	0xbf9104032af23394	-0.01661686849233808
16	0xbf925936d8711ea2	-0.017918450317920283
17	0xbfaf684b4dd7ca2d	-0.061342576267538675
18	0xbfb55d2c8bcfd629	-0.08345297253966834
19	0xbfa6cdccb0460633	-0.04453887607361331
20	0x3f7c3647bd2af066	0.006887703161449909
21	0x3f767aa9d07e19d2	0.005488074624628374
22	0x3fc8ed3b3f304415	0.19473972878816484
23	0xbf70ddec72a2b0cf	-0.0041178928606024475
24	0xbfab8f6da0e83ad7	-0.05382864560316641
25	0xbfb2f6eb9c8bc05b	-0.07408020564958077
26	0xbfb90ce949e52589	-0.09785326055602729
27	0xbfbf0d292b9c6219	-0.12129456820219565
28	0x3fd203346bf6d45f	0.2814456037843395

encoder2.weight f8 [9, 29]
0	0xbfb1c4542b47b96b	-0.06940198952336167
1	0x3fbd8e1307012d30	0.11544913216601027
2	0xbfb8c071e307c086	-0.09668647568446617
3	0x3fcf46fbbbe3034f	0.24435373949202208
4	0xbfc3373d9a43c990	-0.15012331039868032
5	0x3fe128bebbd6d69d	0.5362237614378561
6	0xbfb257c13dccd3cd	-0.0716515327338378
7	0xbfb21a8a371a045c	-0.07071746678595175
8	0xbf9d0abfa44eeaaa	-0.028361315158444235
9	0x3fe0c64b8a98ae88	0.5242059428178019
10	0x3fe66e3ac6d14b3e	0.700955761256729
11	0xbfb05fd21688130c	-0.06396210718237344
12	0xbfd96d3c47e73d20	-0.39729220411114063
13	0x3fbfbbf7738fb776	0.12396189280818057
14	0xbfc0387bad46c335	-0.12672372780573374
15	0x3fc26903edb3d076	0.14382981401979905
16	0x3fa5888980302484	0.042057320497471046
17	0x3fe07f214cb339f0	0.5155188081787951
18	0x3fe154df95c48d0d	0.5416105199005031
19	0x3fe49bbe66a6bdd7	0.6440116887005684
20	0xbfbc597dd483ba18	-0.11074053228706082
21	0x3fa1b97d0da979b6	0.0346182898690474
22	0x3fb9bb2a5694f37e	0.1005121671086737
23	0x3fd050c26ac3ece0	0.2549291651373107
24	0xbf9efd7e5ff43c1a	-0.030263876539773894
25	0x3fe4aeec2e10a28c	0.646352853747048
26	0x3fd7175cd6a663c4	0.36080094301138055
27	0x3fe04ccfb913c9aa	0.5093763937750755
28	0x3fa165ea2cb3de90	0.03398067279516426
29	0x3fc65d3404fcab93	0.17471933597093123
30	0x3fe2ac322e899252	0.5835200222905519
31	0x3fd2f5e76e803182	0.2962587908848705
32	0x3fe82584eadc0ea8	0.754579981527475
33	0x3fd9cfc12cce0baf	0.40330533385729955
34	0x3fb226bae02d97b1	0.07090347264383358
35	0x3fc1cd3bf81ab3a5	0.13907575239627792
36	0x3fd6ab97591ad9af	0.3542230959095844
37	0x3fc59bc7797d9255	0.1688165038314248
38	0x3fd3079431650548	0.2973375780457741
39	0xbfb265080cbd9fd3	-0.07185411749890074
40	0x3fcc6d2755994506	0.22208110503792272
41	0xbfc4116e4b32e6c0	-0.15678194686716118
42	0x3fe9955ff0e32a53	0.7994842247802104
43	0xbfce77220b83367f	-0.23801065027366872
44	0x3feabe0699a84fc2	0.8356965066072848
45	0x3fec27cf6ec5053f	0.8798596538037272
46	0xbfac7777f223ac22	-0.055598972614312694
47	0xbfbaed9cbae7e089	-0.10518817484978817
48	0xbfaec4e440fc6e42	-0.06009591382300218
49	0x3fd70d0c222becdd	0.3601713498789659
50	0x3fe81deadee2e80d	0.7536520341157044
51	0x3fc49dc7cd3def45	0.16106507798746797
52	0xbfb8912d29e92557	-0.0959652163811787
53	0x3fd1877a20ec7142	0.27389386382289527
54	0x3fd16bb8d8c41b4c	0.27219983261641256
55	0x3fbd7895e47a2953	0.11512123897606345
56	0xbfb3664e4c2e7653	-0.07577981338405353
57	0x3fb25036cdc27613	0.07153646968296128
58	0x3fb443770b12d1ae	0.07915443439816869
59	0x3fc47a9fd46bd658	0.15999219772463635
60	0x3f9fef32191bfab8	0.031185896666097362
61	0x3fd4aae1b3f3a84d	0.32292978833595926
62	0x3f809d30ffc4d765	0.008112318807075256
63	0x3fd5e50479e6b229	0.34210311798486487
64	0x3f9ccee7f086515f	0.028133033805333493
65	0x3f75c3b2d28bc823	0.005313585782220217
66	0x3fc04c00bd9a9ee5	0.12731942422873668
67	0x3fd43fe7e364c624	0.3164005013123605
68	0x3fe04a42c8ac10c5	0.5090650481584126
69	0x3fc4d1e3a242bca7	0.16265530989537533
70	0x3fc732fa85d74d6e	0.1812432435532218
71	0x3fd65ceb9f2ef8a4	0.34942141099225865
72	0xbfaaca924a763db0	-0.052326747502884685
73	0x3fd847327f5c38f1	0.3793455356361753
74	0x3fd629d4fe74eaee	0.3463032231262976
75	0x3fd26d2d29e22640	0.2879135998742619
76	0x3fd2cfb0ef0ae4cd	0.29392646163939845
77	0x3fd2be7452932c97	0.29287441314654344
78	0x3fd02c6e82c90918	0.25271189472199884
79	0x3fd747abe27268f9	0.36374947656589957
80	0x3fbd479299e01377	0.11437336212845915
81	0x3f4b13680226c674	0.0008262880185638381
82	0xbfd316175a5e7efa	-0.2982233412276255
83	0x3fb11a59ed13bed3	0.0668083385278309
84	0x3fd9f78f777a3d97	0.40573488872265656
85	0xbfb94f4f95d8658f	-0.09886643799145232
86	0x3fed2f1f6699499f	0.9120022777445235
87	0x3fb6f01708e96a6d	0.08960098235676535
88	0x3f9615fa57cc6e7d	0.02156821404342545
89	0x3fcb410c74e5a6f4	0.21292262752404378
90	0x3fe6566e80b9e7d3	0.6980507387336224
91	0x3fd154cf8ee82c94	0.2708014388633242
92	0x3fd4939ac6acae68	0.32150906946001223
93	0x3fe4bdda96386706	0.6481755193701424
94	0x3fca131de427da4d	0.20370839729703719
95	0x3fb6ba50b28ddb00	0.0887804447100784
96	0x3fddccaf48b23967	0.4656179628299441
97	0x3fc23cc8d297c3d7	0.14247999461033942
98	0x3fd5a2869316b90d	0.33804478038918334
99	0x3fa52a20df913e20	0.041337039271294396
100	0x3fe72d396c15b63d	0.7242705451041683
101	0x3fc424ac9b8d6f7d	0.15736920924507194
102	0x3fe7d2e71e1e602b	0.7444949711089114
103	0x3fe88bd136a5a7c7	0.767067534191704
104	0x3fa6a28badc86d15	0.044208874667868304
105	0x3fd88bd29ba9bbd0	0.3835340995928478
106	0x3fd0302e41bd9400	0.2529407159802872
107	0x3fcb3dd22795e041	0.2128241246498437
108	0x3fe1519022feeb10	0.5412064250479904
109	0xbfe33d41fa1e8570	-0.6012277493611418
110	0xbfc9f7d2c293dd83	-0.20287546635493578
111	0x3fc6e8bf3808b956	0.1789778731922051
112	0x3fc1ee1f7b3b813a	0.140079436466303
113	0x3fc216a7a7d58127	0.1413163728239024
114	0x3fbc53c00f0a8a9e	0.11065292708603144
115	0x3fb858822f583537	0.09510053306458564
116	0xbfa25fe4062c5227	-0.03588783812861989
117	0x3fb84470c8bff89d	0.09479432011719031
118	0xbfb2281719bcba97	-0.07092422846174383
119	0x3fc47d5e795aad09	0.16007595944879707
120	0xbfc10c0b2e88f832	-0.13318004390925037
121	0x3fdb307a89695cd5	0.4248339025411501
122	0xbfb07c96c09d0241	-0.06440107538674857
123	0xbfab5a4f3d8574dc	-0.05342338205330474
124	0x3f809863fe5310ba	0.008103162001482967
125	0x3fdc499bcbf63bc1	0.44199271124028533
126	0x3fe2d0de53f1045d	0.5879966392022983
127	0x3fe07c4222ece516	0.5151682550560135
128	0x3fd7abc2309bd3d3	0.3698583101934762
129	0x3fbec8f7ed1be025	0.12025403536597475
130	0xbfb7343d76960475	-0.09064087052503729
131	0x3fccc33b6718a2d1	0.22470800909038371
132	0x3fa99d5e4f8230a2	0.05002875061572466
133	0x3fe65cbb892d1efc	0.6988198928092682
134	0x3fde9e0175d9e532	0.4783939028635188
135	0x3fd812e62debfd83	0.37615351185373685
136	0xbfb50e8d80b41041	-0.08225330726787751
137	0x3fb1daf2e38c216d	0.06974714331966476
138	0x3fc18233dc287e0f	0.13678596734915557
139	0xbfd73d21efe51d62	-0.3631062357639704
140	0x3fb048c69c3d15e0	0.06361047090930283
141	0xbfa4da6fa71e0960	-0.04072903552061535
142	0x3fe2fa0affed5b7e	0.5930228231980974
143	0x3fe12e3c78153f79	0.5368940682765092
144	0xbfaba4bfdcc310dd	-0.05399131364677754
145	0xbfcc8d23a15a261f	-0.22305722597620645
146	0x3fc48bdf40357d1c	0.1605185569305626
147	0x3fd0ba553ce7774b	0.26137286136314647
148	0x3fe15c874c84ed2a	0.5425449842945558
149	0xbfb6208d54c00015	-0.08643420523731067
150	0x3fe2d182c3f0dce4	0.5880750491113784
151	0x3f8db44870fc52d4	0.014504018734024106
152	0x3fc2f33a7640c5bf	0.14804774068902124
153	0x3fc792695a26eb05	0.1841556253619602
154	0x3fe3dfbd2fb7789b	0.6210618907896505
155	0x3fe00ec2a5b2a5ae	0.5018017994199704
156	0xbfc1dc514110e95d	-0.13953605343869926
157	0x3fdc3eae8c78baf4	0.44132579534463834
158	0x3fe1a6e0361e1db1	0.5516205842003982
159	0xbfaf45ccd890257f	-0.06107940810768308
160	0x3fe041526554f7ba	0.507973859704854
161	0x3fe01757afca1604	0.502849429453534
162	0x3fd7f25213c32280	0.3741650765410114
163	0x3fd9bb955ddf5735	0.40207418601254413
164	0x3fe3b5ae7ef87ab8	0.6159279327292415
165	0x3fc370987e336070	0.1518736473287876
166	0x3fdeea08868d750f	0.4830342592229763
167	0x3fbfd60162e65b1e	0.12435921349093035
168	0x3fd9a4d38285d677	0.40068519350402404
169	0x3fb9b0ac3142a30c	0.10035206034320882
170	0xbfb1131cf4063a5a	-0.06669789273858254
171	0x3fe82b786fba96b1	0.755306452007707
172	0x3fe16b1a1109dadd	0.5443239529402849
173	0xbfa3be6784b0ee45	-0.0385620450474247
174	0x3fae5690c04756a2	0.05925419184829407
175	0xbfd2540356fde967	-0.2863777493982042
176	0x3fdf7815decfe7ac	0.49170443305012657
177	0x3fed4fbc79b5457f	0.9159834267722288
178	0xbfa6f73553c129b7	-0.04485479972261735
179	0xbf98a83e1e68e913	-0.02407929478270272
180	0x3fcede5e42f8a939	0.2411611392029245
181	0x3fd8630dd90ec7e9	0.3810457820610496
182	0x3fe69edbe53cc684	0.7068919637005853
183	0x3fc9c6dcbba9f951	0.2013812939002926
184	0xbf8548aa04ebc18a	-0.010392502093481654
185	0x3fd899965c8d9844	0.38437422788991094
186	0xbfcfd2de088b3486	-0.2486226598470333
187	0x3ff0287cd9b5c995	1.0098846916485844
188	0x3fe16a84689c3fe0	0.5442525904818432
189	0x3fee8be41612bc51	0.9545765334240831
190	0x3ff1a6ba1de1147a	1.103204838481615
191	0xbfb5305fbbeaae3c	-0.08276937806902479
192	0xbfc5cab97d18d2ef	-0.17024916275263233
193	0xbfbbde2bc8b31bf2	-0.1088588109006279
194	0x3fd7e19c41079d06	0.3731451640182545
195	0x3fe9770c3320a611	0.7957821844658516
196	0x3fbaab74b2c995f6	0.10417870869567722
197	0xbfd0fceb45303963	-0.265436952177785
198	0x3fd5c378843b85d9	0.3400555888493649
199	0x3fd5527743e5acda	0.3331583178575791
200	0x3fc07d9f6f295252	0.12883370330622995
201	0xbfc1b71e59349084	-0.1384008346150304
202	0x3fbf38c9de5526a5	0.12196027448694709
203	0x3fbdaa06389cebda	0.11587561494972878
204	0xbfc54d06b01186f6	-0.16641315075963065
205	0x3fd31f7437c3b1ea	0.29879479833360156
206	0x3fe55d97fba6979c	0.6676750102094391
207	0x3fe821fbbf63a56b	0.7541483629294538
208	0x3fbdc2e21e0128c3	0.11625493271381786
209	0xbfb502485d01eb2a	-0.08206608076754365
210	0x3fd6e9629b3079f9	0.35799470095835734
211	0xbfd18253340471fd	-0.2735794074995111
212	0x3fcde777d432cacd	0.2336263452649149
213	0x3fc6535cc5c828c1	0.17441901833837473
214	0x3fc4d2970d8fdbb3	0.16267669832424544
215	0xbf8d8a0bade5937c	-0.014423457378777142
216	0x3fe832e70eeb02da	0.7562136927955081
217	0x3fd6a391680ee6fb	0.3537333980744816
218	0x3fe8a2755cbcc1eb	0.769831353309255
219	0x3fe9a3369e0c46b1	0.8011735045312972
220	0xbfc6d14aa960390f	-0.17826207418733772
221	0x3fa6a5e175ebc277	0.0442343193479972
222	0x3fd5a360950bc07e	0.3380967574621606
223	0x3fd55dd6f774f8f5	0.3338525215693971
224	0x3fe2836ee3c309b6	0.578544087264439
225	0x3fd84fef27a2fdd4	0.37987879629869536
226	0xbf9e723272ed698e	-0.0297325022359956
227	0x3fcac9743672b34d	0.2092728868350612
228	0x3fb95caec160a4af	0.09907047482615171
229	0xbfbdc5cfd6f45661	-0.11629961965476233
230	0x3f96a483e464dfad	0.022111950697961614
231	0x3fb05b8c38271254	0.06389690752900751
232	0x3fe54b818f4c01c1	0.6654670523421872
233	0x3f8422fa2e4f7ad4	0.009832338846476864
234	0xbfd538aae9dc9c06	-0.3315837177091797
235	0x3fe90fe9c1c0a262	0.7831925186374742
236	0x3fc46c5440e934a9	0.15955594224434336
237	0x3fd3399672637dc8	0.3003898732258361
238	0x3fc060c21a24cab0	0.12795282627629012
239	0x3fd410b16b725f3e	0.3135188626560995
240	0x3fd1a1ab48bf5641	0.27549249748458143
241	0x3fdcefa91f0c2007	0.45212772399872886
242	0x3fd00fea9785dd5c	0.2509714584079654
243	0x3fa3a36720b38ca7	0.038356039754739606
244	0x3fb8a0aeda4e8a24	0.0962018282867026
245	0x3feb72fb365cb250	0.8577858030090031
246	0x3fc9539a18f6f79c	0.19786382884006748
247	0x3feb19bc0f8050ce	0.8468914320715386
248	0x3fec2635610a2a0d	0.879664124994919
249	0x3fe1dbc56fd9e74d	0.5580775436967343
250	0x3fce17f4f3401e5e	0.2351061046358493
251	0xbfc206ddc698175e	-0.14083454319932803
252	0x3fccf489428d9c9e	0.22621265172640376
253	0x3fe7f7ffc8239d1f	0.7490233334509958
254	0x3fbdfd617ec7de7a	0.11714753480179665
255	0x3fc2faa911e328bd	0.14827454923062602

encoder2.bias f8 [9]
0	0x3fd01d8a340ca358	0.2518029697699169
1	0xbfb76f10ecf83ee6	-0.09153848443406395
2	0x3fc8ad284630aeb0	0.19278434207204986
3	0xbfc56236bcc401ec	-0.16705974785874333
4	0x3fe2e88441ce07e9	0.5908833775758896
5	0xbfe063b9435f2b99	-0.5121733013014477
6	0xbfb0119a8d7388dc	-0.06276861146355678
7	0xbfb4b1005ea11353	-0.0808258276966403
8	0xbfde21aa688fd5aa	-0.47080478869551234

decoder1.weight f8 [29, 9]
0	0xbfd3831d1ebe5853	-0.3048775482396923
1	0x3fc8f2b6a51dc855	0.19490702688523479
2	0x3fde3f659dce76f1	0.47261944208899737
3	0x3fe04aa35838264d	0.5091110919031024
4	0xbfdc597206ee4922	-0.44295931507908126
5	0xbfc6796c248ff6a0	-0.1755805185820707
6	0x3fd219f0e920a4e8	0.28283331648215304
7	0x3fd116d781eed0eb	0.2670191544414268
8	0xbfdcc02ec6938c13	-0.4492299021932819
9	0x3fd79e417e873b7a	0.36903416973375835
10	0xbfd940f7e8ae5fec	-0.39459035609024684
11	0xbfd6e87442ec21a4	-0.35793787513150677
12	0x3fd43a6dd493584b	0.3160662246640455
13	0x3fd8509e581dd461	0.3799205647004041
14	0xbfc24690f9fb4da4	-0.14277851301322386
15	0xbfd5ea434e9dc90d	-0.3424232738244804
16	0xbfc1fdd1f64b9a09	-0.14055847669733648
17	0x3fcd859ab5bd6463	0.2306397807504111
18	0xbe0bef4c1c6ac95f	-8.130083766230963e-10
19	0xbde151685b576dc7	-1.2600502383750632e-10
20	0xbdeafe8e03df2c6c	-1.9640977901015463e-10
21	0xbdf9e3aab8ec6f87	-3.767392447690469e-10
22	0xbe03407356718ecb	-5.60299956506973e-10
23	0xbdfe606d6a07df01	-4.4203871989059253e-10
24	0xbdd7f25ffee7dcf6	-8.711786823742132e-11
25	0xbdf0e8c0153216c8	-2.460609677780273e-10
26	0xbdf0577a8b54c9c2	-2.3780323138711567e-10
27	0x3fbb1320b109c3c4	0.10576061556072519
28	0xbfb7acc52cb3c869	-0.09248001424183062
29	0x3fb73962bdba30d1	0.09071938640608158
30	0xbfd5935ad502c6ac	-0.3371188240226768
31	0x3fb23453d16a744d	0.0711109529751905
32	0x3fd0cf467bbabcc7	0.26265108187631053
33	0x3fdb223196fcd8d2	0.42396201844111403
34	0x3fdbcb4b87744821	0.43428314426376075
35	0xbfb306b8a2e9b142	-0.07432130792011996
36	0xbfc1eaecacd1bf49	-0.13998182714885335
37	0xbfd7e32fff93380e	-0.37324142416480377
38	0x3fe21a84ec16823a	0.5657372103779104
39	0x3fde7ce42e10937c	0.47637276171217713
40	0x3fadd6778c21e497	0.05827687821960941
41	0xbfc039504c52cef6	-0.12674907423717457
42	0xbf5985b1067b1dda	-0.0015577534449436798
43	0x3fd9869da6363f74	0.3988412974513189
44	0x3fcc109062054a91	0.21925549303212624
45	0xbfc052676ce0ea76	-0.12751477066361233
46	0x3fc19daaf27136a4	0.1376241382408142
47	0xbfcf79c8a18c7496	-0.24590404403798932
48	0x3fd1bcef6a25c943	0.2771566902730635
49	0xbf79b75d1574fa85	-0.006278384789139784
50	0x3fd32237c43acb76	0.29896349108746934
51	0xbfb63df012c0e509	-0.08688259561394686
52	0xbfc28e3a1af6b7e7	-0.1449654227885155
53	0x3fba54ebbb7bbda9	0.10285828902464424
54	0xbfc2ea6d813b8833	-0.14777916727240523
55	0xbfd105bf9f87a08b	-0.26597586230355635
56	0x3f872188746090e1	0.011294427920866603
57	0x3fab53cf8248a6bb	0.05337379899385782
58	0xbfa857e88f1099fb	-0.0475456881179532
59	0x3fb7755b798063ed	0.09163448063226527
60	0xbf93eed791ea84a6	-0.019465797692309515
61	0x3fcbe5671eff75f2	0.2179383183819677
62	0x3fbc1e741e887a2c	0.10983968491971358
63	0x3fb6570d5dcf624a	0.08726581135068404
64	0xbfb9e2c5e1233618	-0.10111653086206507
65	0x3fc9ce93a1765052	0.20161672004599268
66	0xbfd97373367dd608	-0.3976715118545546
67	0x3fd55534090afcf6	0.33332539446924103
68	0xbf9349392e09ff5d	-0.018834012446404248
69	0xbfd5e9041972299e	-0.34234716877895177
70	0xbfe57ccaec180e25	-0.6714834796152372
71	0x3fdf5965473e765f	0.4898312755338789
72	0x3fd1eba04340e153	0.28000647132605144
73	0x3fe37ff08c80bbc4	0.6093676323124488
74	0xbfc748bf3483e4c4	-0.18190755905360423
75	0x3fdc4ba7f38ba43f	0.4421176794408587
76	0x3fd99d986ec8e449	0.40024386233159653
77	0xbfcc8fab002d197a	-0.22313439854242373
78	0x3fccba34d3bcbd9d	0.22443256701215555
79	0x3f9887acbf465633	0.02395505826424067
80	0xbfd26e8ae1c6ce4a	-0.28799697922224665
81	0xbfd91d193811336f	-0.3924010322123683
82	0x3fd91b4f8939d512	0.39229191208808445
83	0x3fc2accef5ed640e	0.14589869506997427
84	0x3fd9de9bb296e6f9	0.40421192589165816
85	0x3fd4b6eb296b1051	0.32366446537731003
86	0x3fd20ed0eb1f3dc4	0.28215430222641324
87	0x3fa8e0152340de93	0.04858461432780561
88	0xbfcbbaa2683649e6	-0.21663312996368161
89	0xbfc49248f60ce8dc	-0.16071426405125677
90	0xbfb6a60aa830cd9a	-0.08847109419075708
91	0xbfc0a3c354b117dd	-0.12999765048351622
92	0xbfcd46317595749c	-0.22870462647816658
93	0x3fa3ccbc8e06ae40	0.0386713908549976
94	0xbfc379939b17346f	-0.15214772293839782
95	0x3fe3fab7b5df4a41	0.6243551780883722
96	0xbfa5a8fbe2f74430	-0.042304870086475765
97	0x3fb565f4b09dc8dc	0.08358697235033524
98	0x3fd9a79c366f96e6	0.4008551150894689
99	0x3fe0c29a66bb2a3d	0.5237552648989731
100	0x3fd83e6a69427a7f	0.3788095500876025
101	0x3fdf10c046dda938	0.4853974048661658
102	0xbfbbdd43b942b396	-0.1088449790283462
103	0xbfd4f38d025ae2f1	-0.3273651621816916
104	0x3fb283de2500cfb6	0.07232464221379939
105	0x3fc731f03316037f	0.18121149534638545
106	0xbfd6994ca64c91c6	-0.35310665359636706
107	0x3fd0d7cbaa93d998	0.2631711164280204
108	0x3fd26d7c538fa72c	0.2879324737574389
109	0x3fc8bb0b371a52a8	0.1932081240708119
110	0x3fa659a7d6382498	0.04365276803952972
111	0x3fcd09110184571f	0.22683918546743428
112	0xbfda3385f7316f6c	-0.4093947328562908
113	0x3fca945a2ac579dc	0.2076523503155404
114	0xbfcc32735858108d	-0.2202896291129303
115	0x3fd8df98e98644ab	0.3886472969543983
116	0x3fb5e6fddba94e2a	0.08555590260339643
117	0xbfc572b95119e146	-0.16756359539045657
118	0x3fda7efc5c041915	0.4140005968660188
119	0xbfd494170f550025	-0.3215387010313882
120	0xbfdba2cb39fc4f09	-0.4318111482873382
121	0xbfd2663340d6d318	-0.28748780567120624
122	0x3fd57815048a128d	0.33545422976775613
123	0x3fe62a4529107ce1	0.6926599313773317
124	0x3fd7d7bf850a3144	0.3725432204453407
125	0xbfcbbad147935490	-0.2166387176027098
126	0xbfc5a16fdd82cb44	-0.16898916545832254
127	0xbfbe3c8417f6ba61	-0.118110900736363
128	0x3f56c368223b68f0	0.0013893620425081098
129	0x3fd4b267a753630e	0.3233889707603773
130	0xbfa99359a9743776	-0.049952318129824855
131	0x3fd0ac976d9afab6	0.2605341501584165
132	0x3fe34e6dd141c679	0.6033238493966585
133	0xbfd3f5484ce3a746	-0.31184585102765927
134	0x3fc7ed01730fd538	0.18692033880476244
135	0xbf85e8870a046ec3	-0.010697417252735325
136	0x3fc76f557c92f479	0.18308514197079598
137	0xbfec3a23b31f94d7	-0.8820971010688038
138	0x3fab3102f719a401	0.05310830370292053
139	0x3fb16ec88e2da836	0.06809667082930634
140	0xbfb47dcf365a9f60	-0.0800446994495565
141	0x3fc222c3c5b66d4f	0.14168593553481876
142	0x3fb93cf9c8a0c17f	0.09858666561263439
143	0x3fb223ca4d745cd7	0.07085861578922291
144	0xbfd10e97e0aedeef	-0.26651570264537744
145	0x3fd26b3dda55f81e	0.2877955085931506
146	0x3fd98c4d823a7c46	0.3991884013902943
147	0xbfde513da7f27e9b	-0.4737085476026352
148	0xbfd816c7ab1979cd	-0.37639037808358183
149	0xbfd222d091f00932	-0.28337492229197203
150	0x3fd620b74a15ee1e	0.3457468245976275
151	0x3f567b16729ef060	0.0013721198288143763
152	0x3fe0e43d7a842bcd	0.5278613465210299
153	0xbfcfb80765341529	-0.24780361596655467
154	0x3fdef51d7ca736cf	0.48371064351236454
155	0x3fcd5022c6136e57	0.22900805160212442
156	0xbfdb0d3ce3855571	-0.4226829740412859
157	0x3fdc588371b1c6c9	0.4429024324700604
158	0x3f981cc085160cc9	0.023547180293019197
159	0xbfb311a4182b601e	-0.07448793020319086
160	0x3fdf7fbe0fb6b4e7	0.49217177900830084
161	0x3fd30e0f0c66f817	0.2977330800166568
162	0xbfd6569289e3d1f5	-0.3490339609700464
163	0x3fdca2c2f5af76f2	0.4474341773292131
164	0xbfdc8eb6e3537491	-0.44621059608272967
165	0x3fe47612478b3a10	0.6394130132046616
166	0xbfcc2031fdbc680b	-0.21973252191020295
167	0x3fccca1568bf86f1	0.22491710295349024
168	0x3fc5105bad2d9654	0.1645617099376745
169	0x3f9dc92673d470d0	0.029087639636700413
170	0xbfc8f0557c69aec7	-0.1948344094738472
171	0x3fc3f14cc913fc0b	0.15580138986840128
172	0xbfd418aebb7b0005	-0.3140065031875568
173	0x3fe0fd1d3d41f81b	0.5308977314414308
174	0x3fd8a4e95794b352	0.3850653987199638
175	0x3fbcf45a4ee22a9f	0.11310352731576721
176	0x3fc23d52642863e6	0.1424963940669663
177	0xbfd84ee2b172c966	-0.3798147900480643
178	0xbfb824e4233e493c	-0.09431291447098017
179	0xbfe4ae5dbf38f3b0	-0.646284936410316
180	0x3fd29aefba7d13ff	0.29070656978393566
181	0xbfb8814689ed54d0	-0.09572258822784652
182	0xbfda607fc732f68d	-0.4121398396781409
183	0xbfd98db08f013f20	-0.3992730518848351
184	0x3fc91e15853485bc	0.19623059276731947
185	0x3fe4b00f58189f51	0.6464916916492972
186	0xbfca4174af637795	-0.2051225525273678
187	0x3fb28f1b8b4016a4	0.072496148583094
188	0xbfdfc89170f60f96	-0.49661670714726236
189	0xbf4854cfc9bebfe0	-0.0007425322141809652
190	0x3fd46a6e06274721	0.3189959583370286
191	0xbfb8b5cf20a07a53	-0.09652418657831534
192	0x3fb818f0fd2f007b	0.0941305750011469
193	0x3f996e5046a1276a	0.02483487540329269
194	0xbfb3ad5f1c0e03ba	-0.07686418948107035
195	0xbfd0dde88c196ef5	-0.2635442131192883
196	0x3fc54f41b0d38585	0.16648121961683784
197	0x3fe04130deeb85fd	0.5079578737169751
198	0x3f8c80afe46ea50b	0.013917326124856652
199	0xbfa40366a009a9df	-0.039088446651323265
200	0xbfc911c23173524a	-0.1958544484574694
201	0x3fcff69c4d6c8411	0.2497134569212283
202	0xbfd21bfc203a9e4c	-0.2829580607162583
203	0xbfe1785932819bea	-0.5459409700823674
204	0xbf308bb051e97db1	-0.00025246672331565983
205	0x3fe8272a60854b00	0.7547809491319128
206	0x3fe54a25268afd61	0.6653009178916528
207	0xbfcf96dab5f817f5	-0.24679120907984467
208	0x3fd5d3b143dcbc91	0.3410456812588985
209	0xbfc69b5dfc658e8e	-0.17661642860467847
210	0x3fc3f092aa52e97f	0.15577920261950948
211	0xbf9cd226a9b5a667	-0.02814541254830374
212	0xbfcaf19cf7c471fd	-0.21049844835296475
213	0x3fd9dad68ef2c3a3	0.40398181876940437
214	0xbfe1779d24a25333	-0.5458512988576331
215	0x3fe53e6d7b6a7c44	0.6638705645053808
216	0xbfd1f13b0546f802	-0.2803485442672128
217	0x3fb6578ba5a212cb	0.08727333825852239
218	0xbfd1efa818768e93	-0.28025247944808845
219	0x3fda303fde7bbd0a	0.40919491507425276
220	0x3fc60116438959f5	0.1719081716316421
221	0xbfd92d564cfe180e	-0.39339215773395686
222	0x3fe499dcbb031c26	0.6437820103245755
223	0x3f7e2ea3d5a09569	0.007368698099559403
224	0xbfc70b974088aa5c	-0.1800412240130126
225	0xbf6bdd1fdf297782	-0.003401338815179623
226	0x3fb2c023ea0c9bf7	0.07324432815640579
227	0xbfb9a0bf283ac65a	-0.10010905010383322
228	0x3fde481dd5a3e2a8	0.47315164435671386
229	0xbfc8c30a258b3439	-0.19345213730994873
230	0x3fc8bb5809b4e244	0.19321728204683286
231	0x3fc7416b856b7735	0.18168396010053703
232	0x3fd14db3541ebd57	0.2703674622998355
233	0xbfd9fd73f1c5199d	-0.406094537833633
234	0x3fd74a0915d2caeb	0.36389376765434517
235	0xbfb51f97cc91ca68	-0.08251332039234571
236	0xbfc3a578e4503a7d	-0.15348731182207934
237	0x3fbe9c6663049e8a	0.11957397382195203
238	0xbfc66c65487d6261	-0.17518297233143001
239	0xbfd00ed274d30881	-0.25090466889026436
240	0x3fafe4d6f7b85c70	0.06229278348853817
241	0x3fd333ae34ebfecc	0.30002932708883345
242	0x3fce26e30c905454	0.23556173432794714
243	0x3fb2ad094a025500	0.07295282418120408
244	0x3fbfe6461711d016	0.12460744918081476
245	0x3fbe762e79cd5a02	0.11899080728230874
246	0xbfccb06ffaabffaa	-0.22413444270932575
247	0xbfc145a676033c5a	-0.13493805658660812
248	0x3fcf9b2d6f48589d	0.24692314084740455
249	0x3fbe132e2e319c24	0.11748016956117674
250	0x3f92503f31462150	0.017884242422526342
251	0xbfc18cefcb4e6eaa	-0.13711354662961145
252	0x3fd0b78b0f62063e	0.26120258810269437
253	0xbfcfd07234250b65	-0.2485487703907793
254	0xbfc1275ec6d603f8	-0.1340139838103196
255	0xbf9427cfb51aaba0	-0.019683118275377276

decoder1.bias f8 [29]
0	0xbfb0244559402cc6	-0.06305344990703352
1	0xbf5f47634995618f	-0.0019091100314963837
2	0xbde73aad072209d0	-1.690146942249375e-10
3	0xbf91102230fe34bc	-0.016663107147498066
4	0xbf6b0da33db96d33	-0.0033024013808195195
5	0x3fc559323724d03c	0.16678455059593655
6	0x3fb59f3f81b6cae9	0.0844611827549603
7	0xbfb3b4f75aeb6c8e	-0.07698007554738437
8	0xbfc714330f11a953	-0.18030393825331234
9	0x3f9e50d90f4f0cff	0.029605285224318042
10	0x3fdf22fda8a0741a	0.48651067225893174
11	0x3fb69f3c3b1bbaf8	0.0883672375018526
12	0x3fd04e7eb2178800	0.25479094878949127
13	0x3fc83888e0fa9df9	0.18922530160237708
14	0x3fca1d331b4971df	0.20401610214584218
15	0x3fbb6b95c09ec256	0.1071103663696332
16	0x3f9e2689a5480353	0.029443884575815215
17	0xbfc710869ed1c89f	-0.18019182925087748
18	0x3fd6d21284f45f57	0.35657179817052537
19	0xbfd2edc77f4d29fe	-0.2957628958871793
20	0x3fb5ad31b4c4260c	0.08467398322331848
21	0x3fc1e9f847bc36bf	0.139952693011244
22	0x3fc783fdf57cea51	0.18371557699886634
23	0x3fcdeb5b78e50d44	0.23374503520072143
24	0xbfc086890daff9c3	-0.129105693515113
25	0x3fb329ce0e9aa077	0.07485664230864751
26	0x3f9f8115a0bd23b7	0.030765855727881788
27	0x3f84b3846fb26a57	0.010108027132720894
28	0xbfbf81826ad7694e	-0.123069907268847

decoder2.weight f8 [50, 29]
0	0xbfa48f2a0490529d	-0.04015475564680069
1	0x3faece9a18cf2fe4	0.0601699977192707
2	0x3df92c58f947ca64	3.66318747280589e-10
3	0xbfa9b8cd4f10c72e	-0.050238052274279674
4	0xbfa1467ba6f46084	-0.03374086773891441
5	0x3faf59b7b954cf4f	0.06123136651367977
6	0x3fae1d62bd0813eb	0.05881794507516943
7	0x3fc3c023dac8e413	0.15430114920471336
8	0x3fb2073036342d9b	0.07042218516669722
9	0x3f9ef518094c6766	0.03023183399918796
10	0x3f6d35cc076d6fcc	0.0035656914655372903
11	0x3fb24b5506079969	0.07146197697838876
12	0x3fad63867d053f9b	0.05739994312409565
13	0x3fcd8a4ce8d0d004	0.23078309410050235
14	0x3fc2210a91b3ae3f	0.14163334001874436
15	0x3fb03f3f7e8c19ae	0.06346508826763994
16	0x3fa7e6431a028478	0.04667863552573065
17	0xbfd3dc6f49fc0d07	-0.310329267740784
18	0xbfba06b4dfbf7b85	-0.10166483366582042
19	0x3fc562de5943101c	0.1670797286843716
20	0xbfd0291e5397e06d	-0.2525096718159208
21	0xbfb55c1645a0abc6	-0.08343638610737888
22	0x3fdff7443bd6c207	0.49946695178644557
23	0xbfd5c70d3ea888f3	-0.34027415389040455
24	0xbfdfee1da3628d0c	-0.4989084334903999
25	0x3f9f6138827b3cd0	0.030644305194809374
26	0x3fc3873915125f19	0.15256417778868395
27	0x3f86071a58834811	0.010755735231587267
28	0xbfa54ce8190d3896	-0.04160237603956422
29	0x3fb7628de77a5ffb	0.09134756947821636
30	0xbfc1515988d9fa1f	-0.135295097181328
31	0xbdf412344f81e104	-2.9207310138791204e-10
32	0x3f9c6ffa66a0038b	0.027770912660347185
33	0xbf8adb8cf8e217a1	-0.013114072175323179
34	0xbfa282831b2466d9	-0.036151978553062576
35	0xbfa4d3c5811c3de9	-0.04067818833402354
36	0x3f9169c8d8d91d36	0.017005098567350184
37	0xbf8ccd1a11575af6	-0.01406307568951835
38	0x3fa5d4e1694cacba	0.042639774421638646
39	0xbfae51b820e850bd	-0.05921721841528569
40	0xbfaff5bfa5ba0884	-0.062421788196858535
41	0xbfc68fef910f5fe6	-0.17626757224093054
42	0xbfd055f65906a22a	-0.2552467221635505
43	0xbfaa6d36df56cb41	-0.05161448932940128
44	0xbfac0ed38667dc06	-0.054800615460344246
45	0xbfb22d71b229bfaf	-0.07100592231449697
46	0x3fd04117fcdfd6d5	0.25397300429118036
47	0x3fb5c8ed60e2dc15	0.08509715667138125
48	0xbfc42cf382cb8809	-0.15762180220104963
49	0x3fd0a281387b719a	0.25991850391235405
50	0x3f973a343f2f1aeb	0.02268296847958144
51	0xbfd7704e7ce117de	-0.3662296504520536
52	0x3fd7293dc847d8fb	0.3618921714654701
53	0x3fd4317c08a18954	0.31552029459830533
54	0xbf9dde94041172ed	-0.02916938090162351
55	0xbfc092fc7b657bd8	-0.12948566460815303
56	0x3f9765d75d2f1697	0.022849431097503894
57	0x3fb3e36fadc7c047	0.07768915169413147
58	0xbfbb6c871bd05eea	-0.10712475232173416
59	0x3fc4e333ef6476ca	0.16318368138393274
60	0x3dd944b14c92f6fc	9.192565037605153e-11
61	0x3f930c180f3b4d6a	0.01860082238165487
62	0x3fa80d9d6bfe3ce8	0.04697887366557457
63	0x3f82d4a98a6f85ab	0.009194683587284333
64	0x3f9bbcb38b5fb1c2	0.027087026006414446
65	0xbfc32dd5ab854388	-0.14983626246478488
66	0xbfa8b1a7790bf6fb	-0.04823039391156488
67	0xbfbe99e848d70003	-0.11953593996349814
68	0x3fbe59080b41bb35	0.11854601168464003
69	0x3f9644a50a074af1	0.02174623368939427
70	0x3fd167a791af44ab	0.2719515726758554
71	0x3fcf23ca2045161f	0.2432797105376929
72	0xbfabe0d6bac4e344	-0.05444975881477501
73	0x3fa8ed52293417ba	0.048685615091059245
74	0x3fb4074a177afb94	0.07823622773410782
75	0xbfc3ad4ff4ca38bb	-0.15372657253869257
76	0xbfad3fdd1d6ea0bd	-0.0571278665950685
77	0x3fbd8e1d080aaddf	0.1154497284539313
78	0xbfcb3ce80d372cc8	-0.21279621739663512
79	0x3fa1d2084daff541	0.03480554531413783
80	0x3fc9380de57cf470	0.19702314095949047
81	0xbfd501241cef5b65	-0.3281946451729055
82	0xbfc235d88032f927	-0.14226824054453255
83	0x3fa34cf1b80ca77f	0.03769641277024415
84	0x3fba851441fed1eb	0.10359312640395728
85	0xbfa57fd66a94d8bf	-0.04199094821017146
86	0xbfb93baaeaa05e99	-0.09856670597252516
87	0x3fb5110158b384bf	0.08229072967107508
88	0xbfc288fc2966f451	-0.14480545064535247
89	0x3dd215966ecdfaee	6.579039717627457e-11
90	0xbfb54bebdb80764d	-0.08318971737795629
91	0xbfa9203bbe148df5	-0.049074046090279135
92	0x3f87289aedd70f7b	0.01130791700678179
93	0xbf9e100c57919063	-0.02935809406734825
94	0x3fca772ebc824115	0.2067621632054474
95	0x3fbaf561eab9cede	0.10530673962221779
96	0x3fc6b3072f1da98c	0.17733850288943775
97	0xbfc520f2cd12157a	-0.1650680066415296
98	0x3fa4e1ac64d2f0f0	0.04078425150643905
99	0xbfd4474189d9adf7	-0.3168491216844979
100	0xbfc9c1eb49e117bb	-0.20123044116388464
101	0x3fc3824e2bf6a2c4	0.15241410395289823
102	0xbfa704df9a91d8eb	-0.04495905649030071
103	0xbfb026181c6c47b0	-0.06308127111358774
104	0x3f96e1b098499728	0.022345313353432733
105	0x3f98fee2c425ef71	0.02440981218522559
106	0xbfa90b7fd13b2031	-0.048915857592476526
107	0x3fc02a5a6e3f797a	0.12629251845551065
108	0xbfb2aa28e64c47d4	-0.07290893194684084
109	0xbfa21b962b695f06	-0.03536671905447801
110	0x3fd01648d6dc180f	0.2513601396789235
111	0x3f92e1096be0ac37	0.018436572274520748
112	0xbfad0561abe16162	-0.05668168280743903
113	0xbfb4c4efc490854f	-0.08113001393259832
114	0x3fa37d821e06a419	0.038066927113796285
115	0x3fba7816787f0980	0.10339489404490187
116	0xbf99aee7ce1b769d	-0.025081273989477116
117	0x3fb84c183eaa0816	0.09491111307036734
118	0xbdf67f167437f43d	-3.2736623500424303e-10
119	0x3fc37f9310616308	0.1523307638151652
120	0x3f90ba8fb2011401	0.016336674918665754
121	0xbf954ed42d691bd3	-0.020808520576135536
122	0x3fa62366e232679d	0.04323884497826145
123	0xbfc69fc650a05ae9	-0.1767509359057933
124	0xbfc2a0caee433d11	-0.14553200372618183
125	0xbfc940f000e41426	-0.19729423564436493
126	0x3fc7f4716575b231	0.18714730695809714
127	0xbfbb5146eb0b11ab	-0.10670893896446525
128	0x3fd31c5abc1af873	0.2986056172338813
129	0x3fc2a5c5a830120b	0.14568396293920247
130	0xbfcc3dc6b68b9ef2	-0.22063526070927925
131	0x3fa8fb5a106072d0	0.048792662142863485
132	0x3f9a4c13fde5ae7a	0.025680839893011932
133	0x3fbd7f53b87f2c56	0.11522410635295563
134	0x3f7f85022cdea205	0.007695206162602113
135	0xbf9e599082fe6430	-0.029638536448690356
136	0xbf9d519164069052	-0.02863146946914725
137	0x3fb5a6a0c0285e28	0.08457379046773694
138	0xbfb443d473de6b79	-0.07916000202969355
139	0xbfc468c69e9bd3a3	-0.15944750542226158
140	0x3fa2ac9eb4caea26	0.03647323567334508
141	0x3fb3ea16a05fd8af	0.07779065528288485
142	0x3fab8100b039f812	0.05371858740998915
143	0xbf88037952178312	-0.011725375955337767
144	0xbfb83ef18d5edc87	-0.0947104425566626
145	0xbfa5c0e243d64507	-0.04248721197212473
146	0xbfa28c21998ee0f3	-0.03622536658753175
147	0x3df35d99f894e95b	2.818070157278218e-10
148	0xbfca99504da15b43	-0.20780376234571393
149	0x3fa55464c21a1c5c	0.04165949696931001
150	0x3f94613ad402d144	0.019902152242779594
151	0xbfaca82cf27f4860	-0.05597057781382442
152	0x3fb402ca8341e858	0.07816758827712655
153	0x3fc457f1bb6a44b9	0.15893384600761865
154	0x3fc5bf6794553cd1	0.16990370505161548
155	0xbfc7529448b8805e	-0.18220761824432236
156	0x3fc3ed542fca8c3b	0.15568020185046003
157	0xbfcc954c4d02debf	-0.22330621490777067
158	0xbfb94ccc6f70454c	-0.09882810326259522
159	0x3fceff0e34015d64	0.24215867556879822
160	0xbfadcdfd78c1734a	-0.05821220492427999
161	0x3f9c666b4c862349	0.027734447999623133
162	0xbfcdecec6dc64dce	-0.23379283294762704
163	0xbfa0dbdb8982622d	-0.032927380119137296
164	0x3fbaa7061025b692	0.10411107916089637
165	0xbfa7b9f9b4add027	-0.04634075480035476
166	0xbfb251c60ef87080	-0.0715602671193114
167	0x3fc04376c8f1b921	0.12705883800249132
168	0x3fb6d0e128e56044	0.0891247486919165
169	0xbf9d32cd37a178da	-0.02851410533946184
170	0xbfb572b8e4609be1	-0.08378177238101571
171	0xbf890d45a76c1039	-0.01223234574491282
172	0xbf9a9e96da471a98	-0.025995595047585057
173	0x3fb40b3087d018ab	0.07829573932403615
174	0x3fb8b3033ca42cb6	0.09648151617527642
175	0xbf854cebcc7459d4	-0.010400621582943005
176	0xbdf27f2e258ddd2f	-2.6916383493079073e-10
177	0x3fcd86c7fb629058	0.2306756951776403
178	0xbfbbaabf3d49fb7b	-0.10807414289773291
179	0xbf8ceb1165a1beb1	-0.014120231546456226
180	0x3fad27a8df95ce04	0.05694320420561996
181	0x3faa9039268ef1fd	0.05188158603366231
182	0xbfc1f9a4f1183dfd	-0.14043103954507777
183	0xbfb9ca0d7672610d	-0.10073932782905022
184	0x3fc3ceb472a2ef0d	0.15474563214763074
185	0xbfc6594faef9c525	-0.17460056346639266
186	0x3fbc7163447771c9	0.11110515996501315
187	0x3fb53f4c116323ce	0.08299708771222855
188	0xbfcb7f8ec1c87311	-0.21483025037823514
189	0x3fb0ff038732f783	0.06639120150336279
190	0xbfb472a7b9a31010	-0.07987449915077627
191	0x3fd402d479293475	0.31267272789120365
192	0x3fa98daafb2a008d	0.049908965263058304
193	0xbfc3bcbefb87b00f	-0.1541975715803123
194	0x3fb2915688ac96d9	0.07253018223544973
195	0x3fa6adb8881746eb	0.04429413472429452
196	0xbfbd32c4b4125e29	-0.11405591388972226
197	0xbfb1c43d4b8be963	-0.06940062612912849
198	0xbf8e67b6ffff07ed	-0.014846257865318757
199	0x3fae9db3abb20e65	0.05979691954510428
200	0xbfa68e1c31a00f01	-0.04405296426560135
201	0x3fad3ae3e0cae613	0.057089921179294255
202	0xbfae1a42d6f4f2bf	-0.058794106235358516
203	0xbfbe9ee831775d56	-0.1196122284667259
204	0x3fa02ee369cb8b29	0.03160772959178921
205	0xbdc60951a57132d2	-4.00839818631294e-11
206	0xbfcadeaa119fcf4f	-0.20992017612990785
207	0x3fc4f451cbcec8f9	0.16370603992033475
208	0x3f7c88e4e0940038	0.006966489841261185
209	0xbfa56d30e876c270	-0.0418486865777411
210	0xbfc5b07ac9e33796	-0.1694482312945495
211	0x3fb79f7aeb70e79e	0.09227722404548763
212	0x3f79f295ac40b4bb	0.006334862384432312
213	0xbfbd26d623a4b9c7	-0.1138738476772466
214	0x3fc4ab3de7d54dda	0.16147588558179288
215	0x3f7c6b0b63225d14	0.006938023072641703
216	0xbfbc40cad73beb3f	-0.11036365275132896
217	0x3fc32d03d6df3703	0.14981124870103465
218	0xbfb116a01ff1bfc1	-0.06675148754015849
219	0x3fbd5b4c81e5be28	0.11467436000179332
220	0xbfd5f0ba25faf9a0	-0.34281781872769024
221	0xbfae7abfc565cf46	-0.059530251356504624
222	0x3fc4aafb4febac50	0.1614679470288558
223	0xbfa3702c37183720	-0.03796518490353962
224	0xbf8fb634dac521b1	-0.015484249998409224
225	0x3fb0fe505b469689	0.06638052204524504
226	0x3fbb441354c15221	0.10650749987809906
227	0x3faea004a305191c	0.05981459131230535
228	0x3f3f8890038680b2	0.000481162223445973
229	0x3fb9c8afddfe279c	0.10071849031206032
230	0xbfb034ec8ecf2710	-0.06330755697777257
231	0x3fa4fc180451f0b4	0.0409858231805357
232	0x3fba31a9026a2500	0.10232025441122872
233	0xbf971e05d46feddb	-0.02257546528924857
234	0x3e06b3b0c9751192	6.60712723173951e-10
235	0x3fc34b36e8a146e4	0.1507328639877904
236	0xbfc82b7a1140490c	-0.18882680742587643
237	0xbf4a2cff9aa26ed0	-0.0007988212648970209
238	0x3f94df245eac2263	0.020382469442696293
239	0x3fced1cd66aca905	0.24077765954400135
240	0xbf982df981a79902	-0.023612879312985953
241	0x3fb70ac9e9530b32	0.09000837274929266
242	0x3fafbd2080388829	0.06198979916759157
243	0xbfbff722e7df90a1	-0.12486475144356969
244	0xbfba35d2a85a06f3	-0.10238377199314268
245	0x3fc6c6372ae70959	0.17792405695770233
246	0xbfb276a048981628	-0.07212259075466732
247	0x3fb0e31f8dbf99e2	0.06596562586455648
248	0xbfbf6435362d4e8b	-0.12262280056648416
249	0x3fd4b8a0977099b5	0.32376875676200295
250	0x3faeb22e52d94456	0.05995316277825029
251	0xbfbf0fe0ebd4bf33	-0.1213360381850606
252	0xbfaa07c773c54f79	-0.05084059990136231
253	0xbf6fd2be165470d8	-0.0038846695557720294
254	0xbf94e7476edddc03	-0.02041350950409183
255	0xbfc6e049e45e9a90	-0.17871974612099395

decoder2.bias f8 [50]
0	0x3fadb643de205b27	0.058031197419202755
1	0xbfb13f860d40877a	-0.06737554381882474
2	0x3fb28fdd30823242	0.07250769075671662
3	0xbfb2513480ebdd45	-0.07155159137243057
4	0x3fb0bd97f0e3a53b	0.06539296752057037
5	0xbfa9e8811f9b1cbe	-0.050601992710249885
6	0x3f9c9ca3c49be17d	0.02794128310685683
7	0x3f6283cb890c64cd	0.002260110406848348
8	0xbfa0a497bb6fdbc9	-0.032505742674338096
9	0x3fadedb59a19fbb4	0.05845420366403378
10	0xbfb2f800c3c3d152	-0.07409672526757063
11	0x3fb44519e01e00e4	0.07917939874278407
12	0xbfb22f900e23f251	-0.07103824944710736
13	0x3faa9f8974f65844	0.051998420264837836
14	0xbf97d93cf7f4f2d0	-0.02328963530929934
15	0xbf8240462d513a24	-0.008911655672048609
16	0x3fa561a8b09f27ab	0.04176070362116432
17	0xbfb2742a621ec8b8	-0.07208504577173158
18	0x3fb962cc7d40b291	0.09916379983833169
19	0xbfbe33203fed0dc2	-0.11796762047474998
20	0x3fc01224485599b3	0.1255536416239927
21	0xbfbe9f9f48959b09	-0.11962314149932864
22	0x3fba73099db2d157	0.10331783390103531
23	0xbfb3a511aaee0d1c	-0.07673750327198942
24	0x3fa6e04732007518	0.04467985616086362
25	0xbf84cf3aacf9f7bf	-0.010160883334943692
26	0xbf92f3564770c19a	-0.018506382093791275
27	0x3fa396fbe6c2445d	0.038261291426473255
28	0xbfa7cab52efd839b	-0.046468412386054335
29	0x3fa78320a96ee363	0.045922299082525674
30	0xbfa3b9e801ded634	-0.03852772734482493
31	0x3f9e799f5826f29a	0.02976082778490028
32	0xbf95a1593a03b4c4	-0.021123308339998884
33	0x3f8d9c42ffe13950	0.014458201822119904
34	0xbf7c5a9b23a748fc	-0.006922346127298914
35	0xbf6e42e9edd31bbe	-0.0036940163541631923
36	0x3f965600a37e60fa	0.021812448481427694
37	0xbfa7df93bfb8de2c	-0.04662763324125438
38	0x3fb3738a3e25202d	0.07598175065243203
39	0xbfba0d536fb3867f	-0.10176583745080768
40	0x3fbdfe883ef88847	0.1171651033151032
41	0xbfbd02b2479f8275	-0.11332239388094385
42	0x3fb692e2f37b32ff	0.08817881054273967
43	0xbfa5b99df80ce17f	-0.04243177082975346
44	0xbf8c27e64d6f2ba5	-0.013747977483850546
45	0x3fb1cb181247b235	0.06950521894732094
46	0xbfbc452b8b81bfc4	-0.11043045192650341
47	0x3fc09428d126d1fe	0.12952146732790476
48	0xbfbf3c24d7d68ca3	-0.12201147336468181
49	0x3fb7fb511b1d4386	0.09367854034395692
