Trained_models/2/predictor4_50_6.pth (torch, 31429 bytes, 16 tensors)

encoder1.weight f8 [28, 50]
0.39701279080675267 0.23149985335848863 -0.3714030819253453 0.3212515766241974 -0.1712415074658978 -0.08399889860734996 0.22060207314550068 -0.3493655551199861
0.30128754492364224 -0.24489174572578293 0.03605747908648782 0.14544024842409814 -0.2573815401613764 0.2657186495577937 -0.27838966650810715 0.1820892088049599
0.0008340253165901241 -0.1094536622562092 0.12545826134146007 -0.1569878648601586 0.1882197726377597 -0.11197864902960034 -0.017798636556330138 0.09146220335545747
-0.011520867085009436 -0.04651530542110354 0.0213355351379295 -0.02612202323219035 -0.05570025379564363 0.07150443753943654 -0.122703074581625 0.07675154739607427
-0.12125117268494831 0.0890251331180245 -0.043063021455075 -0.20042108301258751 0.30369026904627877 -0.2555045978951891 0.10558069859904863 -0.06635357360122819
-0.0398243972877619 0.16460104529525055 -0.27355552281357515 0.2589270324028275 -0.15319010986788043 -0.061936475274709295 0.17252798953917556 -0.2695034846783238
0.22309000095350842 0.16562229059802563 -0.08880291984156027 -0.09223905900821923 0.2064979641821624 0.05691768165932709 -0.2934647761643883 -0.11429807612118195
0.272525757528005 0.021000037888327425 -0.3671487363099617 -0.03163565852312756 0.36557967036869105 -0.12227939153244446 -0.35610858208519747 0.15435921937698385
0.24445231885149588 -0.18661176145540623 -0.2430734707512052 0.041888460686820395 0.31268512514245667 -0.1096020212726109 -0.4392732027949377 0.2208284200330792
0.4728284828381754 -0.4835480726554473 -0.3628968976656723 0.4196885768230984 0.19278016554288735 -0.41505335448618697 -0.19402743938650158 0.39828700169151615
0.21452176422164612 -0.5644463324267665 -0.12343561725936285 0.6281536276803258 -0.08355779490934995 -0.6054148901384072 0.205521996328277 0.44827869532062947
-0.27572218811109167 -0.3481028508542594 0.25635773403966067 0.2788886717354299 -0.18079794518347508 -0.36701977614413905 0.1421252467430618 0.4508440767120205
-0.2857510785518579 -0.46728832620569216 0.38245668512837677 0.5032644461350647 0.33711546942657045 -0.0075409472868011845 -0.18091892986374125 0.041956299816643165
0.18726013229075708 -0.30525478472096185 0.058752194131696335 0.17066638170483522 -0.20412844866801022 0.07021651478105592 0.03539885830387472 -0.15252841377054666
0.20837960813450884 -0.05540446323192525 -0.26726968928346817 0.4341194831252998 -0.31064927799462794 -0.0658873809647429 0.25741483692409817 -0.0321272338726042
-0.3046549037593624 0.3953317788443961 -0.31332855157365375 0.2076187236627374 -0.1058738484998292 -0.06871184839105839 0.046761673027724444 0.19071846367187043
-0.4255340188166793 0.3192004095984669 0.04864391195796724 -0.3755145712883978 0.2905953674766799 0.041134223067190986 -0.21493465230982922 0.11826685824728314
0.07707192775733275 -0.21111990838674652 0.18779600358494145 -0.09934480094925104 0.013702453895675506 0.11630116600340744 -0.14302095619415506 0.1112963514597044
-0.013264421894991914 -0.022145179703640445 -0.04526421032915532 0.1280107010020119 -0.0010410114690739436 0.1948632066893921 -0.2675472246477815 -0.05225623383174078
-0.06455840891470872 0.18119538240644484 -0.19576283327351982 0.14401584915411567 -0.1964732162292883 0.21622268234705086 -0.23984808327817847 0.1900102891874624
-0.08922083597578123 0.008976914762707055 0.06856492214067934 -0.01316456462419227 -0.050039216622590414 0.07902608467300683 0.02010357046948423 -0.16994421081695563
0.29789914984206256 -0.2810300114052385 0.1696083873111234 -0.03876922030395024 -0.0009471366543097201 -0.025729265040917326 0.12266233667302026 -0.17224592811102873
0.11767650527991676 0.13585511212950785 -0.2653756422839483 0.255576400055077 -0.07894796511800653 -0.03096749677925366 0.05486176592505408 0.1722851449604314
-0.3568525930893718 0.3933397610879666 -0.22648595044472863 0.12806493031783817 -0.06941886405236229 0.09906257834491292 -0.14939769491240826 0.18852273567062727
-0.118203579727815 0.12633761721858985 -0.09309754612149553 -0.0004627011197141304 0.009169279389297989 -0.008899011269956809 -0.03888052519271972 -0.1226898997931403
0.20794979868949898 0.32446754534395195 -0.5877153506502294 0.20661579559543666 0.30611753446920115 -0.45534858484374824 0.29912252510586496 -0.21692725823859202
0.03356253551566109 0.23378520561914684 -0.5117397993167698 0.29150286007565923 -0.15401529142982484 0.0035229974732073088 0.10235062543732976 -0.340918134591356
0.36925442651684726 -0.20550482970045125 -0.06771310871289067 0.22556049219908963 -0.29251827462788366 0.29316948244257174 -0.13691746710705738 -0.09394702487619383
0.09644534846129023 -0.029725916358340106 0.021621460316657577 -0.18459951039051722 0.12987478550338727 -0.02800727150651416 -0.04254453079107719 -0.039373519663343876
-0.03543501404757741 0.14676930626768836 -0.326580231716377 0.20715183143178456 0.05489100938387777 -0.3112712786102063 0.17923497858509208 -0.10618766775885641
-0.010705771198041796 0.07287866794425568 -0.2650044806657422 0.09528472541943392 -0.0538755579952911 -0.08913202744194317 0.1331309625678391 -0.23689453444301858
-0.004758744303886612 0.37106500213646615 -0.8013578752593837 0.007812287944458979 0.0012144469247769624 0.08307390739768036 -0.13727665952173232 0.11716044734410767
00000000: d0f4 2656 a868 d93f 6f0c 9a85 c9a1 cd3f
00000010: 9c30 a06e 11c5 d7bf 5feb d8c5 628f d43f
00000020: 9b52 24e1 3deb c5bf 9628 6baa f380 b5bf
00000030: 1e7c cb50 b03c cc3f e0b5 6558 015c d6bf
00000040: 3be8 088e 4b48 d33f 52ee 79db 9c58 cfbf
00000050: 40c4 e73a 2076 a23f 8676 403b c99d c23f
00000060: 0c95 656c f078 d0bf bc6e 72cb 8801 d13f
00000070: 3096 4ce4 22d1 d1bf efca 62fe b24e c73f
00000080: bea6 b9ba 4f54 4b3f 7e5e d1bb 2705 bcbf
00000090: 6fbf bc2c 040f c03f 60bc b8a8 2d18 c4bf
000000a0: 3149 f8e3 9517 c83f 7ab1 6efb a1aa bcbf
000000b0: d3f9 b047 ce39 92bf ad56 3b24 116a b73f
000000c0: c13c d09a 4098 87bf 571c 18a7 dad0 a7bf
000000d0: 5be8 a386 fbd8 953f fa4f f34d bbbf 9abf
000000e0: d7c4 dc60 be84 acbf 7531 c064 1d4e b23f
000000f0: c85c 72fc 7769 bfbf d1c8 fb49 fda5 b33f
00000100: 8e93 481d 510a bfbf ff92 43e3 59ca b63f
00000110: 6e0b a239 5b0c a6bf 43e6 7be6 65a7 c9bf
00000120: 8bb3 6a4f a96f d33f 78ff fbf4 2f5a d0bf
00000130: 015e 922f 5607 bb3f 810a 973c 8cfc b0bf
00000140: 6321 de07 dd63 a4bf 241b 37a5 a511 c53f
00000150: 99f7 0706 ef81 d1bf 491c 0eb0 4292 d03f
00000160: 3d02 fac7 bb9b c3bf d701 783f 23b6 afbf
00000170: df91 5bac 6515 c63f f57d 368b 8b3f d1bf
00000180: 8178 1491 368e cc3f 62b6 cd78 1c33 c53f
00000190: 6e41 82c4 c9bb b6bf 55a7 da9d fa9c b7bf
000001a0: 052e 6d79 866e ca3f 40f7 947a 5024 ad3f
000001b0: 45db 097c 20c8 d2bf 7aaa ef82 a342 bdbf
000001c0: 46a0 f9df 0f71 d13f 6ccf c7af 0881 953f
000001d0: 5004 ce69 5d7f d7bf 310f 7d8d 8c32 a0bf
000001e0: 2739 1446 a865 d73f fe4b 9bc3 b34d bfbf
000001f0: ec5f 78a6 7bca d6bf c9b5 87fb 0ac2 c33f
00000200: 5403 73ad 364a cf3f 7bfd 3fea e4e2 c7bf
00000210: e768 b30f 081d cfbf 0098 7581 6772 a53f
00000220: 63ae 9b78 0803 d43f fafc f0c8 e00e bcbf
00000230: 17dc 005a 0d1d dcbf f7e2 080d 1b44 cc3f
00000240: 8f10 9a65 d242 de3f a855 869d 73f2 debf
00000250: 9bcf d2e8 b339 d7bf 7f70 fd79 2ddc da3f
00000260: 507e 293d 05ad c83f c83f e7f1 3b90 dabf
00000270: e087 5821 e4d5 c8bf 21f7 abc3 887d d93f
00000280: 575c cefc 7275 cb3f e9d7 43c1 f10f e2bf
00000290: 9b60 4a03 7a99 bfbf 3906 f8a2 d519 e43f
000002a0: 0c27 762c 0b64 b5bf 11fd 340c 8f5f e3bf
000002b0: a656 6b76 8b4e ca3f 5c52 f91f 99b0 dc3f
000002c0: 29ff 2dad 6ea5 d1bf e80e 042e 5147 d6bf
000002d0: 82ba f144 2a68 d03f fb06 15df 4fd9 d13f
000002e0: 8e9e df16 6324 c7bf 6e8e e183 407d d7bf
000002f0: c743 59fb 2831 c23f 4bb3 441d a1da dc3f
00000300: 4253 4be4 be49 d2bf 28c9 b64b 0de8 ddbf
00000310: 23d4 b09a 2b7a d83f 1178 2c0a be1a e03f
00000320: 726b 0ac3 4c93 d53f 5e8a a49f 41e3 7ebf
00000330: b0fc 7efb 5928 c7bf dfb5 25cf 4b7b a53f
00000340: 9b47 04d8 23f8 c73f 43bd 545d 4b89 d3bf
00000350: 554e ba80 c414 ae3f 3676 f95f 65d8 c53f
00000360: 422d 9b89 e120 cabf 26ad 9fa2 b5f9 b13f
00000370: e635 7695 cc1f a23f f678 6d12 0d86 c3bf
00000380: 40a6 0bd9 2eac ca3f 1d61 444b f95d acbf
00000390: 1ed0 ab53 f21a d1bf f217 a515 9dc8 db3f
000003a0: 00d4 6082 ade1 d3bf 2171 76d2 fedd b0bf
000003b0: f606 8614 7c79 d03f 226a 9615 fb72 a0bf
000003c0: 6b99 0d48 777f d3bf 2632 4da9 1d4d d93f
000003d0: 715c 7a32 930d d4bf 9198 1516 4093 ca3f
000003e0: f2f4 ce6c 8c1a bbbf 49f3 af85 1997 b1bf
000003f0: 197c b860 25f1 a73f e965 1b6e 7669 c83f
00000400: 2acc 8909 f33b dbbf 1518 068e c76d d43f
00000410: 0f98 04d6 dae7 a83f 70ba b644 6e08 d8bf
00000420: c09c eb4f 1d99 d23f 06d1 a37d 8b0f a53f
00000430: 1053 398b fa82 cbbf 7a6c 5fa0 bc46 be3f
00000440: 994c 2861 fcba b33f a71d 0727 fa05 cbbf
00000450: d5c0 db0e b309 c83f 31cb 1a2f a96e b9bf
00000460: cee0 da3a 0810 8c3f 3fa7 78c8 e9c5 bd3f
00000470: c68e bfbc 824e c2bf 48fd aeed ea7d bc3f
00000480: 5129 ea91 602a 8bbf f25d 5dda 39ad 96bf
00000490: 7502 16de de2c a7bf 06bc 2b97 a762 c03f
000004a0: 4d47 b98d 510e 51bf 325a f60d 47f1 c83f
000004b0: bddb ff64 7e1f d1bf a98f a33e 54c1 aabf
000004c0: a570 f85e e686 b0bf 3c9a cf08 6931 c73f
000004d0: 034e 57ab c10e c9bf 077e 1c81 1c6f c23f
000004e0: 4d53 1fcb 0826 c9bf dbbf aa52 2fad cb3f
000004f0: 6212 d88c 57b3 cebf ff58 fbd4 4152 c83f
00000500: 4844 a33c 2dd7 b6bf 1934 991a 7d62 823f
00000510: a93b 3f82 788d b13f 8f43 37f4 05f6 8abf
00000520: 37ae d27d bd9e a9bf ed94 33b1 0d3b b43f
00000530: 6c0c ccc6 0796 943f b33a cd5d bbc0 c5bf
00000540: b2fb 8498 c710 d33f 3985 0b4d 65fc d1bf
00000550: 3175 5046 bab5 c53f 5f01 982a 8fd9 a3bf
00000560: 8dd1 407a 2809 4fbf 007a 9abf c558 9abf
00000570: 0629 7684 cc66 bf3f 9292 0d92 270c c6bf
00000580: f54f af25 0c20 be3f 649a cb47 b363 c13f
00000590: 6eee 301e eafb d0bf 066c f71d 5d5b d03f
000005a0: 9280 4410 ef35 b4bf f49e 9f87 f1b5 9fbf
000005b0: 1ed8 e564 d716 ac3f b688 988b 700d c63f
000005c0: 08f2 3342 acd6 d6bf 99b6 8588 7a2c d93f
000005d0: 64f0 14db 7dfd ccbf a464 bd7f 6e64 c03f
000005e0: df92 d446 6fc5 b1bf e6b3 3f46 2a5c b93f
000005f0: e78f dfb2 761f c3bf 7cff 2054 8321 c83f
00000600: e67a 33fd 9642 bebf 2dad 1abf d42b c03f
00000610: 2dff eda3 3dd5 b7bf 8187 4f2d d652 3ebf
00000620: 32e1 d6d8 57c7 823f aa37 f812 a539 82bf
00000630: b7dd 4ef0 25e8 a3bf e23a 29f3 9a68 bfbf
00000640: 2a64 4a58 199e ca3f 2667 f785 13c4 d43f
00000650: 0bcc 4c6c 90ce e2bf 99af 75ea 6272 ca3f
00000660: 75c0 d1ff 6d97 d33f 0dc3 0b64 6e24 ddbf
00000670: 7de7 b4cd d224 d33f 1373 dfbb 45c4 cbbf
00000680: 8a3a d2d0 1b2f a13f a420 3672 acec cd3f
00000690: 7211 c424 2c60 e0bf 73c9 ad9c fba7 d23f
000006a0: 6c33 e3e7 c5b6 c3bf 4557 cddd 42dc 6c3f
000006b0: 787d fa8c a633 ba3f 8eb9 ab4b 9ad1 d5bf
000006c0: 0ec2 7251 dda1 d73f ece2 5d75 fb4d cabf
000006d0: 05af 6e73 a555 b1bf 6ee3 a18c 2adf cc3f
000006e0: 3595 c091 9eb8 d2bf 7dab d1ee 49c3 d23f
000006f0: 7eec bcf5 8286 c1bf 1456 6687 e90c b8bf
00000700: c518 7e71 a4b0 b83f c22a 697a 7870 9ebf
00000710: 42a6 cea3 ef23 963f ab10 feed f4a0 c7bf
00000720: b0f1 27aa bc9f c03f 5fc4 ae2c f0ad 9cbf
00000730: 7a20 be90 65c8 a5bf 8ca0 9016 c428 a4bf
00000740: 3d6f efc4 8924 a2bf 5cf8 3c2d 56c9 c23f
00000750: f77b afc5 b0e6 d4bf a62b a782 f383 ca3f
00000760: cade 4ba4 ac1a ac3f fc27 745e deeb d3bf
00000770: dc3e a9f9 2bf1 c63f fc46 4370 1d2f bbbf
00000780: 6973 6449 e8ec 85bf 0089 6527 2da8 b23f
00000790: 522e 705a d5f5 d0bf 6a1c 7c6b 9464 b83f
000007a0: 517c 49bf 9395 abbf 81aa e346 5bd1 b6bf
000007b0: dd2c 2875 6f0a c13f 2d57 0463 8f52 cebf
000007c0: 37c7 7bb2 e77d 73bf 5571 376c 87bf d73f
000007d0: fa31 5445 b9a4 e9bf 7a78 a713 c7ff 7f3f
000007e0: 17fb c674 c2e5 533f 4689 6ce3 5444 b53f
000007f0: 2132 9315 4892 c1bf bf48 ba21 3afe bd3f

encoder1.bias f8 [28]
-0.5445227506148057 -0.02738236627879095 0.040984732410483074 -0.2850560516225174 -0.04471193352375962 -0.2561739531105654 -0.05816663730874872 -0.8857123842743392
-0.019883765980667528 -0.08265401844636186 -0.04450379932600156 -0.6187293145785846 -0.5027565460249717 -0.02761882143080953 -0.019928608182597504 -0.3274057733628495
-0.059163270923769856 -0.025828736448151396 -0.01212580998957483 -0.6746739298432871 -0.1510191439559738 0.01225194255478319 -0.026577407750569843 -0.03610780388446184
-0.011902706023684158 -0.558696007760144 0.04486604034119721 -0.10048141536381096
00000000: 9931 baf9 ba6c e1bf 5735 9e7e 1f0a 9cbf
00000010: 623a ad6a f3fb a43f e9b7 cfbc 5b3e d2bf
00000020: 4771 7388 7be4 a6bf 459a ac6f 2765 d0bf
00000030: 7132 eb79 04c8 adbf e7da 837f c157 ecbf
00000040: 1be2 6ef2 685c 94bf d62f 1c52 d028 b5bf
00000050: ff4b 4eb5 33c9 a6bf e820 666b a1cc e3bf
00000060: 98de 60e5 9416 e0bf 8493 32bb 1b48 9cbf
00000070: afa1 9841 2a68 94bf 985c 4758 37f4 d4bf
00000080: b4e4 7bf3 a54a aebf 5804 5e29 d972 9abf
00000090: 52eb bdaa 6ad5 88bf c080 04c8 ed96 e5bf
000000a0: 772f 2e66 9854 c3bf 269f aee4 8b17 893f
000000b0: 0595 67a4 1b37 9bbf a9d7 a0d9 b87c a2bf
000000c0: 4452 d828 7260 88bf e189 3773 d6e0 e1bf
000000d0: add3 ee7f aef8 a63f 71e6 d768 26b9 b9bf

encoder2.weight f8 [6, 28]
0.513204242008204 0.4470162931368535 0.01243675009493305 -0.09289087092521546 0.8337626428038574 0.24589074683338813 0.6953604696453526 -0.08041260415252713
0.32311851379556117 0.7304330712215209 0.5926221532907336 0.6204377021137014 0.8866893423528333 0.41935441750273744 0.634626372196562 0.05546826975408713
0.663435758407598 0.4446600822093971 0.808508389182339 -0.08979603752658388 0.0026457674606553136 -0.09454981875397177 0.34137322179320967 0.9331519596787302
0.20999754015562977 0.8651253591066268 -0.04009968933642183 -0.2409022286157914 0.9206942913552199 0.500007364238169 -0.02246468034565418 0.03190504921961763
0.36975847750777957 -0.0512270834028378 0.4389234658442209 0.034141512146113544 0.45329932112338 0.6156651639032783 0.6815295942827254 0.7866397864857269
0.18900423333071434 0.44154423824378924 0.8052987507898232 -0.19282703382101438 0.6168926121967495 0.479974638628766 0.42901808649429396 0.13643415244742366
0.14487770806923533 0.5332184004374113 0.4223950925911463 0.49327535852147747 -0.31174019018531535 0.35454888448291527 0.16356608815456988 0.23165997948884953
0.08220195422880025 0.9508036111817125 0.20018386146279896 0.25443285085721085 0.1928412389908923 0.02821335646743296 0.34383997968957025 0.3462371894483409
0.3945927202562812 0.3457424492408871 0.3941547220581279 -0.13551765255038004 0.3077432099235189 0.9336999442989303 0.22718924540853735 -0.17709180428383553
0.6146035120728435 0.9008117175052964 0.09521337271844982 0.48537013844095955 0.5012551615165998 -0.11480316493522388 0.5227497678550761 -0.008317302533342586
0.5514507016484891 0.5208219371766394 0.4592678849901664 0.456841938105876 -0.05068373495351744 0.810887243186357 0.01193044415247654 0.37264888837634536
0.35408726996053097 0.05459587322535662 0.30653946999707526 0.3356345173180638 0.3721316833758629 0.2641398918298644 0.25960948747675117 0.6085752156763843
0.4762877812543696 0.794804037172525 0.0368987075338823 0.725032646721672 0.49177991940750576 0.7888243330637993 0.2291136173690293 0.11883329099071341
0.6378473401267698 0.2267677854958798 0.5349608452169204 0.12881373109970795 0.18457445096872696 -0.23047089867780465 -0.2668308960541396 0.3973733465090736
0.3811952307149678 1.0774545919824963 0.8835308326787158 -0.20298430701110293 0.1813866634580844 0.45186752477374104 0.02883237842548304 0.853535345025129
0.4440383254665081 0.28069604844739054 -0.07459938587946585 -0.03129425192892165 -0.28498532790431136 1.095264844963685 -0.1611059732525197 0.36235770294809516
0.5617544233618883 1.1099990935956303 0.17819323591292127 0.4800046961975102 0.5087040649273715 0.4817255260833956 0.5989126567311109 0.13266492769287047
0.22077488482994842 0.025777382082240546 0.4055405583973834 0.047492741821873755 -0.058092504037827265 0.980711891798314 -0.00902174279552023 0.7392053145670636
-0.18200412459610107 0.6226851588175542 0.3006986862072509 0.26237241286095525 0.3821593323744048 0.1829950825472194 -0.02395165036750107 0.11689673521203868
0.17329484848252472 0.9697139947736088 0.3308391447764725 0.1300503629454147 0.4323202825564738 0.9551842680075902 -0.013490455489971194 0.5332112551425404
0.555734486752803 0.4604558109833155 0.5267982140309615 0.41561730693243154 0.2519928339467789 0.007540411557661975 0.4418282083942805 -0.26425230092525914
00000000: a3ff 724d 2b6c e03f e752 f339 ea9b dc3f
00000010: 3bfc 6857 7078 893f 9383 b834 b2c7 b7bf
00000020: d802 6ffe 2eae ea3f deea 0416 5979 cf3f
00000030: 0edb 8199 6440 e63f c673 05a1 eb95 b4bf
00000040: d7fa 5e46 f9ad d43f 5106 1a2d b55f e73f
00000050: 029a e8bb c2f6 e23f 6114 f92a a0da e33f
00000060: d4bf e353 c25f ec3f 6fdf 26e9 b3d6 da3f
00000070: 6d6d 38f7 db4e e43f 1e78 1e49 5666 ac3f
00000080: 6271 aba0 dd3a e53f 1c44 bb8f 4f75 dc3f
00000090: 9c8d 42fc 4cdf e93f 64b0 7c84 dffc b6bf
000000a0: 8238 ec96 93ac 653f f31a 64bb 6a34 b8bf
000000b0: 533f d511 0fd9 d53f 3397 a07f 61dc ed3f
000000c0: 78bc 9a0b 33e1 ca3f f6b3 8960 1baf eb3f
000000d0: c033 8f4c f287 a4bf 811b b85c e2d5 cebf
000000e0: 8e81 dfdf 5376 ed3f e42f a571 0f00 e03f
000000f0: 5e45 992d fb00 97bf 6978 f3cd db55 a03f
00000100: 7823 1476 1faa d73f 34f1 c4af 6f3a aabf
00000110: 9fdd cf72 5217 dc3f c703 350c ff7a a13f
00000120: e487 e127 db02 dd3f af08 086e 87b3 e33f
00000130: 1f6a d626 17cf e53f 2c09 9633 272c e93f
00000140: 1b01 7b6c 4a31 c83f bba2 bfc3 4242 dc3f
00000150: bbdc c4e2 01c5 e93f 73e1 0566 8eae c8bf
00000160: faed 5093 95bd e33f 5c7a f48b e7b7 de3f
00000170: e6ab b846 0875 db3f 55da 689f ac76 c13f
00000180: 9ed4 094d 5a8b c23f b321 f008 2010 e13f
00000190: 13df 2a6d 8508 db3f 576f 31cf d291 df3f
000001a0: c776 6c20 8df3 d3bf 69fe ebcd edb0 d63f
000001b0: 55e4 adcb bbef c43f 7c2b d9c1 08a7 cd3f
000001c0: f679 14f1 2f0b b53f 8536 deb1 fb6c ee3f
000001d0: 43b9 15f1 9f9f c93f cf6c 5db9 a048 d03f
000001e0: bb9b 648f 05af c83f 8320 5a4d f6e3 9c3f
000001f0: 8ebc f466 7901 d63f b0bb 5507 c028 d63f
00000200: ca62 2fd3 0141 d93f f706 15f0 a420 d63f
00000210: a96e 33ba d439 d93f 7f06 de76 a458 c1bf
00000220: 4001 8c93 10b2 d33f 474f a1b4 dee0 ed3f
00000230: c82b 8485 8914 cd3f 54f4 e4b9 f1aa c6bf
00000240: e081 0bfc d4aa e33f 2b3e 5118 73d3 ec3f
00000250: acb4 f751 e75f b83f 3ec5 c3e9 4d10 df3f
00000260: a147 b543 480a e03f bec3 df7e bd63 bdbf
00000270: 8cbb 9db8 5dba e03f ad20 f972 a908 81bf
00000280: ecf7 1df1 7ba5 e13f 2ad1 66c4 92aa e03f
00000290: d5b1 8820 a564 dd3f 99c8 e6f7 e53c dd3f
000002a0: c404 21f0 37f3 a9bf fc53 c7cd c9f2 e93f
000002b0: ee70 b11b fd6e 883f eae5 1db9 7ad9 d73f
000002c0: 0e44 1aa7 5da9 d63f 5dba ff83 fdf3 ab3f
000002d0: e684 a4b9 579e d33f 928c d232 097b d53f
000002e0: 8ee7 7968 01d1 d73f 929b 3e01 abe7 d03f
000002f0: f869 9c1c 719d d03f 178f 0fbb 7279 e33f
00000300: ed33 febe 7f7b de3f fb4f 4ce0 086f e93f
00000310: a8d1 3e2c 63e4 a23f fd75 46aa 7733 e73f
00000320: fed2 ab7b 5279 df3f 7589 1987 0c3e e93f
00000330: d688 d552 9853 cd3f aa2d 7bca db6b be3f
00000340: 0dec 35d3 3e69 e43f e7dd 3e0f ba06 cd3f
00000350: 311c db34 661e e13f 80ab 2ce5 f77c c03f
00000360: 453e 4bb7 22a0 c73f 831d 4006 1280 cdbf
00000370: 9b5a 07e5 c113 d1bf 3bbf e39d 906e d93f
00000380: 2df7 53ae 8065 d83f 68d6 b706 413d f13f
00000390: 819b eb73 e245 ec3f 6c61 1bc8 63fb c9bf
000003a0: f4d3 bd9d ad37 c73f a2c5 41c4 65eb dc3f
000003b0: a306 9d29 3c86 9d3f bd9d 1b5b 2950 eb3f
000003c0: 0427 83b9 1f6b dc3f 9bab 0c8f ecf6 d13f
000003d0: e46b a702 f218 b3bf 3fcd 2cd9 cc05 a0bf
000003e0: 2d16 cc19 333d d2bf 983d 196e 3486 f13f
000003f0: 47a8 27db 1e9f c4bf 7968 e75c de30 d73f
00000400: f01f 9769 e4f9 e13f 7553 d968 8ec2 f13f
00000410: f9a4 4e34 09cf c63f ec0f 069e 65b8 de3f
00000420: fe91 46bf 4d47 e03f 124d 0b4d 97d4 de3f
00000430: 5242 3ae0 4a2a e33f ca2f e212 2afb c03f
00000440: bfb7 0ff7 5942 cc3f 5b31 14d4 6265 9a3f
00000450: 7b2c e162 60f4 d93f 3a3a d8f9 f750 a83f
00000460: 3d6e f8f9 4cbe adbf 3a4e c2e7 fd61 ef3f
00000470: afd4 13d2 fd79 82bf ac09 63e7 91a7 e73f
00000480: 714d 7041 e94b c7bf 466e 1a6d 09ed e33f
00000490: b375 cdb3 a53e d33f 0011 27a9 b5ca d03f
000004a0: 5c31 9a6a 4c75 d83f 943f 6f03 626c c73f
000004b0: 8ef8 0d0c c886 98bf 4fb0 bec6 f1ec bd3f
000004c0: a71b 668d 862e c63f 57d6 c0a4 e507 ef3f
000004d0: bd4c c3f2 772c d53f 7b7c d783 7da5 c03f
000004e0: ec8f beb0 22ab db3f aee1 1799 de90 ee3f
000004f0: 44be 1949 e2a0 8bbf 4748 d60c 1110 e13f
00000500: b39a bbb0 93c8 e13f bd4b 5ba6 1b78 dd3f
00000510: 8255 9bed 87db e03f ef49 3b55 7999 da3f
00000520: 732d 288d a620 d03f a7da 9dd0 b1e2 7e3f
00000530: be3c 60d2 e946 dc3f a578 977b 82e9 d0bf

encoder2.bias f8 [6]
-0.05774540997478835 -0.07367860642873823 -0.4191060957792933 -0.15962303893627053 -0.17313820131631952 -0.06687354023009418
00000000: abf1 ab6e ce90 adbf afba 06e5 99dc b2bf
00000010: a348 bb5f a2d2 dabf 71af f519 876e c4bf
00000020: f4c1 2b80 6429 c6bf e088 41d4 9f1e b1bf

decoder1.weight f8 [28, 6]
-0.9681236450876984 -0.7622659355124776 0.11083563855120503 -0.01291571594305892 0.5385647699210184 0.4761406396878925 -0.5551318618430303 0.16165859092046192
0.6099820645038321 -0.9256460306167595 0.08001734451935918 0.35565620620881605 0.08037061622760917 0.5707018212273953 0.2452032756612743 -0.7099412646152051
-0.3567503837621466 -0.11897815842354757 0.39151611798355174 0.10330091043505829 -0.03929314375973069 -0.34926826858826043 0.7784630273578235 -0.6842689492903142
0.6746704672930711 -0.35871227012354673 0.22504087162926997 -0.00453113779850004 -0.2674848001426966 -0.579029292734958 0.6516867704773562 -0.11652795502271414
0.2958028510136338 -0.1851802299051816 0.0381072501594758 0.3018322711174702 0.47093621941297403 -0.2997673471870911 -0.5262563763102919 -0.4114705327531667
0.17567618390036177 0.5430429028319794 -0.2344919939597605 -0.04076351193783118 0.1511257881972363 -0.5106400966849234 0.6510431240796841 0.10956117606837282
0.06518636531276302 0.45995138604830393 0.4425139709069336 -0.7312808124338871 -0.09195949448367859 0.04379876604736329 0.5078435044556499 -0.4304862139469236
0.42394729336028614 -0.02312591053988446 -0.15463717157487838 -0.1642300970343759 -0.39500887171149535 0.027050400755691848 0.21596496890168526 0.10296381658402234
-0.4829718799356803 0.6602409506464711 0.3633590061133501 0.20949778977514813 -0.7478367682197984 -0.1104430259979189 -0.24441185432361687 0.17005712459173059
0.3259589666535291 -0.15920188099775195 -0.37463601205575375 0.58028507355016 0.008309527426103934 -0.13017768565075843 -0.6205283997139251 0.3521598403458997
0.21305615045344048 0.044232230874716075 0.18718599086917342 0.007747927594149155 -0.37683003526680836 0.07244693480696528 0.5406241513620993 0.39560596732174064
0.11771743527252182 -0.35559553970383045 0.3158379588995558 0.14583985953014417 0.5896628628820586 0.25046517185053246 -0.18949127880596833 -0.23141983023477836
0.16417092059931862 -1.0248085918392522 0.6072650561388477 0.013671886980038413 -0.0434099482859446 -0.07001362037312488 -0.16860136316149626 -0.05190323038308067
-0.5076731677794877 0.1054136030154287 0.5801992985705755 0.19996868244319652 -0.16262001890993397 -0.330210907227329 -0.33465911891330336 0.4537592557780988
-0.07952311937523372 0.5961990458987225 -0.23576924673607577 0.4455479935849193 0.3874227550439763 0.37599933662951895 -0.19381681242737017 -0.5406162726090633
0.04684027814691825 -0.3099701210804493 0.21218030329038934 0.20510379733567913 -0.26287769726275556 0.24653340769202806 0.1579570692485828 0.4089189692840171
-0.4482087050440064 0.18976229024565416 -0.0023339279871615547 -0.6481577532594627 0.047863851230329886 -0.4282694191240294 -0.28874828979909883 0.4508396842112083
0.40380328739582955 -0.15950684119862 -0.42327150313517237 0.07940461395683192 -0.17238374286602348 0.42022535384440785 0.4453985539761796 -0.21421576716369065
0.162540082388145 -0.7812594520750322 0.2309548739286124 -0.030387786041453528 0.5117537213953314 0.1182030731728576 -0.1177872657341985 0.7668569149946548
-0.18744149712306094 0.0830629625885282 0.09525913112489315 0.2627691612927819 0.05133552470817228 0.24414443336872865 0.034279459329170044 0.2961813445297331
-0.9334149013893751 0.5816460280884185 -0.4472921850220543 0.005697853698339323 0.05455530243664577 0.585960645702091 -0.1848525898206201 0.13004489592880214
00000000: ea59 4470 defa eebf a130 fc87 7b64 e8bf
00000010: 1f07 cf72 b95f bc3f aa8f a30c 8e73 8abf
00000020: 4fd5 322f ec3b e13f 9962 f096 1679 de3f
00000030: 42ab f2e4 a3c3 e1bf 3e77 8f8c 3ab1 c43f
00000040: c018 461b f984 e33f 727a a56c e49e edbf
00000050: 2acb d245 047c b43f b152 923f 12c3 d63f
00000060: 5dc7 4130 2b93 b43f c20e 3e77 3043 e23f
00000070: e02a eb28 d262 cf3f 514d 33be d6b7 e6bf
00000080: f301 c68f ffd4 d6bf cb10 5e43 5a75 bebf
00000090: ab28 a69e 990e d93f 9831 f7af ed71 ba3f
000000a0: 4f65 cf1e 3b1e a4bf f07e c74b 695a d6bf
000000b0: 44b4 744b 2be9 e83f 88d8 dbfe 87e5 e5bf
000000c0: 9339 1385 e696 e53f f7b0 364f 24f5 d6bf
000000d0: 3f9d f4a7 23ce cc3f 2619 880a 3e8f 72bf
000000e0: 008f 3291 781e d1bf fd1f 7770 6887 e2bf
000000f0: 8ff4 cd36 9eda e43f d56e e4ab c6d4 bdbf
00000100: 0eb2 ca14 6fee d23f 757d a75b fcb3 c7bf
00000110: 30d3 5922 cb82 a33f 95ec 544d 3851 d33f
00000120: d05b 38ab d123 de3f 66f1 2462 632f d3bf
00000130: b40d b29c 17d7 e0bf b452 5c80 8855 dabf
00000140: a0e1 44a4 8e7c c63f ce9f 7f82 9b60 e13f
00000150: 7091 9d6a d503 cebf 2943 497d f4de a4bf
00000160: 4fd6 f1fe 1658 c33f 7e37 69e6 2957 e0bf
00000170: 3aa7 c663 58d5 e43f 52fd 1f84 330c bc3f
00000180: 49d6 29bb 0db0 b03f 13f3 34f0 d76f dd3f
00000190: 4360 441e 2652 dc3f 3f11 b304 a766 e7bf
000001a0: 2135 5d4d a88a b7bf 1ba2 8eb7 ca6c a63f
000001b0: ffef 6305 4140 e03f 33fa 910c 168d dbbf
000001c0: 0c73 0dd4 f321 db3f c50a d695 51ae 97bf
000001d0: 4e7c 549d 26cb c3bf de09 e4e7 7d05 c5bf
000001e0: ea5d 684a d347 d9bf 1989 5baa 19b3 9b3f
000001f0: b4d7 4177 bda4 cb3f f253 e630 d65b ba3f
00000200: 5787 4de3 02e9 debf 9b35 50a1 b120 e53f
00000210: 95b0 fd21 4641 d73f dd92 d5d5 d2d0 ca3f
00000220: 0003 c85f 47ee e7bf 997a bb80 fe45 bcbf
00000230: 278e 893c e348 cfbf 3f61 498e 6ec4 c53f
00000240: e659 67ff 82dc d43f 6e6b 2c2c ba60 c4bf
00000250: 95bb eb52 09fa d7bf 1328 a800 b291 e23f
00000260: 4c99 52e4 9504 813f 2afd 4493 a9a9 c0bf
00000270: 3756 e05f 5edb e3bf 9d03 506d c989 d63f
00000280: 1760 3487 6c45 cb3f 2272 1262 9ba5 a63f
00000290: d4b6 86e6 b5f5 c73f b8ef 0e7a 4abc 7f3f
000002a0: 24c6 67b9 fb1d d8bf f7fc b0df e18b b23f
000002b0: 22e5 3005 cb4c e13f dff4 efb0 9b51 d93f
000002c0: 3c1b aad6 ba22 be3f 3569 68cb 13c2 d6bf
000002d0: 66c6 136a b036 d43f 564e 9169 e1aa c23f
000002e0: 46d0 f7a6 84de e23f c5a4 7812 9f07 d03f
000002f0: 2ea7 ac0e 4041 c8bf 1a8b 403d 2a9f cdbf
00000300: 15d2 767f 8d03 c53f 1bc0 a9b1 9d65 f0bf
00000310: acd6 8320 b76e e33f 4488 a19b 0100 8c3f
00000320: 131a 6b28 d439 a6bf 09f2 c6a1 69ec b1bf
00000330: 8279 6bbe ba94 c5bf e4aa 1a6a 0f93 aabf
00000340: 886d 95cc db3e e0bf 213a 81c9 62fc ba3f
00000350: 76ba 901e fe90 e23f a7ab a8e3 9298 c93f
00000360: 0d50 7297 bbd0 c4bf 41ba d4ed 2c22 d5bf
00000370: ae9c c214 0e6b d5bf 3dc0 f442 640a dd3f
00000380: a116 fe8c a05b b4bf 4853 8105 1014 e33f
00000390: eb26 11ca af2d cebf abb8 4fbb db83 dc3f
000003a0: 5af7 a8cf 88cb d83f fd0d 8985 5f10 d83f
000003b0: cd2f 6543 fdce c8bf b852 517f ba4c e1bf
000003c0: ed98 8ded 72fb a73f acc5 31eb 8cd6 d3bf
000003d0: 2269 be63 b928 cb3f b2cb eb5a d740 ca3f
000003e0: 40d8 25fa fcd2 d0bf 2150 b41d 688e cf3f
000003f0: 291e 4cef ef37 c43f 0b7d f277 ba2b da3f
00000400: bf93 7c90 73af dcbf 2040 4f77 214a c83f
00000410: b3d4 080c 9a1e 63bf 4cbe 1c54 b5bd e4bf
00000420: d1c6 6357 9c81 a83f 96ef 4023 c468 dbbf
00000430: c6a2 5d1b da7a d2bf 5745 dbb0 8eda dc3f
00000440: dd78 58be e9d7 d93f efd9 375d b86a c4bf
00000450: 40d6 d25b e116 dbbf e599 185c dc53 b43f
00000460: d65e fca4 ab10 c6bf 788d ede1 f8e4 da3f
00000470: 41db c0ef 6881 dc3f 91b7 2019 6c6b cbbf
00000480: 9cb7 1209 1dce c43f f24c 8bd2 1300 e9bf
00000490: 5506 30e7 ed8f cd3f 1eca fbcc f91d 9fbf
000004a0: cef9 1f57 4960 e03f 0f6a 907d 8e42 be3f
000004b0: 5fb1 3666 4e27 bebf bfa1 5383 178a e83f
000004c0: 0946 073e 15fe c7bf 119c d343 9d43 b53f
000004d0: a0a8 d304 e762 b83f 1997 89be 35d1 d03f
000004e0: 323c 7d5f a648 aa3f 9ad9 68f2 1f40 cf3f
000004f0: 0998 7cc9 138d a13f 5a31 1c99 a2f4 d23f
00000500: 3420 62ed 88de edbf 259e 8f21 d89c e23f
00000510: 4b45 9b66 6fa0 dcbf 940c abf4 a156 773f
00000520: 53db 932f acee ab3f a112 418a 30c0 e23f
00000530: bf23 eee9 3fa9 c7bf a251 83a7 4fa5 c03f

decoder1.bias f8 [28]
0.3178694808989602 0.2261165234635389 -0.04368758794061788 -0.04679771030481169 0.03091276786883453 0.025692858059001747 -0.15662499814365094 0.15318854234209991
-0.0033245299566064136 0.028004265753984754 0.13075371652512457 -0.2463158434343566 0.013501939431650132 0.06916422525097078 0.2222384747024591 0.13166722450426643
0.21544001709074165 -0.00563653202699583 0.04679513424646194 0.1503900966535313 0.22168514176242649 -0.10969952722270794 0.08909638907187048 0.15235922654837558
0.14206596105064823 -0.0007721121014793918 -0.025939423367770196 0.1837698047935222
00000000: c9e1 363c f957 d43f 0e39 aee0 62f1 cc3f
00000010: 4f64 e432 385e a6bf cbdd 9296 def5 a7bf
00000020: 7518 1abc 98a7 9f3f d4ae 6a84 3a4f 9a3f
00000030: 58ab 61b6 490c c4bf f598 bda1 ae9b c33f
00000040: 64b5 056e 0b3c 6bbf 8557 3f76 26ad 9c3f
00000050: 9426 27ac 89bc c03f 8fc3 040e 4787 cfbf
00000060: 4503 55a2 e7a6 8b3f 918f 8125 bfb4 b13f
00000070: 3247 6172 4f72 cc3f 8eb7 99bb 78da c03f
00000080: ebc3 d3d9 8993 cb3f 4938 800b 5516 77bf
00000090: cba5 6626 88f5 a73f 0475 6291 fb3f c33f
000000a0: bc7a f0c0 2d60 cc3f b1e5 cea9 4415 bcbf
000000b0: 4a60 415d 05cf b63f ca72 a2d3 8180 c33f
000000c0: 162e 4ba8 372f c23f b7f6 c21c f24c 49bf
000000d0: d9ab 2a3c dd8f 9abf 3b4d cada c485 c73f

decoder2.weight f8 [50, 28]
0.06276746359661542 -0.13246505056528907 0.10663176889122568 -0.04755422585777914 -0.02149136023074609 0.04440358934746317 -0.13339556984437262 -0.0361319948802009
0.020416998451070343 -0.07748042462618372 -0.1427152037813915 0.18927978763334968 0.018779945264088067 0.16519723597304825 0.13676384408943112 0.19811712604767254
-0.21922447958494654 -0.11627601760554676 -0.2152720592120172 -0.19804046516043897 0.014727485196268899 -0.265261694213641 0.04446854137087846 0.31405312598809065
-0.04694647828929349 -0.2118156011286183 0.07721597587605589 0.16947202398437258 -0.09543105661809086 0.11657963438249289 -0.062403092211729884 0.07059135523902126
-0.06949985259075228 -0.006700846397771627 0.17712766561374538 -0.0204412192294482 0.03309331419546167 0.03310452674099309 0.15418855660270628 -0.080814342692029
-0.01989363285272262 -0.15567722873824275 -0.14473474315196858 -0.23592801334005192 0.26036295510834345 0.02933247379630521 0.19290200809526215 0.12140188903840575
0.04684412650055528 0.2562693176817667 -0.02051209923613688 -0.2715618437407062 0.08984552307879179 0.2011468439368296 -0.0810398949860963 -0.11403311625870807
0.12617630797747473 -0.09193624618629953 0.010564818587868171 -0.07092790461858177 0.15703902608763143 -0.04094267373413321 -0.21174326925618384 0.06414468162936701
-0.0913124811600849 -0.0060998543465502755 -0.14848485842601566 -0.022998501761603785 0.019646832120477596 0.13270195504892812 0.15737087119695217 0.2510846803812673
-0.2763929175540048 0.0442066521501512 -0.1554804841662708 -0.04331229603490871 -0.10745947369753837 -0.19864809264048208 -0.007415706000617785 0.19743510133415842
-0.11805562964859544 -0.150510560786358 0.053600006284794166 0.05392082021817621 -0.15049518722280256 0.06449430270115843 0.038220200881866354 0.045400178288617005
-0.22138167539199968 0.08913793787687688 0.22715807952910388 -0.08846600610110038 0.1388582532447557 0.0012419185301888055 0.1296182113796801 0.09437236554755032
-0.01682262145233053 -0.10512428460952998 -0.17196998940790612 -0.23160287290443765 0.26352405932942413 -0.08418197537614631 0.11768085784600069 -0.015324942133711923
0.15303019087261868 0.10435954113895698 0.0328595386081268 -0.11250221540494233 0.12936926191518222 0.06183306245486235 0.00021487090192745956 -0.002091051360064634
0.1674534456031981 -0.03948229581855798 -0.06975120940427355 -0.002523806569088911 0.24418752446577244 -0.12606945872082997 -0.21526972257099528 0.09126091016837323
-0.16686935180798396 -0.013125033786680729 -0.10664979188493627 -0.11604894883804708 0.008574720242144356 0.08346134241588354 0.1803686298259467 0.17679778764180443
-0.2236505198018941 0.08474516005882085 -0.09135453691443915 0.04091044703615332 -0.17699746372478237 0.0034725726080988262 -0.0552231169492654 0.040888115165390156
-0.12643671537643025 0.05128503284026154 -0.06615998588694229 -0.03144049952813808 -0.1804836797991282 0.02225320716117353 0.07298592253805104 -0.03870359495139998
-0.21621740540337883 0.1372120842147596 0.17929107122471913 -0.07663963344629422 0.17608449443789365 0.03359071482227299 0.08974347287738228 0.08488483203759999
0.01099141471814401 -0.07687827283169203 -0.17640190215945872 -0.10267109062554369 0.16918297706681468 -0.05508211477762554 0.08221033796994985 -0.026096765374099416
0.17946667469262778 -0.09465567876230911 0.07533343981997616 -0.0011087370487923194 0.1171979787994565 -0.16760587921654732 0.1301301075670108 0.046542089372502427
0.19283238180090592 -0.014477618332958098 -0.04756584709638599 0.05937910944280511 0.14937873579108837 -0.11733226519973472 -0.1256629625809688 0.05259721364916928
-0.16396012929222592 -0.05685444512581802 -0.08737211548583756 -0.013379555628289989 -0.0437169449227568 0.08882642408195085 0.15504357982134617 0.0275746116812132
-0.11911149692935372 0.012625216473213432 -0.09264540729677347 -0.023472317223032783 -0.16667538333155865 0.1434325961681693 -0.09557568693826485 0.0029121169752652754
-0.10761015010888916 0.2613134046595651 -0.1757977055187621 -0.04520518452886049 -0.2025982738415744 0.014083438720513371 0.001591741545421223 -0.05199879701132564
-0.06587342783979797 0.07385963188456275 0.058078578498586136 -0.03376899019629047 0.13019114378429206 0.07026533128463479 0.09788199876809718 -0.07297781803182987
0.08313068421120517 -0.11241034497348786 -0.11552059756516471 0.03398881300546322 0.08757829669820667 0.01925516624975779 0.11895638789378611 0.09072898251238838
0.14615023205668348 -0.135337153171364 0.11481911009286248 -0.03855852028825056 0.1053599964954459 -0.31184972883563933 0.1872924579617548 0.031668985092788586
0.20468849247139626 -0.015022859229291087 0.054803502025283515 0.01680922692570577 -0.0019589013734459494 -0.017664725027278227 0.012619181952899275 0.03157506957624414
-0.08470182258729728 -0.0665194479229203 -0.11157097710780384 0.1433625385284682 -0.12180680758012634 0.13856587411030744 0.06210764895007373 -0.07479412016599439
-0.08216614146357706 -0.026091371862641637 -0.15065711507593008 -0.1547562435611221 -0.1274635956411183 0.07389262407536269 -0.1311248154905702 0.09094282299335094
-0.11031451887661702 0.31116780440631264 -0.15908244881996073 -0.01629827233296239 -0.19677966057822488 0.011349916565866773 -0.10921316583601025 0.042564808324407406
00000000: 467c 664b 8711 b03f 4e3c 0562 9df4 c0bf
00000010: cd39 1a38 384c bb3f 5107 b109 0759 a8bf
00000020: 4cb6 59c5 d401 96bf 750d 2538 11bc a63f
00000030: bcd8 f424 1b13 c1bf 2e0c b390 e47f a2bf
00000040: 19f2 8492 31e8 943f cd82 d9d1 c1d5 b3bf
00000050: d907 71e6 7d44 c2bf 82eb d6f0 513a c83f
00000060: 5572 ebca 0c3b 933f 4069 f2da 2e25 c53f
00000070: 35d6 d146 7a81 c13f 5d7d 93e8 e65b c93f
00000080: 4165 2639 8c0f ccbf 1ac9 ecdc 43c4 bdbf
00000090: c072 07eb 088e cbbf 0509 93d4 6359 c9bf
000000a0: 8e92 299a 7129 8e3f 70dd 612f 0cfa d0bf
000000b0: b709 c7a5 94c4 a63f a2d3 5448 7219 d43f
000000c0: 686c d469 5e09 a8bf b8a3 d00b c61c cbbf
000000d0: 68cb 1d1b 6dc4 b33f 81c6 4c60 42b1 c53f
000000e0: 6b8a 3273 2b6e b8bf fa6c 0db5 29d8 bd3f
000000f0: 2df3 6f50 4cf3 afbf 27c5 216a 4612 b23f
00000100: 0640 f409 beca b1bf 3ba7 24c2 5872 7bbf
00000110: ec90 838d 1eac c63f 62c9 5200 8bee 94bf
00000120: fe1b 5f5c 9bf1 a03f a37c 6797 13f3 a03f
00000130: 3556 035c 73bc c33f d6f5 e8ae 3fb0 b4bf
00000140: c319 011a ff5e 94bf 2cd2 143f 3bed c3bf
00000150: 9161 3706 ab86 c2bf 3abd c09e e332 cebf
00000160: a3ef 5162 c9a9 d03f bfe3 a9fe 5409 9e3f
00000170: 580a 0d54 03b1 c83f e7b2 17b7 3114 bf3f
00000180: a4bd a80e f4fb a73f bf54 9a6c b766 d03f
00000190: 2ce9 90ad 1f01 95bf 854c 6ded 4461 d1bf
000001a0: a0bf 50bf 1d00 b73f 897e 3306 2ebf c93f
000001b0: 77f5 a2d2 07bf b4bf 62fb fd38 4631 bdbf
000001c0: 218a 2596 8b26 c03f cce9 af42 2289 b7bf
000001d0: fea3 95f2 01a3 853f efea b5c6 5428 b2bf
000001e0: 14fc 9ed4 da19 c43f 44d6 6529 70f6 a4bf
000001f0: 413d 4d48 671a cbbf 867a cf2d c96b b03f
00000200: 1d97 4c38 4160 b7bf 1f5a dc2e 29fc 78bf
00000210: e809 7245 8d01 c3bf a03d b153 eb8c 97bf
00000220: 66b6 b595 4c1e 943f c873 86ae 60fc c03f
00000230: e124 918c ba24 c43f eee7 b07a c511 d03f
00000240: f163 6feb 6bb0 d1bf c347 801a 41a2 a63f
00000250: 4c87 54d5 c8e6 c3bf ef1d f87d 072d a6bf
00000260: f721 2dcd 7682 bbbf f7dd a6fa 4c6d c9bf
00000270: 688f fd6b ee5f 7ebf 2005 a8ab 8d45 c93f
00000280: 3b0c 73cc e438 bebf f2d7 2318 ee43 c3bf
00000290: e8fe 1dc4 7571 ab3f 3c35 d27e 829b ab3f
000002a0: 15e6 a921 6d43 c3bf 913a e1d8 b282 b03f
000002b0: da17 ab21 9991 a33f 34e0 f631 b13e a73f
000002c0: 8f04 df17 3c56 ccbf d299 0370 bed1 b63f
000002d0: eec1 4c15 8413 cd3f fb0f 034b b5a5 b6bf
000002e0: fea2 3b74 1bc6 c13f 465b 2cde fb58 543f
000002f0: 2cbe 6b5d 5497 c03f 3e42 ac8f c928 b83f
00000300: ac0b e203 f339 91bf d3cf 69d4 6ce9 babf
00000310: 1141 33d4 1c03 c6bf ce60 64b6 29a5 cdbf
00000320: ccdb 2104 94dd d03f cd39 272f f38c b5bf
00000330: 1055 d02b 5520 be3f b715 38ea ae62 8fbf
00000340: cb9c 8c48 7e96 c33f aaa6 3790 4eb7 ba3f
00000350: c9fa 5d27 f7d2 a03f 594b e4f7 f1cc bcbf
00000360: 5645 8406 2c8f c03f d63d 1c4a 95a8 af3f
00000370: 9ea8 47fe de29 2c3f 4f5f 95a6 4021 61bf
00000380: a5ef 3b50 1d6f c53f ad97 9f02 0637 a4bf
00000390: fd6f 3f1b 37db b1bf 0f10 9f55 ceac 64bf
000003a0: 05fa d56b 8941 cf3f 507d 1d45 0b23 c0bf
000003b0: 2376 2151 f58d cbbf 208c 9300 e05c b73f
000003c0: 4629 5c94 f95b c5bf 4044 fb36 4ce1 8abf
000003d0: bf60 4598 664d bbbf 699d fe47 62b5 bdbf
000003e0: c94f 1978 9f8f 813f e80e 28f8 b85d b53f
000003f0: a4d3 29bb 5116 c73f 349e f655 4fa1 c63f
00000400: 202a 248a 94a0 ccbf 6a69 f2da dbb1 b53f
00000410: 8684 63cc 0263 b7bf 9087 2bd0 36f2 a43f
00000420: 2621 1657 daa7 c6bf bbd5 1c39 8372 6c3f
00000430: 9f80 8f52 3446 acbf a161 dc7a 49ef a43f
00000440: 4618 c70a 142f c0bf b17b a525 0842 aa3f
00000450: 6930 b05f dcef b0bf 1d8c 7c1a f818 a0bf
00000460: 8d78 19d7 161a c7bf e412 f473 8bc9 963f
00000470: a98b 5e96 34af b23f f297 1b25 f5d0 a3bf
00000480: 4349 840e 03ad cbbf 04c1 2863 2a90 c13f
00000490: 31ff af83 02f3 c63f e1b0 3aaf a79e b3bf
000004a0: e0c2 78cc ef89 c63f 28cb 385b cd32 a13f
000004b0: 91ae 09a1 6df9 b63f 6727 8729 03bb b53f
000004c0: f975 02b6 aa82 863f f9c7 9563 4bae b3bf
000004d0: 8810 5d68 5694 c6bf 903a 7b10 a748 babf
000004e0: 8e5c c5ac c9a7 c53f a9fb 2013 b933 acbf
000004f0: cb5a f998 bc0b b53f 59a8 4047 1cb9 9abf
00000500: 246b 4395 c3f8 c63f 4b30 aac4 5a3b b8bf
00000510: 656d 5264 0d49 b33f d0c3 5257 612a 52bf
00000520: f9d8 19ce af00 be3f 571b ed04 1c74 c5bf
00000530: c3d5 1c76 1aa8 c03f c81c 7c5f 5dd4 a73f
00000540: 29eb b842 bbae c83f 2db9 1c0a 71a6 8dbf
00000550: befb 5efb 8c5a a8bf 20b2 3e4a f066 ae3f
00000560: eb63 78a8 d71e c33f d867 ccc1 7c09 bebf
00000570: 1d47 4d55 b915 c0bf a4c2 f7a0 05ee aa3f
00000580: b83a 9440 a5fc c4bf cb2d e59c 061c adbf
00000590: e010 98da 045e b6bf cf3e de8e bd66 8bbf
000005a0: 01d4 7241 1162 a6bf f8dd 731a 54bd b63f
000005b0: 13cb 64d0 77d8 c33f 799b 7bdd 843c 9c3f
000005c0: 36a1 e34f 177e bebf eee5 dbde 3fdb 893f
000005d0: 8dd8 7602 9cb7 b7bf 2149 568b 2009 98bf
000005e0: 1189 3a74 9e55 c5bf 3180 dcd2 ff5b c23f
000005f0: 0c4d b1f1 a577 b8bf fbef 77e5 26db 673f
00000600: c671 6fbb 568c bbbf 543b c1db 5bb9 d03f
00000610: 291c f509 8a80 c6bf d47b 524a 2225 a7bf
00000620: 2114 3080 bdee c9bf 9e33 c225 c7d7 8c3f
00000630: a1b4 6678 3f14 5a3f 07a2 3019 969f aabf
00000640: 3652 3fba 14dd b0bf ed54 70ff 76e8 b23f
00000650: 14cb 7fb6 79bc ad3f 7626 0649 2b4a a1bf
00000660: a324 6478 1aaa c03f 1bfd e8a3 e8fc b13f
00000670: 9d7a 936f cb0e b93f ceb7 c79d acae b2bf
00000680: e031 fb71 0d48 b53f 4da9 64a3 ecc6 bcbf
00000690: cd87 8e04 c292 bdbf 349f 9350 fb66 a13f
000006a0: a57e 2800 886b b63f 8979 4955 a0b7 933f
000006b0: 3573 a703 ed73 be3f 09a8 b0bc 033a b73f
000006c0: fa3d 7e01 0db5 c23f 1502 6753 ba52 c1bf
000006d0: b7fe cd02 c964 bd3f 5e89 3d3f f1bd a3bf
000006e0: 6f2e 416b dff8 ba3f fe64 a790 58f5 d3bf
000006f0: 3ad9 dd02 33f9 c73f 8fc5 8ace ea36 a03f
00000700: c61e 8486 3b33 ca3f 6161 a808 4ec4 8ebf
00000710: 224a cf61 340f ac3f a7f4 aa1f 7036 913f
00000720: 76a5 b82a 1d0c 60bf 20d5 23a1 b316 92bf
00000730: d5de 51ee 15d8 893f 53d5 6586 9b2a a03f
00000740: 9e8d ecc5 04af b5bf b07d 6025 6b07 b1bf
00000750: 385c dc61 ea8f bcbf 8ec4 3923 b459 c23f
00000760: 6b9f fc1e bb2e bfbf 3d9d d2cc 86bc c13f
00000770: 34df 24e2 92cc af3f 47c9 0b1c b525 b3bf
00000780: d2b0 6c1a d708 b5bf 7b68 6e53 b2b7 9abf
00000790: 0596 147b bb48 c3bf ba31 7976 0dcf c3bf
000007a0: 20c6 5a23 ba50 c0bf f9bd d183 a0ea b23f
000007b0: a8ee 1cad b2c8 c0bf c4f6 8f62 0748 b73f
000007c0: ff5a d982 923d bcbf 3491 df5d 2cea d33f
000007d0: 4950 864d d05c c4bf 1202 9b8a 7eb0 90bf
000007e0: 52c9 596f 1330 c9bf e9a9 b303 a03e 873f
000007f0: ffeb 8edf 64f5 bbbf 397c 6df7 0dcb a53f

decoder2.bias f8 [50]
0.030972291343615337 -0.039493043473579334 0.045357845036705244 -0.045481394719565714 0.04150577911159078 -0.032615235385106724 0.022286151185638457 -0.011677051027945095
0.00410432496166022 0.0010103166099239705 -0.0014216645299183581 -0.000264231312722874 0.003944231168815011 -0.006839452330341941 0.008989400280242142 -0.00816783659676617
0.005191625195234285 0.00046067492056399976 -0.004983870060914255 0.007793773693716555 -0.007230309741158908 0.004492670388168757 0.0004536422485392584 -0.0054218737194377305
0.010913688629604736 -0.0146904576656916 0.01718165714621366 -0.0178555279932822 0.01829964384190408 -0.017678181497814662 0.017073223393846718 -0.016996841507533125
0.01870109441669554 -0.02114957675309431 0.023441643850287405 -0.024004604153675384 0.02364004486851572 -0.021364367411248062 0.018713023528910758 -0.01592543637325124
0.014907980294552675 -0.014985114527998215 0.017660222720483783 -0.021566691939123115 0.027197702713550948 -0.031786143026176876 0.03551877166851604 -0.0357235076561577
0.032279089559580365 -0.024206499240242263
00000000: 1eaf 9c49 33b7 9f3f 56ed 46a4 6e38 a4bf
00000010: 4e70 19ba 2439 a73f d343 cb5d 5649 a7bf
00000020: 4b31 c2d7 3e40 a53f f526 a9b2 f1b2 a0bf
00000030: f9ee fb49 2ed2 963f e6df 3a42 23ea 87bf
00000040: 6444 b857 b2cf 703f 442f 1633 938d 503f
00000050: ad48 5caa e44a 57bf a3e5 c2d8 1051 31bf
00000060: 61fa 0b7e d327 703f 3c4a 4d81 af03 7cbf
00000070: 5fdf b6e1 0869 823f 9d59 7f78 4cba 80bf
00000080: 6870 d346 d043 753f 65ef c8b7 d730 3e3f
00000090: 69cc b46e f769 74bf daef 0732 5dec 7f3f
000000a0: 8738 0d7e 879d 7dbf 47e7 3806 e866 723f
000000b0: b08e 1e9f daba 3d3f a6ad ed24 3f35 76bf
000000c0: c16a f17d ea59 863f 5e3b e6d9 0716 8ebf
000000d0: dde3 227e 1198 913f 4bc6 2233 b848 92bf
000000e0: 0055 514f 24bd 923f 8720 8bad 3a1a 92bf
000000f0: 549b 74a0 a47b 913f 64fe a3b9 9e67 91bf
00000100: a02c ad33 6126 933f cf45 ea11 3ca8 95bf
00000110: 8f4c ce16 1601 983f 2e81 2cb7 a994 98bf
00000120: 4d51 588e 1835 983f c9fb 526d 8ae0 95bf
00000130: 7488 43c0 8129 933f b52f 97f1 c14e 90bf
00000140: 1021 843e 1388 8e3f 7cb6 9806 84b0 8ebf
00000150: af24 197c 8515 923f 49ea 3e32 9415 96bf
00000160: 6560 b9ee b6d9 9b3f 6fdd 86f9 4546 a0bf
00000170: 52b5 6b35 842f a23f dcc7 2902 5a4a a2bf
00000180: 2090 0184 e286 a03f d096 59aa 96c9 98bf

classifier1.weight f8 [5, 6]
0.9345282216021362 0.6728224413603495 0.3578156705669207 0.18924106917050507 -0.06948660856558625 -0.07015703526338361 0.6016812093563944 0.4264880442258595
-0.42523157253937494 -0.35157373529910935 -0.9087344483538948 -0.6581279670090882 -0.4246145250795857 -0.2666958819594806 0.7015674024082116 0.561858677458259
0.9585581536915351 0.7307039040133957 1.0738617083661677 0.8165909478842732 0.2700722642654184 0.02453107447005504 -0.47110789308046863 -0.5119657943571653
-0.5778415869240271 -0.2768309597105717 0.5554852319306507 0.4103297595140763 0.7931820586796114 0.5536837346349126
00000000: 020c 9fba a7e7 ed3f e30a b5ed c287 e53f
00000010: f132 c5b2 73e6 d63f c7dd 9225 0d39 c83f
00000020: dc94 4cd7 dfc9 b1bf 9361 0abc cff5 b1bf
00000030: ceb5 99f3 f840 e33f c271 8582 944b db3f
00000040: 0c21 527c fe36 dbbf c980 cf1f 2f80 d6bf
00000050: ecb6 0d44 5a14 edbf 4f62 dc61 620f e5bf
00000060: a9e5 a766 e22c dbbf 2a9b bf9a 8b11 d1bf
00000070: d90d 297b 3d73 e63f 6e06 950c bffa e13f
00000080: c86a 2d26 82ac ee3f 7f81 5927 ed61 e73f
00000090: 05c0 5d9d 892e f13f 4aec eb56 8321 ea3f
000000a0: b2e7 a42d dd48 d13f 71a8 568a ac1e 993f
000000b0: c8c1 6ab8 a126 debf f3e8 ed16 0662 e0bf
000000c0: 2170 c3a3 ad7d e2bf 6e8a 9e33 99b7 d1bf
000000d0: 28b3 11f7 88c6 e13f 6d10 6cc0 d742 da3f
000000e0: 3ab1 3957 bf61 e93f e2b0 92f3 c6b7 e13f

classifier1.bias f8 [5]
-1.8373759490867771 1.648743410437051 -0.6188520175783009 -0.2639896796039839 -0.6625310845676872
00000000: 018e bc52 e465 fdbf 8829 35c5 4061 fa3f
00000010: 57ff 11bf a2cd e3bf 3a5c 18f8 34e5 d0bf
00000020: eda6 9963 7433 e5bf

classifier2.weight f8 [4, 5]
0.010862582174966868 1.5891082554284541 -1.39637036371355 0.4660602855638936 -1.048243055486695 -1.4242030727146227 -0.3143917959188626 0.5121258657108979
-1.0886161975207578 0.2504462966201748 1.2273900126680488 -0.8819394697617737 -0.5621282945625973 0.746488209035375 -0.9056951000883866 0.3306145150676588
-0.6751428663835863 0.47229501360708726 -0.7488183191563976 0.6187998569205274
00000000: 1763 8819 1f3f 863f b5e6 2dc7 fc6c f93f
00000010: 9c0d 5473 8857 f6bf a986 1d85 eed3 dd3f
00000020: 0631 9982 9ac5 f0bf 92c0 4229 89c9 f6bf
00000030: cb8a 66c4 fe1e d4bf 713f 95c8 5563 e03f
00000040: e3f5 63d1 f86a f1bf 70d4 58e7 4f07 d03f
00000050: 6d8a bdb5 63a3 f33f 72b5 751f d938 ecbf
00000060: fbae 297a f4fc e1bf 7002 953d 3be3 e73f
00000070: bcdd 604a 74fb ecbf 861a 73c8 c928 d53f
00000080: b0d8 6736 c59a e5bf 7667 60dd 143a de3f
00000090: 7384 edd5 51f6 e7bf d7c7 875b 35cd e33f

classifier2.bias f8 [4]
1.1760907889351264 2.1549761771910974 -1.540015509278657 -1.5965744417701198
00000000: bca6 3993 44d1 f23f 158f 6526 643d 0140
00000010: 30f4 7a4d e7a3 f8bf 9183 50a4 918b f9bf

predictor1.weight f8 [3, 6]
0.02718543790988609 0.04797987699918813 0.056416487183549385 0.05219273053686685 -0.20996780423244163 -0.051260326016654166 0.10584388943740834 0.06433763133415339
-0.0839870437901843 -0.14141129028334468 0.07085302231053572 -0.13591954622123179 0.0033661316486743613 0.0014926372495964013 0.008703003073599287 0.011699463200303616
0.009818600583308324 0.011072648367149725
00000000: b068 00db 7fd6 9b3f 3dbd 2785 d190 a83f
00000010: 2c2d d12e 9fe2 ac3f 4854 7d6d 01b9 aa3f
00000020: 0b15 329a 39e0 cabf bbcc a51f cb3e aabf
00000030: c377 9dcb 9518 bb3f 9977 7b56 6e78 b03f
00000040: f9d6 5dc6 2c80 b5bf 21ac 86e1 c319 c2bf
00000050: a281 a575 6c23 b23f 1324 f4ca cf65 c1bf
00000060: c6f3 0a2b 4a93 6b3f b3e6 fe0a 9374 583f
00000070: 04f1 9f4c e1d2 813f 19c5 9b5e e3f5 873f
00000080: 8daf 2e43 c61b 843f 04a6 efb4 41ad 863f

predictor1.bias f8 [3]
0.046678018222963115 -0.018071750498237452 0.006832454560730501
00000000: 3d60 6b63 2ee6 a73f b150 7ca5 6681 92bf
00000010: bb63 3c0e 59fc 7b3f

predictor2.weight f8 [1, 3]
0.0562855272940764 -0.06077696330941299 -0.00840796461618729
00000000: 4bae eee5 74d1 ac3f d53a 877b 281e afbf
00000010: b36a 6be8 3138 81bf

predictor2.bias f8 [1]
-0.0017390026607605213
00000000: 8a55 8fe3 e77d 5cbf
