Trained_models/0/predictor4_200_9.pth (torch, 357143 bytes, 16 tensors)

encoder1.weight f8 [104, 200]
0	0x3f90a4c45cd31626	0.016253536382256815
1	0x3fb32ef0a540b596	0.07493499788753008
2	0xbfb0bc1c77f38c22	-0.06537034920215537
3	0x3fa29f8f8870b97e	0.03637360134631516
4	0xbf900c8f626d8cdc	-0.01567291296249783
5	0xbf74c875f0215219	-0.005073986716599887
6	0x3f90001d520a30b6	0.015625436909019817
7	0x3f864d2b80b19044	0.010889377465169166
8	0xbfac6fe37c2f8ad1	-0.055541142377270376
9	0x3fb291ae5d252747	0.07253541730929412
10	0xbfb1e6146667921d	-0.06991698742019321
11	0x3fb49ed9c35faebe	0.08054886836878958
12	0xbfb6771e6754f39f	-0.08775510809660013
13	0x3fab29f3e088a45e	0.053054448279291164
14	0x3f9bb89f05763a67	0.027071461399425092
15	0xbfb8b3eff49f2490	-0.09649562570770542
16	0x3fb9a186b7188701	0.1001209446917777
17	0xbfa3c65fc73c2c3d	-0.0386228495318268
18	0xbf98129dfa7d0154	-0.0235085186134268
19	0x3fad49fe1968f3f3	0.057205143548777836
20	0xbfb88c02347e095f	-0.09588636189986265
21	0x3fc14a1fd932ab21	0.13507459740989083
22	0xbfc15904159a3955	-0.13552905134970197
23	0x3fbdda98f35dae2e	0.11661678258467909
24	0xbfba9394dae943a6	-0.10381441444884718
25	0x3fb7d0afb5bfe556	0.09302805125471045
26	0xbfb12bf37cf435db	-0.06707689095147577
27	0x3f9f3a91c2e01c0c	0.03049686195302219
28	0xbf929c279eeed5e4	-0.018173808169839392
29	0x3f96fa7e3897af3a	0.022439930156834743
30	0xbf96482c2beae61f	-0.021759691410556777
31	0x3f7309c5914bcf29	0.004647990940373417
32	0x3f880c5362aacd3f	0.01174225945337659
33	0xbfa18aae1c843a8d	-0.03426117036916763
34	0x3fb3c545f980b827	0.07722890225770183
35	0xbfbde396b72c0132	-0.11675397846193361
36	0x3fbaa9a46a3877db	0.1041510352447114
37	0xbf9e6cac5c708c1e	-0.029711430685107947
38	0xbfadaca8d0c1feb0	-0.05795791195214173
39	0x3fb968b2ca60699c	0.09925382080874673
40	0xbfbe951553bb88bd	-0.11946233076335751
41	0x3fc12ccc1dc9ca48	0.13417960600379986
42	0xbfc164f6b008cb0e	-0.13589366527011076
43	0x3fbd3f570b842a87	0.11424774199637443
44	0xbfb7492b504541f1	-0.09096022329072874
45	0x3fb172d04e7101b5	0.06815816798280745
46	0xbf99189704f9e2ed	-0.02450786559936351
47	0xbf84e23e2a716a4c	-0.010197148962267331
48	0x3f953985da88bcbc	0.020727244818939936
49	0xbf8fb2b143693613	-0.015477547521324053
50	0x3fa0c862cab9a1ce	0.032778823134154686
51	0xbfafea555b718e7c	-0.062334697163149294
52	0x3fabc089c936936b	0.054203325092465025
53	0xbf9798242f81f53e	-0.023041310691487064
54	0x3f88ccfb24c9f3b3	0.012109720287520753
55	0xbf97cc5fe3e29f12	-0.023240564617167676
56	0x3f988cf466e87f59	0.023975199490564012
57	0xbf7c264628cb4e1d	-0.006872438487977498
58	0xbf90df464ba0b083	-0.016476724973629075
59	0x3fa7ccc9deca125a	0.046484287687267936
60	0xbfb8a3a9badc2ade	-0.09624729930889539
61	0x3fc092b091c0a8b5	0.1294766151125423
62	0xbfc05c5d46a4925d	-0.12781873654707257
63	0x3fb5a7443e0be70b	0.0845835353356074
64	0xbfa01b13c9939476	-0.031456583363060384
65	0x3f6485dc0adf09b3	0.0025052354530725406
66	0x3f7f286548678a31	0.007606883655599848
67	0xbf80e35e2df0bc81	-0.008246169831265472
68	0x3f8f894be5e2860c	0.01539859099677001
69	0xbf9883ba08498a00	-0.023939997440161065
70	0x3f8e3ad5c83a44fa	0.01476065652176083
71	0xbf946c2662d84998	-0.019943809302341714
72	0x3f9190426902e58c	0.017151868495351816
73	0xbf807dafcd416746	-0.008052228404426775
74	0xbfa38c64a5485405	-0.03818048970803293
75	0x3fb9ebcdf1cae0c9	0.1012543406785681
76	0xbfc0564c959ee65d	-0.12763364129732482
77	0x3fbc61833da4a614	0.1108629250999445
78	0xbfae9b681b4fbc4b	-0.059779408773345276
79	0x3f655080bba875cb	0.0026018633191273502
80	0x3fa01090fef29afe	0.03137639152673975
81	0xbf978c695cafc74d	-0.022996565134185066
82	0xbf932b08fd2bbbf2	-0.018718853428193634
83	0x3fb489a9e3e05428	0.08022558034311145
84	0xbfc04aec0f4d9590	-0.12728644129962818
85	0x3fbfebeb80ac405d	0.12469360248019386
86	0xbfb3dff69cefd1e1	-0.07763615924324753
87	0x3fa843085c3565c6	0.047386418586664855
88	0xbfa5c544a1bd8e87	-0.042520661109645856
89	0x3f819fa147284042	0.008605251297041264
90	0x3fa54c82cffc9e84	0.04159935749913493
91	0xbfb0bf43d43601a8	-0.0654184716313525
92	0x3fa765b1e4daa1d1	0.045697745500834615
93	0xbf631ba539e56ddd	-0.0023325182984714602
94	0xbfa3aefe856a8839	-0.03844447497000698
95	0x3fb35d2520c8cfa2	0.07564003038788639
96	0xbfb146a555fa32c2	-0.06748422001892165
97	0x3f88d1435eab8f52	0.012117887808421966
98	0x3fad70231e774df4	0.05749616381549663
99	0xbfb8da6809543803	-0.09708261707075398
100	0x3fb96f2984e54031	0.0993524503185206
101	0xbfb4a129a30a5f29	-0.08058414679032623
102	0x3f8ac369fe5a9622	0.013068035197032538
103	0x3fb0d311752cc40c	0.06572064505304825
104	0xbfc036184d1470c0	-0.12665084613479927
105	0x3fc6475442f00e25	0.1740517927975002
106	0xbfc9b208c760631a	-0.20074567542248972
107	0x3fc76a4df5e6fecb	0.18293165690373878
108	0xbfb7faf84c6e20a5	-0.09367324701281861
109	0xbf74378ad8ac4f6b	-0.004935781830471923
110	0x3fb298aeb0cba2c1	0.07264224830908984
111	0xbfb5213ab85f121c	-0.08253829003576424
112	0x3fb036d039c59532	0.06333638582653547
113	0xbfab67e105d38a82	-0.05352690883753032
114	0x3fab5a471cbcf95d	0.0534231398182665
115	0xbfa9f251e5696b41	-0.050676879171723595
116	0x3fa26ba62d98a4e3	0.035977547708464085
117	0xbfad3a3f0c14ebf1	-0.05708500883562085
118	0x3fb8359ac567bf0e	0.09456794089760143
119	0xbfbb09d78ad7259f	-0.10561892642649305
120	0x3fb774ca814e425d	0.09162583977582402
121	0xbfb0a7b5b41486e6	-0.06505904814232685
122	0x3f9eb227e05bfadb	0.029976485317997664
123	0x3fa00d290e613070	0.031350405698135186
124	0xbfbc31c3756e338c	-0.11013433091120656
125	0x3fc61dfa6bcf8ec2	0.1727898622913156
126	0xbfc5d9f5e038ce91	-0.17071412514052445
127	0x3fc0f528e4a34e28	0.13248168148003114
128	0xbfb35a1dfeda39a1	-0.07559382888778156
129	0x3f44b83af64f6f8e	0.0006323135281678259
130	0x3fb4d090c1f5637b	0.08130745635334151
131	0xbfbe93c71d825cc8	-0.1194424101871504
132	0x3fb661ad3a8abde2	0.08742792777297084
133	0xbf9612ae1249720e	-0.021555633417266455
134	0x3f908c85bb024ac7	0.016161050356980036
135	0xbfa83a6364a2e5cc	-0.04732046702833834
136	0x3f941e131dcceb5a	0.019645975774646864
137	0x3fa17f93437dcf93	0.03417644690389845
138	0xbfb072c0e2ec1666	-0.06425099887936767
139	0x3fb66b463675fc3d	0.08757437543498355
140	0xbfb8cfb19a718145	-0.09691915531721403
141	0x3fb969c1e34ed574	0.09926997947225918
142	0xbfb65c6a95b58698	-0.08734766154295881
143	0x3fb48b1a2625a5eb	0.08024753028225688
144	0xbfb77ebe347d3d3f	-0.09177769452548022
145	0x3fbd24fc09e9ff75	0.11384558908502902
146	0xbfbfefc6720e9517	-0.124752428861559
147	0x3fbe1af4a2f29a06	0.11759880998815939
148	0xbfbd29075f8e45b8	-0.11390729983238301
149	0x3fbaeaccf08e67b6	0.10514527199703036
150	0xbfa76ce87eaca32e	-0.045752778495005905
151	0xbfa44d1bb2a6699e	-0.03965078883921368
152	0x3fb79c888aae779c	0.0922322596147453
153	0xbfb4ba96a4948895	-0.08097211378165732
154	0x3f943f41d5951b6b	0.01977255693534678
155	0x3fa7bad566704819	0.04634730220290368
156	0xbfbe626fe1a0fb3a	-0.11868952997700158
157	0x3fc556f67e149f6d	0.16671639591481427
158	0xbfc205e5f035a708	-0.14080499867423435
159	0x3fb13c65eb14f3f8	0.06732785214713022
160	0x3f910bd619eaa149	0.01664671452695757
161	0xbfb489e11ba6687e	-0.08022887158441169
162	0x3fb79b408da67db0	0.09221270998249653
163	0xbfaca7d68610dd21	-0.0559680021910316
164	0x3f4467442be16c8a	0.0006226618641095455
165	0x3facb766df0c5b16	0.05608674500233783
166	0xbfbe54ebb5b7bbe8	-0.11848328768222383
167	0x3fc63f4a6eab1bc1	0.17380648044328775
168	0xbfc76c5d9a4deac9	-0.1829945567549969
169	0x3fc0f83eaf66d446	0.13257583202872264
170	0xbfa66a167a2c1a35	-0.04377813569412973
171	0xbfa06777e043942a	-0.03203940022084624
172	0x3fab1e654ec112cf	0.05296627603869341
173	0xbfa442caa5d642dd	-0.03957207941414762
174	0x3f9d859a995f7bf9	0.028829970942634706
175	0xbf74e04d5c989c4b	-0.005096723741679086
176	0xbf9c7753379631f0	-0.02779893900656022
177	0x3f72dfd0daf10fe6	0.004607978668960988
178	0x3fb5e1a3703c6795	0.08547421922813066
179	0xbfc5e47f6ca277b8	-0.17103569797921891
180	0x3fc50f3ea35e0278	0.16452773072161953
181	0xbfbac550bf37d11a	-0.10457329433831256
182	0x3fa354824c41ea84	0.03775412732007502
183	0x3fa6387f4c524a58	0.04339978987367904
184	0xbfb7e706762b9220	-0.09336891541494952
185	0x3fb96a48187717db	0.0992779788712989
186	0xbfb513fb81cbf7cb	-0.08233615797868692
187	0x3fafd0f96e5da661	0.06214122268904699
188	0xbfad184d00dbd729	-0.056826025347545724
189	0x3fa9ceb5d0c91f3e	0.05040519879963633
190	0xbfa1edacad8ea117	-0.035016437708067887
191	0x3f873ed30d7b3b75	0.011350296830100007
192	0x3f9caaf16c93e5b5	0.027995846035059297
193	0xbfb1b0683717b4e0	-0.06909800858530302
194	0x3fb833b058d73516	0.09453870934449457
195	0xbfb830fd5821dfe5	-0.09449752237003357
196	0x3fb5150efd033a52	0.08235257794442788
197	0xbfb3f13d6cb6283a	-0.07789977935877426
198	0x3fb69e2bbabfeb7d	0.08835099515265017
199	0xbfb9bebe65b65160	-0.10056676848609447
200	0xbf49427d4cf71736	-0.0007708656138951445
201	0x3fa7a75005ee57ed	0.04619836876297243
202	0xbfaf9111a51cea77	-0.06165366306818936
203	0x3fabb0873bca63e0	0.054081178711562705
204	0xbf840d8b36b9ec49	-0.009791457755673376
205	0xbf94359667fc3b2e	-0.019735670181997005
206	0x3fa6a512bbb01b87	0.04422815838920884
207	0xbfb2eec20c051e26	-0.07395565789658373
208	0x3fb650a68a7d010d	0.08716812974035211
209	0xbfb5eb57cb61e8ab	-0.08562229838745121
210	0x3fad3dfae91a959c	0.05711349578386235
211	0xbf839dff9f89e298	-0.009578702026588545
212	0xbfa306d4c0008299	-0.03716149181150747
213	0x3fb0bba4e41f0a97	0.06536322183004938
214	0xbfbd7131224935aa	-0.11500842177448214
215	0x3fc10ceeab855672	0.13320716261903304
216	0xbfbb1a1cf28f2d43	-0.10586720392091302
217	0x3fab053d2abcd59a	0.05277434488963735
218	0x3f94bd7e04dc9b1f	0.020254105612504177
219	0xbfbcd9f693c924cf	-0.11270085437822107
220	0x3fc17d5f48956906	0.13663855594752067
221	0xbfbf21f9e206f641	-0.12161218422166888
222	0x3fc1297bb1e15455	0.13407846627765943
223	0xbfc0f477f8dfb44c	-0.13246059085887152
224	0x3fb43790392b27cd	0.07897282977788152
225	0x3faa384af0f98779	0.051210729518756666
226	0xbfc52a399fa31514	-0.16535110754754412
227	0x3fc8d82bb209b0ec	0.19409700577978783
228	0xbfc5c62ee16a56e8	-0.17011056906328936
229	0x3fc2305f6a9cd537	0.1421012182778811
230	0xbfb92f18584823a2	-0.09837486415211896
231	0x3f7084208d0a9e6e	0.004032256271478836
232	0x3fc1b19947d4f54b	0.13823238379874633
233	0xbfcda53da9027428	-0.23160525085850847
234	0x3fcc7b1048b45f7c	0.22250560331371705
235	0xbfc514237baa6ee8	-0.16467708147398885
236	0x3fb95f0e456be46d	0.09910668558940623
237	0xbf9ada4e44a27bc9	-0.02622339528954479
238	0xbfbb255c38139216	-0.10603882187894728
239	0x3fcc640bc5721221	0.22180316105745226
240	0xbfcc36fbdea7fcc6	-0.22042797443280032
241	0x3fc3abd66f8a0e27	0.15368156858686285
242	0xbfa2ee4792f8bb5b	-0.036974178973074166
243	0xbfa38fda87deaf7d	-0.038206891141583356
244	0x3fb4afed63223347	0.08080943746808798
245	0xbfc0cc18790cd5f7	-0.13122850332881317
246	0x3fc77c6a47856f28	0.18348434917685918
247	0xbfc1d800a4938111	-0.13940437351175963
248	0x3f9dc5f54e666578	0.029075463209300406
249	0x3fb75efd05a0e28a	0.09129315745748037
250	0xbfc2180e48fd2d84	-0.14135912479319412
251	0x3fb8f7876de143be	0.09752699310889931
252	0xbfb087816e9d5d9e	-0.06456765127710759
253	0x3fa8c4c459019406	0.04837621294499432
254	0x3faeb72fbede7f9b	0.059991352128462704
255	0xbfc2fdd2d0a9172a	-0.14837107838155222

encoder1.bias f8 [104]
0	0xbfcaaaa5651cd3b8	-0.20833270489825195
1	0xbfce0f8deb5b5f6d	-0.23484968177831025
2	0xbfadf603bbad19a9	-0.05851756731003672
3	0xbfd7c1b50bdffc4a	-0.3711979499784702
4	0xbfc92cb8ef2233a9	-0.19667731930203772
5	0x3fd2811d1a432142	0.2891304737536481
6	0xbfc10a663e7fee32	-0.13312986423248813
7	0xbfb70ace54a824ef	-0.09000863615814912
8	0xbfc3290990ba9cff	-0.14968986098140388
9	0xbfe674e9e0550844	-0.7017716771590661
10	0xbfc3777fe77edde6	-0.15208433917517467
11	0xbfc25907296611f7	-0.1433419181959292
12	0x3fcb14f5cef057e4	0.21157715420184708
13	0x3faabbe4b5f5f016	0.052214762889860974
14	0xbfaa8272d23da37a	-0.05177649322906226
15	0xbfc78efb6a1123a9	-0.1840509670166999
16	0xbfc79377f8a69648	-0.18418788567685085
17	0xbfc139f85cae3157	-0.13458160901462676
18	0x3ffcc68922216000	1.798470624276888
19	0xbfbc9bf4e16f8a73	-0.1117547083263533
20	0xbfdd0bb04b7a89f2	-0.4538384186836587
21	0xbfc31aacbfe5adca	-0.14925155038814203
22	0xbfb999035060fdd8	-0.09999104225516164
23	0xbfc9f1125681f2c3	-0.20266942237858218
24	0xbfc99177c36e28ce	-0.19975182573791134
25	0xbfca881b72c389e0	-0.20727866271688722
26	0x3fc79dc89d653b59	0.18450267491649688
27	0xbfcdca6f19edb096	-0.23274029508627753
28	0xbfc4938ac0f729ac	-0.16075262472288665
29	0xbfc0aa8d43ab6b50	-0.1302048283021926
30	0xbfc34e51add79ff3	-0.15082760799782555
31	0xbfc701d8101f3d1d	-0.17974377429207147
32	0x3fbf52dd5f299059	0.12235816548633362
33	0x3fbaa2d903ec85b3	0.10404735894964894
34	0x3fc98af18852059f	0.19955271869916388
35	0xbfc807f0ada188a6	-0.18774231412959813
36	0xbfc62ac7f425e4d1	-0.17318057462015315
37	0xbfc6dffdfa80c387	-0.17871069652167312
38	0xbfc82be509149271	-0.18883955901505403
39	0xbfc63bee3ef87fce	-0.17370393824330538
40	0xbfc21f4027f43970	-0.141578692921438
41	0x3ff4e6820b114ecc	1.3062763626411877
42	0xbfcc1a6d089bbfe5	-0.21955645485240818
43	0xbfecb6fa9b4d8a6a	-0.8973362954387316
44	0xbfd03552eaab6a28	-0.25325463215782174
45	0xbfcf3ba84e987a9e	-0.24400810086895758
46	0xbf93edc3d78eb5d0	-0.019461689025481566
47	0x3fcb33e51f6d258b	0.21252121004571864
48	0x3fb30e5e00641538	0.07443797597450874
49	0xbfc7186ca3354815	-0.18043287247797993
50	0xbfae01d169f2eb3a	-0.058607620413985775
51	0xbfc39a572c35a3c5	-0.15314759882610765
52	0x3fcca18c1a9d61c3	0.22368003177213155
53	0xbfe5ee9b47a9e3f3	-0.6853767776184426
54	0xbfc38c6e08f66192	-0.15272307813280556
55	0xbfc100f1bebf0950	-0.13284131826191947
56	0xbfe0e54810445bf6	-0.5279884641375918
57	0xbfc504be78ac53ad	-0.16420727627032985
58	0xbfcb1b4a3664512d	-0.211770321424987
59	0xbfbe8b18508e1ac4	-0.11930992094685694
60	0xbfd76b590dba36e1	-0.36592699375692744
61	0xbfc11a319c76300d	-0.13361187114458098
62	0xbfc0e9a410f49494	-0.13213015392208105
63	0xbfd05ece4b89d338	-0.2557864892653927
64	0xbfd17348b1d5f02d	-0.2726613747288436
65	0x3ff47ee1cc3eebf3	1.2809770563460432
66	0xbfe26574c5542cc6	-0.5748847822263989
67	0xbfc493b9c41ea8d4	-0.16075822902832348
68	0xbfc5875002a731ee	-0.16819191102548764
69	0xbfbcfe1352673ab7	-0.11325188409612506
70	0xbfe592af13cb6c8f	-0.6741557489980482
71	0xbfc3361eb1a134fa	-0.1500891082127181
72	0xbfc22cb827f23331	-0.14198972654812672
73	0xbfe3e04208a83792	-0.6211252373775429
74	0xbfd118e5eaf87fbc	-0.2671446604381307
75	0xbfbc3ab020690da9	-0.11027050772923154
76	0xbfd37f29f6b0a7b7	-0.30463646975351416
77	0xbfcaedc803e257dc	-0.2103815096822349
78	0x3fb09dd5f18a14a4	0.06490838190991838
79	0xbfc9ed5d4201a43b	-0.2025562832161841
80	0xbfc239dc25edce5e	-0.14239074565886062
81	0xbfc2242a187f1ce4	-0.14172865100974896
82	0xbfc670e93a27ac34	-0.17532077159498416
83	0xbfd1043a3153b49a	-0.2658830148419128
84	0xbfd3cff9ac386255	-0.3095688039625533
85	0xbfc22233269d143c	-0.14166869531087112
86	0xbfc5d4b4aa68e7ee	-0.17055376358786084
87	0xbfc06d4de1388431	-0.12833570000751274
88	0xbfc9713ddc16225e	-0.19876836058053277
89	0xbfbf2ceab57730e6	-0.12177912645637753
90	0xbfc63dc20c22a85d	-0.17375970451877523
91	0xbfc9a35ce3fcc40d	-0.20029793865390425
92	0xbfb9095bdf339145	-0.09779905509237093
93	0xbfc428cf81a261c8	-0.15749543981361414
94	0x3fd297eea3d476a4	0.2905232047940933
95	0xbfc4fed4c1e57794	-0.16402682750316144
96	0x3fd229dc235dbaa8	0.28380492643092703
97	0xbfd9e1af2f2f1e1b	-0.4043996773511666
98	0xbfc263742135754d	-0.14366008397602528
99	0xbfcd478f1d072fb5	-0.22874630849253
100	0xbfc52879dd0d1385	-0.1652977303839657
101	0xbfd4207fcae827fd	-0.3144835931312853
102	0xbfbe1a81c7c2ce58	-0.11759196402527416
103	0xbfc03d2c5844c116	-0.12686685857762175

encoder2.weight f8 [9, 104]
0	0x3fc5297500b9b476	0.16532766852779773
1	0x3fd9f7870cf95f4d	0.40573288218501063
2	0x3fb9edf6cc28bab5	0.10128729328492166
3	0x3fd01be0e4fe9af5	0.25170156824826445
4	0x3fbfb14c522ff87b	0.12379910475280724
5	0x3fa1f703cd90997f	0.03508769878708317
6	0x3fc7b40fccff3036	0.18518254766093073
7	0x3fc280aa868549af	0.14455157822028528
8	0x3fce1ee53d2c72c8	0.23531785475724676
9	0x3fbded33568f3def	0.11690064299840917
10	0x3fc790c02571a0e9	0.18410493686975052
11	0x3fc5b26dd0edc71a	0.16950772000887399
12	0xbfc1765d7fa518e9	-0.13642472012197196
13	0xbfc7862e1b3cadc3	-0.1837823517792981
14	0x3fc0ef9f5fcbcf53	0.13231270005746384
15	0x3fc77217037948a4	0.1831692473375074
16	0x3fc34841f0af36f2	0.1506426263062433
17	0x3fc4d7c4fd3ccf27	0.1628347622405439
18	0xbfcb6a7ebc7d373c	-0.21418747142382155
19	0x3fc29f0d055577bc	0.14547884712641046
20	0x3fd67e76d347d688	0.3514687598502424
21	0x3fc2a978a8a9e9e1	0.14579685435803838
22	0x3fc2466a6a1d04b7	0.14277391606632303
23	0x3fa67ec01d354011	0.043935779157095685
24	0x3fc77aa2bd084cea	0.18343004446123895
25	0x3fcb3815862da355	0.21264905025170813
26	0xbfd1b3a33ba32231	-0.2765892107386519
27	0x3fbab6d7cc433220	0.10435246216656724
28	0x3fc8cf78da06f13e	0.1938315453134098
29	0x3fc0c4324e1ab1b3	0.1309874421471143
30	0x3fc4244f919b591c	0.1573581181498377
31	0x3fc5dca4df556cb8	0.17079602150884
32	0xbfba7ad31b9b3c0d	-0.10343665527328501
33	0xbfad5c7c8be8457f	-0.05734624107220564
34	0xbfcee5d16f5042fc	-0.2413884919665391
35	0x3fc89aa8545f9e19	0.19221977348137
36	0x3fd10b01fb270a5a	0.2662968590413236
37	0x3fce736d7423172a	0.23789756937747458
38	0x3fc988948b0de1f0	0.1994805983520247
39	0x3fc575d0f7a3b81c	0.16765796748899298
40	0xbfbc71b66ab18544	-0.11111011605091387
41	0xbf8b1b62628404f6	-0.013235825187168686
42	0x3fc2f138641c3651	0.14798645866578622
43	0x3fcb818f1d19d725	0.21489132805771152
44	0x3fced0ba3933e6cf	0.24074485581495828
45	0x3fc10fe1b2547c0f	0.13329716880340967
46	0x3fd4fbd854181576	0.3278714009505487
47	0x3fb937160717cd5f	0.09849679635208507
48	0x3f90307534c745fe	0.015809851976717575
49	0x3fc0285c13401533	0.12623167934376908
50	0x3fd1fdb4e4dfba68	0.28111002303095356
51	0x3fc715f5d3cd75c5	0.1803576740448262
52	0x3fb861bf9b31ba76	0.09524152316019205
53	0x3fb8a2fb1f152b95	0.0962368918309678
54	0x3fc34a5d678a05c6	0.15070693545935238
55	0x3fc5f614bad5f89b	0.17157229540675165
56	0x3fcd995edb168c87	0.23124299714718097
57	0x3fc661091872a5ee	0.17483628934614565
58	0x3fc2a33582cab358	0.14560574423139871
59	0x3fc7669bf4d2f8c1	0.18281888441373975
60	0x3fd1a4b5392ed531	0.2756779726435808
61	0x3fcd91eb5c7f558d	0.2310156060836274
62	0x3fbbf8a8f878604a	0.10926300111930334
63	0x3fc0884ba541f22e	0.12915940827578382
64	0x3fc71211cb6c7940	0.18023893769072608
65	0xbfbd0cec817a8d7a	-0.113478452311531
66	0x3fa7d402bfa6acca	0.04653938855639124
67	0x3fc48ac78e50746a	0.16048521470011973
68	0x3fc8d4391df43a4c	0.19397653544042937
69	0x3fbeab225ca6553e	0.11979880105930804
70	0x3fd7c40766418f3d	0.3713396547884605
71	0x3fc439c9813f0a82	0.15801352320530176
72	0x3fc2dc6e2fd72e02	0.14735200248684072
73	0x3fbc3cb1d653e303	0.11030112726792755
74	0x3fc35ee4510c1df6	0.1513333698023726
75	0x3fc6f230ec0b235c	0.17926608586847237
76	0x3fd04255af3b7ec6	0.2540487490896165
77	0x3fc5acaccc88b1e8	0.169332122678852
78	0x3fb56440d405ee81	0.08356099296900689
79	0x3fcd7fdcf8957a80	0.23046457422147526
80	0x3fbf7aa7d56d43dd	0.12296532593360561
81	0x3fc6cb78c20b43cf	0.17808446383290152
82	0x3fc619bc9dde6af3	0.17266042431295822
83	0x3fd2ca45ab1f080b	0.2935957118135099
84	0x3fc54be74cc1937f	0.16637889144763204
85	0x3fc51f308cf7cef0	0.16501433261111442
86	0x3fcb2623d6adb8c1	0.21210144026139768
87	0xbfbac3ae8e6a7a53	-0.10454836823417084
88	0x3fcc1deb2f1fd800	0.21966304589267338
89	0x3fc3f63f6e6c7402	0.15595238582400844
90	0x3fcc69a0f22cb14e	0.22197353196078
91	0x3fc772ad55a36c61	0.18318716699181706
92	0x3fc48d3832f99b7b	0.16055967797293733
93	0x3fb36e092b60aa83	0.07589776333831293
94	0xbfbbb8714bb0902f	-0.1082831201352412
95	0x3fd0f2053735dd5a	0.2647717513240956
96	0x3fc3fe067c2e44cb	0.15618973792564925
97	0x3fccef8732fad627	0.22605981816529772
98	0x3fbfbe147fb2d6cc	0.12399414174691542
99	0x3fcc67989e9abddc	0.2219115042148435
100	0x3fc4b312f85b098f	0.16171490790118212
101	0x3fd359704a7fb61e	0.30233390116959125
102	0x3fc2879438d8b5cb	0.14476254249295403
103	0x3fc4ae832c8624fd	0.1615756957437852
104	0x3fc336cc7e78652f	0.15010982680613824
105	0xbfabf68a857e68d5	-0.05461533431589919
106	0x3fc641c0fe841fa2	0.1738816492800171
107	0x3f84e123bb3c5e87	0.010195044661983189
108	0x3fd05ad28d753345	0.25554336370696645
109	0xbfac20b6ae556a88	-0.05493708494278332
110	0x3fc3d2f4ace57ab4	0.15487535898406224
111	0x3fc60f942bc598a2	0.1723504270295893
112	0x3fc87be57c9fbb00	0.19128101906922979
113	0x3fbea06043685162	0.11963464399042814
114	0x3fc7143b8253906a	0.1803049455985531
115	0x3fc36503d36cc646	0.15152023147088495
116	0x3f986cbaf4dba771	0.02385227317328237
117	0x3fc813c153e5eca7	0.18810288044537524
118	0x3fc678b2393cc855	0.17555835528179622
119	0x3fc1f30d7320cc10	0.1402298748158448
120	0x3fc6ea07a2a7452c	0.17901702348766813
121	0x3fc2c3f0823b5805	0.14660459860778033
122	0xbfc9c893318cf58f	-0.20143356246437036
123	0x3fc6401c83f833d2	0.17383152431321364
124	0x3fce6a8fe59c4a9b	0.237627017130383
125	0x3fc723f8b04ba5d2	0.1807852612321726
126	0x3fc7d67b47fbbf4f	0.18623295798124181
127	0x3fd21bfca0259f10	0.28295817984916116
128	0x3fc5a30a67468559	0.16903810541865985
129	0x3fc2dec6ea641159	0.1474236149298445
130	0x3fd6ba57116f65fc	0.35512329771663054
131	0x3fc938dff2406f2b	0.19704818085380657
132	0x3fbfde2344239d85	0.12448330319931784
133	0x3fcad803fea54d49	0.20971727308151802
134	0x3fc8ebe4298b3924	0.1946988299227509
135	0x3fc1437ca043b5e9	0.1348720343152501
136	0x3fb990d6c61145cb	0.09986631713515874
137	0xbfd02baab420cbc7	-0.25266521063457187
138	0x3fda9ca8ffe26225	0.4158117770071235
139	0x3fc30bb699ba6aa3	0.14879496103533993
140	0x3fcd9bb6ded34c88	0.23131452446122958
141	0x3fc0d4f2016fe981	0.13149857587979955
142	0x3fc17269e509ba41	0.13630412753578194
143	0x3fc0ec74fd1ce3ca	0.13221609457994382
144	0x3f98a5ff3af3a425	0.024070728276374482
145	0x3fb4eb5ddf7854ec	0.08171641069232621
146	0x3fc40c00ef892c75	0.1566163224800651
147	0x3fd127c21d94b559	0.26805165184744834
148	0x3fbbde8907587940	0.10886436871849003
149	0x3fb4da0564a64186	0.08145173747312215
150	0xbfc43c00431477cd	-0.15808108592403727
151	0x3fbe9988a8de242f	0.11953024027583646
152	0x3fd97ef15e44bf3c	0.39837297635948565
153	0x3fc32ef8e82cfc9a	0.14987098061280762
154	0xbfd8dcd2a9fcc2f5	-0.3884779605896676
155	0x3fc16d0f10ee23f5	0.13614071203872383
156	0xbfd215c3ab533b50	-0.2825783894631302
157	0x3fd4f80cff290e46	0.3276398174095657
158	0x3fc247512a71326d	0.14280142376300678
159	0x3fc666919de7cb10	0.17500515184618637
160	0x3fc79a6db5592fee	0.18440028529073466
161	0x3fcae7fbeda1a1c7	0.21020459273428413
162	0x3fc30b256f8acf2a	0.1487776560439838
163	0x3fc5304562997ba8	0.16553561510496917
164	0x3fcc838fec388370	0.2227649596616419
165	0x3fc679fac7fe3c0e	0.1755975224045589
166	0x3fc0fa154403bc3a	0.1326319295980925
167	0x3fc95976c7c7ed5a	0.19804272417955354
168	0x3fcb4742e0eb96b6	0.21311222059664708
169	0xbfc23270813ace2e	-0.14216429052395213
170	0x3fc457c80f921294	0.15892887840540892
171	0x3fc6da1bc233d1fe	0.17853114111461815
172	0x3fcc85bffda722d8	0.2228317249812537
173	0x3fbf4de3463c7fb2	0.12228222336534492
174	0x3fcdcb3eb3460a6d	0.23276504281610091
175	0x3fc2dce7d1a7962c	0.14736650216143354
176	0x3fc1eefbc10ae433	0.14010569501786704
177	0x3fd0700a6e919c86	0.2568384246610055
178	0x3fd23b42060e815a	0.28486681548567605
179	0x3fc7e1250578526e	0.18655836836900924
180	0x3fd0272a05d93317	0.25239039012085257
181	0x3fc4796fd6c55792	0.15995595919474376
182	0xbfb219e6a26edfca	-0.07070771661426459
183	0x3fc7e2b796bea759	0.18660635815222795
184	0xbfa0f196d722aba3	-0.033093179475449895
185	0x3fc8674c29bd387b	0.19065238988918395
186	0x3fc175b62e405df5	0.13640477426882539
187	0x3fc23641b363310d	0.1422807813563697
188	0x3fcf7e97bfa35b0a	0.2460508046849202
189	0x3fc7ca1d5894a6d9	0.1858555490992362
190	0x3fc65e0a7d355ffc	0.17474490274139487
191	0x3fd183d94b9972f4	0.2736724127078525
192	0x3fc331c78739c770	0.14995664694611888
193	0x3fc343f066654c06	0.1505108356455766
194	0x3fc59c6255d9d296	0.1688349646753024
195	0x3fc780493cdacc52	0.18360248061580592
196	0x3fa3d8b221115bc2	0.03876263288173433
197	0x3fc1c122f6f1031c	0.13870656068504494
198	0x3fbd4db6e4d264a1	0.11446707807989977
199	0x3fc32e23157222d6	0.14984549090538363
200	0x3fa1ee3deadd9b5f	0.035020766182063616
201	0x3fb5475ddcfeee32	0.08312021871000111
202	0x3fc5bac78986ab70	0.16976255622042968
203	0x3fc499cffc83a975	0.1609439833621981
204	0x3fc17f4c4e36f8c5	0.1366973287494543
205	0x3fc75cb51d8ba9c5	0.18251670782713184
206	0x3fc9a74332db6d0d	0.2004169462514728
207	0x3fc5d53708ac4e37	0.17056930469026252
208	0x3fbea68eaedf32ac	0.11972896355946244
209	0x3fa1c0a39f12c7b9	0.034672845047125596
210	0x3fa1f08f6dd370c9	0.03503845420502356
211	0x3fd1804c1a768e6b	0.27345564445770404
212	0x3faf097eb6ddc425	0.06061931593183826
213	0x3fd44fd71b3c7a98	0.31737306270398724
214	0x3fc09e58080ee0f5	0.12983227151358503
215	0x3fc068007eb7cfa8	0.12817388713267275
216	0x3fc30d14b2bc7d9c	0.14883669593198767
217	0x3fd052147874952e	0.2550097633669165
218	0x3fc7d5c75d43c91e	0.18621151021904664
219	0x3fc1343db08f7e38	0.1344067680465615
220	0x3fc2b5999d3f0f09	0.14616699388545154
221	0xbfcd2fa318b58fc1	-0.2280162687922012
222	0x3fbc6cf483647b4e	0.11103752334427705
223	0x3fc014c8805110e3	0.12563425317251306
224	0x3fc8223de024edbd	0.1885449737982138
225	0x3fc2a88f86bb7be2	0.14576906279304952
226	0x3fc19ddf04fbaa46	0.13763034575761618
227	0x3fb1aa7329269ce8	0.0690071082559488
228	0x3fbb3a807f23a9d6	0.10636141876208369
229	0x3fc3bb2a0a3dff11	0.15414929866891972
230	0x3fc2061b43a8c496	0.14081135562586117
231	0xbf955a79fd70342e	-0.020852953046461113
232	0x3fc196b796632d70	0.1374120220483337
233	0x3fbfaface3882e9b	0.12377434306125183
234	0x3fb06ef156361472	0.06419285158888657
235	0x3fc97c77af55f93f	0.19911094724006692
236	0x3fc78f9cba092f6e	0.18407019695075227
237	0x3fbceec548571586	0.1130183507549046
238	0x3fc070f0680e6a67	0.12844662743448795
239	0x3fc048dd42440b7b	0.12722364173540854
240	0x3fe1a87fca1edc59	0.5518187472979533
241	0x3fe11b832d32710e	0.5346084482912674
242	0x3fcf34577fa47cbb	0.24378484470887493
243	0x3fc084a9fb179846	0.12904858360633592
244	0x3fc4e8ebeeb829d2	0.16335820347042201
245	0x3fba7c5c303c68be	0.10346008470188203
246	0x3fbe72f09d66317c	0.11894134371522641
247	0x3fb90eee99c912ff	0.09788409475829594
248	0x3fcca9d920b85518	0.2239333543554174
249	0xbfa2b818aad59685	-0.03656079373722058
250	0x3fc19ef7f9701e2c	0.13766383819187078
251	0x3fbf1891f7d74953	0.12146866131596327
252	0x3fa3ddcca87727b1	0.03880157047713285
253	0xbfacf70336d04586	-0.05657205623732424
254	0x3fbd1509e3302b8e	0.11360227390848207
255	0xbfc0488e41e21d6d	-0.12721422402340057

encoder2.bias f8 [9]
0	0xbfff04fbeb682849	-1.9387168117123272
1	0xbff911de764af836	-1.5668625469984483
2	0xbff2e74e98eb2ca8	-1.1814714406380435
3	0x3fe32fd42832cd21	0.599588469040473
4	0x3fea06ce543853f0	0.8133308072016217
5	0xbff14e6349de14b8	-1.081637657685219
6	0xbfc81ea5c49f2db9	-0.18843528843568239
7	0x3fe90a1624dce6af	0.7824812622049729
8	0xbfd0e7bd776bd0b2	-0.26414429342481605

decoder1.weight f8 [104, 9]
0	0x3fa356447dfb6193	0.03776754415384
1	0xbfc815afd4c40654	-0.18816182984305618
2	0xbfae1e89257d7b56	-0.05882671911853403
3	0xbfb82d82ea1d8fcf	-0.09444444862089017
4	0xbfae4891b71287d3	-0.059147409055426835
5	0x3fca164ccf69431b	0.20380554320811303
6	0x3fb316affaddf4a4	0.07456493258173907
7	0x3fb9b2fe9096a360	0.10038748769751527
8	0xbf9ba3edd05dec0e	-0.026992526858048697
9	0x3edddad71620570c	7.117949595089047e-06
10	0xbef030f4c01a5972	-1.5441164583929056e-05
11	0x3f2a749bef082b5f	0.0002018394802834845
12	0xbf01044b6177692e	-3.245692294813678e-05
13	0xbf2879d1bf120d78	-0.00018673596744998486
14	0xbf0808051de81b9d	-4.5836120751422566e-05
15	0xbef0dfb8a014ca0a	-1.6092215451022177e-05
16	0xbf29895b14dc2325	-0.0001948283847286399
17	0x3ee73f9e459b4c0d	1.1085752862715856e-05
18	0xbfbf3007232447fc	-0.1218265972895835
19	0x3fd271c410dc982a	0.2881937184014328
20	0xbf617faca809d026	-0.0021360752291972483
21	0x3fcfb6f898a03968	0.24777133419452047
22	0xbfdb284092c9edbd	-0.4243318017467706
23	0xbfd120653e50717b	-0.26760226331113984
24	0x3f9886df11c2b4c8	0.023951993426341273
25	0x3fcf7fc18b5336c8	0.2460863046930426
26	0xbfd8fad6a17c692e	-0.3903099610339663
27	0x3fc111cc58a84b79	0.13335565880751313
28	0x3f99a325c15246cb	0.025036420750047122
29	0xbfc6cfc931e12840	-0.1782161229660364
30	0x3fa7eac4276bcf93	0.04671299916472473
31	0x3f72bbaa91e8a247	0.004573503769770121
32	0xbfab7b09e027c301	-0.05367308484335887
33	0x3fc2a8123b8d0c98	0.14575412662279486
34	0x3fb8d44a09680d0c	0.09698927621507297
35	0xbfca0a710627e421	-0.2034436492974985
36	0x3fa7583de5fedfcf	0.04559510643542774
37	0xbfc1924abcb28cdc	-0.13727697576277975
38	0x3f9bc23bfa6bf724	0.027108132514505404
39	0x3f10998e619cd55e	6.332332159505102e-05
40	0xbf9ea98406493898	-0.029943526157062722
41	0x3fb487fd7723dbd1	0.08020004423802553
42	0x3fc4e1af068f3c2a	0.1631373197583071
43	0xbfced098c7775197	-0.24074086894564736
44	0x3fb57be09dd9ea70	0.08392146924772148
45	0x3f860485eaafaa91	0.010750814652017911
46	0xbfc09f699eade33e	-0.12986488578806105
47	0xbf929616de860d90	-0.018150670367970856
48	0xbfcfbfc62e47123b	-0.24803998241090305
49	0x3fc5c8fa6bff97b8	0.17019586823806576
50	0x3fc1cf666cd81e5b	0.1391418487039456
51	0xbfad4116be753c9f	-0.05713721346784805
52	0xbfaa5299d6d71c09	-0.05141144511758717
53	0x3fd5b64651c25614	0.3392501638821568
54	0xbfbd194b30c122e1	-0.11366720142644794
55	0xbfb20142e2845632	-0.07033174543570267
56	0xbf652c1ff4dbbb59	-0.0025845169210393757
57	0x3fc4ed7b1bc82f22	0.16349734169522728
58	0x3fbbcfb40ca1ba83	0.10863805111305606
59	0xbf76a38387443b9b	-0.005527032644990461
60	0x3fa85b34fe4ff64c	0.047570854228962206
61	0x3fc33237ba89432f	0.14997002227985365
62	0x3f92432c7c082e74	0.017834372587499606
63	0x3fc44faf293e9d83	0.1586817695035557
64	0xbfac0d3a0960e456	-0.054788411755403985
65	0xbfbacf9e569210a6	-0.10473050702609274
66	0xbfb4fc94a553503b	-0.08197907482400606
67	0x3fba57ac8e03ae7c	0.10290029971263864
68	0xbf9ff39b4a1efbf2	-0.03120272292994381
69	0x3fa3d670355bb690	0.038745409501513284
70	0x3f9a546c2098a626	0.025712670793074953
71	0xbf8d640b8ef979e5	-0.014350977230773896
72	0x3fcdd6fab6c38e73	0.23312314914720708
73	0xbfc5b6e70324bde2	-0.1696442380284529
74	0xbf8b7f845048aa0d	-0.013426812839573388
75	0x3fd39a8b105fb718	0.3063075694943662
76	0xbfb50c372feaffa3	-0.08221764488098286
77	0xbfb6127edb9c0c1d	-0.08621971952020187
78	0xbfbcc939522dcf09	-0.11244543320009028
79	0xbfb2633c8894437a	-0.0718267281956865
80	0xbfc533036e5832bd	-0.16561930549541684
81	0x3fd160242d75d119	0.2714930004069785
82	0x3fb97fcb5f69372c	0.099606238168431
83	0xbfbaf5342cf84f3c	-0.10530401323222532
84	0x3fcadfcce0ce25a5	0.20995484330005101
85	0x3fcbb728ba611826	0.21652707195807003
86	0x3f9dff91dbe262ce	0.02929523377005943
87	0xbfdf3ec36cb5d57d	-0.4882057725547709
88	0xbfcbf7cd7e606d4c	-0.2184998385499547
89	0xbfc747089f53d269	-0.18185527591380726
90	0x3fb3d65bb6fba4d3	0.07748959748609545
91	0xbf85e43e2e0da9f7	-0.010689245014607869
92	0xbfcd8d72398de03f	-0.23087909517539804
93	0x3fba6ce27b1ededa	0.10322394853471498
94	0xbfa5dcf616a9e23e	-0.04270142580657364
95	0x3fb14f7c66e7593a	0.06761910927102557
96	0xbf794ac4fd7ade98	-0.006174821369931437
97	0xbfb6eb1bdbe33294	-0.08952497595164238
98	0x3f9c9e865561120d	0.027948473893291182
99	0x3fc06d055e767a7e	0.12832705604974487
100	0xbfc921bd84b81bfa	-0.19634217243603286
101	0xbfbaedecd12412ff	-0.10519294839839331
102	0xbfb35d694f813bef	-0.07564409438167251
103	0xbfc17e8dae151d86	-0.1366746044170492
104	0xbfa42e09c579f399	-0.039413743358614535
105	0x3fcb896df09fbc25	0.21513151406495115
106	0x3fa94a34e9c0fa7a	0.04939427712860307
107	0x3fb01a9efd940672	0.06290620509028047
108	0xbfc909fc04e2e5b7	-0.19561720121946077
109	0x3fc656f8a978b9a0	0.17452915453891382
110	0xbfc73a866069f1bb	-0.18147353847224487
111	0x3fc6bb5810a49cb7	0.17759228527686385
112	0x3fcade5666acf3cf	0.20991020215470121
113	0x3fb7aa5f4f113a0f	0.09244342499116719
114	0x3f79bb9f5e8c297a	0.006282446419172744
115	0xbfd0de073acaf0c6	-0.26355152837255635
116	0xbf816cdf26a1c37a	-0.008508437506152811
117	0x3f887d2ff8c83a44	0.011957525996902814
118	0xbfd0430ccf8101ce	-0.2540924097447971
119	0x3f9a725664ebdb54	0.02582678786253763
120	0x3f7d8525396f56e3	0.007207055480611155
121	0xbfcebfa93bb3ff82	-0.24022403159323963
122	0x3fb105e70a0e455c	0.06649631495954139
123	0x3fcf02a515ef24f8	0.24226821490291406
124	0x3fb1524362df2bf1	0.06766148723470146
125	0x3fa678e5a7c7ed6f	0.04389112160785202
126	0xbfa75a426a0b6b22	-0.04561049980630673
127	0xbfac6ec5dd5df22d	-0.055532630226455694
128	0x3fb366a1dab45a28	0.0757847937532935
129	0x3fc6f170f32b40de	0.17924320100292496
130	0x3fc21792590f9a62	0.14134435032538578
131	0xbfc10f1aa687fc8c	-0.13327344066053504
132	0xbf37fd03c6bfd372	-0.00036603300281905845
133	0xbfc0974e5fa15a4b	-0.12961749715278112
134	0x3f99b2ded641b895	0.02509639914244895
135	0x3fd26feef327b599	0.28808187242142363
136	0x3f76abf92786df40	0.005535100230581069
137	0xbf95644de7bdc1c4	-0.02089044310508982
138	0x3fc67e9ed1d400f0	0.17573914762034049
139	0x3fb61a46eea82552	0.08633845640738017
140	0xbfd680cbcdd3b106	-0.3516110906628146
141	0x3fd0bd1f7fa8b516	0.26154315439892295
142	0xbfd48d0e75a8a8fd	-0.32110940446968056
143	0xbfc9eb6de3a3c60f	-0.20249723067495082
144	0xbfc51d8a42c5d04e	-0.16496399174104898
145	0x3f96509f4e4c7cbb	0.021791924623468555
146	0xbfc9c98d02e7639d	-0.20146334306516858
147	0xbfdafa4d77abceeb	-0.42152725874551206
148	0x3fbc84f6c446fd5a	0.11140386859823562
149	0x3fcf398ea2c675c0	0.24394400547036632
150	0x3fbdd7d533f76b2c	0.11657459753716343
151	0x3fd304feb0ce3b1b	0.2971798636071285
152	0x3fa6f39a777dd51c	0.04482729633938673
153	0xbf4863ebf9af6241	-0.000744333479242583
154	0xbf63da4c807d9fd1	-0.0024234289339126543
155	0xbf5b700775185b3d	-0.001674659044857043
156	0xbf5c236dbe6d611e	-0.0017174312321995354
157	0xbf598361b45948f3	-0.0015572027345070432
158	0xbf6090a6c5f12797	-0.0020221001900936997
159	0xbf6144e1fc78496d	-0.0021080411713764653
160	0xbf5cecaa79ca0473	-0.0017654099275719287
161	0xbf630fac8338776f	-0.0023268098245940376
162	0x3fb8a2922d709300	0.09623063668602683
163	0xbfa5225648518de4	-0.0412775958327776
164	0xbfada3039ef0fb20	-0.057884324218767214
165	0xbfc38cc704991372	-0.1527336857272093
166	0xbf9f9df2a3e8d064	-0.030875960592496546
167	0x3fc3e4e52001d1bf	0.15542282164427765
168	0x3f8051d19cb88d21	0.007968556971781173
169	0x3fcc28e92ed0954a	0.2199985006892951
170	0xbfdfc6380d9bba99	-0.4964733250516616
171	0xbfc6e313fbcc2f20	-0.17880487246326826
172	0xbfb23751a672cd02	-0.07115660012896188
173	0xbf9a9fdb07f6bc54	-0.026000425683090647
174	0xbfbb3569e753e4f7	-0.1062837781681941
175	0xbfbbb8e06d22da97	-0.10828974403816925
176	0xbf7b557e91bbe74b	-0.006673330699180922
177	0x3f9dcc89eb8dc516	0.029100565912306108
178	0x3fd2e91490eff3aa	0.2954760947612224
179	0x3fa3f0f6cc5c90e3	0.03894778484962715
180	0x3eb430cd5c84004e	1.2034555414986046e-06
181	0xbf132a62d0fd7bec	-7.31108486866497e-05
182	0xbedf42228dc0a122	-7.452568947776096e-06
183	0xbed16ef5212278f6	-4.1564531036138166e-06
184	0xbf08c74920e46991	-4.726116104532546e-05
185	0xbf1b0d88a9358b1b	-0.00010319849598298648
186	0xbea4318efab32c34	-6.018158179797219e-07
187	0xbf20c749ae878d0d	-0.0001280095523404707
188	0xbf15e2942f0db878	-8.348493044049883e-05
189	0xbfcbe64375642f0d	-0.21796458465575377
190	0xbf8a4205f1a4ed2f	-0.012821241795441722
191	0x3fcb542df19b0b78	0.21350645348692487
192	0x3f931d9ce8cbcd44	0.018667651852365866
193	0xbfc5eb73d6f6e94b	-0.17124794002831786
194	0x3fc7f2110daffcf7	0.18707478683788967
195	0xbfc2bb39766d9f91	-0.14633863718631493
196	0x3fc86aff44c731a1	0.1907652936773845
197	0xbfc43ce0a7e0a539	-0.15810783574242196
198	0x3fb7156ebab9d164	0.09017078455673794
199	0xbfc316a8e9bb572e	-0.14912902271924494
200	0x3fa7ab75d6563a7d	0.04623001328865415
201	0xbfc8383dfa2c56f4	-0.1892163726376378
202	0x3fa70b49e7fbbb3d	0.04500800091579158
203	0xbfc4661d13f53561	-0.15936625933174312
204	0x3fcc96c3d47af7eb	0.22335098147408358
205	0x3fc9839627d3e062	0.19932820267399892
206	0xbfc8e7db860a8f59	-0.19457572979910756
207	0xbfccb4aeece7e9c0	-0.2242640167967931
208	0xbfb123c4a852c781	-0.06695202931839896
209	0x3fb3dde20811ad1d	0.07760441491125332
210	0x3fb6de362dc2119f	0.08932818047657641
211	0xbfd42b2704f40daf	-0.31513381465648654
212	0x3fcb19decfb35269	0.2117270006334764
213	0xbfa6d8aa8b2bceeb	-0.04462178181520734
214	0x3fa201385175e0d5	0.03516555780783085
215	0x3fc6046d5f4c7b2b	0.17201010850200169
216	0xbfb2ecd89984cd0d	-0.07392648456589175
217	0x3fac362a29ea5831	0.05510074388182352
218	0x3fb39a813843d121	0.07657630561499619
219	0x3fc866cbdbfe986c	0.19063709489745706
220	0xbfcebd5ec417c017	-0.24015411925165672
221	0xbfb8ba0a2f07a5f7	-0.0965887417620691
222	0x3fc12c9a2921b595	0.13417365082152047
223	0xbfb116c9425c4f2e	-0.06675393934375215
224	0x3fc17ebea6a3bce3	0.13668044220637574
225	0xbf4074f57dc7377b	-0.0005022238433924764
226	0x3fbf8289191f53b2	0.123085564263717
227	0x3fbca787f9ea581d	0.11193132258844725
228	0x3fc41314d9e0b0a5	0.15683231962737412
229	0xbfc39bfa465b9187	-0.15319755969461488
230	0xbfba77da3730132d	-0.10339130256040781
231	0x3f9ee3619b931f1d	0.030164265747571684
232	0x3fb50eb86d9fe57a	0.08225586582547875
233	0xbfcf1239beeb8e56	-0.24274370023987285
234	0x3fa40b20c2cf4852	0.03914739969299376
235	0xbfbcc9b935d6534d	-0.11245305599579787
236	0xbfd4f82a61d52715	-0.3276468234440569
237	0x3fc9e729331e61f5	0.20236697193173794
238	0xbfb0000d9fb3f818	-0.06250081204413538
239	0x3fd4264e1267edc8	0.31483794972856716
240	0xbfd200b5c2ee3135	-0.2812933353059351
241	0xbfc2ca1cc8cc14dd	-0.14679298214483696
242	0x3fbc02e9684dafbf	0.10941942974540007
243	0x3fb24dcf63b61c13	0.0714997881351425
244	0x3face99b26562a37	0.05646977274871683
245	0x3fb0320dda54586b	0.06326376514729908
246	0xbfc2109ce7cf7e5e	-0.141131985844356
247	0xbfc65411f56807b7	-0.17444061739666747
248	0xbfa6138fe2d856a8	-0.043117996636437284
249	0x3f4299ef92fb9ae4	0.0005676669879591503
250	0x3fb05019c7e74734	0.06372223978476371
251	0x3fb27debe1f8ca65	0.07223390833750327
252	0x3fd1d63c13de73cd	0.27870084705665193
253	0xbfc18e4a4dc22897	-0.13715485379026823
254	0x3fc289a1eb5cda35	0.14482521049804267
255	0x3fb7c3d8c7607ff3	0.09283213489152313

decoder1.bias f8 [104]
0	0x3fb4fcade1c1dfb5	0.08198057901051821
1	0x3ef220b1b8a537f3	1.728793316973366e-05
2	0x3fc36fe7759b4f87	0.15185254328264028
3	0xbf709dfca5260233	-0.004056918044057545
4	0x3fcc601f4455103e	0.22168341480767312
5	0x3f9bc1db2d71ad8d	0.027106690071759188
6	0xbfe93240fc0ebabf	-0.7873845026968737
7	0x3f9902ba80487930	0.024424470977572443
8	0xbf73e431470eb30c	-0.004856293192386795
9	0x3fbad0960478501d	0.10474526986246287
10	0x3faf98b991c584c2	0.06171207336843444
11	0x3fad86e9de7c2b6b	0.057669933708971076
12	0xbfe67b796876f9b8	-0.7025725403143985
13	0x3fb39df18b3a4e35	0.07662877701869138
14	0xbfea93eeb3263ddc	-0.8305581568728786
15	0x3fca4a313b1fe24e	0.2053891695684506
16	0xbfca1b54948fe4e9	-0.20395905736930978
17	0x3f2956a6bc63f375	0.00019331727362006568
18	0x3fc947848610ebbb	0.197495046102487
19	0xbfe54a4783523559	-0.6653173031678917
20	0x3eeb77be4aecff5e	1.3097642605708063e-05
21	0x3fb64c63c2637f92	0.08710311408822083
22	0x3f845619fdbc19d1	0.009929850631590494
23	0x3fc0090768a7e8ae	0.12527554140235025
24	0x3fb4c2237c93b24a	0.08108732024602108
25	0x3fb1dc26b66dc25d	0.06976549104525405
26	0x3faf7178122d1c30	0.06141257497670727
27	0x3fee3d704f8622fd	0.9449998429491583
28	0x3fb70b71f25dee2b	0.09001838843499203
29	0x3f881eb2bc4dab71	0.011777302142680775
30	0x3fb369e5866fa0ee	0.07583460361604796
31	0x3fc3786456ea08ca	0.15211157077653176
32	0x3fbe6aea941b88fa	0.1188189136114807
33	0x3fadfba08ab48197	0.058560387546324914
34	0x3fb4afffcf30c192	0.0808105355106419
35	0x3fa693d75858e775	0.04409668878038434
36	0x3fb45cc3ee6e8d49	0.07954048701372075
37	0x3fb321e1352e953e	0.07473571346652805
38	0x3fc8e0812ac7ae51	0.1943513354193436
39	0xbf865a374d83c2c8	-0.010914260914860377
40	0x3f8b3816f35d2c45	0.013290576269033969
41	0x3fb641d00fc5c1d5	0.08694172272749452
42	0x3fbdea08763b2044	0.11685231100557397
43	0x3f186c6859bd061c	9.316813378481458e-05
44	0x3fd16d7dc2d064f5	0.27230781578835145
45	0x3fade10619216d67	0.05835742050904962
46	0xbff07d9b89a6bdab	-1.0306659104352132
47	0x3fa1b933828409bf	0.03461609810075882
48	0x3ebb0556a5dc3864	1.610568367952096e-06
49	0x3fd2a330308a00ca	0.29121021976608275
50	0x3f0357d67af44b7a	3.6894066733370514e-05
51	0x3fb8adb285f4b5f8	0.09640041132362132
52	0x3f200ee389aacfc7	0.00012251403389529193
53	0x3fa4c7f53a106296	0.04058805784024348
54	0x3fa0a0d8d7aa1180	0.03247716553326807
55	0x3fc00c2fc4c711be	0.12537190540582616
56	0x3f9df26c1d90bee5	0.02924508028462371
57	0x3eb6112e1ad2b8f5	1.3153022380519087e-06
58	0x3fc56754832273dd	0.1672158851914948
59	0x3faec20d84a37831	0.06007425541041334
60	0x3fcac49a7bc74f46	0.20912486118197132
61	0xbfc9dd6366aa6b6e	-0.20206873429273337
62	0x3fd2eacce60a6cd4	0.2955810781947552
63	0x3fb725259d9f0e3a	0.09041056726624044
64	0xbf0308e7c3121957	-3.6305973830019315e-05
65	0x3fcf1d691390a8d1	0.24308503585172628
66	0x3fa2699d1d546099	0.03596201880481082
67	0x3fc2d120efd93729	0.14700710021355093
68	0x3f9c1c386fe5a375	0.027451402501728468
69	0x3fa51238330df16d	0.0411546289751382
70	0xbfe87d51a503ba06	-0.765297720235879
71	0x3fa865d0f2cad358	0.04765179599545516
72	0x3fa6a93902da4341	0.04425981674024238
73	0x3fb03426b14542fa	0.06329576328176847
74	0x3f9a9af18e2b8554	0.025981687834137304
75	0x3fc18db9f4acc5d7	0.1371376461698179
76	0x3fc2082e5e1cb6f8	0.14087466807671212
77	0xbf7b291455c2d0ef	-0.006630973275765436
78	0x3fbcb083929f074e	0.11206838922137516
79	0x3fa058ce4e20bb41	0.03192753509244151
80	0x3fbbd7ea07f4bb00	0.10876333898771051
81	0x3f6168aae3236023	0.002125104679276306
82	0x3f4075b203cd4ac0	0.0005023116315022377
83	0x3fc84f26dcc7a582	0.18991552143351603
84	0x3fd2a52c29868a9e	0.29133132987241506
85	0x3fc36de7c78cc0f5	0.15179154628413696
86	0x3fb6333b0eecf7c8	0.0867192183913793
87	0x3fc04dac4ab24c01	0.12737039229668315
88	0x3fb4b367f708ce99	0.08086252003777829
89	0x3f6451ee9e81e0bb	0.0024804745226526237
90	0x3fb11b758150465a	0.06682524115628877
91	0x3fc5fb14f6d393f5	0.17172491123270076
92	0x3f9a16b203e98d2b	0.025477200974262686
93	0x3fb561ee8b666e86	0.08352557090113963
94	0xbf8c09d6f999358d	-0.013690642826214705
95	0xbfda37a210727010	-0.40964557272104773
96	0x3f807577f19db826	0.008036553441083848
97	0xbfd57562c5cfd5dd	-0.33528966252864995
98	0x3f298ce6ae966c9f	0.00019493404333279383
99	0x3fae260770ed2599	0.05888388875480217
100	0xbfa132e17e8bd678	-0.033591314981021136
101	0x3f9ae23ff76c81c3	0.026253699757150317
102	0x3fa60817c6bae2b1	0.04303049374488433
103	0x3fcb22da1c1faa68	0.2120010983774876
