Trained_models/0/predictor4_200_3.pt (torch, 338391 bytes, 16 tensors)

weight f8 [101, 200]
00000000: 69fe db17 31a8 933f 33a4 b217 9bcc 9a3f
00000010: 3363 e8a8 45c0 94bf 24d2 17e2 1024 98bf
00000020: dcc5 4405 2112 aa3f 6d23 129c 3b3e aebf
00000030: 83c6 1c8e 3995 b03f 9c3a 9f00 98d2 a6bf
00000040: 8b88 da7d 805e 94bf b1df 23d7 3a56 b53f
00000050: d939 7a06 8755 bcbf a5a8 e4a9 f20d bc3f
00000060: 2111 f119 9cb0 b0bf ba1f 3f45 e5c0 82bf
00000070: 25f7 1978 e8c2 ae3f 6a3a c10f 824d b0bf
00000080: a288 8d31 1af6 a83f a944 466d cb04 a5bf
00000090: 8781 db5a cce9 8e3f 5511 e752 cc9f 9d3f
000000a0: 46e5 93e6 2d33 a1bf 4569 3853 fd9e 6dbf
000000b0: fd72 141b 240b a13f 5cd9 fab4 076f 9ebf
000000c0: 4a97 775b fedf 833f fafb 5342 95f5 79bf
000000d0: 9c01 8e47 b2dd 643f 1815 f1bb 12fc 993f
000000e0: fa67 9779 e65e abbf 09f0 8e42 9415 ac3f
000000f0: 80aa 9936 9950 a0bf f947 1867 2c4a 8a3f
00000100: cfff f73f 57dc 9bbf eec6 f36e b85b a53f
00000110: 8d86 95f7 2354 91bf d84b a2ac b229 85bf
00000120: 72b7 02bb 986e 8e3f fd98 713d 2d05 a0bf
00000130: 118c 165f f941 b13f d763 7136 a866 b5bf
00000140: ff09 a612 4457 a93f 4cf5 4b17 2bc3 833f
00000150: eb75 c434 b5e5 a5bf e0c9 7bbb 4edb a93f
00000160: 5402 3970 b14f aebf 527b 8829 98c1 b03f
00000170: 98ae 0c35 572f adbf b615 c0d2 5e44 a33f
00000180: 0424 662a 0904 95bf 9e8e 83a3 8c92 a13f
00000190: 6c34 2e4f dc01 b6bf 860e 9b60 99d1 bc3f
000001a0: 7418 059e 0d23 b2bf 6567 a529 4330 87bf
000001b0: 98e3 1c70 8b87 b43f 7341 637f f594 bdbf
000001c0: ccef 5c24 36e0 c33f c727 6b0d 75e6 c3bf
000001d0: 7ed6 9bad 1511 b13f b3f0 b71c aa18 9a3f
000001e0: 7a24 1052 e52e b0bf 78e5 d261 5c40 aa3f
000001f0: af9c 3c22 0c89 9abf 2006 ff37 cf81 9d3f
00000200: b04f ab34 4eab a2bf d502 6cf5 26e3 9d3f
00000210: 58e7 da70 3825 9bbf ef61 39d2 1d03 a43f
00000220: 33ac 193f d216 abbf 7146 640f 31b6 ae3f
00000230: 1c0f a0eb a12c a9bf 69ed 9153 aea0 833f
00000240: 0ffe 1cbe 7412 a03f e3d4 983b 91ca aebf
00000250: b66c 6cc2 f837 b33f 2f48 f89f 5eb6 b2bf
00000260: 069c f8e8 f5a5 ae3f 088c f263 ea2b a4bf
00000270: aa55 ffbe cded 823f 83fe bdf8 9675 9f3f
00000280: 86a6 f842 34b6 a8bf b775 c0bd 76f1 a53f
00000290: e9e1 3575 8038 aabf 38ad 6410 b114 b13f
000002a0: 9322 254e 8c6e b6bf f769 4ccb cd98 bc3f
000002b0: 75ff 4cc6 de07 bdbf bc93 3d6a 8481 b83f
000002c0: 7c99 57c0 14b6 aabf d64b dc6b 7061 8bbf
000002d0: e6c7 d8a6 1d6c b43f fda0 d780 a897 c1bf
000002e0: c1ed ffd2 f89f c23f 5c09 cc2c ac82 bdbf
000002f0: 55dc 14e2 c3e4 b63f 7316 bd65 02f5 acbf
00000300: e9cc edd4 1e08 893f c6be 4333 2156 a93f
00000310: e281 43de 65ae bdbf bb42 263c fece c33f
00000320: d92c 1526 a0ef c5bf 7642 92d7 6f8c c43f
00000330: 6e0e ceea 235a bbbf f8dd f26c 3031 803f
00000340: a9c6 fb7a 943e bc3f 728c ea89 37c7 c7bf
00000350: 1d29 932a eb67 ca3f ffca c893 c398 c8bf
00000360: 0530 0725 56f3 c03f 2a31 1143 d0f5 a0bf
00000370: c6fb ecd7 757e b2bf 0895 7450 9b83 c23f
00000380: d4cb 953e 0a0a c7bf f929 955c 1912 ca3f
00000390: 9781 a690 9ced c8bf f667 403f 7090 c13f
000003a0: 11e4 52e5 0682 b0bf f817 ebc6 3129 7bbf
000003b0: 205d 3bcc 0610 b23f ce04 5404 b072 c1bf
000003c0: 2978 c7ca 989a c73f 4fd1 0c3e 388a c4bf
000003d0: 0bee 2dfd c3ea b53f d84b 9b5a 8f16 80bf
000003e0: 6e92 5e35 93cb a4bf dec9 45ea a64f b13f
000003f0: 0ebf 06c7 3e67 b9bf bf7c 85b8 088f b83f
00000400: 936f b655 6582 98bf 0fcd 6dff 24bb a6bf
00000410: 9923 1f50 cf79 a43f b67e f228 9724 79bf
00000420: 59c2 2d92 a0e9 49bf c6ca 2001 664e 803f
00000430: c915 f32b c3bf a4bf f861 7222 1bee ad3f
00000440: 0c1b d2fb ed50 adbf c5a7 fd4d db85 a03f
00000450: 1ea7 44a5 b138 963f 8c16 2838 74ee b1bf
00000460: 3662 be45 fa0d b63f 73aa 15c3 3cca b4bf
00000470: 1b6f f7b4 ab92 b03f 625d 1dce ca52 8ebf
00000480: ec7e 042d 8557 a4bf 78fb 29a2 aafd a63f
00000490: fca6 427f ca07 8dbf e758 7fac ff0e 533f
000004a0: 59e5 48fe 596a 733f a522 8460 7f13 a2bf
000004b0: da57 50a6 e7f5 ab3f 1855 13b0 ea14 a2bf
000004c0: 2602 7f7b 4a5b 783f b9c4 fb8b ef7c 9a3f
000004d0: b04a 21a4 9704 afbf ed28 e236 495c b13f
000004e0: 5779 b878 288c a6bf 631a 6368 1b49 923f
000004f0: 5fa3 cca6 618a 853f 651c 8755 c63e abbf
00000500: 497b ce75 666f b23f 6f4a 6b87 f734 abbf
00000510: 5641 b47c 719b 983f c615 4a87 c0d0 8cbf
00000520: 78b2 3633 7c8a 9c3f fcda ec09 cc70 a8bf
00000530: 9285 e272 52c2 ae3f 212d 8f2f edf9 a2bf
00000540: 75d5 f912 f1b9 71bf b0de bb07 0b4f 8e3f
00000550: c3e3 cf62 2167 82bf 1cf7 8bfb c1d4 a33f
00000560: f294 6f39 c200 b8bf b381 f1c1 a2c9 bd3f
00000570: 0799 b908 3a26 b9bf e688 235e e154 b13f
00000580: 045b e2d2 41be 98bf 6993 3ac2 5de1 a9bf
00000590: f26b e697 10d5 c03f 072a 0800 c899 c3bf
000005a0: eb87 acc5 1a36 be3f 199e f8ab 5430 b3bf
000005b0: 8fa1 1acf b915 993f cffb bf32 5ccd a33f
000005c0: 4ae6 8235 9ad6 b6bf 5d13 b2e3 a46e b73f
000005d0: ff27 e348 d219 acbf b5c2 56e3 ee3a 873f
000005e0: 5abc 48da 6d0e a03f 5f0b bdc5 9999 afbf
000005f0: 4c6e cab8 8e67 b43f 6cae 931c c1ca b3bf
00000600: 29bb 485a e6f3 973f bbbc 6690 65e1 b03f
00000610: 3846 8925 b9dc c0bf 5614 7de2 4e55 c23f
00000620: b24e eb2e 9ad7 bbbf f148 4ec2 f294 8d3f
00000630: eb38 1950 4522 c23f 0c77 3d6a 851d d3bf
00000640: 34c0 fee6 1fd5 be3f 61ac 21c0 306c b4bf
00000650: 7ecc 65bf 34cd b03f 21a5 9643 b9e3 adbf
00000660: 9280 4058 47cc a63f 4de0 cba2 7f85 a3bf
00000670: 1127 520f 0f52 a23f ad42 fcc5 106b a5bf
00000680: 9fe3 40f1 6f64 ae3f d7f8 f9dc 6d73 afbf
00000690: ec63 107b 4ef9 a53f 53b7 6262 20b6 a3bf
000006a0: bad7 5cd7 0b24 ad3f e7f4 8bf5 519d b1bf
000006b0: 5606 b6b9 1145 b43f 4886 fa69 a15f b8bf
000006c0: 8e54 6f41 f945 b93f 8b98 3eea 1e4b b1bf
000006d0: 2fbb d086 513d 923f 984a fb22 744d 7f3f
000006e0: 62a2 0276 589e 913f 420c 14dd e426 b6bf
000006f0: 2d54 ac0a ceb9 c33f f25e 682b d110 c8bf
00000700: 17f4 2cf0 7a7e c73f 2524 9ec3 a372 c3bf
00000710: 936d baa2 673c b73f 338c 171b edcc 95bf
00000720: ffc7 523f 1dd4 62bf 3946 712e 3995 9fbf
00000730: f0c8 dbf6 6a3b b83f 7279 d9f2 8028 c3bf
00000740: b5a6 78fa 556e c43f 4500 888f de7c bebf
00000750: 75e0 a5f2 6bbc a33f c984 1cb2 9c1b a33f
00000760: 80d2 ec46 e2d7 b0bf f0fe 6965 5e7e a53f
00000770: 16aa ae5c 17eb 9e3f c77c 4b63 ab8c bcbf
00000780: 4153 8995 bb3f c43f 03ff 950a d4ec c3bf
00000790: f15f fdeb 8986 bb3f a9a4 3b29 9264 a5bf
000007a0: 1be5 c17c f56c 80bf 944d 2708 232b 6e3f
000007b0: 1c70 1086 f46b a93f 074f d47e 8700 b7bf
000007c0: cbff 76fa d427 b53f 8d9a 468a 1820 a2bf
000007d0: 523e 285d 7918 a6bf fef2 5b88 1361 c03f
000007e0: 89a2 aa54 45a1 c5bf c8ba b7e8 9c11 c23f
000007f0: 1336 5650 1228 b5bf d154 ff3a 314e ab3f
0.019196288186320496 0.0261711343015671 -0.020264709886848208 -0.023575080680489205 0.05091956319155219 -0.05906854896699696 0.0647769901231872 -0.04457545287697437
-0.019891746217247912 0.08334701301998738 -0.11068004520550491 0.10958782813819086 -0.06519485123960013 -0.009156981635797357 0.060080780659502765 -0.06368267902983296
0.048752611683782435 -0.04105220517079406 0.015094372294186765 0.028929894027684828 -0.03359359206838035 -0.003615851188226634 0.033288124375962604 -0.02972042123902817
0.009704577604633297 -0.006337721865974361 0.0025471193334285058 0.02537564537148737 -0.05345840677519216 0.05485213577728138 -0.03186491767413191 0.012836787124829373
-0.027207721022932504 0.04171539644620546 -0.016922533022244713 -0.010333438771601353 0.014859383780585243 -0.03128949523015654 0.06741293498502922 -0.08359767274067963
0.04949391105312272 0.009649597786387652 -0.0427681567109451 0.0505013088094477 -0.05920176024347215 0.06545401586525415 -0.057001805520795645 0.037630999780997085
-0.020523207867459106 0.03432120796221948 -0.08596589024655693 0.1125732289174782 -0.07084736926944563 -0.011322521885336287 0.0801932476723678 -0.11555418357898421
0.15527989173449297 -0.15547049670413868 0.06666694153303784 0.025484712603415626 -0.06321557286732285 0.05127228445185045 -0.025913419332167006 0.02881549624703983
-0.036463207177490076 0.029186829308858037 -0.02650917233288594 0.03908627692425514 -0.05290848751322876 0.05998376191031419 -0.049168643963666464 0.009583818364481815
0.031390808303054844 -0.060139215970062464 0.07507281061809831 -0.07309523969186736 0.059859928788050396 -0.039397549343696936 0.009242637053754905 0.030722006732956785
-0.04826510732193605 0.04285784784608942 -0.051212324436111185 0.06672197962023041 -0.0876243296417079 0.11170660222379768 -0.11340133992507424 0.09572627633822511
-0.05217041824271271 -0.013369444171564309 0.07977471660049637 -0.13744074145439092 0.14550695708008557 -0.11527515500714486 0.08942817945067934 -0.05655677310873566
0.012222519753527243 0.04948524237431466 -0.11594235111579779 0.15475442826256888 -0.17137529239184948 0.1605357935518616 -0.10684418184796993 0.007906320881700943
0.11032989504362924 -0.1857671187800381 0.20629634455537707 -0.1921619865039119 0.13242604072581812 -0.03312540835085749 -0.07224213143943733 0.14464131763922006
-0.17999389701762303 0.20367733975065486 -0.19475133002289333 0.1372204121442448 -0.06448405359959987 -0.006631082955840022 0.07055704580431099 -0.13631248675668534
0.18440542126967444 -0.16046813039577976 0.085613488494282 -0.007855529739947117 -0.04061565424425316 0.06762164325281314 -0.09923164710084739 0.09593252663534012
-0.023934920650944113 -0.04439654939678849 0.03999183514640165 -0.006138411015086545 -0.0007907899892938926 0.00796203318541212 -0.040525530924735494 0.058457229571278135
-0.05725806902869665 0.032271245260588034 0.0217006451722802 -0.07004476901064488 0.08615078165747367 -0.08121089709099198 0.06473801773193737 -0.014806351103898666
-0.039730226273830244 0.044904072089585634 -0.014175016411474221 0.0011632439436560173 0.004740096603705745 -0.035305004626996074 0.054610480358107075 -0.03531583213195172
0.005946436831380219 0.025867216986573214 -0.060581911836057656 0.06781442251136456 -0.04403807138099818 0.017857006307873024 0.010517847922146549 -0.05321330827751395
0.0720123326886838 -0.053138480454113395 0.024030469166122025 -0.014070037964539216 0.027872028947671684 -0.047735573016714355 0.06007630970385515 -0.037063037925316296
-0.004327718444632968 0.014799200223463899 -0.008985768154149093 0.03873258777274044 -0.09376157667391619 0.11635796770997935 -0.0982395430852173 0.06770142124472364
-0.02416327333102243 -0.05054753299672294 0.13150222222324676 -0.1531305313258857 0.11801307035469193 -0.07495621870531756 0.024496939912440004 0.038676148600636055
-0.08921207243374699 0.09153204497313312 -0.054884501836184534 0.011342874825318242 0.031360085388194306 -0.061718755138392416 0.07970516215794382 -0.07731253574064006
0.02339134145784808 0.06593928122923647 -0.131735938385235 0.14322839793217906 -0.10875857968795336 0.01444425254320378 0.14167086039601115 -0.2986768281460719
0.12043952359704307 -0.07977585497580854 0.06563119576257923 -0.05837801885656747 0.044527272723145064 -0.038127888319593774 0.03578230916998682 -0.041832470100535125
0.05936002559651076 -0.06142752954927893 0.04291768314596553 -0.038498889932596335 0.05691563610018542 -0.06880676502983683 0.0791789129634933 -0.09520920598381466
0.09872396323710772 -0.06755250185833199 0.017812036374546366 0.007642224940087282 0.01720560283925677 -0.08653097531718948 0.15410781403684962 -0.188013216204801
0.18354737021755405 -0.15193602611205495 0.09076545451028144 -0.021289543894351403 -0.002298409579986504 -0.030842679462074172 0.09465664412326524 -0.14967357499967765
0.1596171830181469 -0.11909285549336442 0.038546918268310394 0.037320038549532315 -0.06579412681169039 0.04197974193539078 0.030193676978948224 -0.11152144598189571
0.1581949691923459 -0.15566492573633903 0.1075216485163535 -0.04178292039234439 -0.008020322675508276 0.003682678624707678 0.049651757588634576 -0.08985182615679942
0.08263903727401993 -0.03540112197815857 -0.04315547239468444 0.12796253355181614 -0.16898409494503522 0.1411625038449158 -0.0826426931509661 0.0533309349554344

bias f8 [101]
00000000: 538b 1cbe ca07 cfbf 3bb2 cd13 99ef c2bf
00000010: 46f6 2393 5525 bcbf 5362 33ba 9efd d4bf
00000020: 9296 3919 cbe9 e1bf 57e6 24d9 84db a8bf
00000030: a53d 3a8d 4075 c8bf 2151 2eae 5b89 c4bf
00000040: 983b 99c5 5a12 c5bf 58fc f133 6363 b3bf
00000050: 07cd c4fa d55c c5bf a83b ef2e 00bc d1bf
00000060: 60d4 ddb9 528a c9bf e827 1137 2c9b f33f
00000070: 6002 3c99 e955 c5bf c7a8 7109 4a8f d6bf
00000080: dee8 fa5e 3c74 c4bf 6a29 0272 a933 cabf
00000090: 83f8 6e9c fe97 c6bf 1a85 babe 8dfb c1bf
000000a0: 2937 d5f2 24ad b2bf 8c5c ab43 9e2d c1bf
000000b0: 2ba2 6859 2ce1 70bf 8d7e 7bde 1e06 c7bf
000000c0: 529e d081 3f42 d7bf 3fea 2c5a 3e08 a7bf
000000d0: fb0c 2d0a 4fae aabf ab1e 95fe 0d34 cdbf
000000e0: 03f2 d2e9 bded d3bf b9b2 4d9f 3cc2 c3bf
000000f0: e968 673f 073f aebf 2e73 bb71 131f c5bf
00000100: c0db d696 1de0 c7bf b476 5394 69ec b5bf
00000110: 252d 41b6 3c31 d5bf df2c 23dc dc49 f9bf
00000120: d94e 8ece f333 babf c1dd d4d2 d704 cbbf
00000130: 5951 1eac 5d72 d0bf 5218 27b1 6fc4 c4bf
00000140: 26c5 8649 cbf6 c5bf 1088 f828 6195 c9bf
00000150: ddd0 033e a02b c0bf dd6d a67c 0a15 cfbf
00000160: f4b2 639a da50 c5bf c590 a2df ced2 d2bf
00000170: 964c d865 4cf8 cbbf 2e3b 1750 d3ae b3bf
00000180: e876 6980 cdf6 c6bf 206d e1cb dd1c e5bf
00000190: 52e2 46c1 e878 a03f a5a9 34ff fb99 c0bf
000001a0: df83 d115 95a3 c6bf 9772 fb1b f253 c5bf
000001b0: 65db 4f05 f6cb c2bf 12a3 20d6 f013 b8bf
000001c0: b676 0664 2d1b aebf f782 fa73 44b7 c6bf
000001d0: b991 112c f75c cabf fd21 021a 9cf9 b8bf
000001e0: de5a b47c d15f ccbf a201 1a32 7f92 c4bf
000001f0: 697f e478 162c bcbf 369b 6b8b 95cc c5bf
00000200: b77f a89c b42a cabf 0cbd 9834 9972 ccbf
00000210: fc4b 8ec2 2576 cfbf 0a35 1f43 50b2 c7bf
00000220: d93d 5b43 6aea d1bf 56b6 4698 79e8 c5bf
00000230: b180 d4ff a27f d9bf 5a23 1aa0 9a80 9bbf
00000240: 7982 b9af d075 babf 0668 eaec 1d77 d1bf
00000250: 7e46 a886 ada5 913f 1d75 7551 f9e6 c6bf
00000260: be34 5dd1 125e 0340 c234 edec b50e e3bf
00000270: d7b4 8b6d a7e0 c3bf c301 dd26 e7a7 bfbf
00000280: 659b b4d8 9b97 c4bf f784 259a ef75 c0bf
00000290: 7d1d 1f92 08a3 9bbf 09c6 5456 b388 bcbf
000002a0: 174b 91b5 9a74 d7bf 41ab 8b48 06bc cbbf
000002b0: 110f ab03 adc9 ccbf 4b2b dac4 93e5 b03f
000002c0: 3db2 ad21 2a08 c0bf 7552 d59c 24a5 cbbf
000002d0: 0adb 8239 1443 c3bf 49d9 e956 7d5a bdbf
000002e0: a2e3 fe35 7d17 b9bf 0207 dc1f ad91 ccbf
000002f0: 15b3 fc5a 3b1d c6bf eb17 595d 0da5 d3bf
00000300: 86e2 8436 6368 d5bf c539 de99 b83c 95bf
00000310: fa66 7af9 18f5 ccbf 78f8 2f0a d0f2 8dbf
00000320: 46d1 8e9a 9c6f bdbf
-0.2424252918509305 -0.14793694941489996 -0.10994467584893028 -0.3279797380796811 -0.559789227740753 -0.04854979658780383 -0.19107825179933716 -0.16044183735778808
-0.164622637256312 -0.07573528307146782 -0.16689562553947487 -0.27709965308616313 -0.199533787493837 1.2253839636855393 -0.16668434126042353 -0.35249567911399676
-0.15979723584843603 -0.20470159594362808 -0.17651350630143633 -0.14048930943412402 -0.07295447281395852 -0.13420465759438505 -0.004120991935032718 -0.1798742853488772
-0.363418461582545 -0.04498476839804199 -0.052111120216546035 -0.22815108233247847 -0.3113856109082748 -0.1543651368950998 -0.059074617852916074 -0.16501086285907135
-0.18652696480941522 -0.08563861724129646 -0.33113019750881484 -1.5805328940503427 -0.10235523026340888 -0.21108529848582516 -0.25698034103813466 -0.16224476003680138
-0.17159405794294819 -0.19987120152023907 -0.12633135822364397 -0.242829619278253 -0.1665299657683118 -0.2941167053161389 -0.21851496670624176 -0.07688637452450273
-0.17940682191959145 -0.6597737295191202 0.0321724639829354 -0.12969922982422336 -0.17686713757851089 -0.1666243206626816 -0.14684939631816998 -0.09405427196237451
-0.058801096401322736 -0.1774678770352904 -0.20596208240307393 -0.09755874285668394 -0.22167414273345448 -0.16072072931639264 -0.11004772616842974 -0.1703059130442967
-0.20442826890302765 -0.22224726741976786 -0.2457930755595895 -0.18512919690548585 -0.27993256166243224 -0.17115707335817615 -0.3984153269139013 -0.026857772847992713
-0.10336021700050847 -0.27289531837743686 0.01723357328780261 -0.17892376401406632 2.4209343296593877 -0.5955457332107914 -0.15529339646255977 -0.12365574549494966
-0.16087673264811567 -0.12859911944091326 -0.026989110868979694 -0.11146088464445127 -0.36649196368414166 -0.21667555372490635 -0.2249046581183554 0.06600307041132429
-0.12524916309793524 -0.21597726495624028 -0.15048458870088438 -0.1146620118323415 -0.0980146653008789 -0.22319568687094465 -0.17276708548288214 -0.30694898715989777
-0.3344963104641824 -0.020739445105897553 -0.22622978383588316 -0.014623284636396713 -0.11498430989633332

weight f8 [3, 101]
00000000: b918 e5ff 1b03 d43f bf6c ca38 3929 d33f
00000010: e8a7 b0cb e650 d23f 3b17 87ad e029 d73f
00000020: 11a4 4176 5a35 d23f dd44 7b5b 177c d23f
00000030: 8d42 a91e 4350 c63f 4a42 0171 fe2d d23f
00000040: 2a56 1a7f 8f8f d03f 39b4 4734 4bb9 d33f
00000050: 0b02 55ae f912 d23f 445f d9b6 8fd2 d33f
00000060: 3d89 70bd 4fb6 d13f d24c f76e 1b5c d4bf
00000070: 3438 e27f 194d d63f 0d38 478f 5d4d d23f
00000080: 6f6f 8778 1128 d53f ff0c 8c11 4a49 cd3f
00000090: 04a1 c93e c669 d53f 9f4a df64 614d d43f
000000a0: 1144 7cb7 3098 c33f 7739 6c89 de56 d13f
000000b0: d29f d266 26c6 d03f a23d 27a6 a871 d23f
000000c0: 7f2c ae75 4f24 d33f 2787 7fd7 114f d03f
000000d0: eb9a 90da 293a cf3f 6768 44f0 2928 d43f
000000e0: 02fe f73f c104 ce3f b6f1 5c86 7952 d33f
000000f0: eb1e ff82 22bd ca3f 8aa8 de5f ae70 d33f
00000100: e5b2 a689 0373 d03f f015 6466 693c d33f
00000110: d781 6b18 48b3 bd3f ae5c 7405 75f2 b13f
00000120: 6541 2dfa 0d88 d03f 9f4e 94a9 8040 d63f
00000130: b602 6233 7cb0 d13f 63fc 5765 6e2b d53f
00000140: e7b3 50e5 40a8 d23f 9668 fc93 b800 c13f
00000150: 809b 6614 e741 d23f 5a42 4be1 ded1 cb3f
00000160: 2770 d553 e85b d13f 368c ba46 f1fb d03f
00000170: 11a5 3ee8 fddc d13f 2311 3a9d cb4a d13f
00000180: 3441 faf4 f825 d13f 2445 bbb8 d410 be3f
00000190: 35bb baba 866b cf3f 1eaf 9783 7dc8 d03f
000001a0: 9438 15f7 51f1 d13f 4efa 04ec fbff d23f
000001b0: 608d 2afd 61fc d03f 36ab c777 2b47 d13f
000001c0: b99d 051c fe77 d23f 0086 b011 4e88 d33f
000001d0: 4391 3284 cc12 d43f b422 a617 98d3 d03f
000001e0: f4a7 9b0d 5481 d33f 125a 8c39 2fde cb3f
000001f0: 9941 6567 8ea5 d13f 179e 742c 4e71 d13f
00000200: 2c9c 3e3d 2518 d03f 499c 76ca 13de d13f
00000210: 6469 e82a 9b5f d23f 7a26 71c9 c788 cd3f
00000220: adca 457b 57b1 ddbf f287 0dd4 719b d43f
00000230: cdbb 675b 7e4d d03f 4284 96d6 920d d03f
00000240: 4ea3 b340 3fca d03f aa34 55d9 58b1 d03f
00000250: f97b d747 74e2 c73f 87be 2628 487c d43f
00000260: 061e 3aff b8a4 e8bf 2111 05ca f96f d13f
00000270: a266 7bf2 f162 d43f 1076 c1d9 bd90 e33f
00000280: 5d9a 253e 4fe4 d03f 5d21 60dd 81da d33f
00000290: b371 cf68 24e8 d13f 0e38 2468 7f57 d03f
000002a0: 82ac 1730 930c d6bf 8e2d 9366 e961 cd3f
000002b0: c759 e93e 8ec7 c73f a55c 65a3 b200 ca3f
000002c0: bbac 5169 b728 d23f 441e 2a82 e217 d53f
000002d0: af2f 9a45 1e20 d13f f0ad 3af2 a7aa d23f
000002e0: bd0f f830 e876 bd3f d576 1e2b d0f5 d33f
000002f0: b7c5 f5e4 7131 cf3f 5860 f9ab b4a8 d73f
00000300: 34cf baec 6694 d03f 8eca de92 c61e d33f
00000310: 0f15 c01c 3e0b d63f d682 e931 149d cd3f
00000320: 7656 2708 8753 cf3f 41b9 5404 90fa e53f
00000330: 9daf 0c62 f048 983f 4f4e db6b ed4e b23f
00000340: 9968 8bc5 c420 ee3f a5e5 6a0f 7de6 ec3f
00000350: 7d26 6d64 bd16 8dbf 4766 b687 822e e73f
00000360: 4bf0 8e25 f635 c53f c260 37f5 6dbb e13f
00000370: 3f96 f6d0 1126 ad3f aa13 ee39 4f25 d13f
00000380: 69e2 6628 31f7 d0bf b287 8ab5 283c ea3f
00000390: 06b9 a3f9 aff3 e8bf e044 4bc2 9d3e d33f
000003a0: 59d8 0558 4809 e73f f862 8bcc 4429 c5bf
000003b0: dceb fcf1 ab50 d73f c100 1286 a806 d33f
000003c0: e517 c4fc cd22 e43f cc74 df1b 8ac0 e53f
000003d0: 7c40 e3d6 9d32 b63f e966 a5cb 482e b1bf
000003e0: 0e98 3aff e43a ca3f 1fbb a92f a4fc e63f
000003f0: ac0a 04ab 9f42 b0bf d29d 58bc eb62 94bf
00000400: b006 cfc8 6c74 eb3f 2b10 ff61 e18d 93bf
00000410: 57df c48d 0e88 96bf a7a2 0fd7 ac32 c2bf
00000420: 747d 10d2 e187 e53f 8a6b 320b 40b3 df3f
00000430: c13a d17a 2c73 b3bf 2e7a e8bd c120 e73f
00000440: cbee 2bd6 be5b febf 2272 8bf4 7224 85bf
00000450: 63d2 bd17 d221 e83f 3b6e 491a 7dab db3f
00000460: 7c99 bc3c 5ecd d13f 9482 3831 8ed0 e63f
00000470: 8bcd 8584 f313 e33f 5166 749b bdde 963f
00000480: 27b9 65a5 f864 e73f 6afc fc50 b581 8bbf
00000490: 7d6f 6288 47d0 e83f 7641 c397 0145 e63f
000004a0: 2feb f215 e7b6 853f a855 d424 2dcd e63f
000004b0: 894e 2ed3 35a9 e5bf 40c9 e79d 19f5 c0bf
000004c0: fc63 47d5 bf2c df3f 9938 40aa e643 e33f
000004d0: 8607 d9c9 4b6f d23f c990 ca18 4ee4 a2bf
000004e0: 4ea9 04cf 77d2 b2bf cbb4 c770 19e6 9f3f
000004f0: 05d8 c4f7 946a c43f 275c d8b2 4b2f e73f
00000500: 112c 6216 961a a6bf c8d6 707b 7e60 d03f
00000510: 26c2 d6d5 8c71 d53f e19a 1f83 5bcc 8dbf
00000520: 183a 5960 f4e3 b3bf f549 8a34 d1bb bfbf
00000530: 577b 2e45 d277 e23f 3152 0df6 3595 bcbf
00000540: cc69 555f 7800 c5bf a1b7 5b4f 5fe5 ddbf
00000550: 1d32 d185 c9b3 993f 5ef3 c08b 015e d4bf
00000560: 2cdc 4457 7330 bebf bcf7 c3be a170 e83f
00000570: 3e6d f3fd c1ae c0bf b581 3f67 491c c6bf
00000580: e3a4 a103 e92c d93f dde9 9eeb 061d d1bf
00000590: e250 b62e f1bb f03f 901a 1759 24d1 ba3f
000005a0: ea98 b2be b630 98bf 49fd da53 0729 bd3f
000005b0: b0ad c9dc cbd9 e53f 220a 135c fe97 b5bf
000005c0: 26eb 4c32 e9d7 a7bf a1b8 07cc 7356 e23f
000005d0: 5924 662c cc25 c6bf 66a8 acbb add0 e53f
000005e0: 1a59 a3de 28d2 e83f d9c8 65f7 12d9 e13f
000005f0: c72f e405 6463 ea3f b9a7 69f3 cf80 acbf
00000600: e262 2217 6c02 663f 3e05 a947 9203 c73f
00000610: 30c2 3344 7ffd e93f be0e 3e3b 999d db3f
00000620: 6303 f2e2 9a8f eb3f 193f 3cf6 4c29 e73f
00000630: f103 5e76 bcf3 acbf 8f23 53d5 ed91 e63f
00000640: 3c61 4f75 469b b3bf 4ea5 f1c3 bf49 babf
00000650: 6392 660b ee66 d03f 8605 f0ab 1dd3 ce3f
00000660: a8c7 0d98 844f d03f 059a 7f22 4c26 d93f
00000670: fe12 dddd c731 cd3f f25c cc1b f716 cd3f
00000680: 0fd2 d3ad b263 b53f 21cb 54c1 8281 cf3f
00000690: fbad ccbc 5b35 d13f 2bed 88fe b361 d03f
000006a0: c037 4338 620d d13f e0f5 3165 e0c4 c83f
000006b0: d208 b262 7b38 d23f e35a dae3 372b cbbf
000006c0: 5a94 100b 650a d33f d45d 9998 96ff d23f
000006d0: d1fd d43c 0a52 d03f 2ef4 26a2 b9dd ce3f
000006e0: 8ea0 81e1 dd7a d23f 61be 4f7d 6a0b d53f
000006f0: 7200 6829 2d9f ca3f c4e2 7eb0 55c4 cd3f
00000700: e0e5 3d42 c055 cc3f 2e40 10f4 2aea cf3f
00000710: f2d1 ea68 4b5d c83f d0bd a10a c333 cc3f
00000720: c58f f37e 28fc ca3f 7cad eebf 57f2 d73f
00000730: bc88 bb2c b178 c93f 3b7c 767f 68c3 ce3f
00000740: 5570 e536 1995 c33f 1439 00ba d087 d53f
00000750: e7f7 32fd 4eb3 d13f 57b2 f5b3 3448 cf3f
00000760: 67e5 2135 570d c83f 7aa3 6d9c 0b92 8bbf
00000770: fa25 a024 d4f8 ca3f ba97 9bfd 1f22 d43f
00000780: b096 b780 1bea d13f 87ba 556c 8124 d33f
00000790: 4315 fb83 59a3 d43f 1bac 11cd baed b03f
000007a0: d5e2 8eee 3a70 cc3f 1aff 79d4 cace d13f
000007b0: 3e65 afd0 b5a8 cb3f 63c8 cad5 b285 d43f
000007c0: 75d6 358c 0b95 d23f a7b8 c4b5 5a35 cc3f
000007d0: f59a 46b7 7211 ca3f 437a d16c 6563 b73f
000007e0: c120 0253 d08c c73f 53a7 bc11 d367 d03f
000007f0: d108 05b6 e137 ba3f 5a03 32d3 4687 d13f
0.31268978109109075 0.29939108415574006 0.28618783847434637 0.3619310087782314 0.2845064310882331 0.2888239282011236 0.1743244075501206 0.28405724559437273
0.2587622395743404 0.3081844339893141 0.2824081613980815 0.3097266469608153 0.2767524099346195 -0.3181217750217914 0.3484557865966764 0.28597201339732764
0.3305705716172644 0.2287991128615445 0.33458095676043365 0.31722292757801 0.15308197936295234 0.2709270803469716 0.2620941166046552 0.2881871817198435
0.2990912102911309 0.2548260311578922 0.24396250888931745 0.3149514051780273 0.23452010749313962 0.30190885659592526 0.20889693638149906 0.30375251161843464
0.25701988642212675 0.3005622386848179 0.11601687046232399 0.07010585196654759 0.25830411368681033 0.34768692551117825 0.27639679925782035 0.330775832146122
0.29151937860552696 0.13283450342061504 0.2852723788477576 0.21734224320109058 0.2712345904053585 0.2653773489675503 0.2791132705702504 0.27019014696294813
0.2679426567419967 0.11744431982085196 0.24546894185683646 0.26223695612746833 0.28035401467503474 0.29687402771734106 0.2654042217565884 0.2699688596464286
0.28857376801030515 0.3051943943738422 0.3136473933211798 0.2629146796175903 0.3047685749903615 0.21771803197835077 0.27572975251407567 0.27254061070786534
0.25147372227587783 0.27917952319916545 0.28708533468456765 0.23073670707735855 -0.46394907987920925 0.3219875880077999 0.2547298328999517 0.2508284659944061
0.2623441821911471 0.26082440589818623 0.1865983343877529 0.32008556290654905 -0.7701077446844813 0.27245945671553967 0.3185391300190564 0.6114186528245131
0.2639349085715475 0.3102116262312132 0.2797938369310728 0.2553404347426075 -0.3445175141957365 0.22955052860775677 0.18577745506145346 0.20314629534070608
0.28373513493597685 0.32958281241778686 0.26758534237955706 0.2916660180587476 0.11509562678844439 0.3118782445034019 0.243696438595675 0.3696719817576244
0.25905774229180456 0.2987533983497678 0.3444361954464776 0.23135616719357327 0.24473655603530958 0.6868362507428075 0.023715740189046753 0.07151683696002319
0.9415000780384332 0.903135805237231 -0.014203529002446697 0.7244274759897927 0.165709274615326 0.5541295804387334 0.05693107295818977 0.2679021898005042
-0.2650874037313203 0.819843630383039 -0.7797469974300675 0.3006967923548256 0.7198831290431925 -0.1653219221832598 0.36429880744588927 0.2972813901215084
0.6292486130557761 0.6797533554451092 0.08670984741479687 -0.06711249324635173 0.20492231809947764 0.7183400088232225 -0.06351659703436024 -0.019908603068101112
0.8579620286984291 -0.019095918279859497 -0.02200339069642551 -0.14217148304967006 0.672837171823558 0.495315562185788 -0.07597616194218927 0.7227486333029611
-1.8973987928465472 -0.010323427284157086 0.7541285003376966 0.43234183852266356 0.2781596749431612 0.712958427557242 0.5961854542096473 0.02233406316108805
0.7310755949418181 -0.01343099263578847 0.7754247344741853 0.695923611079748 0.010602765424086861 0.712545940334782 -0.6769055485369374 -0.1324798604033024
0.48710628345503415 0.602038700600832 0.28804297172256843 -0.03689807942035512 -0.07352398685603598 0.031151196964789556 0.15950262163249831 0.7245234005994278
-0.04317158721195125 0.2558895307041493 0.3350555504103191 -0.014549937190122932 -0.0776970610834059 -0.12395961315841204 0.5771266318514375 -0.11165177590493937
-0.16407684950793422 -0.46712477445441364 0.025099896233131348 -0.31823767326186736 -0.11792679672804302 0.7637490011109018 -0.13033318424172963 -0.17273824254426776
0.39336610178595616 -0.2673966694816537 1.0458843064016539 0.10475375342421445 -0.023623328580151183 0.11390729710818905 0.682836467004952 -0.08435048816594606
-0.04656914462107968 0.573053263183983 -0.17302848976058519 0.6817234673992629 0.7756542538070648 0.5577483016952797 0.8246326556268223 -0.055670259917703864
0.0026867018833168646 0.17979649066004727 0.8121944744180549 0.4314940527476486 0.861279910328545 0.723791581085581 -0.056547059487463865 0.705313603067326
-0.07658806194320261 -0.10268782171046562 0.2562823401770286 0.2408177461184488 0.25485339020735376 0.3929624878786913 0.2280816872900217 0.22726334435785805
0.08355252021630853 0.24613985481263348 0.26888173520521236 0.2559633241359786 0.26644187445060297 0.19350819531602692 0.2846973861525274 -0.212256418472598
0.29750944214385344 0.2968498697495907 0.25500732365250395 0.24114151399217704 0.2887491895876416 0.32882177579356237 0.20798267862119563 0.23255416028930231
0.22136691317045543 0.2493337337223251 0.19034712431825046 0.22032964724665627 0.2108202571754402 0.3741664289797979 0.1989957302494697 0.24033838485499523
0.15298762493592002 0.33641451038501313 0.27656912542795314 0.24439104830834665 0.1879071244655208 -0.013462153159439206 0.21071864879949925 0.3145828224791064
0.2799137837413168 0.29910312251642107 0.32247007263898214 0.06612746721809552 0.22217499397608856 0.278246600624685 0.21608612718299897 0.32066031339775786
0.29034699146664106 0.22037824511921153 0.20365747403157966 0.09136041552253808 0.18398479512348412 0.25633694393274203 0.1024151868232679 0.2738816320852969

bias f8 [3]
00000000: 0dcc a7bf ef68 01c0 bfc9 3101 4ef9 dd3f
00000010: a489 2911 3aa4 fcbf
-2.1762385342676738 0.46834135166787044 -1.7900944395447391

weight f8 [101, 3]
00000000: 6836 e506 e851 e9be b01d aa95 b9a7 13bf
00000010: 32e0 9995 4c6b 01bf 9fc5 fd64 0fc8 f9be
00000020: f5ea ce8f 415f cb3e 0749 2216 4b1c cabe
00000030: bf89 0745 166f 01bf 8eb0 d00c 4cef 17bf
00000040: f7ec b712 1e53 31bf f7e8 b209 bc9a 78be
00000050: ef48 c093 990d 72be 5805 f479 2f7e 63be
00000060: 0004 4a6b 2507 dfbf cb69 78b8 d7bc c53f
00000070: dfb5 1c5e 2669 bc3f c87f 2281 cc35 2abf
00000080: 207b 8853 91ea fa3e ad39 9c03 0583 1cbf
00000090: 811e 96a2 bc61 813e 439f ee7c f6ef b3be
000000a0: 3330 de77 9dfc c1be ab6a 5b29 d76f 76be
000000b0: 5c75 ac5e 2502 7fbe 7a3f 143a 9906 82be
000000c0: 14a7 7137 5597 173f fc58 29a8 27bd 3ebf
000000d0: c850 c55a 0c8d 23bf ca41 b077 a467 dcbe
000000e0: f566 9b53 5d93 c2be f086 7237 c0fb c9be
000000f0: ba8b 2d17 2996 d3be a83e b4d2 714f f8be
00000100: 5898 c3c1 f1ce 793e 4622 8c25 047a 2f3f
00000110: 7150 599e c07b 50bf dce4 b780 6509 2abf
00000120: bf53 b34d f399 d4bf f1cb 420f 3b8f b23f
00000130: b831 6e5b b264 d13f 428c 4e9c 19bd 62be
00000140: 9194 fe4e 1510 56be 911f da0a d447 45be
00000150: 103a 8387 8cec 20bf 7681 d232 aced d63e
00000160: 9f31 0978 c267 c5be 5998 588d 2623 d5bf
00000170: ae3e 653c 1099 c1bf dd42 7fbd b3e0 e23f
00000180: 1b67 3d71 5743 e2bf e0f6 be3b a685 a4bf
00000190: d0dd c899 12fa e63f e721 8fe8 5b91 51bf
000001a0: b691 fd71 e776 383f df84 ff7a 25d6 46bf
000001b0: d4ac ae37 4ca4 c73f e9b3 1a1f 0b8e a53f
000001c0: 3250 7b2b fc0e d7bf 4574 7a98 339e ccbe
000001d0: 67e3 87f1 22f4 c8be 6d9e bad5 5c7f 7d3e
000001e0: b685 1830 c869 0b3f 6615 a9ae 4eaa 55bf
000001f0: 92a0 bdf0 771f 0f3f 0213 1c9a ba4c dc3f
00000200: 2428 27f2 34ec b33f 90f4 54d1 db8d e1bf
00000210: 4637 2447 70d2 d1bf 5a78 750e 434f d53f
00000220: 174b d88c 64a7 c9bf 809b fe76 b980 babe
00000230: 76cf a5b4 85fa a5be 93a3 e184 64b5 c0be
00000240: c5f2 275f 1774 8abe c67c f222 70d9 a2be
00000250: b442 6f35 e6be 7ebe 88ae 4375 525f 42bf
00000260: 30f9 1679 db97 25bf e216 40f9 ffc7 e4be
00000270: 96ef 968e 668f 2dbf 0c15 5569 c64b e23e
00000280: f0be c23d 059d 3dbf 8b98 61f9 af6f 30bf
00000290: 888f e73a 3211 42bf 3711 624a f562 203f
000002a0: 2bb3 d008 2463 26bf fbcb 8765 b4d2 2cbf
000002b0: dbbb 4cfa d808 27bf e11c 1e18 f74e bebe
000002c0: 6797 1901 b5ec e6be a80f 6cc4 ac2b c9be
000002d0: c61b a8fb 8c0f 2cbf e5df 9cc8 5da2 fd3e
000002e0: cb89 75b9 a6ae 13bf 107c 440b eedf 1d3f
000002f0: c449 a223 f406 5abf 06fe d2e2 145d efbe
00000300: dd1d 61ff 8763 00bf e287 fb8e 0154 11bf
00000310: 60e9 6d5f 0205 e43e 5f0d 4be1 2521 04bf
00000320: b08a a032 0851 06bf 2c34 7c8a 6117 10bf
00000330: b660 650d a5a9 35bf 1007 8fbd 9a88 24bf
00000340: 1338 726a f3d8 1f3f 6f84 01af 8a02 44be
00000350: 1ad2 11bc 263e 5bbe 414a 26eb 711c 3abe
00000360: ab2f f922 eda2 c0be 4bbb 652e 90ee dcbe
00000370: 4d2d 2c23 697c bfbe 750a 4b05 4beb 243f
00000380: 4177 2e13 b78a 56bf 9753 5dc1 cc48 34bf
00000390: 7b85 7d4f 8a4a 34bf 2b28 7a85 1d62 2bbf
000003a0: 6306 ff03 21b8 143f 86a5 4b7e 6f05 3dbf
000003b0: 15d6 611f 6e21 0dbf 6f57 5503 dbac 25bf
000003c0: f60d dced 7a95 0abf 201f 0f5c 43af f4be
000003d0: 7340 3416 23c5 02bf e3a8 35f9 3514 e5bd
000003e0: 92c1 9bca 589c c6bd 40bb 8c9f fc02 6bbd
000003f0: 0fdd dd91 36eb 143f dc42 90be e7d5 42bf
00000400: c9ae 8aeb 9885 37bf 6558 1a74 5568 1abf
00000410: 57ec 1a44 8836 1cbf ef0e 74fe 4ec4 12bf
00000420: 0efe bf1e dc84 f6be 1f5d ca9a 38de 96be
00000430: 0e19 021d 47fc dfbe aa5a 42a3 9b7f ebbe
00000440: ef58 ba9c 80bf c8be 883b d52e 49be c73e
00000450: 45ca 4c70 fe4c e7be d743 49d1 ebc8 cd3e
00000460: 0230 8e63 e8b4 e2be 804b ed4e 8a44 df3f
00000470: 87c8 794d 5033 f1bf 3f5f 43b7 5220 d03f
00000480: 7076 bd10 5975 96bf ba3a 0788 cf98 9e3f
00000490: 7c14 ad72 0030 94bf 12b7 c6bb c94f 97be
000004a0: 7cca f0cb 6db9 bcbe 4c35 8738 f96e 9fbe
000004b0: 2e54 a4eb 7b0e b5bd 47e6 4099 1547 b4bd
000004c0: 3e28 e950 bcee abbd 473c 28ba 7e41 c0be
000004d0: e5cc 967c 3fd7 ddbe 2e30 bf5f 361a 93be
000004e0: 790b 2635 e89a 39bf dbcd c380 12b2 ffbe
000004f0: ca5c 49a4 c8ca 2cbf f461 ef25 2ba0 43bf
00000500: d6a0 c085 89df 16bf 4e85 8ad8 5e82 2fbf
00000510: 011a ae05 c39c d9bf 8b56 88c7 e5df a03f
00000520: 4ca4 bf65 22f2 d63f ac46 32f2 4474 67be
00000530: 738c 4e73 98ec 31be 1049 769d 0b95 43be
00000540: 7661 0844 bd51 e7bd 8bfc 9154 b2ab c2bd
00000550: 4bd0 fcf4 311e e5bd d444 68bb e3ba 41bf
00000560: feb2 2667 3d43 27bf 0083 2f57 988e 39bf
00000570: ef3c 3847 6f32 e53f 3364 27d3 5f5e cfbf
00000580: 80ce aaf8 a2c8 e5bf 48fd f5d6 99e0 ac3f
00000590: f808 db41 ad90 95bf de2d 11e6 50ee b1bf
000005a0: be0b 5a8f b2cc dd3f eb0f 5310 c82c 513f
000005b0: e31b 9410 9835 dbbf 83f8 47b5 169f 86be
000005c0: 6838 cc31 c4cb 89be 5230 a173 180c 80be
000005d0: 7cb7 38f7 444e d5bf ef39 2c89 4ac3 90bf
000005e0: 0ada 58de 27de d03f 884d b183 73df dbbf
000005f0: db81 b3e1 516d cbbf bd3e d781 6bee e23f
00000600: cf1c ab6f 6a76 00bf 4595 e968 e119 14bf
00000610: 1fed ccc8 2990 ff3e e561 20fe 5566 2bbf
00000620: ebb3 0af2 1c6d 2b3f d5bd 6851 5278 21bf
00000630: 48a8 71ce 2a5d 15bf 97a4 abbc 066d 21bf
00000640: 2ccb aeb9 bf2f 07bf 9be3 0873 b5fb 963f
00000650: 0256 d482 364b fdbf 9b8c e6d3 8153 b13f
00000660: 64be a59a 1398 f4be c63e 085a 240e c43e
00000670: f828 4ad2 81c2 dfbe 2d2f 589c 7192 6dbe
00000680: 7c63 fd34 f5c9 493e cba2 4fea 2c08 9fbe
00000690: 40c0 582f d8ea 77be ac72 e4ae 4424 86be
000006a0: ef97 ba8e 06e8 82be 5535 b05b 06c3 3dbf
000006b0: 15b7 7b83 1530 253f d16a 7eba 4212 52bf
000006c0: 6e3b 1cb5 56d3 debf 4dfe e884 cfb4 d3bf
000006d0: 8b1b 31ff fa67 e43f be33 8782 6716 c43f
000006e0: abc8 8fbd 5bbc f6bf b729 42b0 de82 98bf
000006f0: cb56 cd80 cda0 52be 1b38 e3c3 0e16 86be
00000700: 4e50 df6f cb2a 90be 1814 7976 b2d4 f1be
00000710: 61f8 23b5 824e ebbe 983f 7c67 0a76 0bbf
00000720: 499b 55a0 233a df3f 1c30 5db5 a81a d9bf
00000730: a086 b7f1 d3f0 d23f ddf8 25ce 8899 13bf
00000740: f029 635d d30a 46bf 56a9 b870 2dbf 17bf
00000750: 9096 9d0d 88b7 85be 4b81 cdcd 0864 8dbe
00000760: 113f 7ce6 f678 9d3e 0c60 ba33 3e01 a9be
00000770: c37c e53a 08e8 c9be 42af dc75 aef4 b8be
00000780: a8d5 007c fd6a c6be 4252 b196 872c e6be
00000790: 2a74 3764 4d84 c1be 473f 0917 30e2 413f
000007a0: dbda d445 6144 53bf de97 58e1 8143 43bf
000007b0: 44cc ee85 72c6 2ebf d56b 2323 d82b febe
000007c0: ad0d 9d1a 8370 25bf 8335 0388 55ea 60be
000007d0: e84d baad 5d22 47be ff7f eb88 3775 45be
000007e0: a254 1b37 a85c 1abf aa92 b2f1 af4f 2cbf
000007f0: 8d93 5f60 b38b 18bf 37f6 ee84 898e c7bf
-1.2073491430310282e-05 -7.497854441328752e-05 -3.322436778047145e-05 -2.458713998926764e-05 3.2630078962957943e-06 -3.1126166258412042e-06 -3.325258933608047e-05 -9.130384133077178e-05
-0.0002643536015225068 -9.165865082458141e-08 -6.725313012070641e-08 -3.630837785464431e-08 -0.4848111675019595 0.16982552058546072 0.11097945974025646 -0.0001999675883483916
2.5669364932419327e-05 -0.00010876386741307557 1.2950438703036713e-07 -1.1883589541103761e-06 -2.1441909998140074e-06 -8.358387967468603e-08 -1.1551522731105063e-07 -1.343024936058395e-07
8.999307270731962e-05 -0.0004690381830746574 -0.00014916206181204137 -6.772244769429447e-06 -2.2143891812265775e-06 -3.097462861826525e-06 -4.669800875631059e-06 -2.3184137870889632e-05
9.614369428679733e-08 0.0002401475965359159 -0.0010060673752337013 -0.00019864429519581602 -0.32189638698519824 0.0724980270631901 0.2717710392833186 -3.490349657151755e-08
-2.054760711547612e-08 -9.909541932918824e-09 -0.00012912002035254987 5.466558645001213e-06 -2.5517119300098543e-06 -0.330270422013546 -0.13748362492559835 0.5899294568171985
-0.5707204066959294 -0.04008216361351713 0.7180264476400513 -0.001072253946619134 0.00037329817313594014 -0.0006969149599137767 0.18470146864760884 0.04209933047000176
-0.36028961416491534 -3.411528442699823e-06 -2.97470786514121e-06 1.0988678894130019e-07 5.228655028256415e-05 -0.0013223427182692204 5.936226634056895e-05 0.4421831612565229
0.07782298004090699 -0.548566731311114 -0.2784691519490149 0.33296276485441967 -0.20042092206184556 -1.5796917658212814e-06 -6.55013402890775e-07 -1.991816168934706e-06
-1.9709379690804246e-07 -5.617549215969866e-07 -1.1453665869845232e-07 -0.0005606796862855515 -0.00016474298585751048 -9.909272002072077e-06 -0.0002255261127127566 8.724210867181694e-06
-0.00045186403236650765 -0.0002507977127436187 -0.0005513663543834516 0.00012501949567334813 -0.00017080130456417186 -0.00021990253550505088 -0.00017573975233051053 -1.806524864341086e-06
-1.093131871527835e-05 -3.0005699359642356e-06 -0.00021408649429607694 2.8261416935765246e-05 -7.508175473484103e-05 0.00011396303563458742 -0.001588571946318327 -1.4955329869058818e-05
-3.1259143654479195e-05 -6.610164177403525e-05 9.54607365398892e-06 -3.839394427054376e-05 -4.256540553650623e-05 -6.138356058844945e-05 -0.00033054618451934124 -0.00015665902063060526
0.00012148843471690455 -9.317849131327467e-09 -2.5371814653097466e-08 -6.0794673066518e-09 -1.9832171103458308e-06 -6.897899515897011e-06 -1.8767106097519325e-06 0.0001596001699422815
-0.0013758457032290868 -0.00030951498898917337 -0.0003096187278882262 -0.00020891771668046905 7.90376807336068e-05 -0.0004428288651029056 -5.556218450035122e-05 -0.00016536878107825277
-5.0704778670886756e-05 -1.9726392341628336e-05 -3.580106092659985e-05 -1.5336953634593e-10 -4.112867800329795e-11 -7.677177570925796e-13 7.979889457298085e-05 -0.0005748158993147084
-0.0003589151706744174 -0.00010073682372033347 -0.00010762411786917454 -7.158977642878946e-05 -2.1475776449618156e-05 -3.4076051739482997e-07 -7.6259279496780835e-06 -1.3112291618972333e-05
-2.950198199357029e-06 2.8304224232509485e-06 -1.1110666955004302e-05 3.5506306040118673e-06 -8.920035826219533e-06 0.48855836589535073 -1.0750277544398459 0.2519728460006156
-0.02193202175782577 0.029879801442627786 -0.019714362143777184 -3.4737098155822015e-07 -1.7121035822519192e-06 -4.6839550596203327e-07 -1.915084647080857e-11 -1.8442436448086992e-11
-1.2702258106856549e-11 -1.9378471318785967e-06 -7.114604110669574e-06 -2.8464782508559675e-07 -0.0003907029069056194 -3.0227274735628945e-05 -0.0002196664737705633 -0.000598927563142003
-8.725430365131027e-05 -0.00024039657389089214 -0.40019298128791553 0.03295820294094395 0.35852870880495824 -4.368680908099952e-08 -4.1733033044171e-09 -9.118676410126213e-09
-1.696701963097435e-10 -3.3961787003560705e-11 -1.5365330751999973e-10 -0.0005410778019855574 -0.00017747997806107774 -0.00038996905567327544 0.6624065772065516 -0.2450675755524415
-0.6807417732984078 0.05640106915506721 -0.021059710640437296 -0.07004266373512943 0.4656187438887932 0.0010482743976334373 -0.4251461183452518 -1.6854286379037108e-07
-1.9219489724064318e-07 -1.1956131535024442e-07 -0.3329021848938891 -0.016369976637230662 0.2635593100889372 -0.435513380628628 -0.21427367706839004 0.591603997798266
-3.139984433669364e-05 -7.667959492037742e-05 3.010095365428317e-05 -0.00020904350009300004 0.00020924547518089086 -0.000133285568794757 -8.149694223083634e-05 -0.0001329489444608408
-4.4224775784049104e-05 0.02244456781975011 -1.8308625326657197 0.06768046782831265 -1.9640015730569552e-05 2.3907711723737737e-06 -7.572124819286154e-06 -5.508222815025719e-08
1.2008891353271191e-08 -4.6241187084834736e-07 -8.909911371961143e-08 -1.6496831940154822e-07 -1.4086328491597336e-07 -0.0004541292689175987 0.00016165030114428298 -0.001102986492674308
-0.4816490906386467 -0.3079108045530788 0.6376929268088686 0.1569337260574723 -1.42098592803499 -0.023936728961908318 -1.7348803327383067e-08 -1.645547360096588e-07
-2.409095570786227e-07 -1.7004821897499076e-05 -1.3020840615937138e-05 -5.2377884399600744e-05 0.4879235330358154 -0.3922521372921908 0.29594896893659417 -7.476708882412108e-05
-0.0006726772360477456 -9.058680387200499e-05 -1.6180366096544436e-07 -2.1897822124594861e-07 4.391747325674598e-07 -7.452027612374011e-07 -3.0882806278244954e-06 -1.4874808224691422e-06
-2.672425551987062e-06 -1.0573360404255863e-05 -2.088165986553863e-06 0.0005457625212077288 -0.0011759710244640318 -0.0005878814869830736 -0.00023479602802253992 -2.877356218609544e-05
-0.00016357040777324525 -3.150732741514065e-08 -1.0772720874456555e-08 -9.992103392473301e-09 -0.00010056282715294404 -0.0002159979129362684 -9.363443686501005e-05 -0.18403738966837732

bias f8 [101]
00000000: 862f 78cb c632 da3e c85c 7f16 6179 c63e
00000010: 2221 7ea4 fd1c f83e 19e6 2aed 8d6a 2c3e
00000020: d93f 4ae3 b95b c3bf 07ea e11c 539f e63e
00000030: 61f0 11c7 659e 873e 526f c53d f2c2 37be
00000040: 1189 74fc df55 f2be a01c 508a fa08 b03e
00000050: 1abb 2568 0eb0 c13e a305 75e4 3603 32bf
00000060: 25de 19f2 d4f2 d8bf 335c 2d3f 4cbc 3c3e
00000070: 854d c1b8 93f2 df3e 6bfc 4753 1088 d83f
00000080: f664 7745 92bc b0bf e143 1fa4 aa1f 47bf
00000090: f575 f5da 9ac2 62bf d480 5639 41ce 5fbe
000000a0: bc63 0bcc f309 37bf e4a9 f8b6 ff36 a1bf
000000b0: e79b 7aa5 e444 f9bf 318b f227 271b b3be
000000c0: 1c13 f0b3 2002 86be 16eb d336 561e e03e
000000d0: a0f0 0e50 ab53 fbbe 20be 50d1 ddc8 ff3e
000000e0: 951a fc1a d088 f73e b240 15c8 e593 b8be
000000f0: 83df d3c9 be76 ef3e ce64 4969 f9ec e63e
00000100: c8e4 ded8 89b9 d43e 42d6 9bb6 06ae 03bf
00000110: 7394 059e 8e3c ff3e f4a6 f2a5 c23f 26be
00000120: 73ad f0a2 c2c3 a63e e211 8111 e488 30bf
00000130: 6626 4ebc 25dd 093f c1e6 1ae4 9361 013f
00000140: cfa0 8969 8403 f0be 81d0 17dd 9178 b0bd
00000150: c6b2 da10 3a43 cfbe 9486 7f1d b808 f8be
00000160: b39a 99f2 e287 edbe 6f07 115b 8d12 c03e
00000170: 94c5 6621 b1b4 a13e da5c ddf9 8fda e33f
00000180: 1f61 2f9a 3b55 c3bf d5bf 0cc8 c762 8d3e
00000190: e41f 64f1 c69e 90bd 4908 b81f 53a7 b13e
000001a0: 3f32 3179 d349 f93e b3e7 bb6b 59a5 f93e
000001b0: 210a 7e54 7fb4 d3bf dc7c 4b98 0918 23be
000001c0: 193e da96 3b21 c5bd 2605 dc1c abf0 2bbf
000001d0: 33a9 9694 5504 d03f 2c1c a0ae 8894 3dbf
000001e0: 5a02 28b2 866b d13f cf6a f396 7308 50be
000001f0: 7338 253a d6fa a1bf d396 4e60 24c3 a83f
00000200: 388b 2d41 33ff e13e c465 dfc6 c47f 203f
00000210: caed c283 e312 01bf ad51 1a8e 6cb7 c73f
00000220: 2517 eacd 88d6 ba3e 66af f27c 0073 4fbe
00000230: e585 2397 fd7a 58be d6a9 ab0a 4add 43bf
00000240: 9330 ee05 df32 a13f 2c67 414f c237 903f
00000250: f45c af43 a2da 53be ce27 39d8 202a da3e
00000260: 870a eedf 09ce d83f 68b6 166b 0282 fc3e
00000270: 5c8d d542 68c7 8d3e 3b9b 4c50 df96 a03e
00000280: 7351 5973 c3b7 afbe 578f 8968 1fed 45bf
00000290: 6586 53cd 5aeb f63e 9e79 c568 c68e 00be
000002a0: 0c18 9189 f067 e9be cfa3 fdc9 cd76 d93f
000002b0: 57bd 5b5c 2526 d1bf 3b46 f93a 2aba 013f
000002c0: 3a37 fee7 599c e6be 56f3 7dc5 ffbc d53e
000002d0: a6bc a821 7325 eebe 45cd f01b e7ad fabd
000002e0: 25ad beb5 31b7 09bf ee36 32e1 e0bb ccbd
000002f0: e485 b21e e1f4 b03e ea96 f459 0ca9 2bbf
00000300: 8fc6 12d5 983a c6bf b5ec a4ed f96e b23e
00000310: 5aea b842 e111 f83e dd47 5dd7 9733 31bf
00000320: 3ab0 48a5 f7ce a83e
6.246172396650353e-06 2.6791259877079872e-06 2.2996182706986762e-05 3.3080843423431255e-09 -0.151236759168113 1.0787182784567825e-05 1.7597332971689379e-07 -5.53240739014124e-09
-1.7486046798195302e-05 9.557648266171867e-07 2.10854051479278e-06 -0.0002748497976946212 -0.3898212780254389 6.69051390924086e-09 7.616893423617755e-06 0.3833046735089229
-0.06537737079579017 -0.000705679245806331 -0.0022900604741795624 -2.9621350335790234e-08 -0.0003515453536642695 -0.033622733197564064 -1.5793196167012356 -1.1388102903262492e-06
-1.6397469868047647e-07 7.685901176381716e-06 -2.6060898566035982e-05 3.031218973975462e-05 2.2444177090209258e-05 -1.4649465643508763e-06 1.5003132200139057e-05 1.0931816441561023e-05
4.941167743349388e-06 -3.753622043049496e-05 2.9789496580963055e-05 -2.590131928019851e-09 6.78440590711465e-07 -0.0002522999579961644 4.9331392381790626e-05 3.3151937271336865e-05
-1.52718917853241e-05 -1.498026513453196e-11 -3.726792903466179e-06 -2.2920665145315255e-05 -1.4081385944564794e-05 1.9159876605564796e-06 5.276747881336737e-07 0.6204299812478908
-0.15103859928672933 2.1894172521621608e-07 -3.779001219360415e-12 1.0522372794201701e-06 2.4116881445034604e-05 2.4457832053826917e-05 -0.30789168597417144 -2.2228220951025637e-09
-3.843491051168705e-11 -0.00021316612986058933 0.25026454458806596 -0.000451358194027698 0.27218787572932046 -1.493190765205202e-08 -0.03511685809881806 0.04836381602880881
8.581579128812835e-06 0.00012587811528312458 -3.2565658757612354e-05 0.18528515757192335 1.5996709447364866e-06 -1.4644687155951044e-08 -2.2799178941366284e-08 -0.0006062137157106194
0.03359124133484772 0.015837703788157118 -1.849051421337689e-08 6.238118092813687e-06 0.3875755965056346 2.7187203789294517e-05 2.218703526831459e-07 4.944010077765235e-07
-9.452648785471124e-07 -0.0006691363679007617 2.185759952489374e-05 -4.818929296771437e-10 -1.2114531545159172e-05 0.3978762123647898 -0.2679532434403504 3.3811963814256146e-05
-1.0781644277614936e-05 5.182809296286369e-06 -1.4374870308390898e-05 -3.882350239388309e-10 -4.9048618819236876e-05 -5.226665987990885e-11 1.010689738824608e-06 -0.0002110316827181249
-0.17366323856326857 1.0987222852216294e-06 2.2954791502475355e-05 -0.0002624746042459972 7.393499097999605e-07
