Trained_models/0/predictor4_50_3.pt (torch, 29829 bytes, 16 tensors)

weight f8 [26, 50]
000000 35 1e f0 78 01 ea d3 3f 3f 3b 60 fa 1e c3 a1 bf
       0.31115757761333224 -0.034691780150856825
000010 fb 6c 24 92 50 f7 ad 3f cc 58 fb 33 43 4c a2 bf
       0.058527486648211245 -0.03573808679145571
000020 1e 0c c3 87 90 da c0 bf 41 df c2 26 e6 a9 cf 3f
       -0.13167006138800813 0.24737240688932086
000030 a5 1e 7e 62 9e ea cd bf 06 90 ec 66 9c 54 cd 3f
       -0.2337224942132156 0.22914462113942607
000040 64 2b 90 12 f3 9f c4 bf d9 b4 e8 b7 42 78 98 bf
       -0.1611312714233818 -0.02389625785342706
000050 ab 88 cb f9 a5 1b ca 3f 81 df af d5 1b f8 d5 bf
       0.20396876046203735 -0.3432683550631666
000060 bc 28 57 10 51 04 d7 3f 96 48 06 a8 a6 20 c6 bf
       0.35963846774815145 -0.1728714294845914
000070 c1 67 5c 4f f2 ff b2 bf fb eb 88 0b 94 58 cd 3f
       -0.07421793401263611 0.22926569522118698
000080 c8 14 2f 63 5a 0a d3 bf 77 e3 24 e9 19 db d2 3f
       -0.29750690160683435 0.29462287681558713
000090 eb 8d 70 ff 82 9d c3 bf 3d 25 c4 f0 b1 35 bc bf
       -0.15324437592163007 -0.11019432190018548
0000a0 b0 b6 2f 14 97 59 ce 3f 62 b7 e7 68 fb a2 c8 bf
       0.2371090744558635 -0.1924738180381907
0000b0 be cb 2d 9e e2 19 c1 3f 5e 23 16 14 28 cb b3 bf
       0.13360245441034907 -0.07731867304222592
0000c0 8a 1a 7d 64 d4 21 97 bf 90 71 1c e7 2e 34 c2 3f
       -0.022589987405150093 0.14221750530931532
0000d0 80 f8 f2 fc 29 d1 c4 bf 50 cd aa 82 89 61 b5 3f
       -0.16263317919760212 0.08351954879872392
0000e0 ca 6f 55 0a b2 1b a5 bf 33 03 b9 47 36 0e 80 3f
       -0.04122692466873408 0.007839607299617057
0000f0 79 e0 e7 13 59 b0 c2 3f 85 f5 6a c8 86 0a d2 bf
       0.146006712646116 -0.28189248630572933
000100 7d 89 fb 68 51 d6 c5 3f 0b b5 b5 7f 1b e0 86 3f
       0.17060296655752075 0.011169638476270302
000110 fc a0 49 24 50 6e b9 bf 65 e3 4d 3f 19 72 c5 3f
       -0.09933949361732525 0.1675445136168278
000120 71 ca 4b f4 76 9a d2 bf d9 4b eb 40 4d dc d0 3f
       -0.29067777497326747 0.2634461530662385
000130 83 73 e8 6b 2b 1f b0 bf 76 0b ea f9 01 96 b4 bf
       -0.06297561058495486 -0.08041393615171252
000140 97 8e db 6d 90 b1 c1 3f 5a 68 6f fc 40 37 cb bf
       0.13823132862227247 -0.21262371374069994
000150 be 86 45 55 2a 9f d4 3f 04 65 be c5 b1 0d d2 bf
       0.32221468283942645 -0.28208584128294967
000160 bd b3 41 8c b7 df 92 3f 3b 95 bc c1 3f ba d0 3f
       0.018431537566744306 0.261367739864301
000170 97 b7 ca 0c d6 69 d8 bf 8b df 34 5d 3e 59 d5 3f
       -0.3814597248955293 0.33357199766350537
000180 0c 4f f0 ce 4f 19 bb bf 5c 23 c1 2e 4a 37 e1 bf
       -0.10585497667517191 -0.5379992402241487
000190 81 1e 96 15 c3 27 bf bf b6 0c 2f 87 97 64 d0 bf
       -0.1217004707051448 -0.25613964273015755
0001a0 38 15 b2 09 02 dc 9d 3f 1d d9 25 47 f6 32 cc 3f
       0.029159576265120196 0.22030523752227618
0001b0 d5 13 cd c9 23 82 a4 bf 38 1a 46 20 1f 43 d0 bf
       -0.04005538786308419 -0.25409677650205564
0001c0 1a 7b c6 f3 da 4a b8 3f 23 7f 7a 22 d8 07 d4 3f
       0.09489220096154974 0.3129787766174436
0001d0 69 a3 dc f2 03 08 c6 bf dd 86 c5 aa 86 98 d8 bf
       -0.17211961134423895 -0.38430945088303564
0001e0 7e 6e ad 7d 21 18 d5 3f 48 f7 27 20 28 bb d6 3f
       0.3295978286093727 0.3551731409096317
0001f0 ae e3 18 93 46 7c df bf e8 5c 2b 2f 7f 7d ce bf
       -0.4919601856705026 -0.23820485881035514
000200 cf 79 0c af 0d 80 e2 3f 88 86 57 5b ef cb b6 3f
       0.5781315249367313 0.08904930095698138
000210 0f a5 e7 43 d1 b0 e3 bf 8d 87 3f dd a7 62 a2 3f
       -0.6153341604487269 0.03590893340857724
000220 e3 8a e0 d2 ae 96 e5 3f e1 8b 8d d7 b3 cd c0 bf
       0.6746439093297706 -0.13127754235310277
000230 3d 56 17 0c 9e 8b e7 bf 36 67 a7 2b 8e ff ce 3f
       -0.735793136230036 0.24217393046893115
000240 4e 7c 02 5c da 32 e9 3f 58 f5 f3 ed dc dc d7 bf
       0.7874576375069269 -0.3728554080733679
000250 1c 3b ca b6 1a bf e7 bf d1 c8 fc 6b 72 23 dd 3f
       -0.7420781679264539 0.4552885107579075
000260 dd 9a 40 8a fc 54 e3 3f ab 52 35 d0 f3 36 dd bf
       0.6041243267289605 -0.45647902806130486
000270 86 98 45 2a f1 1e e1 bf c6 88 ea b7 21 d7 dd 3f
       -0.5350271058675993 0.4662555976921222
000280 44 f3 0b c4 70 ca df 3f c6 17 28 dd 43 92 e0 bf
       0.4967309870260588 -0.5178546256508916
000290 dc ab 6c 08 ce 9a dc bf 5a 3b 5f 91 0a 76 e3 3f
       -0.4469485361357195 0.6081593360230315
0002a0 65 66 3f be 40 db d3 3f d4 b1 0e c8 4e 7d e3 bf
       0.31025713518974946 -0.6090463549967873
0002b0 79 ea 2b ed 1e a4 c2 bf 36 9d 6e d0 db 7f e0 3f
       -0.1456335695327942 0.5156077452601611
0002c0 33 a0 7d 6e 0c 34 b5 3f d7 87 25 2d 04 f0 dd bf
       0.08282544801261409 -0.4677744332203679
0002d0 e2 74 33 f8 f6 b0 b1 bf 0c 50 56 67 be dc dd 3f
       -0.06910651740641385 0.4665981301452582
0002e0 a1 a7 2c 7c 3b 70 7e 3f 77 56 f4 4f 0d 05 dc bf
       0.007431251872540929 -0.4378083496861573
0002f0 9a 91 88 b0 b4 db b1 3f 70 fd d5 7a f0 85 d4 3f
       0.06975869474314891 0.3206750106400795
000300 df 19 41 c5 d0 1b bc bf f7 68 91 17 9e da c4 bf
       -0.10979943099764665 -0.16292167807370792
000310 61 93 b1 ec af 7e a3 3f 7c 38 1e 13 1a 32 a6 3f
       0.038075921672123376 0.04335099681257845
000320 81 f4 55 b6 b8 36 d6 bf f6 ce a6 9e dd 42 a6 bf
       -0.3470899372694661 -0.043478894821786726
000330 c7 f4 1a 10 98 de a8 bf 24 bd 4e 9f 5a 92 be 3f
       -0.04857325741384382 0.11942068471283968
000340 53 c1 f7 74 21 e1 c1 bf a0 e9 d1 ad 2b a8 c1 3f
       -0.13968294345205354 0.13794466006568218
000350 24 45 83 a5 e8 0d b4 bf 7d 71 03 08 d8 4b 9f 3f
       -0.07833723107184604 0.030562758912183952
000360 0a 9b 4d 43 ef 47 81 3f 84 13 63 f9 d8 51 8d bf
       0.00843798565047173 -0.014316268072784195
000370 3e f7 10 1f e8 b1 84 3f b3 8e 9a d5 7c 0a a9 bf
       0.01010495514685383 -0.0489081393000367
000380 5e f0 e2 73 a1 9e bc 3f c7 1a 54 9d 08 04 bc bf
       0.11179551200160762 -0.10943654862431194
000390 78 6c 98 f3 75 a2 b6 3f d9 ef 59 01 fa c4 bf bf
       0.08841645428803868 -0.12409937413207163
0003a0 81 a6 93 45 bd ae c3 3f 67 d9 23 f9 3e 72 c6 bf
       0.15377012154867845 -0.17536151089707205
0003b0 f4 1a 92 34 7e 4a c8 3f 99 e6 62 43 8f 8c c7 bf
       0.1897733456318843 -0.18397703924511147
0003c0 1c 60 71 75 8e 41 c8 3f 53 d6 b6 25 52 ee c4 bf
       0.18950062498584053 -0.16352297631753973
0003d0 21 fe 54 df b6 51 ba 3f 0a c4 a5 9c 8d 81 b6 bf
       0.10280936195794556 -0.08791432451631934
0003e0 59 b4 77 eb ca ca a6 3f 26 95 ef 63 a7 24 8f 3f
       0.04451593517647074 0.015206630456257541
0003f0 b8 55 e4 5a f0 5e 96 bf 07 45 cd a3 94 f8 ae 3f
       -0.021846538112262087 0.06049026965650666
000400 2e ec 71 28 c2 c0 c4 bf b0 ba 9a f1 35 2d cc 3f
       -0.1621325204358483 0.2201297216137923
000410 a4 7a 1a ea bd 82 c8 bf 64 1b e4 cc 74 ae c1 3f
       -0.19148992472488147 0.1381364822811647
000420 00 1e 10 e3 af 10 b9 bf dd 7e 37 f7 08 36 be 3f
       -0.0979108743050503 0.1180120090061751
000430 63 77 58 c4 b3 c8 c5 bf 97 22 d8 67 4f 12 c9 3f
       -0.17018744551836126 0.1958712822963846
000440 ad 09 f7 b5 93 5b c5 bf e9 42 90 41 27 7c b2 3f
       -0.1668572081089911 0.07220692969009303
000450 ea 81 5b ba 4a 64 78 3f 2a 37 22 e6 ee 2a ad 3f
       0.0059550208149805415 0.05696817931412419
000460 b1 39 5c b9 30 ab bf bf 32 f7 8a bc 02 79 b8 3f
       -0.12370590711018427 0.09559647658440154
000470 a8 13 c3 58 94 96 aa bf b2 28 a6 68 06 e2 a0 bf
       -0.05193008025665985 -0.032974434160750646
000480 a4 a7 5a de 42 29 bf 3f b3 5a 18 a8 da f5 c2 bf
       0.12172334602897067 -0.14812787254114354
000490 28 52 1f 68 76 18 ad 3f 7d 7b bc 84 88 be b3 3f
       0.056827259264228325 0.07712605705863314
0004a0 45 19 d8 47 e3 4d b5 bf 47 c6 34 e3 2d cb da bf
       -0.08321972373969284 -0.4186510771570266
0004b0 6e 2f f0 0c 6e a7 e4 3f dd 0c 5b 13 a0 90 c2 3f
       0.645438218374222 0.14503861374951202
0004c0 f1 15 74 6f 10 e2 da bf 67 77 17 5c d2 47 d9 3f
       -0.42004786380888876 0.3950086497624085
0004d0 7c ef 67 5e 52 ff c9 bf 5c 87 c5 9c 3a ba aa bf
       -0.20310430154483672 -0.052202064168126866
0004e0 04 17 ae 21 38 39 d0 3f 93 32 92 96 80 97 d7 bf
       0.25349238671366003 -0.3686219664021248
0004f0 35 10 5b 8d 9a bd d2 3f 82 2b b5 22 8a c1 a1 bf
       0.29282249264020105 -0.03467971490552825
000500 c8 a2 7d 0e 91 26 c7 bf b5 be 3f ab f0 54 d8 3f
       -0.1808644600635232 0.3801843330720474
000510 de 0c de c1 8f 81 da bf 0b 80 e5 f9 92 f3 ba 3f
       -0.4141578095661326 0.10527914620388416
000520 5f 46 74 61 2c 0e d0 3f 6e 0b e9 ba 19 69 d6 bf
       0.2508650733662758 -0.3501648259445379
000530 e4 08 e5 6f e5 c9 d0 3f a9 e4 8d 65 ec d9 b0 bf
       0.26232276847089353 -0.06582524756767562
000540 46 1b f7 56 37 8c a1 bf a0 02 24 7f a0 93 ba 3f
       -0.03427288948619504 0.10381510833759444
000550 e8 39 90 56 25 72 d2 bf 5d f0 56 fd 48 9e d5 3f
       -0.28821690991836 0.33778595676608864
000560 f1 ba 77 dd 34 5d b7 bf 27 54 4d d8 ff f5 cc bf
       -0.09126596838880709 -0.22625730573295863
000570 4e 70 ab 2d 68 5b d5 3f 09 0e 1b 30 b4 d7 d3 bf
       0.33370403728418274 -0.31004051873989674
000580 b8 85 89 47 63 5e d0 3f 9a a1 8a 5c 4e b5 81 3f
       0.2557609747510372 0.008646595191138574
000590 0e bc a4 dd fb 14 d5 bf 67 61 3a 3a 44 5c d8 3f
       -0.3294057526099444 0.3806315010674752
0005a0 29 87 57 38 8a 0d ca bf d1 89 3f 3f fc 0d b5 3f
       -0.20353820563382755 0.08224464935441424
0005b0 ea 9c 5b 26 84 b2 be 3f dd d0 85 14 ef 17 db bf
       0.1199114411971213 -0.4233358097474261
0005c0 92 69 d3 73 86 90 d6 3f b5 3a 7e dd f1 fa a5 3f
       0.35257111846080946 0.04293018177769651
0005d0 2d e5 d7 fd 2a dd d2 bf 0d 2f 77 81 48 6f cf 3f
       -0.29474901952160587 0.24558359452782277
0005e0 17 da 84 7e 16 ab b6 bf 3e 5d ea 29 5e 7d b2 3f
       -0.08854809368936177 0.0722254612286308
0005f0 43 85 29 57 03 d0 ac 3f 93 9f 6d 3a a1 44 d0 bf
       0.056274513616481524 -0.25418883043175206
000600 d6 a7 d3 f4 63 43 c9 3f 9d 1c 07 44 07 b1 91 3f
       0.19736909346039394 0.017276872183881953
000610 39 47 d6 7d 39 d7 6b bf 7a bb 2f 4e 62 a6 a4 bf
       -0.003398525512872033 -0.04033190922188275
000620 b1 91 99 55 1c cb c6 bf 6a 05 5b 0f e7 34 d0 3f
       -0.17807344608003242 0.2532289171177441
000630 0e d7 ab 8c 67 fb a5 bf 2a b0 f6 93 e7 48 d2 bf
       -0.04293368904283855 -0.28569974374363716
000640 08 4b b2 6f ca d8 bf 3f f3 1d b0 6f ba 50 a5 bf
       0.1244017145821027 -0.04163153279665357
000650 de 44 ef ef f5 e3 96 3f 29 10 96 3c a9 db b1 3f
       0.0223539760298238 0.06975801209597478
000660 53 79 c4 02 64 66 b6 bf c8 a1 61 22 2e 2a c8 3f
       -0.08749985759320582 0.1887872379186446
000670 3c f6 ff 60 00 82 d1 bf 74 dc 1c af 90 56 c1 3f
       -0.27355966065065096 0.1354542593996687
000680 74 9e d2 42 7b 90 a7 3f ba 0d 3f ab 94 7e c5 bf
       0.04602418127734334 -0.1679254375613775
000690 e6 c9 37 a3 f9 78 ce 3f b5 ca ac 36 f3 46 cd bf
       0.23806686849236697 -0.22872772378612685
0006a0 79 a3 16 dc 52 bc c2 3f d1 26 2a a1 74 f9 b0 bf
       0.14637218233590568 -0.06630639013942675
0006b0 4a cc c1 7e 9c c1 86 3f 07 5d 13 5c ed 81 c0 3f
       0.011111471765820852 0.12896506305580877
0006c0 66 ec 03 2f 27 19 d3 bf 60 ba 35 36 6b 6d d5 3f
       -0.29841022101726933 0.3348033933060943
0006d0 0c 0f 02 41 0f 16 cd bf b1 0b b8 3b f1 d3 ae 3f
       -0.22723570512982183 0.06021074155798745
0006e0 9b da 1e 16 3c d0 b4 3f 9d 4b 3b e8 05 e6 c8 bf
       0.08130240955402217 -0.19451974715647405
0006f0 d6 8a 37 93 83 40 d2 3f 7f c2 c7 67 bd 37 d6 bf
       0.2851876199403426 -0.3471520913581471
000700 79 d6 c6 88 e8 4d d4 3f 26 ed 8d 1f cc 0f bf bf
       0.31725514752483935 -0.1213347985303029
000710 90 ad 61 11 bd 34 40 bf 4c fa c0 39 20 0e b5 3f
       -0.0004945681746568054 0.08224679384236672
000720 f7 51 98 c4 dc 16 d4 bf fb 6e c4 43 34 52 db 3f
       -0.31389540861826454 0.42689234369184675
000730 37 b9 64 f8 e8 f4 d5 bf d3 c1 3f 7b 5b b4 cd 3f
       -0.34307312256978 0.232066569500161
000740 c7 56 7e 02 31 c6 b0 bf 15 27 c8 f5 90 9f c8 bf
       -0.06552416144253491 -0.19236957551066128
000750 ab 26 64 1f db a0 d8 3f 6e 1c 4e a5 8c 6f da bf
       0.38481786790417044 -0.4130584348972154
000760 6d 58 e1 1b f1 c1 d2 3f b8 0e 73 d0 25 71 c3 bf
       0.29308726999932483 -0.1518904941386745
000770 d9 c7 5b 47 7c 16 5f 3f 82 6e 23 e4 6e c5 cd 3f
       0.0018974507960902636 0.23258768214769893
000780 cf bf c5 d7 b9 04 d9 bf 1a e5 80 2c f5 5f d8 3f
       -0.3909134490158949 0.3808567938427402
000790 2f 6c 92 27 04 18 d0 bf 42 70 7d 98 9d 0b b4 3f
       -0.2514658342785791 0.07830224011326073
0007a0 d9 c2 1a 9a bb c8 ba 3f 10 97 3e 53 b7 a0 cd bf
       0.10462543976133122 -0.23146716656372535
0007b0 d9 89 46 47 71 d8 cc 3f c6 1b 71 3e 09 ac c8 bf
       0.22535530071497936 -0.19275012539784891
0007c0 ad 4f 87 b0 f4 51 ca 3f 10 9e 74 86 57 90 d6 3f
       0.20562609309729166 0.3525599301378586
0007d0 7d 4e 75 e0 db 99 c5 bf 23 f9 77 d8 18 87 bf bf
       -0.16875790080904443 -0.12315516743544612
0007e0 83 68 d0 a7 a3 0d 99 bf 1f 41 16 b9 bf ff c6 3f
       -0.024466092221793644 0.17967983758399783
0007f0 4f f0 26 2f 2e 8c c7 bf be 70 54 8d 42 23 b7 3f
       -0.18396546652172893 0.09038177442966153

bias f8 [26]
000000 d3 1e 12 22 8c af c1 bf 27 b7 9b a6 3b ff 91 bf
       -0.1381697813378567 -0.017575199169122115
000010 7e 92 89 b8 16 2e eb bf af dd fa d7 1f 47 c1 bf
       -0.8493760685201577 -0.13498304410835035
000020 f6 bd b0 69 7c f8 ef bf eb 3a 62 21 e2 35 65 3f
       -0.9990827621713254 0.002589170132586962
000030 23 28 7c d4 1a cf ba bf f0 08 88 11 31 3d e0 bf
       -0.10472266852971805 -0.5074696867380037
000040 48 ab 99 22 1a cc b2 bf de 51 2f 65 bb bf 8b bf
       -0.07342685074551725 -0.013549293542305326
000050 d3 c6 3b 88 65 ae 9c bf a1 c2 3d f2 a3 f1 b6 bf
       -0.02800902027133285 -0.08962464012234729
000060 0e e0 52 9b a4 23 bd bf 4a 74 08 82 36 86 d5 bf
       -0.113825118943055 -0.3363167066434626
000070 aa 0c 48 8b 01 78 b0 bf a4 12 11 08 23 df 80 bf
       -0.06433114672113285 -0.008238099750209678
000080 24 7b 9e 2d 48 c6 bf bf 33 06 c9 63 96 e1 af 3f
       -0.12411929239031544 0.062267970734421495
000090 1e 32 46 02 4c f7 02 c0 9e 59 f1 96 25 2a b9 bf
       -2.3707504441902207 -0.09829935965658484
0000a0 eb 44 77 96 5c 4d 90 bf 6e bd b7 c2 01 1f f2 bf
       -0.015920111354550775 -1.1325700384294026
0000b0 d5 f0 4c 45 b9 89 e5 bf 59 59 9a 3a a4 38 b6 bf
       -0.6730619767691005 -0.0868017809938001
0000c0 d8 2e cd 65 55 0c c5 bf 96 5f d0 65 fb 18 b1 bf
       -0.1644388911321275 -0.06678744540874812

weight f8 [3, 26]
000000 ee bd 89 28 91 0c c7 3f 19 77 8d a2 cc 19 01 40
       0.18007101516148744 2.1375973414823304
000010 82 ff 36 56 08 4f e6 3f 7f 78 f8 44 0d 69 da 3f
       0.6971475299724121 0.4126618550816445
000020 00 3a ce 5c 35 fd 5d 3f 74 72 ab d8 61 7f e6 3f
       0.001830389129483856 0.7030495864706396
000030 73 05 23 5b c8 7c e1 3f d2 8f 3d 15 e5 d2 c3 bf
       0.5464822559371626 -0.15487350022442442
000040 b5 dd e5 f7 91 04 d4 3f 32 56 a8 fb 01 47 00 40
       0.31277894219189345 2.0346717510936054
000050 26 8c ad f4 87 13 d5 3f 79 3b 23 5f 08 e0 e3 3f
       0.3293170823509989 0.6210977419049036
000060 37 d2 a1 71 a0 7d c8 3f d6 83 a0 23 5f 37 e9 3f
       0.19133382366602955 0.7880092330780097
000070 50 e4 7d 5d 26 d5 e6 3f f1 5b bb fe 60 31 00 40
       0.7135192705164943 2.0241107846190904
000080 67 aa 2e bb 50 6a de 3f af 3d 21 db ad a9 e7 3f
       0.47523897437591817 0.7394627838020166
000090 c4 06 63 01 7a cf c9 3f 5c 04 75 7a 24 21 d9 3f
       0.2016441828509895 0.39264785727215723
0000a0 4c 7a 7d 66 c5 9f ff 3f 18 eb b8 a0 62 be b9 3f
       1.9765066150208837 0.10056129859814822
0000b0 84 82 e4 fe 66 99 d6 3f b1 cb b0 d9 eb 38 e7 3f
       0.3531129349885662 0.7256983997125329
0000c0 62 41 e0 29 da 9b e8 3f eb cd 42 b7 5f 3c e7 3f
       0.7690249269381122 0.7261198596301573
0000d0 7c ad bf 93 12 b0 ec 3f 76 45 ac 86 48 13 da 3f
       0.8964932332723232 0.40742695953038977
0000e0 94 31 57 f6 8c 6c e1 bf aa ed 5e 1b e7 5b f1 3f
       -0.5445008097972726 1.0849371976063176
0000f0 75 a1 55 99 4a 00 f7 3f a4 fd 0c a6 78 d3 d5 3f
       1.4375711431149203 0.34103218284504977
000100 cb f8 05 76 37 2a e2 3f f0 30 88 d3 0d ee d3 3f
       0.5676533990042797 0.3114046636335521
000110 c6 5a 34 6a 35 83 c8 bf 23 b2 9d 04 8d 9b da 3f
       -0.19150417028205008 0.41574407053738777
000120 ba e1 3c fe 58 15 f0 3f 9b 94 1a 03 10 3d ca bf
       1.0052118235745255 -0.2049884810595913
000130 9a 47 6f 4e 85 37 eb 3f 5c 9c 0b 4d fd 35 bc 3f
       0.850527432625529 0.11019881373396018
000140 e7 b7 db 63 55 60 c5 3f c0 29 f7 8a f8 03 df 3f
       0.16700236678974464 0.48461736269805655
000150 d0 da e4 06 f6 ff f1 3f 87 bd 96 f2 80 28 c7 3f
       1.1249904889388525 0.1809235748782891
000160 41 8a 48 80 60 e8 03 c0 f5 95 24 01 66 ad ec 3f
       -2.48846531125426 0.8961668035814784
000170 fd 31 fd 63 d0 53 d9 3f 37 47 96 d5 27 fc fa 3f
       0.395740602155257 1.6865614264720088
000180 5c de 15 c3 48 e6 f3 3f a9 2d db 0d 99 fa d3 3f
       1.2437217350506193 0.31217028000966224
000190 c4 64 bd 92 fb 13 c1 3f af b8 c3 84 c1 4c f1 3f
       0.13342232384710517 1.0812392412295073
0001a0 2c 30 be f3 16 47 e3 3f 2e 95 16 f2 d0 a6 f0 3f
       0.6024279366115528 1.0407266098566867
0001b0 6d da 95 da 96 3b d3 bf c2 6d 3c 91 7b 7f e7 3f
       -0.30051204057909936 0.7343118511811826
0001c0 0c 49 41 86 a1 be eb 3f bd ce 07 9e de bb d1 bf
       0.8670203802269341 -0.2770916503206811
0001d0 e2 e3 9e ea 18 0d e0 3f f0 99 12 2e 6d 2d f0 3f
       0.5015987951693399 1.0110904502595268
0001e0 d7 23 b5 9d ff 6b e4 3f b3 c2 cc 64 64 9b ef 3f
       0.6381834106660972 0.9877187699076643
0001f0 5c 87 2a b7 b8 ae e5 3f 38 7a 62 7a 53 70 c7 3f
       0.677578313585609 0.18311542011083914
000200 9d ff 0c 4c 23 c8 e2 3f e2 08 23 a0 b4 e9 d8 3f
       0.5869308934561449 0.3892642558895557
000210 ed c7 d4 b5 ed c1 d6 3f 30 4a 69 1d a3 9c f0 3f
       0.3555864597029757 1.038241495979161
000220 85 bc 2d 12 ea 81 e8 3f 50 b3 65 b4 06 06 d8 3f
       0.7658586840679084 0.3753678094570221
000230 7c 04 5e 54 3c 20 ae bf 9b c8 49 40 c1 1f e3 3f
       -0.05883968858598451 0.5976263290051692
000240 83 b5 c4 b8 a1 94 ee 3f e9 4f a9 fd 02 a6 e4 3f
       0.9556435211904247 0.6452650980304472
000250 91 87 fd 78 11 4b d5 bf 44 d2 d1 25 97 b9 df 3f
       -0.33270680251563883 0.4957025403339552
000260 c5 6a 23 55 9f 2b d8 3f 51 23 49 cf fa 69 eb 3f
       0.37766249956409254 0.8566869782017453

bias f8 [3]
000000 c8 45 6d 4a ed b4 ed bf cf 29 27 12 5b 3f c7 bf
       -0.9283358052872979 -0.18162096392036495
000010 48 95 66 28 92 18 d8 bf
       -0.37649969048864707

weight f8 [26, 3]
000000 3a ca e7 d9 52 79 e1 3f aa 72 95 bc 69 25 cb bf
       0.5460600143399639 -0.212079255182194
000010 e3 a2 a0 97 2e af ea bf 0a ab a4 11 57 22 e4 bf
       -0.8338845216249776 -0.6291919083208495
000020 e3 22 61 50 01 67 d4 3f 8f 10 69 5d a4 5e b9 3f
       0.3187869343715148 0.0991003730824238
000030 3e a8 78 b5 d5 7e e7 3f 62 f8 06 13 fc 2d ec bf
       0.7342327637063659 -0.8806133624673402
000040 29 d2 55 0c 63 52 d0 bf 9c 3e bb e2 b7 74 d4 bf
       -0.2550284977399167 -0.3196239198850692
000050 e8 5d 49 bc 87 7a e1 3f 82 be b6 81 b3 a0 c8 3f
       0.5462073018524594 0.19240421136554536
000060 f5 4c d0 52 f0 fb ea bf d9 cd d5 14 2f ec e0 3f
       -0.8432542436079574 0.528831043904968
000070 9c 02 cc 07 78 5d a0 3f c3 67 0c ee e8 72 d6 bf
       0.03196311087777312 -0.3507635426227546
000080 1f a6 a1 24 b5 f0 c3 bf 28 9c 5f 22 41 b7 df 3f
       -0.1557833126892527 0.49555996281418624
000090 ba 94 c7 68 48 3b ec 3f 8c e8 1d 3a 63 57 f9 bf
       0.8822366758801288 -1.5838348646343858
0000a0 83 c5 49 dd 40 e9 e5 bf 48 58 83 bc 46 f6 c9 bf
       -0.6847233125719615 -0.20282825665225546
0000b0 98 f2 90 af 27 f3 d9 bf 8a 35 74 05 6c 21 e5 3f
       -0.40546600480210193 0.6603298288843444
0000c0 2f 12 0a dd 10 88 cf 3f ae f8 26 da b9 36 c9 3f
       0.2463399009030964 0.1969826045223661
0000d0 b6 8c 16 b3 18 f2 d7 bf 28 5e 55 c9 e6 d5 e8 bf
       -0.37415139664717445 -0.7761110241216942
0000e0 04 52 32 39 73 5a c3 bf f9 9b 7d 69 68 c1 e6 3f
       -0.15119781773377394 0.7111093578686215
0000f0 2c d9 95 47 45 38 0a 3f d3 46 d5 a6 c8 64 2b 3f
       5.001031326916575e-05 0.00020899724351380061
000100 ce 41 c1 0c 5d 37 3c 3f ec f8 e8 51 2a 80 e0 3f
       0.0004305460140630297 0.5156451797299986
000110 95 41 67 f8 05 00 e8 bf 81 aa 15 63 8f e7 d6 3f
       -0.7500028468730756 0.35788330723031697
000120 31 6a 4f a0 74 70 d3 3f 8a b9 6a 90 13 9d d2 3f
       0.3037387433556971 0.2908371839829661
000130 f9 04 1b 55 e0 5b e9 bf 3e df 88 fe 4f 42 b0 3f
       -0.7924653684823674 0.06351184810853014
000140 02 86 3d 9c 66 f5 f0 bf 20 d3 da 91 9f 80 e0 3f
       -1.0599123099458443 0.5157010887838602
000150 7f 10 b6 db 13 5a b4 3f 94 bd 10 56 ef df fe bf
       0.07949947465937333 -1.9296716081551937
000160 a9 fe 82 46 16 66 84 3f 4f c6 02 e1 d0 81 e3 3f
       0.00996034052548052 0.609596671556753
000170 ea d3 48 a2 c1 90 c6 bf 2a 82 32 43 b3 10 dd bf
       -0.17629261421248482 -0.45414430200802036
000180 af 47 c5 b0 84 07 ef be c5 2d 22 1d 1e a8 fd be
       -1.4795955870869905e-05 -2.8282842159428065e-05
000190 8b 3f d3 97 49 b9 e0 3e fc 92 76 96 98 41 8f 3f
       7.97451934389495e-06 0.015261833278438434
0001a0 1c 19 90 36 44 f8 df 3f 7b 45 9c 9f 07 ce e4 bf
       0.4995279820290237 -0.6501501195327103
0001b0 0d 25 0e 5b 84 9f 6b be e0 db 2b 80 4b 5c 8c be
       -5.145205806469964e-08 -2.113023925482177e-07
0001c0 5b 76 07 1d bf 0e 45 be 0f 92 e4 fa ce 96 b9 bf
       -9.805710827458228e-09 -0.09995740533174334
0001d0 ce 8c 82 96 c5 6e d5 bf 1d dd fb 59 4e ef d1 3f
       -0.3348859758209074 0.28023108279690395
0001e0 93 3f d9 22 4a 96 d2 3f 43 a1 cd d7 49 12 e0 3f
       0.2904229488676659 0.5022324767024106
0001f0 fe df 89 ed 4d 9f e9 bf ce 4d f4 dd b5 c2 df 3f
       -0.8006963385987544 0.4962591807863789
000200 1f ec c1 12 ea 3e f0 bf d0 ef bc 8f d7 2f ea bf
       -1.015359948417206 -0.8183400924094659
000210 b5 ae 44 6e b4 98 cb bf fe 3b a3 43 92 9d e0 3f
       -0.2155976808947934 0.5192347832725088
000220 cb 4f a5 88 81 a2 e5 bf 82 af ad 7b 90 3f c3 bf
       -0.6760871571409494 -0.15037733115184088
000230 b5 7c d4 24 f1 f0 e1 3f 47 87 97 18 1a f5 c7 3f
       0.5606618613563997 0.18716741753365282
000240 45 37 ed b2 0d 55 a4 bf ec a2 dc 18 bb e7 d5 3f
       -0.039711406795147876 0.3422687285224544
000250 48 53 22 b1 be 43 d0 bf 32 13 7a b1 47 58 71 3e
       -0.2541348199677498 6.461457890446618e-08
000260 b4 be 23 8b f6 0b 61 3e 13 ec bf b7 aa da 90 be
       3.17520102588041e-08 -2.511466659080383e-07

bias f8 [26]
000000 2a 43 59 8d c0 58 c7 3f 84 0a 11 22 1a c3 a6 bf
       0.18239600087920255 -0.04445726075984616
000010 45 00 d8 78 62 e3 c2 bf 8b 8c c0 7f 8f fe db bf
       -0.14756422901700908 -0.43741214252276767
000020 c0 b2 a9 55 a4 45 e1 bf 41 f8 7f 9c 00 44 8c bf
       -0.5397512124160002 -0.013801579261777277
000030 51 83 d2 25 49 28 e8 3f 30 95 8e db 70 01 b3 3f
       0.7549176920621027 0.07424073562886657
000040 4a fb 34 1e 4a 73 be 3f 60 60 6f 41 ed b0 c3 bf
       0.11894667851900667 -0.15383687682219982
000050 3b b7 b6 15 1b 72 32 3f 22 0c a4 ae 04 1f c5 bf
       0.00028145943880529865 -0.16500910308249767
000060 a1 9b 06 eb 5e bb a4 bf b8 ef 13 39 03 a2 d0 3f
       -0.04049202555625376 0.25988846372615226
000070 84 7a ab 81 5c d2 cd 3f 90 79 ee 63 e7 5c a0 3f
       0.23298221904311245 0.031958800266909226
000080 d9 df 8e 68 cd 93 e1 3e d8 3b 88 00 79 f3 c1 bf
       8.38153506942101e-06 -0.14024269605621842
000090 26 2a b1 2a 1c 7d 85 3e 6a 86 c7 64 7c 7c a1 3f
       1.6010337353302679e-07 0.03415287714211675
0000a0 41 36 cd 2e e3 bb a3 3f 47 e1 de 82 58 80 c4 3f
       0.03854284235295014 0.16016680135886416
0000b0 0c af 93 20 0c 8d c1 bf 8e 0c c4 a2 bb f7 d5 bf
       -0.13711692419689603 -0.34324541945552134
0000c0 c0 35 a9 78 75 c6 c0 bf 2b 3b 0a fa 0e 52 70 3e
       -0.13105648414277304 6.079875315200608e-08

weight f8 [50, 26]
000000 f8 76 77 8d 1b 47 67 bf 95 4f 26 bd 2b 3c 96 bf
       -0.0028415239464568663 -0.02171390859582763
000010 78 ed 4f 6f 58 e5 a5 bf 2f 37 e3 4c 6c 8f 8c bf
       -0.04276539191047396 -0.013945432754919189
000020 f5 50 03 52 6f 34 75 3f ef 6a 90 20 a1 40 a3 3f
       0.005176958890121809 0.03760245821486829
000030 91 ad f1 6a 29 12 ca bf 40 c1 a0 14 23 fb b0 3f
       -0.20367925378682775 0.06633204702007323
000040 3c 2c c3 68 3c f1 be bf 82 34 83 48 e8 f3 b0 3f
       -0.12086846883464458 0.06622173090291208
000050 5f e5 d3 63 1d 73 35 bf 9b 75 04 26 91 6c c1 3f
       -0.0003272959473431171 0.13612570148772538
000060 a5 fe 6b 46 61 05 bf 3f 85 fb 69 93 01 aa b7 3f
       0.12117584199222138 0.09243783806776491
000070 25 81 aa 2e 4f eb af 3f 32 31 39 5b c5 24 a6 bf
       0.06234214253095364 -0.04324928988043765
000080 4a 24 c9 bc 33 49 cd be 10 cb 39 34 b8 cb 84 bf
       -3.4911567808088505e-06 -0.010154189199260283
000090 5a 9c d7 76 63 24 6d be 42 8d 51 f2 7f 49 92 bf
       -5.4281470745179914e-08 -0.017858504452658915
0000a0 1f 15 4b f3 0c 7d 9f bf c4 cd 26 15 72 11 c2 3f
       -0.030750467633670838 0.14115739853660447
0000b0 b9 4b 42 dc b4 84 a8 bf d8 ef ae 0d 2b 94 8b 3f
       -0.04788747013767342 0.013466202120859735
0000c0 e0 b5 b6 6e 14 2b 9f 3f aa 9f 58 f7 21 8f 28 3e
       0.030437773950032 2.8590569311078443e-09
0000d0 97 68 f0 4a ec 35 a4 3f 53 ab 2c fd f7 34 b1 3f
       0.039473899982298714 0.0672144883252888
0000e0 c4 79 22 b5 09 89 9a bf 05 cc d8 45 18 f7 95 3f
       -0.02591338317926685 0.02145040441810055
0000f0 a4 5f 51 71 84 f9 af 3f f5 6f b8 8c 0b 8f ac bf
       0.06245054133677222 -0.05577884762553246
000100 2d 8b 89 fc f0 b9 cf 3f f7 30 43 c1 d8 90 af bf
       0.24786197977945204 -0.061651967612847906
000110 19 d7 67 72 9b ac b7 3f ad ab f4 37 30 7d c0 bf
       0.0924775270758257 -0.12882044536794748
000120 a4 3b 49 6e f6 36 19 3f 22 37 35 b6 2b cf c4 bf
       9.618643850582573e-05 -0.16257234951847815
000130 36 35 86 14 d5 a7 ba bf 46 db 1c 08 a0 e7 a4 bf
       -0.10412341834144886 -0.04082965945274579
000140 7d cb 68 75 c0 ac 81 3f 03 41 13 19 58 e5 b3 3f
       0.008630279143380321 0.0777182637423302
000150 14 d4 84 61 3f 88 cd 3e 0d 44 1e b4 0b 8e 79 bf
       3.5205146212921154e-06 -0.0062389809771881246
000160 68 42 65 4a 7f 17 6d 3e cf 59 1a 5c d9 61 a3 3f
       5.418767416948628e-08 0.03785590409568195
000170 e2 47 81 c4 4d 21 93 3f 42 a0 ad 79 4c 06 c5 bf
       0.01868173133727414 -0.1642547220355955
000180 5f 6c 02 e4 e5 7e 63 bf 76 24 4e 15 74 cd 83 bf
       -0.0023798456241599787 -0.00966921510714001
000190 59 e9 d3 ba 86 07 90 bf 96 d3 ba f0 6f 45 5a 3e
       -0.01565371051126738 2.4466998245752994e-08
0001a0 22 45 47 39 8f 97 b1 bf e1 2d fa e8 51 a6 b9 bf
       -0.0687188639488068 -0.1001940912048478
0001b0 f3 20 5d 64 37 7e b8 3f e6 ff 5b a5 b2 8e 9c bf
       0.09567590904510208 -0.027888099043593594
0001c0 82 af 1c c0 d4 11 be bf 76 b8 43 23 d8 5c ab 3f
       -0.11745958032832785 0.05344272070384275
0001d0 85 d0 04 81 50 47 d2 bf 97 a2 8b 14 30 f4 a9 3f
       -0.2856026897382054 0.050691130168904745
0001e0 57 41 5c 4d fd 53 a8 bf 83 a9 6a 12 d8 28 c4 3f
       -0.04751578873959044 0.15749646090746347
0001f0 8c 00 88 3d e9 45 f2 be 21 c7 03 7c 07 26 c8 3f
       -1.7426576819801673e-05 0.18866056018264835
000200 15 ec 7e 00 2c 3b b0 3f d3 a7 66 fe 8d de 8d bf
       0.06340289127449268 -0.014584645582392064
000210 5a 89 34 d5 b4 ed b6 bf 2b 19 90 2c 1c 9d be bf
       -0.08956461148458086 -0.11958480918847118
000220 10 a0 b6 a4 d4 4a b6 be bd 7f 4e e8 ff ff 96 3f
       -1.3287250507452337e-06 0.02246093612086474
000230 8c 98 5f e9 d5 77 29 be de 51 9e 39 ae f2 a9 bf
       -2.964877963789063e-09 -0.05067963078832681
000240 13 75 64 46 44 b9 6e 3f 9c 68 de 91 75 65 c7 3f
       0.0037504514213099276 0.18278379080294804
000250 98 30 f4 c1 23 6c ac 3f c0 17 57 1f 9e e4 68 3f
       0.055512540269860355 0.0030387008980339025
000260 f5 38 80 75 c2 ab 47 bf f6 be 4c a8 f1 af 42 be
       -0.0007223796374107571 -8.701943396410528e-09
000270 83 8b 64 70 c8 ba b5 3f a9 85 be c5 ca 27 bc 3f
       0.08488133186305728 0.10998217895259778
000280 27 85 5c f1 da 88 c4 bf 22 9e bc 16 60 6d 9b 3f
       -0.16042649064278544 0.026784421336882976
000290 f4 8d 10 55 25 5d c2 3f 03 e3 48 3b 1b 46 9f bf
       0.14346758512066027 -0.03054087209077051
0002a0 29 c2 cd e1 9c 78 d4 3f 8f 20 94 d2 a9 1c a1 bf
       0.31986162234446397 -0.03342180915393655
0002b0 53 22 bf 5e 38 6b 6c bf 62 91 40 00 64 04 c2 bf
       -0.0034690953234284643 -0.1407589913589034
0002c0 f2 f9 a5 55 4f 05 1e 3f b7 cf ad b5 68 1d cb bf
       0.00011452004165411043 -0.21183499213259235
0002d0 80 dc 45 ca b8 bd 77 bf 84 1a 61 08 50 43 b1 3f
       -0.005796167217673731 0.06743335918972987
0002e0 20 8d 17 98 01 51 c6 3f c8 3b ad b7 52 c9 c3 3f
       0.17434711386076973 0.15458139389599368
0002f0 0f 7f d2 16 da fa b8 be 89 02 79 b5 bc ee a1 bf
       -1.4889174864487531e-06 -0.03502454486124857
000300 c3 6f 6b 33 7f 32 71 be 42 de f5 63 ea ff a8 3f
       -6.406476136692742e-08 0.04882748098583224
000310 bc 7c 97 b1 cb 9d 9d bf 08 e6 6b d5 b6 e8 c8 bf
       -0.02892225524362567 -0.19460187359781878
000320 4c e1 0d 55 f3 7d b9 bf 19 e2 fc d7 ea a3 87 3f
       -0.09957810236472148 0.011543116299081157
000330 39 d5 c6 84 4f 67 90 3f 8f 3c 50 43 52 fd 42 be
       0.016019098738714297 -8.842692004002563e-09
000340 85 f5 67 b8 11 ac b4 bf 5a 92 29 0b 03 b6 b7 bf
       -0.08075056793309983 -0.09262103102225563
000350 27 3f 7a d1 95 04 cb 3f b1 2e 54 ab e6 c4 90 bf
       0.21107743004221755 -0.01637611790378796
000360 85 3a 10 b7 72 c3 c0 bf b0 f7 62 10 79 39 6c bf
       -0.130964602838919 -0.0034453739673087833
000370 d3 b7 d9 8e 29 5b d6 bf 8d 29 c5 28 fb d5 84 3f
       -0.34931410742035246 0.010173761541086868
000380 45 b9 58 ec 9f d1 a8 3f c6 f2 00 b5 f2 86 b4 3f
       0.048474309540653716 0.08018414420161965
000390 c3 78 b2 e1 89 13 20 bf 19 2a c5 e2 25 69 cd 3f
       -0.00012265260815963992 0.22977136204492934
0003a0 c5 b8 a6 e1 49 61 ae bf 05 a0 1e c7 a4 de bc bf
       -0.05933600310832924 -0.1127722726947696
0003b0 f6 5e e3 02 1c 90 d0 bf 29 27 e9 27 14 a3 c5 bf
       -0.25879574091003066 -0.169039268005059
0003c0 92 75 96 b4 3d 5d c3 3e 28 24 70 ae 76 2f a4 3f
       2.3083952426910875e-06 0.039424618524272426
0003d0 6a 5a 81 ca 61 d3 72 3e b2 9f 47 e7 79 96 9d bf
       7.013123826233555e-08 -0.028894333592603245
0003e0 82 02 41 99 72 8d a8 3f fd ab d1 75 f6 3e c9 3f
       0.04795415993476572 0.19723397019274094
0003f0 23 d1 9c a6 3b 2a c0 3f b8 c4 05 c4 06 5a a2 bf
       0.12628884921435554 -0.035843097141773084
000400 83 6c 03 93 a7 fd 99 bf 61 f5 bb d5 71 a4 4f be
       -0.02538167795942715 -1.4734623014328955e-08
000410 a5 9b 8b e9 45 f2 ab 3f dd e1 07 33 1e e0 a9 3f
       0.0545827720250636 0.05053800938543749
000420 4f 46 48 4e 1c a2 ce bf 1b 56 47 79 b1 43 56 3f
       -0.23932222196940464 0.0013589127676046978
000430 aa 82 8d 93 d2 05 b5 3f d9 19 bc c6 2e df a1 3f
       0.08212009527552291 0.03490587402307072
000440 4d 95 de fe 4c 96 d7 3f df 5d 37 29 05 48 94 3f
       0.36854863061519866 0.019805985108033993
000450 11 6d 03 b6 15 3b b4 bf f7 9b f3 fe e9 60 7e 3f
       -0.0790265626305209 0.007416643187048592
000460 bd 03 aa 54 d8 72 11 bf f3 a1 9f dc cd e1 ce bf
       -6.656117799687298e-05 -0.24126599571833615
000470 36 d7 85 03 39 fe be 3f d1 09 d3 66 c2 25 c3 3f
       0.1210666307068465 0.14958982487412567
000480 8b 31 f9 b5 5f bc d5 3f d8 fd 76 a1 fd cb c3 3f
       0.3396224286159614 0.15466280349754302
000490 25 4d 08 3d ed 3c c2 be da 55 e7 f3 09 59 a1 bf
       -2.1741384233026447e-06 -0.033882437728305084
0004a0 84 f2 59 1e 6a 12 60 be 18 92 6b 37 45 40 71 bf
       -2.9936305695627746e-08 -0.004211683632750617
0004b0 74 c3 89 af e0 9e aa bf 42 08 69 d3 76 06 c8 bf
       -0.051993390491481245 -0.18769727061050118
0004c0 d9 ce e0 cd a2 03 c1 bf 6e 38 f8 62 e0 a5 b0 3f
       -0.1329234605087695 0.06503107467890043
0004d0 68 b3 76 03 c3 07 9d 3f c1 10 03 57 b7 67 70 3e
       0.028349921308904596 6.111391371010342e-08
0004e0 9e b8 21 d5 8c ce 90 bf 3f a2 ba ba 74 0f 7b 3f
       -0.016412926205184968 0.00660653684068585
0004f0 c7 9e 94 45 08 9f cf 3f de 02 2b 81 6b f2 8b 3f
       0.24704078099715884 0.013645973090548432
000500 59 88 9d ae 72 22 83 bf 69 29 56 42 e5 55 ab bf
       -0.009343048051679558 -0.053389705989576104
000510 9b 5b 7f 35 4c eb d7 bf 3f 64 07 5b 61 1c ad bf
       -0.3737364313541833 -0.0568571494693022
000520 8a ec ae ff 5b 41 b7 3f c6 98 89 59 2b 35 b8 bf
       0.09084105484264363 -0.09456129966710866
000530 3d b5 e9 6e c9 0a 33 3f a1 b7 b5 13 2d 09 cf 3f
       0.000290559938469343 0.2424675317992611
000540 ca d4 1b c5 4d 23 c5 bf a5 02 2b 84 fd e8 c6 bf
       -0.16513988613556868 -0.1789852996207816
000550 ff bd 30 21 3d 65 da bf 02 08 31 a4 63 1e bc bf
       -0.41242912522554315 -0.10983870276052701
000560 10 dc 40 ea a8 6f d0 3e 10 0e d8 19 ac a3 92 3f
       3.918688580787345e-06 0.018202485158338944
000570 2d d4 10 b0 0a c8 6b 3e cf 84 7c 65 18 dd a4 3f
       5.1746914316390396e-08 0.040749323261715646
000580 14 25 b7 7c a9 56 a2 3f 52 72 df 02 86 f7 c4 3f
       0.035817429040955556 0.1638038171794443
000590 c2 c5 9d 99 a0 a8 be 3f cd e8 08 df 72 c9 b7 bf
       0.11976054907224579 -0.09291761346040346
0005a0 41 ea 1d 5f 89 5e 9d bf 5e e4 83 0e 92 fb 72 be
       -0.02868094103858199 -7.07160584568108e-08
0005b0 e6 3e 18 a7 94 79 94 bf 14 2d 4e 8d ca 02 b0 bf
       -0.01999504346718952 -0.06254259061659112
0005c0 31 50 13 fc 07 17 cf bf 2f 29 90 ff 2e 96 9b bf
       -0.24289035614367685 -0.026940092418990588
0005d0 e9 48 88 f3 de 67 b1 bf aa b9 0d 0a cf 5a aa 3f
       -0.06799119420637435 0.05147406575894149
0005e0 e5 d6 de 00 d2 34 d7 3f 09 be 51 f7 8a fe b8 3f
       0.36259889683729646 0.0976340154463672
0005f0 3b 13 e1 db 50 77 b5 bf 26 dc 3f ad 59 88 c3 3f
       -0.08385186546463512 0.1525985809273333
000600 89 e7 fb 29 fa 0c 3a bf e7 44 2b b6 8c 3d cd bf
       -0.00039750201720744526 -0.22844084639522252
000610 71 12 c8 4f bd 1e c7 3f d4 e1 99 4f 8a f3 c9 3f
       0.1806255950506457 0.2027447594334847
000620 88 dd d4 ef c7 37 de 3f 77 de 3f 2d 82 39 a4 3f
       0.4721546022514862 0.03950125505792539
000630 d0 27 55 41 46 4a d9 be d2 7a 05 1c 55 3f 74 3f
       -6.029637935009742e-06 0.004943211039374078
000640 3d d7 b0 d5 6b 25 7c be 1e 23 2d ab 87 f4 b1 bf
       -1.0485267891508704e-07 -0.07013748101338677
000650 25 23 9d 53 f7 79 45 bf e2 ad 7d 10 0c 19 c0 bf
       -0.0006554086350912576 -0.1257643776437894
000660 c2 33 49 07 ce 62 b7 bf 21 cc 1d 42 77 87 bd 3f
       -0.09135139158134023 0.11534829487008881
000670 93 8a 5e e7 7e 86 9e 3f b9 b8 2e 3e 9b 14 68 3e
       0.02980993544737005 4.4853415002433355e-08
000680 14 69 f0 a6 89 b3 a6 3f 04 f0 ba 95 c3 a2 b9 3f
       0.04433851397353031 0.10013983159564083
000690 e9 c1 df f0 94 35 ce 3f a6 fb e0 c4 bb 02 a4 3f
       0.23601018678119992 0.0390833547430625
0006a0 f0 b9 37 2d da 37 c0 3f 48 1f b5 ee 96 81 98 bf
       0.12670447547812058 -0.023931845016050418
0006b0 8e 1b da 44 fc 41 d5 bf f6 d5 86 54 69 77 c1 bf
       -0.3321524307615896 -0.13645664813309083
0006c0 4b 82 34 dc ea 92 b0 3f b2 a8 ac f3 d3 99 c4 bf
       0.06474178196050066 -0.16094445608297786
0006d0 b1 9a 64 30 70 3d 39 3f a0 0b 3f 82 92 35 c9 3f
       0.0003851317309390519 0.1969473968475457
0006e0 8f cb d9 8a fa 4b c5 bf 01 71 57 40 f9 b4 cc bf
       -0.16638118533918742 -0.22427287713697555
0006f0 24 fb b8 cc ce 79 e0 bf 22 02 1b de f0 8f a6 3f
       -0.5148691175926143 0.04406693183182521
000700 b9 f6 9d 8c bd 2a d8 3e 8e a6 40 52 87 fd 9d bf
       5.761851022854301e-06 -0.029287447352692335
000710 b3 17 17 de d8 42 7b 3e 50 1e ad 89 9b 3e b5 3f
       1.0155559195594974e-07 0.08298656569706364
000720 e5 69 88 28 25 ea a7 bf 72 00 bf 2a 14 2e b3 3f
       -0.046708260724887464 0.07492185634237261
000730 35 72 1f b8 6d f9 ad 3f 43 cc 1a 02 99 ba c0 bf
       0.058543614126140765 -0.13069450953261894
000740 2c 38 38 34 8a 02 a2 bf 10 11 c1 57 4a ca 62 be
       -0.03517562758871437 -3.4999469073389755e-08
000750 b5 9f c4 67 6e aa a9 bf 44 68 56 a9 b2 69 bb bf
       -0.05012841240596747 -0.10708157190529827
000760 a0 b2 4d 9e 61 f2 cd bf c3 49 79 df 00 2e aa bf
       -0.2339593909231512 -0.051132228164209724
000770 20 57 17 06 3a a8 c2 bf 9c 60 e6 3f 5d 77 9c bf
       -0.14575887010021749 -0.027799088502064792
000780 3d 70 5c 75 e9 fb d1 3f 49 54 95 7b d0 a2 c5 3f
       0.28100048504871095 0.1690312007364432
000790 5b 87 3f 69 8e 94 a6 bf c8 3f d4 2f 04 66 bc 3f
       -0.04410214457290237 0.11093164603903383
0007a0 08 97 b2 6c b7 55 38 bf 5a 05 39 0d 7a 0b c3 bf
       -0.00037132003917360367 -0.14878774305001735
0007b0 d6 35 e5 c8 f3 da c0 3f 33 46 ff b3 92 9e cf 3f
       0.1316818934377994 0.24702676571773594
0007c0 ec bf 8f 50 f4 35 e1 3f 23 73 07 8a a8 05 c0 bf
       0.5378362248866302 -0.1251726793260782
0007d0 4b 6a 15 1c 2a cf d0 be eb 30 43 04 42 ba a8 3f
       -4.007634232773017e-06 0.048296034832306343
0007e0 38 fc eb 40 3e 29 6c be 30 cb 1e 6d 5b 24 b3 bf
       -5.245414779440264e-08 -0.07477351583547143
0007f0 9a 62 36 6c 8d 99 b8 3f 37 31 6d 00 42 5c 8d bf
       0.09609302417664836 -0.014336124074951868

bias f8 [50]
000000 b2 0d 2b 29 c1 6a 95 3f 83 3d fb fd 41 c2 98 bf
       0.020915048730569992 -0.024178534628672487
000010 64 e1 98 de 9e 94 98 3f 10 ac e5 df b8 e8 94 bf
       0.024004442535642836 -0.020419014611814446
000020 1b 78 19 a5 84 a5 8b 3f 71 d5 8b de a8 bd 64 bf
       0.01349929455608039 -0.002531843016522366
000030 d3 59 ed 10 fa 22 87 bf e9 4b fb 0f aa 06 99 3f
       -0.011297181741309814 0.024439484811249832
000040 f6 b0 9b eb e9 27 a1 bf 1e 5a 30 fe b2 da a2 3f
       -0.0335076427562359 0.03682479241267721
000050 dd dc b8 1f fd cd a1 bf bd 81 8e 61 b5 58 9d 3f
       -0.03477469455941116 0.028658708648096488
000060 7b 5e 12 c9 a1 b7 94 bf bb a6 4e aa e5 ff 86 3f
       -0.02023175039047807 0.011230272540916677
000070 38 d2 5f 0d 37 9f 69 bf 52 4d 6d 81 5c f7 61 bf
       -0.003127677463448355 -0.002193146395634984
000080 3d af be bc 13 88 70 3f 38 88 6b 95 66 24 70 bf
       0.004036023234146144 -0.00394096442934893
000090 e3 37 8c 27 0b 56 70 3f c7 41 c2 a6 8d f5 76 bf
       0.0039883075448994025 -0.005605271650111771
0000a0 b2 aa 99 9b 11 56 84 3f df d0 9a 6b b1 dd 91 bf
       0.009929788170855634 -0.017447254364655215
0000b0 ac 6f 3c 69 bd 6f 9c 3f 79 1d d4 1a 51 6d a4 bf
       0.027770003841496013 -0.03989652111527681
0000c0 68 82 8d 47 b4 3a aa 3f 22 5b 37 68 f8 2f ae bf
       0.05122912763068116 -0.05895973465128736
0000d0 12 bb d2 d8 a2 58 af 3f 08 4f 01 2b 85 f7 ac bf
       0.06122311493651557 -0.05657592916455029
0000e0 44 f6 fb b7 b9 3f a7 3f 6e e7 d2 57 64 e3 9e bf
       0.04540806170369341 -0.030164306507436782
0000f0 77 39 cd 01 0f b3 8c 3f 7c fb 02 35 f1 fe 49 3f
       0.014013402216417543 0.0007933309334687689
000100 18 fc 7d ae 7b e3 8a bf 14 ea fd 30 b0 7c 96 3f
       -0.013129202139451165 0.021960022917008784
000110 3f 74 05 d5 50 39 9c bf 57 f5 fc de 1f 4e a0 3f
       -0.027562392236508023 0.03184604260466511
000120 a9 23 20 5c da af a2 bf b4 3d 0b 20 7f 85 a5 3f
       -0.036497901674074136 0.04203412309800161
000130 fe 70 85 d0 a3 ad a8 bf 43 62 78 f5 fa 38 ac 3f
       -0.048199767307524496 0.055122225250845
000140 ed b5 f3 1a 3c bc af bf 65 18 2e 75 15 f4 b0 3f
       -0.0619829924488434 0.06622442351189901
000150 63 2f 7d f9 95 24 b1 bf f3 d4 02 44 b7 86 b0 3f
       -0.06696450558700699 0.0645556012194282
000160 d9 3f 11 cd 73 c9 ad bf e2 d3 da 15 9c 7b a8 3f
       -0.05817758444084093 0.04781806723386929
000170 2c 89 6a 8c 14 04 a2 bf a0 3e d1 e6 d1 da 96 3f
       -0.035187379971164695 0.022319106781934495
000180 9f 12 15 43 8d 4c 86 bf 94 43 36 49 2b 5b 56 3f
       -0.01088819848031025 0.001364509841412541

weight f8 [3, 3]
000000 53 98 12 56 ca d4 fe bf 32 37 34 e1 ba 42 f6 3f
       -1.9269507753574728 1.3912915036230058
000010 5f d3 04 ab 0b 39 cf 3f 76 be 4f 7e e3 c5 0a c0
       0.24392839289216803 -3.346625315483659
000020 38 2e 32 1d c6 1c f1 bf a3 10 c9 b8 2f a1 03 c0
       -1.06952487377829 -2.4537043033943333
000030 b0 7a 1f 54 76 0f e8 bf 54 ce 07 24 47 47 f7 3f
       -0.7518874781634022 1.4549018294755074
000040 04 13 21 a6 69 92 e9 3f
       0.7991226429663532

bias f8 [3]
000000 b2 2f a1 d5 bd ed fc 3f 65 24 47 13 8f 72 d1 3f
       1.8080423684032039 0.27261711962325413
000010 b5 83 ad 38 a4 23 f5 bf
       -1.3212015356041154

weight f8 [4, 3]
000000 44 a7 3e 7b 1d fe 00 40 e5 ab 76 55 94 32 fd 3f
       2.1240796688552184 1.8248484934254006
000010 c8 5c 68 26 ac b0 e5 bf c1 3f 29 ea 53 92 f6 bf
       -0.6778164625310632 -1.410724558536444
000020 7c 59 e8 06 78 1a e5 3f 16 23 08 9e 42 92 f4 bf
       0.6594810614504207 -1.2857080624691597
000030 41 c4 76 a9 21 ca df bf f8 52 69 08 93 68 f2 3f
       -0.4967121272011959 1.1505308464595014
000040 40 01 c6 8c 21 63 f7 3f 44 22 14 42 bd 05 fc bf
       1.4617019175494335 -1.7514011937329466
000050 72 c8 fe be 1a 1d 0c c0 37 4c 47 88 af e2 b9 bf
       -3.5142111703399275 -0.10111519887077312

bias f8 [4]
000000 f9 d5 34 50 16 98 f0 bf ad d6 25 db da 15 10 40
       -1.0371306546270473 4.021342682060703
000010 e0 91 45 51 0e 9c f7 bf 61 a2 a4 68 10 d2 f6 bf
       -1.475599591701318 -1.4262851798649978

weight f8 [2, 3]
000000 6f 5b fe 9a 5f b3 9f bf 37 d3 77 64 9e 0e a3 bf
       -0.030957692942674194 -0.037220906986397066
000010 94 82 2a ed 70 16 91 3f 56 95 2b a9 e7 d9 69 3f
       0.01668716857477877 0.0031556629777351004
000020 ab 08 12 a8 b8 5e 8d bf 95 4c ec 7e 03 df 90 3f
       -0.014340822819807938 0.016475729581611438

bias f8 [2]
000000 da fc 1b c7 2a 3d 6c bf f1 d0 9c da f2 5b 66 bf
       -0.003447135496457682 -0.002729391407138342

weight f8 [1, 2]
000000 ab 9b 67 14 c4 8e 9b bf 58 62 d1 e6 b4 bb 7d bf
       -0.026911796327023712 -0.007259089133264306

bias f8 [1]
000000 b5 13 fc 77 9f 6b 5f 3f
       0.0019177491485049384
