Trained_models/20/predictor4_100_6.pth (torch, 96855 bytes, 16 tensors)

encoder1.weight f8 [53, 100]
0.00999322238174872 0.006490203690326581 -0.19239636118737677 0.11239735972117401 -0.009167324735059873 -0.10714411269154207 -0.052640520779978855 0.03359426820865529
0.10253426466260421 -0.0778945496237438 -0.0806647575910743 0.016344305015778254 0.06984572200864479 -0.04849260289057763 -0.02303822270023833 -0.007774841092471543
0.05227204437386006 0.05175035037538909 -0.16901706516353146 0.07204298732405112 0.0241895473955846 -0.046605172874083944 -0.06495507247243278 0.025922197137214036
0.12481158161708383 -0.13279495503812266 0.07484338308715259 -0.09504419973403339 0.22463051550052854 -0.11451038851195552 -0.18167992437813768 0.2695345725823831
-0.02445851819400196 -0.09523406990562554 -0.044801964428582856 0.07678201032214467 0.13489235307999436 -0.23200213118120014 0.023712137036658303 0.14626897363083766
-0.11111838765661983 0.029297730009130638 -0.02292792222958878 0.08829605920872564 -0.005440864038023047 -0.18370338475123818 0.19163139517195338 -0.1026669134940586
-0.04256663416804258 0.05493004453995632 -0.14019464868153653 0.19955496387689464 -0.21052917517481642 0.24993829355843586 -0.021460070468655154 -0.18235844187976794
0.2647395363226447 -0.2022693692310872 0.10560299030260717 -0.0727639332220162 0.0587066967190755 0.1325130017782658 -0.30221684238652097 0.2555622623487354
-0.06119032418050766 0.005822977072733752 -0.054941740093456225 0.02769022345296404 0.15954974707515662 -0.25485185423170287 0.16548203669489384 -0.002192976666155159
-0.08190010193058044 -0.010200946435593165 0.06404626228977511 0.007804409395687202 -0.06814360717771209 -0.057489745913235295 0.12459351622102792 -0.10427545701271584
-0.10930556336458627 0.15013602031538006 -0.06880596015892375 -0.10041497300397643 -0.08584479513645313 0.2105456838561462 0.017575435874580728 -0.2947847369061044
0.275610722142898 0.0625879886069338 -0.07115089906613155 -0.13018536965796498 0.09645556228582601 0.18234282557701414 -0.2702049254379627 0.06397114278817975
0.049427352693762985 0.016046405624060275 -0.04374009763325197 -0.13390619383154354 0.05242903294354804 -0.08185329688552849 0.07884234992330964 -0.09685530317319414
0.12122272266153741 -0.10739515471261392 0.13262829743834642 -0.1499183740798669 0.1503745857185544 -0.10887623708702555 0.05656455460023153 -0.034354095392055924
0.013252969325906054 -0.036345095914866704 -0.02858891640996977 -0.00964194583144228 -0.018598686447765262 0.051314284920186255 -0.11341073242748571 0.14128848364881047
-0.10865915310743424 0.07892889204279703 -0.10235461479604935 0.08367999665909526 -0.07095783719698112 0.08231188022793386 -0.1213765028115693 0.12440555661085916
-0.0462662527728603 0.0014870562460208318 -0.01661558887973866 0.03502460636664156 -0.043097649614804175 0.043718144626222664 -0.06679991447667807 -0.040266448054979614
0.009686171477895614 -0.05614036538165981 0.0010353625320164224 -0.06867678689079508 0.010661819425227696 -0.06433034449008941 0.054069818261110736 -0.08841331259491067
0.0867837569158408 -0.06875770034690867 0.057693193125543864 -0.12789502268799266 0.09620879290178458 -0.1259485933364938 0.12011385634607843 -0.16826013572284865
0.08973302135409567 -0.09535260749966061 -0.018058868982133398 -0.05172606119443794 -0.0096639181381182 -0.06914581707622566 -0.046609401279808324 -0.022832685473757535
0.019018226720090917 -0.02923466899206826 -0.08277148528297228 -0.010425596457647833 -0.10164580722807308 -0.014793896073509128 -0.015107732467140476 -0.0009327071831642651
-0.11562116847234012 -0.017582362268858044 -0.060362016564938246 -0.02556995472821617 -0.11187156494694216 0.048593317179396994 -0.06075921878277195 -0.0036626854448809105
-0.07643066256093119 0.012041726956412 -0.10070285876590718 0.0014571843274837626 -0.07454991098991534 -0.02393629608140243 -0.080505393606647 -0.026998694960971723
-0.03735133486915907 -0.04148034272968673 -0.03390079758024469 -0.07190966880599106 0.07660072246432706 -0.09305577298364626 0.02278774418826271 -0.048724218571953824
0.03299105142550188 -0.13836393460034654 0.031673052021617736 -0.0835939574549896 0.03880367979475551 -0.06429688021593066 0.03129336170106435 -0.05954420195533039
0.05083871932984644 0.018698551740260343 0.039481838377544355 0.03288479579169867 -0.27694275699294424 0.18589878613380162 0.1565080882224559 -0.2099268237984483
-0.08549344329256155 0.06595141010475115 0.15854144459264125 -0.1575705303623271 -0.06412970125335567 0.14233557685272394 -0.010525031212805796 -0.16457131026325994
-0.006166598332913336 0.1146372467916277 -0.013057771686105668 -0.1055241993731406 -0.060008763993445326 0.16280891416037607 -0.10726449067347822 -0.052398253299762367
0.08090241548014641 -0.09616126666700295 0.11296813698053132 -0.16573230664885438 0.08927766738126929 -0.08068593203013048 0.08175069002031224 0.034532757118348266
-0.25110096255595066 0.17718862925485748 -0.04430655140913482 0.04396147915867546 -0.16461917051818475 -0.04559333533175068 0.35120359373446786 -0.34013593203613635
0.003300152094806861 0.016622519908587013 0.03025328060723199 0.021690116929516317 -0.33537027988472123 0.27835158695087614 -0.11451481253246401 -0.13893926527382136
0.11368357166425107 -0.05130172172967798 0.07009653317148282 -0.19209608796243227 0.1998497160908112 -0.03349276451904715 -0.11578386181024763 0.1687061265163014
00000000: 0579 7d9a 5377 843f 6961 82c9 7895 7a3f
00000010: eba7 95a7 71a0 c8bf aec0 28c8 12c6 bc3f
00000020: fd5f 6e7f 51c6 82bf b517 f8eb cb6d bbbf
00000030: b48a 63c6 b2f3 aabf 8f15 9496 4433 a13f
00000040: c2fe 7181 af3f ba3f 53ae 2baf e5f0 b3bf
00000050: 5a1e cb0f 72a6 b4bf 2b10 13be 8fbc 903f
00000060: 3fea cac3 68e1 b13f dba0 06bf 05d4 a8bf
00000070: f6d1 38f4 5497 97bf a987 9403 83d8 7fbf
00000080: 465d 29c2 66c3 aa3f dd71 d69c 057f aa3f
00000090: 39f0 abe7 59a2 c5bf 6083 76c2 6871 b23f
000000a0: f055 e00b 25c5 983f c021 a31a a2dc a7bf
000000b0: fd78 fa47 e5a0 b0bf 6b79 c733 598b 9a3f
000000c0: d018 35dd a6f3 bf3f 1834 7bd2 6cff c0bf
000000d0: fb6a ae9a ef28 b33f fc3b 8811 d154 b8bf
000000e0: f612 e156 b1c0 cc3f da0a b685 8d50 bdbf
000000f0: 069d c5aa 4941 c7bf ba7d 98ef 0d40 d13f
00000100: 6ee7 015f a70b 99bf efaa b58f 4261 b8bf
00000110: ffdd 0878 48f0 a6bf 0537 415f fca7 b33f
00000120: 80c2 7a12 2744 c13f 6f45 03ef 3eb2 cdbf
00000130: 1ee5 5c94 fe47 983f cbfb 1415 f1b8 c23f
00000140: b62c f830 4172 bcbf 89ec f160 3900 9e3f
00000150: efb4 90d0 6a7a 97bf c1ca aa0e 929a b63f
00000160: 2046 afd1 2849 76bf b9e5 d5ae 9783 c7bf
00000170: 0c40 93a7 6087 c83f 1497 d6fb 6048 babf
00000180: 9919 4e3b 4bcb a5bf 01df bb71 ca1f ac3f
00000190: 0ca9 94f3 e5f1 c1bf 5c88 cd5d 048b c93f
000001a0: 8966 1db9 9ef2 cabf ebfe 6c5e fafd cf3f
000001b0: fcb6 54f3 a0f9 95bf 99f5 027c 8557 c7bf
000001c0: 92b1 9d18 7ef1 d03f ad3f ea72 f6e3 c9bf
000001d0: fca1 b52d cc08 bb3f bd52 8439 a8a0 b2bf
000001e0: a5e2 eddc cd0e ae3f 3e5a 77a0 2ff6 c03f
000001f0: 7f6e 964f 8557 d3bf 374b b8d1 215b d03f
00000200: c5b3 5f92 5654 afbf abe6 7b81 d5d9 773f
00000210: 0301 c6e1 5221 acbf a8ff 9870 d35a 9c3f
00000220: 62ed e248 206c c43f 0402 d026 7e4f d0bf
00000230: 950b d7ef 832e c53f 2221 fc61 01f7 61bf
00000240: 7bb6 54b3 67f7 b4bf e209 a2da 3be4 84bf
00000250: 0433 f7f9 5565 b03f aeb7 e731 84f7 7f3f
00000260: 9a7e 4204 dc71 b1bf dffa 1ac5 4b6f adbf
00000270: 9384 7655 5ce5 bf3f 3423 a5dd cbb1 babf
00000280: 0ef8 eb0b 73fb bbbf 1763 9a38 a837 c33f
00000290: 6307 a774 449d b1bf 6baf 14b1 cbb4 b9bf
000002a0: 2e94 a4ab ecf9 b5bf f2f0 3c35 29f3 ca3f
000002b0: f454 2d89 4bff 913f a6c9 17cd c0dd d2bf
000002c0: d3f6 8127 9ba3 d13f 7f6f 3034 c405 b03f
000002d0: 9ded 9100 f236 b2bf eb9f 8c08 eaa9 c0bf
000002e0: 1bf0 88cd 4fb1 b83f a2ba 417c 0257 c73f
000002f0: c658 7e99 094b d1bf f2b8 29ae 6960 b03f
00000300: a2f4 b1be 8a4e a93f 6ca8 7e0d 786e 903f
00000310: d6a2 b721 1a65 a6bf 2781 9e91 d623 c1bf
00000320: cdf6 b46b fad7 aa3f 8b70 3171 56f4 b4bf
00000330: f9dc 7522 032f b43f 59b2 9257 82cb b8bf
00000340: 8e06 5dcd 7308 bf3f 4d52 3db5 3f7e bbbf
00000350: 42cc 02cc f6f9 c03f fa0a df78 8630 c3bf
00000360: 52c6 e773 793f c33f 61ae 9925 50df bbbf
00000370: 99d9 3d80 07f6 ac3f 3195 6228 dc96 a1bf
00000380: 8f23 a36e 5f24 8b3f 540f a60c d39b a2bf
00000390: 871c 09b4 6946 9dbf fb74 2010 28bf 83bf
000003a0: 15b6 2ab8 880b 93bf c982 19af dd45 aa3f
000003b0: fb9c ca5a 7c08 bdbf 6a5a 49b4 bd15 c23f
000003c0: a8ea 0115 16d1 bbbf 2d88 0812 af34 b43f
000003d0: 28ca 247b e933 babf 9cee fa60 0d6c b53f
000003e0: c8ea 27f6 4a2a b2bf fdb7 a631 6412 b53f
000003f0: 571b 14ce 8712 bfbf c795 15e5 0ad9 bf3f
00000400: 5ac4 22d5 35b0 a7bf 8c09 6a7c 2a5d 583f
00000410: 1979 5e4b ad03 91bf a7cc ccc5 beee a13f
00000420: 0996 4227 e510 a6bf 3ba6 d282 3962 a63f
00000430: c68c 0d98 cc19 b1bf 7460 0bcb cd9d a4bf
00000440: b5a0 c4ed 57d6 833f d474 9912 6ebe acbf
00000450: 229a ba0d a0f6 503f 3bb9 b049 cd94 b1bf
00000460: 7c49 fa2d ddd5 853f 65b0 b915 f477 b0bf
00000470: 18a7 430a 0aaf ab3f 6e4c 203e 41a2 b6bf
00000480: 850d c7d5 7537 b63f 6290 56ca 1a9a b1bf
00000490: ad1f 5a53 f689 ad3f c70f e235 dd5e c0bf
000004a0: 24ce 19b3 23a1 b83f bdc0 ad60 151f c0bf
000004b0: 8287 cd1c c8bf be3f 5238 1352 8c89 c5bf
000004c0: e04c 1648 bef8 b63f 4ba3 cc4a 0769 b8bf
000004d0: 255b b92e 067e 92bf c6ac 5c9a d67b aabf
000004e0: 0de4 d522 adca 83bf e661 ff4e 8ab3 b1bf
000004f0: 56a7 5dfc 2fdd a7bf 8bfe 8e95 7361 97bf
00000500: 44ae 2997 8379 933f 9ad8 eb6c b1ef 9dbf
00000510: 07eb 5416 8330 b5bf f978 9dde 035a 85bf
00000520: b3f1 d1a9 7505 babf c776 871e 434c 8ebf
00000530: 7f99 e786 cdf0 8ebf f482 996c 1d90 4ebf
00000540: c562 5051 5999 bdbf 8a84 b95b 1c01 92bf
00000550: 7350 222e c5e7 aebf b384 459d 022f 9abf
00000560: 2fa9 cc68 9da3 bcbf 94e8 2d28 39e1 a83f
00000570: c67c 3413 d51b afbf 040a 7146 3501 6ebf
00000580: 1d5e 1cbc f590 b3bf 2ca1 b83b 55a9 883f
00000590: 3466 039d a9c7 b9bf 0068 f8c1 dfdf 573f
000005a0: e613 9ff5 b315 b3bf 7690 6da3 c182 98bf
000005b0: 2931 b160 009c b4bf 7c76 91bf 8ba5 9bbf
000005c0: ed30 73d3 b61f a3bf 34d9 e656 e93c a5bf
000005d0: 13b8 d401 725b a1bf 52b5 c90b ac68 b2bf
000005e0: e291 d5dd 1a9c b33f ec33 abcd 80d2 b7bf
000005f0: 881e 27a0 ab55 973f 3b53 947a 61f2 a8bf
00000600: 64ca ddfd 33e4 a03f a3f5 06cf e8b5 c1bf
00000610: 7fd8 3145 7337 a03f c492 69e1 6966 b5bf
00000620: 1fa9 5d6f 13de a33f ec22 c3a5 c275 b0bf
00000630: 720a 2dfa ae05 a03f 700e 21e0 937c aebf
00000640: 35d0 c859 8807 aa3f 1bf3 d390 b625 933f
00000650: 5d2a 3ca9 f636 a43f 2006 eca4 46d6 a03f
00000660: 7685 091d 6eb9 d1bf 84c7 670b 88cb c73f
00000670: 89ca 3c00 7508 c43f 1c3d 62d5 e1de cabf
00000680: 8dc7 f6f6 e5e2 b5bf c165 860d 31e2 b03f
00000690: ba01 cb07 164b c43f de1a 5c69 452b c4bf
000006a0: 9ddd 95d9 cd6a b0bf 21e3 d15b 0d38 c23f
000006b0: 837b c9c6 258e 85bf 9e64 b835 ac10 c5bf
000006c0: 06cc ada2 2542 79bf 229f dfd9 dd58 bd3f
000006d0: 40bd cd72 08be 8abf 5f85 3e49 a203 bbbf
000006e0: 8d84 a6fd 77b9 aebf 8675 e828 ecd6 c43f
000006f0: a9f5 7687 af75 bbbf 557b 94a0 f1d3 aabf
00000700: 0796 a74c 05b6 b43f d609 7a57 069e b8bf
00000710: 4049 d2d5 7aeb bc3f cb46 795a b736 c5bf
00000720: 776c aab5 e6da b63f 8d12 514f d5a7 b4bf
00000730: 720b 10fc 9ced b43f a393 ed0c 47ae a13f
00000740: e100 8bc5 0912 d0bf 09b4 eff3 1dae c63f
00000750: 6aff 992a 59af a6bf 5464 8a76 1e82 a63f
00000760: c8ca d5b0 3d12 c5bf 4eb3 5478 0258 a7bf
00000770: 02f1 54a3 1e7a d63f 308a 1280 c9c4 d5bf
00000780: 486c 35aa eb08 6b3f c8b7 896d 7e05 913f
00000790: 4316 384b b7fa 9e3f 0b4c 6f1b ef35 963f
000007a0: 86ef 09e8 b476 d5bf 0099 af2c 83d0 d13f
000007b0: 7208 bcbe d750 bdbf 439c 3d08 c3c8 c1bf
000007c0: 43f3 63d6 5d1a bd3f 546b 1d22 3844 aabf
000007d0: dad4 88ad d8f1 b13f e07c bec7 9a96 c8bf
000007e0: 26ca 5ced ac94 c93f 901c 86b0 f625 a1bf
000007f0: 442d e1db 02a4 bdbf 76dc 0290 2998 c53f

encoder1.bias f8 [53]
-0.015298511381929464 0.9728443686699041 -0.11343921870035896 -0.23526261293028425 -0.09088495026321086 0.10107732741088919 -0.16676484473188075 -0.07979583069178141
-0.22633591488691665 -0.27609565244472867 0.2202562244143967 -0.12704099555663706 -0.46673296499532446 -0.04169945631966811 -0.28597231374072407 -0.10566158505633912
0.07938144170265286 -0.2304776762489638 -0.004671184951477227 -0.06591732853292133 -0.7230146785766437 -0.22456650250397842 -0.0272951156611646 0.1830750518154919
-0.1435251085561388 -0.09192908078247268 -0.08420063741957916 -0.049404404654161474 -0.1459804487109763 -0.23020639594506967 -0.3002734476066934 -0.7358816613913358
-0.058337643424762185 0.1631783214761956 -0.06425034701837089 -0.1411821881312007 -0.08279888600440892 0.01873512132248537 -0.5733583507250569 -0.10527716239029483
-0.090034637287567 -0.13755738806898807 -0.05644763664642283 0.0011066620835417473 -0.21013906958133355 -0.10437879887055967 -0.1000219366026321 -0.0490917364041295
-0.09362473660240979 -0.32493196275934794 -0.041509238351786756 -0.14114375569643417 -0.08780235938518338
00000000: 6ac2 8070 d354 8fbf c31e 7183 8a21 ef3f
00000010: 8dde 6646 5a0a bdbf ebe7 40d6 151d cebf
00000020: 683e 1471 3c44 b7bf 63cb 9827 34e0 b93f
00000030: 267b 1fe9 8c58 c5bf 9fa8 2de3 7f6d b4bf
00000040: f1bd 2c44 93f8 ccbf 5858 7419 8dab d1bf
00000050: abd5 4c20 5b31 cc3f 7c61 951c e142 c0bf
00000060: 98ae 27f1 f3de ddbf 32d3 4e92 a159 a5bf
00000070: aefb c4d1 5e4d d2bf 0db0 423c a30c bbbf
00000080: 83b0 0598 5752 b43f 9943 f9e0 4a80 cdbf
00000090: 8243 9aa9 1722 73bf b1e0 4942 f5df b0bf
000000a0: e777 e0ad ef22 e7bf 660e 045c 98be ccbf
000000b0: dfc3 6b34 40f3 9bbf dd69 21d8 006f c73f
000000c0: c5a4 b3df 075f c2bf 8316 830b aa88 b7bf
000000d0: 6ffa 0448 2c8e b5bf da33 89bc 884b a9bf
000000e0: 95d6 88c2 7caf c2bf 4501 f536 6777 cdbf
000000f0: 9afc 541f ae37 d3bf a3dc acb2 578c e7bf
00000100: fb26 457d 6ede adbf 0c06 14f9 06e3 c43f
00000110: 8357 33f3 b572 b0bf 968e 6608 4212 c2bf
00000120: 43bf 88cb 4e32 b5bf 8977 77b5 4c2f 933f
00000130: 7115 a89c f358 e2bf 3064 7bb1 71f3 babf
00000140: 4846 a88e 820c b7bf 8b2c 8a01 7b9b c1bf
00000150: e06e aa62 b4e6 acbf aede 375d ad21 523f
00000160: 645a bb47 d6e5 cabf 0879 8ba7 91b8 babf
00000170: 9544 97a2 099b b9bf 071c b854 8d22 a9bf
00000180: 99d0 cd6d caf7 b7bf cd7e 5e6e afcb d4bf
00000190: 7ed4 67ea b240 a5bf 2a1a 60a3 ff10 c2bf
000001a0: 242d 1226 377a b6bf

encoder2.weight f8 [6, 53]
0.05725211058281084 -0.3701668439256062 -0.045967488310751134 0.15661984359581663 0.2591740603773762 0.455401831890471 0.46788823115503175 0.47543356922682617
0.5626186253219824 -0.025102649836524 -0.08325735292539921 0.5245847318139181 0.21564397206011007 0.473764896393271 0.055586029279688864 0.4026462110385036
0.43841406697440105 0.1479413484597442 0.5503217871832855 0.1558134359333833 -0.19025927329858988 0.47679876163807716 0.6649590699641708 0.2889864380168045
0.5278034643030522 0.48154771793430007 -0.113864253968943 0.046883147353162985 0.2655197687514467 -0.1061946661833981 0.10499237397228552 0.7057570417905938
0.5011084860306262 -0.21987944185152306 0.3026072754170252 0.41069250014384046 0.11029945118388375 0.5284951004840176 0.6521806233824143 0.05490050301963214
0.331236952382628 0.1576621654074866 0.3297947470390375 -0.054347931875716265 0.5515726186073296 0.4783649247594104 0.17588521510213107 0.4547225601197455
-0.08471043368223548 -0.06974776004589438 0.382243521230108 0.03238293481406897 0.2595964602999924 -0.008379419571001915 0.2690138189193482 0.22322434093007693
0.25243174742882774 0.04353505933551671 0.11848136072761148 0.05983138929582563 0.10611448549934198 0.19029985190410864 0.018268930036310395 0.7632336164697774
0.05584330142423125 0.19903102970669126 0.053487213095115414 0.3262242716453018 0.09880671523328338 1.1862110170015727 0.28925036267126464 -0.09485668941876972
0.14022634189013228 0.2806468915152276 0.1294379591385611 0.1747078829550571 -0.048098501933561154 0.13991953720166464 0.13000569710591448 0.3187452915224062
0.12716429737374793 0.1300355170884606 0.24846207972069745 0.1549544580476489 0.09433544359432752 0.1592774987655282 0.09168128632134369 0.15875446348239614
0.19104462530187388 0.051446478255812424 0.172776818465714 0.06656841790448373 -0.012988026334969977 0.1364317212558171 0.23095391953449892 0.09811629852491917
-0.11208607878256326 0.08526658089031702 0.1411105951340748 0.08401268063276772 -0.24927286885531494 -0.06441805468149367 0.37123648046897545 0.09495560021262099
0.16541279033632525 0.030003904800332454 0.03287553893317772 0.03649412208982038 0.17237596814624306 -0.14983482713917953 0.1881922460231147 0.2986248487458453
0.19504181189053768 0.20227843041103036 0.24002738572112298 0.11780805742246661 -0.1384467134544698 0.15724543437058766 -0.3398109280570999 0.2259895083765867
0.16504981565326618 0.17546644802949188 0.616718330417215 0.21446909689784435 0.35509381204428464 0.15172474171329645 0.5867946536613989 0.25164163828511643
-0.23170310629021454 0.33445904666543863 0.178585049605438 0.21734399978869717 0.08887633766213854 0.10249720536199448 0.18973745723160143 0.07404102267357515
0.18613052535340474 0.33054747541848445 0.2251572317897307 0.8473274632062325 0.19416553311586457 0.12097698106210286 0.08138412104593747 0.2376912513761617
0.23925939733894497 0.3249287679207852 0.18975918065310426 0.16768493921211097 0.17014915269804562 0.13488547490831712 0.12106341894552859 0.2203602265944344
0.123905150760655 0.03894261512412068 -0.06169199936099978 0.22447543653400132 0.15758666085559087 0.2511958144741208 0.062269037807655615 0.14193355510545955
-0.3063229583368543 -0.03626282324195856 0.6061624700747474 0.22743596479769537 0.41514379179760846 0.400944979083501 0.3769871921053538 0.48015914943237864
0.0916319831713134 0.5216434415883524 0.48762188347987623 -0.1506627365117993 0.34655985993342797 0.09855405098731011 0.3282107897908114 -0.2137940925742234
0.1151866541403436 0.11109457080242843 0.23308692850370055 0.24467145550404776 0.42701211856858745 0.17125340729020927 -0.038523572014310475 0.41351328284683947
0.3337979041307687 0.0924706938925286 0.12524617640766184 0.2541904915429219 0.1585156190872662 0.07096693182342587 0.4592980754238462 0.38932983714474323
0.45020226579346173 0.27276883926338036 0.446634380350922 0.146458960818825 0.45513873725031745 0.6113434113768214 -0.19039204713213836 0.31823478494536694
0.15755669713305862 0.24610312516187202 0.036911760913448007 0.4037191697104285 0.38372478132055965 0.1800483579829891 0.5326755856859666 0.16151977449176944
0.022220544695218537 0.30887282870270905 -0.03028013187521735 0.21477731568636066 0.5551653329800362 0.14722803490571934 0.6400742858098141 -0.10748342038327889
0.5003617966215332 -0.01023346521324235 0.0724309097741118 0.08827179531442457 -0.049185132107109404 0.7358134899502482 -0.04309681420650013 0.01909223249413933
0.7194672979069482 0.11091326786824833 0.6478126314095203 0.14900524542505209 -0.16958542721631073 0.5936785438179606 0.006352043629246418 0.5381125453701711
0.7813912481613986 0.07708268307807549 -0.042245225130656226 0.06732815825777744 0.02451087549059696 0.1592020872999681 0.7452273919260323 0.5524895821064362
0.4948610514377997 0.8215724171492395 0.7047205408412455 -0.16188489473769266 0.15817828096473419 -0.1312995052814822 0.3159012859155103 -0.09872825009151183
0.48302515012698494 0.018421893512298983 -0.13706899604748624 0.6558465229361449 0.25638023452524633 0.5712730572977952 0.32529212575909655 0.6074299080898556
00000000: 2b09 290d 2650 ad3f 4356 2e46 d0b0 d7bf
00000010: 0ea8 f2f5 0c89 a7bf 8907 1379 1e0c c43f
00000020: 08b6 52cc 4e96 d03f 1a84 a0b9 4d25 dd3f
00000030: 26a0 bf7a e1f1 dd3f 3dfc cfeb 806d de3f
00000040: c91b 7cc6 f800 e23f 62fd 5c50 82b4 99bf
00000050: 9c53 f797 5a50 b5bf 0ae5 63eb 65c9 e03f
00000060: 6bf2 c9bf 389a cb3f 941f 0000 2a52 de3f
00000070: 88d4 bda3 c575 ac3f 2c32 119d f4c4 d93f
00000080: e1ba f0df f90e dc3f c52c aefa bdef c23f
00000090: bc4f c76f 3c9c e13f 2d3e ced5 b1f1 c33f
000000a0: 7601 4a76 6a5a c8bf d990 00f4 de83 de3f
000000b0: 0e97 553e 5847 e53f df42 11f9 c07e d23f
000000c0: 26b5 3c17 c4e3 e03f aa70 ff84 add1 de3f
000000d0: 73e4 fa2e 3526 bdbf 9c13 3b61 1101 a83f
000000e0: 0fa7 cea0 46fe d03f de6f 44da 922f bbbf
000000f0: 8d55 8abc c7e0 ba3f 9c31 adca 8f95 e63f
00000100: d3fc e7a9 1409 e03f bf52 e871 0225 ccbf
00000110: 8fa8 dce7 ea5d d33f 2523 3532 c948 da3f
00000120: d1fd 99b7 953c bc3f 559a 958e 6ee9 e03f
00000130: 4665 10e6 a9de e43f 83ac 0132 eb1b ac3f
00000140: 3972 6d79 fc32 d53f f1ef 1e1a 462e c43f
00000150: 7137 3b6d 5b1b d53f 1cdb 05fc 7dd3 abbf
00000160: b533 c99e 7ba6 e13f 704a d9ea 879d de3f
00000170: 8856 5b1f 6883 c63f cfee 1da7 2c1a dd3f
00000180: cd90 4b3e 95af b5bf 8bca 5d3c fdda b1bf
00000190: f3a2 b287 ad76 d83f 8229 f3fb 7e94 a03f
000001a0: 4655 c978 3a9d d03f a2a4 22a8 3a29 81bf
000001b0: 0b90 9bbc 8537 d13f 78a0 fb7d 9d92 cc3f
000001c0: df73 eb7c d727 d03f 30a3 2630 3a4a a63f
000001d0: 46bb 8261 cb54 be3f 6c81 9948 38a2 ae3f
000001e0: 87fe d9a4 512a bb3f 224f 2edc be5b c83f
000001f0: 4acc 2724 17b5 923f 8b41 bee7 686c e83f
00000200: 45af a242 7e97 ac3f 675e bd49 d979 c93f
00000210: 03d3 fe0d ad62 ab3f 0331 78c4 dbe0 d43f
00000220: dc58 8d9a 654b b93f 94d3 4267 b8fa f23f
00000230: c1de 01f4 1383 d23f 2346 dc2a 8748 b8bf
00000240: bc58 3ad0 eff2 c13f ac0b 3261 1ef6 d13f
00000250: aa38 ae4c 6c91 c03f 5b9b d2f1 d35c c63f
00000260: 231d 95e9 5da0 a8bf 2922 2d26 e2e8 c13f
00000270: f089 aed4 06a4 c03f 23ef b5a6 5266 d43f
00000280: 5133 3871 eb46 c03f 4750 9bfa 00a5 c03f
00000290: 3c28 59fd 9acd cf3f 268f d734 8cd5 c33f
000002a0: be5e 171d 5e26 b83f 4ce3 1780 3463 c43f
000002b0: 33c7 67be 6c78 b73f 121e 60f6 1052 c43f
000002c0: 7ac2 df78 2674 c83f 25c8 345b 3157 aa3f
000002d0: 0b99 6800 8d1d c63f c6a1 d8b9 a00a b13f
000002e0: 7d48 c962 7799 8abf ea21 773a 9876 c13f
000002f0: e74f a4e5 e58f cd3f 657d 5e55 261e b93f
00000300: bf3e b55a acb1 bcbf 409b 5dd8 07d4 b53f
00000310: 4227 9c77 e90f c23f 135c c4e3 da81 b53f
00000320: 17c0 c161 2ce8 cfbf 3203 219e b37d b0bf
00000330: b191 aca7 56c2 d73f db39 7c9d 024f b83f
00000340: e3d4 6a0e 3f2c c53f 4599 7af7 57b9 9e3f
00000350: eddc 1c09 10d5 a03f 0e78 be89 5baf a23f
00000360: 46f8 e66c 6a10 c63f ddaa 2ea1 c92d c3bf
00000370: 21d9 03fb ae16 c83f feb9 c865 ab1c d33f
00000380: 9f12 b64d 21f7 c83f 699a a675 42e4 c93f
00000390: 5e86 e8a5 37b9 ce3f 6ab4 d539 ab28 be3f
000003a0: e047 4335 9fb8 c1bf 1393 084f 9e20 c43f
000003b0: a608 b555 76bf d5bf 2cb8 db65 39ed cc3f
000003c0: 9586 3834 5a20 c53f 617d ea3f af75 c63f
000003d0: 888a 7f14 28bc e33f 15e6 962e b973 cb3f
000003e0: c57f 6f65 dbb9 d63f 358a d361 b76b c33f
000003f0: f72f de94 05c7 e23f 9ec5 af87 e51a d03f
00000400: 65f4 f287 72a8 cdbf a3e1 d1ea c667 d53f
00000410: 0111 cef9 dfdb c63f 2e82 899d edd1 cb3f
00000420: d8aa a583 99c0 b63f b90e f6c0 413d ba3f
00000430: 0d66 d126 5149 c83f b805 f23a 5af4 b23f
00000440: e20f 9703 20d3 c73f 03a8 2c99 b027 d53f
00000450: 1d55 7fc1 f3d1 cc3f 3126 ef7b 4e1d eb3f
00000460: 0b1c 5f8b 6ada c83f e004 3bf1 58f8 be3f
00000470: 7556 4efa 96d5 b43f e65b 9abb aa6c ce3f
00000480: 906c 6a4b 0da0 ce3f 4af5 ef07 a2cb d43f
00000490: d8aa 8261 074a c83f 5a50 f938 b376 c53f
000004a0: 1fde 238b 72c7 c53f 2be4 b75f ed43 c13f
000004b0: 0ded 1c21 03fe be3f a7f7 478f c334 cc3f
000004c0: b0ad 527a 3fb8 bf3f d1f3 c154 49f0 a33f
000004d0: 7056 5cff 1796 afbf 2e9d 5571 9cbb cc3f
000004e0: be8e 54b9 cc2b c43f 5bbd 039c 9713 d03f
000004f0: a5e1 df31 bae1 af3f eb04 b1f4 e02a c23f
00000500: 5487 049c cb9a d3bf d709 c56f 0a91 a2bf
00000510: 6813 21d6 ae65 e33f 71c2 5e27 9f1c cd3f
00000520: 511f 3a44 b791 da3f ba2d 2a21 15a9 d93f
00000530: 849d 46e3 8e20 d83f cbfb eb70 edba de3f
00000540: a908 fd92 3175 b73f 7e6f 3996 4db1 e03f
00000550: 180a 976a 3235 df3f 34a3 05a3 ea48 c3bf
00000560: 764e 2168 092e d63f ebf9 e099 d63a b93f
00000570: aa22 16d4 6701 d53f af96 d7d5 9a5d cbbf
00000580: 9aeb 7760 df7c bd3f de0d 5c9c b170 bc3f
00000590: ba34 86df cad5 cd3f 13ca d3ed 6451 cf3f
000005a0: 42db 0fa3 2a54 db3f 12ec d1b3 a1eb c53f
000005b0: a466 da93 5cb9 a3bf 437b 926a 0077 da3f
000005c0: 7ac2 6de2 f15c d53f b059 1bce 28ac b73f
000005d0: aa5a cf13 1108 c03f 8962 0832 a844 d03f
000005e0: bc47 f163 3d4a c43f 8271 478b e32a b23f
000005f0: 0fea 43c1 2365 dd3f 0632 79b1 c7ea d83f
00000600: cdc0 0a2a 1dd0 dc3f 2a43 006f 0b75 d13f
00000610: 8317 385e a895 dc3f d324 76cf 2abf c23f
00000620: 9f80 e839 fe20 dd3f f9a1 cf0e 2090 e33f
00000630: 62ee ec3f c45e c8bf 728e 726e f55d d43f
00000640: c7e3 b95e d12a c43f cbbe 01a5 4e80 cf3f
00000650: 290c ec2b 19e6 a23f 0f2c abed 88d6 d93f
00000660: 86f0 9b62 f28e d83f db22 9e18 d30b c73f
00000670: 90c3 7cab ad0b e13f 9bba 8c12 aeac c43f
00000680: eaa2 0f83 fbc0 963f 5eac 798a 92c4 d33f
00000690: 9591 7d40 c101 9fbf cad5 65b5 d27d cb3f
000006a0: e9b5 a016 eac3 e13f 80b9 7c45 5ed8 c23f
000006b0: e609 9211 7d7b e43f 138d 688f 0884 bbbf
000006c0: 8208 15be f602 e03f 9735 5373 48f5 84bf
000006d0: bf07 b304 d58a b23f 73df 08fa fa98 b63f
000006e0: 51ee b22b cb2e a9bf 9457 69bb c88b e73f
000006f0: 2f4c 281f c910 a6bf 3109 ae08 ea8c 933f
00000700: 9ba8 6148 e005 e73f f3c5 2fda cf64 bc3f
00000710: f0dd 3a8e e1ba e43f 0f3b 0498 9a12 c33f
00000720: dbd8 e2ab f9b4 c5bf 141f 4125 6aff e23f
00000730: 4df3 67ba 9904 7a3f 97d4 fdcc 3738 e13f
00000740: 837b 0738 2801 e93f 2d84 e8d2 b0bb b33f
00000750: c357 b288 2aa1 a5bf 442b d10d 6b3c b13f
00000760: 4686 8302 6119 993f 2c43 34e7 bb60 c43f
00000770: 5bfb 8c1d e7d8 e73f 26e4 d0a1 fead e13f
00000780: 5a54 ffaf cdab df3f f173 de3c 524a ea3f
00000790: 4f71 7717 128d e63f 85b1 4eec a4b8 c4bf
000007a0: 142c d797 2f3f c43f ee1c 9514 6cce c0bf
000007b0: a35f f106 ba37 d43f 1d98 552d 4146 b9bf
000007c0: 8d37 bc51 e2e9 de3f 2ab2 a958 30dd 923f
000007d0: 98e5 a813 7a8b c1bf 0398 e6d8 b1fc e43f
000007e0: 8f1c a8a4 8868 d03f 45c2 456f de47 e23f
000007f0: 5f06 7210 96d1 d43f 8176 bbd8 1070 e33f

encoder2.bias f8 [6]
-0.904828099964483 -0.1583770263882425 -0.41321791468794056 -0.6573917316708308 -1.0050864735530838 0.0618435089593872
00000000: 3f2d 3b0f 5af4 ecbf c13a 63ca b245 c4bf
00000010: 7a2f 6d8d 2972 dabf 1dfc 8562 5a09 e5bf
00000020: daff d88d d514 f0bf 84a1 e6d0 f3a9 af3f

decoder1.weight f8 [53, 6]
-0.48084292439420573 -0.017721351147593066 -0.07894553584273041 -0.34435745726792527 0.6408281968042199 -0.1056936950695842 -4.551563742065765e-05 -9.357171618662325e-05
-7.551804936943848e-06 9.097484966696679e-05 -0.00017106001800474982 -4.843953509753658e-05 0.04239914342414013 -0.20160151024304268 -0.24634144489746507 -0.21328192827077108
0.37295736742835445 0.08274725793665923 0.2376466523322084 -0.03983176093558077 0.3118157094777262 -0.29367181302080037 -0.23926663550709973 -0.04511135426362649
-0.3596215556708517 -0.08940375120068501 0.515180955868208 0.2536913900029806 -0.09613328617289964 -0.04682892861317142 0.15656310513325666 0.055743483138000094
-0.004284839361442333 -0.43400201038971303 0.22163355764289366 0.008842150970226993 0.6337266977561228 -0.6196536844776798 0.47945717912755303 -0.5578604974483297
-0.24321165659533406 -0.3106504874575253 -0.23350943296416157 0.01819645698731525 -0.32795393572835896 0.1441534746516984 0.2677753333555058 -0.009747406534702739
-0.3056618151715895 0.32869466510755985 -0.11725365998410668 0.14639063162823288 0.25002430777120993 -0.8788605537737244 -0.138519184470704 -0.005714773396608294
0.34971487139161334 0.03464874112849228 -0.3743795912617624 0.11272093953763787 -0.24447882326181422 0.05421690537906716 0.19172246703279747 0.04822129115314242
-0.023706815167595034 0.019927269968384204 0.06805930487179908 -0.23572259126991954 0.14704681560287053 0.14384037269558272 -0.11126164527669322 -0.1230308794381904
0.17605932975547603 -0.38516756007508574 0.4160977469070599 -0.6823358946699821 0.2545401508096035 -0.2547866177641636 -0.44097770862625657 -0.7094763999939896
-0.35445289594125406 0.43359990645654345 0.4012070687841321 0.0799937275754748 0.3707669833908822 -0.01306855126795336 -0.044831135190840726 -0.19924201101926545
-0.05175974776010652 -0.12509475941702133 -0.4471592360347028 -0.10164321556889666 -0.014800599728664956 0.104204534259667 0.2246843832304534 0.24794444207413227
-0.043969378471117676 -0.1712881377772644 0.2728397169149177 -0.41540444168130225 0.22946984836109122 0.016426319865937285 0.17578990881739717 -0.3579494043345012
0.22552663942357495 -0.014445484755998841 -0.1129248733824117 0.022441400390888256 0.42790162399138415 -0.20476056034267448 0.007325616132451042 0.2965195931395201
-0.936105781960373 -0.11890537312390022 -5.174064062339476e-07 3.762952757619109e-07 2.9395053248666244e-07 1.7170865953640308e-06 -1.02574581109231e-07 -1.8809946321848602e-07
-0.1492559464970556 -0.11391968004393722 0.24152513196197006 0.2613890137638358 -0.2144333459335106 -0.09818175349532395 -0.13199193305579557 -0.25244564420749044
-0.12223696437163895 0.4600146362317822 -0.05947304112303967 0.05564576663438782 -0.1539635057592327 0.09588469254532346 0.2626095121504024 -0.2012377295523264
0.24129320997406015 -0.27310444042595494 0.23822516269065128 0.30128687681582605 -0.22164559782228055 -0.10212670626619025 -0.22848168789023418 -0.04067193581933664
0.715684411934409 0.06916507289543349 -0.8519772168470386 -0.316453735266533 -0.2502554655955104 0.04281491357301286 -0.05427413999944055 -0.9667355823830295
-0.3866822457854083 0.7299578796785977 -0.1469283056475053 0.07893790679218045 -0.029247879750111738 0.3008624294092387 -0.27451836648222505 -0.18770018286873366
0.2712307765565094 -0.15539830426994175 -0.21281652125036385 0.22349573349414836 -0.05039808357633616 0.32873932366398695 -0.33160449903350125 0.04457004391258908
0.37758483434977186 -0.14087398774094823 -0.1061224609053382 0.1655960955266891 -0.821339860259778 0.032013194914859 0.05775287736858786 0.09114249084367639
-0.3911366998025295 0.20783650946157295 -0.19761156392482246 0.17789802372046123 0.2928944505116094 -0.31379993787965565 -0.23052375282860849 0.11105292599080023
-0.025987429156960118 0.02455142455423937 0.3629006318188863 0.007818021062463107 -0.11730746951667294 -0.29581410065385483 -0.24325899221662273 0.2474477710085516
-0.15857517236251348 0.24940569945461227 -0.2773573802620353 -0.2415947988800802 0.19600628345681118 0.21318725851905027 0.02978683810778869 0.13469271521977333
0.2825479419142793 0.13354835337545226 -0.30914912443190157 -0.28330100046411183 0.35590527219777146 -0.3767196410451602 0.3305683295088702 -0.3668823955086983
0.11680324135362777 -0.22842451973483263 0.06774819997747175 0.05988667784478254 0.09573149472182232 0.11900854454348465 -0.4034168984920331 0.23694127518140307
-0.09185386685566155 -0.1838297579756828 0.16841040736573515 0.13508730621473686 -0.3024468482087471 0.2767758663585451 0.032473923380117266 -0.17715629317801213
0.07141831514462763 -0.19466461528290382 -0.030515081707102543 0.5320247404059121 -0.00742164424910613 0.18872648497726097 -0.08685464087666528 0.24304872749343864
0.09466202266105028 -0.6587347863609616 -0.04753037773374568 -0.5286684555396168 -0.2076264229974107 0.3875270243357154 0.1406332397953561 0.015620489173900727
0.06392622138086002 0.2845038811172361 -0.16413317127209404 0.45407075742134356 -0.26491970361172174 -1.0706022253390657 0.13388672364315987 0.39630964708424204
0.19587717834763554 -0.3320502193501243 -0.09849572833530855 -0.047879747013532065 -0.3056332854724624 -0.31601880639191476 0.20569506058979756 0.021089622677533545
00000000: b24f b266 21c6 debf 76b8 7abe 8b25 92bf
00000010: cd16 9c4e c635 b4bf 7f5d 46dc f309 d6bf
00000020: ef1e 7422 aa81 e43f 649e b7f3 bd0e bbbf
00000030: 2a9a b764 01dd 07bf a29f e9d7 7d87 18bf
00000040: defa af55 b0ac dfbe 440f 2d04 38d9 173f
00000050: d005 b05d d26b 26bf 06a2 abc0 7165 09bf
00000060: 372b c52c 57b5 a53f c2b6 a80a 14ce c9bf
00000070: aaf3 bdd0 1d88 cfbf 8c19 607d d24c cbbf
00000080: e90c fa93 88de d73f cdef ab9e ec2e b53f
00000090: dda6 e29b 346b ce3f 08ee 1e1d d464 a4bf
000000a0: ea7e a5e0 c9f4 d33f 7a9b 2bdc 84cb d2bf
000000b0: f572 4303 4aa0 cebf d628 7bde d518 a7bf
000000c0: b7bf 2221 0a04 d7bf 19f2 8b0b 2ae3 b6bf
000000d0: 2b3b 9fc5 5c7c e03f babb d5cf 7a3c d03f
000000e0: c16b 2be8 309c b8bf ccf2 cc19 f6f9 a7bf
000000f0: b45d 2784 420a c43f d8ee 15ea 688a ac3f
00000100: 20ee d0ce fa8c 71bf 9769 415e b0c6 dbbf
00000110: aadc e208 7d5e cc3f fa85 f269 d51b 823f
00000120: 33de 2e36 7d47 e43f 63ae b5f6 33d4 e3bf
00000130: 34db 0b2a 6daf de3f f2aa 0842 fed9 e1bf
00000140: dc9d 8a3f 8f21 cfbf 3875 0795 b2e1 d3bf
00000150: efbc f118 a3e3 cdbf 0e84 a78e 17a2 923f
00000160: f40e 2381 32fd d4bf 79ed 9dfd 9e73 c23f
00000170: 49fe db26 3b23 d13f ff85 4cc2 72f6 83bf
00000180: 0012 f392 f68f d3bf d26c 4059 5509 d53f
00000190: 9bd1 f7fa 5504 bebf 895b a49f edbc c23f
000001a0: cd45 45f4 6500 d03f aa7b 062b a01f ecbf
000001b0: 3ccb 9523 ffba c1bf f0cf 7acd 5f68 77bf
000001c0: 1b51 e37b ba61 d63f d427 fdd3 7abd a13f
000001d0: 5f95 30d1 d5f5 d7bf e277 e38c 47db bc3f
000001e0: dfad 3c03 154b cfbf 8aa1 fc76 51c2 ab3f
000001f0: 173b e89e 5c8a c83f 0d81 f208 76b0 a83f
00000200: 8e3a 596f 9946 98bf 9847 4073 d067 943f
00000210: 15e5 9ca8 556c b13f 0b62 376a 282c cebf
00000220: 0e65 ff17 6ed2 c23f 9d36 4980 5c69 c23f
00000230: 7e36 c3a7 a47b bcbf 2bcc 95a3 f37e bfbf
00000240: 294c bab3 1c89 c63f bd2a 80d6 95a6 d8bf
00000250: 48ed b971 58a1 da3f bbd2 0f16 b2d5 e5bf
00000260: 01c1 cfc5 624a d03f b15a b087 6c4e d0bf
00000270: 8125 3491 fa38 dcbf 8941 e8d9 07b4 e6bf
00000280: 4492 0233 5baf d6bf 8ce3 71d2 19c0 db3f
00000290: 0985 d669 60ad d93f 5461 d20b 787a b43f
000002a0: 306d 0671 a5ba d73f 7d69 6a42 afc3 8abf
000002b0: 5474 f946 1bf4 a6bf 0194 a820 c380 c9bf
000002c0: d3fa c1ef 4080 aabf 996d 4ce6 1a03 c0bf
000002d0: ade5 b7c5 419e dcbf 608b ba2e 4a05 babf
000002e0: aecd 5dde c64f 8ebf 867c bdfa 25ad ba3f
000002f0: fdc7 f236 75c2 cc3f 7d78 f7ba a4bc cf3f
00000300: bc27 1e85 2783 a6bf 9119 f90a c5ec c5bf
00000310: 1cc4 4cb7 3476 d13f e798 e882 fc95 dabf
00000320: f581 109b 445f cd3f efa9 78aa 0fd2 903f
00000330: 9b34 aba2 4880 c63f ba51 4f9e a4e8 d6bf
00000340: a3bb 5992 0ede cc3f 48a7 d024 9895 8dbf
00000350: 1c18 15fe a4e8 bcbf 1d6f 05e3 e0fa 963f
00000360: afb0 3c7e bd62 db3f 9659 1713 9835 cabf
00000370: cf0d 641b 7701 7e3f e713 ca50 2dfa d23f
00000380: cdb8 e31c 94f4 edbf adc5 e220 9570 bebf
00000390: dc0e 4ab8 7c5c a1be baf7 ec1f b440 993e
000003a0: 6ea0 241d 08ba 933e 8cb5 70ad d4ce bc3e
000003b0: 26df 421d df88 7bbe 70cc 3a60 0c3f 89be
000003c0: d21c 78a0 d11a c3bf 9dd4 2814 d729 bdbf
000003d0: d228 78a7 4bea ce3f 418f 69fc 98ba d03f
000003e0: 7867 fa47 8d72 cbbf ad8b 537c 7022 b9bf
000003f0: 43bd e795 1ce5 c0bf 7be2 78c6 1128 d0bf
00000400: 5ca8 56f4 eb4a bfbf 72ff 923a e170 dd3f
00000410: f5f6 3b1d 4073 aebf d209 b617 9a7d ac3f
00000420: 7db7 017f 13b5 c3bf 554f ab32 e68b b83f
00000430: d07c 9320 98ce d03f 2f03 936d 28c2 c9bf
00000440: 01f0 ca26 b2e2 ce3f 1a66 010c 8b7a d1bf
00000450: a799 6b81 297e ce3f 3bd4 a8c0 4848 d33f
00000460: ec7a f908 e25e ccbf e823 76cf f924 babf
00000470: 8599 9c50 e33e cdbf 270a 6bb4 f3d2 a4bf
00000480: 2a7d f0fe e2e6 e63f f780 1c5e cdb4 b13f
00000490: b771 69b9 6543 ebbf deac ea2a c740 d4bf
000004a0: aa30 1880 2f04 d0bf 1781 271b d6eb a53f
000004b0: d3da a1f0 d1c9 abbf 36de c675 7fef eebf
000004c0: fde5 e5e3 66bf d8bf a4aa 95a0 d05b e73f
000004d0: da6d cef5 8bce c2bf ed4c 1650 4635 b43f
000004e0: 132b 04fc 27f3 9dbf 3619 ba7d 5441 d33f
000004f0: e851 8c7b b591 d1bf 57ed 6f41 8f06 c8bf
00000500: 28a6 be54 d85b d13f a5bc 5875 17e4 c3bf
00000510: 7fce 685f 923d cbbf 3292 1319 829b cc3f
00000520: d59d 7b11 c7cd a9bf 62f1 02a9 100a d53f
00000530: e18a a313 0239 d5bf dac1 f881 e2d1 a63f
00000540: bcdc bf94 592a d83f 522c 1aa9 2808 c2bf
00000550: 929f f572 d72a bbbf 31f3 50bb 4032 c53f
00000560: 4ff1 d687 6a48 eabf 424b 6692 0864 a03f
00000570: 4891 18ff c891 ad3f fd16 7341 1d55 b73f
00000580: f6b3 7a39 6208 d9bf 24b0 8601 639a ca3f
00000590: db2b 2ff2 554b c9bf 4782 f3c8 5cc5 c63f
000005a0: e924 885d c8be d23f 5884 ab55 4c15 d4bf
000005b0: ccce ac65 cd81 cdbf b36e 41ed f66d bc3f
000005c0: b054 58d9 729c 9abf d167 1f36 0224 993f
000005d0: d807 5792 c339 d73f c501 4306 e502 803f
000005e0: 818f 26c1 dc07 bebf dc40 0044 9eee d2bf
000005f0: c49f 0354 1c23 cfbf e693 f959 5eac cf3f
00000600: 5f95 a0f5 304c c4bf eef9 4ba5 86ec cf3f
00000610: 3de6 612b 39c0 d1bf 196d 0910 94ec cebf
00000620: 15f6 a0e0 bb16 c93f 23b1 a157 b849 cb3f
00000630: 9cc7 18de 7080 9e3f 5c6e 7063 9c3d c13f
00000640: 63bb 84f6 4315 d23f f152 17c9 1c18 c13f
00000650: 4c69 c168 19c9 d3bf 5bb7 fa84 9a21 d2bf
00000660: da0e 24e8 26c7 d63f 4a30 83b2 2c1c d8bf
00000670: 6d5f 1511 0828 d53f 2208 8c4c 007b d7bf
00000680: 823d ae35 d1e6 bd3f 66cc eec0 033d cdbf
00000690: ba1f 442f f257 b13f 736d 9e75 77a9 ae3f
000006a0: 3a05 07f7 db81 b83f 6942 c20e 5877 be3f
000006b0: 8654 6b1c 95d1 d9bf 4803 fd79 1754 ce3f
000006c0: 08fd 272a bc83 b7bf 6cc1 44c7 bb87 c7bf
000006d0: 328f f8e3 788e c53f 2805 2675 8a4a c13f
000006e0: 1a6e 7506 4a5b d3bf c83f 951f b2b6 d13f
000006f0: 45e4 c70d 6ca0 a03f 8e75 bdb2 0ead c6bf
00000700: 5ab0 e17f 7848 b23f 150c 2a26 c5ea c8bf
00000710: d0f9 dd77 583f 9fbf dd99 96bf 5806 e13f
00000720: c0be 5175 2866 7ebf 40e5 6e80 3028 c83f
00000730: c033 1212 1b3c b6bf 1c99 f57f 381c cf3f
00000740: b89e 8033 c53b b83f 540d 85f9 5a14 e5bf
00000750: 7fad ddd3 e655 a8bf 0406 df1b daea e0bf
00000760: 7e98 47ac 8093 cabf 54a3 f525 3ecd d83f
00000770: fb66 d31e 4500 c23f 1706 3291 a2fd 8f3f
00000780: d009 3006 785d b03f 52f3 3ec4 4f35 d23f
00000790: 64b5 66d5 5002 c5bf a774 4ccb 7e0f dd3f
000007a0: d103 c5c5 71f4 d0bf a0b2 8dcc 2f21 f1bf
000007b0: 3b3e b53d 3323 c13f 553b 5423 235d d93f
000007c0: dd96 84dd 8012 c93f 1d42 2f90 4f40 d5bf
000007d0: 13f0 fe1b 0437 b9bf 14b4 20b7 b183 a8bf
000007e0: a816 6be9 7e8f d3bf 61f3 97f1 a639 d4bf
000007f0: 1f49 173b 3754 ca3f 1c6d bd9e 8498 953f

decoder1.bias f8 [53]
0.05127102822533044 0.00010490902610380463 0.12872009754193695 -0.023092473779750752 -0.05345756870575382 -0.012614650906508755 0.28166841909489204 0.10120127564505137
0.19174414741832654 -0.21146258745440194 -0.046844310263581476 0.17829574810305632 0.11778072310944156 0.2221889785128237 0.12484698777225134 -0.12660348975970775
0.07697108657760712 0.08404043916898318 0.20223018243087712 9.579528477027334e-07 0.0446451726899279 0.11783897205570218 0.05284665656398135 -0.0291845493899946
0.13013455727100315 0.3550739271309993 0.05510646035233626 -0.16335875691229307 -0.01816237038491313 -0.03616105029887346 0.2591926588184639 -0.04268532712048206
-0.1620991838409778 -0.004671811294846826 0.17624935040399875 -0.2952851852862236 -0.12780758691961303 -0.16054458252739073 0.19861959193230852 0.21409278399889656
0.3309646320922737 -0.15366649245829106 0.120431261698547 -0.11649092872225929 0.1583700585804084 0.0811703390770755 0.02014956178005274 0.061776480485101
-0.12209298869847778 -0.3214795312897353 -0.08862014797031842 0.05222668856896452 0.18729512172496326
00000000: 8b90 eb3a 3240 aa3f 5b39 3d58 5380 1b3f
00000010: 09e9 a370 e679 c03f 1ccb abae 8da5 97bf
00000020: b338 a15a ca5e abbf dc54 c0c8 b5d5 89bf
00000030: 8207 15fa da06 d23f 837f 35a9 53e8 b93f
00000040: 0739 2e7d 128b c83f 6cdb b8c0 3411 cbbf
00000050: aee8 2b39 fafb a7bf 622a 8f23 65d2 c63f
00000060: 49b2 daa1 e026 be3f c042 1f3e b070 cc3f
00000070: 0066 7ce1 f8f5 bf3f c2e8 090c 8b34 c0bf
00000080: daa1 968b 60b4 b33f d8b2 c599 ac83 b53f
00000090: 6d01 e7b9 ade2 c93f 963d 7f4b 6012 b03e
000000a0: 5849 4169 bbdb a63f 6a6a 2ce3 b12a be3f
000000b0: 5f5d 4a8b b70e ab3f e1ce b6f4 8de2 9dbf
000000c0: 9279 c7c9 3fa8 c03f cc27 2cfe 87b9 d63f
000000d0: 13f1 05fa e936 ac3f b40c 3a93 f0e8 c4bf
000000e0: edbe 480b 2899 92bf 8968 d880 b383 a2bf
000000f0: 0845 3fce 9c96 d03f d7c8 00e8 d9da a5bf
00000100: c913 a782 aabf c4bf 7159 97cb bf22 73bf
00000110: e694 f6b5 568f c63f 620c 73d5 f3e5 d2bf
00000120: 9c0d 00bf ff5b c0bf a6a7 c091 b98c c4bf
00000130: 45d9 d8e5 5d6c c93f 75dc ca70 6467 cb3f
00000140: e503 be47 862e d53f d6b8 ccf7 57ab c3bf
00000150: 6f49 694a 95d4 be3f 9f8c 2479 59d2 bdbf
00000160: d75c 2257 7845 c43f e1c3 bd4f 94c7 b43f
00000170: 1409 7f33 16a2 943f 33e4 b0b6 2aa1 af3f
00000180: 6be6 8771 7c41 bfbf b642 4ee2 1e93 d4bf
00000190: 4498 4c5d cfaf b6bf f29f c3de 74bd aa3f
000001a0: c228 415b 49f9 c73f
