Trained_models/20/predictor4_200_3.pth (torch, 336471 bytes, 16 tensors)

encoder1.weight f8 [101, 200]
000000 8c 77 ef 16 66 7d d1 bf 2e bf 9b 58 4d f2 b0 3f
       -0.2732787345865908 0.06619723714152023
000010 e0 7f 81 41 b2 7e be 3f 2a 14 6e 9b 0b 79 c5 bf
       0.11912073230041598 -0.1677565106330417
000020 75 e6 2b 10 32 6a b5 3f 12 0d d3 40 04 ca 95 3f
       0.08365166563808109 0.021278444725578778
000030 37 b8 07 92 37 4b c6 bf 0d 5c 04 32 82 a0 ca 3f
       -0.1741704428708901 0.20802333299863598
000040 9b 82 15 12 dc 7f c0 bf 6e d5 19 f1 05 50 ad 3f
       -0.12890196688660613 0.05725115364195231
000050 52 e3 71 16 89 6b ad 3f 8c b0 29 af f4 71 bc bf
       0.0574610557459382 -0.11111382748066684
000060 e1 e4 1b 35 d5 4b c3 3f c5 cc da 4c 07 c1 b5 bf
       0.15075173466883654 -0.08497663141570218
000070 48 c6 3e 64 fc 31 99 bf f1 c3 50 f0 56 be ab 3f
       -0.024604743593675843 0.05418655093706793
000080 b6 45 57 32 60 1b c6 bf b9 32 d3 8a 00 75 c9 3f
       -0.17271044214298364 0.19888312128604982
000090 58 e7 9d b3 32 ec b8 bf 16 2b 54 63 ae 53 84 3f
       -0.09735409627128655 0.009925234228395346
0000a0 ff cc 27 5e a2 68 aa 3f 9c 24 c9 c1 c4 77 a0 bf
       0.05157954596861635 -0.0321637617640331
0000b0 ad 98 c0 55 04 23 9a 3f 15 e2 a3 80 01 83 b0 3f
       0.025524204000384177 0.0644989909232055
0000c0 c3 33 62 62 6b 79 b1 bf 64 5f d7 34 7a 19 b6 3f
       -0.06825896408027092 0.08632625379629882
0000d0 cf 52 59 5e d0 65 b2 bf 9c b3 20 5f 92 43 bd 3f
       -0.07186605742874551 0.11431231329397779
0000e0 bc 6a c8 ad b9 2e 8d bf 83 b1 c6 f6 68 34 97 bf
       -0.014249277702267242 -0.022660865842838895
0000f0 33 35 02 e7 00 16 c2 3f da 0a 11 63 07 a0 cc bf
       0.14129649429052335 -0.22363369309649422
000100 05 73 5c e0 a5 f0 c7 3f ca 16 6f fc 58 89 b5 bf
       0.18703149275906852 -0.08412700808465981
000110 58 38 70 96 0e f5 94 bf af 72 26 2c 11 ec b1 3f
       -0.02046606820299987 0.07000834777722774
000120 27 37 01 a9 0a 3c b3 bf 85 9e ab 87 f4 89 ae 3f
       -0.07513491273968197 0.05964626461155568
000130 b8 5c 56 39 9c 9e 89 bf 1e 14 8f b4 29 5e ac 3f
       -0.012509556293294075 0.05540590600097793
000140 d5 c4 32 48 0e eb aa bf 59 49 e7 67 57 56 a5 3f
       -0.05257458335234736 0.04167435782769031
000150 98 fc e7 f6 ae 9e 90 bf d8 00 f9 cb e7 41 96 3f
       -0.01623032934184873 0.021735784363273364
000160 83 ab 07 d2 da f3 86 bf b3 86 89 eb 8b a7 90 3f
       -0.011207303557019937 0.016264139414835465
000170 79 1d 81 88 0f ec 6c bf 20 d3 92 ad 52 a5 ac bf
       -0.003530531252213084 -0.055948814094710864
000180 8e 7f b5 0a 4a 87 b7 3f 4a 82 53 de 2b 56 b6 bf
       0.09190809976052902 -0.08725237062345417
000190 97 4f f3 27 dc 1d b5 3f e3 43 3d d9 2b 83 b8 bf
       0.08248687720634816 -0.09575151494688287
0001a0 f4 e7 55 d9 c1 67 b5 3f 0b 8d a5 c2 a1 6f a4 bf
       0.08361445957225994 -0.03991418362672946
0001b0 d7 e4 62 e7 a3 77 68 bf 95 00 6e b8 16 0a aa 3f
       -0.0029867364165424392 0.05085822106684749
0001c0 3e 93 8d 82 27 57 c1 bf e6 4d 27 4b 9a f8 b4 3f
       -0.13547223925265856 0.08191837630084073
0001d0 53 68 64 ec 6e 61 b7 bf c8 49 e7 66 4f 4b ac 3f
       -0.0913304640893398 0.055262070952852904
0001e0 d6 e4 4a 33 e0 cc 92 bf 30 f1 46 36 b5 35 9b 3f
       -0.018359664087914528 0.026572066724598276
0001f0 b9 3e 87 2d 91 8c 9a 3f e3 11 9c 78 e7 be 9b bf
       0.025926845935656504 -0.02709542916911002
000200 c2 44 2a 12 55 21 ad 3f 01 33 0b 02 be 14 b5 bf
       0.056894930331631524 -0.08234775113960426
000210 b8 40 92 23 32 ac b4 3f 74 21 3a 07 42 51 b0 bf
       0.08075250023307745 -0.06373989750330172
000220 2c a7 01 a9 61 f3 7f 3f dd e1 1a 47 4a 87 80 3f
       0.007800466046413306 0.008070545477821984
000230 23 40 b4 cc 20 83 78 bf d9 c4 bf 5a 05 50 a5 3f
       -0.005984428523575533 0.04162613613869732
000240 5c dd 3f 10 99 2e 7e 3f 18 b8 b4 0a 2f f2 a0 bf
       0.007368657974431283 -0.03309771543204948
000250 27 76 db 70 fc 09 a4 3f 44 c7 83 f4 51 fb 92 bf
       0.039138687874338544 -0.018536835240360774
000260 66 83 6c 45 bc 60 92 3f 53 92 c0 05 56 13 9a 3f
       0.01794714139680611 0.025464386082733558
000270 80 84 58 19 08 eb aa bf c9 e7 47 39 b0 64 97 bf
       -0.05257439908405903 -0.022845033165118687
000280 8c f8 f1 0a 80 74 b7 3f 15 2c 82 b3 72 2f c0 bf
       0.09162140147415893 -0.12644799962103606
000290 25 17 a0 42 b0 a9 c5 3f 2d 08 1e fd 69 71 c6 bf
       0.16924098256293366 -0.1753361211704613
0002a0 b8 7c 25 5d 8c d6 c0 3f d7 0a cb 4e 72 4d a1 bf
       0.13154749439397562 -0.03379399501638652
0002b0 d2 3c 30 67 d9 83 a9 bf 88 3a 07 c6 2e be bf 3f
       -0.04983405480026594 0.12399570784257652
0002c0 ec dc 65 db b5 6a ba bf a9 b7 25 6a b5 11 a6 3f
       -0.10319077116388414 0.043103856284559434
0002d0 11 63 21 17 b7 f1 99 3f 6d 89 6a c4 95 60 99 bf
       0.02533613279988162 -0.02478250514344309
0002e0 d7 c6 dc f9 3a cb a8 3f 38 66 84 f8 67 5d ad bf
       0.048425524712355 -0.05735325726182022
0002f0 56 de f0 89 51 e8 8c 3f c0 e8 5a 67 85 79 92 3f
       0.014114987394449201 0.018041691239638835
000300 81 be 1c 3e ab d5 a6 bf f2 f7 86 a7 d5 c8 78 bf
       -0.04459891446310583 -0.006050905787956739
000310 8d 8b c0 0f 4f f0 b2 3f 6b d6 9d 25 0e d4 c0 bf
       0.07397932180951568 -0.1314714130091262
000320 a0 cd e2 e9 a5 03 c3 3f 16 24 d2 2d e5 5e c2 bf
       0.14854883117878348 -0.14352097260805924
000330 e0 64 75 07 a0 6c a9 3f 82 ca 3c 1f 45 b6 9b bf
       0.049656868849248914 -0.027062492400725897
000340 a3 8c 09 58 cd 07 b1 bf dc 8a d6 ca 60 b2 ba 3f
       -0.06652530097339819 0.10428433372593865
000350 26 5f af 18 bb 94 c1 bf 94 34 69 ae 23 49 ba 3f
       -0.1373514051945161 0.10267851837234537
000360 9a 28 c9 41 c9 dd a1 bf b5 46 66 a3 1c 8a a8 3f
       -0.034895219116678436 0.047928709932546644
000370 d7 16 7d 21 ee d0 9b bf ba 4a ec 65 4c 74 90 3f
       -0.02716419295690894 0.016068643303763543
000380 00 86 f0 0f 6a 8c 62 bf 48 bb f1 ec 4f ad 8a bf
       -0.0022642203835097074 -0.013025879305329405
000390 36 ef b8 52 96 ac a1 3f 68 f4 36 62 85 c6 98 3f
       0.03451986083788798 0.024194797629878556
0003a0 65 9d c7 1a 30 9b 92 3f 2a d3 53 f0 6e bd af bf
       0.01817011989069552 -0.06199213679966527
0003b0 8f 85 11 9a b8 d9 bc 3f 58 c8 d8 e7 61 33 c6 bf
       0.1126971603530562 -0.17344306774754403
0003c0 c4 c1 61 61 ac c8 b6 3f 20 92 be 9f d0 50 ab bf
       0.08899953248488318 -0.05335094404225438
0003d0 e8 5a b8 68 9a d9 b7 bf 51 36 5f 65 ab 00 c1 3f
       -0.09316411072391484 0.13283293199349314
0003e0 b2 5d 7d e9 b5 9c c5 bf fb 50 4c 68 35 8a b4 3f
       -0.16884492779602805 0.08023389622059433
0003f0 dd 71 27 c4 8b 68 89 bf 0a aa 7f 30 51 9f a1 bf
       -0.012406436847350594 -0.034418618364572565
000400 56 41 d0 c8 a9 0e a8 3f 35 30 d1 e4 e8 c2 a0 bf
       0.046986871493688895 -0.03273704331567765
000410 fd 86 37 00 95 c6 b4 bf 62 af f4 b2 b3 3a c1 3f
       -0.08115512137694832 0.13460394132686831
000420 f6 e6 6c 65 a8 05 bf bf 77 56 53 fd 5b c7 a0 3f
       -0.12118008114057574 0.032770991014030075
000430 5d f4 ea ec f0 62 9b 3f 69 c9 2a a5 42 5a c0 bf
       0.026744617901148227 -0.12775452675630142
000440 4a ad ce 64 ef 15 be 3f dd 17 5a a7 f8 d2 c0 bf
       0.11752220355144974 -0.13143833323937218
000450 6e 83 64 1f db 5a af 3f 3d 55 93 02 a1 e2 ac bf
       0.06124005087099858 -0.05641654163779684
000460 2a 3e d5 a0 1e 6a a3 3f eb 81 b6 45 b4 88 8f bf
       0.037919003613407234 -0.015397461297482947
000470 e5 7b 7e 2c 07 61 a8 bf f8 90 cd 84 21 c8 7d 3f
       -0.04761526506558037 0.007270937855399
000480 d4 5f 08 83 3d 36 7e bf cf ed f5 03 fe d9 92 3f
       -0.007375946312571064 0.018409699432124612
000490 99 a5 21 80 08 15 77 3f db 1f b4 0e d7 63 69 bf
       0.005635293202524671 -0.003099365266852045
0004a0 4a 48 ea 56 90 ea 98 3f cf 8f e9 78 2c 23 a1 bf
       0.024332289986496648 -0.033471479186829016
0004b0 f5 df b5 25 3b e8 97 bf 26 7b e8 8d a8 8b ae 3f
       -0.02334682862917244 0.0596592591502854
0004c0 ee 74 d3 8a b6 cd b8 bf 41 3c 4f 79 61 cf ae 3f
       -0.09688893212610925 0.06017593961552637
0004d0 85 4e 5f d1 66 91 83 bf 0f 90 68 a5 d9 2c 8b bf
       -0.009554675354514383 -0.013269138679852714
0004e0 93 a4 dd f4 4c 8e af 3f 27 f5 a7 e2 3e 6c b9 bf
       0.061632542506069 -0.09930794747920811
0004f0 fc 8c aa 8b e1 6f c1 3f 3e 28 c3 04 80 11 b8 bf
       0.13622683829917281 -0.09401702991741076
000500 2c 88 9a ee 38 76 a5 bf 3b 16 b6 67 aa 4d c0 3f
       -0.04191759026186079 0.12737016738917525
000510 4b 80 04 e2 4a 42 c2 bf ec 3c b4 1b 31 69 c3 3f
       -0.14264808689131522 0.15164769985901871
000520 66 0a 5a 42 53 83 b9 bf 6a 02 26 ee 79 a7 b3 3f
       -0.0996601140014178 0.07677423538371789
000530 19 37 77 09 20 f9 a2 bf 65 a9 49 8a 6b 5e a3 3f
       -0.03705692401454836 0.03782974303324486
000540 84 6a 47 a6 b4 6c b3 bf 5d d7 7a 8c 2d 4f b8 3f
       -0.07587746676964896 0.09495815925296598
000550 0c ca 55 09 dd ae b2 bf 63 6c ea 19 81 9e b3 3f
       -0.07298070409687102 0.07663733370502394
000560 40 f7 dd 72 72 8a 76 bf b7 18 13 3b b7 a4 82 3f
       -0.005503127160293719 0.00910323285132751
000570 08 0e 33 93 a0 d5 a4 3f 13 5c 1f 50 25 51 b5 bf
       0.04069234654300763 -0.08326943594089213
000580 4f 26 77 4b 8f 5c bf 3f a0 f5 02 d5 96 d5 b8 bf
       0.12250609962861712 -0.09700911236264753
000590 c8 cf 8d dd 6b 12 b8 3f 04 96 e1 ac 84 0f b4 bf
       0.09403108748466515 -0.07836178990108783
0005a0 43 50 5e 3c f5 7b b7 3f db d6 e3 64 76 49 a0 bf
       0.09173519824827374 -0.03181047421996449
0005b0 8d d1 b2 25 8e 3c b5 bf 24 d7 58 2c 53 65 c7 3f
       -0.08295524998067645 0.1827796904123541
0005c0 57 bf 8c 26 ba 60 c6 bf 72 47 d0 9a ce f3 b9 3f
       -0.17482687837900343 0.10137645034435908
0005d0 32 0d 5e f3 be 89 90 bf c9 0e 08 d8 5b 92 a4 bf
       -0.016150458911863903 -0.04017912876227354
0005e0 be 81 21 db bc e2 b2 3f d8 3a a8 f1 5c a8 a9 bf
       0.073772243021728 -0.05011263322750431
0005f0 f1 90 c6 c3 cf 2f ad bf 24 51 5e 14 4c 3b a2 3f
       -0.0570053984149882 0.03560865162504204
000600 15 cd 9d 08 0c 76 b1 bf d7 09 f3 08 42 11 b1 3f
       -0.06820750437127672 0.066669585404305
000610 1a ac c4 b0 52 f4 8b 3f 6c c3 54 29 0b 6a c2 bf
       0.013649602908648407 -0.1438611938297315
000620 b1 1b 6d f9 e5 67 c2 3f 91 bd 18 83 85 3e c6 bf
       0.14379572562230927 -0.1737830057258916
000630 27 eb 17 92 30 a4 9c 3f 15 49 09 dd 87 fa be 3f
       0.02797008411105675 0.12101029535668702
000640 1b 3b 75 33 bb 19 c6 bf c2 f3 d6 13 f0 fd b8 3f
       -0.17266025555223838 0.09762478336683869
000650 be eb 1f 5d fb 8d aa bf 0d a7 36 81 e2 d0 a7 bf
       -0.05186448585296642 -0.046515539429789234
000660 35 6a ee c3 3a 90 9c 3f 6a da 63 75 9b 67 ac bf
       0.027893942078302387 -0.055477960662689466
000670 b3 21 0c ab af 2c b0 3f a5 9f ba 8f 93 75 a5 bf
       0.06318185735665942 -0.041912661833804855
000680 c4 45 d3 e4 5f 07 a2 bf c5 3f e2 63 81 15 7c bf
       -0.03521251362111458 -0.006856446676593413
000690 71 9f 2e 28 3b 8b b2 bf 07 5a d5 c5 c6 99 87 3f
       -0.0724369977093582 0.01152377406348838
0006a0 8f bc 2b 6b bc e3 a8 bf f4 a6 70 7a 05 ce 7c 3f
       -0.048612487871531156 0.007032414817368372
0006b0 12 fa 45 c7 59 ba 8a 3f b2 9f e9 e8 43 c1 a8 bf
       0.013050748246993957 -0.0483494970147257
0006c0 3c 21 24 ea 9a f1 11 bf 7a bd 2a 31 ae ed 88 bf
       -6.845005058065274e-05 -0.012172089457947111
0006d0 f1 eb 40 01 f9 7c 92 bf 59 50 0a a8 bb 78 a8 3f
       -0.018054857923043902 0.047796119940500766
0006e0 01 f6 1d 00 cd 0d be bf 64 aa 28 7b af 6f b2 3f
       -0.11739808323724078 0.0720166850739275
0006f0 ba e2 1f 43 c1 d4 86 bf 85 14 a9 bd c3 5a 93 bf
       -0.011147985325793076 -0.01890092702003134
000700 18 5b c9 5d 39 6f af 3f 8f fb 68 af 10 54 b5 bf
       0.06139544744353581 -0.08331398279641021
000710 73 58 ab 31 f8 e3 b7 3f 90 e4 65 b9 e2 de b7 bf
       0.09332228863363116 -0.0932447149879343
000720 40 5e dd b6 b2 b0 8b 3f c6 4a b6 32 18 67 91 3f
       0.013520618634785042 0.016994836898059494
000730 ce 89 df 84 66 96 90 bf bc c4 5b e1 99 a7 a7 3f
       -0.016198732242523488 0.04620056987722296
000740 ed d8 3d 06 71 2f b3 bf e8 19 d4 4e 93 ba 34 bf
       -0.07494264986403083 -0.00031629654297696133
000750 43 31 bf 9e 2e 92 97 3f 40 ca dc 2c f5 8a 90 bf
       0.023018577994478717 -0.016155081618487666
000760 fa 3c fe f4 f4 57 70 bf 12 a2 1d d9 18 ff 63 3f
       -0.003990132201479252 0.0024409756960504037
000770 34 a7 6f 74 9d 39 a5 bf 8a 0e 0f 19 bc 3e a3 3f
       -0.04145519300784742 0.03758800321477647
000780 d3 e1 3d f5 61 23 a9 bf a4 a3 27 cc d5 1f 5d bf
       -0.04909807318375994 -0.0017776096216215254
000790 1a 77 ef 30 14 4f a5 3f 32 88 92 05 3d a9 a3 bf
       0.041618948911248135 -0.03840056126615855
0007a0 66 84 f5 88 5a cb 92 3f ac bc f2 26 e0 ba a6 bf
       0.01835385762149535 -0.04439449763719358
0007b0 4d bf 52 b9 e1 8c 90 3f 7b bb de 5f 20 ec b4 bf
       0.016162421165687935 -0.08172800388886785
0007c0 01 dd 0e 53 89 78 57 3f 38 85 78 67 13 8a 8a 3f
       0.001432546716598371 0.012958671183755585
0007d0 6f d3 ed a0 fb 56 93 bf f1 e9 fd 17 7f ad a6 3f
       -0.018886501023604504 0.04429242294186853
0007e0 42 bc 83 93 69 9b b6 bf b8 be 9e 3b c3 b2 b3 3f
       -0.08830890513830617 0.07694645124024191
0007f0 b6 75 54 0b 83 a5 a7 bf dc 19 5f 1f 88 40 97 bf
       -0.04618463052086545 -0.02270710650898332

encoder1.bias f8 [101]
000000 10 15 8b 95 c6 5c c4 bf 55 0b 77 12 0b 1a cc bf
       -0.15908129026335205 -0.2195447769318785
000010 2d 81 71 50 15 a6 c8 bf 6e b4 9f be dc b7 c6 bf
       -0.1925684588231972 -0.1774860316067221
000020 5f ee fd 40 b4 df e2 bf 30 5f e1 3d c0 79 c7 bf
       -0.5898076314328583 -0.18340304395200624
000030 71 97 50 5e 3b 19 c4 bf 48 ca d0 5e 60 25 f1 3f
       -0.1570200167199647 1.0716251090749598
000040 c6 b0 e1 c3 4c 5a c5 bf 4d 5c 40 35 af 3d c6 bf
       -0.16681823315173555 -0.17375745868841577
000050 61 16 ea 68 21 f8 c2 bf 17 2f 55 d1 e4 45 d1 bf
       -0.1481973421361316 -0.26989098017360064
000060 10 4d 29 f8 8b 29 ea bf 1c 35 bb 2b 46 dc c7 bf
       -0.8175716254139918 -0.1864097322017323
000070 2f 2d 68 1e ce d4 c5 bf 27 ed 84 e0 da 31 eb bf
       -0.17055679783548203 -0.8498358140126684
000080 ec 66 bc 13 62 22 c4 bf 63 92 4d 5b ee dc ae bf
       -0.15729928935689175 -0.06027932037867314
000090 40 4c af 8f 6e 1c ec bf 55 80 1e de 0d ac ca bf
       -0.8784706884711184 -0.20837567659055148
0000a0 17 c8 bd 6a 5c f6 c8 bf ad 23 2c a1 8e aa bc bf
       -0.19501834117869585 -0.11197749552606125
0000b0 d0 7c 6d a3 d3 7b c4 bf 96 43 74 c5 40 49 89 bf
       -0.16002889137141674 -0.012346750284025803
0000c0 64 06 63 37 41 a8 d7 bf db 1f bd 7f 4e ec c0 bf
       -0.3696444550406339 -0.1322115062450838
0000d0 bc 9e d1 9c b1 e9 c1 bf 92 a6 55 42 9c 00 cf bf
       -0.13994426877183297 -0.24220612753861254
0000e0 e2 9c e0 c8 b8 e7 ce bf ba dc 15 d8 90 23 ca bf
       -0.24144658859697815 -0.2042103819946755
0000f0 e1 29 14 2f 34 85 c7 bf 6b 5c 24 c8 c8 6c c0 bf
       -0.1837525586964395 -0.1283198334938079
000100 fb b9 4d e2 8c bd ba bf d3 69 53 7d ad 2e e0 bf
       -0.10445480847349835 -0.505697960640925
000110 e5 5b d4 94 46 3d c6 bf a3 5e 4a 99 54 67 a7 bf
       -0.17374498622004278 -0.04571022387716297
000120 5d 6c e7 bf 6a 10 d6 bf 80 1e 07 01 30 63 a7 bf
       -0.34475201359390956 -0.04567861568972109
000130 68 84 d4 35 fe a0 c3 bf b8 c4 7a a8 ad 14 be bf
       -0.15335061672616068 -0.11750302661200152
000140 f7 69 c8 95 60 d4 c0 bf ce 86 c5 6d 9f b0 c5 bf
       -0.1314812404023795 -0.16945259914341765
000150 75 11 3c 46 07 d2 c0 bf bd eb ac 29 5e 8f c3 bf
       -0.13140955857683037 -0.15281273875174675
000160 6e f2 1b dd 82 14 c6 bf 09 b3 a9 3d 50 21 cb bf
       -0.17250095173212138 -0.21195414553530892
000170 4b 80 7a 1f 57 c0 ae bf da 4b 46 c7 bf 93 c6 bf
       -0.06006119021662978 -0.1763839457531436
000180 f2 89 4a 97 85 31 c5 bf a9 4c 92 a9 26 51 d2 bf
       -0.165573786614075 -0.2862030654880053
000190 84 1f 52 39 16 11 d0 bf 00 30 b4 a7 ee 3d b2 bf
       -0.2510428962491391 -0.07125751108486611
0001a0 d8 ec ba 07 4a b7 c0 bf 51 fd 52 38 a5 08 c6 bf
       -0.13059354188394567 -0.17213883638576502
0001b0 e3 84 ec 1c 8c f8 c6 bf fe 46 42 50 4a b7 e1 bf
       -0.17946006214427887 -0.5536243026310499
0001c0 93 16 e1 1f 36 d7 cf bf ce be 30 27 3c 80 b3 bf
       -0.24875523144344366 -0.07617546040341525
0001d0 4a e3 76 48 7b 49 ce bf b4 ea 7f c4 78 31 cb bf
       -0.23661747968960817 -0.21244725794516273
0001e0 19 e1 8f 8a 8a 24 dc bf 5f 8f fa 05 3a 8d b6 bf
       -0.4397302964348611 -0.08809244771924572
0001f0 06 d7 d6 7a 19 ab c1 bf 23 83 99 79 48 af b5 bf
       -0.1380340432930824 -0.08470585793248779
000200 f4 9a 45 85 b6 2f bd bf 90 b0 cb 68 d1 fe d1 bf
       -0.11400929216106787 -0.2811778567690988
000210 d1 85 4a c8 30 6c c8 bf 45 a5 0f f1 b9 f7 9d bf
       -0.19080171375121194 -0.02926531347103391
000220 ab 6e 4e 67 e4 a3 e1 bf 4f 14 16 9c 60 a1 cb bf
       -0.5512563722326908 -0.21586234685324476
000230 62 c3 bf 39 24 ce c2 bf db b0 04 fd a4 f7 b3 bf
       -0.14691593951968246 -0.0779975049705998
000240 ff 0b 5e 70 3a a9 c8 bf 35 4a 1d 16 ab 03 c9 bf
       -0.19266443716705337 -0.19542444782071447
000250 53 27 19 94 92 1a c4 bf 0d a7 f5 6b a1 e7 ea 3f
       -0.15706093055114909 0.8407752140603592
000260 ce b3 af 1b 36 c7 bd bf 62 5a 95 4d 32 0a c7 bf
       -0.11632097412048312 -0.1799986723733183
000270 21 40 24 01 8b 6d d0 bf 71 17 4f 72 5a 98 be bf
       -0.25668597327694626 -0.11951222697015652
000280 9a a0 cd fb d8 4f c9 bf 42 17 02 c7 78 9b bc bf
       -0.19774925513343505 -0.11174731119726025
000290 76 24 b3 1d 10 c5 c1 bf 03 dc eb 51 dd ff c2 bf
       -0.13882638406929332 -0.14843336582245578
0002a0 05 99 c1 bc 97 71 c0 bf 31 fc 00 47 01 1b be bf
       -0.1284665748273214 -0.11759956344120394
0002b0 74 e2 f3 9e db ec d8 bf bc fb 07 eb 8a 37 c7 bf
       -0.389456658580037 -0.18138252712375713
0002c0 da 20 df a7 53 4f c7 bf f8 6f 10 7d 43 6d c6 bf
       -0.18210836121421076 -0.17520946127558523
0002d0 84 ef e4 d9 60 a8 e7 bf 94 65 ad 00 f8 0a ca bf
       -0.7393039947269107 -0.20345974000046552
0002e0 9a 1a c8 61 45 bb c2 bf a6 05 25 ed be c9 e8 bf
       -0.14634005808348577 -0.7746271735888299
0002f0 50 ed c9 c1 9e 6b c1 bf 71 15 5b 0c f4 7b 9b bf
       -0.13609680616705555 -0.026840031866205153
000300 3d 62 00 36 26 cb bc bf 45 81 7a 02 93 7a b0 bf
       -0.11247481172939273 -0.06437033472548588
000310 00 b0 b4 5a cc 7f d3 bf 00 b9 d2 ac 6d 37 bc bf
       -0.30467518671025573 -0.11022077054323987
000320 f4 17 66 7a 26 eb c8 bf
       -0.1946762178087621

encoder2.weight f8 [3, 101]
000000 f5 4a 6c 17 04 92 b3 3f b9 65 28 8c b5 4c e4 bf
       0.07644677707530063 -0.6343639123398851
000010 1b c1 7f fe 1f 05 d2 3f 63 34 df 6b 25 8c d2 3f
       0.2815628037779036 0.289803843825956
000020 d0 f5 0d 78 1b 5e e0 3f 6e a9 f9 45 5d ee df bf
       0.5114877075972633 -0.49892360528487856
000030 c6 fd 3a 0c f2 a6 d1 3f 66 42 1f 60 91 19 cf bf
       0.2758145446241226 -0.2429677695604539
000040 8f 8d de cc 29 8e d2 3f d9 3a bf f7 c6 b4 d3 bf
       0.28992695814869135 -0.30790876573602827
000050 fe 91 a2 d4 32 8a a7 3f 39 a5 cf 0d fc 4e d5 3f
       0.04597624631540852 0.33294583653203663
000060 13 6a 88 3d d3 cd de 3f 54 f0 e4 8e 2f a8 df bf
       0.48131257065839 -0.4946402450038978
000070 0f f0 5d e3 c0 07 e4 bf d1 bc 63 08 d6 89 e1 3f
       -0.6259464684258108 0.548075691591203
000080 ff cd 20 4e 81 cd e4 bf a9 be e8 be 22 2e d1 3f
       -0.6500860715809152 0.26844090121719916
000090 0d df 9e 73 ca 9d e3 3f 83 f7 15 4e 75 82 d4 bf
       0.61301157552859 -0.3204625380093306
0000a0 0a 27 a7 22 0d d5 db bf 31 02 98 3c cf c3 cb 3f
       -0.4348786199958431 0.2169131322734912
0000b0 4f 11 5f ee a7 c5 a4 bf fa 52 dc 5a 95 f0 d1 3f
       -0.040570495460573335 0.28030904648885235
0000c0 3f 6c 03 d1 25 bd d0 3f 23 a6 c0 71 a9 cc cd 3f
       0.26154466067754706 0.23280828527758599
0000d0 a5 2f 3a 51 61 cd c9 3f 0c 85 13 0c d7 0e e6 bf
       0.20158020464111562 -0.6893115268577801
0000e0 c9 84 96 f5 ba 77 c7 bf 22 b7 69 28 52 15 d8 bf
       -0.18334137908553874 -0.37630132624222956
0000f0 f8 9a 34 2a c7 90 c2 bf 4f 0e 31 a1 33 ad ce 3f
       -0.14504327355208324 0.2396606957500915
000100 34 fc dd 77 2c 5e cf 3f f8 ba 5a 2f cf 96 da 3f
       0.2450614533699721 0.4154546701856101
000110 78 97 db a4 8e f2 be 3f bf 8b 0e d4 be 47 d5 3f
       0.12088862919662613 0.33250399311708273
000120 e5 51 c8 64 63 26 d4 3f e9 96 97 e7 1f 3d d4 3f
       0.31484303323784807 0.31623075119419625
000130 23 59 55 ff 30 16 d0 3f 10 16 60 1f 13 ca d2 3f
       0.2513544553270483 0.29358366073606224
000140 27 1e ec 9b 73 63 e0 bf 91 7d d9 f2 48 e3 d3 3f
       -0.5121400876386745 0.3107473727777342
000150 6e b3 e2 b1 4b 09 d2 3f 5a 77 52 60 38 98 d1 3f
       0.2818173634685114 0.2749157848974072
000160 37 21 e7 18 46 19 d3 3f 64 3f 98 d4 38 e7 d7 3f
       0.298417591399374 0.3734876705284391
000170 04 ae 28 67 a4 85 d0 3f 49 d8 00 03 7a 11 bc 3f
       0.2581568725024399 0.10964167187998543
000180 a5 76 30 c6 4c 0a e3 bf c2 7b 94 cf 44 1a d6 3f
       -0.595007311905381 0.3453533198498314
000190 19 96 f1 35 20 7a d3 3f ff 27 01 d2 46 9a d3 3f
       0.3043289686960136 0.30629129894498414
0001a0 b3 8d d0 d1 35 79 c1 3f 47 bd 8e 71 ee 40 d9 bf
       0.13651154274803687 -0.3945880993805599
0001b0 89 0c ca e3 93 6e dc bf 45 a8 db b0 59 d4 db 3f
       -0.4442491268639022 0.4348358370904218
0001c0 88 d0 08 03 1f 19 a0 bf 9c 87 ff e0 a5 1d d4 3f
       -0.03144165908852964 0.3143095681426702
0001d0 2b 95 55 98 21 9e d4 bf e4 57 d3 9d 17 ab df bf
       -0.3221515643729897 -0.4948176423325761
0001e0 85 0f ee eb 80 5f dc 3f d0 8e 75 9d 62 9c d3 3f
       0.44332907714873954 0.3064199960410692
0001f0 b6 64 bd cc 2c dc be 3f b0 e4 c6 10 b1 f3 c5 3f
       0.12054710386782372 0.1714993793409909
000200 fa 85 1f f0 6f ae d0 3f ef b6 ae 12 6a 42 df bf
       0.26064680528187945 -0.48842861008129906
000210 86 ed 9d b3 8d 7e de bf 6d 8e b8 92 ff f8 d2 3f
       -0.47647421398843226 0.2964476521321789
000220 76 c3 69 a6 e5 22 db 3f d3 35 2b b9 07 64 d5 bf
       0.4240049481514271 -0.334230357006928
000230 e6 66 e0 e2 c5 6e bd 3f 15 bf be 88 12 0c d0 3f
       0.1149715117357136 0.2507368407632254
000240 91 e8 46 7a 6c 44 c2 3f 99 5f 92 e0 f9 e9 e3 bf
       0.14271312685543028 -0.6223115335624129
000250 de 09 48 b7 0d 18 ae 3f be 27 8a 34 64 32 d2 3f
       0.05877726423570427 0.2843256486017899
000260 3b 29 a9 cb 11 b6 cc 3f d6 63 47 ee 31 3e a1 3f
       0.22430632061361586 0.0336776355140455
000270 6f e0 4a 2c b6 3f a4 3f be 34 28 7d 0d d3 d2 3f
       0.03954858103446745 0.2941316339718688
000280 cd 9e 8c ad 98 8e df bf 68 0a e3 b3 4e 30 cd 3f
       -0.4930783934419026 0.22803672584093992
000290 78 e2 c3 d6 86 03 d0 3f f3 61 08 86 76 81 c4 3f
       0.25021525357400476 0.16020089668815238
0002a0 60 98 0d c0 6f 79 c7 3f 23 ef 03 f3 f7 77 cd 3f
       0.18339344861596185 0.230223649654243
0002b0 da 01 87 08 31 dd d5 3f d9 82 12 99 97 1e d8 bf
       0.34162545998336 -0.3768671984526413
0002c0 70 e1 79 4a 61 0b d8 bf 5a ec af 1b e2 cc b6 3f
       -0.37569458268219247 0.08906377006489788
0002d0 2c e7 15 d1 67 d0 d1 3f 84 af 26 90 da c6 dd bf
       0.27834506433974826 -0.4652620704389323
0002e0 33 83 53 1b 40 0b d1 3f d8 90 92 93 42 fa d6 3f
       0.2663116709573387 0.35902466212634243
0002f0 5e fb 01 6a 45 71 ce 3f 4c 53 38 3e 89 d6 d1 3f
       0.23783176113280552 0.2787192447297471
000300 70 77 5f f9 9a 33 d2 3f c5 86 8b 16 c8 ba c7 3f
       0.284399741676558 0.1853876218875056
000310 58 62 8b 91 71 c3 d7 3f b9 53 81 2f 2c c5 cf 3f
       0.3713039323170384 0.24820473022069026
000320 12 90 28 37 e0 f7 d1 3f 04 d0 ba fc 00 09 d9 3f
       0.28075414072577687 0.39117455177915894
000330 5c c6 55 b8 4f bd b3 3f 30 c1 9b 4e 7c d4 d8 3f
       0.07710741281859995 0.3879690902386015
000340 c1 8e 24 f6 10 37 d6 3f 63 ee 21 7a 07 75 d4 3f
       0.3471109775293649 0.3196428959560988
000350 ef 86 41 90 6e 2b c7 3f 0b 74 fd d3 dc 27 d5 3f
       0.18101293605564403 0.3305580206122733
000360 c9 12 04 f8 86 93 cf bf 4a ca 10 4e 4b 96 d8 3f
       -0.2466896735205835 0.3841732275351758
000370 fd f5 f1 23 5d da ca 3f 9b f1 8a e8 bb d6 d5 3f
       0.20978893523344758 0.3412313242841038
000380 3f 17 ac 4e 0c e5 d8 3f a8 fb c0 1c ec dd db 3f
       0.38897998507342274 0.43542006309501824
000390 e0 52 88 b2 c4 cf c4 3f 74 75 d8 34 35 35 c0 3f
       0.16259058682830752 0.1266237743410944
0003a0 25 40 b7 35 3b 7d df 3f be 2b 73 34 de 80 c8 3f
       0.4920185112541751 0.1914327388861618
0003b0 4e f8 de f1 58 74 d3 3f e8 c1 89 da 68 3b e0 3f
       0.30397628421986134 0.507252146560913
0003c0 ba 25 99 7a 30 1c c8 3f 40 af b0 6f e3 c2 cd 3f
       0.18836027132264893 0.23251002267476828
0003d0 b5 12 77 4b d7 44 d7 3f 8b 32 43 fe 21 1e d6 3f
       0.36357672090188525 0.34558915930100714
0003e0 8f 2d e3 ab 00 0b d8 3f 04 b0 50 81 2d ea c0 3f
       0.3756715468013789 0.13214653791635567
0003f0 80 65 56 5d cb 37 d7 3f c7 25 68 00 0d 4c d8 3f
       0.36278041949261564 0.37964177169541496
000400 9c 4b 26 a0 8f cb c2 3f 86 98 04 32 eb 3a d4 3f
       0.14683718986324557 0.316096114011437
000410 9b 71 d4 f4 78 01 cc 3f 30 70 6d c9 72 70 d0 3f
       0.21879493670065817 0.25686330481198905
000420 06 15 87 93 c8 31 d5 3f 8c 51 b0 7d 13 18 d7 3f
       0.3311635437679147 0.3608444907597679
000430 3f 41 42 2e da 1a da 3f 46 06 ae 8c 2b cc d3 3f
       0.4078889323946164 0.3093365548921593
000440 f6 e3 b0 ab 69 ce da 3f b1 19 8d 17 84 38 d6 3f
       0.4188484360379897 0.34719946193618073
000450 eb c1 24 8a 96 53 d8 3f 21 5c bd e8 5c 70 d8 3f
       0.3801018094118535 0.3818580887650019
000460 95 d0 03 a0 be 2f dd 3f 16 53 28 6b 39 30 cc 3f
       0.4560391008992693 0.22022168857861207
000470 5f db c3 ec dc c8 d8 3f a9 99 d7 81 ad 5d d7 3f
       0.38725970384205327 0.3650926368703958
000480 83 c7 fc 81 65 76 d4 3f 83 cc 75 fa 9e a6 d8 3f
       0.3197263497742073 0.3851697393321915
000490 e1 fa 44 66 7b ba db 3f f5 28 4e 8a 57 ff d7 3f
       0.43325695979357987 0.3749598360669915
0004a0 b5 f5 cb 6c 4d da d6 3f c8 0a d9 e9 b2 1e c2 3f
       0.3570741236179303 0.1415618554911673
0004b0 a3 07 b7 ea 19 ed d7 3f 3a 36 9e 27 84 da d6 3f
       0.37384651109106865 0.3570871722120931
0004c0 24 7d 37 4a 51 ed d8 3f a0 ce 9a 7a 56 38 d9 3f
       0.38948471305589494 0.3940635869323419
0004d0 de 60 84 d6 ac 5b cc 3f 87 bd 68 c4 11 9a c6 3f
       0.2215477034994881 0.17657682504930625
0004e0 29 b0 65 e2 b2 24 d9 3f e3 e2 98 fd fd df b2 bf
       0.3928649149809212 -0.07373034898126778
0004f0 e2 94 2f 25 72 01 d8 3f 3c 6d 4c 3c 46 41 d4 bf
       0.3750882495063036 -0.3164840306141803
000500 3c 2d 81 19 df df cc 3f 79 94 22 81 f0 7d d8 3f
       0.22558201546994805 0.3826867352566477
000510 ff 86 19 a3 e2 ba d9 3f a0 45 e7 11 31 7f d7 3f
       0.4020315735598245 0.3671381640279723
000520 f8 9b e5 3a 59 74 d4 3f 59 61 d6 5b c1 57 d8 3f
       0.31960135223056296 0.38035615890978175
000530 1a df 9f cd eb d8 cc 3f 9f 52 b5 5f ca d0 ca 3f
       0.22536990680941288 0.2094967810941357
000540 2f e2 e8 b2 a5 24 d7 3f 25 46 8f b6 25 58 d1 3f
       0.3616117713131954 0.2710050852593631
000550 7f 1b 8e e1 de 36 d1 3f 8e f1 e4 39 32 28 d6 3f
       0.26897403742662357 0.3462033810972337
000560 30 ce 62 0b 5a fd d4 3f 11 79 14 bf 43 65 d6 3f
       0.3279633628073695 0.3499307027831416
000570 88 cb 76 d0 bb 40 c7 3f 3e c9 89 6b 60 13 d8 3f
       0.18166301421078068 0.37618265630512215
000580 51 3b 67 12 f0 8f d2 3f 09 1c 51 fe 65 04 cd 3f
       0.29003526494209547 0.22669672887624895
000590 47 63 05 01 f8 0b d9 3f 00 5e 91 c3 ed e7 95 bf
       0.39135551547729047 -0.021392550527108867
0005a0 e4 37 5c f0 36 8f d7 3f 19 5d 8b 59 53 de c4 3f
       0.3681161257999277 0.1630348384121383
0005b0 95 05 d2 65 5b a4 d4 3f 23 fb f3 15 2e 43 d7 3f
       0.32253155654333315 0.36347534316876046
0005c0 76 a8 34 1b fa 59 d7 3f b9 44 05 26 6b 97 d5 3f
       0.3648667588883038 0.3373668547911382
0005d0 93 79 32 72 32 f1 d6 3f 16 c7 d5 81 9a 52 d7 3f
       0.3584714999396052 0.36441672019201243
0005e0 3a 5b 87 53 ff 1e d0 3f 85 2f 09 c0 bd 66 cd 3f
       0.25189192921736814 0.2296979129481508
0005f0 cf e8 2e 52 6b a0 d5 3f 90 b9 1f 32 fb 98 d2 3f
       0.3379162123270704 0.29058723349489757
000600 85 2b f8 ed 83 fa ca 3f 24 bc af 55 81 1c d6 3f
       0.21077012176132484 0.3454898201734429
000610 24 16 fb 8a 17 82 cc 3f 2c 30 d1 b5 f1 37 d8 3f
       0.22272009168789098 0.3784145618017216
000620 63 79 fe 79 ff 7e d6 3f 06 15 fa ba 18 f9 d6 3f
       0.35150134004097405 0.3589536500879408
000630 b5 1a 14 ed a8 9f d4 3f 3a a9 76 ad 4c 91 d6 3f
       0.32224486496162835 0.3526183790187535
000640 52 89 c9 bf b8 f9 d7 3f 91 6c 57 b9 47 89 d8 3f
       0.3746168015406016 0.3833789167380895
000650 26 f4 6a 8a 90 e1 c9 3f 6f 9c 3b dd 09 ed 80 bf
       0.20219618567162562 -0.00826461511992546
000660 71 f2 0b 47 d5 8d d0 3f b6 89 96 1d 3f 75 d0 3f
       0.2586568063559645 0.2571561612077419
000670 69 bd 19 95 8f 02 d7 3f 60 5b 0f 51 94 5d 6c 3f
       0.3595313030300163 0.003462590866984014
000680 f4 7b 9b dd fc f7 cd 3f a8 41 87 f9 73 d4 d9 bf
       0.2341304857318104 -0.40359210365297793
000690 08 2a e2 ad 0c 13 d1 3f f4 42 55 e2 33 16 a2 3f
       0.26678769093328514 0.03532564294676446
0006a0 9b d3 49 ef 7a 58 c5 3f 17 79 88 d5 87 91 d1 3f
       0.16676270183566264 0.274507483032623
0006b0 0f 92 86 83 c4 88 db 3f d2 d0 bd 06 09 24 95 3f
       0.43022263378432596 0.020645276104418304
0006c0 0c 40 f4 ae eb d9 9f bf ed 89 a6 20 5d 98 d3 3f
       -0.03110473876319024 0.30617454708604336
0006d0 f8 b8 fa 6f fb 44 b5 bf 3e be 78 ac 17 06 cb 3f
       -0.08308383449432089 0.21112342759578157
0006e0 cb 76 81 51 4c f4 d6 3f fe e2 b5 6d d0 76 a5 3f
       0.3586607738451277 0.04192210520972671
0006f0 c8 47 9c c1 38 a4 ad 3f ef 16 67 52 05 4a ce 3f
       0.05789353717240392 0.23663393519944217
000700 29 b7 aa 90 9a 90 c2 3f 9f e6 ea e5 64 f0 cf 3f
       0.14503795684634582 0.24952374674267205
000710 1d b6 16 ea c3 c6 e3 3f 95 5e 11 06 0d 08 cc 3f
       0.6180133411450616 0.21899569317132675
000720 2b 1f 75 c2 8e e9 cc 3f 43 7d f9 f2 53 cf 96 3f
       0.22587761397357417 0.022275268273344705
000730 71 9a 8c 79 a5 ce b1 3f 5f bf 23 7f 21 da a4 3f
       0.06955942361364877 0.04072670628545327
000740 b7 d3 fa ce 9e a8 b1 3f cb 96 7b da 81 a0 cd 3f
       0.06897919228761294 0.23146079223731983
000750 15 f2 c0 3e 5f a9 ce 3f 4f b6 10 93 d4 00 d4 3f
       0.2395438248075982 0.3125506817039864
000760 65 a2 22 5e 42 70 c6 3f 63 3d 53 6e 8a 96 d2 3f
       0.17530088039827088 0.2904382779497238
000770 4b f3 18 a5 08 ec d1 3f 42 eb d2 1d be 1f d1 3f
       0.2800313579826265 0.2675624171494527
000780 37 05 81 17 16 c7 d0 3f 54 1b 97 29 60 7b d2 3f
       0.2621512631922828 0.28878025113629247
000790 37 42 54 39 cf 12 94 3f 89 71 a5 8b d1 38 d1 3f
       0.019603002428143248 0.26909292828875003
0007a0 b4 70 31 0f 6f 06 cf 3f 56 7b 98 29 fe 2a ce 3f
       0.24238384477474073 0.23568703681027142
0007b0 8f df 58 9a 5a e7 d1 3f 85 e4 79 60 da c1 d3 3f
       0.2797457225128647 0.3087068502569042
0007c0 72 f9 d5 84 ce 50 d0 3f af 1f e9 c1 69 76 c8 3f
       0.2549320504403091 0.19111368149083094
0007d0 04 05 fc 91 f8 a6 84 bf 1e 4d 71 67 70 bc d1 3f
       -0.010084096865741639 0.27712640859427207
0007e0 09 a8 89 1a 8c 05 d0 3f 4c 2c 4a e3 50 2e d1 3f
       0.2503385790975022 0.2684519023538925
0007f0 49 78 f1 f5 ef 4d ca 3f a4 8d 6e 1d 7e 86 a6 3f
       0.20550345906207415 0.043994847386126495

encoder2.bias f8 [3]
000000 7a ee 9a 7b 3d 51 ed 3f da 6d 1b 23 a3 1b f7 bf
       0.9161670126117791 -1.4442473765728807
000010 f6 43 05 c9 fe 7a e0 bf
       -0.5150140691931699

decoder1.weight f8 [101, 3]
000000 f4 51 a9 ec 2f e2 f3 3e eb ed f1 2f 66 63 ea be
       1.8962425011830348e-05 -1.258291149341166e-05
000010 30 77 71 42 36 dc f4 be 51 1e c1 9e 5d bb 59 bf
       -1.9893839774069017e-05 -0.0015705503710864608
000020 42 5a 4a ca cb 25 72 bf 88 3a 54 cc a0 08 67 bf
       -0.004430576377350949 -0.002811731394678777
000030 e6 fa 4c fc d3 67 1b bf 7e 47 21 36 6f 4c 47 bf
       -0.0001045439849578323 -0.0007110159897456417
000040 da ec ed f9 48 be 1e 3f 4c 2f 50 d4 c4 8c 31 3f
       0.00011727638637453204 0.0002677898922349611
000050 73 1d ab a6 1a 61 41 bf 00 39 c2 45 97 81 1d 3f
       -0.0005303745395729822 0.00011255727571521726
000060 98 64 a8 8b 6b c2 89 bf 9e dd 20 52 19 b3 d2 bf
       -0.01257785816146599 -0.29218132992124335
000070 9b ac 91 f1 0b 10 de 3f 9d 35 e2 1b 92 d1 2b bf
       0.4697294100830704 -0.0002122393470397722
000080 80 4c 0b 2f ad 27 44 bf a8 b1 7e cc 82 46 31 3f
       -0.0006150813697679697 0.0002636021931674789
000090 66 24 b8 59 42 03 f3 be 6a 0b 09 a2 98 6e 05 bf
       -1.8131953408971264e-05 -4.087832735823786e-05
0000a0 d4 6d 07 6a 9c a4 02 3f 66 1f a2 d3 92 e7 f7 3e
       3.55587228601757e-05 2.2797187945871633e-05
0000b0 12 37 5c 85 4e ab 1e bf 67 12 3a 02 a6 76 fe be
       -0.00011699358705305151 -2.90522294919153e-05
0000c0 e2 f1 11 a0 a5 dd 64 bf b2 46 d3 96 0d 61 68 bf
       -0.0025470957630757554 -0.0029759660161311147
0000d0 08 ff 0c c5 e7 db 68 bf 98 b2 5f 65 8a a3 4a bf
       -0.0030345465424089814 -0.0008129525911023281
0000e0 cd da 2c d2 47 9c 56 bf 75 f0 2e 35 40 06 56 bf
       -0.0013800336243556144 -0.001344263747099309
0000f0 64 b2 fe a1 25 d3 40 3f 35 56 87 27 72 51 38 bf
       0.0005134519342298691 -0.00037106549237128926
000100 ef 82 39 89 f0 24 32 bf b1 f9 49 97 c2 89 22 3f
       -0.0002768599744964869 0.0001414346731003053
000110 f7 2f dd 48 d8 49 2e bf e3 bc 45 fe 55 d3 19 3f
       -0.00023108258431603332 9.85165821185577e-05
000120 87 df 53 62 9c 12 40 bf fe cf a8 74 8b 9d 30 bf
       -0.0004904998392296502 -0.000253531023790332
000130 a6 28 98 90 94 f0 33 3f 3c e9 40 15 0f 43 15 3f
       0.00030425669737666817 8.110789832552629e-05
000140 a8 ca 63 65 c9 f3 4a bf 6c af f0 3a 18 30 50 bf
       -0.0008225186709565806 -0.0009880291579617796
000150 16 d7 43 e6 29 04 31 bf f7 87 a5 03 29 b4 32 bf
       -0.0002596475881227895 -0.0002853965885575289
000160 cd 5e 58 1d f2 92 37 bf 1b 73 e1 fe 29 c2 46 bf
       -0.00035971079827977205 -0.0006945328766608557
000170 90 91 17 9a a5 14 45 bf 56 ac f3 01 22 37 3c 3f
       -0.0006433304408202545 0.0004305322672297265
000180 0c db ec c6 db 23 a4 3f c3 61 aa e6 3f fe a1 3f
       0.03933607867513986 0.035142895610252654
000190 36 9e 8c 97 af 5c c1 bf b0 ff 8b 26 b6 99 10 bf
       -0.13564104938380844 -6.33256364714885e-05
0001a0 a7 b6 d1 b7 4e cc 1a bf 36 d5 83 3f 07 ce 0d bf
       -0.00010222654778299177 -5.684814090215833e-05
0001b0 29 2c c0 de 17 b9 32 bf a9 a7 f3 21 81 84 3a bf
       -0.00028569062010380897 -0.00040462639476734425
0001c0 2b 95 db c6 db 1a 31 bf a8 24 52 88 0a 46 0a 3f
       -0.0002610003055976857 5.011291163110307e-05
0001d0 2e ef 64 4d e8 dc 16 bf 74 1f 47 22 ba b9 d9 3e
       -8.721511708114908e-05 6.1334363050182174e-06
0001e0 64 79 2c 47 47 b1 30 bf c8 ec 83 f5 72 42 31 bf
       -0.0002547072428330714 -0.00026336008660594575
0001f0 71 d0 df 8c f2 dc 14 bf 54 9b 46 95 f5 d2 f1 be
       -7.958631906018907e-05 -1.699834804616146e-05
000200 75 57 ba 40 ed 22 01 bf c9 a2 94 40 5a 7f 00 3f
       -3.268515146463608e-05 3.146642854751564e-05
000210 ff e8 f3 7d 66 3d 33 bf ef a0 64 cc 73 bc 4d bf
       -0.00029357673879783214 -0.0009074750348974351
000220 27 96 7f 21 5a 17 17 bf d9 66 cb d9 ed de d5 bf
       -8.80860101229666e-05 -0.341731512727717
000230 69 07 e9 92 75 b7 d9 3f d4 19 0e 9d ed 30 e5 bf
       0.40182246538835514 -0.6622226779443801
000240 89 31 3f 37 04 ea 43 bf 95 0f 58 6f 17 6f 47 bf
       -0.000607730921268466 -0.0007151474407582787
000250 5b 62 71 db df b3 12 bf 0f 8f 34 e3 10 45 11 bf
       -7.134488883887276e-05 -6.587901662108104e-05
000260 c1 ed 3c 21 6d f3 20 bf b0 a7 12 ab e4 da 20 3f
       -0.00012932498122518284 0.0001285938392688291
000270 fd 7d 5e bf d5 2d d2 3f d8 8e 2e 7b 10 8d b3 3f
       0.2840475434149708 0.07637122161264231
000280 67 f7 8b cb b4 62 d8 bf a1 e8 13 49 5e 60 d3 3f
       -0.3810245502244158 0.30275685440541095
000290 8c 51 e8 24 af ea c7 bf a5 b6 6e 7d f4 8c b8 3f
       -0.1868494920933127 0.09590080320659895
0002a0 d3 f0 14 07 2b e1 11 3f 27 b2 8e 91 ab f0 23 bf
       6.820511932387483e-05 -0.000152131026678674
0002b0 34 e3 51 d2 a9 b3 ef 3e a1 64 55 81 f4 b7 35 3f
       1.5116601000496334e-05 0.0003313991486116417
0002c0 d5 78 07 1d f0 db 39 bf 93 8d 2a f3 c3 6d e2 be
       -0.0003945790495246797 -8.787522891856916e-06
0002d0 5a d2 fe ab fd d0 cc be 77 e0 9d 85 f4 8f 62 be
       -3.4351790816017826e-06 -3.457502435652086e-08
0002e0 a6 f1 ca a5 d7 04 b6 be e7 c2 ed ff 4d a2 26 3f
       -1.3124296380082603e-06 0.00017268373627701077
0002f0 29 03 15 3f 5b 40 57 bf 0a 37 13 e8 d7 09 35 3f
       -0.0014191523626580582 0.0003210212817749003
000300 96 2c ef 41 98 b7 0a 3f 4d 4b 2a ce d1 99 07 bf
       5.09589519804506e-05 -4.5015063524853247e-05
000310 04 aa a6 04 79 75 00 bf 1f 8d 7e 79 51 a5 d0 bf
       -3.139281814708644e-05 -0.26009022583657954
000320 77 b4 40 f3 8d 84 ae bf 4e 60 f3 4a 16 79 c4 3f
       -0.05960506052392927 0.1599452844591291
000330 e6 b1 86 ca 18 ba ea bf 72 90 05 fe da b3 b4 bf
       -0.8352168994511515 -0.08086937619879267
000340 e5 8b fd b1 be bf db 3f 09 c0 db 9f c3 f6 38 3f
       0.43357818014027166 0.0003809192274806255
000350 7e da 85 44 b2 6d 44 bf 67 36 73 75 81 3c 30 3f
       -0.0006234283874125416 0.00024774704565975195
000360 11 af 5f 1d e9 28 ee be 4c 6f 29 c0 5a c9 21 bf
       -1.4381316685039708e-05 -0.00013570053859523546
000370 10 9f 1a 9e 6a c8 1e 3f 82 84 d6 dd 78 f4 4c bf
       0.00011742735616826158 -0.000883635537025765
000380 ab 6a af ca 6e 35 61 bf 30 8a 37 91 5c 3a 5d bf
       -0.0021006740475802608 -0.0017839340188109502
000390 5b ad 2f 6c 8f 4c 43 3f b4 fa 6c aa 11 d7 5d bf
       0.0005889606767345666 -0.0018212959782456907
0003a0 f7 ad a1 77 1b 6d 4a 3f d0 de a3 89 9d 4c 85 bf
       0.0008064636342743338 -0.010400038493102143
0003b0 e4 fe 4d c5 c8 ad c7 bf 58 84 30 59 a5 0d d3 3f
       -0.18499097475068205 0.2977078791610146
0003c0 18 1e 78 20 02 3a 03 3f 30 f1 fa 36 95 c3 0a bf
       3.667181959704171e-05 -5.104827039079313e-05
0003d0 58 5f 07 42 f7 74 f1 3e b9 25 69 11 fb 1f 31 bf
       1.6648195129891893e-05 -0.0002613056143770626
0003e0 4f 3d 2d 5a 81 1c 1f bf 48 33 74 da 62 98 30 3f
       -0.0001186803770398721 0.0002532235470916089
0003f0 7d a2 56 34 6f 21 84 bf 40 8a 7f 1b e1 74 c4 bf
       -0.009829396042577482 -0.15981687395749766
000400 c1 b7 48 c3 8e 87 d0 3f 44 0a 87 53 ee a0 e7 3f
       0.25827378340443025 0.7383948928257458
000410 4a 1a 35 89 c8 10 dc bf 32 77 a7 e4 c1 d1 cc 3f
       -0.4385243740001995 0.22515128769639997
000420 27 7b b9 8d 0d 29 21 bf 82 e8 73 f8 70 1c 27 bf
       -0.0001309231800971863 -0.0001763236907448875
000430 e2 a3 9c 1b 5f eb 19 bf 30 b8 6d a4 83 77 35 bf
       -9.887474052717963e-05 -0.00032755817340202314
000440 7f ad d5 b6 63 3a 40 bf e4 f2 55 69 da 28 44 3f
       -0.0004952418218357317 0.0006152216398472546
000450 d2 13 78 eb 13 1e 90 3f 65 9d 32 22 11 1f d0 bf
       0.015739737746134193 -0.2518961748086979
000460 b8 25 8d 5c 5b 64 d9 3f b6 b3 08 a7 54 a6 12 bf
       0.39675029791086613 -7.114307096207817e-05
000470 9a b8 fc ba 2a 0c 1d bf 2e a8 09 cc fc 05 27 3f
       -0.0001108075218751746 0.00017565451527740264
000480 c9 f0 33 f2 59 16 30 3f c7 b5 08 82 83 bc 23 bf
       0.0002454728693945916 -0.00015057664224242385
000490 cb b3 a9 e2 2b 23 35 bf 47 1e a8 79 84 49 f1 be
       -0.00032253095074602213 -1.648633733888755e-05
0004a0 0b 9f 20 44 11 6c cc be 62 1c cb bc 72 16 d0 be
       -3.3881829333454533e-06 -3.835603774766154e-06
0004b0 e2 e5 1d 33 7b ff c0 3f be 52 61 c0 31 5e c3 3f
       0.1327966689675995 0.15131208318293504
0004c0 d9 2d 75 07 35 03 d5 bf 41 f5 b4 23 d4 0c 70 bf
       -0.32832074859899546 -0.003918484372943455
0004d0 b8 85 dd 7a d4 30 79 bf d7 7d a4 97 6d e9 70 bf
       -0.006150083541656519 -0.004128864379054651
0004e0 b0 96 80 17 38 45 13 3f da 6d 33 f4 d5 ca ff be
       7.351069314206582e-05 -3.0319525888040457e-05
0004f0 a8 48 91 5e 80 0f 0a bf fe b8 e5 fd 95 34 ce 3e
       -4.970655920345904e-05 3.6007659069337735e-06
000500 98 20 10 69 8b a5 e2 be f7 96 06 cb bb 5e d1 3e
       -8.891419641457712e-06 4.141343353946653e-06
000510 f5 46 19 e5 ca 98 09 3f 5e a3 17 fd 83 51 f5 be
       4.882210909030834e-05 -2.0330829846235277e-05
000520 9c 4d c9 41 b3 9a 05 bf 50 b8 0a 14 f5 98 40 bf
       -4.120692776568154e-05 -0.0005065151854830672
000530 c4 78 78 c3 6f aa 56 bf 60 ae 87 17 65 84 54 3f
       -0.0013834086838709217 0.0012522685266231001
000540 b2 69 bd f8 23 ce dd bf bc 1b 6e d3 11 92 d2 3f
       -0.4657068184948471 0.29016538283797977
000550 c6 97 7b 61 78 79 c5 bf 21 80 df 18 bf 8c d1 3f
       -0.16776947746183007 0.2742154829884403
000560 5e 66 05 0a 32 aa af 3f a6 3a ee 53 30 b2 d6 bf
       0.06184536335304068 -0.35462578007074297
000570 96 73 eb ef f5 7f af 3f c7 e5 ae 3f 11 30 d7 3f
       0.0615231376047866 0.36230879992544057
000580 72 be a4 6e 6c 70 e3 bf 51 02 46 61 d3 d9 a2 bf
       -0.6074735795027222 -0.0368181282274277
000590 fd 89 d4 c1 9d 0f d8 bf 01 ef 00 1e d8 67 e7 3f
       -0.3759531395791383 0.7314262948998193
0005a0 5b 70 31 13 51 1b 50 bf f2 cb 85 6c 15 d7 21 bf
       -0.0009830753085884522 -0.00013610970041674737
0005b0 a9 d6 b1 79 cc 91 3d 3f 6d 46 dc db 7f 71 66 bf
       0.0004511951644369053 -0.002739667629506218
0005c0 e6 b8 2c bf b6 7c 22 bf a3 4f f7 d6 c5 56 25 bf
       -0.00014104586406333343 -0.00016280331645523752
0005d0 a9 c0 cb be 38 26 d8 be 3d 69 46 8c 1e 75 13 bf
       -5.757642594459021e-06 -7.422446203123475e-05
0005e0 5b 2e 79 5a 6f 30 13 3f 2e 4a b2 f4 28 58 2d bf
       7.320098540580229e-05 -0.00022387981366430012
0005f0 02 04 bd a9 25 45 3f bf d8 7a fa d7 2f 54 3f 3f
       -0.00047714395053694025 0.00047804039057012864
000600 a2 87 bc 0d c6 8b 15 bf 02 3e 32 27 72 90 24 bf
       -8.219143222423659e-05 -0.0001568927142199112
000610 d8 4b ae 07 da 1d 0d bf 8e db 83 06 cf 18 c5 3e
       -5.5535522697123813e-05 2.5149475285606747e-06
000620 52 9b f7 13 17 85 d3 be 2c 97 e0 99 36 22 c2 3e
       -4.653902862617283e-06 2.161699014474342e-06
000630 d0 0d 0a 7a 32 6d 94 3f 05 e5 f1 20 06 56 cc 3f
       0.019947804163633454 0.22137524231565223
000640 33 0e 38 3c eb c1 c3 3f 4f f1 ee 59 d5 65 d8 3e
       0.15435543480281097 5.816885645989623e-06
000650 de 0d ef da b4 8d cf be 88 47 88 8a 8e bc e8 be
       -3.7614751912954983e-06 -1.179530620823759e-05
000660 b4 8e 00 4f 74 18 2b bf a8 9a 5a c9 cb b3 39 bf
       -0.00020672244818441753 -0.00039218640572828223
000670 2a fc f9 f0 cf ae 41 3f 54 db 29 13 c8 63 d0 be
       0.0005396380747270159 -3.907626068603107e-06
000680 16 39 9e 0f f4 75 e9 be 85 17 0e 5e 1f 01 e6 3e
       -1.214063421508793e-05 1.049250835350922e-05
000690 fa 99 42 2d 3b 05 4a bf 34 7a 29 af 72 2d 57 bf
       -0.0007940806340414601 -0.0014146442378187964
0006a0 55 5d 10 96 b6 5c 57 bf 51 13 eb 76 16 68 47 3f
       -0.0014259131496652995 0.0007143125238476632
0006b0 bb 29 aa 9c d2 59 48 bf 19 49 92 a3 20 7d 17 bf
       -0.000743129575611782 -8.960258209559194e-05
0006c0 42 4e 20 f2 16 47 fb 3e bd d8 8a bb b9 70 07 bf
       2.601403605957524e-05 -4.470888911127641e-05
0006d0 45 78 6e be 71 5e f5 3e fb 9e de e8 48 de 22 3f
       2.0378993123786283e-05 0.00014395370493257967
0006e0 5f 49 7f f2 f7 03 1a bf 81 d5 36 a3 4c d3 32 bf
       -9.924126481955984e-05 -0.000287252626743971
0006f0 e3 50 9f 0f cb 8f 93 bf 2a fa db 60 7b e3 d4 bf
       -0.019103215054045896 -0.32638439616121906
000700 81 9a 86 b3 ad f2 e0 3f f4 a8 9b b6 1f 76 da 3f
       0.5296238428462204 0.4134597094804484
000710 89 1c a5 1c 23 12 d0 bf 48 cf 07 02 53 5c c0 3f
       -0.25110700414047266 0.12781751250406104
000720 71 8c b7 a4 5b 29 c2 bf 56 0e e2 d9 17 9d d3 bf
       -0.1418871454507982 -0.30646320607795496
000730 4e 57 b8 f5 eb dc e3 3f 0c 06 e7 41 1c 1f e8 bf
       0.6207179831714968 -0.7537976538807825
000740 04 03 e7 6a 8a dc b4 bf 6e e0 7d ff 8b fa d6 3f
       -0.08149018392488122 0.35904216719018833
000750 44 3a 96 07 e1 0f 1c bf dd 61 ea 01 58 de 2a bf
       -0.00010704813930415789 -0.00020499061880198304
000760 54 04 07 6a 0e 7a 18 bf 1c cf 05 fd ca 19 2d bf
       -9.337151505574406e-05 -0.0002220211304223501
000770 00 1c 3c 54 dc 1e 5f bf 78 a3 fa 6b 50 f5 41 bf
       -0.0018994475985338877 -0.0005480425533806862
000780 f2 ff 62 47 8c 3b 3a 3e 91 d9 4e a5 93 28 e2 be
       6.107755293009969e-09 -8.658648917730923e-06
000790 c5 27 14 df 91 d2 d6 3e 5e 85 7d 0a 9a 62 f1 be
       5.441317157970102e-06 -1.6579783419406128e-05
0007a0 43 05 98 5a 7f 3b f8 3e 32 c1 21 87 6d 0c 17 bf
       2.3109828964256297e-05 -8.79232264041671e-05
0007b0 a3 53 03 6b 5e f4 3c bf 7d 4a b2 e1 5b d4 4b bf
       -0.0004418116104834507 -0.00084928976447636
0007c0 62 22 8e ab 91 99 21 bf 69 1f c8 52 e2 7e 24 bf
       -0.00013427642059251054 -0.0001563693307533546
0007d0 5a ad 37 36 b6 c5 2c bf ba 08 23 98 fb a5 12 bf
       -0.00021951531662920792 -7.113788709303933e-05
0007e0 42 a5 82 31 cb b1 39 3f d5 3e 0c b8 9a dc 56 bf
       0.00039206705833779245 -0.0013953696181409532
0007f0 37 a5 7a c8 92 4f 4a bf dc d1 be be eb 55 32 bf
       -0.0008029429163417871 -0.0002797794866140882
