Trained_models/20/predictor4_200_9.pth (torch, 357143 bytes, 16 tensors)

encoder1.weight f8 [104, 200]
00000000: e772 b34c 05f2 babf fadf 1692 dd91 a2bf
00000010: ffbc 49e7 512c c03f cdf0 e351 4b72 cabf
00000020: 5d2c 379c 9cae b53f aeb9 7990 dad2 abbf
00000030: d1a1 2f59 385e b2bf 5c61 a0a0 50d6 a43f
00000040: 276d 2ac8 877e c2bf 130b dddc 197a c63f
00000050: a02c b242 9acf c4bf 65db c82f dab1 aa3f
00000060: fd81 24aa 629f a4bf 85b0 0b49 f389 bfbf
00000070: b660 1061 d338 bc3f 77fc 3d45 e877 c5bf
00000080: 3070 4db2 d856 bd3f b85e dc46 4676 bdbf
00000090: 5ed1 b35a 9937 b6bf 434d 380a a248 b03f
000000a0: 9e48 35a0 ece2 bfbf 9ed4 95df 2c65 af3f
000000b0: 0726 b753 8c6a 97bf e8fd 2972 5fa8 84bf
000000c0: 6311 afbb 37d7 7fbf ef3d 369e 72fd c6bf
000000d0: b9c8 a75d faa2 ba3f 5c57 7f89 4a4b b0bf
000000e0: bf70 8a21 4e95 afbf 54dd f104 6ecb 973f
000000f0: cf76 420b 7e46 b5bf c13b 3bcb 0ec2 bf3f
00000100: 0366 31e6 84af c6bf 9842 6322 8d6e 883f
00000110: eb7a 1199 93e4 a03f 6b11 e2d3 f117 b3bf
00000120: 7e91 c7d3 666a ac3f 92a6 6531 6dae c5bf
00000130: 1d28 d8ec 3586 b83f 7afd f072 d575 a1bf
00000140: 2228 ea32 cefc b5bf 81c4 3204 5545 af3f
00000150: ee8e e807 96af b5bf f8e9 440c d6d6 b03f
00000160: e6c0 a836 0477 bfbf 6205 d104 9442 423f
00000170: c74d fb2f c501 ae3f 2a55 b583 9317 b3bf
00000180: ceb5 084e e250 a63f 9bc0 3f77 62b3 b5bf
00000190: 9cd1 c9d8 67d8 b23f 90de a241 3584 533f
000001a0: 708f f261 3f26 a7bf e0d4 e9f0 6da6 b23f
000001b0: 338a f42b 5988 b2bf 3d07 5b11 e810 a63f
000001c0: 4f7b 53ce 1fd7 a0bf 5c4e dc0d ebc8 8bbf
000001d0: 4982 a265 246c 8f3f e4ef 53a6 2f12 b1bf
000001e0: 0d74 e413 ecfc a83f b514 38da 9c2c 98bf
000001f0: 8921 fc66 e2a5 a1bf 6262 99ee 8cde b53f
00000200: 9a9d 14cf e77b b4bf cef3 942d 8932 b93f
00000210: f592 16fd d763 b3bf dfef c920 e87a 913f
00000220: b545 b811 f1ac 863f a997 26fc 5e63 a9bf
00000230: b63f b49d 7e33 b73f 4b97 6c23 7dd6 b0bf
00000240: aa9a 312e ff5f aa3f cefb 6e08 9ed1 923f
00000250: f369 2cb6 85ab a1bf af47 234d 7679 a33f
00000260: 741e 0990 0157 bcbf cd3d 9a40 fe2c a13f
00000270: 4219 6c88 28d1 963f 97ac bc44 1393 a7bf
00000280: ffa5 f33a 12f0 ac3f 8952 c898 49b1 aabf
00000290: 5e9f cf92 cf4c 903f 70be 9fda 426a a73f
000002a0: 814a 969f 2aec b6bf fd41 dc92 b73b a63f
000002b0: d425 41e5 14ea abbf f958 7f55 3af9 bc3f
000002c0: 1f3e 084c 470b a7bf 55c3 f8c4 5c4c babf
000002d0: 7e23 db35 efe4 b33f 4716 46d3 d179 61bf
000002e0: 48aa 85ab dd57 a53f b59e f7a0 92d4 9dbf
000002f0: 15e9 4d5d 70a8 a83f 1417 9648 e194 a8bf
00000300: f859 1dcb 75a9 603f cd58 4149 6f16 6abf
00000310: f4cd 7dd7 0cc0 8f3f 57da 6023 a802 6d3f
00000320: 942c 1091 fb9a b4bf 4f31 ff9b 6083 a73f
00000330: c28f 4e9c 24b4 b1bf 2243 fc9d a8ad b23f
00000340: 6d82 6b7f 3338 b7bf 3015 994a 6e41 903f
00000350: a936 fe77 11cb bb3f b670 961c 05f2 c1bf
00000360: 2bec 2e5a 4a44 c23f 292b 0e4c 0ce2 b9bf
00000370: ab02 4689 c146 b13f 7214 c42b da16 a2bf
00000380: e101 3834 7956 a3bf a0e3 bf9a f886 b73f
00000390: e171 5848 6aec c6bf b9b1 1853 afd3 c43f
000003a0: ec1d 6a11 9c2e c1bf cd98 897f 0110 893f
000003b0: e022 7264 2b6a b13f 54d3 4b2b f285 c0bf
000003c0: c48c eb4e a4ca c53f c059 ba1f 4bd0 c2bf
000003d0: 4631 04c8 aa03 c03f ef53 248f 4a97 b4bf
000003e0: abbe a5c1 bd96 b7bf 9186 2cdc 7fa3 c03f
000003f0: 8a5f d4a1 78e6 c0bf 3666 89c6 471d c13f
00000400: 4a50 29fd 7531 b6bf b15e 788a 78e0 9f3f
00000410: 6653 6415 bd12 a03f cfa5 8586 89eb b5bf
00000420: ab0e d2e8 791f b13f a23e 0b94 03e4 a7bf
00000430: 4684 a0aa 5ba1 b23f c5ad 8bcf c1f2 98bf
00000440: f73a a3f6 2422 a5bf bb80 eee3 723c 973f
00000450: a4c7 4efc 1d8a 9dbf dc5b ba82 5ef6 9abf
00000460: 5558 d452 64da 75bf 3c8b d072 5706 a4bf
00000470: 778a bd57 5558 a0bf e8e8 2412 f3f2 9fbf
00000480: 728c 3c6d f517 a8bf 5e55 f2ac 6a5d a63f
00000490: 5274 51c3 d21e b6bf b300 f529 5883 9a3f
000004a0: 1674 61d3 804d 9dbf d6ab 4dc8 7188 a0bf
000004b0: 9fe5 5fd6 3994 a43f b608 5ffa 0653 b1bf
000004c0: 4ffa 1ffa 767d c03f fd75 9c32 d52f b9bf
000004d0: 034e a9be 0cd5 a33f d8e8 adda 1883 973f
000004e0: 8c85 e8a9 0f5d a5bf 6a6c dae1 905f ad3f
000004f0: 7f30 e657 408d bdbf d9c4 5c7b d6b7 bb3f
00000500: 3373 82b5 0943 b5bf 76a8 bc33 997d 813f
00000510: 2c5f f7ee 74c3 a63f 1565 137e 4b92 c1bf
00000520: ad71 4ce2 b62d ba3f ce1b 5189 fedd c2bf
00000530: 56c3 c247 5958 c43f 23b8 2675 b18b a9bf
00000540: 163e 3acc a7e7 a9bf d6e8 7ad4 161e bd3f
00000550: 714c 2cff c620 c7bf 6537 c59e 6221 be3f
00000560: 7dc1 0c69 f1fa bcbf 276f 77b6 a493 b03f
00000570: 8d06 6ef8 9e03 99bf ee20 4b37 31c0 c1bf
00000580: 4e09 827c 142b c93f 8c47 adc4 a0f2 c7bf
00000590: 8785 56a1 c5f4 bb3f fc14 fac7 b9dc a8bf
000005a0: d91d 2719 be26 9bbf 0edb f1e2 88b2 c23f
000005b0: b69d 7117 0ca8 d1bf 6dfb 0678 dae2 c63f
000005c0: 2489 9f07 00ba c2bf f533 f75a 399f bb3f
000005d0: aa5a aee2 379e 6cbf a18d e98f e47f c0bf
000005e0: 5f57 c31b e0ad cb3f fa0f 7199 188f cabf
000005f0: 4338 c365 b241 c23f 32c4 d001 bb99 abbf
00000600: 6e34 884d 076d b1bf 9e8f 5fbd 4299 b93f
00000610: a1b8 a11e 44ab cbbf 0699 bcd1 4ad2 bb3f
00000620: 5611 be06 8621 b7bf 39c2 3579 7043 943f
00000630: 6e3f ee4f 3b4b b43f 027a e959 afe1 cebf
00000640: 59ce a0cb 1b3a d1bf 24bf dfd4 d76d c43f
00000650: 0b34 f59d 3184 a9bf 1ec6 697f 9ce4 8fbf
00000660: 020f 3073 0381 abbf 18f0 a45b 05a5 aa3f
00000670: dc23 1bb9 0a6f c2bf 3ad6 344c 1eba ca3f
00000680: 70f2 36b4 9f84 aabf d89f 2ad9 e314 a63f
00000690: b690 51f2 9390 aa3f 60b3 86b4 5c96 93bf
000006a0: f4e7 510a 11fe a93f b76a da06 1e42 adbf
000006b0: dbdb 1288 ac9d abbf d917 1e7a 6a74 863f
000006c0: b7d0 f2a3 b5c8 8bbf 6a5b 7232 b5a8 babf
000006d0: 1fec b366 16ab bd3f 1aa4 d808 794c c3bf
000006e0: 1f24 fbaa c68f c03f a3b9 b199 ab7f a03f
000006f0: 1a21 af5c 8e22 84bf 1d93 59ab 1641 b83f
00000700: 1269 9010 990b 903f 0e10 8ba8 8fe3 b8bf
00000710: fa24 70cb a831 c23f c692 f6b2 abd2 b1bf
00000720: 5030 2e71 3443 863f abca 3bae 94b4 7dbf
00000730: 17f4 38f6 b104 b0bf 7d3e debc fe26 9bbf
00000740: 41f8 2dde 3d24 c23f 5048 550c 24cb c4bf
00000750: ae5c 3e7f 7960 bb3f 5915 dd9c 4311 bdbf
00000760: 5189 8ce6 bbe8 83bf 4ee3 bbd0 7d39 a63f
00000770: dfb5 f6cc 7f62 a9bf 4cb0 60b4 5d46 aabf
00000780: aae3 2c2d 5268 9b3f 89ba e275 f53c a7bf
00000790: 3996 55be 9fcf 9e3f 7e41 1eec 6e39 c73f
000007a0: 707b 96ab 9792 c4bf 6173 157e 1f6b cb3f
000007b0: dc88 14b0 97f8 c0bf ae37 06b5 1bd9 b43f
000007c0: df7b 9933 87a8 a3bf 2829 6617 4b27 b23f
000007d0: 0120 51b3 180d aabf 41ce 8021 2cb6 b83f
000007e0: 98c2 45f8 f82f c1bf 9230 b830 4766 9a3f
000007f0: bdb0 85df 2ee4 6cbf 2b44 7ed5 fa1c a2bf
-0.10525544283468556 -0.03626911552731822 0.1263525370918401 -0.20661298273615217 0.08469561399322019 -0.054343061577003623 -0.07175018479723085 0.04069759331486253
-0.14448640130726995 0.17560122761104732 -0.16258552796020798 0.05213815530117109 -0.040278514165269265 -0.12319870503751147 0.11024209136701554 -0.16772178059543183
0.11460642197693072 -0.11508597593307968 -0.08678587402738944 0.06360829114446624 -0.12455634032565618 0.061318781178593115 -0.022867386445602402 -0.010086770698079797
-0.007773606975153366 -0.17960961079778268 0.10404934679516743 -0.06364885193701525 -0.06168598327096352 0.023236960460477477 -0.08310687804120252 0.124054836861645
-0.1772314189900471 0.011929609882288347 0.03299390071400928 -0.07458411620070186 0.05549928031158212 -0.1693855754086156 0.09579789192517336 -0.034102125435761146
-0.08588875525507025 0.06107583690880692 -0.08471048062397887 0.06577813911000152 -0.12290979704335178 0.0005572531459920144 0.0586072560378415 -0.0745784946969549
0.04358584597171565 -0.08476844226220452 0.07361458819088401 0.0011911888200709965 -0.0452136809410878 0.07285201198267854 -0.07239301036001038 0.04309773647174928
-0.032891267715732135 -0.013566814766398476 0.015342983581207241 -0.06668374834765661 0.048804643085738154 -0.023607683962855137 -0.0344687224115346 0.08542710137533896
-0.08001564794232366 0.09842736590230958 -0.07574224404249803 0.01707041454436353 0.01107204757048206 -0.049586265831109096 0.09062949514577565 -0.06577283968780738
0.051513647450339775 0.018377751602880292 -0.03451173638150697 0.03803605739234627 -0.1107026077889886 0.033546395669982944 0.022282250715784054 -0.046043970242260084
0.05651909799219012 -0.05213384618779055 0.015918010078081017 0.04573258322477336 -0.0895411147705918 0.04342435519913932 -0.054520276055494726 0.1131779154523861
-0.04500792315604606 -0.10272769745712414 0.07771201195568087 -0.002133283438697817 0.04168598860527034 -0.029131213259374806 0.048160087003411935 -0.0480108643633185
0.002033929887072402 -0.003184525829094209 0.015503025366093028 0.0035413059186127182 -0.08048984805661724 0.045924204866966016 -0.06915501419149364 0.07296232087197699
-0.09070131169165459 0.015874598792170846 0.10856732539670112 -0.14019836326486307 0.1427090587947942 -0.10110546929187748 0.06748590089228894 -0.035330598680993655
-0.037769115089762335 0.0919032457167206 -0.1790898183106853 0.16271010930485177 -0.1342349133521873 0.012237559990535019 0.068026268027221 -0.12908770670005743
0.17024663785477945 -0.14698161172118596 0.12511191145348216 -0.08043352121997292 -0.09214387872429579 0.12998960734062284 -0.13203342344126795 0.1337060660760458
-0.08669221335122859 0.03112972588686941 0.03139296423083841 -0.08562526258687984 0.06688653883071065 -0.04666148359467327 0.07277462878893556 -0.02436354474313675
-0.04127612601006619 0.022691531335681896 -0.028847187542573885 -0.02633044884586498 -0.005335227860333876 -0.0391108825354167 -0.031923930130479165 -0.031200216276581566
-0.04705779036000814 0.0436814628712152 -0.08640782612333567 0.025891664086203203 -0.028615963842060742 -0.03229098863706496 0.04019337407948886 -0.06767314541415001
0.12882888043528104 -0.09838612065910719 0.03873481585892693 0.02296103319847806 -0.041725625506170066 0.057369735307667494 -0.1154365744207002 0.10827389251496146
-0.08305416756998056 0.008540341273676182 0.04445996682232897 -0.13727706581156754 0.10226004624241254 -0.14739972786830297 0.1589461899179933 -0.04989389948910652
-0.05059551589976878 0.11374037444594207 -0.180687784763538 0.11769691826085944 -0.1132040864438348 0.06475285963773257 -0.024427875435782332 -0.13867774200321697
0.19662719802370038 -0.18709191897738398 0.10920367421069531 -0.04855900350688988 -0.026514978680806187 0.14607344704901276 -0.27588178910670125 0.17879801617342697
-0.14630127308107277 0.1078983161052774 -0.0034934131158011654 -0.12890297915428753 0.21624375682466287 -0.2074919461466605 0.14262990921855775 -0.05390724560891903
-0.06806989329216304 0.09999482272502155 -0.21616412635507223 0.10867755527997155 -0.09035527863131185 0.019788510702200866 0.07927294446403518 -0.2412623585723424
-0.2691716660076274 0.1596021451400641 -0.04983668378063307 -0.015572760237065938 -0.053718669711114955 0.05204025977806753 -0.14401372946147617 0.20880488129630398
-0.051793089627129585 0.04312812829931517 0.05188429196349047 -0.019128273504679938 0.050766499051817876 -0.05714505990655055 -0.053937331781916696 0.010964233257038035
-0.01356641680317981 -0.10413677674874369 0.11589183814423663 -0.15077126438089367 0.1293876967304479 0.032224047194961324 -0.009831535533422687 0.0947431724867553
0.01566924251174224 -0.09722230782341532 0.1421404832220004 -0.0696208297654933 0.010870370582573369 -0.00725229338034931 -0.06257164250651247 -0.026515941884609696
0.14173100803958685 -0.1624493656368622 0.1069408355382275 -0.11354467944791703 -0.009721248601242268 0.04340737507840818 -0.049579614419922306 -0.051318100231896396
0.026765140540394285 -0.04538695396455689 0.030088897697529957 0.18144022492607442 -0.16072364691077778 0.21420663505969187 -0.13258644197146097 0.08143780869997272
-0.038395142601750136 0.07091206856981513 -0.05088116825987755 0.09652973001430444 -0.1342765056865758 0.025780784939386132 -0.0035267749300854343 -0.03537734848135473

encoder1.bias f8 [104]
00000000: b38f 88bc 30ea d1bf 8183 3b56 bc57 e0bf
00000010: f662 5329 00da cfbf 871e 7e6c 4aae d3bf
00000020: c99f e28b aa10 d1bf 79a2 fe37 910c ba3f
00000030: 8c20 7096 f385 e0bf 7d28 423b 8223 f63f
00000040: 7557 11af c918 d1bf 20d6 3274 d764 d2bf
00000050: 5804 ab2e cc37 d0bf ec86 0cc4 d60f cfbf
00000060: 1b64 1dfa ac8f c4bf e8c6 41d6 482b c9bf
00000070: 186d facf 588e c33f 361f a06b aae4 c33f
00000080: 6d3a 440e 79ad cdbf 3fa1 f576 39a6 efbf
00000090: b7d3 fde8 00c6 c4bf f572 d2b4 e03b b73f
000000a0: a61c 0c45 9890 cbbf a4eb 5b09 7b19 d2bf
000000b0: d9de 32ea cc69 d5bf d377 e5e8 860a c0bf
000000c0: dba0 5189 9580 cabf c9b3 521c 2197 b9bf
000000d0: 8bd6 fc13 6b33 c2bf aec8 10b7 49e5 cebf
000000e0: f63f 8413 b323 d2bf 22dd 548a f9b8 c83f
000000f0: e84e 4562 b3f2 bebf 42c1 6391 7311 d1bf
00000100: 5f6e 134b 6145 c9bf aa18 5955 e17a c5bf
00000110: 3236 f2f7 7afe c9bf d4eb 8cfe bc11 cebf
00000120: 23bf bff0 eff1 d7bf 7b93 5c85 2d6e c4bf
00000130: 4e19 08ff 548b f23f 1469 2b44 3184 cdbf
00000140: 9595 eddf 5f62 d1bf a0b4 7592 99ae cabf
00000150: bf52 ba4f fd37 d6bf 984f 4721 1260 d8bf
00000160: 1b6a 7ce0 e773 d03f bb8e c1f3 646a c13f
00000170: a20d ea43 3bb1 d3bf fb7e 84a0 c044 ccbf
00000180: 3f1f 730f 890e c5bf 8085 0d93 65b1 d1bf
00000190: 1aa9 fca5 f5b2 c9bf 5c48 5b9c 2236 d0bf
000001a0: 5a66 6474 0eed c9bf c4d1 9168 70e4 bebf
000001b0: 1a1d 201b ee3c d2bf c77c 272d e323 d0bf
000001c0: 759b a079 913e d1bf 4cfb a4a0 34fa cdbf
000001d0: 3d7a c10f 3fa3 d5bf 4c05 f683 5492 d33f
000001e0: a9cf 265a 08cd c7bf 8c32 e6db 725b dc3f
000001f0: 8736 854f 2c00 cebf 7890 a2ad d66b cabf
00000200: 22d2 88d4 90ac d5bf 1aa2 8075 26bd c53f
00000210: 9881 e78b b316 e9bf 2a29 7727 2be4 ddbf
00000220: 5255 439b f072 c33f ce96 390d a04c d0bf
00000230: 5b34 d4e7 f39e d3bf 40ee 10c4 1e94 c4bf
00000240: 6cdf af64 80b3 cb3f b8ca c74c 8302 cbbf
00000250: 370a e7f0 0d65 dfbf 2773 cf11 0838 cfbf
00000260: f64c f2b9 0bc8 ccbf d7a9 7c04 1684 d43f
00000270: e27e 6901 8fe7 ccbf 616e 3a43 cd0e c0bf
00000280: 3308 d8eb fea9 d1bf 9609 6956 f121 c4bf
00000290: 47c6 bbfd aad3 c83f da8d 6329 66cb ccbf
000002a0: 9c65 472b 3192 7b3f 2e90 5524 4e9c c4bf
000002b0: 69fb da16 fc24 cc3f 486a b283 b531 ccbf
000002c0: 0ef7 be00 41d7 d1bf c316 7089 9dab cd3f
000002d0: 54f0 6139 5390 fc3f a203 9829 2080 f03f
000002e0: efee e595 20fd d1bf 2019 10f1 7be6 cbbf
000002f0: 8aa7 0a9e 9510 d5bf a615 04e2 87ef c53f
00000300: 17ee d730 c436 c6bf 1a72 2e6e 443e cbbf
00000310: f87b 7493 c06e d2bf 6309 296e 96dd cabf
00000320: 2638 b02f ca11 c2bf 5281 7a85 c6f0 c03f
00000330: a026 0cc1 34f9 d4bf 8570 432b 5286 cebf
-0.2799188462397481 -0.5107099231937441 -0.24884035127504206 -0.3075128612040107 -0.26664222393673903 0.1017542611795167 -0.516351503204548 1.3836691202909883
-0.26713792892893845 -0.28740488383786733 -0.25340561444688126 -0.24267086575223773 -0.16063463413846155 -0.19663343869938577 0.15278158335863945 0.15541582350874145
-0.2318564719830251 -0.9890410731723377 -0.1622925889638773 0.09075741209603534 -0.21535018321467198 -0.2828052131077874 -0.334582546910935 -0.12532125827686844
-0.20704907612822052 -0.0999623006961904 -0.14219416118583114 -0.24137231291530753 -0.28342892557066024 0.19314498190372215 -0.12089081906497834 -0.26669015119752626
-0.197429811151653 -0.16781250636467365 -0.20307862383599368 -0.2349163287088617 -0.37414167891164335 -0.15961236011312593 1.159016605584458 -0.2305966933116187
-0.27162930362677545 -0.2084533658157044 -0.34716732774658604 -0.3808636975274964 0.2570743267293964 0.136059397717977 -0.30769235260251027 -0.22084815824290857
-0.16450608496074356 -0.2764524398863486 -0.20077391247588922 -0.25330415028759545 -0.20254688914501423 -0.12067320397347375 -0.28496887825936457 -0.2521903935393763
-0.26944386365578704 -0.23419816822021244 -0.33808876551293904 0.30580628287141987 -0.18594459917005438 0.44308158373386486 -0.23438028223829496 -0.20641597250244437
-0.33865757708852773 0.169834906934981 -0.7840211613184236 -0.46705130437898623 0.15194518643572025 -0.2546768311643576 -0.30657670630973194 -0.16077026914159553
0.21641545215947688 -0.21101418732685828 -0.4905428745807145 -0.2438974463429073 -0.2248549135152655 0.3205618900125535 -0.2258166081328375 -0.12545171530369983
-0.27600071937206677 -0.15728584975483945 0.19395959271746419 -0.22495724698010983 0.0067312164942107365 -0.16102005743152986 0.21987868419634118 -0.22026699953569762
-0.27876305649611843 0.23179978571731938 1.7852356187350056 1.0312806725271249 -0.28107466352933747 -0.21797131796501734 -0.3291372340560136 0.17137239967284507
-0.1735463369840182 -0.2128377473826653 -0.2880097808828732 -0.20988731745644448 -0.14116790131123585 0.13234788434511785 -0.3277103314618248 -0.2384741507766003

encoder2.weight f8 [9, 104]
00000000: bc6e fbd0 3279 c13f 1ba8 142e 513a da3f
00000010: 2a4e 9faa d568 ce3f 5497 5534 495a cf3f
00000020: aa3a 54dd 8ee1 d03f 580e 1efd 7ad3 cd3f
00000030: 539a 190a 22c3 c83f 75e7 92ef 6d24 cfbf
00000040: 0bd8 ea3a 3eee b9bf f92c 8fbf b282 d33f
00000050: d843 b9f8 8d27 ce3f ccb1 3232 31b5 c93f
00000060: 98e6 e33e 072c d23f 2971 ba39 b46b d03f
00000070: 8a6a 2069 5645 aebf 7ba3 9a96 81c4 cb3f
00000080: bc30 51cd f5dc c53f c3dd 40b5 0bd2 de3f
00000090: 8eed c0b8 da73 cb3f 2ee0 48e1 e4fc c8bf
000000a0: 183c 9565 5ab2 c93f 5d0d 4770 8b36 b13f
000000b0: fa4c 7ff4 8160 d23f 7475 46f4 f312 cd3f
000000c0: c93f 9b50 9e5d c43f 2830 084e a0fa d23f
000000d0: 9616 3c2f e2ac d53f d7c0 dc2b 8cc7 ce3f
000000e0: 0e86 5b9d cdcb b53f 4fa9 5662 dc2c d3bf
000000f0: 25f0 20e3 4434 b7bf 8cb2 315f 25cd d03f
00000100: c119 0c9d efad cf3f 3e42 2fdd 5a51 c83f
00000110: 5c98 8fb3 39d1 c43f 01df 4df6 c2ab c13f
00000120: a163 3dec 76b2 b13f ef93 df7f b5de c63f
00000130: 269f ffba ec50 b83f 1ba6 f901 cb23 c73f
00000140: d93a 2b45 b4c0 b03f 941d 9aee adee 9f3f
00000150: ff55 6ee7 25f5 d53f 908f 7736 7a15 d23f
00000160: 306f 9d4c 9ddc be3f 7bcb 7f5b ee09 d33f
00000170: c258 10d7 ceb8 d33f c053 f403 1ed8 cd3f
00000180: cae9 39c0 cacb d03f 066b 3774 622a bd3f
00000190: 8487 9206 d8f8 d03f 0a9d 1edb f59c d13f
000001a0: 5903 8448 b476 c93f 5f82 aac5 22e2 ca3f
000001b0: 41da 8e6b 1242 d03f 779d 4dc6 2ea9 973f
000001c0: 6668 fb05 0701 a23f ede3 8828 abbc 8cbf
000001d0: 5833 131f 5ddd b03f d0ff 733b 8a35 c83f
000001e0: fa84 09d2 3402 d13f e502 d9bd 64d0 b43f
000001f0: 26fb da61 43f7 c93f 854c b6e4 ba0d b73f
00000200: a93f ddf4 bc11 a03f 29f8 1ca3 c230 c0bf
00000210: 563c 3f18 d30a dd3f ce4f 8d72 67ea d43f
00000220: 6a89 0ad6 83c2 d63f af86 2f85 76e0 803f
00000230: 6eeb 94ba 1bc0 a2bf 6758 3799 0c44 cb3f
00000240: 4a73 370b 2c84 d53f 5b0b 9f71 1b14 d03f
00000250: 5e04 e1d4 7308 db3f 9e0f 55e4 29f6 c13f
00000260: f385 a1e7 52ff c23f 4ee3 338c fc14 b33f
00000270: 4180 a5fc f48a ba3f c540 0c79 356e d03f
00000280: fe58 2fbf 39fc 8d3f 9b3e f9b8 23d2 c73f
00000290: d09a 3ef7 eb11 99bf 2384 4c5e 49c2 c03f
000002a0: ccba f957 4535 983f 22d4 8933 0d4b cb3f
000002b0: 0bf9 ec89 ecf7 d53f 9cea 5626 e47a bf3f
000002c0: 11dc 6bab f180 d03f 60f6 b70b 369d bf3f
000002d0: 2c37 28ee abc0 c0bf 37d3 64d1 a632 c2bf
000002e0: b747 8cde d560 c13f 2fcb 31ab c69e bf3f
000002f0: 52e1 f926 2abd b4bf e2cf 3563 e130 c13f
00000300: 0718 ed0d 019a cb3f 6a51 3af3 e2d2 cf3f
00000310: 452f d590 44f4 b43f 6e70 cd88 f130 cb3f
00000320: 62d0 5178 e847 d23f 4d5c 49f8 f56c c0bf
00000330: cf5e 3a20 2675 d13f 4b6c bf39 54e2 d33f
00000340: 014b 94e1 89a2 85bf 32fc 82d8 6bc9 a73f
00000350: 148b b6a6 eb32 92bf e927 2295 3bed 883f
00000360: 5e8a bb31 5a8c b33f 91f2 b4f1 23dc a0bf
00000370: a977 8458 6586 d03f 4e71 d056 f2b8 cd3f
00000380: 06f3 8e85 e0f4 aabf ee6c b5c1 ec59 b53f
00000390: 4629 2835 54da 9b3f 5072 fac1 56a4 c93f
000003a0: ebe6 d26f 7363 ae3f e6ec 1187 9ce6 6f3f
000003b0: 5942 5e17 003c d13f 4e7c 583d 7a0f c83f
000003c0: 5ca2 b00c aabb a2bf 301e 99fa b9d4 68bf
000003d0: 7c0f ee14 048c a13f eb13 cef4 2e73 c23f
000003e0: 8866 9e62 44ca 89bf 1010 76bf ffd3 bebf
000003f0: 2ebb a7d2 86a5 b13f acb6 79f5 ded8 8a3f
00000400: 32d2 8416 5c8f 84bf 453c 1673 a9c9 bdbf
00000410: bc0e bfc8 e430 ce3f 0537 0747 2946 953f
00000420: 2586 7b7f fc55 94bf 7d41 9167 9093 d93f
00000430: 3b91 62dc 79ac 75bf b5b8 24b1 3ebf a83f
00000440: b3f9 b0f6 65d5 993f d42d fe47 88be 8c3f
00000450: 6413 f661 4b0a 97bf 1a9a 1eb2 42da 82bf
00000460: 8c8b ed8f 09ed ccbf 0168 025a 499f a33f
00000470: eb91 dd53 510e b63f 7da2 9ffc 6904 a9bf
00000480: 580b afe7 2913 9bbf d5a5 2e3a e6a3 b0bf
00000490: 02c4 2d74 874d 98bf 1e9b e5ca c731 973f
000004a0: 1294 0c88 d63b cd3f 462a 8e1c b05a 91bf
000004b0: 317e 77ff 0ab7 983f 468e 7126 f824 a5bf
000004c0: d3c4 10cb f04a 92bf 7a74 2052 1121 a8bf
000004d0: e431 5070 c7ad a73f 6a01 d28c 8147 b33f
000004e0: dfdb cb13 d1f4 a13f 051f 7fd5 c0aa c4bf
000004f0: 0551 f1f3 c70b 9b3f 45dd 6d4a 8161 9a3f
00000500: add5 3f85 6c2e 873f 59b2 407a 8720 81bf
00000510: de53 db55 596d c3bf c369 c39c 5043 d43f
00000520: caf1 8588 d2b6 a13f ab87 d6db 7041 dd3f
00000530: e730 ee5b 1fd6 863f 0a00 942a 7949 8cbf
00000540: f8e4 af6d 1c24 bcbf 8aaa 8334 a6c4 c23f
00000550: 01dd b10e 142c bb3f 5b61 4b45 2261 b43f
00000560: a619 4ff5 4c8b 9abf 6749 774b 0abc b3bf
00000570: ffe1 b305 85b0 b5bf 8cc6 7a1f 1dd9 a5bf
00000580: e1b5 55b9 4691 95bf a7d0 3b0f cd87 923f
00000590: a899 d89f 57b5 c73f 6c71 082a c44c acbf
000005a0: 3495 c6c6 06d9 b1bf 6db5 d153 30e5 d33f
000005b0: e56f 21e5 475f ab3f e828 3077 5f55 a73f
000005c0: 972f 63ba ba6b 963f 1459 c501 ce50 91bf
000005d0: 38dd 33ed f379 b93f 7256 1014 caa0 acbf
000005e0: 4b54 dbd0 0044 92bf cd66 216f 47b2 983f
000005f0: 06a4 f126 fe9e df3f 62e8 4948 7066 a4bf
00000600: c9b6 2730 d0ee 9d3f 7291 3d38 dfc5 d13f
00000610: 3760 0644 2c73 d63f ff73 acd3 61e2 a13f
00000620: 0318 efb9 9cda a2bf e3db 95d2 b1fd a6bf
00000630: 57d7 f916 0e53 c3bf f44a 7740 d1c8 ab3f
00000640: f24a d623 b44b a13f 80f1 b9ef 27c1 a83f
00000650: 48b8 455e ecc4 a0bf 593b 8b3e a095 a23f
00000660: 6c67 6cb7 ad10 be3f 681f 84d5 05db c23f
00000670: a3af c9b3 711c 9f3f caee a0b9 a77f b43f
00000680: 766e 3d84 0902 adbf 8f7f 4eab 997a d43f
00000690: b914 8670 68a2 ca3f 9a6b 663c 6960 ce3f
000006a0: 1cc7 7595 117c cf3f f981 52b4 42ef c3bf
000006b0: c4ec 11ef 6549 cb3f eb41 014e 2338 d0bf
000006c0: 3d2f 6703 ceea b7bf 8000 0f50 90cf d23f
000006d0: 8e67 8887 0db5 cd3f 92b5 5d74 a29a d73f
000006e0: d867 2e91 2a12 d63f 2fd3 3d46 7cd4 c23f
000006f0: 86e8 b741 a059 c23f 940e 83f1 7c20 a03f
00000700: a7d9 c36b 1bcb c13f 1a51 b2c5 ad4c e13f
00000710: 218e 2bca 4259 c93f e80b 441b e038 863f
00000720: 7f37 22e6 eb22 c53f 1257 efb9 873f b9bf
00000730: 10a5 0b5c ad5a d13f f34f 8cca 0d02 c63f
00000740: 8637 ac45 cb14 be3f a7cb 7dcf 8d65 d53f
00000750: ac44 27ca a1fa c0bf 3cdc 0175 f29c ca3f
00000760: 8b12 0b2d b606 a53f 6120 a014 da02 ca3f
00000770: 4b9d 5e9e 0c80 de3f 600c 34a2 0b47 d13f
00000780: 547b f1eb 11fb cc3f 2bde 9a13 5c86 c43f
00000790: 43f7 5f01 6f37 c03f 2b0a da43 7fc9 a4bf
000007a0: 8c3f 746e 1c1d 9ebf bfd7 cee3 f95c c33f
000007b0: 6434 5595 8b1f d1bf 66e8 60dd 6e04 d13f
000007c0: 17c3 9bf1 9954 ad3f 207d 48fe b514 9cbf
000007d0: 469e 57dc eae8 d33f b93b 5b39 86fb d23f
000007e0: b025 6eac 3753 d03f 97f7 0aa7 feac d03f
000007f0: fb79 e560 69d0 d03f 4887 3cc7 a9f8 ca3f
0.13651118473250345 0.40980939388339416 0.23757429915586786 0.2449428086794635 0.2637669717231953 0.23301637038467748 0.19345498555340387 -0.24329923818532576
-0.1012915510026177 0.3048521872230619 0.235582109877696 0.20084204627109015 0.28393727437615146 0.2565737308266472 -0.05912275346073155 0.2169343934413311
0.17080566907168826 0.4815701742222382 0.21447309514210783 -0.19521771431186735 0.200755405045556 0.06723853579665247 0.2871403587025295 0.22714089801312876
0.1591070073686736 0.29654700870810524 0.33867697346463765 0.24046470777239534 0.08514103976951778 -0.29961309054728685 -0.09064131302960783 0.2625211171751196
0.2474956051666606 0.18998275566129225 0.16263505237219789 0.13805424715587125 0.06912940280507353 0.17867153877082795 0.09498481336015327 0.1807798156399237
0.06544043244069132 0.0311839272385704 0.34308765030559124 0.28256087607427904 0.12055380936129434 0.2974811452433454 0.30815478327111745 0.23315787499509888
0.26243847629635 0.11392798745457008 0.2651882232840921 0.27520510099789475 0.19893506565861221 0.21002611781752287 0.2540327120181339 0.023106318334070033
0.03516408870719161 -0.014031731771966672 0.06587774284998937 0.1891339102076004 0.26575966369098547 0.08130483279183982 0.20285837438674398 0.09005325397292736
0.03138533104959091 -0.12648804630765767 0.4537856804644823 0.32680689036101007 0.35562225248772583 0.00824062913847298 -0.03662192013367514 0.21301419717082412
0.336192141488756 0.2512272462446867 0.4223908976455898 0.14032481812512015 0.1484168654451846 0.07453897879521529 0.10368281524779467 0.2567266161068001
0.014641238352777194 0.18610044986643434 -0.024482428517923094 0.1309291563457303 0.023640712256048954 0.21322789207957366 0.3432570788317128 0.12296892105124829
0.2578701185261148 0.12349260126208028 -0.13087987068905116 -0.1421707651549242 0.13576768271064818 0.12351648025086769 -0.0810114236027222 0.1343042120384999
0.2156373327254075 0.24862324596746116 0.08185223136859772 0.2124311368924085 0.2856389212604481 -0.12832522033088126 0.27277520320192833 0.31068902625492417
-0.010563924023278217 0.04645859735455139 -0.01777237134013905 0.012171235550585595 0.07636035646604841 -0.03292953801653654 0.2582028736522895 0.23220662344909687
-0.05264951353408347 0.08340339402404925 0.027200046295584167 0.2003277251395894 0.059352500343676194 0.0038941437892937468 0.2692871311383321 0.18797233577149303
-0.03658801464945746 -0.003031123390232947 0.03427136188022836 0.14414011910790178 -0.012592825183492154 -0.1204223482546356 0.06893198626469818 0.013108960977855709
-0.010039061963291383 -0.11635836658227657 0.2358671169478067 0.020775456390587105 -0.019859261780658017 0.3996315966988034 -0.005291439074572242 0.04833408272166776
0.025228112394182833 0.014035286614464328 -0.022500207761840044 -0.009205361424233383 -0.22598380592088707 0.03832463477847626 0.08615597054956196 -0.048861801231230274
-0.026440291181425962 -0.06500090523208908 -0.023733250108708866 0.02265083480724705 0.22838861125015392 -0.01694750952041548 0.024135753481344394 -0.04129767865449856
-0.017864000696310733 -0.04712728621982705 0.04624770399104586 0.07530984580990255 0.035070928255599425 -0.16146097588193 0.026412128700330068 0.025762577216906796
0.011319015327880455 -0.00836282579265306 -0.15177456562255903 0.3166085749523086 0.034597949185783586 0.45711919277720864 0.011150593750948136 -0.013812014209634089
-0.1099260108748189 0.14662625850845173 0.10614133223304024 0.07960714523085725 -0.025922014687034832 -0.07708801596098667 -0.0847247256205108 -0.04267207154533734
-0.021061997472704767 0.018096164755619395 0.1852216272829541 -0.05527318013284596 -0.06971781113550862 0.31086357293573635 0.0534613101196724 0.045573218631106915
0.021895330072581123 -0.016909808023535325 0.09951710263327562 -0.055914225529858266 -0.017837536571125672 0.02411758056437101 0.49407914927593344 -0.039844044517807445
0.029231312693744713 0.27770214550243744 0.3507795967393607 0.03493028363138961 -0.03682412881566679 -0.04490428634283441 -0.15097213861343547 0.054266490096457703
0.03378069817985886 0.04834866334292354 -0.032752405650953664 0.03629780543780354 0.11744199493514679 0.1473090450820067 0.030381943319681814 0.08007286340665157
-0.05665616740472228 0.31998292664683786 0.20808129782031928 0.23731723260138154 0.2459737758431907 -0.1557391529540977 0.21317743466702244 -0.2534263860480041
-0.09342658598978644 0.2939186841795234 0.2320877944737813 0.3688131462466454 0.3448587816034183 0.1471095412231533 0.14336016854196404 0.03149786422866643
0.13901083719220006 0.540610204816889 0.19803652640904182 0.010850668747030626 0.16512821900363048 -0.09862564362932982 0.2711594962007249 0.1719376791958208
0.11750479174608416 0.3343233610423177 -0.13264868136187624 0.20791464532132575 0.0410668306335867 0.2032120323858662 0.4765655085161213 0.26996126976172796
0.22641204853695263 0.1603503318526561 0.12669169966823732 -0.040599801094704034 -0.02940792488249104 0.15127490638195515 -0.26755036910328145 0.2658955728435387
0.057286082022875266 -0.027422755856716496 0.31109115140722954 0.29660182572564114 0.25507919157879666 0.26055876076486 0.2627204366926034 0.21071359852163085

encoder2.bias f8 [9]
00000000: e588 141a 7c59 f1bf 79bf a597 77b3 f73f
00000010: 836a b3f8 b22e e2bf 4136 a73a 5378 fabf
00000020: bd9d 90e8 3a5d e6bf 8f10 8177 16b7 d83f
00000030: ef82 c694 5acc e13f 19c4 ad8c 072b f2bf
00000040: a184 5d7e cd32 84bf
-1.084346868396602 1.4813152240494374 -0.5682005746305808 -1.6543762484683529 -0.6988806288035715 0.3861747900994112 0.5561955362100813 -1.1355052466644848
-0.009862523478377407

decoder1.weight f8 [104, 9]
00000000: 1067 06c1 98bd 893f bffd 014a a850 c83f
00000010: 4be3 86c1 825c a7bf 55c4 2bcd 5848 b93f
00000020: 75af da3a 61ed 993f 6db2 8cd8 a9eb c2bf
00000030: 10be 6c3d 3d0a c1bf c95b d699 9c09 b63f
00000040: 4520 80f5 ea84 ab3f d0ce 8738 911d a73f
00000050: 48d7 b013 2466 cabf 8a71 4c16 3760 a0bf
00000060: daeb 207a 57d7 783f bfe9 0f88 0d9c d33f
00000070: d848 8b7f ef3e b1bf 7c49 4add 3a78 c33f
00000080: 3b28 f62b 7e15 dcbf d66e 11da 4a15 c43f
00000090: 2e1c 1f1b cbc3 a13f 3b99 1ac7 f605 cdbf
000000a0: 2eae 0a3a a005 923f 1fd0 4d9c 20dd c13f
000000b0: cc09 3dc0 9511 933f 7118 341a ab9a b2bf
000000c0: d9ab 6f44 180a b1bf 0794 e446 fa20 bc3f
000000d0: e983 7003 80c9 a9bf 570d 45a3 0e79 c7bf
000000e0: 640c c3b5 b830 c4bf 6d01 c6c2 1ec0 d5bf
000000f0: e937 833a 24e4 b83f 66a1 ca9a e512 b2bf
00000100: c007 1073 3391 b2bf b227 f7e4 4afd cf3f
00000110: f2c8 7fbd 1bca a63f 51c0 bebf 2fd5 dc3f
00000120: dfc0 30a0 94fe d13f 6756 e0d0 feed cb3f
00000130: e608 99b8 8b50 d23f 47a3 4d79 842c c03f
00000140: cd4a 7ea0 ac5c b8bf ffb4 ee13 7797 ca3f
00000150: 31ad 6b01 9f2d e1bf 6865 a908 22aa e6bf
00000160: 6a6c 0279 cddc b43f f88a a817 1950 a7bf
00000170: aa05 00f4 ec08 a13f c8f1 57be bd34 d4bf
00000180: 7377 ebb4 57b6 bf3f 57df b788 594c c33f
00000190: 5c35 d663 e16e 84bf e59c bfaa 7927 953f
000001a0: 5507 cc57 7bd2 b43f f86e e4c1 2df7 bebf
000001b0: 974c 6e62 3790 bebf 45d3 6ee2 77e4 b23f
000001c0: c9a6 779d 5a20 adbf 482e 142d 760a a4bf
000001d0: 4f4c 7daf 49e2 b33f 3ec4 9f9a a198 b9bf
000001e0: 6d1e b366 fed9 d03f d5c5 787d 061c 4c3f
000001f0: ea4a 3f31 8ea5 b5bf a33d 2ab5 9224 bf3f
00000200: 6898 0d3b 6909 c63f e7ca db21 679c b43f
00000210: 3a35 c118 e5cb d4bf 16cb 655d 6443 c13f
00000220: 76ff 7a93 ac6e c1bf bb74 afa4 6010 ddbf
00000230: ef87 e669 2caa c53f c134 71fd 244c bd3f
00000240: 10ab c29c d3b4 acbf b4df c4f1 6c0d 853f
00000250: 01c0 0378 6744 d23f a447 db7c 184b b8bf
00000260: 76bf a207 9b5a d23f ad9f 10bb 7d6a d0bf
00000270: a19e 1229 8d92 8bbf 8408 7a16 a28d c2bf
00000280: d961 5cfe 90b2 9bbf c626 7d11 1862 b83f
00000290: 9b1e c3b2 e779 c2bf 0472 bc60 bf27 86bf
000002a0: 99d6 5355 c23d cabf c9d2 6fc6 4d98 d73f
000002b0: 99b3 f30a 6b5a be3f d74d 5cd6 f5bf bbbf
000002c0: ca94 ad02 9255 c7bf 16aa 59b1 08a0 c13f
000002d0: ae6b 1ce0 a096 e9be 2f0f 10af cdf4 ea3e
000002e0: d784 62cc a921 e9be e377 caed 4fe8 f3be
000002f0: a430 8aff d779 d23e 05b2 2cff b3b6 febe
00000300: ee45 8c8c 3885 f33e c5d9 8e86 b4fd edbe
00000310: f027 7001 4ccf e3be 6518 f97d 38ce a3bf
00000320: 0b64 6c9c 0ccf af3f 025a 60cc 3bea a8bf
00000330: 7a4c ff9e 5bb7 c13f 681e bd0c 1a19 b03f
00000340: 920a 0c06 b050 c23f 229d 4afd 4e67 75bf
00000350: 91a7 4757 a12c 913f 1408 785d b828 cebf
00000360: e4f9 1a77 eda8 c5bf a4fe 28be 7932 c0bf
00000370: 07eb 12ea 1d7e b23f 1b22 3805 d018 c0bf
00000380: fd71 b7bd 62d1 d03f 8a1b 13cd 94a9 cdbf
00000390: f435 2d9f 03f8 c63f f2ce 407c 3d83 ae3f
000003a0: 138a b71c 4eb5 b6bf b0eb ce6e 4127 dbbf
000003b0: 53d4 a7d2 ada4 bdbf 9521 1856 bc4e b2bf
000003c0: 01fc 0914 04bb c03f a0df 324a 8cc3 ca3f
000003d0: 0666 167c 48fc bfbf ccab 00e4 10b6 ae3f
000003e0: 7a50 0ef7 ba14 ab3f 8e52 8794 4433 cb3f
000003f0: 6d03 4a58 e03d be3f ca4c d60d 7b50 b0bf
00000400: aaaa 1ba8 0bf5 d1bf f087 d233 dd30 b53f
00000410: c621 1782 b5d2 cbbf 424e 6382 aef5 cabf
00000420: 7239 4436 fddb d73f 8f9d 12e1 c64c 983f
00000430: 5118 09b2 06c6 bcbf 628c cc86 e174 c73f
00000440: cf44 30c5 2a56 bcbf cfba b1b2 20fc b63f
00000450: b087 17c8 55fa c8bf 901e a33d b6a2 bf3f
00000460: 2b45 198e 0f2c a9bf 1e07 e55b 5547 ae3f
00000470: a03f 4e31 4c14 b9bf 3950 f4e9 bed2 b1bf
00000480: 648a 1985 0777 c23f 54e0 13eb a74b b13f
00000490: 04a4 6281 f3bb b43f e145 46e4 557f 873f
000004a0: 0a97 bd8d 0e79 813f ca41 a28c 50f4 ccbf
000004b0: dbec ae1b ca74 b33f 1c83 a1fe d6f5 bdbf
000004c0: d95d 31c4 4287 cebf 2fa5 09a3 aa6e cc3f
000004d0: 1477 9297 c1f7 c93f 9588 3c9b 4dcb c5bf
000004e0: 7cc9 a0f8 4564 d03f 611b 7215 c4c8 bcbf
000004f0: ba34 11ab c00a b5bf f1ec 5fb1 82f8 ac3f
00000500: 2645 940d 47fd c7bf a73c 155a 2504 c7bf
00000510: 97ba 8157 f791 c1bf 164c 868d 29fe b1bf
00000520: f046 6798 a7a2 d03f cddd 4c6e 705f be3f
00000530: 57d7 3177 578e b5bf 3fdb 483f 57a8 cabf
00000540: 86b5 f29a a6ad ba3f 837a 165e 5f08 cdbf
00000550: ba96 02a2 21f6 c73f bae6 4fe2 c6d7 c2bf
00000560: 3b06 bbb6 6505 71bf e8d8 12ba 99db be3f
00000570: e318 5ee3 cc3b 6cbf 23a8 ef16 ef32 cf3f
00000580: 19be 26ee b724 ac3f 07fb 24ae 51c7 9ebf
00000590: 9229 0ff6 92bd babf 6f1e 47ec 08e8 bbbf
000005a0: be60 2974 31fc b7bf 92b2 fd7b 27d2 b93f
000005b0: ed51 afde b3a6 713f a8c9 8e1c e5fb d03f
000005c0: 0422 6fc1 fc56 ce3f a44a bbcc 6027 bebf
000005d0: 5b19 87d8 d120 a03f 2d2a f67f 819e d0bf
000005e0: 9891 8c76 c266 a7bf 9f11 46a7 89e0 2fbf
000005f0: 170b 378e e418 25bf d6c3 8cf4 6abc 27bf
00000600: 7b8a 2bf7 a714 29bf 8bc4 878f 7012 db3e
00000610: d431 adc6 8c93 35bf b189 7f67 52a1 ffbe
00000620: fad5 ef44 98f0 35bf 192d dd90 acde bcbe
00000630: 1a61 6818 c3c6 b13f 1583 d322 0d2e 78bf
00000640: e399 58b2 2d63 a23f b27f bf2f e766 84bf
00000650: fb27 e6a9 5015 8d3f 194e 41dc 18b9 c1bf
00000660: 9809 5276 46a2 a83f 766b 701e a4e9 8b3f
00000670: 3c09 98fc 4759 bbbf b245 2c7d ad6e cb3f
00000680: 519d 6658 147e 783f a5ac a3ab e6f3 c63f
00000690: c517 b657 9295 81bf c4f5 e99b b6d9 b3bf
000006a0: ba06 d526 ff08 a13f d7f8 f736 49e9 c8bf
000006b0: 4c98 b7e4 9dfa c9bf c13a 142c bee2 c3bf
000006c0: 8422 c104 fcbf 3dbf 8e43 90a1 ca02 343f
000006d0: 211d 18d5 8764 23bf 9853 25dc d7b9 373f
000006e0: 55a1 2a03 51c1 3a3f 2eba a973 c887 ff3e
000006f0: 6de9 c817 4197 33bf 086f 7142 727d 2dbf
00000700: 0ab9 ea47 e4c2 30bf 0acf 8c95 2d71 c13f
00000710: d001 9ccd 74f7 a7bf cdc0 d200 050a afbf
00000720: 75d1 f6a8 dcda c3bf 6155 62e8 953f 98bf
00000730: 4866 91fe 6808 d23f 6c1d 6778 12ef d1bf
00000740: fe74 73d4 0445 a03f 9908 7dab aa25 cb3f
00000750: c0d9 a73b a1c4 b9bf e411 8f9e 7f6a b3bf
00000760: 5e36 7607 bd7c 6abf 1482 fd94 5919 9cbf
00000770: 77bc 1c10 a8fe 8d3f be7a 2a2a bf2c c83f
00000780: 5c1d 3471 a35f a2bf 8639 3029 b140 a83f
00000790: 23e6 ff22 aa90 c23f f279 e992 5d41 c13f
000007a0: 74c0 32ba 1002 c03f daca da47 0f24 cc3f
000007b0: 8070 afa1 444c 8e3f 698c 31d9 2d30 a3bf
000007c0: 1933 6523 2372 b1bf 8222 2868 90d6 cabf
000007d0: 1b59 dc22 b377 d4bf 092d f299 3a81 8a3f
000007e0: 29dc cc75 f867 d0bf e2b2 fa49 0be8 b93f
000007f0: 1126 bf8b 9f67 ccbf 748a e313 fb51 d03f
0.012568658247619463 0.18996146787320176 -0.04562767612828241 0.09876017579132797 0.02531959459035656 -0.14781687806807345 -0.13312497615105245 0.08608416324419389
0.05374845740158255 0.04514745535916875 -0.2062420936724101 -0.03198406359863089 0.006064740855488327 0.3063997105342899 -0.06736657012814662 0.1521066265600658
-0.438811819964602 0.15689979217392275 0.03469690996239937 -0.22674450609083316 0.017599586050591913 0.13956077224759242 0.0186217688162829 -0.07267255201085888
-0.06656028433614782 0.1098781989172296 -0.05036544839845886 -0.1833818719115736 -0.15773686289876132 -0.3398510839542926 0.09723116329698168 -0.07060084370698902
-0.07252809104104951 0.2499173753733977 0.04451071441862266 0.4505118725310285 0.2811633648261828 0.2182005424407862 0.28616612460258606 0.1263585655499588
-0.09516409796041643 0.20774734948410153 -0.5368189838167493 -0.7082681817220591 0.08149418072064099 -0.04553297437475651 0.03327122190968208 -0.31571906650767945
0.12387607733714194 0.15076750922866708 -0.009977112635875578 0.020658398672733908 0.08133669751626134 -0.12095914825152565 -0.11938806679818224 0.07379864957949873
-0.056887466165631624 -0.03914231586722089 0.07767162832651418 -0.09998521828653481 0.263305282871875 0.0008578330698069634 -0.08455742552113646 0.12165181086515146
0.17216220267727356 0.0805115182554733 -0.32494475762799235 0.13486914215499074 -0.13619000626749383 -0.4541246040588011 0.16925578280375883 0.11444312274507508
-0.05606709755496386 0.010279513481336135 0.2854250595109989 -0.09489586876159578 0.28678012605359215 -0.25649970310268594 -0.013463118377628648 -0.14494730088705776
-0.02704836418624432 0.09524679591154514 -0.14434524754164077 -0.010817999972965182 -0.2050097386015082 0.3686708867892717 0.11856717126256767 -0.10839783175861527
-0.18229889994396437 0.13769634875946285 -1.2201496250299273e-05 1.2853748076586603e-05 -1.1983631690806063e-05 -1.898524247911222e-05 4.405010252239161e-06 -2.9290851624329625e-05
1.8616098517892513e-05 -1.4300840307385283e-05 -9.446026565402388e-06 -0.03868271386868186 0.06212653550591803 -0.04866206044987466 0.1384081388810932 0.06288302241329691
0.14308738990083164 -0.00522547583810898 0.01677181334699857 -0.2356176811591132 -0.16921776118938603 -0.12654039178049914 0.07223689045614999 -0.12575721983763874
0.26277988936433855 -0.2317377091732989 0.17944379112525122 0.059595033090230745 -0.08870399666879107 -0.42427097149964776 -0.11579405205687125 -0.07151391126547531
0.13070727327792045 0.2090926515863858 -0.12494328526954498 0.05998280318484425 0.05289253488368302 0.21250207188008513 0.11813165812965361 -0.06372803771801042
-0.28058139244846336 0.08277685656733502 -0.21736782886570277 -0.2106226097736102 0.37280206965888063 0.023730380523060254 -0.11239663931437006 0.18325442392333274
-0.11068980516599257 0.08978466379788162 -0.19513962049592015 0.1235765362244996 -0.049164281936678066 0.059137980907065776 -0.0979659672141211 -0.06962197505737401
0.14425748824131113 0.06756066788864362 0.08099290760823413 0.011473341969380381 0.008531678867892651 -0.22620589129338803 0.07600081611501557 -0.11703246800017236
-0.23850283221939497 0.22212727509330807 0.20287341977103124 -0.17026681976227978 0.2561201980598964 -0.11243844531609916 -0.08219532181211067 0.056583484794794255
-0.1874169174484816 -0.17981402300435897 -0.13726703427115147 -0.07028445916357415 0.2599276531519612 0.11864378636243274 -0.08420321140314733 -0.2082623538023771
0.10421220095550696 -0.2268180093205566 0.18719883356714268 -0.14720998812099656 -0.00415553790998185 0.12053833763897936 -0.0034464837762612096 0.2437418806069341
0.054967639752586624 -0.030057216886457485 -0.10445517070107815 -0.10900932091237235 -0.09369191251733164 0.10086294915317698 0.004309370628977832 0.26537444866985505
0.23702964253449477 -0.11778836248712793 0.031500394517524476 -0.2596744298577132 -0.045705868693661944 -0.0002432029756499589 -0.00016095914825883163 -0.00018109136206015283
-0.00019135046348768892 6.4544749354005085e-06 -0.0003292292300798559 -3.016487468688608e-05 -0.00033477513801413695 -1.720775404351007e-06 0.06943911882297407 -0.005903292954116753
0.035912921925319606 -0.00996189703431569 0.014200811562449891 -0.13846121554034665 0.04811306185094394 0.01362922876255877 -0.10683107296793976 0.21431511508903395
0.005979613756074657 0.1793182695467738 -0.008586066533791023 -0.07754079157344679 0.033271764269114226 -0.19461932357803022 -0.20296071689444017 -0.15535714294715855
-0.00045394804761093193 0.00030534216927074413 -0.0001479545413049866 0.00036202926653077774 0.00040825107422872337 3.0069734956611974e-05 -0.0002989324491725818 -0.0002249910332662241
-0.0002557570768812056 0.1362664203858162 -0.046809816454700504 -0.060623318052763865 -0.15511663675500711 -0.023680059727288042 0.28176331386712095 -0.2802168060120127
0.03177657216449779 0.21208699582536353 -0.10065658289372603 -0.07584378834787447 -0.003233308026841893 -0.027440452307361765 0.014645874969202872 0.18886556204684796
-0.035885913437648326 0.04736856105602087 0.14503981312718492 0.13480729745329217 0.12506302921019918 0.2198504544117757 0.014793907341236201 -0.03747695232666432
-0.06814784635680517 -0.20967297635822396 -0.3198058929859983 0.012941797087725708 -0.25634585861138476 0.10119696193823871 -0.22191232989852996 0.25500370924252214

decoder1.bias f8 [104]
00000000: 0dc2 16f3 7d3b bc3f de5a ade3 167d a03f
00000010: 326e edaf 3966 d23f c6dc 7ef5 0218 c5bf
00000020: 1abd fc55 adb5 b93f 4da8 c9e5 9010 c73f
00000030: f2af a46c 0815 e4bf c728 d784 374b c43f
00000040: be77 a693 583f b63f 280b 1eb6 48a6 a63f
00000050: a171 383d 2ba0 f43e e34d ee56 7a60 a93f
00000060: 1ac0 c18a 4d0c b53f a9bf 1e15 b3b5 bd3f
00000070: d5e5 5dbe ca98 b53f 9965 0244 ed76 a43f
00000080: 0750 36c6 7387 b03f e1ec 8ef2 e921 c13f
00000090: 15f6 73d5 7830 a33f fb84 d3a9 884d 963f
000000a0: 4f0b 61a3 2598 c33f 1abf acf8 d6b5 0abf
000000b0: 72b6 05b3 283e a53f 24ac 2a82 271d de3f
000000c0: a851 700a 1eab 133f d9ce 1ded 9a85 aa3f
000000d0: 8624 f8bc 39e2 a3bf cdee 2a77 e103 c63f
000000e0: b227 77c3 8341 cd3f 0bcb 1326 8374 b83f
000000f0: aee4 60bd de25 0a3f 8840 1523 6b64 af3f
00000100: daa7 f807 742f 1f3f a592 f40e 04e6 b53f
00000110: 1a04 1bd4 d218 373f 7580 23cd edfb c03f
00000120: 30d0 8bf0 307b d0bf 09e9 6867 abc9 b13f
00000130: 3a63 9d6b 80cf aa3f af31 cb21 6384 e8bf
00000140: fc4c 052c ce3f cdbf cd74 23ec 9a95 9e3f
00000150: a9d0 ce65 4a21 213f dbd5 b18a dcc9 bf3f
00000160: 4c94 cca0 f504 9c3f bbc3 3aeb 129f ae3f
00000170: f109 a843 6f32 aa3f 846d 3578 f535 b23f
00000180: bec8 4eae f7b8 283f 24d6 1da9 cf70 ecbf
00000190: 6aef f89c 0ec3 a03f 4641 54dc 7195 bc3f
000001a0: 4b70 a217 85be c03f f719 c87e 1d2c c53f
000001b0: 983c 7624 b052 b2bf eaeb bef6 6dd2 aabf
000001c0: 0974 829f ebc7 cc3f 4bc3 ce9f 30f8 b63f
000001d0: 9258 7ecc 0669 b4bf d799 a64c e47c fe3e
000001e0: 3ba5 104b bb25 e2bf e1a4 cab1 234d 2d3f
000001f0: b241 15f9 b39c 903f 2119 b603 1749 bb3f
00000200: 2e8c 0aac 41ad c23f a13a caa4 5276 9b3f
00000210: cb34 480b 41a4 123f 4996 d928 8bf6 89bf
00000220: c10a e98a c977 af3f 0522 3289 98b7 e33f
00000230: f0b2 618c aff9 d33f c051 840a 0fab c7bf
00000240: 3f48 0bc7 59a0 b13f 9831 8de5 dd93 b33f
00000250: 0ba8 4f0d 2a75 ac3f 16d1 6824 5c28 0b3f
00000260: 96e6 b844 f5f5 c33f 0482 5fc8 58bc b53f
00000270: 1cb9 a8d6 f5e9 c33f b847 638e 3043 bb3f
00000280: be73 2985 65f3 bb3f 7e42 66db 9072 a53f
00000290: 0adf e684 d9e0 cb3f 0e6e bc63 5d3b cf3f
000002a0: 05a1 5937 3827 ba3f 48a7 e352 d5e8 c53f
000002b0: 51a1 34b3 5f53 c43f 0ddf 36d4 0d27 c73f
000002c0: 353d 2805 8aeb 7dbf 32d0 3272 4dd9 a83f
000002d0: 9deb 03b6 64ff 8e3f 5e64 5634 ec4c cc3f
000002e0: e2ea abbf 1c40 84bf 692e 7dae df83 4f3f
000002f0: a0b2 09c7 0d4f a03f efde 8976 5807 ba3f
00000300: 29c8 77b1 d064 c63f 3b29 8a49 a0d2 023f
00000310: 9708 15f1 fd82 b93f c45f 1878 d2fd e6bf
00000320: 69d3 67ca 47df eebf b938 1407 a360 913f
00000330: 9b78 f487 dbbf da3f 8b48 cae4 ca74 11bf
0.11028277573382912 0.03220435647260954 0.2874893396417263 -0.16479527461135585 0.10042842244432784 0.18019305439094283 -0.6275674936236995 0.15854543672896268
0.08690408329718388 0.044237396460650225 1.9670161988215332e-05 0.0495641928784172 0.08221897733324149 0.11605376496913657 0.08436267039896646 0.039969839622425236
0.06456683720745114 0.13384746879260148 0.03747918706538315 0.02178014313256414 0.15308065869802553 -5.094587603193656e-05 0.04148986039477344 0.47052943908301104
7.502909521434639e-05 0.051800576634290336 -0.038835338895361324 0.17199343031631145 0.22856185001574897 0.09552783660528179 4.9873218515414166e-05 0.06131300738582107
0.00011896272371161813 0.0855410133850208 0.00035243174725613365 0.1326882602361398 -0.25751899233660236 0.06948348307279074 0.052364361893245406 -0.7661605510743835
-0.22850968503426106 0.02986757341647177 0.00013069184470071896 0.12417391191578224 0.027362668933296683 0.05980738755659539 0.05116603566058931 0.071135846946552
0.000188617929919815 -0.8887708952958673 0.03273816744010001 0.11165534619454318 0.13081420568494403 0.16540878954420155 -0.07157421961004429 -0.05238670002969299
0.22485108650735722 0.08972457791857129 -0.07972757809179346 2.9075487682961518e-05 -0.5671059099305816 0.00022355137561661575 0.016222774579831963 0.10658401337250158
0.14591236973237315 0.02681855326459959 7.111212728024283e-05 -0.01267727583326485 0.061460779387308324 0.6161616019826971 0.31211460789818 -0.1849077988960186
0.06885300740694421 0.0764750180653152 0.05558139240731926 5.1799118001490615e-05 0.15594354491786494 0.08490519420548287 0.15557740193748593 0.10649398304238289
0.1091826868154859 0.04188969305244415 0.2177993678030748 0.24399917001652266 0.10216094352074741 0.17116800830199908 0.15879436731598642 0.18087933408764237
-0.00730470575446356 0.04853288668655899 0.015135561756769717 0.22109749370136716 -0.00988790950713309 0.0009617654986668447 0.03185313276921886 0.10167458433158648
0.17495163598465638 3.590156228934707e-05 0.0996550286845682 -0.7184841485604854 -0.9647559121354848 0.016970202738826077 0.41796005513050155 -6.659019818247757e-05
