Trained_models/20/predictor4_200_6.pth (torch, 348311 bytes, 16 tensors)

encoder1.weight f8 [103, 200]
0	0xbfb803634609153b	-0.0938016935334262
1	0x3fb6569391c58cb9	0.08725855168227072
2	0xbfac69358c174833	-0.055490182257600294
3	0x3f9e185201c3e184	0.02938964973233872
4	0xbfaeec7e77ffb13e	-0.06039805617169457
5	0xbf93bd89dbd86f67	-0.01927771953897608
6	0x3fafe0af0a7b125d	0.06226107600153761
7	0xbfb27d214085d83c	-0.0722218306089823
8	0x3fa79b3c617107b7	0.046106230635373384
9	0xbfab43210c7c3eed	-0.053246529363716856
10	0x3fa84b8fba837f6e	0.047451488034993314
11	0xbf79716ba5fba57a	-0.006211681844186296
12	0xbfa24a9748b61edb	-0.03572533381071504
13	0x3fb30cbcf7a12e6f	0.07441311879773037
14	0xbfb02454b310779a	-0.06305436488807317
15	0x3fa6a9d49c994020	0.0442644539986079
16	0xbfb307e98162f8bc	-0.07433947953083736
17	0x3f94d872c0b4d45c	0.02035693455873787
18	0x3f94ea54b7656f59	0.020425151532762118
19	0xbfafc09b5039510f	-0.06201634744926043
20	0x3f94740b34139db2	0.01997392182684416
21	0xbfa87e0594e2eded	-0.04783647005521261
22	0x3fa1dda1ba5a0132	0.034894041059489914
23	0xbfa3855b1d63f7fe	-0.038126799905498374
24	0xbfb6a84616a78846	-0.0885051541622782
25	0x3fbc0fd3eaa6a29c	0.10961651304990955
26	0xbfb6eb78dbf7fd25	-0.08953051920251605
27	0x3fa88e683ef9551c	0.04796148079609905
28	0xbfa8634793063550	-0.04763244313935877
29	0x3f8687c615b0e75c	0.011001155411679946
30	0x3f9ff585e69b240a	0.031210033607553846
31	0xbfc421085e9fa3de	-0.15725807781498607
32	0x3fc0721ee4622cff	0.1284826865342907
33	0xbfc01ac775f764e2	-0.12581723461224842
34	0x3fb665b5ade0f03a	0.08748946662029847
35	0xbfa3de8679a05861	-0.03880710825630796
36	0xbfa1f578c80c1fce	-0.035075926227420604
37	0x3fb9613781816a44	0.09913966094738053
38	0xbfc57c249b9d480a	-0.16785104368551657
39	0x3fc064829bcd4b18	0.12806732757106754
40	0xbfc14128600003fc	-0.13480095565321892
41	0x3fbb791d9c58b7bb	0.10731682841352967
42	0xbfb114da144d6605	-0.06672442432081745
43	0xbfa12dcabdecb7a7	-0.033552489933171
44	0x3fba4d5cb7f447e3	0.10274295321531172
45	0xbfc2f5aca1ecac08	-0.14812238604039885
46	0x3fc5810aa6dbf3cd	0.1680005373708852
47	0xbfc495b57bc6119a	-0.160818753658657
48	0x3fab4d4b118206bd	0.05332407559127492
49	0xbf99a8c854e3ff51	-0.025057916814147877
50	0xbfa5774c3c973b53	-0.041925794979411755
51	0x3fb39ff1061e1533	0.07665926360467239
52	0xbfbca7254787e7ec	-0.11192543979987563
53	0x3fc51aa3af78e69c	0.16487546985608936
54	0xbfc0ac758a381d96	-0.13026303528770872
55	0xbf90c7b8713fedcb	-0.01638687316152047
56	0x3fb40005cd842782	0.07812534587369949
57	0xbfc31ffaf03fa12b	-0.14941345911871315
58	0x3fb8cd7866550a63	0.09688522814125515
59	0xbfb79d75c383ddcb	-0.0922463991481585
60	0x3f5297fbaa5b92ca	0.0011348683996682978
61	0x3fa6e7e6ff79b0f0	0.04473802441211372
62	0xbfb1d8af9a080211	-0.06971261511353812
63	0x3fb48aefc8aaeb84	0.08024500512230587
64	0xbfc17c9fa39ec4c2	-0.13661571015612678
65	0x3f70ed393b5d9244	0.0041324840184172075
66	0x3f934b5567d9a94e	0.018842062438502886
67	0xbfbc35ec4bbf6ab4	-0.11019780015287034
68	0x3fb1fdb684e17388	0.07027760261685334
69	0xbfb678fde72086b8	-0.0877836884760893
70	0x3fb07b2180fa3a47	0.0643788280378682
71	0xbfa8592a8175ca45	-0.04755528288196279
72	0xbf9a7739de9d0e74	-0.02584543629860865
73	0x3f9ab401902cd7d4	0.026077293801073
74	0xbfba117c508adc61	-0.10182930914275935
75	0x3fa6011af0e28394	0.0429771822975972
76	0xbfb1932e3ef1404f	-0.06865204846076377
77	0x3f9de53a22f79ce8	0.029194744476538498
78	0xbfaa95943008bf76	-0.05192244612078316
79	0xbf556239bf5f9499	-0.0013051570836009384
80	0x3f86f71e3a93db48	0.011213527834554107
81	0xbfa4d4c8d776b768	-0.040685917188382714
82	0x3faa934fd4bb4519	0.0519051501447711
83	0xbfb2864dc5c2f11e	-0.0723618133369581
84	0x3fb023b34c189d08	0.06304474456611697
85	0xbfb879648aced4ad	-0.09560230625978035
86	0x3fb0ab18ea14d989	0.06511073794249546
87	0xbf9d4c99c7bcc0de	-0.028612520996092232
88	0xbf9cf29948db2bbc	-0.028269190856729173
89	0x3fb2593b1611de85	0.07167405403913037
90	0xbfb7e35c47a60d9a	-0.09331299542650698
91	0x3fbcfe6c5cca15eb	0.11325719132772576
92	0xbfbcd62cd9decc71	-0.11264305419062894
93	0x3fab7061763df87b	0.05359177177796056
94	0x3f9bf1855b9b9c2e	0.027288516727733185
95	0xbfbdb2dfc0e84847	-0.11601065120365305
96	0x3fc010f658dc16cf	0.1255176481137625
97	0xbfbd7331783b2de8	-0.11503895936328201
98	0x3fb67f3ce06e9fdb	0.08787899474430054
99	0xbfb05a07e276b883	-0.06387376097583979
100	0xbfb1e595cb8f25fa	-0.06990944118219736
101	0x3fb140462a41bc2c	0.06738699466380699
102	0xbfc59671ce0e06d4	-0.1686537033202088
103	0x3fbef80ffc93dab7	0.12097263256496658
104	0xbfbfd87b5fd0a450	-0.12439700211747717
105	0x3fa9edd08a11ddd5	0.05064250646040206
106	0xbf99a8276c489810	-0.025055519088844902
107	0xbfaa4e60f4579ada	-0.051379232241563336
108	0x3fb70b3167af9987	0.0900145414485448
109	0xbfbf209eb2de2282	-0.1215914904297595
110	0x3fbc648dcf09e747	0.11090933136611368
111	0xbfb2ff682590c19c	-0.07420969884038303
112	0x3f9e5f092d4bbed4	0.029659407987252376
113	0xbf8fcdf8f4a5e074	-0.015529580083907236
114	0xbfa3da376b001853	-0.03877423459202647
115	0x3fb556e6aa135ffe	0.0833572545265042
116	0xbfbef22dcadf7668	-0.12088285639716789
117	0x3fb3793f03ffc8c0	0.07606881950030964
118	0xbf9ac88481ec9a1f	-0.02615553896898792
119	0xbf9342b8813268c2	-0.018809206853440903
120	0x3f8539dfd757dcbb	0.010364292868855754
121	0xbfab1bc821246ae3	-0.05294633297508768
122	0x3fb0dcfa315f93f4	0.06587184625057302
123	0xbfb4f62dabad9c51	-0.08188138429032789
124	0xbf94ca8081fb9c2f	-0.020303733762286832
125	0x3fa00fb6d9cddd49	0.031369890296384435
126	0xbfb65b62eb34de3a	-0.08733194582315998
127	0x3fb1d9c28bae9a99	0.06972900304990971
128	0xbfb999ab4fdd9190	-0.10000105571595541
129	0x3fad29536eee182d	0.056955916682497644
130	0x3fa8f7f82d4df204	0.04876685669930583
131	0xbfbf49ef850a67bf	-0.12222191808760295
132	0x3fc05a937cfa989f	0.12776416399464538
133	0xbfc526a7bc5b9afa	-0.1652421636310562
134	0x3fbc0c2f17c365cd	0.10956091241987238
135	0xbfb951cdf6390942	-0.09890448819445388
136	0xbfac6ce399023aba	-0.05551825754911506
137	0x3fc24fff1d7a5f35	0.14306630076748098
138	0xbfc73d0d2d552f3f	-0.1815506430960969
139	0x3fc9003e60a85752	0.1953199359856464
140	0xbfc8ca501ddaaa1a	-0.19367410142633973
141	0x3fc368a673d72a73	0.1516311708094978
142	0xbfab73e12827cb83	-0.05361846556834051
143	0xbfb507e8da1f422c	-0.08215194058653513
144	0x3fc1082990a6714b	0.1330615955638542
145	0xbfcd92cb056b50a8	-0.2310422684155402
146	0x3fcdbf0f5a303023	0.23239318755838764
147	0xbfd12111be95a1f2	-0.2676433907677441
148	0x3fc2ba84b183dad5	0.14631708781936106
149	0xbf9b216245f99e2e	-0.026494536896647762
150	0xbfc2a3d43c912b75	-0.14562466580749925
151	0x3fc7a36cef41ce8d	0.1846748512503961
152	0xbfd0cd9e9f75eb51	-0.262550025676025
153	0x3fcc14a955f5a855	0.21938053796049198
154	0xbfc36e0da64d381c	-0.15179606075474872
155	0x3fa86bf124ba53d4	0.047698531850222686
156	0x3f83f109857fc7d6	0.009737085711069609
157	0xbfc164d384f48d60	-0.13588947288472308
158	0x3fc1059c83b4a52e	0.13298374587001532
159	0xbfc6af85c0960d30	-0.17723152068729453
160	0x3fb6e53f3db33a4e	0.0894355321536093
161	0xbf97728b65104025	-0.022897890132355898
162	0xbfa1f0593a78c5e0	-0.03503683890120235
163	0x3fa1d100e868caf2	0.03479769551304014
164	0xbf9d9e749580f521	-0.02892477190493026
165	0x3fa546cad5698695	0.0415557275307609
166	0xbfa3e7f4cba67424	-0.038879060611386046
167	0x3f827d5219875ad3	0.009028092769694329
168	0xbf93fa168a3499ce	-0.019508697686569758
169	0x3f994b2dde621ef1	0.024700848291586423
170	0xbfaa13540f98c89f	-0.050928713706882116
171	0x3fa6c2b3d6561757	0.0444542121067985
172	0xbfa8a17e520e74ec	-0.04810709716478265
173	0xbfa03cc008cc7249	-0.03171348674206748
174	0x3fa967aa5ef3ba2e	0.04961903008539924
175	0xbfb9fa34e5278e9a	-0.10147410006134763
176	0x3fc0a479b9b4a854	0.13001939361248793
177	0xbfc0eb790ca15742	-0.1321860610648234
178	0x3fa767cdf59d3113	0.04571384070604458
179	0x3fa83a4f91c94cb1	0.04731987623804324
180	0xbfba4dca0390c6be	-0.10274946772622237
181	0x3fba723a663d7b25	0.1033054828271643
182	0xbfc96ce57f3ac202	-0.1986357566106705
183	0x3fc8ba70d774e0a4	0.1931897213014554
184	0xbfc3701d364ac71c	-0.15185895110112646
185	0x3f93373a49f02460	0.018765364420719854
186	0x3fb22f7a888182a3	0.07103696663535657
187	0xbfbed299375d2d44	-0.12040097810420486
188	0x3fbd2510eb069b83	0.11384683359083962
189	0xbfc48b5ed0a1ee88	-0.1605032461846927
190	0x3fc50c3f7157bac5	0.16443627390204632
191	0xbfbfbddd8f34a476	-0.12399086710196791
192	0x3fa588513a73ca0f	0.04205564344910694
193	0x3f95cfea94f48e23	0.02130095037604297
194	0xbfbe645b14045d0f	-0.11871880758950602
195	0x3fbe8410cbb2ccbb	0.11920266125780447
196	0xbfc3ce938e1ec9ed	-0.1547417110392212
197	0x3fb835081bc49641	0.09455919912269285
198	0xbf74d2f4f1bdfd2b	-0.005083996595089328
199	0xbfb6145219022dfb	-0.08624756918487002
200	0x3fb0875a39dc1a01	0.06456531441299519
201	0xbfba622047c33dd9	-0.1030597853853047
202	0x3fb8a233f39f2265	0.0962250203875868
203	0xbfb4b075434f0c7e	-0.08081753628998631
204	0x3fbb1d0ee252170c	0.10591214204222527
205	0xbfaad6cb1fb59d5f	-0.052419993992595997
206	0x3fba20da849c19ae	0.1020638059381784
207	0xbfb00c3dbba0460b	-0.06268678503717966
208	0x3fbe07efbdf9a328	0.1173086012655743
209	0xbfbf9ea25be097a7	-0.12351431601618278
210	0x3fc3c652e5ad967f	0.15448986258268246
211	0xbfc46d5e64f8fdfa	-0.1595876687078855
212	0x3fbf02af40abb81f	0.12113471344829961
213	0xbfc0e1f3f7fb1451	-0.1318955384105345
214	0x3fbf0ab7fd4446ed	0.12125730450886936
215	0xbfc14c0f5c820c4d	-0.13513366715423772
216	0x3fbc7b0ca092cf4d	0.1112525836968505
217	0xbfc423e013c2d662	-0.15734482731720606
218	0x3fc1ea1e34bb9957	0.13995721411556403
219	0xbfc5c2c261439deb	-0.17000608205056209
220	0x3fc4c1d38cabfcf8	0.16216511124364508
221	0xbfc2d845f6874155	-0.14722513711468346
222	0x3fbbce9b39fb8740	0.10862131276692555
223	0xbfb32e45a5c6454e	-0.07492480561474688
224	0x3fc41d4836ec67f0	0.1571436184102022
225	0xbfbeef84a57398d4	-0.1208422569212389
226	0x3fc449bb70998dcb	0.15850012777364805
227	0xbfcbc691d8b0a42f	-0.21699736671988165
228	0x3fc156cd88b858ef	0.13546151328836895
229	0xbfbcaba90a5cffc7	-0.1119943285275432
230	0x3fc130fe209e2b9f	0.13430763809841736
231	0xbfaee12ed4c2df50	-0.06031175944502698
232	0x3fb7d79bed6aeddf	0.09313368364649176
233	0xbfc03837171d006b	-0.12671555164888856
234	0x3fb17e782e78fc12	0.06833602079949255
235	0xbfba2ccf8a714316	-0.10224625711385857
236	0x3fb2e461901f7dfb	0.07379731911304781
237	0xbfa9eb52906bf55a	-0.05062349331817968
238	0xbf8b95c1bc659432	-0.013469232141412577
239	0x3fadd30124fc83ae	0.058250461354197966
240	0xbfb84a797ae864da	-0.09488639116934242
241	0x3fc442648b390b4e	0.15827614591588673
242	0xbfadff0c4394b238	-0.05858648610078315
243	0x3fbd92e1477d4de6	0.11552246089313875
244	0xbfbd4ebfac0838a9	-0.11448286008837506
245	0x3fc361fcc2750b67	0.1514278363702843
246	0xbfc4ba992e8ac1e6	-0.16194453022536875
247	0x3fc4c52147329891	0.1622659299511651
248	0xbfc462b1334d0d25	-0.15926184658938172
249	0x3fc7dd83185db936	0.18644751252890907
250	0xbfc2c905f53dfc49	-0.1467597434493391
251	0x3fc9933230233e7a	0.19980456686470288
252	0xbfc103a35130b676	-0.132923521655744
253	0x3fb02b760c752be5	0.06316316417830554
254	0xbfa735237a0505f5	-0.0453272901963934
255	0x3f753e4040d9119d	0.0051863202948577965

encoder1.bias f8 [103]
0	0xbfc94e09174f0542	-0.1976939548313031
1	0xbfd0763688e7a198	-0.2572151505433111
2	0xbfde49c22b0ac01a	-0.4732518596965761
3	0xbfd22c100406dc69	-0.283939365322516
4	0xbfd7654a403948f0	-0.3655572535691496
5	0xbfe844acec17819a	-0.7583832369964967
6	0x3f95a707974a5af3	0.02114498005775096
7	0xbfdaa165389eb400	-0.41610079316416204
8	0xbfd2b1077a89a52a	-0.29205500570840803
9	0xbfc8b3889dd7c69b	-0.1929789324490699
10	0xbfbeb3d465908ff8	-0.11993148307425361
11	0xbfd40abfb9c1254b	-0.3131560625084446
12	0xbfd22e0308452a89	-0.2840583401454429
13	0xbfd60867e70acf9e	-0.3442630535384924
14	0xbfc0be0be9314f93	-0.1307997597347109
15	0xbfd03f127fb3776b	-0.25384962530903604
16	0xbfd41b3b5bafd8e4	-0.3141621013049998
17	0x3fa693104bf55a5d	0.04409075667597471
18	0xbfd0a90f6a6f89c0	-0.2603186168109026
19	0xbfccc9dadc57e793	-0.2249101234336278
20	0xbfc73405f464ffb6	-0.18127512391401773
21	0xbfdc9dab54feac47	-0.44712336826586746
22	0xbfd352d3c3b5a1e9	-0.3019303714013675
23	0xbfceb496f461eccf	-0.23988615925541132
24	0xbfe231bd1562a708	-0.5685716073687397
25	0xbfd17c093789602b	-0.27319555686472324
26	0xbfa03c3d60a76489	-0.03170959286553294
27	0xbfdea23292a10d00	-0.4786497528004503
28	0xbfc1f0fedc70f6e5	-0.1401671005605102
29	0xbfc1a33e7b5fee92	-0.13779431366116462
30	0xbfcdef11ad01c2c5	-0.23385830829240298
31	0x3fc15558af1bcd53	0.13541706609940238
32	0xbfc28e107ad6bc4e	-0.14496046064366158
33	0xbfe2e1d6441de32c	-0.590067990341685
34	0xbfd14506edc12834	-0.269838077718876
35	0xbfc5c200508e3821	-0.1699829476678483
36	0xbfd7cb8b54f615b8	-0.3717983560275928
37	0x3fd3369c9d41ab80	0.30020823819238984
38	0x3fe1cba74e7cc77f	0.5561100514371303
39	0xbfdf6d1d8b7a6fc6	-0.4910348760693036
40	0xbfd7ceac003c4cd7	-0.37198925040247616
41	0xbfdc7f0ea9af98c5	-0.4452549607361898
42	0xbfd14ef2439cb1d4	-0.27044350245230686
43	0xbfd6beec6ba8ebe6	-0.3554030467382162
44	0xbfcd1353490d62fc	-0.22715226237303188
45	0xbfc5efa9ccfda4a8	-0.17137644299808596
46	0xbfd27fb3268b7dce	-0.28904417766713386
47	0xbfd1c9a7e042b553	-0.27793309116790005
48	0xbfcf9e335abe775d	-0.24701539927348906
49	0xbfe093746ee23eac	-0.5179998555849656
50	0xbfe4d16af330b5c1	-0.6505636930284525
51	0xbfd3bcc5a88a06ae	-0.30839673479941154
52	0xbfd729304e279f3e	-0.36188895828535184
53	0xbfd3776fb70eff05	-0.3041648185426172
54	0xbfd0d9f415358c12	-0.26330282279212824
55	0xbfc76bd19dd576b9	-0.18297786909800154
56	0xbfe02e21ac72b6e3	-0.5056312912108435
57	0x3fcf1a91df0380e3	0.2429983462270747
58	0xbfd2390eab8c434f	-0.2847325015327912
59	0xbfd00c3146fcd533	-0.2507441704977566
60	0xbfe0fdf96ed90f19	-0.5310027279851709
61	0xbfd7c95e54bae35d	-0.3716655566636769
62	0xbfe00e62526b6039	-0.5017558679346684
63	0xbfd09984edda7ca2	-0.2593700716769921
64	0xbfd25a51d7b8a002	-0.2867626768734227
65	0xbfb60823eef9cc54	-0.08606171211595043
66	0xbfe038ee4d776f14	-0.5069495690363248
67	0xbfcb2eadfd39bf8e	-0.21236204971819145
68	0x3fbc83d4fdeb3e5f	0.11138659667198557
69	0xbfd04f1eb6a647bb	-0.25482910000675546
70	0xbfc8721597a5c645	-0.190981577917727
71	0xbfd2f5116db3c211	-0.2962077685652114
72	0xbfe09978abccc47e	-0.5187342982736849
73	0x3ff51003cc5892f3	1.3164098722710917
74	0xbfd0a9d2b9dbfd08	-0.2603651824028508
75	0xbfa7cd9d03e09463	-0.04649058029489408
76	0xbfe6e60f05975e66	-0.7155833348469514
77	0xbfb077eacd5720fb	-0.0643297911948401
78	0xbfd18a6d3e393d7f	-0.2740738971378604
79	0x3fc6448919bbd2f8	0.17396653896835068
80	0xbfcf0a12d6f8c162	-0.24249492165246084
81	0xbfc9d5a490456bfa	-0.2018323616456142
82	0xbfd7bb36ad7e9c53	-0.3708016104014337
83	0xbfc5a37d47736de6	-0.1690517996674849
84	0x3fcafbb731ef5d3c	0.2108067506621668
85	0x3fc65f13ff979347	0.1747765539177186
86	0xbfca76054dc6d121	-0.20672670648276273
87	0xbfc9638496499be8	-0.1983495458436828
88	0x3fb4f025e1f1876c	0.08178936735342085
89	0xbfd6413ec1a6d2e1	-0.34773224746031245
90	0xbfca6e28ea7b97c6	-0.20648681115488737
91	0xbfd1d031c7b88b26	-0.27833218101493384
92	0xbfc40141db944fcd	-0.15628836843154517
93	0xbfaf6e3efa173f4b	-0.061387985256827614
94	0xbfc9d51e75255fa3	-0.2018163749696643
95	0xbfda84b1b8630498	-0.4143490124370799
96	0xbfcb946bba79ca30	-0.21546694379101572
97	0xbfd06245c1370fb8	-0.2559980761400271
98	0xbfef55ca5749395e	-0.9792224602513604
99	0xbfa2121505ac622d	-0.03529420561080019
100	0x3fd26ba4946cd8d5	0.2878200005974468
101	0x3ffddb902e8b86de	1.8661042993702988
102	0xbfd1f104942f1a22	-0.2803355643376638

encoder2.weight f8 [6, 103]
0	0x3fd23d860bca1e6b	0.2850051036007019
1	0x3fc1a0628081d443	0.1377070548511786
2	0x3fac31f1592551f0	0.05506853306966153
3	0x3fd6861023106ff4	0.35193255829085435
4	0x3fb12ecfb5ddd41f	0.06712053480244194
5	0x3fa93d91904934c6	0.04929785620024911
6	0xbfa867b1ffb8ea97	-0.047666132417778666
7	0x3fb97195a0819e2b	0.09938941162692376
8	0x3fd217ec92d9c97c	0.28271021214381853
9	0x3fc09315a37d7a6d	0.12948866351048896
10	0x3fc061d13c9fe09f	0.1279851480501337
11	0x3fc2472bec7a735c	0.14279698416512587
12	0x3fd543a9bd43eeba	0.33225482447572185
13	0x3faa4ec7cce7d823	0.05138229728974888
14	0x3fbea389930a88c7	0.11968288268920722
15	0x3fd7e40dcaecb90b	0.373294304054881
16	0x3fbd60b161ed0521	0.11475666657226614
17	0xbfbdf1d651d7af3b	-0.11697139261349047
18	0x3fd5f4725910f1a6	0.3430448407923684
19	0x3fc155bb79db450f	0.13542884302163613
20	0x3fc1de86ad9202c3	0.13960345721354459
21	0x3fb47329a9b1596d	0.07988224404230033
22	0x3fbe34bb7abe317c	0.11799213167814132
23	0x3fc2f1c0db85bce1	0.14800272673480833
24	0x3fa58d604b126933	0.04209423939137693
25	0xbf1924425a6abb80	-9.590773570765203e-05
26	0x3fad2a394f80a34f	0.05696276755799678
27	0x3fd2fe53ceb2ef5b	0.2967729109329775
28	0x3fb5aefad111a3cd	0.08470122913571672
29	0x3fbc77bae5ab87d5	0.11120193583658929
30	0x3fd4f22596ee57b8	0.32727946986539846
31	0x3fa999c850491917	0.05000139217422566
32	0x3fb92bd6c16018b3	0.0983251783473829
33	0x3fdb57f7fff999d1	0.4272441863780872
34	0x3fbed0fabc1757d7	0.1203762730795853
35	0x3fb9ea61cb508f71	0.10123263562905806
36	0x3fd8a9c5bb8938a0	0.38536208452286225
37	0x3fba877370edbfdb	0.10362931735085061
38	0xbf8d7fd375ae31c4	-0.014403965023824912
39	0x3fd965766d3dbd6d	0.3968177859123532
40	0x3fb81f584935e570	0.09422828471533307
41	0x3fb3e4273b862619	0.07770009234641186
42	0x3fbfbec5ec4e03cb	0.12400471705588172
43	0x3fda933e1a861620	0.4152369746228448
44	0x3fc5409965bd67a5	0.16603391139761672
45	0x3fbaa40dbce88b70	0.10406576025029124
46	0x3fd50687e66b35d0	0.3285236120398993
47	0x3fd0ca94b8164f01	0.262364558956719
48	0x3fc1ac5d46568f0a	0.13807264265516778
49	0xbf8c01d0e184dd78	-0.01367533863286384
50	0x3fac6a295655003e	0.05549744776590203
51	0x3fce0eac8f104998	0.23482281671074356
52	0x3fd354340092242f	0.3020143514227724
53	0x3fc61889561f0982	0.1726237936509954
54	0x3fc2128ce5711f9e	0.14119111254899236
55	0x3fabea4524e97106	0.05452171397766574
56	0x3fd805ff05398e43	0.3753659773849202
57	0x3fa85658a373496e	0.04753376956218146
58	0x3fc04e839a8bfbc8	0.12739605947714794
59	0x3fbde28880b74553	0.11673787252882066
60	0x3fda97bda304b743	0.4155115215279361
61	0x3fcdcaf99ad08bad	0.23275680598552864
62	0x3fdc91477df01a0d	0.44636714266417316
63	0x3fb8fd0b3ba79d10	0.09761114317335662
64	0x3fce145b528b20b7	0.23499623804514666
65	0x3fc51baa0015a3f9	0.1649067402279625
66	0x3fd93a680342d538	0.3941898376318309
67	0x3fc39e5620dd3b7c	0.15326954464623188
68	0xbfb90e38cd018e7a	-0.09787325863868004
69	0x3fc68f38423315fb	0.17624572021865945
70	0x3f990bd8e7ed6929	0.02445925632069038
71	0x3fd485de7c5bafad	0.3206707205233624
72	0x3f997bfcc9cc4cec	0.02488703710248512
73	0xbf9a12172742b475	-0.025459634562754425
74	0x3fc2124252e1bef5	0.14118222281421536
75	0x3fd298032353723f	0.2905280919056032
76	0x3fde9b3b9d27b73b	0.47822466227704624
77	0x3f98a569d87e7f03	0.02406850227237013
78	0x3fcac611ce6843ea	0.209169603142555
79	0x3fad235e2d198357	0.056910460477189666
80	0x3fbe92a88f56f6bf	0.11942533015732247
81	0x3fd2f3bfc3d42dcd	0.2961272632971628
82	0x3fdb1b7e9c74b264	0.42355313567057906
83	0x3fc330841e8d589c	0.14991809360316644
84	0x3fb416acfc3261f6	0.07847100407742133
85	0x3f77c1085148e3be	0.0057993245032372225
86	0x3fc31867fa0f1bc7	0.14918231687462777
87	0x3fb75002622fec9c	0.09106459519527949
88	0xbfa762bbf9a8abf2	-0.045675157762467125
89	0x3fc00b99b68fddae	0.12535401739272117
90	0x3fc2675b360d272c	0.14377918376185883
91	0x3fbcfe8a1f65e135	0.11325896517326302
92	0x3fbf708556d7f789	0.12281068201261126
93	0x3fa983f54b55a4b6	0.04983488602267398
94	0x3fc406b5f62940f7	0.15645479697787554
95	0x3fd843f3efe2ad56	0.3791475145942135
96	0x3fb250efdaf6b0ec	0.07154749961654588
97	0x3fbda5fc6362fa7d	0.11581399370605001
98	0x3ef36c43541b7eb0	1.852312312322521e-05
99	0x3fc2bff53e0674d2	0.14648309258055875
100	0xbf5daaa77ff9b727	-0.0018107066861392047
101	0xbfdda05dd6203e38	-0.4629129973481869
102	0x3fc8a89c130ea915	0.19264555864840163
103	0x3fbb31bf010ac398	0.10622781539383508
104	0x3fcdc6664470e4fb	0.23261717168660553
105	0x3fd04f068a274898	0.2548233365206527
106	0x3fc09f84fc05a9bf	0.12986814790504117
107	0x3fd0c753c1005ae4	0.26216596458236396
108	0x3fd3f70d2befe81b	0.3119538239549244
109	0xbfdb0f4282431787	-0.4228063842859843
110	0x3fce9321e8870496	0.23886512616994499
111	0x3fbc032da0aa02a0	0.1094234959837288
112	0x3fc95a4da0c5bf02	0.19806833601204948
113	0x3fc9c724c6d19cf6	0.20138988216351777
114	0x3fc7117b3ad5987f	0.1802209889676227
115	0x3fb96f4d8f9b82c6	0.09935459857980353
116	0x3fd0122f16b2a021	0.2511098596246502
117	0x3fcba7200a74cf7c	0.21603775511323053
118	0x3fb6c9bcc172ba9e	0.08901576731543989
119	0x3fca817cb21bf096	0.20707663246856062
120	0x3fcd9537598a04bf	0.23111621734645912
121	0x3fc0cf092db343e4	0.13131823283632038
122	0x3fc7173a63a42768	0.18039636483473065
123	0x3fc4a088dbb65645	0.16114912727486988
124	0x3fd556b1614d7cd7	0.33341631414618916
125	0x3fca055736948f89	0.20328798451475574
126	0x3fc5a8ce21a20a98	0.1692140259002215
127	0x3fd208c47cf3d6bb	0.2817851276625835
128	0x3fd90a39a3f710a2	0.3912490941259056
129	0x3fd21909c7dff6fd	0.28277821082143345
130	0x3fb25147b6e6d030	0.07155273642894211
131	0x3fd05fb472bb4b38	0.25584136204013275
132	0x3fc428253b1f4e7d	0.1574751413996757
133	0x3f92eb57310e0e59	0.0184758781138171
134	0x3fcc5fe68823eee3	0.22167665145376877
135	0x3fd009546ced8039	0.2505694450137557
136	0x3fa06f01643b4f45	0.032096904263794225
137	0x3fc479cc89be9b2d	0.1599670097905003
138	0x3fc9644011c9f2e3	0.19837189549061582
139	0x3f9bf12a05792efa	0.02728715570837801
140	0xbfc12916c1badbc1	-0.13406643352001704
141	0x3fc2ee27bdecd02a	0.14789292119678638
142	0x3fc203ad251970e2	0.14073719321721173
143	0x3fcbf763e6716ccd	0.2184872508249555
144	0x3fd0f3856249e89b	0.2648633441782608
145	0x3fcb9d1cd3e6e149	0.21573219630023235
146	0xbfa750229f8688be	-0.0455332584126764
147	0x3fc4aeda2bc5e14a	0.1615860666022491
148	0x3fc584af09e6fc65	0.1681116865492839
149	0x3fb1df3370325734	0.06981202592063768
150	0x3fc00e40e8ee0fa3	0.1254349839547305
151	0x3fcb580e80978676	0.2136247756853213
152	0x3fcb1238e97fd591	0.21149360085807392
153	0x3fc77604fdb0b812	0.18328916918966393
154	0x3fc286bacdbcaf56	0.1447366242003862
155	0xbfc09d8f4cae9307	-0.12980834240183745
156	0x3fc0c6df2a23efac	0.1310690837634615
157	0x3fc63121a9cde614	0.17337437430596536
158	0x3fca422e93161c1f	0.20514471227599615
159	0x3fbf66fc2f66277a	0.12266517789080736
160	0x3fdaa3b9849fa68e	0.41624296142126915
161	0x3fc85ed26ba9d0cf	0.1903937364292063
162	0x3fc7be1766cd4e4a	0.18548862952831008
163	0xbfa32deceee86252	-0.03745975891451238
164	0x3fbd07c8ecda0247	0.11340003759870242
165	0x3f94824c650c54b4	0.02002829901455945
166	0x3fc64e956a1a4cc6	0.17427318268582875
167	0x3fb697643473b271	0.08824754982533435
168	0xbf90393d6960438b	-0.01584335284866571
169	0x3fbfe573be2787fc	0.12459491150323737
170	0x3fc67c1f1f8dc95d	0.17566288986888426
171	0x3fd1f63f546890fe	0.2806547474194899
172	0x3fc246b2ce4e5d7b	0.14278254579106062
173	0xbf94323f31313be3	-0.019722926499806347
174	0x3f90136d103ab253	0.015699104419285636
175	0x3fd799500429f95f	0.36873245627056933
176	0xbfcbc9f55f615c64	-0.21710078389398568
177	0x3fc8f31106944e4b	0.19491780110603182
178	0x3fa0d12aa45e1330	0.03284581428946465
179	0x3fbbbc2015c29d21	0.10833931475882654
180	0xbfd16b8023ef9ddb	-0.2721863127648853
181	0x3fc5362e3391bbb0	0.16571595685988205
182	0x3fc67a73a27b4b27	0.17561192926094657
183	0x3fc6b397f8a977ad	0.17735576287935598
184	0x3fb27bfb5d781bbc	0.07220431358301388
185	0x3fb76c7d8198509c	0.09149917997302953
186	0x3fc5660315cbb8a4	0.16717566074607249
187	0x3fc65708998bad0a	0.1745310544714374
188	0x3fcba0783af20da1	0.21583464506339303
189	0x3fc10b4e988de4ce	0.1331575627225789
190	0x3fb4f0c4c3e26042	0.08179883749323927
191	0x3fdba4e84b34f05d	0.4319401487771353
192	0x3fc6de863086bfa8	0.17866589898539798
193	0x3fc551c37d29e990	0.16655772792348644
194	0x3fc42af91adc9b6a	0.15756143390282357
195	0x3fcb3df757115bd5	0.21282855750425136
196	0x3fb3002237e8ddf2	0.07422078957539904
197	0x3fc99918cb85779b	0.19998464524809098
198	0x3faf48343dd8a77d	0.06109774832687174
199	0x3fca12cac9ede447	0.2036984907133805
200	0x3fc9bb1a578911d9	0.20102242731276368
201	0x3fda001be927eaf5	0.40625665444501574
202	0xbfc162b1368f85a3	-0.13582434810727503
203	0x3f9f5babc6d8fe24	0.03062313462419132
204	0x3fbad23f986e648c	0.10477063628640532
205	0x3fd229978964f2ef	0.28378857057013723
206	0x3f5acbb0b11ece9b	0.001635477591190793
207	0x3fd3ed5967f7e65c	0.3113616481128696
208	0x3fd52ab2e13b85e2	0.3307311248337027
209	0x3fb3a0da30754c08	0.07667316134511293
210	0x3fd6cd752329d534	0.3562901347534819
211	0x3fdbedb89e476139	0.4363843484584496
212	0x3fe2e21418fd53fd	0.590097473914852
213	0x3fd113a6b4bf59e7	0.26682441378707583
214	0x3fbc3e1107db0418	0.11032206002984457
215	0x3fcf4989cc719325	0.2444317100772874
216	0x3fd11aa401cacf2f	0.2672510163786112
217	0x3fcd78e202569d00	0.2302515517633097
218	0x3f696a6d55d0541a	0.0031025062039682473
219	0x3fd0ac2d5a622355	0.2605088598871153
220	0x3fd03caee8567756	0.253703810589163
221	0x3f5d665d836f50ca	0.001794425317474912
222	0x3fd1d918f93f1e25	0.27887558308109056
223	0x3f8f3840497b01e7	0.015244009249159652
224	0x3fa47afdcf56c2c5	0.04000085025780246
225	0x3fcd54848d9de989	0.22914177813420292
226	0x3fca4b034b2c8435	0.20541421099281512
227	0xbfd4e04c2e9c13ea	-0.32619003822065784
228	0x3fd0b4693943f45d	0.2610114154084096
229	0x3fc9d4fc9f17eba3	0.20181234138712253
230	0x3fd7c1ff7af51374	0.37121569640685625
231	0x3fcacf02879fbea6	0.20944244024530184
232	0x3fd282dc6a1b9d9e	0.28923712122056056
233	0xbf4c123175fb7f38	-0.0008566609867237457
234	0x3fd6346b6c03f522	0.3469494395101994
235	0x3fcd8f1983fad4d6	0.23092955536200205
236	0xbfa8f783d5acadc3	-0.048763389428440294
237	0x3fc75b498d0c640d	0.1824733675682925
238	0x3fd30cb6a2b061ac	0.29765096557232584
239	0xbfa68ebb25c19d24	-0.04405770145313628
240	0x3fcee3e4f7fd052e	0.24132978543097167
241	0x3fd2de0e3dd71f9e	0.2948032001408992
242	0x3f81f1283a36b42e	0.008760751987972961
243	0x3fc9723f4ecc6bf6	0.19879905078491306
244	0x3fcc4d828be82920	0.2211154158724833
245	0x3fb11bb659aa465a	0.06682910622682794
246	0x3fcf7dfff93511de	0.24603271168065438
247	0x3fd71cab8eee3b8b	0.3611248870665171
248	0x3fd289a1cb765510	0.2896503912864583
249	0xbfb0a72eeb349213	-0.06505101435011111
250	0x3fc791573eb68d4f	0.18412294923937586
251	0x3fc78e527b092424	0.1840308285484592
252	0x3f90f3060d0b2c98	0.016552061601754348
253	0x3fbec59c0cd0f733	0.12020278275391831
254	0x3fd0baab699a115a	0.261393406988892
255	0x3fda050f02750bcb	0.4065587543483928

encoder2.bias f8 [6]
0	0xbffca6dd572b8caf	-1.790738430507911
1	0xbfe4ce85d584146a	-0.6502103014214644
2	0xbfecf276962667a8	-0.9045975620858728
3	0x3fcfd4889c70de26	0.248673511874345
4	0xbfe8c89137f24f54	-0.774483308096459
5	0x3ff8374c4f5231db	1.5135005091170715

decoder1.weight f8 [103, 6]
0	0xbfac13e64141659b	-0.054839320626977904
1	0xbfc81dfbeb2afdf1	-0.18841504080590668
2	0x3fd3855f77cddf59	0.30501543712261064
3	0x3fbf2cc55de8cd56	0.12177690069875288
4	0xbfc24269de39b1b7	-0.14265178061340375
5	0xbf94e24430ec3a4c	-0.02039438770867212
6	0xbfcf232aa4118f10	-0.2432606984249266
7	0x3fc8691f040c297b	0.19070804307586883
8	0xbfbd9beb94c572b2	-0.11566040403472291
9	0x3fd49dd1126d2108	0.32213236617509766
10	0x3fb29c7d6b774336	0.07270034669569445
11	0xbfd4cc807892c4a8	-0.3249818017457735
12	0xbfb1c8e95b69ae26	-0.06947191697843688
13	0xbfd30e74180535b8	-0.29775717111337086
14	0x3fd1bd0dd8a3b544	0.2771639457340209
15	0x3fc6c01ff3a6e7d6	0.17773818394726842
16	0x3f614169ab9d5d96	0.002106386554185223
17	0xbfbd44d8d4756ee0	-0.11433177172642273
18	0x3ec371f306a89e78	2.318038288668362e-06
19	0xbeb9afc08eff1b1a	-1.5310366130325807e-06
20	0x3ea5409dc3bc2572	6.333710937677253e-07
21	0xbec37792fa94f90c	-2.3206575475990487e-06
22	0x3e9e55eee3e8db5f	4.520368043522159e-07
23	0xbed52fefc46e2089	-5.051434590515441e-06
24	0xbfbbebebde5f3357	-0.109068624296197
25	0x3fd7ed8317b1abf7	0.37387158693189754
26	0x3fb9a62681692315	0.10019150409165108
27	0xbfd455ed2515557b	-0.31774452802104464
28	0xbfcb47bb16644ab0	-0.21312655061099894
29	0x3fb8c90e879f6d1d	0.09681788264372355
30	0xbf9627b9905364db	-0.021635913309045
31	0x3fc4add6cb2c19cd	0.16155514641304905
32	0xbfcd2edc1e635755	-0.22799254878799027
33	0x3fce2fb8ec895bd6	0.23583137082707023
34	0xbfb3907cd6e48225	-0.07642345663453705
35	0xbfd4d3d4135a1a89	-0.32542898073044363
36	0x3fa9df4eee34d67f	0.05053183229248947
37	0xbfb303f3fa0b9e59	-0.07427906851409584
38	0xbfc29e5790b86e14	-0.1454572159426425
39	0x3fc950f8f3eb3a09	0.19778358373737628
40	0xbfc393e67880d3ad	-0.15295105823466085
41	0x3fd57aadb5476a4f	0.3356127043058778
42	0xbfd27641170d3875	-0.28846766711365684
43	0x3fb64bb8d6ec4570	0.08709292647497135
44	0x3fb6079b329faafb	0.08605356203012697
45	0xbf7d121b75716231	-0.007097346554552562
46	0x3fbfa5dcf8175e1e	0.12362462098041546
47	0x3fbe7f356b1b2c4f	0.11912855019470324
48	0x3fa12889de99b61c	0.033512409613518396
49	0xbfc713dff86aecfd	-0.18029403333444086
50	0xbfce91b2d36be020	-0.23882136653242103
51	0x3fb503b67507c555	0.08208790166078946
52	0x3fc910ea443d793d	0.19582870800054222
53	0xbfa30a00d5ffe18b	-0.03718569385813727
54	0x3fdb534cd34615b0	0.4269592345447917
55	0xbfbb11a1c4468326	-0.10573779146080806
56	0xbfd87d4cb94efdc4	-0.3826476869253066
57	0xbfbc77f307e59998	-0.11120528166575239
58	0x3fa99862d88216f0	0.04999073880121141
59	0x3fb91de23a3945a0	0.09811223908879763
60	0x3fd2fc8987707ac3	0.29666364885808266
61	0x3fbef8fab94fecbc	0.12098662399505405
62	0xbfc2a62a7e2631b5	-0.14569598350170812
63	0xbfc2e420e6858b61	-0.14758692985477764
64	0xbfd4741f1723d84b	-0.31958749065177433
65	0x3fd07449b12bcf08	0.2570976476847453
66	0x3fcc415d014ca7f1	0.220744729647151
67	0x3fcb59d0c79cc3ec	0.2136784529371022
68	0xbfe10ec685417f07	-0.5330536463406766
69	0xbfc1529a766e6de9	-0.13533335478574252
70	0x3f9f4989b324cdd1	0.03055396228701374
71	0x3f9a17ee2a2802b1	0.025481911967292607
72	0xbfb0862ae9add72b	-0.06454723553710255
73	0x3fbe2a9e928402f1	0.11783782078783724
74	0x3fcbd92348a030c4	0.21756402059725677
75	0xbfa1535b72232e3d	-0.03383909004477601
76	0xbfcd39bbb7f411b7	-0.22832437975024586
77	0xbfcb7d44b11f9cfb	-0.2147603859768664
78	0x3f0aa05dc90144d8	5.0785886856483185e-05
79	0xbf2ecfd242bd39a2	-0.0002350753942387931
80	0x3f13639cc0bf7ba8	7.39635872259852e-05
81	0xbf30f64ed66dd0ea	-0.00025882172342696233
82	0xbf0273e12dc37694	-3.51956457238348e-05
83	0x3f26da9fd5734327	0.0001743621930701208
84	0x3fb6a4ee486cd591	0.08845414417449705
85	0x3fb2079116a2e5a3	0.07042795946735807
86	0x3fa8df10c59e40f5	0.04857685482341082
87	0xbfc0da23a5bcaa8e	-0.13165708153367855
88	0xbfaa318a2b5c41a5	-0.051159208100332955
89	0xbfbf4215fc043479	-0.12210214045281188
90	0x3fda987d0026fa68	0.4155571462141894
91	0xbfd10dde1d9a47f7	-0.26647141352543663
92	0xbfa4523c362e236e	-0.039689904798314454
93	0xbfd5202e4fade94b	-0.3300891664618077
94	0xbfc5ef0b47ad2d4f	-0.17135754585101856
95	0x3fd3d0da1830e065	0.30962231027979775
96	0x3fc0d02779774b74	0.1313523619743041
97	0xbfa990fd010d492a	-0.04993429792252109
98	0x3fa93653bd2f185a	0.04924260792135789
99	0xbfc2d34a9423b706	-0.14707309945463737
100	0x3f9f76b9cb3d0be6	0.03072634032220014
101	0xbfb89c2d7c86f0a9	-0.09613308229649199
102	0xbfe5f3f3673a10e0	-0.6860291496418789
103	0x3fbd1f86cb6bad62	0.11376230684588998
104	0x3fd73848c71593c5	0.36281032029938515
105	0xbfd94425125dc11d	-0.39478422921730943
106	0x3fd1d553a8526f2e	0.2786454337854022
107	0xbfc1bf80cc203879	-0.13865671126444903
108	0x3fb56424be680128	0.08355931900587577
109	0xbfb780491a47ed24	-0.09180123225808196
110	0x3fa72386787e21a5	0.04519291134699025
111	0xbfb3cb8abcdbd47a	-0.07732455359276172
112	0x3fbee8b0da4cc0c2	0.1207380803068672
113	0xbfcf4113dbf68170	-0.2441735099828395
114	0xbfa4b701606772eb	-0.040458720224455146
115	0x3f659cf81d0c2b97	0.0026383253065253675
116	0x3fd602136ff6fbda	0.3438767045408305
117	0xbfda217f3a4ec990	-0.40829449361913195
118	0x3f8a8c1e6583a7dc	0.012962567780466054
119	0x3fcdbea3d648a867	0.23238037074162607
120	0xbf9b81b3d9dc8fae	-0.026861963436331564
121	0x3fa8be8875485d73	0.04832865173028269
122	0xbfca8b3e4ebe2b9f	-0.2073743710028255
123	0xbfd51c7df1d28ef8	-0.32986401191213544
124	0x3fd7e4e2d9eda447	0.37334510118541114
125	0x3fbaea828681d40b	0.1051408365618302
126	0xbf644481bb886fac	-0.0024740728224638877
127	0xbf7733a0f1358f80	-0.005664471321640607
128	0xbf722577f76382df	-0.004430264109232167
129	0xbf72d62291ab2920	-0.0045987463333381495
130	0xbf706ccfe3f2082e	-0.004010021278306337
131	0xbf6a2a0fb592fbf2	-0.003193884546447639
132	0x3ea55410efb21073	6.356353589175319e-07
133	0xbeb5fb14322337c1	-1.3101563998587888e-06
134	0xbea46150b6830ccc	-6.073754379654766e-07
135	0xbeb14eba7cc96f14	-1.0316093607331253e-06
136	0x3e97988c490bad62	3.516061691094435e-07
137	0x3e8ca69650f20d00	2.1346458154237119e-07
138	0xbfc33eac083038ce	-0.15035009765455815
139	0xbfa8d299a876e785	-0.04848175221873333
140	0x3fd2652c638e1785	0.2874251339165926
141	0x3faeab18fcfaa27d	0.05989912117121763
142	0xbfbe5b2241b2d65c	-0.11857809165925332
143	0xbfc6b0cc493ce515	-0.17727044654910942
144	0xbef21e0c870f9224	-1.727807870456807e-05
145	0xbefdd260a81c4982	-2.844027267829555e-05
146	0xbef086fde028bf9f	-1.5761672339020487e-05
147	0xbef1ffeaf6abeef6	-1.716583157483541e-05
148	0xbefe31ebc6f27f2c	-2.8796199725732833e-05
149	0xbef29776abbaee40	-1.7730383418108767e-05
150	0x3fcd3d3565ede64b	0.22843043782249803
151	0xbfd245d8fc212387	-0.2855131590081829
152	0x3fc5ad74c67c7958	0.16935596172056466
153	0x3f987de9e9afd3f2	0.023917822731124923
154	0xbfd6c9d5dfa4d715	-0.3560690578482178
155	0x3fca7c78a93afb79	0.20692356360629185
156	0xbf94fce48da9e3e3	-0.02049595942159844
157	0x3fb538bc088282d9	0.0828969498420621
158	0x3fafbc0ecae15fbc	0.06198164202277165
159	0x3f7d1cd87789b541	0.00710758740806955
160	0xbfadc306a80c2347	-0.058128555310821776
161	0xbfcb73d359c089fb	-0.21447221643855116
162	0x3fc393a2cb162ba4	0.1529429904588514
163	0xbfc92c22f4a68c94	-0.19665944047764994
164	0x3fcb45076eecd878	0.21304409900921306
165	0xbfe347dbdf54f12f	-0.60252183551305
166	0x3f923f8d01d28b45	0.017820552097542536
167	0x3fd283e2ac622e86	0.28929964861229285
168	0xbed487df27b9337e	-4.8949119633823835e-06
169	0xbedf59f825a6b4a6	-7.474766415089021e-06
170	0xbed2feeea14c2a96	-4.528958488912235e-06
171	0xbef32ce287764968	-1.8287021217819164e-05
172	0xbed993695f1ce228	-6.0977522354168325e-06
173	0x3eba603c5cf11e47	1.5721274058288808e-06
174	0xbfd10809e4894b60	-0.26611563985823317
175	0xbfa383a4182691df	-0.038113716075972574
176	0xbfcbeb36c9be9f6b	-0.2181156621056702
177	0x3f8986e095058619	0.01246428923394931
178	0x3fdf8550052fb98a	0.49251175409781267
179	0xbfc8ea425e4feedb	-0.1946490250119187
180	0xbf527c7353690421	-0.0011283041218492845
181	0xbf44db578d42a867	-0.0006364991663947551
182	0xbf47daeb28bc4a54	-0.0007280014264970471
183	0xbf455853b39e5641	-0.0006513985347164701
184	0xbf2c3728a9da0789	-0.0002152669084587967
185	0xbeb0835f67e3825a	-9.842619018084085e-07
186	0xbf3923dca56f2511	-0.00038360726233273393
187	0x3f4e9dcb114dbd8f	0.0009343377629259952
188	0xbf4c56e944d5f14a	-0.0008648528106927425
189	0xbf2ebe6549f5840a	-0.00023455606877134688
190	0xbf421f2b733ad2ad	-0.0005530321272631721
191	0x3f4876724cca6181	0.0007465417962349425
192	0x3fa912ea55cef5aa	0.04897243783441792
193	0x3fb6f865deb7fa32	0.08972775161235161
194	0xbfc74884fab5ceb0	-0.18190061799724822
195	0xbfadd6721a3f82c9	-0.05827671595011947
196	0x3fc7e9264c558502	0.18680266120194494
197	0xbfaa36cbe7e50f3f	-0.05119931417223577
198	0x3fb61296050a00d7	0.08622110007309246
199	0xbfadedec42b96475	-0.058455832619707694
200	0xbfc605e9e11dced6	-0.17205546848310033
201	0x3fbdc469476a95aa	0.11627824777186527
202	0xbfbf00f6f775a1f0	-0.12110847035876993
203	0x3fb7c976dee5edb6	0.09291785184716769
204	0x3fc8584c5d456a09	0.19019465021376927
205	0x3fbac7e108a4eed2	0.1046124120811627
206	0xbfb5ae458e0a8878	-0.08469042508889568
207	0x3fd5c5ded4e043ea	0.34020205296206874
208	0xbfdc2ed117eb600b	-0.4403574689472413
209	0xbfd049e10b6e77c5	-0.25450922123297587
210	0xbeedc5c587060078	-1.4196655883536228e-05
211	0x3f179d5cf8990d8e	9.008293104622296e-05
212	0xbf242355f2b34547	-0.00015364097757823212
213	0xbf13805a8d321e48	-7.439186747337193e-05
214	0x3f098034f2d46eb4	4.863893114245618e-05
215	0x3f16eb44177fafaf	8.742907618824903e-05
216	0xbfac61e13f55088d	-0.05543426416490247
217	0x3fbffdcaa58c2a54	0.12496630231559297
218	0x3fc48f755ef34058	0.16062800537338506
219	0xbfb30fa2b7c573cf	-0.07445733057598079
220	0xbfca67f3dc602545	-0.20629738102460685
221	0xbfb04fd5f21e6429	-0.0637181964979311
222	0xbf447dabe4276624	-0.0006253327667835079
223	0xbf5a15ea2726a754	-0.0015921389245740674
224	0xbf6eceb79f10e683	-0.003760679851009753
225	0x3f53ee592b06dfef	0.0012164946348160973
226	0xbf72dba9599950a5	-0.004604016803188814
227	0x3f652bea1c14bf40	0.002584416623584135
228	0x3fb75314a20f3ae3	0.09111145931749891
229	0xbfdf6a80e026e4ac	-0.49087545289837453
230	0x3fb8479a183f5482	0.09484255878426676
231	0x3fd0c0a42ab0ba98	0.2617578904054567
232	0xbfb94556711af301	-0.0987142587791361
233	0xbfcd0086b26092e1	-0.22657855710817557
234	0xbf589bbe30a52bfa	-0.001501975758020134
235	0xbfcf58c7ec6d57bd	-0.24489687961857767
236	0xbfc7a5405f6f785c	-0.18473057422574157
237	0x3f8cc0d0a5cd2ed0	0.014039640483722776
238	0x3fdc0e8b432e0eed	0.43838769493616675
239	0x3f9fe324c6a03cda	0.03113992178265055
240	0xbf3059a8cf553672	-0.0002494847425012831
241	0xbf3186ff9e2ebb98	-0.0002674459521427252
242	0xbf28194d2b9f6660	-0.00018385951062676025
243	0xbf3b806529c2835a	-0.00041964025309409114
244	0xbf1648b114008412	-8.500653075362043e-05
245	0xbf24d36a06622504	-0.0001588885235757413
246	0x3fd2dcf8c8a5a32c	0.2947370490497174
247	0xbfe0f5384ef0c3c1	-0.5299340764814745
248	0xbfc5cbbdaf6acc28	-0.17028018060008887
249	0x3fc5b9085683b97a	0.16970924591391762
250	0x3fba3642760af5cf	0.10239043599991436
251	0x3fac62f56035142b	0.055442493433055816
252	0x3fceb3288d278878	0.2398424805861088
253	0xbfc4ac7cb8818c5c	-0.1615138913067281
254	0x3fc053caafa1ea75	0.12755712104611275
255	0xbfd35f207b22e315	-0.30268108391787624

decoder1.bias f8 [103]
0	0x3f483ed0e00774b5	0.0007399101160065121
1	0x3fa20a6f7ba282d7	0.03523586639608361
2	0x3faf39cdfdcdee74	0.060987889511093935
3	0x3ed9a35261a839ba	6.112569759254865e-06
4	0x3fadd9fe0bbc2c58	0.05830377476930754
5	0x3fc5030a1c0d543b	0.1641552578900319
6	0xbff35ef6bd18e411	-1.2106845270739124
7	0xbfeb4bad0bc005ed	-0.8529877881521181
8	0x3fb2a3f3a5bc8dd4	0.072814205134413
9	0x3fd9d8a36a2ce425	0.40384755486189966
10	0x3fb03ff051075388	0.06347562769162896
11	0x3fc87c861918d41f	0.19130016541899494
12	0x3fc6d3bfc2954ab3	0.17833706856852913
13	0x3f04fcf7e6e07fb9	4.003173386046784e-05
14	0x3fd7b9ee5139fa2a	0.37072332317612455
15	0x3fcda2707616b2f8	0.231519754086001
16	0x3fc501dd1448cf36	0.16411937227678103
17	0xbfd613f4c283fb8b	-0.3449680232587801
18	0x3fd2bfdc88733b13	0.29296029401022955
19	0xbfbe9c8461eff4f8	-0.11957576170967232
20	0x3fc633df18d02ce2	0.17345799171048443
21	0x3f468124aad8c954	0.0006867817916769527
22	0xbe92a4f42b20e3a4	-2.7782247536165407e-07
23	0x3fc6293cbe1e5e16	0.17313346179138084
24	0xbedfc61663fd235b	-7.575459278382663e-06
25	0x3fa2a5e1aa704b9b	0.0364218254618642
26	0x3fbf1bc8ff4232a6	0.1215177176656633
27	0x3fcd242d5ebad2cd	0.22766654134252065
28	0x3e8a22f27c6d83e1	1.9473219322731763e-07
29	0x3fb6a2cb898b6d97	0.08842155559562169
30	0xbf368c7761f11db4	-0.0003440658055677518
31	0x3f327c3e6cc87324	0.0002820637135146234
32	0x3fc1aa0edbd5c159	0.1380022595799442
33	0xbfda4f04c8b8c0bc	-0.41107291795470835
34	0x3fd2bbbd15151299	0.2927086549646361
35	0x3f00e049ede78479	3.218865980492923e-05
36	0x3fb58ab743d71a7e	0.0841478863359075
37	0x3f484a953df122fb	0.0007413128586302992
38	0x3fccd03bf504e0f7	0.22510480369397332
39	0xbf741774b57567f9	-0.004905181783522388
40	0x3edbf6bfede944d8	6.667105223971344e-06
41	0x3fbf66df81942730	0.12266346849005738
42	0x3fbafcdff6bc4715	0.10542106412711079
43	0xbf01ecc6f9c9fbb2	-3.41890547348381e-05
44	0x3fb701a49e58b582	0.08986882081872774
45	0x3fbb8847707d4834	0.1075482034332545
46	0x3ecc351488776ae8	3.362577505089881e-06
47	0x3fc2f0f3559b5562	0.1479782264711203
48	0x3ed3ad3cb5537900	4.6912926638649575e-06
49	0x3fb125e55acd8444	0.06698449580064031
50	0x3ef18d328cc36f79	1.6738464908224824e-05
51	0xbefd663095685c10	-2.8037241770997228e-05
52	0x3f7f4dd7bd609105	0.007642595990578598
53	0x3fc3037b4e640c2c	0.14854375198055558
54	0x3f10c65b7a7d8ede	6.399091091463134e-05
55	0x3edf1dc8c3a3bfd0	7.4187146827802845e-06
56	0xbf9b00cfcc681fee	-0.026370283938405174
57	0x3f6f1203d40259c0	0.003792769886852926
58	0x3fc249a482e62a36	0.14287239448124617
59	0x3fb1a51b3d909ca1	0.0689255738549144
60	0x3f8ed7dafb16ec67	0.015060148990292356
61	0xbf2f2cfc58b07624	-0.00023785190964613443
62	0xbf0085a7daa5eae0	-3.151339054148993e-05
63	0x3ed8f7493394a872	5.9523488798262075e-06
64	0x3fc3c3ee02e8cc2e	0.15441680090006699
65	0x3fdda77922153fdc	0.4633467514840939
66	0x3fde113d6e81f982	0.4698022441079034
67	0xbfd8aad2fb6e2459	-0.38542627862677176
68	0x3fbf060cda60e14d	0.12118606883530454
69	0x3efb0b813c83282f	2.579206537304412e-05
70	0x3f8d7978c0eb91a2	0.014391845118958472
71	0x3ebd9af34305f587	1.7646118629360704e-06
72	0x3fba38cc8a46f4bc	0.1024291837301971
73	0xbecfbbf36b2070e3	-3.7830094124069725e-06
74	0xbfc31e4c57f1601d	-0.14936212820134723
75	0xbfd047d8d2e683f4	-0.2543851909231869
76	0xbfab35be6bbfc5ea	-0.05314440789505766
77	0x3fa74d642661d984	0.04551232307942413
78	0x3faf00c6bee91b4f	0.06055279808474855
79	0x3fc315efeb5863d0	0.14910696975201043
80	0x3fc01253d51b93a3	0.12555931001329865
81	0xbfcd373be23c348d	-0.2282481054939222
82	0x3fc24e9e5b5f2a0f	0.143024248709779
83	0xbfe0b7c264e518fc	-0.5224315615276107
84	0x3fc0d1d0f48b443f	0.1314030832350301
85	0x3f2451ee73dc9ede	0.00015502963827284435
86	0xbfe221012d8f9a16	-0.5665288820135312
87	0x3fe7334357a6ed28	0.7250076972917769
88	0xbfd24e8cf4bf0748	-0.28604434872623985
89	0x3fe9273a0c338ec3	0.7860384214695489
90	0x3ec85438259240a8	2.900240627719335e-06
91	0x3f9475f2fb597d29	0.019981190291557347
92	0x3f4261532bd9fff9	0.0005609184369887991
93	0x3faf72076b1ad8a8	0.06141684706146694
94	0x3eed3d83666755db	1.3942855002928064e-05
95	0x3fc96f679f02696e	0.19871230377323051
96	0xbf14b62712d40e92	-7.900823102962643e-05
97	0x3ef44b2d58ff2a80	1.9353542995574017e-05
98	0x3fb124620e9de893	0.06696141106468394
99	0x3ff29d2d6faf25c3	1.163373409525193
100	0x3f1cd135928ee006	0.00010992898445649776
101	0xbfa117a37889804b	-0.033383472885134845
102	0xbee09d410a777c3f	-7.922303054406814e-06
