Trained_models/10/predictor4_200_9.pth (torch, 357143 bytes, 16 tensors)

encoder1.weight f8 [104, 200]
0	0xbfc7310439f3f4ab	-0.18118336515172948
1	0x3fc4577e4ee54692	0.15892008640598881
2	0xbfb5d52cfaa177d3	-0.08528405302919788
3	0x3faafcfd94934f25	0.05271141470589517
4	0xbf71339e351a5e81	-0.004199617383754296
5	0xbf57cf4bd9621167	-0.0014532318796521505
6	0xbfb3fb230f9323a6	-0.07805079584353666
7	0x3fb9d70c170d926f	0.10093761027162328
8	0xbfb51fdaa5524892	-0.08251730476539113
9	0x3fae31c265085061	0.05897338374430273
10	0xbfac4cfcbe43b41f	-0.05527486631931588
11	0x3fb1c5a8792e8dd4	0.06942227324048328
12	0xbfa49d6737e6a2ac	-0.04026339108833574
13	0xbfa972660ab5e549	-0.049700917060315826
14	0x3fab16b50c450d86	0.052907617328425124
15	0xbf960c12a7790d8a	-0.0215304293362926
16	0x3f936fd6cd9daa3e	0.018981319713399218
17	0x3fa1616bf842d31c	0.03394639401941488
18	0xbfa6c89ccc26a87d	-0.04449930183484783
19	0x3fb184df15b58e94	0.06843370704660351
20	0x3f9694d03fd19d63	0.022052053351584344
21	0xbfa4e6d93e21a31e	-0.040823735079192
22	0x3fb262989fad5ab9	0.0718169584118681
23	0xbf7743b3382cad49	-0.005679798198609484
24	0xbf97591e93e8afaa	-0.02280090120090931
25	0x3fba7415227956b1	0.10333377925538902
26	0xbfc414a272312626	-0.15687971664219552
27	0x3fc2f1c3c7866f0e	0.14800307505071725
28	0xbfb7036cdf43cfa6	-0.08989601565173064
29	0x3fb183fd55c1abf2	0.06842025130906373
30	0xbfb33d29fc39ce57	-0.07515203864914476
31	0x3fa7309250efd60b	0.04529244649885918
32	0xbfbbe6529473ea14	-0.10898319362960535
33	0x3fbd20a217e27089	0.11377919276350403
34	0xbfc0f50adddfac39	-0.13247810205152336
35	0x3fbce51d29d32753	0.11287100096811047
36	0xbfb2eb24e24398f1	-0.07390051387810438
37	0xbf80df86278eafc4	-0.00823883827418815
38	0x3fb4d7e4f26c1468	0.08141928595075998
39	0xbfbfe1460f05819f	-0.12453115336166441
40	0x3fbcdb83f0f43d36	0.11272453911464173
41	0xbfb49bab328df3de	-0.08050031646958142
42	0x3f9b4be8d7cf114d	0.02665675942604766
43	0xbfbb91c03abeee2f	-0.1076927321836869
44	0x3fb656ecd1da2cf2	0.08726387141557604
45	0xbfb1284d799a0306	-0.06702121943272851
46	0x3fa138e804350bbb	0.03363728572232768
47	0xbf7ce84a577ca13a	-0.0070574668859893445
48	0x3f64773f80e9ea61	0.0024982681564414276
49	0xbf8ada81ae684cca	-0.01311208070277416
50	0xbf93fef9b89cff75	-0.01952734174051281
51	0xbf53ba3e58bbb9d1	-0.0012040718892723965
52	0xbf8520c665eea8c1	-0.010316419587827476
53	0xbf669f4a6ea2ca1b	-0.0027615026238774327
54	0x3f67cc659d6f7d4d	0.002905081240427576
55	0x3f754374fa4a3393	0.005191285080070512
56	0xbface9f0c2946601	-0.056472324135210535
57	0x3f8bdde7f37eddb5	0.013606845968623252
58	0x3f89056f9cf673bd	0.012217399575826232
59	0xbfaa197fd02455c3	-0.050975793989134675
60	0x3faf13dae95c95f5	0.06069835756924739
61	0xbfb202c48360c487	-0.07035473067732499
62	0x3faa367d5a362967	0.05119697309699483
63	0xbf97773e0099edab	-0.022915810381602657
64	0xbf705d143a39869d	-0.003995017064512799
65	0x3f9fd94f7d8d5b52	0.03110241130647335
66	0xbf61a0700fd9351e	-0.0021516979893819862
67	0xbfa33d8e9d13e032	-0.03757901828242928
68	0x3fb44511457a8ac5	0.07917888590103946
69	0xbfba6cc2b9fa924d	-0.10322205582139894
70	0x3fb04ba9a6a4a737	0.06365452116429259
71	0xbf873b8f55cbd3a5	-0.011344070249359304
72	0xbf8f643b3dab6cfe	-0.015327894992358978
73	0x3fa8fa0472c315cb	0.048782481202163185
74	0xbf9907fcf5f1b347	-0.024444534789313434
75	0xbf9d51b382321982	-0.028631977864756582
76	0x3fbcf8eb47cc0485	0.11317320349555089
77	0xbfc4dc5a9bd6f925	-0.1629746685920931
78	0x3fc42abffff77a86	0.15755462644934343
79	0xbfb6a15ee54d9b6b	-0.08839982126447203
80	0xbf9ec16995730801	-0.030034684893287537
81	0x3fa563f20d2d33aa	0.04177814875456616
82	0xbf91f4792d464a33	-0.017534154308643756
83	0xbfb3987e5e92ad78	-0.07654561814222471
84	0x3fc2a5b4eab669f1	0.1456819673592942
85	0xbfc405e742cc0930	-0.1564301563412953
86	0x3fc02e8f423413d8	0.12642088635052917
87	0xbfa4d1e2f4ad5e0b	-0.04066380726606774
88	0xbf876cb2604c3d59	-0.01143779140832517
89	0x3fb37124d591d545	0.07594518865683593
90	0xbfc06af5e1139616	-0.1282641743666068
91	0x3faaf33b475c2508	0.05263695951550501
92	0x3fa0cccd0f038a13	0.032812507708303816
93	0xbfb7254753d35387	-0.0904125766422351
94	0x3fa95df6f0f9d71f	0.049545018116005084
95	0x3f4280c72539bb65	0.0005646679296214928
96	0xbfb7c31962416632	-0.09282072686019019
97	0x3fc854e5b80abf7f	0.19009086119103455
98	0xbfc827992e13f946	-0.18870844602492748
99	0x3fc260b330517526	0.1435760484627419
100	0xbfb142f638576205	-0.06742800593873007
101	0x3fac528408fef713	0.05531704530538497
102	0xbfb2707a6941d346	-0.07202878064874793
103	0x3fbd1c5f6d8bb962	0.1137141840406222
104	0xbfb16193913afc1e	-0.0678951482359342
105	0x3fb503d22529f82e	0.08208955199549514
106	0xbfb8ade0f64c832f	-0.09640317929416818
107	0x3fb9158466a27b0e	0.09798457627992382
108	0xbfa9acc376abc8f4	-0.05014620612736734
109	0xbf8514e11a137d00	-0.01029373036220571
110	0x3f6c6b349f6c2dd7	0.003469088343427389
111	0xbfb4cf44b6206e05	-0.08128766485645407
112	0x3fb751529aee159d	0.09108463556738973
113	0xbfb5ec3c3cf913c3	-0.08563591469380953
114	0x3faa4626d73e9765	0.05131646516319569
115	0xbf9195875370190c	-0.017171968906063248
116	0x3f9fcf7b977b1b76	0.03106492149415937
117	0xbfaa85f7ddf423de	-0.0518033464850942
118	0x3fb5feffef513e26	0.08592223732670642
119	0xbfbeaeee33a101b5	-0.11985672722312908
120	0x3fb635d1cf6b9d82	0.0867587214848893
121	0xbfb0f2be05129d5a	-0.06620395301671547
122	0x3fa210425f37e20a	0.03528029835064579
123	0xbfaa05f6f56351a7	-0.0508267569108825
124	0x3fa850e7e40b84ae	0.04749226244690284
125	0xbfb56a4e8183acc3	-0.08365336095782809
126	0x3fbff3fdc0868f60	0.12481676054318092
127	0xbfb96c82b94fc1e2	-0.09931199096877877
128	0xbf9b65f0a8df0567	-0.02675605803211081
129	0x3fbee0100130d15e	0.12060642270154662
130	0xbfc43c1e8465a36b	-0.15808469261835553
131	0x3fb92cf8ef33bb0e	0.09834247436422691
132	0xbf99e53faa1b59a2	-0.025288576848504392
133	0xbfb7a190fa64aa3c	-0.09230905640712533
134	0x3fa6d5198667d29a	0.04459457174008215
135	0x3fa14ee301f9793f	0.033804983130482295
136	0xbfc2d05f48fdc803	-0.1469840151217455
137	0x3fcf825a1d4e41bb	0.24616552763883512
138	0xbfc92ea81487c842	-0.19673634531460676
139	0x3fbd20e8baa62e9a	0.11378340298522929
140	0x3f9289acc82cf00a	0.01810331317686579
141	0xbfb5f12efb3d8547	-0.0857114184741664
142	0x3fc3b710c192348b	0.15402421428408206
143	0xbfb89b9bfb2e69fd	-0.09612440950733254
144	0x3f92301b289d4c7b	0.017761635164174266
145	0x3fb52543c8f8acfa	0.0825998654988104
146	0xbfb1f4f2e550df77	-0.07014387224705652
147	0x3fb2ab899e7281c9	0.07292995565740691
148	0x3fa37a39fc123c92	0.038041889210142746
149	0xbfacf327142ff794	-0.05654260751178622
150	0x3fb80e1219c5377a	0.0939647019306146
151	0xbfb153b4197301f1	-0.06768346425361195
152	0x3fa156471e091d04	0.03386137239118095
153	0x3f8ede3df717b828	0.01507233057324349
154	0xbfba2851871b98e2	-0.1021777109959632
155	0x3fc0dca488b30350	0.13173348116654404
156	0xbfb241c8ec0a64ac	-0.07131629717550209
157	0x3f9b24c9d3b6e0ef	0.026507524058360706
158	0x3f9de00299dc28a2	0.029174843445652805
159	0xbfb00946f4126ab0	-0.06264155825412376
160	0x3f9d0d75d86ab268	0.02837165959742763
161	0xbfa68ebae0b53e08	-0.04405769341485316
162	0xbf9f0580ea7aa52f	-0.030294431983439892
163	0x3fb11137582ceaae	0.0666689481994733
164	0xbfa06ba69ca54bd8	-0.03207131063631835
165	0x3f8a5bb78ae3dc12	0.01287024872406842
166	0x3fb0160c8a97e80e	0.06283644088389925
167	0xbfb64ddabcc05719	-0.08712546451746696
168	0x3fba965934b75dc7	0.10385663544672417
169	0xbfa09674ae9b6332	-0.032397886576012516
170	0xbfa9b3fccaa69544	-0.05020132039798367
171	0x3faffa8a7e38f5c9	0.062458351047535006
172	0xbfa41ccde4a90d46	-0.039282259142533735
173	0x3fae9f442fdc6baa	0.059808855860146906
174	0xbf9e922729ae743b	-0.02985440437224816
175	0x3f9a79d7e041b870	0.02585542017225645
176	0x3f57c93696d98e6c	0.0014517815683569258
177	0x3fa7395609aa3ed2	0.04535931461316313
178	0xbfbbb6959cf8083b	-0.10825476724861087
179	0x3fc25e8959022e91	0.14351002546424188
180	0xbfc593029d49571c	-0.16854889564518138
181	0x3fc490cb23d05eae	0.1606687474129464
182	0xbfc0a7997f9594a0	-0.13011473397924522
183	0x3fc036a6d2c9ad37	0.1266678361165334
184	0xbfba1850427c6271	-0.10193349478903159
185	0x3fb6fbdbb624d199	0.0897805518805569
186	0xbfb7e78988d32926	-0.09337672796678884
187	0x3faf74f7bc2dae91	0.06143926784610899
188	0xbf9bdb8fa20bc654	-0.027204746499540924
189	0xbf67b9943c95aacf	-0.0028961081740609194
190	0x3faecf2de469c524	0.06017440236326824
191	0xbfb9131d9ba3e60e	-0.09794793176470071
192	0x3fc19daf67ca23b1	0.13762466972209844
193	0xbfb144188ad3d75e	-0.06744531049102195
194	0x3fadabdec687c3fb	0.057951890692386564
195	0xbfa4fedb4c2b408b	-0.04100690178677365
196	0x3fba26106289ff7a	0.1021433106016029
197	0xbfbe973f632c8b62	-0.11949535533180503
198	0x3fb4b515f8f8f276	0.08088815048626849
199	0xbfa6381f27236361	-0.04339692452203426
200	0xbfceaf5db2a24452	-0.2397267458186741
201	0x3fb9f9e914caf657	0.10146958120000114
202	0x3f93256e837b1d2a	0.018697478079755893
203	0xbfb6f174fd894143	-0.08962184133384192
204	0x3fb7258d5c6e8c1f	0.09041675097118727
205	0xbfbc71291fda647c	-0.11110169437087508
206	0x3fb352bfb8a4d642	0.07548139818103386
207	0xbfa27e27230273cd	-0.03611872007716208
208	0x3f93221e6503b55d	0.01868484012168402
209	0x3fa7a600e62f2989	0.04618838128915843
210	0xbfb369f246306874	-0.07583536351777004
211	0x3fb895a44477b849	0.09603335067342401
212	0xbfc74c8102522791	-0.1820222150166129
213	0x3fbb7c7c34263c26	0.10736824296167011
214	0xbfa0696033e85622	-0.03205395349156627
215	0xbf9616cb8a851f84	-0.021571331338491997
216	0x3f8154f13f86182d	0.0084627959738662
217	0xbfb5979693a371e1	-0.08434430221991064
218	0x3fc244bd8098b940	0.14272278575067254
219	0xbfc6448a7075b9ba	-0.1739666985626636
220	0x3faf0f9c3aa6f0c7	0.06066597190826566
221	0xbfb097bde4ee9994	-0.06481539572869216
222	0x3fa075924029019f	0.03214699776845297
223	0x3fb1c009201a9263	0.06933648141655051
224	0xbfc9ceaf8a9d2bef	-0.20162004726657254
225	0x3fce5eaaceaf2026	0.2372640141677504
226	0xbfc6bddef8549672	-0.17766940236576861
227	0x3fb0034b1cd53227	0.06255025342870423
228	0xbf971f717b69a85c	-0.02258088413001534
229	0xbfb4af8c9f242b43	-0.0808036697891739
230	0x3fcd06ece786ff0e	0.2267738466743982
231	0xbfd0549d5c6ddb85	-0.25516447092325506
232	0x3fc7133f424b57c8	0.1802748750403096
233	0xbfb16b6ebcbaa3fc	-0.0680455408825224
234	0xbf78c748fc19ca95	-0.006049428078415038
235	0x3fbb6e4fcfd8c46a	0.10715197395690415
236	0xbfc34312d9032e33	-0.1504844245558715
237	0x3fc6965b6ec53a75	0.176463536345597
238	0xbfb8b5b692ad1ca0	-0.09652272301637987
239	0x3faad3f4e49d2c6d	0.052398350626923974
240	0xbf90a3c0a67e19e7	-0.016249666368389894
241	0x3f80cc3e8e0f4875	0.008202065191572164
242	0x3fa9657a48d54892	0.04960233820988082
243	0xbfb9860dc95640ad	-0.09970174947216277
244	0x3fb7977cf91eae2f	0.09215527612712358
245	0x3f96e6a670976e3e	0.02236423551754129
246	0x3fa5877ae8220528	0.04204925616887528
247	0xbfa96e54a26e94a7	-0.04966988070308647
248	0x3fa7d67866225be0	0.04655815359836146
249	0x3faa14a7015bda8c	0.05093881503664929
250	0xbfa103ed3f695606	-0.03323308371606619
251	0xbfa84098f6a5fae3	-0.047367839916651076
252	0x3fadc5098c08b0a8	0.05814390024565458
253	0x3fbaa69c1cc86e54	0.10410476401050889
254	0xbfc39355d0abd6da	-0.15293381394410838
255	0x3fb67b8fcfe0359e	0.08782290291875092

encoder1.bias f8 [104]
0	0xbfc6ecb90d727912	-0.17909920841788868
1	0xbfc90b71e12bda0e	-0.1956617688626498
2	0xbfbf96a0724961de	-0.12339213171197325
3	0xbfc1cd85fdb5e915	-0.13908457649433417
4	0x3fd47224af585dbe	0.3194667541842725
5	0xbfd4457783e115c7	-0.31673992041427507
6	0xbfc5460836a9ea49	-0.16619970959784983
7	0xbfc9e0de1633c7d0	-0.2021749123010168
8	0xbfcf172d7b24c503	-0.2428948260581266
9	0xbfd1e705a800b9d4	-0.2797254696514788
10	0x3fd65cff6cfbccd1	0.34942613261155225
11	0xbfc82a29e2f06f42	-0.1887867315389205
12	0xbfcb5456234628dd	-0.21351124498716603
13	0xbfc12d277f453663	-0.13419049944279768
14	0xbfcfff1182ed1336	-0.2499715699470017
15	0xbfc3408efce32e81	-0.15040767047900164
16	0xbfc7fa9abe7f4aec	-0.18733534146902941
17	0xbfd993efa21ce2db	-0.3996543009884996
18	0xbfa42e5cb1e91e57	-0.03941621467361916
19	0xbfc440d0ffa99881	-0.15822803958434764
20	0xbfcaca151ec02b1e	-0.20929206849572152
21	0x3fd113aaf8b04f08	0.26682543073660314
22	0x3fff093c2f0965c7	1.939754661309381
23	0xbfc411a1163ea731	-0.1567880018822563
24	0xbfd2d0c2922e0cfd	-0.2939917018449732
25	0xbfcf8abda58dd609	-0.24642153342908582
26	0xbfccc21a5767f63f	-0.2246735502994159
27	0xbfb285e825f9fad7	-0.07235575606498955
28	0xbfc2fdf6f5546307	-0.14837538699136862
29	0xbfc6c8900c1af7fd	-0.17799568739968655
30	0xbfcc9addea7daa78	-0.22347616147756688
31	0xbfec2d483a583688	-0.8805276050131434
32	0xbfc16d8904a7945c	-0.136155249855764
33	0xbfd21bd93cb28b40	-0.2829497425793086
34	0x3fcd17e3f4f59001	0.22729157887363274
35	0xbfcb66686b80b57e	-0.21406274079474125
36	0xbfc8eb034c722b60	-0.19467202408517448
37	0xbfa1addba6645b7f	-0.03452955633308984
38	0xbfb230309bcb6e8e	-0.07104781917171918
39	0xbfd535044097d0e2	-0.3313608771125144
40	0xbfc3a83d8e2cb001	-0.1535717910968515
41	0xbfb8a7a082333192	-0.09630778483114558
42	0x3fc7927380029034	0.18415683508385572
43	0xbf872488bba6ed0e	-0.011300152041136016
44	0xbfc537c14d691081	-0.16576401023678858
45	0xbfd894c0b5b83822	-0.3840791487317593
46	0xbfb725e838acff20	-0.09042216666875591
47	0xbfc0bf531cc593be	-0.13083876519081444
48	0xbf91a93f20e40478	-0.017247187025536154
49	0xbfc22d44a368d2f2	-0.14200647334077804
50	0xbfd2eb991e7aeb47	-0.2956297681482067
51	0xbfc7392f8b4526f6	-0.18143266964243993
52	0xbfc6830c3d852016	-0.1758742618933417
53	0xbfd73b38a8783356	-0.3629895825586592
54	0xbfc2d5d24b30e78c	-0.14715031310498394
55	0xbfc7c7bb79b74c43	-0.1857828468624537
56	0xbfd605089ce7e5ae	-0.3440572292598415
57	0xbfd255a296502483	-0.2864767520810078
58	0xbfc6355a654bd2b7	-0.173503207646396
59	0xbfd2697abca425be	-0.2876879541587093
60	0xbfb6781e0f995567	-0.08777034645875902
61	0xbfc0b1acf6c93a93	-0.13042223024463748
62	0xbfcb8dc43b4182b9	-0.21526387112955606
63	0xbfc40c0471452f5d	-0.15661674052023047
64	0xbfc0565b2d8198d2	-0.12763538095459254
65	0xbfce0cd9fcb6e278	-0.23476719703264215
66	0xbfda954d9af27a68	-0.4153627408176477
67	0xbfd22f9b5c0f2f90	-0.2841556929604332
68	0xbfc368df47df7aa4	-0.15163794526502727
69	0xbfd9d1804375ddeb	-0.40341192806178466
70	0x3fb2f7da26a1f4aa	0.07409442370586086
71	0x3fca8376f72774fc	0.20713698452065177
72	0xbfb9d2eece3c3138	-0.10087482962643868
73	0xbfd7a64f2ef0fb0b	-0.3695257147227699
74	0xbfc9a7a3cf6938ec	-0.2004284632443566
75	0xbfcadba33795d1c0	-0.20982780660746236
76	0xbfd05e8dd2ba2959	-0.25577111796214563
77	0xbfbb2c7761256e10	-0.10614725229009303
78	0xbfcb4c2a59dc3b59	-0.21326188457211506
79	0x3fd44b9cafb3691e	0.3171149936512324
80	0xbfc067db91e54d34	-0.12816948531927042
81	0xbfc867d58ef4d0c9	-0.19066876869476904
82	0xbfdf6bf8194b6266	-0.4909649130836783
83	0xbfbdd52884a06fe8	-0.1165337871356652
84	0xbfb2c12fc428302b	-0.07326029337872401
85	0xbfcaa7f81a0ab217	-0.20825101157733236
86	0xbfcffa6e9be46fa0	-0.24983008014612285
87	0xbfe18848edc49386	-0.5478863376525716
88	0xbfcb0988b7567cb8	-0.21122845603983875
89	0xbfc7d05a85aaca58	-0.18604594732967672
90	0xbff161f28be1be51	-1.086412950909921
91	0xbfc40e22647fcb08	-0.15668134600817774
92	0xbfc2fb069ffa7e58	-0.14828570186090206
93	0xbfd7aa46c6f28028	-0.36976785114711896
94	0xbfc80b6c9af35512	-0.18784864011710362
95	0xbfc4b37cb2719b75	-0.16172751153063883
96	0xbfd944d5c886b4de	-0.394826360536923
97	0xbfc628800382ecb3	-0.17311096354919683
98	0x3fd2b440384d9dd2	0.2922516393504938
99	0xbfd2fd4492b34fdd	-0.29670824362005793
100	0xbfdcfafc9c0f7193	-0.4528190158869389
101	0xbfd14f37dc3c5a2c	-0.27046009547612715
102	0x3ff68f932ffaef60	1.4100524782397414
103	0xbfd41140734bcd84	-0.31355296382317754

encoder2.weight f8 [9, 104]
0	0x3fb4a3240bbf6579	0.08061433111961049
1	0x3fd04a27f83fbec9	0.25452613108698735
2	0x3fc1663bafba0a3a	0.13593240814596347
3	0x3fc23111467abdcf	0.14212242070560285
4	0x3fa1eca234aa06df	0.0350084962165178
5	0x3fb654f37470c33b	0.08723374932084209
6	0x3fccce6c8ce76393	0.22504956131049578
7	0x3fd1681a58889f24	0.27197893758646985
8	0x3fb5a2972900bd79	0.08451218367621562
9	0x3fc39b02c34bc182	0.1531680539697043
10	0x3fbefc300ff2be79	0.12103557957993329
11	0x3fd04cc2ba228eb1	0.25468509843106363
12	0x3fd2154c59776f6b	0.2825499414154737
13	0x3fc155e20a457010	0.13543344022298287
14	0x3fc070c843bb62e3	0.12844184214807006
15	0x3fcc5982de3ed37d	0.22148166515185244
16	0x3fcb0a1aad9f762b	0.21124585607223997
17	0x3fcbc9b10769e594	0.21709263669962964
18	0x3fbd42108880afeb	0.11428931553444925
19	0x3fc503a096b00ca5	0.1641731963901282
20	0x3fd1d6bfeb0e355e	0.27873228029860353
21	0xbfd02d794f6de168	-0.2527755046535476
22	0xbfd8d778178e290b	-0.38815119076083765
23	0x3fc449348a43bd47	0.15848404647065648
24	0x3fc92484f51cbac0	0.19642698257799474
25	0x3fbef2f57b4ba687	0.12089475879806787
26	0x3fc95abf32c0c03c	0.19808187463923044
27	0x3fc73f55f1742e89	0.18162035264719048
28	0x3fc5e0bcc3eaa456	0.17092094007719777
29	0x3fc483e6b559f690	0.16027530531930667
30	0x3fd1aa01244607b5	0.2760012487634598
31	0x3fc50adb3cd5f6ff	0.16439381094453862
32	0x3fc4d0d112a1d741	0.16262257966780605
33	0xbf961518efaae532	-0.021564855220934827
34	0x3fd08c2b0ce5c703	0.25855518588569754
35	0x3fc88d9f3fabf9dc	0.19182196244214722
36	0x3fc299b98f0c910e	0.14531630978411453
37	0x3fa6fd24449f0ab3	0.044900067688577926
38	0x3fc67a287e5a4001	0.17560297174031805
39	0x3fc3ab824cccf690	0.1536715388301002
40	0x3fc3892502c10d37	0.1526228202293198
41	0x3fc72ef57146ee5c	0.1811205676184383
42	0xbfd435ce8ba355ad	-0.31578410755659087
43	0x3fc5bf6fa0de089c	0.16990466456269793
44	0x3fbf18f5501d7eb9	0.12147458272874702
45	0x3fc233f256e43da9	0.1422102855944847
46	0x3fbcc94daa003f24	0.11244664574064395
47	0x3fc3ab8626b52874	0.15367199792882824
48	0x3fc3ad45017c479c	0.1537252671483288
49	0x3fc065e96e8ff560	0.12811010263969091
50	0x3fd0a27916ea9c60	0.2599165653031772
51	0x3fc5199f6b66daca	0.16484444374301283
52	0x3fc14f468c1de523	0.13523179856910258
53	0x3fdbda24f50895ab	0.4351894753366092
54	0xbfc2a9a413b890df	-0.1458020302098992
55	0x3fd01aa0792f1402	0.2516251738964571
56	0x3fc59c05a652a1f6	0.16882391568402938
57	0x3fc988399143f63c	0.19946975319901294
58	0x3fc27548756e2d6c	0.14420419439225485
59	0x3fc934baade2e4db	0.19692166796247687
60	0x3fc8db8a719e693f	0.19419985339920662
61	0x3fc27c90f554c22b	0.14442646006638546
62	0x3fc22038c9deb787	0.14160833222325328
63	0x3fc8832210304805	0.19150186338862354
64	0x3fc502b30eefa805	0.16414488057426993
65	0x3fca9ffee0d44a4a	0.20800767877570286
66	0x3fcc1cd17b3a8474	0.21962946431179697
67	0x3fade3fe184560e6	0.05838007017399764
68	0x3fc35118feb4d52b	0.15091240345797394
69	0x3fcd736299ef0b20	0.23008377567574545
70	0x3fc58a3b9453e7c0	0.16828102819982682
71	0xbfbc4ff0e87caf8c	-0.11059480358079393
72	0x3fc392d1ee64f8fa	0.15291809215882052
73	0x3fb06f0893d934e0	0.06419423684674852
74	0x3fc4b6bab838f17c	0.16182645793186257
75	0x3fc6ba5220a40b85	0.17756105989255047
76	0x3fc8d459b64f8dcc	0.193980421084332
77	0x3fc840de05edf99c	0.18947959222346078
78	0x3fc716cbb8628870	0.18038317206543608
79	0x3f951f7e6456e2dc	0.02062795150206652
80	0x3fbd6e96feaa6ea0	0.11496871678758191
81	0x3fa9b5e224a48b3b	0.05021578500079334
82	0x3fc3f87d8bce24bb	0.1560208256380856
83	0x3faa936c723a43e6	0.05190600294475427
84	0x3fc2c5da60bc82c5	0.14666299556212983
85	0x3fc0e4af8fcc4bf9	0.13197893639934913
86	0x3fbf82b0691439c6	0.1230879074612182
87	0x3fbbb81e7665badb	0.10827818289338202
88	0x3fc48077af435e3b	0.16017051751872366
89	0x3fc350ca34fa6015	0.15090301119630625
90	0x3fcb133ab0d9e7eb	0.2115243304759241
91	0x3fc25eb028268fb2	0.14351465187530504
92	0x3fc4a77db2e02d31	0.16136142000355272
93	0x3fa2fc125dbe7dfc	0.0370794047769287
94	0x3fc05e7e82915a2e	0.12788373351459498
95	0x3fc279951d13bb3e	0.14433540267733663
96	0xbfd01bdd1acf3182	-0.25170066469288355
97	0x3fc860d78124a539	0.19045537763421708
98	0x3fc18ca4a8989b58	0.13710458976967277
99	0x3fc0e3bf9949a7bc	0.1319503305888342
100	0x3fd0bf6d11d2b324	0.26168371906787713
101	0x3fb62877547d1b3b	0.08655496418678592
102	0x3f954d1d8aa3ab1a	0.02080198439299883
103	0x3fc322e9889c3a78	0.1495029370348282
104	0x3fcc3429092f65cb	0.22034180592053895
105	0x3fc1c957e5cfa862	0.13895701142547795
106	0x3fc1933f41b908a5	0.13730612477417484
107	0x3fca69a1c4503e67	0.20634862981431754
108	0xbfa7a192b9ff4c1d	-0.04615458031153017
109	0x3fccf9040910f9b8	0.22634935801211298
110	0x3fc4d43792913171	0.162726351324078
111	0x3fc5adfc046ead65	0.16937208382055782
112	0x3fd89b5cbd85e40e	0.384482560235086
113	0x3fcc5d200cb5def0	0.22159195538164722
114	0x3f9ffaff67217176	0.03123091761550386
115	0x3fc066e7478a36b2	0.1281403636279968
116	0x3fb7de5748bf2f4e	0.09323640371365835
117	0x3fbf344093ee4aa8	0.12189105617134521
118	0x3fc26532898da902	0.14371329990837728
119	0x3fb779f60df843dd	0.0917047294717714
120	0x3fc911fd87c98aa4	0.1958615220092571
121	0x3fcd70059445232a	0.2299811338400784
122	0x3fd0b481d2646b86	0.26101728006477065
123	0x3fd03c214423cce4	0.25367004064828635
124	0x3fb78b17a96d27a5	0.09196613203417188
125	0x3fc626fd29a7699a	0.1730648473156407
126	0xbfd30e1b214a7b2d	-0.29773596049374157
127	0x3fc6dd7e310a6979	0.1786344279724508
128	0x3fbbc5737dd1e233	0.10848161527418014
129	0x3fc2cb0b2d9884c4	0.14682140089374773
130	0x3fcd5ed106b6ec1d	0.2294560702119676
131	0x3fcb953a57744cd2	0.21549157400349955
132	0x3fcb616e8d8daa22	0.21391088401590347
133	0x3fc954faf3709c4f	0.19790589224541796
134	0x3fc5b107a77bcee5	0.1694650237837926
135	0x3fd5bc041044a3e5	0.33960057820018924
136	0x3fc72c0bf82d2f38	0.18103170030587434
137	0x3fd651f361c0f604	0.34875187441124944
138	0x3fb5a9cfff277e5f	0.08462238292076439
139	0x3fc1be0b0dfddc63	0.13861215766130205
140	0x3fbfa1d5a4ed6781	0.12356314922854318
141	0x3fa197991aaa55e0	0.03435972643380203
142	0x3fcf779c153f73d8	0.2458376983403514
143	0x3fcf97b26853ca4a	0.2468169221316024
144	0x3fc80c7dd7ca77db	0.1878812125841581
145	0x3fcf56455c66a308	0.24482028018726276
146	0x3f9dd8e6f3f25b03	0.02914772857601645
147	0x3fce060bc3912dbc	0.2345595078389645
148	0x3fb936981655d2f6	0.09848928971571155
149	0x3fd1d5028c0bc108	0.27862609554632956
150	0x3fceee06f8debac7	0.24163901473862934
151	0x3fc88d1b658ade7c	0.19180624445083427
152	0xbfd9e89dede7627d	-0.40482280953214184
153	0x3fc0c9adf23275a4	0.13115476919203417
154	0xbfc02b624ed57e38	-0.12632397507967297
155	0x3fcc48abc00a4c0b	0.22096773983921056
156	0x3fca38efde525835	0.2048625789217923
157	0xbf96eff449dbcc9d	-0.02239972782895149
158	0xbfc4586943d78df7	-0.15894809544180052
159	0x3fb9342ef5053490	0.09845250589315158
160	0x3fd0e8d5f5f92d66	0.2642111684878813
161	0x3fcac47fdc8ca5f9	0.20912168759359398
162	0x3fc71e4f585f5926	0.18061248602925523
163	0x3fb3e819d61328d5	0.07776032902180259
164	0x3fcccb97e83c2ec2	0.22496317710498742
165	0x3fc58f3dc8b14b82	0.1684338788932927
166	0x3fcf6836d4ab752e	0.24536786445870845
167	0x3fc320e7c41fc867	0.14944169117331116
168	0x3fcbad3f5aa532b2	0.21622459341087602
169	0x3fb6e9ee2195b773	0.08950699157659674
170	0x3fd12e52d053b2ee	0.26845236153057683
171	0x3fcb51d0aa4455a6	0.21343429864707025
172	0x3fcbda83be1ef16e	0.21760603698011088
173	0x3f727a3518d38c36	0.004511077318258441
174	0xbfb9d8144488d93d	-0.10095335648734234
175	0x3fd7d993f833c032	0.3726549075936446
176	0x3fc7bcc3e474887a	0.1854481568817084
177	0x3fcf4157cb65677b	0.24418160850001044
178	0x3fb5f3126bfb09b9	0.08574023376699004
179	0x3fc4aabb07f3fb51	0.16146028412182514
180	0x3fb1a54151f519c3	0.06892784357942276
181	0x3fcfb234e9e06381	0.24762593669654723
182	0x3fc1934cfbddf5a2	0.13730776117510596
183	0x3fb4006924fcdadc	0.0781312670995748
184	0x3fd35d3fe358d0f3	0.3025665016350693
185	0x3fc3b5b96094c117	0.1539832803332579
186	0xbfb9ad83bc114032	-0.10030387250412856
187	0x3fd4aa74d536a857	0.3229038316882273
188	0x3fcb03453243e590	0.2110373015819218
189	0x3fcb0225d61467c1	0.21100304558859587
190	0x3fc966513f47b8f4	0.19843497838832713
191	0x3fcd9dc5f5259d86	0.23137735815110377
192	0x3fc0f55da28ea670	0.13248796880116087
193	0x3fc8ee4509ec6908	0.19477141365570838
194	0x3fdeaebc328d29cd	0.47941498696004886
195	0x3fc9bb7601cc7671	0.2010333546431187
196	0x3fc5bd6639f86f51	0.16984250860775288
197	0x3fb5b488fd6c783f	0.08478599726774493
198	0x3fc1bc1e80d7c189	0.13855344096328917
199	0x3fc285c1592c1f67	0.14470688680762153
200	0x3fa98e607858889b	0.049914374056485765
201	0x3fa87d952a66352c	0.047833119798364215
202	0x3fb324fd358d3ce3	0.07478315884985735
203	0x3f96022d0abf2ed1	0.021492675572331536
204	0xbfb676f50949954c	-0.08775264240974429
205	0x3fcd82a3840c8ffd	0.23054927776058767
206	0xbfcfb9149ea3b8f5	-0.24783571001120888
207	0x3fca2768e2d16f39	0.20432768893339828
208	0x3fb5ee3b20e78606	0.08566636613206677
209	0x3fc22a825e16f830	0.14192227930283385
210	0x3fb018dd1635a801	0.06287938873506961
211	0x3fb5ec7687b7f465	0.08563938916627618
212	0x3fc77003c23fe6a6	0.18310591683239358
213	0x3fb63f5170c9af26	0.08690365794762708
214	0x3fc147e73bc1b037	0.13500681321909422
215	0x3fbb22c5b69cc256	0.10599933346089449
216	0x3faaa18869be63f0	0.05201364794556429
217	0x3faefbab115d8b94	0.06051382624607196
218	0x3f6014e4a58c17a6	0.0019630876307727583
219	0x3fa499ae7250b1b4	0.04023499627541885
220	0xbfc7f476d7a21ec6	-0.1871479561707387
221	0x3faaad3763472f01	0.05210278593912499
222	0x3fc372a3c4c573b5	0.15193602664922215
223	0x3fb055e36f15ec3d	0.06381055318881663
224	0x3fbcf65aa6a3d712	0.11313406532630335
225	0x3fd975c116e58997	0.39781214939116566
226	0xbf96179ffde3bb0d	-0.021574497100057367
227	0x3fc30d33ef62bf1b	0.1488404196620586
228	0x3fadad087b2a2d36	0.057960763010749636
229	0x3fd9a01f04501c18	0.40039801999268
230	0x3fd0cab0ee9f53c7	0.2623712854668238
231	0x3fb32e46ff7675ee	0.07492488610156275
232	0x3fc2c32a31557026	0.14658095749735017
233	0xbf6b344c39239b0c	-0.0033208359464994616
234	0x3fa22151e51446f8	0.035410460675974365
235	0x3fb4a231baa1f87f	0.0805998879095302
236	0x3fb45f7d4742878c	0.07958205213301833
237	0x3fa58cf8f2ea29be	0.04209115948932006
238	0x3fb836df3c6695ef	0.09458728050829966
239	0x3fc5ba625179d5d1	0.16975048998180722
240	0x3fb680c1f89af8f7	0.08790218657938796
241	0x3fc3d9d3bba6e891	0.15508505499548567
242	0x3fd4cb6e20a6ed2f	0.3249163931720486
243	0x3fac773bf9715dc4	0.05559718532520777
244	0x3fa53d8d44a23949	0.04148522818387563
245	0x3fda90616d60b088	0.4150622909680881
246	0x3fb258ae7dfd9746	0.07166567398016097
247	0x3fb799817b95f3fe	0.09218606250028924
248	0x3fa5aa150b63faeb	0.04231324924511689
249	0x3fba3f88791ad8b3	0.10253193813955157
250	0x3fd5eacf007ae9ef	0.34245657965553183
251	0x3fb6fe32d130f809	0.08981626136025524
252	0x3fb1a5ea41a3250f	0.06893791296456107
253	0x3fb47530b316f577	0.07991318104082788
254	0x3f88a1d94b54f73e	0.012027452098319121
255	0x3fa376ba52ea56e3	0.03801519643927322

encoder2.bias f8 [9]
0	0xbff94cc766a1b310	-1.5812448510216122
1	0xbff89b6b08eae597	-1.5379438732473767
2	0x3fceeb9a3a516488	0.24156501624637294
3	0xbfd250f579b1c711	-0.28619133838866256
4	0x3ff8cac39297c296	1.549502918842483
5	0xbff055e2bab685d3	-1.020968179080559
6	0x3fa409900ea582c6	0.0391354577902852
7	0xbfeb6494427701dd	-0.8560277269498858
8	0xbfc1b56dd0fc9174	-0.13834927277015263

decoder1.weight f8 [104, 9]
0	0xbfb04a761659d924	-0.06363618894269912
1	0xbfba306840ba1b8f	-0.10230113582848176
2	0x3f842b94e6bf9d52	0.009848750392804338
3	0x3f8d2553c5d7ee8c	0.014231352305606813
4	0x3f8748fdec6c9b7b	0.011369689729304735
5	0xbf641d2d81c75b42	-0.00245531929088419
6	0x3fde4a8e2930a971	0.47330049536198887
7	0x3fc8811a57925613	0.19143990779836936
8	0xbfd5cd2fc5f6cd3d	-0.34064859707287437
9	0x3fc9691b735eac99	0.1985201180772023
10	0xbfb79c5263ac012e	-0.09222903188129258
11	0xbfb62158f479e153	-0.08644634216932916
12	0xbfb7b9724c5da924	-0.09267343868637973
13	0x3f91c894bbccb2db	0.017366718256357366
14	0xbfcac0be98ec7613	-0.2090070959756508
15	0x3fb382c947a18d2e	0.07621438978963077
16	0x3fcb4a9b795ec828	0.21321433473855333
17	0xbf7d5ae6f6b55746	-0.007166769220324392
18	0xbf9b555a7c050422	-0.026692785090976064
19	0x3fbf629c7b4485cc	0.12259843835320011
20	0x3fd9f0e354f49f34	0.40532763763848156
21	0xbf9088143bc4f510	-0.01614410033038377
22	0xbfae8de2d1cc29d0	-0.059676254377410864
23	0xbfbb6fa77d51d676	-0.10717245873987644
24	0x3f652aae943fd57e	0.0025838289020564944
25	0xbfab1f504a636606	-0.0529732790761948
26	0xbfc26172081f167b	-0.1435987987189725
27	0x3fc95bcec929eb9c	0.19811425039719388
28	0x3fc27b0596147eec	0.14437932804229747
29	0x3fac4b34c1e11c8a	0.05526127688113387
30	0x3fcecc8feac2aecf	0.24061774218477303
31	0x3fa47c6ba9665358	0.04001175349109215
32	0xbfd085543dabebef	-0.2581377603780188
33	0xbfb2f3968d6484fe	-0.07402935935944652
34	0xbfcfd22a89d58b41	-0.2486012623804417
35	0xbf7e9433b257afbd	-0.007465555133858656
36	0xbfb9e28b31d3a64b	-0.10111303297494449
37	0x3fc294638482996d	0.14515346498701423
38	0xbfcedbf8433da970	-0.24108794482465212
39	0x3fc92924db3d371f	0.19656811432872076
40	0x3fa9316ff861064d	0.04920530230493778
41	0xbfae40dddf094b74	-0.059088643528091206
42	0x3fa14e7062800647	0.03380156710046527
43	0xbfc140e79ccc67c1	-0.1347932353608581
44	0x3fb12a245151d036	0.06704928384152783
45	0xbfb51aea818d19cb	-0.08244195616598586
46	0xbfa09f405a3ae2de	-0.03246499158325887
47	0xbf92d532ef5f3ef5	-0.018391414508925192
48	0x3fc29afb5ede978e	0.14535467273998076
49	0xbfd2f90744468e48	-0.29644948642291924
50	0xbfb344160f09530d	-0.07525766245937522
51	0x3f3951760c0827fc	0.0003863251877481708
52	0xbfd7c29c790d76fb	-0.3712531263498559
53	0x3fdc43ddca2cfb2a	0.44164223426553184
54	0xbfcaf9c213f6f091	-0.21074701285204303
55	0xbfc78211a8591e4e	-0.18365689010737402
56	0x3fd254ec531353e4	0.2864332972797554
57	0x3fc08bbe43d0249a	0.12926462470230576
58	0xbfb135287922ec24	-0.06721737821037316
59	0x3fd3883b0944b925	0.3051898565780838
60	0xbfd25523d89c3199	-0.2864465346654242
61	0x3fcad48865eab418	0.2096109864845921
62	0xbfdbbde195abe0c4	-0.43346442810389996
63	0xbfc889c5fd505c5b	-0.19170451039164757
64	0xbfc59a0b0ec3ffd1	-0.1687635252092137
65	0xbfacba702c27779a	-0.056109910383141684
66	0x3fbfb33a01a754ca	0.12382853069660196
67	0xbfbcfa081747b350	-0.11319017952309918
68	0x3fa4e70b61f24fbe	0.04082522936474174
69	0x3f94a8595db0ccc0	0.02017345079748334
70	0x3fcb43d597d52bdf	0.21300764001566017
71	0xbf959a371faa596b	-0.021096097285942344
72	0xbfc0ec44a96de39c	-0.13221033356583411
73	0xbfac82f84b0b720d	-0.0556867210013686
74	0x3fb07500742dd456	0.0642853053703488
75	0xbfcd081a01426dd3	-0.22680974065302326
76	0xbfc07539575e72ec	-0.12857739225446296
77	0xbf8ad4f59847458e	-0.01310150023428738
78	0x3fd4c8d6f93b036d	0.32475828493993825
79	0x3fd6222e2469e3b8	0.3458361964799752
80	0xbfce0cf81a5ebad6	-0.23477078712081462
81	0xbfc523a9a6e49664	-0.16515083931988095
82	0x3fbfeb22e29137f0	0.12468164473941079
83	0xbf9c0b535d90fa39	-0.02738695391257748
84	0x3fafc09c96d72f26	0.06201638547244519
85	0x3fca5ccd93c924fa	0.20595712390994675
86	0x3fc3091af054309b	0.14871536955650275
87	0xbfce22e83eb4a172	-0.23544028341099082
88	0x3f74471c7f654c7e	0.004950629538444605
89	0xbfc47acdeb145144	-0.15999769190296764
90	0xbfc9eb9228cfab47	-0.2025015544198487
91	0x3f87ba901aafca6c	0.011586309255993764
92	0x3fa97d446a03e59b	0.04978383821612483
93	0x3fc84c368ce2fab7	0.189825838844589
94	0xbf9d67e3ffbc0f3d	-0.028716623767663697
95	0xbfd2f66883dc7b40	-0.29628956677509066
96	0x3fa4a6a6252437be	0.04033393100154069
97	0x3fd19357ad8e0cca	0.274618072020712
98	0xbfd17d8e4baec939	-0.2732883204545434
99	0xbfcfc68556809adb	-0.24824587558506192
100	0x3fc2067bcc972a3d	0.14082286348123488
101	0x3f89e64bf8ea1d35	0.012646287473457288
102	0x3fd7d0afa4d30b36	0.37211218925601786
103	0x3fcb0e6f6039e4c0	0.21137802313368148
104	0xbfde210a356311bd	-0.47076659406254945
105	0xbfb299a9fc4dfd6b	-0.07265722665578316
106	0x3fc6ba2529e4d631	0.17755569978332766
107	0xbfd74c3cffe08c9c	-0.36402821529390805
108	0xbef812d312bb50eb	-2.2958310338009566e-05
109	0x3ef436b4324bda35	1.9277274207996602e-05
110	0x3ee06458ece99021	7.816306063897272e-06
111	0x3f0de75cc7d55768	5.703689474027726e-05
112	0xbf12180d9611e632	-6.902296947144322e-05
113	0xbef5a96370eb3ff4	-2.0658181763277787e-05
114	0x3ef53f67345383f3	2.0263355755004803e-05
115	0xbf1aad020ad5565d	-0.00010176014867132586
116	0xbef2388f98a1b960	-1.737684355201366e-05
117	0x3f1714d3c4807170	8.804838682902548e-05
118	0xbf33aef43f4f1817	-0.0003003450686346344
119	0xbf300907aa1fd727	-0.00024467885134470336
120	0xbf103e55e90e9320	-6.196402888620752e-05
121	0x3f1697838beed7af	8.618107220467631e-05
122	0xbeea26aa963df99a	-1.246978781188346e-05
123	0xbf1a0d2696b32367	-9.937809015804281e-05
124	0xbf409366797dcf46	-0.0005058527340069195
125	0xbf44de55ef204922	-0.0006368560409575656
126	0x3fdbb069d9055f01	0.43264242356734434
127	0xbfb25a41a3aebf2f	-0.07168970342786161
128	0x3fa719d2433ab3e8	0.04511887617750415
129	0xbfc0542171492cee	-0.1275674632218861
130	0xbf7a301b4122c2c7	-0.006393534147875974
131	0x3f94fe5baf04d406	0.02050154929857586
132	0x3fbf0d9aafb4d6f4	0.12130133428294326
133	0xbfda07e99bb19432	-0.40673294262370796
134	0xbf62726a838aa98b	-0.002251823458512441
135	0xbfd2384e4e3c5967	-0.28468663826187995
136	0x3fd4e960e87c80e1	0.3267442961096219
137	0x3fbfba58e8598522	0.12393718407249257
138	0x3f84b460e2b30c92	0.010109669607464764
139	0x3f992f6ef2deaeb8	0.024595006536101777
140	0xbfba8fdacb912f3d	-0.10375754804516375
141	0xbfd3c4278fddf37f	-0.30884732293616673
142	0x3fce8a1f162048f1	0.23859013157250034
143	0xbfb04e4942bbdb68	-0.06369455222362108
144	0xbfac08f19a7d1ba6	-0.05475573550079753
145	0x3fae47f99db18d26	0.059142876147939824
146	0x3fb17c6092379197	0.06830409593346186
147	0x3fc2804353207aaf	0.14453927573136613
148	0xbfc091eb1b762965	-0.12945307579895907
149	0xbfae8e9a3ee0c57e	-0.05968172090104938
150	0xbfd36401d7701f2d	-0.3029789546858293
151	0xbf9efce8bcb2a975	-0.030261646763997747
152	0x3fbfdad05d987f9e	0.12443258557368472
153	0xbfba6637619d71f6	-0.10312219746760562
154	0xbfc8cdad4e992bcb	-0.19377676332291424
155	0x3fbaeed28cbcc9d7	0.10520664154027003
156	0x3fcd5675d005fffd	0.22920105607408905
157	0xbfc94724021ccc9e	-0.197483540565007
158	0xbfb5f7c4868c81f6	-0.0858118847359107
159	0xbf9d2913541d9610	-0.028477003106123944
160	0x3fb25d18c6fdaf25	0.07173304422547895
161	0x3f933bd443faf9b2	0.018782917641823445
162	0xbfb98f45e4bee6b2	-0.09984242281543734
163	0x3fb2166c3993e1fc	0.07065464406685601
164	0x3fbb88b54946aa96	0.107554750814112
165	0xbfc812ecf00ca212	-0.1880775615802724
166	0x3fc5d5d0889427ec	0.17058760327228073
167	0x3fb8a353e756232a	0.09624218366492401
168	0x3f7790b342b0a390	0.00575323127399309
169	0x3fc809f2e0cd1ac9	0.1878036115324078
170	0xbfcea3e3410097ba	-0.23937645601216478
171	0x3ed9b58f1f08340d	6.12955453550575e-06
172	0x3ea5417f1e1e9871	6.334735724769188e-07
173	0xbec9bba1438a768a	-3.067604236696804e-06
174	0xbed2362b4fd43770	-4.3419834103839734e-06
175	0xbead08017aaca4e3	-8.651993444786238e-07
176	0xbe4e9f1f349cbfce	-1.4259279662928773e-08
177	0xbeb00d9ce7156b91	-9.568438169213514e-07
178	0xbed1341239b2e9cf	-4.101610922175498e-06
179	0xbed6491b939c3b64	-5.3132956112773574e-06
180	0xbfa71b17f317df97	-0.045128582405538235
181	0x3fd14ea25ddaed35	0.2704244534067642
182	0x3f8be0f34344f90e	0.013612652292633
183	0xbfc0d4b5179dc9f9	-0.13149131444113474
184	0x3fb2830f20e2f372	0.07231230309385042
185	0x3fa68216a9f97c77	0.0439612467277976
186	0x3f78ab843123b409	0.006022945761498207
187	0xbfb541db798d9143	-0.08303615300753102
188	0xbfb0795b6263a0f4	-0.06435176040725193
189	0xbfc078cdbf21eab9	-0.12868663628235824
190	0x3fa8ab183b787a33	0.048180348643871794
191	0xbfa999c918f58253	-0.050001415535693504
192	0xbf980845fe456232	-0.023469060558769246
193	0xbf96f08bcd00d2ea	-0.02240198553791376
194	0x3fb0c096cb36b529	0.0654386755110933
195	0x3fc4b66f7de21874	0.1618174900688164
196	0xbf5ed005d54f5c1a	-0.0018806511845832542
197	0xbf77cd54f7480aa1	-0.0058110541326665
198	0xbfc23c2bbbdf70bf	-0.14246126817204716
199	0x3f7784779e75c12a	0.005741565000207319
200	0xbfd740cd3ec1cbea	-0.36333018425574315
201	0xbfc6dadd749c5649	-0.1785542315853255
202	0x3fbe8abed0ffa88c	0.11930458643442615
203	0xbfcb79217d334a62	-0.21463411916063807
204	0xbfc6c0c9814df38c	-0.17775839627929846
205	0x3fe1b87a5199cc67	0.5537692636265888
206	0x3fb9104a943b705c	0.09790483588170801
207	0x3f10861f1fa2ece8	6.303372348075468e-05
208	0xbf3183e5789dd6c9	-0.0002672610504455939
209	0xbf0ddd2be037cadf	-5.696096561882079e-05
210	0xbf37725960b6f5c6	-0.0003577678878306758
211	0xbf357c5ecb0affbf	-0.0003278476170116527
212	0xbf333223a61eb495	-0.0002929055245840054
213	0xbf139282332d04bf	-7.466239621313745e-05
214	0xbf43e9707a4d6bf1	-0.0006076621253713316
215	0xbf3f6d08f1542443	-0.0004795214493503211
216	0x3f6ddd4365a27e7d	0.003645545611177968
217	0xbfc4a4870880dc92	-0.16127098002627754
218	0xbfc934f952a6b014	-0.19692913566302706
219	0x3fd3a129074a1300	0.3067114421067316
220	0x3fa7e24b60cb4841	0.046648364606554533
221	0x3f9276d159920928	0.018031378833719774
222	0xbfc36e84addc3bad	-0.1518102501799751
223	0x3fa0e4d1e54a4c05	0.03299575733139907
224	0xbf97e2335767985b	-0.023323824128873443
225	0x3ef0e02aa098ada0	1.6093874398643454e-05
226	0xbf3261fdf718e098	-0.00028049898455463065
227	0x3f23411df63f29e9	0.00014689913507333279
228	0x3f0d84c6bd7b2604	5.630237109028813e-05
229	0xbf412462d6000ca2	-0.0005231363866190673
230	0xbf1fa86634151083	-0.00012076495933849474
231	0x3ee76124fdc764e5	1.1148200365451069e-05
232	0xbefb47888f0bf9e4	-2.6015689345898737e-05
233	0xbf302ed24d066dc5	-0.00024693140314876696
234	0x3f0ac53ee28237eb	5.1060659019261236e-05
235	0x3f1eec8b59ee6666	0.00011796570332336386
236	0xbf1f32b5756c99ef	-0.00011901123557987008
237	0xbef9e2a86d71b529	-2.4686224460547836e-05
238	0x3ef3ee03373811e2	1.9006477897336417e-05
239	0x3f1ac3e511c06616	0.0001021011889296364
240	0xbf1d2caeb5a03dc7	-0.00011129204122561138
241	0x3f103a59208dcb6a	6.190461148296097e-05
242	0xbf2b2088968f3018	-0.0002069632276103801
243	0xbfc036af588ee86d	-0.12666885208256265
244	0x3f784c3572c53c0e	0.005932053358562518
245	0xbfb056367e1daf03	-0.06381550387385108
246	0x3fd3e287eeea418a	0.3107013543276699
247	0x3fcf76cbedda2ba6	0.24581288446310373
248	0xbfdb2a8d53abb4c6	-0.42447217150659033
249	0x3f857990257335cb	0.010485769408115872
250	0x3fd21bafa026d353	0.282939821622951
251	0xbfdef8e6e61d320b	-0.48394176933359806
252	0x3ee569a2b6b75716	1.0210341961174338e-05
253	0x3ef7ca2acc66ff84	2.268764071700027e-05
254	0xbec7069e25fd7363	-2.7448952976530585e-06
255	0xbf00b6d2f9ee25ad	-3.187972401181723e-05

decoder1.bias f8 [104]
0	0x3faef47908c857d2	0.060458929369061956
1	0x3fbee670c863b369	0.12070374386139594
2	0x3faefa41c35ff52c	0.06050305852839197
3	0x3fbb8d8a9b258abd	0.10762850082168547
4	0x3fb128cd9d858bc8	0.0670288571905494
5	0xbf8e170ff94e0432	-0.014692425532986862
6	0x3fcf62b885110026	0.24520021912940243
7	0x3fafd7f94bc39939	0.062194624422590335
8	0x3fbc63d5b3762651	0.11089835769066637
9	0xbf3d7c1aec2d3459	-0.00044990212716273164
10	0x3fc87492a343060a	0.19105751964347945
11	0xbfd4009848ee1942	-0.3125363075454467
12	0x3ecbe3c63bbce896	3.324716514455332e-06
13	0xbf2bb2ab581e82ff	-0.00021131841282075872
14	0x3fd3505c986c2526	0.3017798889637383
15	0x3fcef7c7a377c570	0.24193664056614805
16	0x3fbb07ee43b39524	0.10558976319187657
17	0x3fa86e54089745a0	0.04771673779363117
18	0xbf919559ed826fed	-0.017171292420798002
19	0x3e942744136c56b1	3.003088013137736e-07
20	0x3fc23d6c6c752733	0.1424994973734158
21	0x3f90395418d716b3	0.01584369088757027
22	0x3fbc4dfd8f0f0857	0.11056504004139477
23	0xbf32e1fbc55abd06	-0.0002881278681838437
24	0x3fb2093705d520f5	0.07045310871501782
25	0x3f0f11cc26e707dc	5.9260409091446453e-05
26	0x3f0711d53a146aa5	4.400188414362586e-05
27	0xbfb4dbbede09694e	-0.08147805138415729
28	0x3ee607c98800e07c	1.0504922329443655e-05
29	0xbfa048997fb2b473	-0.03180389102758676
30	0x3fa24db7f79e45d8	0.03574919603046184
31	0x3f9e440df522422f	0.02955648239782443
32	0x3fc0afb1d962f4fb	0.1303617774446265
33	0x3f85c24085d7c72d	0.0106244126172644
34	0x3fba1c16e8f43219	0.10199111163473908
35	0x3faffe40ecbc9570	0.06248667611934422
36	0x3fca596fa54918c2	0.20585437365133968
37	0xbfc4d81b62a4c596	-0.16284506146034222
38	0x3fc8550cbf5a9457	0.19009551375816855
39	0xbfeffdef347aac70	-0.9997478508934261
40	0x3fa12cc09c6198b0	0.03354455861044536
41	0x3fc6a63c4ccbad9b	0.17694810628686927
42	0x3f153d81a806dd7d	8.102516040408253e-05
43	0xbee18bc684066bcd	-8.366583757182366e-06
44	0x3fd2150a39fe460e	0.2825341764774699
45	0x3fc02af1c25ebcb1	0.1263105582306472
46	0x3f99aef09c75c407	0.025081405210077203
47	0xbf7d65d5fa5ca63d	-0.007177196361035918
48	0x3fdd3fb327fe2b48	0.45701292901565127
49	0x3eb6d8b36f4103d5	1.3617567988929292e-06
50	0x3fc515a916357ee8	0.16472352585241556
51	0x3f9fd06a92899e8a	0.031068482583946046
52	0x3ed3fb2eabc4b22b	4.763884757158275e-06
53	0x3feddc7c476baaf2	0.9331647295888088
54	0x3fd28e115b50506b	0.28992113034588013
55	0x3fb5386717b7b809	0.08289188698810802
56	0x3fc1fef4ff904651	0.14059317091646276
57	0x3fc3d56d17d35664	0.15495074904781625
58	0xbfb9a22773b32edb	-0.10013052534776128
59	0x3fc5c8ffd89cf98b	0.17019651486220896
60	0x3fb3f27a61834e1e	0.07791867142378137
61	0x3fa90e723a176070	0.04893834075090886
62	0xbed28c0c132f9d76	-4.421963512669385e-06
63	0xbf966aa0a24718c0	-0.021891126541753847
64	0x3f17276f7fb1cb8e	8.832567248066704e-05
65	0xbff2338548158ff0	-1.1375782790937556
66	0x3fb4fd94db37fe60	0.08199434616107615
67	0x3fba63130408d008	0.10307425354477584
68	0x3f07ecb11f1e76b0	4.56325104913729e-05
69	0x3fa7c6f762c9a3b0	0.046439867791213785
70	0x3fa2d15fdddde27e	0.0367536505063457
71	0x3fa810fdca18e470	0.04700463382727882
72	0x3fc03bf5f9b86eef	0.12682985967045776
73	0x3fa83a73ace94a47	0.047320952279410515
74	0xbfe60f15c7f25531	-0.68934144069741
75	0x3fd25ecbaedca8fd	0.2870358665119424
76	0x3fc0829737fccd05	0.12898531183018505
77	0x3fa08aa0d6627eb8	0.03230764977456374
78	0xbfe6b666bb3d1f03	-0.7097657830244944
79	0x3fb8616d53974f38	0.09523661890790158
80	0xbf9ad8b241d4e0ae	-0.02621725584796824
81	0x3fcff33b0d154b17	0.24961031092478755
82	0x3fce581cabbbc8fe	0.2370639647047667
83	0x3fbeef2b7a25d4ab	0.12083694202540822
84	0x3fd0af05a8004cb8	0.2606825008999283
85	0x3f9a2d3d8c8fe4bf	0.02556320352957608
86	0x3f9fe20b45a39141	0.031135727048323906
87	0x3fd4ebbb2ef13627	0.32688788971140287
88	0xbfe7027e3d87d0f2	-0.7190543367164806
89	0x3fd1f866fe3052b8	0.2807862741768008
90	0x3fc0f7f8b43ff286	0.13256748963603487
91	0x3fb42e2541fd87bc	0.07882912503330791
92	0xbef01069174958b6	-1.5319922982059204e-05
93	0x3fbbb64784b889d9	0.10825011244063577
94	0x3fc2391e00e9ab6d	0.1423680786568541
95	0x3fcbc91a82969b9c	0.21707469345457475
96	0x3fbd1371b2143932	0.11357794377929478
97	0x3fafff06bcf66288	0.062492571417526455
98	0xbf7c4578f51fd0b0	-0.0069021916296955615
99	0x3fc112971dc91384	0.13337983087890504
100	0x3fba06708d8095e0	0.10166076140065838
101	0x3fc3288c60d8a4d4	0.14967493752309358
102	0x3eb202fb3354f80a	1.073577732782062e-06
103	0x3eda076b22eb6348	6.205792074631001e-06
