Trained_models/10/predictor4_200_3.pth (torch, 336471 bytes, 16 tensors)

encoder1.weight f8 [101, 200]
-0.06351642518049261 0.03449737699477658 0.004445351492653169 -0.04241939440359284 0.07267482905192951 -0.09285024718855582 0.12305567647050053 -0.14049885994111747
0.20747862123832142 -0.17322036993385737 0.19375320696066178 -0.11920591850603678 0.13702195792064514 -0.11346982222160881 0.1223285729939611 -0.1403722245238517
0.10796674624817953 -0.05291280626307486 -0.045203469577203476 0.08351289250139851 -0.10740768967910741 0.12541269334589805 -0.08443915084246725 0.05539660844132428
0.018871277247200835 -0.021080145998259792 0.02886951353688789 0.022950685900257825 -0.09791613905526453 0.10787308444502532 -0.06838663128030352 0.008173251328070029
0.030292549460837034 -0.05468415798231344 0.06069847119482784 0.0120911556587414 -0.08503510410386833 0.11728688559362664 -0.13539147615249691 0.08376231942068799
-0.05153159630158467 0.01907824481207788 -0.025524205511009954 0.04539049460813663 -0.03760668133520997 0.08396474410082444 -0.07357656286630183 0.046152959200376924
0.012058809404197738 -0.08252194114079447 0.05967055259639506 -0.1193744427875136 0.06466157187784706 -0.07785437775567691 0.05589237972600064 -0.050989416337739485
0.08290915553112148 -0.06394386953579692 0.09437392345256558 -0.04375622127383909 0.08846388533879972 -0.04336443897382849 -0.03558644023586129 0.049061828470946624
-0.09813007536226598 0.12729760005574325 -0.1741667091587812 0.16188153737907393 -0.15722325362733539 0.16077502506414146 -0.1840327135100776 0.20720713971976892
-0.21532760709129672 0.19208927204750753 -0.1718588148644528 0.12046080613491729 -0.050624298447027906 0.03381257543128111 -0.015321750857172309 0.06444435358344602
-0.10307318312749471 0.09853718351850871 -0.10715404672991523 0.10552989973784814 -0.09221498304784109 0.03797610780566256 -0.04630274045789877 0.06119935889220465
-0.10116509996995438 0.104921220228208 -0.10368425210771884 0.06229756344037135 0.023388932556811005 -0.0906680353556844 0.05544633450836277 -0.044456738295016125
0.008413287787013415 -0.013837076643937131 0.02497061824136487 -0.04709251500637366 0.04428915712366085 -0.027767890653642633 0.0067609684485798426 -0.010693986967161282
0.0005479593901373943 0.033560927733289315 -0.03660418213897337 0.003634574959621107 0.023048222279771737 -0.039889702547552836 0.027493192411580297 -0.03259615985340712
0.05033476060123465 -0.07224173625737129 0.02727956942329387 -0.08185500635264319 0.03867773206830932 -0.047494037617661376 0.041607053421267456 -0.02567825339326975
0.0889464384688165 -0.06642375013070222 0.07040810547361001 -0.06786791991077956 0.0884527040226319 -0.0515214203395824 0.10612063944812894 -0.043322154622465164
0.06084399957935034 -0.015017215281341268 0.0466709174739807 -0.036688821216188154 0.01678864282515316 0.004441118440143953 -0.03939721017197954 0.018711739998067977
-0.042121423823371855 0.08465776273029273 -0.08487685319388212 0.0937399557980585 -0.04910778251152828 -0.0021142758074831998 0.05661989011681615 -0.03171377506561224
0.0006692923432081805 0.046373180363090745 -0.018247466198907356 -0.002103206329374444 0.09846127074778678 -0.1704058721234698 0.1821096134120219 -0.09485804000608139
0.045842617951535256 0.0393397002060388 -0.03704810806953404 0.007922220603652275 0.07764320086010824 -0.09968436978813316 0.09842056267164821 -0.02779394444854631
-0.005393746528081638 0.09819536878635536 -0.10079916750068699 0.1092873253101309 -0.054256688417847775 -0.0028396742892399882 0.022430919830404145 0.028828958165855362
-0.053457660252888464 0.11783797720857753 -0.14817674429702343 0.11312078661120749 -0.050556968696884565 0.02823800044449175 -0.007480398810033591 0.015785943923106508
-0.012839711647398125 0.03473992059776088 -0.015448019192871833 0.033239273138146376 -0.06996242062200836 0.048182675559063394 0.0015583559343583472 -0.03590394433919558
0.06667403198627173 0.005880920327240952 -0.051034615537289094 0.0589279775522398 -0.038590403036040076 -0.00230961641960265 0.0388354174410374 -0.04867223402346765
0.05259761636781705 -0.06399519699066529 0.005518180962705578 0.008967769961627552 -0.018495549111621528 0.004234395138703229 0.031945770091131205 -0.07976023566539292
-0.22443181298060919 0.14704019406097005 -0.0703136145988619 0.0858929816345077 -0.07444001835330373 0.1179531104380301 -0.1139659524945816 0.07615809593660267
-0.05950114367849345 -0.002153173159729354 0.03441947821880964 -0.015214871230557269 0.05449179867515213 -0.023442675085360687 0.056676290763630004 -0.08603585015132899
0.08915765244658488 -0.11656013370167471 0.0838453840649477 -0.06266705458762863 0.005174661781922535 0.03895426286153551 -0.03133091742360433 0.000499760871376154
0.062355804993010494 -0.08049988590049247 0.06949105510652892 -0.008991235468557743 -0.009972064877558737 0.003514622751753272 -0.011482175520909688 -0.05085224856295522
0.08201609928651064 -0.10590887170274688 0.05011376336060028 0.02145084644839175 -0.07342767475254217 0.07489902994890271 -0.04715047853671726 0.034752112837557865
-0.04479696169395239 0.053020110517682476 -0.11117495974556009 0.12492539772782575 -0.1628301851309487 0.14286724501570494 -0.1083634857210695 0.04684116139648872
-0.025461196044728553 0.05229140342952519 -0.048290657621631684 0.06427344137449308 -0.09124506566472228 0.05308372653530623 -0.04613381230436542 -0.04040688158894051
00000000: 48b7 e8c8 9c42 b0bf ea0e fbe3 a3a9 a13f
00000010: b193 7bf4 4935 723f daee 5baf feb7 a5bf
00000020: c43a 054e d19a b23f 67b1 19a7 08c5 b7bf
00000030: 2828 07aa 9380 bf3f e143 49dc ddfb c1bf
00000040: c53b 6bd2 a88e ca3f dcf7 eec7 152c c6bf
00000050: 9811 b2b3 e7cc c83f 0f1b 7971 4784 bebf
00000060: 0a31 0d7e ef89 c13f 9e55 86b7 5b0c bdbf
00000070: fc1a 60e4 ec50 bf3f 1161 cc90 b7f7 c1bf
00000080: a403 316c b5a3 bb3f e604 e128 6317 abbf
00000090: 64e8 ffbe e824 a7bf aa7e 16d6 1961 b53f
000000a0: 20bc 8202 127f bbbf a642 36ec 850d c03f
000000b0: 0ad3 5edf cd9d b5bf 2a2e 21bb f15c ac3f
000000c0: c020 71fa fd52 933f 9d35 a1a6 0896 95bf
000000d0: f32d f841 f88f 9d3f 9c12 7375 6280 973f
000000e0: f031 fe36 0811 b9bf 215e cf09 929d bb3f
000000f0: a71f d548 c981 b1bf cc96 3f39 23bd 803f
00000100: ffad fc94 0205 9f3f 0563 49dc 8fff abbf
00000110: 2ee1 65b9 de13 af3f 3749 0071 3fc3 883f
00000120: 8c58 234f dcc4 b5bf 6fd3 df69 8306 be3f
00000130: b4b6 1d05 8254 c1bf ae88 8c86 7271 b53f
00000140: f2e6 a671 5962 aabf 42bf 2156 3f89 933f
00000150: 1966 b46f 0423 9abf d44c c843 6c3d a73f
00000160: 9342 e4d4 2e41 a3bf c017 eea5 b67e b53f
00000170: 6d4a 43e3 e9d5 b2bf e72b c254 5ca1 a73f
00000180: 6266 2800 4ab2 883f 40f3 666e 2820 b5bf
00000190: 8c1c df7f 238d ae3f ed26 c0cf 528f bebf
000001a0: 69f7 8528 a98d b03f c6a1 4fb6 43ee b3bf
000001b0: 589e 090e ed9d ac3f 54b6 39e7 481b aabf
000001c0: 938e 8bcf 8839 b53f aa99 6f1c a05e b0bf
000001d0: 21f0 d2b2 e328 b83f 5640 bc26 3767 a6bf
000001e0: cb40 68b6 91a5 b63f 136a 671e dd33 a6bf
000001f0: 6bf8 fcc9 6238 a2bf cd83 87c9 a11e a93f
00000200: bc58 6f78 0d1f b9bf 5ea2 8caa 494b c03f
00000210: c5c7 f13f 184b c6bf 0346 6fc2 88b8 c43f
00000220: e503 403e e41f c4bf 2d00 55a9 4694 c43f
00000230: f6bf f54a 628e c7bf cd0b 4c78 c385 ca3f
00000240: 0408 31e3 da8f cbbf 86a1 ad9a 6196 c83f
00000250: 66a2 af3a 78ff c5bf b19c ccf6 84d6 be3f
00000260: f504 6d94 6deb a9bf 4d7e 57c3 e14f a13f
00000270: 65c8 ca96 0261 8fbf c081 0dd7 6c7f b03f
00000280: c190 a00e 0163 babf e0e5 a69c bb39 b93f
00000290: 6fcb 5696 726e bbbf abcc 1fec 0104 bb3f
000002a0: 9c44 64b0 669b b7bf 7600 1cba 9a71 a33f
000002b0: 36b5 f627 feb4 a7bf c4d4 f4b9 8555 af3f
000002c0: 1816 debb f4e5 b9bf 755c 89f9 1ddc ba3f
000002d0: f2b1 e917 0d8b babf 489a 315b 77e5 af3f
000002e0: eded adb1 44f3 973f 342e a536 0536 b7bf
000002f0: 4e01 cb42 7663 ac3f c9ba 209a 08c3 a6bf
00000300: 2e2d 2d5f fc3a 813f 217e 43fd 9c56 8cbf
00000310: 6f8b d4d2 e591 993f 7d72 ad97 821c a8bf
00000320: 0bba d382 11ad a63f 69f8 f198 2f6f 9cbf
00000330: dcd7 03a6 63b1 7b3f 3f6e 4da2 bae6 85bf
00000340: 77a7 80d4 9df4 413f 3d67 13de e52e a13f
00000350: 4710 5e8a c8bd a2bf 820f c492 41c6 6d3f
00000360: 17b3 b003 f499 973f dc1e c74f 6c6c a4bf
00000370: 98dc 14e9 2c27 9c3f 2e55 17a1 71b0 a0bf
00000380: f0c1 444d 7ac5 a93f f0b4 a136 6f7e b2bf
00000390: 7689 16ea 2cef 9b3f d768 4c1f 73f4 b4bf
000003a0: b838 a254 91cd a33f 834c a574 2351 a8bf
000003b0: 8e5c 740b 854d a53f b583 2b6a 664b 9abf
000003c0: ecb9 519c 31c5 b63f d731 7d9a 2501 b1bf
000003d0: cae9 61fe 4306 b23f 58df 76c0 ca5f b1bf
000003e0: dd1c 051f d6a4 b63f c0cf cdfe 0361 aabf
000003f0: 043e dce3 b82a bb3f a46b 974a 522e a6bf
00000400: 9ac9 b3d8 f126 af3f 8733 1584 58c1 8ebf
00000410: 553b 7320 40e5 a73f f72f 818e e0c8 a2bf
00000420: 0856 83bf 0a31 913f 8c4c 54a7 d930 723f
00000430: 850d 7c02 df2b a4bf 2330 5f9d 2b29 933f
00000440: 878e 9073 f090 a5bf 6375 4792 21ac b53f
00000450: bdb5 a74c 7dba b5bf 702c 7b7c 57ff b73f
00000460: c470 bbbf a724 a9bf 96e7 542e f551 61bf
00000470: 75ad b540 48fd ac3f 60a0 7ab5 c93c a0bf
00000480: 4d92 de5c 6eee 453f 0958 24ba 39be a73f
00000490: b997 3cba 76af 92bf 084c d84c be3a 61bf
000004a0: e1ca c801 c234 b93f 5888 e80f dccf c5bf
000004b0: b727 f228 5e4f c73f 3cba 96d3 9d48 b8bf
000004c0: c6cf ba01 af78 a73f ec85 a34b 5524 a43f
000004d0: ec1b 1339 f8f7 a2bf a02d 3c73 8639 803f
000004e0: c16f 73c0 6ce0 b33f 3493 2934 ea84 b9bf
000004f0: d7bb ed09 1732 b93f 5bbf bb09 0476 9cbf
00000500: 5f6f 0ecf c017 76bf a759 8ee9 5423 b93f
00000510: 6225 e167 f9cd b9bf fb06 1310 41fa bb3f
00000520: 0b16 b05c 88c7 abbf 94b5 8386 3a43 67bf
00000530: 65f6 5c8c 21f8 963f 751a 00a2 5685 9d3f
00000540: e27f 036d cd5e abbf 2c6f 5632 a12a be3f
00000550: c048 649f 74f7 c2bf b730 fede 7bf5 bc3f
00000560: e5a9 465e 9ae2 a9bf 3d73 a721 6cea 9c3f
00000570: fb89 0044 c4a3 7ebf 8180 8bc3 302a 903f
00000580: 68d7 ecec b44b 8abf 9181 aa4d 6ec9 a13f
00000590: ee5a c509 36a3 8fbf c56d 24ee bc04 a13f
000005a0: ec40 85a4 0ee9 b1bf ed18 854f 66ab a83f
000005b0: 6a9b 82f1 3788 593f 88ef 7775 0062 a2bf
000005c0: 5e9d dfa2 8c11 b13f ed35 9d87 9716 783f
000005d0: 76a7 6489 3521 aabf 8405 d0d0 ce2b ae3f
000005e0: 6b60 f50d 1fc2 a3bf 8cc6 a1df 9deb 62bf
000005f0: 36e9 ab5f 3ce2 a33f 5046 b52a 91eb a8bf
00000600: a56e 4b24 13ee aa3f 5b0d 2d3e fd61 b0bf
00000610: ceab 4a6c 3b9a 763f 163d a0b5 b15d 823f
00000620: db51 394a 7ff0 92bf 4da3 39ca 1558 713f
00000630: 41ea 922b 325b a03f e840 b4b3 2a6b b4bf
00000640: a383 7780 2eba ccbf f13c 588c 36d2 c23f
00000650: b268 2ab3 1200 b2bf dc7d 131b 15fd b53f
00000660: f950 5744 800e b3bf f5f5 cacf 2c32 be3f
00000670: 155c d266 df2c bdbf 2493 5fd3 187f b33f
00000680: aef2 5814 ef76 aebf 8b9a b709 88a3 61bf
00000690: c020 970a 6e9f a13f e6e5 c872 f928 8fbf
000006a0: 6784 6b5a 59e6 ab3f 801d 4a4b 5b01 98bf
000006b0: 3fa6 93be ac04 ad3f d1fa ae0a 7206 b6bf
000006c0: 3e3b 7231 09d3 b63f d71d 448a e2d6 bdbf
000006d0: 29c1 7a1e e476 b53f 2d92 fdb5 f20a b0bf
000006e0: ad82 f0b1 0632 753f f666 0f2a d0f1 a33f
000006f0: 0849 6023 9b0a a0bf 03c0 974c 4c60 403f
00000700: ac4b 529e 19ed af3f 953b 46f9 a39b b4bf
00000710: 240d 0c71 2aca b13f 8502 4e32 ff69 82bf
00000720: f87f 2ee4 3b6c 84bf ce8f d9b8 b2ca 6c3f
00000730: c03d cb82 f783 87bf 9f0c 0351 4e09 aabf
00000740: 6f59 2ed0 01ff b43f 88ce 5104 d81c bbbf
00000750: 9430 6ddd 82a8 a93f b493 deef 35f7 953f
00000760: 6ef9 aef5 27cc b2bf 1ef6 2134 952c b33f
00000770: 8da5 9c86 1b24 a8bf 615b 3568 07cb a13f
00000780: cc12 df9a a0ef a6bf 2a52 68b1 7325 ab3f
00000790: a5c5 3d50 f675 bcbf 3149 ae61 1cfb bf3f
000007a0: cc32 f897 9ed7 c4bf 918b 8150 7949 c23f
000007b0: 8ba7 409b b5bd bbbf 7cf1 9b90 90fb a73f
000007c0: aa0d 51f1 7f12 9abf 3efa 2e57 f0c5 aa3f
000007d0: 15de 5f96 8db9 a8bf 276f b468 3974 b03f
000007e0: fb8b f32c d65b b7bf 4e80 d64a ca2d ab3f
000007f0: 1092 2cde d99e a7bf 886a eaf5 35b0 a4bf

encoder1.bias f8 [101]
-0.13450364891622085 -0.19506843346529998 -0.12216042704032357 -0.34295882033636443 -1.140041511382799 -0.46601346934372373 0.5380441061991157 -0.11222029137599798
-0.2506650137588003 -0.20115908533749965 -0.18379067979131383 -0.20775502858024858 -0.16445104772097202 -0.3187421780958316 -0.16810518464624935 -0.14581597266191745
-0.08291169334038521 1.1892860944610057 -0.25331420572550717 -0.17941630594521318 -0.1555592577689487 -0.2863916263755977 -0.35278848421245185 -0.11725782283847555
-0.2681805874017792 -0.16365402170307872 -0.16021301038706823 -0.1328518398422349 -0.15062077484465042 -0.2090419705092059 -0.23711295678454622 1.3734944769584942
-0.25020062173903757 -0.30552219359926613 0.3216113060730708 -0.17221393636304638 -0.2716497571328645 -0.2313473427121554 -0.19158648509980788 -0.3621599192942518
-0.19218814647452712 -0.2319324154352344 -0.18400476990415912 -0.23846037293331462 -0.25550992719307175 -0.23454233310833703 -0.22836681136493553 -0.18800951888393336
-0.1810709803276798 -0.17868971622172936 -0.24669520268640693 -0.19625196531538733 -0.23993160403874783 -0.19326722090344334 -0.19602914126943508 -0.1899363539225502
-0.11235919864928663 -0.26253539192056374 -0.18824002671951906 -0.15830117166978513 -0.29365296203216973 -0.39271806366449274 -1.2937228930696711 -0.5023805082139257
0.5818876903403243 -0.15039244879750446 -0.14222763573901703 -0.20064401399404513 -0.14068062095221115 -0.1459674264778938 -0.2637742222496838 -0.18080858846993092
-0.1919002861943469 -0.4840981985586755 -0.2401389075494349 -0.6227120738446639 -0.2729098906034981 -0.7907610265415503 -0.1978823029038884 -0.17103934086275047
-0.24799644275407848 -0.4150866224234326 -0.2084636238966773 -0.23886449921218686 -0.2035849475410545 -0.11350712589026321 -0.18640875544807511 -0.0191836185306927
-0.20355039751582885 -0.1902197611654466 -0.3194867341938261 -0.13437633199748988 -0.15642741649841208 -0.14596216058841385 -0.23792608172735843 -0.15465527934942389
-0.23014790981319408 -0.355103037378364 -0.2475231458583262 -0.21386440756359015 -0.23122809309470693
00000000: c2d7 a462 6a37 c1bf bb92 1b9f 00f8 c8bf
00000010: deea 00df e745 bfbf 0f0b 4e8d 09f3 d5bf
00000020: 678b f72a 9c3d f2bf 29ea 9428 2ad3 ddbf
00000030: bac8 fd45 a837 e13f 1052 6811 78ba bcbf
00000040: a51b 1645 e50a d0bf caae 68b6 94bf c9bf
00000050: d9b3 81f7 7386 c7bf 9275 aa7e b797 cabf
00000060: ca93 e05f bb0c c5bf fec0 b197 4566 d4bf
00000070: c8fd 2b7f 7884 c5bf 6f9f e808 19aa c2bf
00000080: fb59 5a63 b339 b5bf eac2 14db 5007 f33f
00000090: 5d02 4dc9 4c36 d0bf 68b0 330f 1df7 c6bf
000000a0: e294 5aa2 5de9 c3bf 9069 488b 3d54 d2bf
000000b0: e143 8626 1694 d6bf 229a 4ad2 9b04 bebf
000000c0: 7603 14e9 de29 d1bf a36b 896f 9df2 c4bf
000000d0: 0fca 0024 dc81 c4bf 6ffc aa01 4a01 c1bf
000000e0: 7829 07a3 8a47 c3bf 2f0a 6a25 e3c1 cabf
000000f0: 777a 6ca5 b759 cebf ad5f 3c58 d5f9 f53f
00000100: d0b6 f377 4903 d0bf 7e81 6df5 ac8d d3bf
00000110: 51e4 6696 4795 d43f 701f 4c34 1b0b c6bf
00000120: 1987 b6a9 b562 d1bf 0c8c 7b2b ca9c cdbf
00000130: 6ffc edeb e785 c8bf a59c 52cc a02d d7bf
00000140: d5ba e405 9f99 c8bf 669b 961d f6af cdbf
00000150: 67ef 85e2 778d c7bf 8afd 9197 de85 cebf
00000160: d23e 464f 465a d0bf 0b2a 1db1 7b05 cebf
00000170: 00f0 26a9 1f3b cdbf 64ba 7827 b210 c8bf
00000180: a98a 6179 552d c7bf 80e4 a6fb 4ddf c6bf
00000190: 7a21 cf59 b593 cfbf 8f14 67ce c81e c9bf
000001a0: 71c6 4f2c 14b6 cebf f6a4 95f4 fabc c8bf
000001b0: 1158 689f 7b17 c9bf 5e9c 359e d54f c8bf
000001c0: ed7b 9a8b 92c3 bcbf e8d8 953e 61cd d0bf
000001d0: f27c 47cb 3f18 c8bf 2abf 9e79 3643 c4bf
000001e0: 084f 13cb 35cb d2bf 4132 fff1 4a22 d9bf
000001f0: c321 bdc6 16b3 f4bf 48a7 9d49 8013 e0bf
00000200: 069d feee d29e e23f 0c48 934c 0f40 c3bf
00000210: be11 0be2 8334 c2bf 320d 1ffb b3ae c9bf
00000220: 21da 1595 d201 c2bf c67d 8085 0faf c2bf
00000230: 49c6 8546 ade1 d0bf 323a 285f bc24 c7bf
00000240: 021d a646 3090 c8bf 6d2b b702 77fb debf
00000250: c803 3629 dfbc cebf e296 ffde 41ed e3bf
00000260: d367 b90b 5b77 d1bf aa50 7e11 ea4d e9bf
00000270: 7bf5 b611 3554 c9bf 52de aafb 9de4 c5bf
00000280: e398 93f1 58be cfbf 2335 147b c790 dabf
00000290: 195c 859f efae cabf 6758 25a6 1c93 cebf
000002a0: 38c7 d251 120f cabf 56c7 8f91 cd0e bdbf
000002b0: a834 2bfa 3ddc c7bf 5943 d5d8 dea4 93bf
000002c0: 598a 357e f00d cabf 5017 a102 1f59 c8bf
000002d0: b092 b77c 7872 d4bf 6c90 a45f 3e33 c1bf
000002e0: 507b 0747 d005 c4bf 6922 1759 e3ae c2bf
000002f0: ed34 f1a1 5c74 cebf 8bd1 7a83 becb c3bf
00000300: 7bf9 f198 7c75 cdbf 8e05 1017 02ba d6bf
00000310: 5676 3ba4 d6ae cfbf e4cb 21ae e85f cbbf
00000320: 040d e1d4 e198 cdbf

encoder2.weight f8 [3, 101]
0.35058944602671854 0.39636943443716716 0.35806305968228674 0.035014425308841426 0.736048656994133 0.03528579458442694 0.3515037774190084 0.3076406355812765
0.23268437599733305 0.19910999910954652 0.19213598586797426 0.23571358063523967 0.36869243817059516 0.2006601894132935 0.013264791299001667 0.3022018768415993
-0.00047868152020731603 -0.39823322677658357 0.442189610640553 0.27211943013440404 0.21366536026416993 0.18310292237522052 0.41327621110608453 0.04594806927298541
0.05537657428512099 0.3885593546987685 0.3287354962349715 0.37307287324290794 0.17772554745826005 0.1978900306131393 0.46474982331096465 -0.4717651245396577
0.3923769066045689 0.4484029983566368 0.2309373251242135 0.17247143659413727 0.01709428724551269 0.347521302865973 0.08449093694302218 0.055187036466995375
0.024226796298773973 0.15988477667179926 0.18764632326443656 0.19519702490129814 0.24281647573246293 0.08029058070295784 0.3688203113400706 0.20964807430216417
0.14163947166940954 0.054445002335632264 0.38281710543999753 0.35863150646652225 0.38749477032761337 0.14220125065600386 0.13291269637034267 0.117534836523626
0.2172182753412339 -0.046025614069941524 0.09091854666562087 0.11570018774266935 0.10977869716835031 -0.024539692730371283 -0.16556910806119543 0.43279528270705525
-0.05181268342991185 -0.046675803097108455 0.38425600192793685 0.047414551688142605 0.3679022847372305 0.017862164607635293 0.0676309237829706 0.07951715584406306
0.27302584534131025 0.05278930600945704 0.0888006950658471 0.5194645321858922 0.2268245403631177 0.8200728053063168 0.1995025545037655 0.06513018059174061
0.23272563757263526 0.440368982114819 0.085325128140343 0.3717074807258877 0.3773257949889264 0.031137205821994352 0.04706243169610767 -0.08896506656337358
0.0767796912628338 0.08936000143595567 -0.26525697831288236 0.354251135647163 0.13111068652489288 0.28704307612624486 0.2537056366572689 0.10064985117955591
0.36588669354207476 -0.05089095912134681 0.4210512149590646 0.36503274562462124 0.39265714747779246 0.30493972347856696 0.34988259210945455 0.31445312010645643
-0.002253285900211311 0.7704288911810668 -0.011857239562126932 -0.4067831284480526 0.27264695277707607 -0.21859955514348936 0.1844679669865791 0.14927300546802158
0.2060971894050309 0.3156388482111835 0.12502771572710386 -0.006510510122598696 0.2509548835040248 0.02755270152171339 -0.39963105064937654 0.35874435697234464
0.2395422538165202 0.5045105022295935 0.16890334698923698 0.359745805196469 0.05735225833393108 0.014160108038514016 0.3274540109550244 0.2947082756926662
0.3200953848200126 0.14073514612917265 0.17421542560757544 0.4448370168794256 -0.4962196836569887 0.33815736212205744 0.39484311732832833 -0.21301888077729803
0.1564637793751733 0.022505630960589017 0.30297505416017545 0.06927058868967147 0.011227735914710303 0.0052617754902141625 0.13450429756758048 0.16202763868657344
0.1529355547169451 0.22253496346720444 0.12158379170521252 0.3260573117293157 0.17006195439071103 0.09740271959119072 0.021899440617752456 0.3156477413730927
0.3191258796738529 0.3435490391625043 0.10179531667159976 0.11188896715615719 0.08206230314554311 -0.16707374791121007 0.016022616486533137 0.001006088886769921
0.10513313228615467 0.0651468301698045 -0.051132583558243336 -0.17084886223977103 0.40014515957150965 -0.18067844992538762 0.017383201004608582 0.3299402553510837
0.051042759060949065 0.3287768936200635 0.0581418236839225 0.06386330303669381 0.08558476907251751 0.2034805377164816 -0.006783084956840563 0.06145036259968569
0.4189374370383284 0.18757192815459423 -0.4456865412930038 0.17055642459356496 0.010680953934636866 0.18091805646247644 0.3702773429618943 0.027756396738515998
0.31857269502033553 0.32838816731475934 0.0923111438439253 0.052923410433917545 0.04277557571992009 0.045996491847836246 0.02388151047387362 0.1415073417528842
0.3183342310016323 0.10945033137677548 0.23169981331041 0.2040599145420829 0.07585687255060711 0.339292500801132 0.6322822967046791 0.35740710561549816
0.31702155694177914 0.3395485896082786 0.09834103523709188 0.08813357724940764 0.11594745256626898 0.3404642668171428 0.01487775695572091 0.4644276064965045
-0.0925543777063385 0.07721586710824446 0.021107030427617978 0.14273741036104878 0.24636640651567532 0.18718891578722488 0.12908334135026994 0.4723157264379331
0.3336370696125575 0.12813712566160776 0.35960041035275564 -0.08488998020935105 0.08916569867134018 0.1082465002822439 0.06793758360254121 0.4053069298667391
0.0037853219028910097 0.29204758931051994 0.3587248485312901 0.113849270619037 0.08837998902098669 0.11184871339792389 0.12866759030755026 0.1468548816579399
0.1029013778576879 -0.07679984407808577 0.10092421488052791 0.06848760680749477 -0.06160070162906449 0.1457337106067784 0.3585934205041033 0.08052906671363559
0.2513859586467476 0.4364657008457756 0.37814223605848235 0.21581092800306378 0.23982069788142896 0.18451872234020883 0.30590840147871573 0.26663762560675536
0.08754898047156759 0.16172270724511134 0.18076221780804433 0.2803288959867637 0.10230951668514776 0.0791714352679245 0.07117405131719594 0.20377664200965057
00000000: 197b 40b7 0e70 d63f 61aa 82e7 1d5e d93f
00000010: 796e cf52 81ea d63f 4aee 2d27 69ed a13f
00000020: a7be c1e9 b58d e73f 21c9 81cb fa10 a23f
00000030: c0d8 1bb3 097f d63f ce80 2f59 62b0 d33f
00000040: 6c6f 9904 9ac8 cd3f 2cb5 3dbb 6f7c c93f
00000050: 7e05 d877 e997 c83f b694 06d4 dc2b ce3f
00000060: d069 0e2b a898 d73f 4ed3 91ab 3baf c93f
00000070: a731 8a26 922a 8b3f 6dc4 748a 4657 d33f
00000080: fa2c 7879 f15e 3fbf 10e7 4b37 a77c d9bf
00000090: ed41 15a7 d54c dc3f 9723 429d 676a d13f
000000a0: 94b3 4ff3 6259 cb3f 20a9 b3a3 ea6f c73f
000000b0: 5396 ba10 1e73 da3f 5b02 af5d 8186 a73f
000000c0: afc8 097f 515a ac3f d91b 3f0e 28de d83f
000000d0: 2344 579b 000a d53f 4298 660b 6de0 d73f
000000e0: 2b9b fff2 b5bf c63f 320c d8e4 7554 c93f
000000f0: d14f fc0a 76be dd3f f8a2 5259 6631 debf
00000100: 12a0 6407 b41c d93f aaaf 577d a2b2 dc3f
00000110: 98c7 6ab1 5a8f cd3f 163e d545 8b13 c63f
00000120: cbef ab32 2a81 913f 2540 9efd c93d d63f
00000130: ac8a fab2 32a1 b53f 4beb 93a9 7941 ac3f
00000140: d80c 29c7 e8ce 983f 9181 77b7 1a77 c43f
00000150: c154 d172 cb04 c83f 1e21 1d53 37fc c83f
00000160: 49b7 193b 9c14 cf3f 1bca 4b6a ec8d b43f
00000170: d197 d381 c09a d73f c509 6683 bfd5 ca3f
00000180: 5648 5201 3e21 c23f 68a3 ec20 37e0 ab3f
00000190: 03b5 0d51 1380 d83f f5b0 e58f d1f3 d63f
000001a0: 7e66 7bdd b6cc d83f 6c48 828c a633 c23f
000001b0: 5920 1182 4803 c13f 637a 0257 c316 be3f
000001c0: 5691 57f6 cecd cb3f dddc 6a56 ab90 a7bf
000001d0: 5358 8718 7046 b73f 62ee 7e0a 879e bd3f
000001e0: 90b3 22ea 741a bc3f a55f ece6 ee20 99bf
000001f0: 89e4 2c58 5e31 c5bf 8ac0 45fc eab2 db3f
00000200: 0fee b229 3187 aabf 891b a20f e4e5 a7bf
00000210: f49e 647c a697 d83f 45cc b559 b846 a83f
00000220: 467c 4406 b68b d73f 3160 4d93 754a 923f
00000230: cd9b d89d 4250 b13f 4139 d27f 3c5b b43f
00000240: 1e09 2d65 4179 d13f 3a3f c72d 3307 ab3f
00000250: 617d 2b71 a4bb b63f 7a73 2515 749f e03f
00000260: e718 6527 9608 cd3f bb25 e452 093e ea3f
00000270: e3f3 87b9 4c89 c93f 02c5 9f1b 5fac b03f
00000280: 0a59 2825 f4c9 cd3f fec7 1662 012f dc3f
00000290: c9c8 e31a ded7 b53f f75b 592c 0eca d73f
000002a0: 7489 5a17 1b26 d83f 0df3 c682 6ee2 9f3f
000002b0: 7e91 022a 9118 a83f 8a4b 6023 6ac6 b6bf
000002c0: 8089 f876 d5a7 b33f cfe9 bc0b 4ce0 b63f
000002d0: 63ef b867 f8f9 d0bf 293a 8bf4 0cac d63f
000002e0: 2ce8 6327 3cc8 c03f 7559 20ec e95e d23f
000002f0: bb3e 1091 b63c d03f 7ed8 294b 30c4 b93f
00000300: 9b81 b305 b06a d73f 1430 2d3a 610e aabf
00000310: 082d 8ccb 80f2 da3f 4551 1b4e b25c d73f
00000320: 104c bd71 4b21 d93f e1de e5e6 2184 d33f
00000330: 2b30 a3f4 7964 d63f 7cdf befa ff1f d43f
00000340: b58d ffa7 7b75 62bf ea84 707d 5aa7 e83f
00000350: c712 1fc1 9b48 88bf d9ee 4f1a bc08 dabf
00000360: b405 6234 0c73 d13f b776 21fa 11fb cbbf
00000370: b5f8 ae76 a59c c73f 8094 54ba 601b c33f
00000380: 5e64 2588 6461 ca3f 4a81 9a48 6d33 d43f
00000390: 8a1c 127f e800 c03f 54cf e8c0 c3aa 7abf
000003a0: 31f6 5a12 a50f d03f bb0f cf7f c636 9c3f
000003b0: 1055 401d 8e93 d9bf 7e87 34e4 aaf5 d63f
000003c0: 8977 1311 52a9 ce3f 8611 7235 f324 e03f
000003d0: aa79 c0f7 9f9e c53f 134a 0c45 1306 d73f
000003e0: 8ebd ca73 465d ad3f d848 7787 f9ff 8c3f
000003f0: 19bc ffaa 01f5 d43f b479 7d19 80dc d23f
00000400: 61c2 595a 717c d43f d2e3 02f9 9b03 c23f
00000410: a9bc b8e9 b04c c63f 8107 e3ad 3578 dc3f
00000420: ff0b 3c34 10c2 dfbf bfd0 cdc6 5ea4 d53f
00000430: 8274 fe10 1c45 d93f fc3b 2fe3 3344 cbbf
00000440: 1064 b64f 0107 c43f a669 ce53 b70b 973f
00000450: 48cb 477b f163 d33f b52e ffa0 b7bb b13f
00000460: d493 7e34 91fe 863f b6cb 631a 5f8d 753f
00000470: eeb2 9cd3 6f37 c13f ec7c 9a58 52bd c43f
00000480: b0d3 f36a 6493 c33f 0773 2793 067c cc3f
00000490: f2f9 1889 1d20 bf3f 0ff1 9f7c 1fde d43f
000004a0: 0473 3312 97c4 c53f f784 2f77 62ef b83f
000004b0: 1109 0495 ce6c 963f 9c3c 9095 9233 d43f
000004c0: 5769 20f4 8e6c d43f 899c f11b b5fc d53f
000004d0: 6590 fd03 420f ba3f b30a b85e c1a4 bc3f
000004e0: 8a9a 3efc 0802 b53f ef3e a62d ac62 c5bf
000004f0: c05a 3997 3b68 903f 741a 65b7 d77b 503f
00000500: b423 e544 01ea ba3f c972 0471 76ad b03f
00000510: 6e08 49cc 0c2e aabf d076 f021 60de c5bf
00000520: 1aca 8071 fa9b d93f f4c0 c2b0 7820 c7bf
00000530: 6923 42df e6cc 913f 8b79 97bb bd1d d53f
00000540: 8790 bac9 4622 aa3f 4dd5 713d ae0a d53f
00000550: 4e26 81de c3c4 ad3f f506 f56d 5859 b03f
00000560: bdc1 3328 e2e8 b53f 36b1 6e77 a60b ca3f
00000570: 94d1 e380 94c8 7bbf cbcf 6203 6c76 af3f
00000580: 5a94 c9f7 decf da3f a02b 8960 5b02 c83f
00000590: 44bb c7d7 2086 dcbf 3a43 e0fc cad4 c53f
000005a0: 03fc b65e e5df 853f 5a90 e1a7 5228 c73f
000005b0: b226 9ebd 9fb2 d73f 13a6 fc40 2c6c 9c3f
000005c0: f7b2 a0ba 7e63 d43f 39a8 c0cd 4f04 d53f
000005d0: e4b2 ddff b3a1 b73f dc4e 03fa c618 ab3f
000005e0: d2ba 9125 aee6 a53f 2c33 6f28 da8c a73f
000005f0: 7583 db09 6574 983f f67b 7c9e e91c c23f
00000600: 425b d689 965f d43f 76b3 ccd9 ef04 bc3f
00000610: 8029 54e8 56a8 cd3f 9eff b0a1 a21e ca3f
00000620: 561d c822 5b6b b33f b702 aee4 f7b6 d53f
00000630: b4f6 4515 a83b e43f 5480 7e0d c2df d63f
00000640: cc48 ccc8 144a d43f 944f f101 2abb d53f
00000650: 3db6 32ca e02c b93f d137 f70f ec8f b63f
00000660: 749e d374 bbae bd3f 76eb dba2 2aca d53f
00000670: bf52 80bc 3a78 8e3f 54c5 5091 2eb9 dd3f
00000680: e3b0 59c9 a4b1 b7bf 3852 f647 6bc4 b33f
00000690: 83f3 9bd5 149d 953f c74d b52e 3845 c23f
000006a0: dcaf 6835 ef88 cf3f 096b bd6f cef5 c73f
000006b0: 7266 c78c cd85 c03f 73fe 9bbd 6b3a de3f
000006c0: 8907 ae4b 4f5a d53f b95d 0f1e cc66 c03f
000006d0: 0ff8 8570 b103 d73f 23db c188 59bb b5bf
000006e0: d9e8 b72f 90d3 b63f 9f62 9eea 0ab6 bb3f
000006f0: 88ff bd83 5b64 b13f f8aa 277a 8cf0 d93f
00000700: a852 e338 6502 6f3f 75b7 3d5f e8b0 d23f
00000710: 9f15 2d11 59f5 d63f 9d72 fbcd 3925 bd3f
00000720: 434a 772a 12a0 b63f 77cd 2406 1ea2 bc3f
00000730: f888 36fa 2d78 c03f 6349 fd08 24cc c23f
00000740: 1db3 9ca4 be57 ba3f 343d a792 27a9 b3bf
00000750: d64d 495a 2bd6 b93f 2864 6b5f 6788 b13f
00000760: fea1 d08d 208a afbf 378c 7df8 66a7 c23f
00000770: bd0e 68d1 31f3 d63f 7197 e98b 8d9d b43f
00000780: ceed c321 b516 d03f 3555 bdd5 0def db3f
00000790: 2de1 467e 7b33 d83f b83f f246 b19f cb3f
000007a0: 3efe 26d3 71b2 ce3f 24b7 f93a 4f9e c73f
000007b0: e10d fbd4 0094 d33f 854d 7742 9710 d13f
000007c0: 2a6c ec27 9c69 b63f fab4 5165 54b3 c43f
000007d0: e742 eb62 3723 c73f 8ec3 189c e8f0 d13f
000007e0: 7076 3bdc f430 ba3f 42cc 4045 9444 b43f
000007f0: c32e bb6e 7638 b23f 0a61 8f5e 5a15 ca3f

encoder2.bias f8 [3]
-1.1659341555096967 -0.26401820480805666 -1.8011500775791809
00000000: a441 b392 aaa7 f2bf 3dc0 cc9c ace5 d0bf
00000010: 433f 66be 82d1 fcbf

decoder1.weight f8 [101, 3]
-1.8035563510222926e-07 6.794298791716477e-08 -8.045022317462783e-08 -2.965561113510229e-07 -1.0594544984449912e-06 -1.5783110855960082e-06 0.33305664628194265 -0.40582376641410045
0.04568365982495555 -0.006035552388027558 -0.003859028495990319 -0.003282151393597525 -0.4938808166154437 0.7066331119885543 -0.24638032825421044 0.00020567809236180342
-0.000916661818419416 -9.847698432011753e-05 0.4909740895725896 -0.4272686763743444 -0.24825388134513288 -0.1981701104889313 0.27828069991851734 -0.09527467021835619
0.13013555063288199 0.19197262590616954 -0.45149672021983417 -8.179075684931852e-06 -9.199767767744047e-05 -3.542349158035455e-05 -0.36314224282356783 0.5554609197124215
0.034877666944923995 -0.0030763553535674724 -0.003975874760456783 -0.0006151260455274086 -0.0006339185801387625 0.00024677617849877667 -6.030439184373404e-05 0.3379009134590127
-0.39054788628866544 0.011203973412943987 6.747187255055074e-06 -1.203345588517709e-05 -9.565711288629247e-06 -0.00011369111585264309 6.335564061445388e-05 -2.3678833628875185e-05
-0.0001848429692962836 -0.00044804345079586165 0.00012931137398704856 -2.4986699587517648e-05 -0.00010827449086345137 -8.077924044020824e-06 -4.769707852329676e-05 -0.0003804112483977774
-0.0004598166292873036 -0.0008704288602474992 -9.175200993142641e-05 -0.003935717687681931 0.0037386889385158466 -0.005208613336628029 -0.0037580424741208034 -2.1248063034048e-05
4.5554483929704236e-05 -0.00010589274451824909 -0.2178545930907448 0.30636615173332243 -0.10497901814576527 -0.0029496124541395375 -0.0022655362002274053 -0.0006831997129283977
-0.4979692331587618 0.7417094166217604 -0.2529024357945562 -0.0031589920156815305 -0.0027921919076473642 0.0008640352048406357 -3.880579748431147e-06 -2.2682308621961395e-05
-4.0707743519899705e-06 -0.005146905996756979 -0.004965203228882702 -0.003141918409256062 -0.0018276423747330991 -0.0011806610863465878 -0.0011779907788291295 -0.008780060924231128
-0.009403800263589545 -0.00998475393357857 -0.0009809947339004168 -0.000453446762048559 -0.0004072312912386974 -0.005452961024498552 -0.0022493392724844056 -0.005648438494468537
0.264373904474597 0.39851807102636233 -0.9010733292565403 -0.0009096189111045867 -0.000552393607271255 -0.00034387977390815626 -8.544534748701745e-07 -9.549477760323709e-07
-4.5720957384363295e-07 -0.0004761181894219607 0.00029125043036597577 -0.00011332405120947575 6.839132841437224e-05 -0.00042882542287749265 -0.00014316769250734062 -0.11754966222961845
-0.2608145392634384 0.44814926813735695 0.0717145442571813 0.10958964346824544 -0.2591436098197635 -1.262486329900508e-05 -0.0002456062297854009 6.861587148743012e-05
-3.298488568126621e-05 -4.847405668793752e-06 -4.849969160106656e-06 0.25985757717604624 -0.4746589341768827 0.08435661974487739 0.19733257657371306 0.28836559674927337
-0.6710403643870682 -0.0001961714825206489 -3.981018646763408e-05 0.00036415645257729376 -0.00015767550139509281 -7.669276497488077e-05 2.2020047610772312e-05 0.039773244093979775
0.061686882918812955 -0.1483663522279652 0.00013730564055996258 -0.00276605319322215 -0.0014364339567349807 -8.85533950702705e-06 -4.480988974093376e-07 1.203170994475284e-06
-0.06867722398694596 0.09491871139834575 -0.0320781015456564 -0.00011825721393872384 3.2810483054845696e-05 -2.8517119556582843e-05 -0.001693490194986196 0.0008143265352416334
0.0003368563338870583 -0.005819722736657527 -0.002855999488278851 -0.0033082918267301684 0.0002571505379349812 -0.0005758030146966659 -0.00012256000370024242 -9.075199075147475e-06
5.93335800041807e-06 -2.7678476232498333e-06 -5.897940457826596e-05 4.143043458019348e-05 -1.7982601897957204e-05 -2.0287965594570258e-05 -2.078662341269787e-05 -2.6053440673227184e-06
-5.612017245511309e-05 3.660123938472386e-05 -1.778481995749568e-05 1.3646396268867515e-05 -0.000512529867640102 0.00013541777349258938 0.19920483312938517 0.2931892031211368
-0.6790952324323921 -0.0003485789246783135 -5.738529672325136e-05 -0.000581043301969267 0.18873418292847594 -0.18742380597156133 -0.09938418295522922 3.230917579077116e-06
-8.885917013355147e-07 -6.07827308396423e-05 -1.2176589570710702e-06 -5.138061916501255e-06 -1.609028459401437e-06 -9.271097784723787e-05 -0.0002302126149447744 -8.792633490132786e-05
-0.6364064652125259 0.3277546517820556 0.11280352395140565 -0.00010671423389457638 -0.00012203273214423464 9.70697179568332e-05 0.24003397154348569 -0.23753245522498614
-0.1265003367772427 -4.9999462785742996e-05 3.079998824077105e-05 -2.4792850340724703e-05 -1.3510478007956124e-06 -1.008432436789064e-05 -2.3412751610107555e-07 -0.10967663398526466
-0.19625806625441922 0.12709874605532337 0.40201101232285036 0.3246209981228473 -0.5060317609446667 -0.38586036215109404 0.13375286958429886 0.1831326555120388
0.0506345072206395 -0.7892748951223962 0.3965832244436786 0.35882477602659335 -0.3531561488057464 -0.18735464001435168 0.00035040991626810467 -0.0008508036457014707
-0.0003506610541302867 -0.0005386349774980626 -0.000191428199205445 -5.767572187154206e-05 0.0055421924739186175 -0.09265888583644338 0.024100269074108338 -0.0027778004757572534
-0.0036383597315118614 -0.001608045657759908 0.0005827374993202032 -0.0018294011720555402 -0.002135944975883959 -0.4343086957042658 -0.47226660293930306 0.4671381091593355
3.038566962200185e-06 -2.2992052028107885e-05 -1.173152368559182e-05 0.00016780903111952047 -0.00149560253149009 -0.0004958676234588402 -0.002861819521285837 -0.003515504739633094
-0.0003011167411728292 -0.6859104883132003 0.2248427583376701 0.4057466052577022 -0.0026405120919799643 -0.0015141012971981711 0.0009205763128863849 0.04909262791916887
00000000: 5c31 85f1 f834 88be 43f1 10af 013d 723e
00000010: d472 1c4b 7f98 75be 54cb 2492 cbe6 93be
00000020: 119b 468a 52c6 b1be 4170 0f64 cb7a babe
00000030: c0c4 dfd2 cc50 d53f e809 2c3f 04f9 d9bf
00000040: cacd d141 d963 a73f 0400 eb41 bcb8 78bf
00000050: 4154 e825 f89c 6fbf bc36 ac9c 2be3 6abf
00000060: f20b df48 be9b dfbf 965e 480b bd9c e63f
00000070: d562 1dfe 6389 cfbf 8edc 425c 69f5 2a3f
00000080: 8c93 0b44 8409 4ebf b229 50b5 add0 19bf
00000090: 0c73 7996 1e6c df3f 5a83 e8b7 5e58 dbbf
000000a0: 9ebf bd7e c8c6 cfbf 081e cc5f a35d c9bf
000000b0: 6e83 50da 59cf d13f 3d9b b9b8 eb63 b8bf
000000c0: 6df1 011f 48a8 c03f 4643 ff1a 8f92 c83f
000000d0: d91b e67f 52e5 dcbf d1c9 3d9a 1b27 e1be
000000e0: 9ac4 5611 dc1d 18bf 2cb9 1ce7 7592 02bf
000000f0: c94a 2ef6 b83d d7bf adde 8bfa 55c6 e13f
00000100: ff48 c74d 7cdb a13f 6663 4db4 9533 69bf
00000110: ee40 1bc1 0149 70bf fe78 cd1f 0d28 44bf
00000120: 5181 f6c8 b1c5 44bf 17b0 b79d 372c 303f
00000130: 5c1f 4e20 eb9d 0fbf 3f14 2627 2ba0 d53f
00000140: 826e c88f bcfe d8bf be99 26db 1bf2 863f
00000150: f3a8 deb5 bc4c dc3e faec 6095 693c e9be
00000160: 4402 4659 8d0f e4be 2853 6b7f aecd 1dbf
00000170: b5c4 299e b99b 103f fc91 830e 3dd4 f8be
00000180: 9099 1b04 4d3a 28bf 8a20 e6f7 eb5c 3dbf
00000190: d7da 9a3e f8f2 203f 2190 c7eb 5033 fabe
000001a0: aa97 c896 2d62 1cbf a128 456d cdf0 e0be
000001b0: 1d17 9423 cb01 09bf 683c f3de 3dee 38bf
000001c0: eed0 8b62 7122 3ebf 4e39 7fbe af85 4cbf
000001d0: a06a 2a87 5f0d 18bf d1ff 132c e61e 70bf
000001e0: 5324 1157 99a0 6e3f fd62 037f a055 75bf
000001f0: e519 bfb0 2fc9 6ebf bf7b fac5 bb47 f6be
00000200: 856f 3926 38e2 073f 0c68 947f 57c2 1bbf
00000210: 6bd7 4dc8 a8e2 cbbf 8ff1 92c6 809b d33f
00000220: d0c6 b3a9 e7df babf 644c d820 c929 68bf
00000230: 0685 697c 2c8f 62bf b29f 3a36 1863 46bf
00000240: 6d30 b558 bade dfbf 88d2 f062 15bc e73f
00000250: 383f b4b2 8d2f d0bf 6d63 a9ec e2e0 69bf
00000260: 2b17 ae9d a6df 66bf 38da 4379 0d50 4c3f
00000270: 6410 94a3 bd46 d0be 97c4 3161 bcc8 f7be
00000280: f5ec faee f512 d1be b411 e80e ec14 75bf
00000290: ecd6 c697 6456 74bf 3404 109a 14bd 69bf
000002a0: 0eda 9b0e b0f1 5dbf 5aa5 3930 0d58 53bf
000002b0: fe12 aff7 d94c 53bf c830 36d4 47fb 81bf
000002c0: 39cc b8b4 4c42 83bf 459d d3fc e272 84bf
000002d0: 5879 2d13 9712 50bf f923 7303 93b7 3dbf
000002e0: 4243 e913 35b0 3abf 84ed 4314 d855 76bf
000002f0: 2f1d 9dd3 346d 62bf ab21 b729 d122 77bf
00000300: 1997 6886 80eb d03f 3916 7bf0 5181 d93f
00000310: be8c 0ebc 97d5 ecbf 2f5e cdbc 6fce 4dbf
00000320: 58e5 263d d019 42bf 5e10 f861 5889 36bf
00000330: d9fb e00f b3ab acbe 41c3 042f 7805 b0be
00000340: 391d 99f8 ccae 9ebe eb10 770d f033 3fbf
00000350: 483b c812 5f16 333f 0ac7 0b60 0cb5 1dbf
00000360: c395 5213 aaed 113f 2461 bd2a 7f1a 3cbf
00000370: b271 441d e9c3 22bf 559b ee12 bc17 bebf
00000380: 334c 1d77 2fb1 d0bf 0515 9844 7aae dc3f
00000390: 6a6d 3b66 e25b b23f 7b29 ad1e 110e bc3f
000003a0: 502b 4914 cf95 d0bf 6601 e2ff eb79 eabe
000003b0: 76d6 80b9 9618 30bf 7f9f 33b2 bbfc 113f
000003c0: 2481 c70a 284b 01bf cfc5 6eb9 dc54 d4be
000003d0: e3db 185f 9d57 d4be c7b0 e5ac 81a1 d03f
000003e0: b7cf c2dd cf60 debf 075f 013b 6598 b53f
000003f0: d0e5 68a1 3142 c93f 0919 d5f9 9474 d23f
00000400: 04d4 6aa4 2979 e5bf ca96 2334 6cb6 29bf
00000410: e997 6697 3bdf 04bf 973a f00d 88dd 373f
00000420: ad0c 663e b6aa 24bf b5b8 6cab c31a 14bf
00000430: 058e 4626 f616 f73e 6368 479d 285d a43f
00000440: aefb 7451 6c95 af3f bfad 522b abfd c2bf
00000450: dfb6 b578 36ff 213f 7ed4 1f80 d5a8 66bf
00000460: f297 7d37 d788 57bf 2a2c 3098 2c92 e2be
00000470: ee75 d9ca 4712 9ebe 2c1c a67f 942f b43e
00000480: 1f06 019f d494 b1bf d9fe 3bb9 974c b83f
00000490: 63db 1c7a 8a6c a0bf d213 2d77 1b00 1fbf
000004a0: 14d3 0d9d bf33 013f d5b4 b088 01e7 fdbe
000004b0: af5d 3a40 03bf 5bbf 0501 27eb 10af 4a3f
000004c0: 5bb2 ffef 8213 363f 7132 36ed 6bd6 77bf
000004d0: ec1d c90c 7765 67bf b01d 72a6 fd19 6bbf
000004e0: aa61 8c26 45da 303f b4d5 fb8e 2fde 42bf
000004f0: 075e 566a 6e10 20bf 634b 0add 3508 e3be
00000500: 4cf4 3e07 e5e2 d83e 777d a552 e837 c7be
00000510: 2d9b 10e9 14ec 0ebf 1b94 84e4 b2b8 053f
00000520: c3ca 26fe 2adb f2be e3cf 3361 0246 f5be
00000530: 8ab7 4fe2 ddcb f5be d921 560c efda c5be
00000540: 5b68 5671 526c 0dbf 9c2b 5b02 8930 033f
00000550: cd6d 7585 13a6 f2be ffd7 fe6b 5a9e ec3e
00000560: b4c1 8682 69cb 40bf 2b12 20d1 ddbf 213f
00000570: e777 bf41 8b7f c93f 7184 bca5 9cc3 d23f
00000580: 2355 c5ec 25bb e5bf 60a7 e114 2fd8 36bf
00000590: a9b0 15c8 1f16 0ebf 4fd7 60fd 240a 43bf
000005a0: ba54 a813 7128 c83f dee1 91d6 80fd c7bf
000005b0: b84a 88e7 3d71 b9bf 6792 29b9 571a cb3e
000005c0: ca9c e0d0 f1d0 adbe b3fc 9bba 1ede 0fbf
000005d0: 1e46 952e ce6d b4be 113f 92b4 f38c d5be
000005e0: 7805 2380 b9fe babe 637e a978 ba4d 18bf
000005f0: c028 fc4d a72c 2ebf 1c6b 72ee a20c 17bf
00000600: d49f 6117 715d e4bf d102 a1a5 eef9 d43f
00000610: d5ad 3e16 b1e0 bc3f 7faf 1094 78f9 1bbf
00000620: d6f1 d85f 7afd 1fbf 9ad6 640e 3d72 193f
00000630: 73a8 dae4 6eb9 ce3f f506 77a7 7667 cebf
00000640: 4414 b2bc 2931 c0bf 6f4c b975 d036 0abf
00000650: 7a13 a689 e725 003f b4f0 c3b3 47ff f9be
00000660: c990 43c4 b4aa b6be ef07 d3fc fa25 e5be
00000670: d38e 2269 8f6c 8fbe 8321 1a94 c413 bcbf
00000680: 84c8 11fc fb1e c9bf ddc9 d58e c544 c03f
00000690: 63be a365 8cba d93f 9614 a226 97c6 d43f
000006a0: 0ad4 ff84 6931 e0bf 1fbf 10a9 efb1 d8bf
000006b0: f72b 4e64 d01e c13f db7d 200f e470 c73f
000006c0: 189a 1f21 c4ec a93f 3e58 c36c bd41 e9bf
000006d0: 532e c89a 9e61 d93f eed6 8131 fcf6 d63f
000006e0: 9c20 603f 1c9a d6bf 7dc8 cea1 3cfb c7bf
000006f0: 68bf 6c21 e7f6 363f d394 b3ea 0ee1 4bbf
00000700: 12a8 6cc2 1dfb 36bf ec67 71ce 65a6 41bf
00000710: 1c3b d2b5 4317 29bf 2780 b4b6 1a3d 0ebf
00000720: 7423 c7f6 68b3 763f 3cf0 5924 7eb8 b7bf
00000730: c00c fead bdad 983f e893 5746 78c1 66bf
00000740: 4689 da81 31ce 6dbf 10e9 ace0 a158 5abf
00000750: 41ca 3840 5b18 433f ebb1 228d 10f9 5dbf
00000760: c3c5 28ba 667f 61bf 66c4 1ab3 b6cb dbbf
00000770: 3d82 a7b3 9d39 debf f67e 633d 97e5 dd3f
00000780: f3a3 75da 457d c93e 0d45 d2c8 e11b f8be
00000790: c5d6 8556 509a e8be d868 ec99 bcfe 253f
000007a0: 8fe4 79fd 0281 58bf 9c52 ea9c a33f 40bf
000007b0: 0301 08a8 ab71 67bf a14d 573c 8ccc 6cbf
000007c0: 8ccf 3c8e e6bb 33bf 183c 698d faf2 e5bf
000007d0: acbf e6c2 a5c7 cc3f ddde 029c c0f7 d93f
000007e0: 8348 8d22 8ea1 65bf 799b 79e3 99ce 58bf
000007f0: d309 2394 5a2a 4e3f eb69 c63e ab22 a93f

decoder1.bias f8 [101]
-2.914949997608867e-09 -3.799175320039121e-07 0.12770162441905755 0.00014273900005428588 -0.20546952729170434 1.4937658310401728e-05 0.07627224460755755 -0.08499175600374181
-0.25027256762441225 -3.0649045761513954e-05 0.1376491979120135 0.0002527328865124486 5.444380851086513e-06 0.1149041411431578 -3.084607026148472e-08 1.3266076249802353e-06
9.729410709206763e-05 1.4881313294522903e-05 3.945116209144682e-05 -0.0026844929702035296 -0.001574820593375858 8.846350588278865e-06 -0.0936625303531584 0.0002513192425898854
-0.09606228013617785 0.0005037159491686282 2.258822729325513e-06 0.00034243069433581374 8.654755826043153e-05 -0.0004203293655367272 0.0001342196841179582 -0.00014532376038850866
-0.557019692402651 0.00012567884908697857 -1.1058725952830716e-07 -1.014228372560455e-07 -8.25825440414391e-05 0.3961968543321873 -0.13316444850116113 3.0143663181496043e-05
4.367308370370198e-06 -0.058122841486431355 -0.3938965233436925 0.00037031523698692777 3.274868718199318e-05 -0.06912706914231567 0.0001052988336080432 1.205375180583026e-06
-0.0277100334374893 6.058296078448299e-06 0.00022888211837324287 8.613840138908092e-05 -9.689755369747836e-05 2.38847908591263e-08 -2.114452340125526e-06 3.943757953586745e-06
-9.97941053349058e-08 6.879566403816393e-05 -0.4002372396983634 7.037989631406064e-05 0.008083574935412872 3.878933922376151e-06 5.943504591216056e-07 3.514635862813463e-05
-0.0028554270055946825 5.603465602189559e-05 0.011388803061951962 7.670690285345913e-07 9.325888101142085e-07 -0.1762886210559376 0.6627845371345754 -0.032589457889110024
-0.18546839582539695 0.01981864343165121 2.1470611538760145e-05 7.548476805820987e-05 0.0017667587935967853 0.00027083126848684335 -0.0002917497554458755 -0.533590849010699
-5.221340061680551e-06 0.00010511519707806238 0.00017461920582595406 -0.13379087812510543 0.0005266172869081399 -0.0036918781078219714 2.9427417719904837e-06 5.3807839792399414e-05
0.0003141304422858159 -0.0002159824946353688 9.468929487265686e-08 -2.219021344689854e-06 -3.6624510419924256e-05 -4.9943653503404165e-06 1.3789179946936289e-07 5.322684526347743e-06
-5.741423856690001e-05 3.0244801078358488e-05 3.2651248192900675e-06 3.8486083181071505e-08 -0.0799109427656536
00000000: 221a 23f7 0a0a 29be 191e e4f9 ee7e 99be
00000010: 9551 43de 8658 c03f 03f7 97ac 86b5 223f
00000020: fd6e 0552 d34c cabf aa06 2120 9853 ef3e
00000030: b895 2eec 9386 b33f fc36 770c 05c2 b5bf
00000040: 6119 423b 7704 d0bf 6368 8f31 a511 00bf
00000050: 3d26 ad29 7d9e c13f bc1b 717b 2790 303f
00000060: 7add 5003 dcd5 d63e 4684 6298 5b6a bd3f
00000070: b228 129d 738f 60be 0f72 5882 bc41 b63e
00000080: 944b 3f08 4c81 193f 71fe 1f20 5835 ef3e
00000090: bc2f 979b 0baf 043f aa7e 6d30 cafd 65bf
000000a0: 97fb 84bc 46cd 59bf 45ec b92a 598d e23e
000000b0: 5f38 ba80 44fa b7bf 7eed 82ed 6f78 303f
000000c0: 2c67 909f 8997 b8bf 4783 9ac3 7981 403f
000000d0: ecb0 90ed c8f2 c23e db2f 21a2 0871 363f
000000e0: 5ee0 a6ba 1bb0 163f 4e41 e7e0 f48b 3bbf
000000f0: 836d ba4e aa97 213f 8ab8 ad98 410c 23bf
00000100: 9f1d 43f6 1ad3 e1bf 068f df17 1579 203f
00000110: 49b9 cda4 7faf 7dbe 40bc 126c b939 7bbe
00000120: 4b15 b34d 05a6 15bf e6a0 080d 4a5b d93f
00000130: d7b3 a65b 880b c1bf 6fc4 bfc2 a09b ff3e
00000140: 24a5 7595 5c51 d23e d56c abee 46c2 adbf
00000150: 8e3b 71c3 9935 d9bf 1e7f 02d5 db44 383f
00000160: 45d9 ce52 742b 013f 360d 3cc5 4fb2 b1bf
00000170: ccee c52f 7c9a 1b3f 84d8 e106 0c39 b43e
00000180: 3353 8add 0460 9cbf 7e99 e5be 0b69 d93e
00000190: 3430 156d 0200 2e3f ec89 b377 a694 163f
000001a0: e044 f94b af66 19bf 5418 dabc 66a5 593e
000001b0: eca7 9877 c0bc c1be cdd9 88ee 938a d03e
000001c0: 209d 9977 ccc9 7abe c7be 3382 cc08 123f
000001d0: 8554 c9a7 7c9d d9bf 2b98 6f69 1d73 123f
000001e0: 72e1 db0f 1f8e 803f cda1 dd3c f944 d03e
000001f0: 0f48 477b 6ef1 a33e 688c e2af 436d 023f
00000200: ba57 5db3 4364 67bf 7e05 d61e d860 0d3f
00000210: 6989 8845 0353 873f 3b6d e2a1 12bd a93e
00000220: 3c0c 377b e04a af3e d9cc 0b23 a090 c6bf
00000230: 3133 e9ea 8735 e53f 4cfc a7bf 90af a0bf
00000240: 2b7e 41ab 6dbd c7bf 4863 8fa5 564b 943f
00000250: 7a60 ad30 7983 f63e 8cc6 cc70 b2c9 133f
00000260: 1e40 42cf 52f2 5c3f 06da dd70 cbbf 313f
00000270: a777 83a8 bf1e 33bf 3544 be1d 2d13 e1bf
00000280: fea2 1007 5fe6 d5be 3bef c555 298e 1b3f
00000290: f52f 7a8e 3fe3 263f 2275 063b 0f20 c1bf
000002a0: e2f2 2b03 9641 413f a538 7cf7 6d3e 6ebf
000002b0: 8045 de65 7daf c83e a754 234c f735 0c3f
000002c0: 1382 eef9 3b96 343f b5cc 7e80 2b4f 2cbf
000002d0: b5be 1ab1 ff6a 793e 4894 a8e2 4f9d c2be
000002e0: 1ce6 8b98 a833 03bf 1afb aab1 a8f2 d4be
000002f0: ed94 5a18 ed81 823e b1e1 c561 3053 d63e
00000300: 69d3 3b37 021a 0ebf db63 72e7 c6b6 ff3e
00000310: 83c8 3b5a cd63 cb3e 2817 bfab 7ca9 643e
00000320: e960 c525 0b75 b4bf
