Trained_models/10/predictor4_100_9.pt (torch, 103639 bytes, 16 tensors)

weight f8 [54, 100]
0.44096930235267867 -0.06044028254021688 -0.21833228706735297 0.24845640962805246 -0.2512575155318099 0.19821628196799707 -0.08663243224126846 -0.019422737943004552
0.053609641214529956 0.08875741025782422 -0.1837354827567962 0.04473158919150999 -0.03364784830667067 -0.024078498349072427 -0.00852325938492807 -0.11674673409600649
0.18175497429645396 -0.12862026391524853 0.15169091183782357 -0.06290668213511764 0.030395650375210023 0.08903924479782813 -0.1752822412101511 0.12665783145305415
-0.059066220940261344 0.08618233236213495 -0.11632841571175374 0.14837840860189258 -0.07798008593612417 -0.0172488663423736 0.09000310147957466 -0.0962195847567443
0.09433836106783645 -0.06492012851501515 0.06104545021466349 -0.03398421407593667 0.14227859487213038 -0.19788897235479597 0.18665864291600276 -0.028398696752287268
-0.018689455734337508 0.07764862755259275 -0.15099971336142576 0.17694336951544537 -0.10185344484647225 -0.05930043595872941 0.09654400550262714 -0.06845015145925407
-0.011893820423793295 0.04865896229962206 -0.03956557560825101 0.03278254520761036 0.07197099334059104 -0.18743160220306998 0.2563043565938145 -0.14719898218012567
0.06252892958347976 0.008902050445620712 -0.03259022220131592 0.0714837754540401 -0.017202118169051744 -0.05380858989455919 0.09503587006622388 -0.10794964874268573
-0.047186231747296636 0.19912288100148243 -0.12195886417468547 0.016459123322405927 0.041080453985606676 -0.015563962711290496 0.06592067762429812 -0.1257087389558186
0.019267107956681535 0.05974833806011394 0.03298120744062922 -0.06451993774593637 0.08871406957673643 -0.1135327385466142 0.05064019189496837 -0.024105276944865105
-0.032612988505660544 -0.006368540186303362 0.0550829376079139 -0.02577094424223742 -0.08322638566666052 0.25938792376763437 -0.24675646739346102 0.0350149073215196
0.2085246279157802 -0.21409779747855764 0.09465725913301114 0.04451522782019629 -0.09842655069829763 0.1459159076729081 -0.07537604727004085 -0.1794987431353092
0.37477584612205755 -0.2719293725785713 -0.055337008428361596 0.4674527725680715 -0.08470171777537916 0.12872242527870437 -0.27168654083610533 0.24169360516382152
-0.04125296282379446 -0.1951505431785076 0.17814344194401904 -0.02762051706194642 -0.20016712076741355 0.2683046581076744 -0.19158067033412246 0.03685875247291555
0.05573312071595336 -0.091114215116778 0.034646014269148886 0.06325439269555998 -0.1319235819671667 0.03673219083059117 -0.015634686360752402 0.10180790083257928
-0.0790517433291548 0.016726617989776094 0.023729687839356504 -0.10080385242042798 0.022162904322712906 0.018052797849009015 -0.09206332871663864 0.2115432131550796
-0.19030602280741427 0.15294891216025874 -0.05754395506730574 0.04570881505570682 -0.09006109300510165 0.13279239375452012 -0.12256994173815787 0.13841813681190684
-0.18479365246410562 0.11661932593173098 -0.02600241721618129 -0.09106342201203489 0.16009957881802805 -0.057911795433441396 -0.0664330189880443 0.0504287809828118
-0.0431410424901364 0.10073738342929868 -0.11896944571041859 0.09509676158791108 -0.08141212161377082 0.07887657362843986 -0.09462019563928142 0.0855239418679907
-0.06712481897563628 0.13513210216505914 -0.13603578007553893 0.05075501074577869 0.10247793432670187 -0.19309690183406805 0.1749639238182472 -0.17278468119944787
0.11581834625969473 -0.05460342727971857 0.009778743864008134 -0.0213630167240194 0.12364952980426201 -0.0981653564671115 0.10600319454746529 -0.009397536760391949
0.08861705999760298 0.02578342938170396 -0.08598351753623133 0.15469524396076997 -0.025630279299672265 -0.07012175826517078 0.19933339374413772 -0.22476190594074755
0.18246241755581663 -0.02039177282197685 -0.04072001362561888 0.010456444645268086 0.11257617866076737 -0.1663148093446709 0.18963080165048357 -0.10569789609996678
-0.017541054066963404 0.10652567825853654 -0.1620333509899097 0.17160043487676604 0.012905953753171466 -0.152088319179936 0.24759744219689225 -0.023594048460232345
-0.13542920188295057 0.11643165167455154 -0.0121696844315406 -0.16821005963358757 0.2883523508373441 -0.2139502480812917 0.11184553501113108 0.06710426445154627
-0.3987936961217724 -0.0008117934770666078 0.31557776616119054 -0.1755474896227302 -0.12415222918831967 0.05613570263434833 0.23799095533031953 -0.12709755769176703
-0.23294264314692253 0.2016917542937806 0.15246281532842657 -0.1992500269999372 -0.22631844486682381 0.27060748153227826 0.06049449007636554 -0.22137602085980898
-0.11224785206111265 0.2508743451621683 0.1266345822175728 -0.40362062734136506 0.049571470423526276 0.28625705080927893 -0.08322333546524294 -0.3202910976894408
0.14566699494330562 0.2764350039113245 -0.232669009818159 -0.17087558597783206 0.17153205684365125 0.2288194948756141 -0.3243964212951073 -0.08818488804025829
0.21742729838223768 0.044781101694939596 -0.2178259330203218 -0.1338270560288908 0.4220649361783957 -0.14416364334269985 -0.23162705529392438 0.11523724750903308
0.19850330349378736 0.06939650658674497 -0.35494308053047624 0.1587495696280236 0.17288742504617596 -0.13583985075101032 -0.21652749925404174 0.14664595698010746
0.27927824225869236 -0.2984889033706472 -0.1166682219462182 0.20866566192909866 0.1393267571655498 -0.2919654865846907 -0.10696041547791661 0.28434314944723305
00000000: 9d42 094f d738 dc3f 0812 be59 07f2 aebf
00000010: b8bd 4ef8 4ff2 cbbf a3c2 ea6c 6bcd cf3f
00000020: 5f55 0567 9a14 d0bf 662b 4bb0 265f c93f
00000030: 86ca 3f07 8b2d b6bf 8651 0ee1 8de3 93bf
00000040: e38c 880f b972 ab3f 36c3 553e ceb8 b63f
00000050: 2c11 c7f0 a484 c7bf d0ed 5911 0fe7 a63f
00000060: a0a7 1d70 4a3a a1bf ecc2 c8ab 08a8 98bf
00000070: 123c 8282 a474 81bf 936e db2c 1de3 bdbf
00000080: 218a 3e3b bf43 c73f 8137 8ff9 a076 c0bf
00000090: c8d0 b898 9b6a c33f e15e 78fe a61a b0bf
000000a0: ef6d 3591 0920 9f3f 129b 77a4 46cb b63f
000000b0: 6f99 c802 a66f c6bf 4ec3 efe5 5236 c03f
000000c0: 0c35 797e ed3d aebf f305 fd9a 0b10 b63f
000000d0: 65d5 13f5 b2c7 bdbf f556 304e 10fe c23f
000000e0: 81bd d5be 80f6 b3bf 4f93 55d3 afa9 91bf
000000f0: 16b2 6479 710a b73f 98d1 c3c1 d8a1 b8bf
00000100: b96a 8b0f 8f26 b83f aff8 d204 9b9e b0bf
00000110: d5af 7b68 5941 af3f 72a4 1200 6166 a1bf
00000120: e1c4 f25b 2f36 c23f ec5e 4004 6d54 c9bf
00000130: 4484 6b2f 6ee4 c73f 2a4c 3347 8c14 9dbf
00000140: f2d5 a224 5423 93bf 72ec eacb c7e0 b33f
00000150: 86dd 4b67 f553 c3bf 7e0c a890 14a6 c63f
00000160: ddbc 993e 1113 babf 379e 2972 a05c aebf
00000170: 6b35 42a2 1bb7 b83f 6a7a ecf9 f285 b1bf
00000180: 8a1f f58d c95b 88bf 9ee5 77d7 d3e9 a83f
00000190: 4ed8 916a f041 a4bf 4fb8 17af dfc8 a03f
000001a0: a491 a8e6 b06c b23f 087b d93c c2fd c7bf
000001b0: e722 5963 4a67 d03f 92eb 3b8f 6ad7 c2bf
000001c0: 376c 9d5b e501 b03f 6611 40fc 3c3b 823f
000001d0: 014d 0c65 aaaf a0bf b30b c5bd c24c b23f
000001e0: 2bff d49b 6e9d 91bf 9398 aeab cc8c abbf
000001f0: 4c9f e151 4554 b83f f6ea f692 96a2 bbbf
00000200: e02b 5a34 cb28 a8bf 7fb1 e4ca db7c c93f
00000210: a76b 1635 b238 bfbf 18f0 8f11 a9da 903f
00000220: a1fb be4c 7f08 a53f 16b0 bab6 ffdf 8fbf
00000230: fac9 8672 2de0 b03f 7d7d 5155 3917 c0bf
00000240: 85f2 3fba c1ba 933f f2c5 ea8b 5597 ae3f
00000250: d920 aeae e9e2 a03f 6a0a 8fee 6084 b0bf
00000260: 67f3 861b f7b5 b63f 3b41 1547 7b10 bdbf
00000270: bfa6 1ae0 82ed a93f 468f 8ec0 0daf 98bf
00000280: 63ff 1c4e a6b2 a0bf dac9 2cfd e515 7abf
00000290: 2aec 2faf d433 ac3f 926d d4ca b263 9abf
000002a0: 5843 9a0c 534e b5bf 13cc 63ce cf99 d03f
000002b0: 1805 c446 b795 cfbf 0405 a353 79ed a13f
000002c0: 3888 a75c efb0 ca3f e173 287f 8e67 cbbf
000002d0: d726 4e48 753b b83f 98ce 522f b3ca a63f
000002e0: 87a9 4e80 7b32 b9bf 05ed b559 5fad c23f
000002f0: 0e34 ed39 d84b b3bf 9739 b897 d0f9 c6bf
00000300: a332 9bd4 53fc d73f 2afe 8274 4a67 d1bf
00000310: e9a4 eae2 2155 acbf 60ae a608 bfea dd3f
00000320: 68a1 c203 03af b5bf 3cbb 6af7 f979 c03f
00000330: 5ce2 e9f1 4f63 d1bf 935c eae8 d0ef ce3f
00000340: 35f2 61bc 1b1f a5bf 26c9 5f68 b1fa c8bf
00000350: 6ebe 9280 67cd c63f 952e eb85 8d48 9cbf
00000360: 661b b782 139f c9bf 8bf6 fb4c e72b d13f
00000370: 7ebe d024 b785 c8bf 7a93 e280 26df a23f
00000380: 4ede 8e35 0d89 ac3f ca94 20de 4253 b7bf
00000390: 7a0b 7254 1fbd a13f 6fad f49b 7031 b03f
000003a0: 4861 0f37 dfe2 c0bf 0bd8 a7cc 8fce a23f
000003b0: c61c 690a 8a02 90bf 07e3 8c24 1510 ba3f
000003c0: 9a5e 4a2c bc3c b4bf 1081 f454 c820 913f
000003d0: 0978 db64 984c 983f 5fe0 7401 48ce b9bf
000003e0: 7370 0055 dfb1 963f f97f 73c1 6e7c 923f
000003f0: 54b5 ff59 7691 b7bf af8d 1817 d913 cb3f
00000400: 4047 18a0 f25b c8bf 80f2 d777 d493 c33f
00000410: d671 31ba 6676 adbf 8539 9b53 2567 a73f
00000420: 3653 1969 3e0e b7bf e8a6 2a56 57ff c03f
00000430: 73ee 3c63 be60 bfbf f0e3 637d afb7 c13f
00000440: 98bd eb82 51a7 c7bf 6156 f59e c3da bd3f
00000450: 8fe5 3dae 60a0 9abf 294e 67b3 ee4f b7bf
00000460: 243b 909b 247e c43f 62e8 e066 9da6 adbf
00000470: 569e ed1b c101 b1bf 7257 321a cdd1 a93f
00000480: 2191 382d 9516 a6bf 453e 50d7 ecc9 b93f
00000490: baab 8c16 c874 bebf 14c0 f9e8 4258 b83f
000004a0: 3c41 d4bf 6cd7 b4bf 7499 2750 4131 b43f
000004b0: 74d4 cf75 0739 b8bf 2e18 59a5 e5e4 b53f
000004c0: 3912 4096 172f b1bf 0126 b83b 024c c13f
000004d0: 1f51 41d5 9e69 c1bf 4ec2 858e 8ffc a93f
000004e0: 8bac 7e70 fe3b ba3f 110a 2b37 66b7 c8bf
000004f0: 10bd 63c5 3765 c63f 5b2e 80f5 ce1d c6bf
00000500: 4452 7669 45a6 bd3f 91f1 d4fc faf4 abbf
00000510: 4729 bcc8 e006 843f dcba b1c8 2fe0 95bf
00000520: 37d2 acde 7ea7 bf3f 745d a063 5d21 b9bf
00000530: ee56 da7d 0623 bb3f dc06 6408 043f 83bf
00000540: 1bb0 8e8e 9baf b63f dd7f e4a7 f866 9a3f
00000550: ff2a d00b 0403 b6bf 7d41 d4c2 0dcd c33f
00000560: 708b 84ed d23e 9abf 32a7 7ce2 7ff3 b1bf
00000570: 98dd 90b3 c183 c93f 4979 b385 ffc4 ccbf
00000580: bd5e 13b2 ed5a c73f b0eb 82b5 94e1 94bf
00000590: 5721 a1ed 40d9 a4bf c958 453e 306a 853f
000005a0: 251a a8dd cad1 bc3f 38e8 7cbd cd49 c5bf
000005b0: 7298 b375 d245 c83f 7d5f 016f 040f bbbf
000005c0: 874b 3836 48f6 91bf 68fc 4d50 4445 bb3f
000005d0: 3175 ae43 82bd c4bf 1536 e3c7 00f7 c53f
000005e0: ef35 59ca 6f6e 8a3f a79f 7d4a a177 c3bf
000005f0: 1f8a 67e2 45b1 cf3f f457 11ca 0929 98bf
00000600: 1f5d 817c be55 c1bf 9b55 29f8 76ce bd3f
00000610: 63bf 1665 6bec 88bf 0f03 7e40 e887 c5bf
00000620: 168d 246b 5d74 d23f 5478 3dc3 b862 cbbf
00000630: fb90 13b3 e8a1 bc3f b0d4 3dbd be2d b13f
00000640: 146a acfe d585 d9bf cb97 b137 d199 4abf
00000650: 7d73 4016 6d32 d43f 0e8a 6913 5778 c6bf
00000660: 4ede 16c4 70c8 bfbf 04af e79d d1bd ac3f
00000670: 3b9a f1d4 7c76 ce3f b103 d896 bb44 c0bf
00000680: 5675 1485 10d1 cdbf a046 4810 09d1 c93f
00000690: f588 d8ca e683 c33f 748e d85e 0681 c9bf
000006a0: 8fa0 97b7 00f8 ccbf d3fa ce0a a251 d13f
000006b0: 00b0 ee40 22f9 ae3f 3712 dba8 0c56 ccbf
000006c0: d812 a675 46bc bcbf 991f f844 530e d03f
000006d0: 7a63 95de 8f35 c03f c604 9b9c ebd4 d9bf
000006e0: 103e 9188 6e61 a93f b76a de17 0952 d23f
000006f0: 5e56 16e0 1f4e b5bf 73ab 713b a67f d4bf
00000700: 19ad b151 37a5 c23f 8a33 5171 1cb1 d13f
00000710: d918 fb1d 19c8 cdbf fdd4 ba4e 40df c5bf
00000720: d4f6 2d2f c3f4 c53f c6c8 960b f549 cd3f
00000730: 1fb9 1935 e9c2 d4bf 8263 22ea 4893 b6bf
00000740: 9a98 e75f a8d4 cb3f 4869 846e 8ced a63f
00000750: ff7f 455d b8e1 cbbf d965 7bb6 3e21 c1bf
00000760: 9c2b 6ba6 1c03 db3f e1ec b64a f473 c2bf
00000770: 9997 ad91 f4a5 cdbf 3015 5531 3080 bd3f
00000780: 0aaf 5366 8e68 c93f ed28 3f2e f8c3 b13f
00000790: 1379 b42e 63b7 d6bf 4e39 e7e8 e751 c43f
000007a0: d542 3bd6 2c21 c63f cf0b 3c42 3363 c1bf
000007b0: fe89 fd4f 2cb7 cbbf cefb a872 4bc5 c23f
000007c0: 9811 3fd9 b1df d13f 8b88 8c33 711a d3bf
000007d0: 6ad1 bdf5 f7dd bdbf 554f e470 8eb5 ca3f
000007e0: 2dec bd8c 75d5 c13f 4a49 1c02 90af d2bf
000007f0: abb8 71fe c161 bbbf a0eb ed9b ad32 d23f

bias f8 [54]
-0.05188341441151254 -0.06268700605887179 -0.08020520653225274 -0.10042038690771068 0.31474797490014084 0.3017216593679676 -0.07326213944692711 -0.08907683851880988
-1.2434088901636915 -0.042594547580553005 -0.3431573926742471 -0.1126119512607864 -0.04229487924891932 -0.2192076403829373 -0.11788650671362504 -0.09313801140333236
-0.18491497485576372 1.151763608974576 0.025454292855630865 -0.06918197330044322 0.32112236280074813 -0.12133110639340981 -0.3514935236354361 -0.13018441646377532
0.20199370410831516 -0.10885791848093239 -0.056392056357581814 -0.10103649086758058 -0.06399135137056057 -0.21147332077634162 -0.05371043777531025 -0.12508155164027082
-0.19285923577340774 -0.11807106083483263 -0.1815645989137686 -0.04693881466188335 -0.4544762168130667 -0.09715777438075329 -0.17784883181473818 -0.1120506303877697
-0.0625911379557148 -0.13019474702837172 -0.10464895571848483 -0.1891809438785795 -0.5316743302081017 -0.4651655949289095 -0.09430988748482425 -0.12058837898308493
0.2887873042975503 -0.16889019922416026 -1.2643049898311836 -0.11782437301120721 -0.14633168123819987 -0.061909511489419124
00000000: 9d5b 3480 7690 aabf b031 e870 410c b0bf
00000010: 3263 0613 5488 b4bf eeca 9e85 26b5 b9bf
00000020: d269 abb0 d424 d43f cabc de5c 684f d33f
00000030: a4a4 f5bc 4ec1 b2bf e0f4 445c bdcd b6bf
00000040: 7bf0 6cb8 00e5 f3bf 2c5a b1d9 f3ce a5bf
00000050: 49a8 ba6c 4af6 d5bf 61c7 cd07 23d4 bcbf
00000060: 2623 53a6 aca7 a5bf 9130 3df7 fe0e ccbf
00000070: 3386 f962 cf2d bebf cae5 fd88 e4d7 b7bf
00000080: d1e8 c53c 4bab c7bf be4c 94ad 9f6d f23f
00000090: a953 6ead b010 9a3f 7b53 cce8 e8b5 b1bf
000000a0: da94 8fcf 448d d43f 277b f22d 8e0f bfbf
000000b0: b347 31b1 de7e d6bf c093 9409 e2a9 c0bf
000000c0: 9351 9200 eeda c93f ef46 c9cf 1cde bbbf
000000d0: afb8 9e6b 6bdf acbf a796 fa07 87dd b9bf
000000e0: f107 5db9 bc61 b0bf ecfe 5aca 8e11 cbbf
000000f0: 2fc9 653b ef7f abbf f95e d01a ac02 c0bf
00000100: 6e6d 3087 9caf c8bf f6be e3b0 e739 bebf
00000110: 4f16 393f 823d c7bf d486 c543 5d08 a8bf
00000120: 4067 016a 2316 ddbf b479 84f7 54df b8bf
00000130: 6757 2322 c0c3 c6bf cdfb 02a1 59af bcbf
00000140: 480a 8a0a f905 b0bf 5786 4cb2 38aa c0bf
00000150: fd16 5f22 46ca babf 8b11 7ec7 1437 c8bf
00000160: 62ba 8be2 7903 e1bf 506b 5cea 45c5 ddbf
00000170: 7ecf 6f5a b124 b8bf 978f 0248 e1de bebf
00000180: 864f ddbe 7d7b d23f 482f 24ad 319e c5bf
00000190: a9e9 77de 973a f4bf 323d c1f4 bc29 bebf
000001a0: b9b4 a41c ffba c2bf ad18 517e 9ab2 afbf

weight f8 [9, 54]
0.12291497885656186 -0.020323496095367304 0.24680647462262295 0.10890370664196088 0.5529166031181392 0.35422729447792517 -0.29453546458800145 0.11302902406182073
-0.10397838769008093 -0.0504115013547261 -0.028769425605743647 0.034020968457733544 0.04060727882450728 0.3918531481783984 -0.26217797354651545 -0.07557002776776543
0.20943671342132653 0.7278521668956153 -0.014129447005763365 0.04231882289331414 0.4638887412682692 0.5091890625485878 -0.17207427306680315 0.06461240745278482
0.1942102298850538 0.33189483956888893 0.07208004364716375 -0.008832964080458432 0.5248545470828022 0.23008749079083152 0.016811094184925025 0.4525513492462121
0.529232902039209 0.06587777400797194 0.3265903543714889 -0.07220417914728643 0.3478252925976809 0.19987626660546318 -0.08868881571021785 -0.08131651926114991
-0.01472200857402521 0.12016705938197465 0.195656005522994 -0.037148092096240176 0.4405566738280688 0.021240719840609216 0.30498074591669166 -0.08292277725164103
0.69402361836191 0.42401655188872406 -0.08360930810594452 -0.23095131067250455 -0.2542627819201327 0.08516981683245796 0.19591220334523002 0.14279021099116962
0.25071260377530313 0.17627423446209228 -0.25358051730217357 0.5540485331833945 0.457273530202606 0.28080966117401146 0.5576793305439536 0.25599247735359176
0.20699715121779258 0.15601574664550624 0.1491005576486395 -0.040095124038606295 0.17408336506750915 0.4526009118170216 0.15402289676447106 0.2041038570489789
0.04631178768378316 0.1757494518876566 0.21749502103948806 0.1854728839293574 0.15009517207766881 0.2776425301418886 -0.26110683630289816 0.04545355995104944
0.24188237415260605 0.26669150316601853 0.07149234499405394 -0.09559218988014541 0.2042564551772519 0.14154411057945884 0.16334022527940573 0.17617788808626456
-0.12654125682209594 0.32830184464855383 0.2991738739666521 0.15255854055190227 0.1881934356863165 0.4224414022902265 0.24964265041020448 0.19380369569525197
0.13552596489358354 0.07660119797708884 -0.20137325592005265 0.11353428919873253 0.20820821782483986 0.1677852138435905 0.42285993731177896 -0.012143399997114546
0.5339605172363161 -0.07094043284684425 0.11692945547707866 0.26025507065652476 0.22852141783811053 0.22348315236960034 0.1801011270641484 0.25525756142744016
0.10804480117144806 -0.4485158154373241 0.16526230433529351 0.2751940029512508 0.5100851581657643 0.26853201935645393 0.49666236379768136 0.2020648821048539
0.21972310821907962 -0.23928445781148186 0.25063871404014026 0.34808556756460546 0.07682955597935827 0.23704668078010546 0.26944588622291143 0.2142544844537893
0.4267524731821545 0.11468712170482157 0.06590673351542227 0.2429841970817448 0.026930765415909916 0.0034516470279794633 0.2638844720985187 0.22556414524382853
0.12996685768297944 0.03878190402002898 0.31373427864943876 0.09516188606431736 0.3911837297327768 0.23418049351703757 0.29474301034440825 0.3883592020951056
0.11442553505635218 0.19415183711825987 0.10300450352143224 0.2841580966048153 0.2960757508540665 0.23604174887161325 0.18282571617137255 0.2472789028275252
0.04064432648747727 -0.2012486525599172 0.14131846284298846 0.2543351407430571 0.0962813029470232 0.013903208023095071 0.5812465196433017 0.48187251162595857
0.27510471299322553 0.2534114842900919 0.27234521189507094 0.20281794882079537 0.8168607881648053 0.21395936379648708 -0.011011278743114722 0.23744109422325899
-0.01678312137903876 0.11105664380640116 -0.13274235844027907 0.21630059644876756 0.09552652234940982 0.2095673306825697 0.2377921066954459 0.5883752833749164
0.1704641021289652 0.041850983396356664 0.6807840468271482 -0.12406290592865336 0.10865264037833279 0.27473455052873863 -0.025658091315698676 0.6909409522908583
0.05953848164577238 0.14678497433280074 0.012502316913113536 0.7490533002528819 0.2851171340661935 0.14838188481316422 0.6353866279384389 0.7579190354612703
0.21196487212092752 0.723071759793499 0.7704828225586153 0.2550811401862368 0.535253049721794 0.16584291126490583 0.42750741566087 0.6551281550993605
-0.018458422615069497 0.0725239718756867 0.17893666846968972 0.1943654170126923 0.36032954759802954 0.08298947693191226 0.6300462921120936 -0.1051507336164367
0.7345714946677119 0.1269994243556729 -0.2611506678114873 0.7258728526492371 -0.10036279983812878 -0.19115010216421022 0.09173651701003434 0.161876156264292
0.2395800776681625 0.1786145826310504 -0.1748596306683058 0.2206347485425002 0.23238088968520104 0.592242788847846 0.16489900834090596 0.3452000624994819
0.7114021566763773 0.2993947278877502 0.44825647332111707 0.19724158389287905 0.19314023293776508 -0.25821805366780964 0.3747567098336435 0.30482711505175675
-0.08436402119838364 0.47962847592729146 0.43771233502449064 0.148425546146417 -0.05480721461841985 -0.010718284898267675 0.39725215084509985 0.3724719368464858
0.6409742417204668 -0.11265469955167415 0.2597239408363337 0.3944710724937788 -0.05048866435633394 -0.03223592361704475 0.17895152820993016 -0.18845957681646852
0.06008365691836274 0.22086830454458353 -0.2076022829209715 0.22905957000534538 -0.18270723334522576 0.05464110660741035 0.17962473339662322 0.026649945694627752
00000000: 86a1 6026 5b77 bf3f 7baa 47bc aecf 94bf
00000010: f4fc 78c4 5a97 cf3f 0dbe 7002 1de1 bb3f
00000020: a8d9 f928 7eb1 e13f 2b87 48f5 a8ab d63f
00000030: 7dba fa46 abd9 d2bf 2b25 d859 78ef bc3f
00000040: 17a5 9ede 539e babf 7755 524b 89cf a9bf
00000050: 93ce 6778 bb75 9dbf 06f5 ce45 326b a13f
00000060: 9ac6 0f2d 7aca a43f fbb1 103a 1f14 d93f
00000070: 1b49 871f 86c7 d0bf 6703 d2ad 8e58 b3bf
00000080: 1cf8 5c7d d2ce ca3f fa75 a4a0 904a e73f
00000090: 880d 6746 e6ef 8cbf f2fb a910 d0aa a53f
000000a0: 66b5 2e67 5ab0 dd3f 1011 64dc 464b e03f
000000b0: bd06 a79f 8706 c6bf 06f0 ec50 708a b03f
000000c0: 55d5 f37c e1db c83f fb35 6ada c33d d53f
000000d0: 7ca8 2876 d673 b23f c988 d15e 0417 82bf
000000e0: b514 5cc3 9bcb e03f 4a29 15c4 8173 cd3f
000000f0: aad9 ef6e ed36 913f 607b 31ef 99f6 dc3f
00000100: e837 c7d6 79ef e03f c3c3 e5a4 5ddd b03f
00000110: efbb cd3a dbe6 d43f 7b76 121c f97b b2bf
00000120: 566f 1b04 c542 d63f cf94 28a6 8b95 c93f
00000130: 3b11 ff6a 4fb4 b6bf c8e7 d9ce 28d1 b4bf
00000140: 97de da8a 9226 8ebf 5521 1ab6 44c3 be3f
00000150: 5c5e 7e88 410b c93f 0405 5321 1305 a3bf
00000160: ef11 889e 1432 dc3f 3154 3c94 20c0 953f
00000170: d2cc 67f6 cd84 d33f 93a8 6358 6d3a b5bf
00000180: fa82 f004 7135 e63f d1c8 d451 1623 db3f
00000190: ccca f46b 6b67 b5bf 5943 2703 d08f cdbf
000001a0: fdf6 3b67 d745 d0bf f1d6 e669 b0cd b53f
000001b0: f6a5 20ad a613 c93f 90b0 321b f346 c23f
000001c0: 583c 7ae0 ac0b d03f 1231 1274 2790 c63f
000001d0: 5acc 2dc7 a93a d0bf 236c 4dfd c3ba e13f
000001e0: 7ffc 6232 f843 dd3f 852a c915 c9f8 d13f
000001f0: 32ed ca52 82d8 e13f 585d 9045 2e62 d03f
00000200: 273c 6cf5 e17e ca3f bd71 c0f0 52f8 c33f
00000210: 5048 7521 ba15 c33f 2423 f31c 5987 a4bf
00000220: e20c df1b 5d48 c63f 7535 99d0 69f7 dc3f
00000230: a223 38b4 05b7 c33f 33a4 813f 1320 ca3f
00000240: 6cd3 0abb 2db6 a73f 59de 1242 f57e c63f
00000250: c526 3479 e0d6 cb3f 0abd 6251 93bd c73f
00000260: de37 ae8f 5136 c33f ed09 bc2c e5c4 d13f
00000270: d5b5 ab72 f9b5 d0bf 18fc f362 b045 a73f
00000280: 7c6d 3b6b 00f6 ce3f 3a06 0e3d 7911 d13f
00000290: 84ef a983 524d b23f 89ca 49d1 ba78 b8bf
000002a0: 11d9 7d55 1325 ca3f d9a9 f00e 1e1e c23f
000002b0: 0421 d91e 55e8 c43f f0ee cd3d ff8c c63f
000002c0: 4ca4 d2ff 8032 c0bf 46d9 7ebd e502 d53f
000002d0: 0948 202d aa25 d33f 2ead 32cb 0987 c33f
000002e0: 231c ccf5 b816 c83f 9706 d4a9 4709 db3f
000002f0: 5f6b 9955 4af4 cf3f 0e72 6d3b 8fce c83f
00000300: 4e07 7d31 ea58 c13f 6e61 25d8 229c b33f
00000310: e59a 3b4e 99c6 c9bf 1f4a 154b 9510 bd3f
00000320: ff76 281f 91a6 ca3f 89f4 1a63 fc79 c53f
00000330: 9cbb 6220 2310 db3f fa7f cc8e a3de 88bf
00000340: bd53 dc5d 3416 e13f 5791 0af7 2629 b2bf
00000350: 6790 36bb 16ef bd3f dca0 45e2 04a8 d03f
00000360: 206e 0698 3040 cd3f 9f34 518f 189b cc3f
00000370: 094c 5bc1 8d0d c73f e4cd 98cf 2356 d03f
00000380: cdc0 88f7 d2a8 bb3f 6cb1 c2ad 7bb4 dcbf
00000390: 0bdb 30b0 5027 c53f e1c7 ae4e c79c d13f
000003a0: f9e6 0f1c 9e52 e03f d325 44ec a02f d13f
000003b0: ee90 6af0 50c9 df3f 9abc 2716 43dd c93f
000003c0: 31fb fc05 e31f cc3f 67e6 5e84 dfa0 cebf
000003d0: 507d faf5 760a d03f b392 39b0 0847 d63f
000003e0: e92b 4c0e 1aab b33f 3fb7 c9ae 8b57 ce3f
000003f0: 04a0 57f5 993e d13f fa0b e0e1 b06c cb3f
00000400: 727c f39a e94f db3f d29c fe9c 225c bd3f
00000410: e5f0 0881 43df b03f c898 f42d 1b1a cf3f
00000420: 89cd de12 bd93 9b3f 95bd 47e3 a046 6c3f
00000430: 9376 65b2 7be3 d03f d578 7c31 49df cc3f
00000440: e4f8 a705 c1a2 c03f 1ba1 e2c2 38db a33f
00000450: 4fbe 9bf0 3814 d43f d4cf 7884 875c b83f
00000460: 3a7e 7b7b 2709 d93f 0a27 825c a0f9 cd3f
00000470: 3dd8 89c9 11dd d23f 3358 068e e0da d83f
00000480: 15f3 e4ea fd4a bd3f a3cc 70a7 f7d9 c83f
00000490: d31b f7cd 805e ba3f 2eec f370 a52f d23f
000004a0: 97a3 c3b4 e7f2 d23f ed75 f2b3 9d36 ce3f
000004b0: 0c73 e943 d566 c73f 1d47 51c8 d5a6 cf3f
000004c0: ed35 104a 55cf a43f ccf0 8d0e 84c2 c9bf
000004d0: f1a5 1d30 b916 c23f 5ac2 ede5 0647 d03f
000004e0: f8ac 5f37 e4a5 b83f ba40 26fe 4879 8c3f
000004f0: 8604 194d 9299 e23f 8097 91cd ffd6 de3f
00000500: f701 52cc 509b d13f 993b 5dcd e437 d03f
00000510: f1ef 939c 1a6e d13f 3312 9d44 f0f5 c93f
00000520: 16af 513c b923 ea3f 7de5 163b 0563 cb3f
00000530: 10e6 b5d0 148d 86bf 402a 3543 7864 ce3f
00000540: 3184 ca35 982f 91bf 63ea 264d 356e bc3f
00000550: 8dbf 259c b3fd c0bf ed26 ede9 bcaf cb3f
00000560: 172e 6419 6d74 b83f 53bb cb2f 1ad3 ca3f
00000570: 3b7f c0c4 f86f ce3f 07d7 fb66 f8d3 e23f
00000580: af98 e487 c4d1 c53f 164f fcf9 7d6d a53f
00000590: 365b 18a0 fbc8 e53f 033c 9c2b 96c2 bfbf
000005a0: 818a 0cd1 a8d0 bb3f 508a 6639 4095 d13f
000005b0: ae98 505c 1d46 9abf 7acd 3133 301c e63f
000005c0: 334f 0bef d37b ae3f aadb 269c d9c9 c23f
000005d0: fcde 2092 d09a 893f fe80 71a0 3ef8 e73f
000005e0: b3fc 95ef 5b3f d23f 52b2 4b77 2dfe c23f
000005f0: 4bf6 6956 1655 e43f fd4d ca6b df40 e83f
00000600: a081 d438 aa21 cb3f 062d 1f63 6723 e73f
00000610: d89b a097 cba7 e83f 2548 bbd8 3f53 d03f
00000620: b275 f400 cb20 e13f 61fe 132c 573a c53f
00000630: 08e6 4310 485c db3f f1e5 1a52 cff6 e43f
00000640: 88b0 dec5 c3e6 92bf 2fd1 6157 ee90 b23f
00000650: 25f6 9091 65e7 c63f 417e c54a f7e0 c83f
00000660: 25d3 ada9 a30f d73f 87af 5561 cc3e b53f
00000670: d7cc 72d7 5629 e43f ea72 0892 28eb babf
00000680: 3f7e 4514 9c81 e73f e0f5 1b63 8441 c03f
00000690: aa0c 654a b1b6 d0bf aed8 65b4 593a e73f
000006a0: 872d 0a5f 60b1 b9bf 4b0f b646 9b77 c8bf
000006b0: 1d34 685c 0b7c b73f 0d23 949e 5bb8 c43f
000006c0: 99cf 2d5b 8faa ce3f 3a99 7eb7 d7dc c63f
000006d0: a435 8ee5 cc61 c6bf d8f4 ac6a c23d cc3f
000006e0: bee7 b430 a8be cd3f 2d96 2c26 a7f3 e23f
000006f0: 63c7 fb23 691b c53f aacb c000 c217 d63f
00000700: 3853 a774 cec3 e63f 6bda 3781 4829 d33f
00000710: 8e9b 48eb 3bb0 dc3f 8496 1d54 363f c93f
00000720: 0d38 01b4 d1b8 c83f 695c ef03 a586 d0bf
00000730: b84a 2c91 03fc d73f 6c34 8596 4982 d33f
00000740: 5390 0168 e198 b5bf 73a2 95a2 3bb2 de3f
00000750: 571a ff98 7a03 dc3f 907e 4bb9 9bff c23f
00000760: 4eef bdf4 b00f acbf 8fb0 dbd8 77f3 85bf
00000770: 9f4d 0949 946c d93f 61bd db88 94d6 d73f
00000780: d991 b869 dc82 e43f 6ead 503a f0d6 bcbf
00000790: b556 f829 519f d03f 780b e598 033f d93f
000007a0: 7256 7574 a6d9 a9bf 5014 621b 3a81 a0bf
000007b0: 328d 9d38 e2e7 c63f c8b9 8583 711f c8bf
000007c0: 6516 fafa 48c3 ae3f 5df8 5ea0 6945 cc3f
000007d0: bc39 dc2b b692 cabf bc1f 01f1 d251 cd3f
000007e0: e8ed fa5b f362 c7bf 9aca ca4b ebf9 ab3f
000007f0: 28e0 be79 f1fd c63f 605e cb94 1f4a 9b3f

bias f8 [9]
0.6621963224981396 -0.5060659019648238 -0.7797361278527809 -1.1468547421649944 -3.6381861675997423e-05 -0.4933869263026803 -0.3294992679822007 -0.12946504521693045
-0.9880238903765552
00000000: bd26 9557 b630 e53f bde8 511e b131 e0bf
00000010: 5365 142e 99f3 e8bf 53c7 ad5b 8459 f2bf
00000020: 9188 9f3f 1713 03bf 459d 2fc2 a693 dfbf
00000030: 0987 0219 8416 d5bf c347 9783 4f92 c0bf
00000040: 14b0 1a47 e49d efbf

weight f8 [54, 9]
0.11486393791348937 0.21062031795889166 0.4007884958381085 -0.40914485430903813 -0.04384805465913253 -0.025308886064001158 -0.2665983058567656 0.2091459823353078
0.08587954557903382 0.03666017585835846 0.12930784418186397 0.134087355346419 -0.33486196056638773 0.33420252686336044 0.11074206647630162 0.0018605211883861337
0.1822641028223885 -0.34103242206029705 -0.6165169070668911 -0.231612130626305 0.028024882641278462 0.11515232989242724 0.15272970417294218 0.06152762794934949
0.2680001933864218 0.43828130708625496 -0.5344929895060757 0.17367165239218932 -0.6049788499969524 -0.18545459778630846 0.18672194456308663 -0.3611813149500575
0.20570736413983276 0.1991525245775652 0.05084635787513872 0.07656288796968524 -0.013940411908726077 0.058582785473927076 -0.3499582324484094 0.3404699760332687
-0.27489701115889614 -0.33709495386304095 0.48125560572071757 0.11626778121704912 -0.18421392858667585 0.2788984920579574 0.1879494005844784 -0.5401374213381116
0.16576168824650622 -0.5613070140249755 0.29659880861377447 0.007422917343664154 -0.11789292068024859 0.0718812581887733 0.01381443144084922 -0.12717858700345602
0.08989385198276258 0.10092927486362831 0.15527324082398875 -0.33237506857483007 -0.21105731811290596 0.1320820552178993 0.14650542540317918 -0.06862640074622517
-0.23159738282513925 0.08924740019379938 0.5852137193149549 -0.11593139681237599 -0.16786153838979453 -0.28567984995867396 -0.0914138153887619 -0.12246816479697631
0.08468403320853067 -0.10611646787429349 -0.14396720529740156 0.15736761344747657 0.09850874385586464 -0.09581139627877056 -0.31605060975415705 0.07385809087889032
0.2067744680346968 -0.46139692342691185 0.5611831227295239 -0.047790277077586055 -0.12014594105901004 -0.05652421718273453 -0.3584868100018872 0.4582950707833538
-0.23401611596864025 0.14238044079572376 0.13467226665168242 -0.0396548556651523 -0.1568762865142498 0.21734620352153083 -0.0999875171291935 0.17088478146874406
0.20430680174136823 -0.10894054270009024 -0.46594511969646896 0.09384184836309592 -0.051945652176761496 -0.25026914062483363 0.16077146006470414 0.1318447271027615
0.30192583122300065 -0.19794496501641728 0.27074626114675915 -0.12733404505090706 -0.08760849756364084 0.29760527064284076 0.11536493415913394 -0.047937618502347595
-0.2086052512901684 0.08768744283059214 -0.3207944685049975 0.18346335606961495 -0.11399329142676133 0.14599736258075896 -0.07962026835215054 -0.37147699282585367
0.2252151631805161 -0.05236713795622447 -0.25050620577502297 0.12780268075622545 -0.37512839009353327 0.34070635766408475 0.03271652672342301 0.03475187223154425
0.43332088085777576 0.16131723638688325 0.2703035195600893 -0.033190166394798506 -0.235851156228999 -0.40533047095518965 -0.36645715366223036 -0.1957989587538908
0.03499961887313098 -0.17121786378274098 0.04177630948213702 0.46024832076605465 -0.14470014551614105 -0.07024299841561832 -0.006104721382541827 0.030871854854909436
-0.10579179099065991 0.15943758028526653 -0.13494651119727835 -0.400893745643674 -0.07147568050166687 0.791955026072528 0.15878532156022282 -0.22364487674791575
-0.23574238384595522 -0.06140744063669024 0.17025930472555342 0.4002108133129574 -0.319494247325307 0.28074251498551295 0.023042239469078116 -0.059263098929096904
-0.3919608479595112 0.11684660396431217 0.01583705981195105 -0.03176924798676801 -0.4073739843097933 -0.05403937216030818 -0.2697059699609475 0.03280961464164795
0.2333608781106848 0.3634142789828212 0.3507251724307475 -0.3698011936328347 0.11781127145259015 0.1961679064288285 -0.7454484368498085 0.32250287729103827
0.04329494452978575 -0.0504324748382981 0.12255632668241298 -0.02780710608043746 0.053173543007104654 0.3648864755563561 0.0026154843648152045 0.07036559781582984
0.037213608679121164 -0.11089184903443908 -0.07935868411390347 -0.04800984781767687 -0.0668853778738792 -0.21260253490390704 0.18085976958943262 0.1691433954369366
-0.3455660374972909 -0.16063453429962737 -0.060684854655967506 0.32080193206078395 0.4462029003540666 0.05315455749437222 -0.04793398908023289 0.1417833088757127
0.03497444104884871 -0.04528105879691899 -0.22058062971977682 0.21221089908093355 0.364450112175059 -0.13967595870311877 -0.12844363825360441 -0.21532235027343416
-0.4207240210286317 0.660375739836024 -0.41811674716001695 -0.30415140238663185 0.061785270929918916 0.1507503778227658 -0.0616715329441002 0.3710470213674406
0.07390557428732679 -0.4018673765742653 -0.13173307229218464 0.09445381717386418 0.36104098965789366 -0.1388476231446559 0.37061600572702397 -0.24955800318315005
0.15976592213430374 0.017509895903702905 -0.3518183412275248 0.11046015204255949 -0.08492330323799772 0.2233551358292255 0.23416640086240156 -0.4551429584931603
0.10231825013979358 0.014979982979934863 -0.1553281492592685 0.19470235445178827 0.040290893477032116 0.16133805734168483 -0.05929414215152234 -0.45520584142193155
0.20291113873746852 -0.21748873815901004 0.11780904145667058 -0.13031972399187278 -0.07357413002171007 0.20077258647438578 -0.14526382988669073 0.3438873500400857
-0.7825190454166878 -0.2940688943290319 0.3454115615749336 0.2322317371109297 0.3435118782124993 -0.06617260479945851 0.3470955642642918 0.2323651502772184
00000000: a805 d418 b967 bd3f ffd6 c048 9bf5 ca3f
00000010: 9c36 8fca 84a6 d93f 5060 25e6 6d2f dabf
00000020: cd25 8291 4073 a6bf 7db5 c597 92ea 99bf
00000030: 5cb9 3457 f20f d1bf 0427 1ca9 4bc5 ca3f
00000040: 4444 a8af 33fc b53f 0028 c160 1fc5 a23f
00000050: a64d f0d0 288d c03f 5f8f 0243 c629 c13f
00000060: 26a7 53dc 606e d5bf b198 c7fe 9263 d53f
00000070: eba2 ce91 9759 bc3f d1aa 166a 977b 5e3f
00000080: 35b0 6d1c 6e54 c73f 2efa e7a6 79d3 d5bf
00000090: 5b11 29aa 81ba e3bf 4fcc 325f 77a5 cdbf
000000a0: e492 ac09 8eb2 9c3f bc38 f282 9f7a bd3f
000000b0: 2478 469e a58c c33f 1c92 af9b 8c80 af3f
000000c0: 98a5 7a48 ea26 d13f df8c 180a cd0c dc3f
000000d0: f2d5 bb0a 911a e1bf 5124 a269 df3a c63f
000000e0: 7446 f09a fc5b e3bf a048 31ec f9bc c7bf
000000f0: 9b07 ac32 81e6 c73f e3c0 e83b 981d d7bf
00000100: ee72 c370 9e54 ca3f 41fd fc75 d47d c93f
00000110: b48c 63a8 8808 aa3f b8c7 ea1b a099 b33f
00000120: fe0c ed69 ca8c 8cbf f62d 7017 90fe ad3f
00000130: 983d d536 b765 d6bf 7a4c 1595 42ca d53f
00000140: cf84 2ca2 e997 d1bf c741 9fb6 f692 d5bf
00000150: e893 e54f e4cc de3f 8cdc e7ad b9c3 bd3f
00000160: 84ac 5f6f 5294 c7bf a9ba 920f 79d9 d13f
00000170: e814 68d8 b90e c83f 58c6 ff45 ce48 e1bf
00000180: 2e68 f9d2 ad37 c53f fb15 8820 3af6 e1bf
00000190: 9fd6 c191 79fb d23f e00f b633 7e67 7e3f
000001a0: 3068 c0fe 3a2e bebf 9eb9 1d65 cf66 b23f
000001b0: e89f 029a bd4a 8c3f f635 f74f 6347 c0bf
000001c0: 419f 6092 4803 b73f 2d8f bf3e 80d6 b93f
000001d0: 2838 a459 fedf c33f bf37 6214 a245 d5bf
000001e0: dc2d 701b ed03 cbbf e550 c695 10e8 c03f
000001f0: 4e88 6595 b0c0 c23f e0e3 d8f2 7f91 b1bf
00000200: 7a5d 89a8 fba4 cdbf 47dc 15e9 ead8 b63f
00000210: aa1a 341f 12ba e23f 5a85 e315 aead bdbf
00000220: 27f9 d1a4 7c7c c5bf 5db7 2c23 9448 d2bf
00000230: f64f 7f53 e566 b7bf b0a9 9ada 125a bfbf
00000240: 97bf 1f51 daad b53f d64d 16e7 722a bbbf
00000250: 2b74 3973 846d c2bf fe6d 9a38 9f24 c43f
00000260: 7a21 3b79 de37 b93f 60f6 997d 1887 b8bf
00000270: ff98 3156 2c3a d4bf 2bad de24 5de8 b23f
00000280: 48ac edf4 9577 ca3f 96fd 25f6 8687 ddbf
00000290: 3e18 e64e 36f5 e13f aae2 3a9a f777 a8bf
000002a0: b378 9867 e2c1 bebf 87b4 7600 bef0 acbf
000002b0: a459 40a9 72f1 d6bf 3dae 3bd9 b454 dd3f
000002c0: 983f 6976 3df4 cdbf a462 67b4 8539 c23f
000002d0: c83c 79da f03c c13f 563a 6b28 a44d a4bf
000002e0: 555e 0cac 8514 c4bf 3272 041a 00d2 cb3f
000002f0: 0f00 142c c898 b9bf 236c e571 8ddf c53f
00000300: 1e2e eaab b926 ca3f 20fa 1a04 87e3 bbbf
00000310: dbef b47a 0bd2 ddbf 5637 b7f5 0406 b83f
00000320: 8f83 89da 9e98 aabf bca0 8bdb 6804 d0bf
00000330: 61d5 8dc1 2894 c43f 4b38 87bb 49e0 c03f
00000340: e4e7 bab8 c052 d33f d6a1 93b7 4256 c9bf
00000350: 4eef 4820 e853 d13f d89c 9463 7b4c c0bf
00000360: 5e35 e3af 826d b6bf 85ce 21fa f60b d33f
00000370: 9794 516b 8e88 bd3f 3471 6e8f 478b a8bf
00000380: 5956 08ae 93b3 cabf e72d 3a2b af72 b63f
00000390: dcdd bd85 e587 d4bf d4ac 2a2d ba7b c73f
000003a0: ab2e a412 aa2e bdbf 2a16 cba4 0ab0 c23f
000003b0: c1d5 ab70 fe61 b4bf 6cd2 d96f 47c6 d7bf
000003c0: 2e39 36b8 d9d3 cc3f fc6f d091 ddcf aabf
000003d0: d9eb 4f2e 4b08 d0bf fb34 1897 d65b c03f
000003e0: ca2e d081 1a02 d8bf ac37 ed09 22ce d53f
000003f0: 18b2 a178 38c0 a03f 3923 6b55 ffca a13f
00000400: d850 fd80 87bb db3f ad08 480f 0ba6 c43f
00000410: 1f46 2022 a74c d13f 6acd 6d2e 4dfe a0bf
00000420: 6419 5de5 5e30 cebf cfc9 3437 eff0 d9bf
00000430: 6554 97b4 0874 d7bf 0e2b 38b6 f00f c9bf
00000440: c278 dd54 78eb a13f a50b b88a 77ea c5bf
00000450: 5a5b f255 b463 a53f f1a9 6e5f b574 dd3f
00000460: 2bf0 5bcc 8885 c2bf d0d2 f7f4 71fb b1bf
00000470: 1200 07ab 4301 79bf 8bf1 df1b df9c 9f3f
00000480: 967a 7dba 2b15 bbbf 5f0f 8a5c 7368 c43f
00000490: 1a9b 2662 ed45 c1bf 3379 ad3d 3ea8 d9bf
000004a0: f9c8 36ee 3a4c b2bf 794c 1c11 b257 e93f
000004b0: dfce 97d1 1353 c43f 8f6e c633 65a0 ccbf
000004c0: 6321 7372 ce2c cebf c102 88ca cb70 afbf
000004d0: d166 d190 0ecb c53f 58d2 abd0 0d9d d93f
000004e0: d76d e1ff 9772 d4bf 9069 1d74 aff7 d13f
000004f0: 7c00 c983 6298 973f b529 859f bb57 aebf
00000500: 191b d3f3 e215 d9bf 03e6 acb6 a8e9 bd3f
00000510: c018 d417 9737 903f 294d 3e12 0f44 a0bf
00000520: 8e83 f654 6a12 dabf 6ff2 3f70 0cab abbf
00000530: a52a 21d4 dc42 d1bf e9ae c2fb 6bcc a03f
00000540: 9e5b d3ed c4de cd3f 5c5c c8f6 2d42 d73f
00000550: 5e56 5efe 4772 d63f bc2f 2ba0 d2aa d7bf
00000560: 9632 fd25 e128 be3f 537c 51ab 071c c93f
00000570: d9f9 23ae b6da e7bf a32d b51b e3a3 d43f
00000580: 2dd5 ac45 c12a a63f 6875 2c0c 49d2 a9bf
00000590: bed3 04f7 d95f bf3f 80f7 d84c 7779 9cbf
000005a0: b2b7 7408 9039 ab3f ac1a d1cd 4c5a d73f
000005b0: 3a2e ec79 116d 653f 17ea 61d5 7a03 b23f
000005c0: 3166 7c80 a90d a33f 52f2 fe80 6863 bcbf
000005d0: 493d ecc8 d950 b4bf 7995 862c bf94 a8bf
000005e0: 9385 8c6e 661f b1bf d5bf 3a53 8f36 cbbf
000005f0: 143c c6b5 6926 c73f 8136 dea3 7da6 c53f
00000600: e92f 6a03 c11d d6bf 5869 b623 ac8f c4bf
00000610: ff43 38d4 1512 afbf a775 acd3 0488 d43f
00000620: 04ab 199c 968e dc3f 4bb3 24fc 1237 ab3f
00000630: c9ce eec6 cd8a a8bf 7db3 5e99 f425 c23f
00000640: ce59 0081 2be8 a13f 3c71 5235 142f a7bf
00000650: 0286 636f fc3b ccbf 9224 b40b ba29 cb3f
00000660: ad2f 3490 2653 d73f 746b 55dd e6e0 c1bf
00000670: 9dd8 d654 d770 c0bf 4cd9 42ca ae8f cbbf
00000680: ea69 bd71 24ed dabf 635c b54d cc21 e53f
00000690: 4194 bdbe 6cc2 dabf a41e 9271 3777 d3bf
000006a0: ff78 09ac 51a2 af3f cce0 4dd3 c94b c33f
000006b0: 1e9e 2d42 6993 afbf a849 8301 3cbf d73f
000006c0: f760 8ec8 79eb b23f 70cf edf1 31b8 d9bf
000006d0: ebf4 a51a a1dc c0bf fb7d be17 202e b83f
000006e0: f426 c6aa 4b1b d73f fb4d 4448 c2c5 c1bf
000006f0: 9b30 fe31 2cb8 d73f 7d37 1043 84f1 cfbf
00000700: d082 4ab1 3573 c43f 2513 0d39 1dee 913f
00000710: cb21 6d13 3184 d6bf f4b2 88d4 1d47 bc3f
00000720: 6353 139a 88bd b5bf 54dc e3ad e696 cc3f
00000730: 4f55 c324 2af9 cd3f 57e6 6eee 0f21 ddbf
00000740: 7965 2262 8731 ba3f 8399 f247 d3ad 8e3f
00000750: f3be 9bf4 cae1 c3bf 7f8d 69ba 01ec c83f
00000760: 46f6 9e0b 02a1 a43f 9cfc f0b7 b9a6 c43f
00000770: 2734 c542 cd5b aebf 30be 76ae 1722 ddbf
00000780: d28e 6f00 fef8 c93f a814 d2c4 abd6 cbbf
00000790: 0fc1 3abc bb28 be3f c1cf 4814 51ae c0bf
000007a0: 9e5f 4612 c1d5 b2bf f49f 6b86 eab2 c93f
000007b0: 7cd8 5353 0198 c2bf 9589 7b16 4002 d63f
000007c0: 5ffa 9161 650a e9bf 2780 fa56 06d2 d2bf
000007d0: f0f9 2718 391b d63f 100b fe01 c5b9 cd3f
000007e0: 3c74 ad3e 19fc d53f 073b 8115 b0f0 b0bf
000007f0: e283 4650 d036 d63f 11dc 9528 24be cd3f

bias f8 [54]
-0.18555328970158905 -0.9453187358118669 0.215785453517294 0.0958836727147037 0.01880779396100352 0.14420647061789268 0.18687216365565143 0.8724659155985007
0.1193176276217425 0.30405223030172457 -0.26593412688779944 -0.11265417322870208 0.19947585953232772 0.1973775381475377 0.11143886369170705 0.014449487749114344
0.04363236630829031 -0.0329703467244457 0.1312481531072764 -0.05034106535538836 -0.031762003501010584 0.04037859504072667 0.09899883539063149 0.30687141719863614
-0.26281384962120546 -0.0659083645931931 0.18463988089309694 0.15758384254631908 -0.04833828515065291 0.38830995548228886 0.46919991830288416 -0.03432436833372973
-0.11069681290509667 0.0902378484391806 0.12689893986687203 -0.11245824445154882 0.0061941589384919005 0.17632130040241464 -0.41510313516794906 0.6481098634080968
-0.29464368379322253 0.0237367002213855 0.062246813657910995 0.16150967618210468 0.35081463278178043 -0.14292857272312745 0.08931020081827648 -0.08872559787108765
0.4912506465815843 0.28919176243710326 0.06863857554636998 0.46034780398833425 -0.5737113851400725 -0.11674476095988266
00000000: 317e 77cf 35c0 c7bf 0075 d313 0d40 eebf
00000010: 5697 e794 db9e cb3f 63af 8716 d58b b83f
00000020: 21c1 e3af 5942 933f 9f74 968d 5b75 c23f
00000030: 3186 b753 6deb c73f 25d9 cba3 3deb eb3f
00000040: b2c0 789c 998b be3f 3cfe 5a7c 9775 d33f
00000050: ffe5 7792 1005 d1bf 2073 c665 e7d6 bcbf
00000060: 0434 84ca 6c88 c93f 6582 a7cb aa43 c93f
00000070: 362d 0fe3 4187 bc3f f476 9c6a b197 8d3f
00000080: a7b1 ae44 fb56 a63f 37ab d641 7de1 a0bf
00000090: 9ec9 a04e bdcc c03f 1ac3 b1da 4dc6 a9bf
000000a0: 75a5 95fc 1b43 a0bf 1913 51d2 80ac a43f
000000b0: 1148 58d8 fc57 b93f 0780 3c03 c8a3 d33f
000000c0: aac5 432e f1d1 d0bf 74ea 75de 5edf b0bf
000000d0: 6191 fc94 47a2 c73f 6ca6 0e15 b52b c43f
000000e0: 27ca bbb3 cbbf a8bf 487d e0ff 11da d83f
000000f0: 8164 1918 5f07 de3f 1c01 e6ae f692 a1bf
00000100: eee5 3257 a056 bcbf 115e e8df d319 b73f
00000110: 5f09 5076 393e c03f f7c0 1542 10ca bcbf
00000120: c0a1 12e1 0b5f 793f 1f85 6845 b291 c63f
00000130: b0db 80bd 0c91 dabf 90b0 71e5 50bd e43f
00000140: cd59 772e 71db d2bf 3ac9 a9fc 6e4e 983f
00000150: 15c2 e179 d0de af3f c147 985c 59ac c43f
00000160: 3f62 b037 bf73 d63f cd40 c1c4 7b4b c2bf
00000170: 62b4 b687 08dd b63f 6da3 2c85 b8b6 b6bf
00000180: 893b 4d8d a670 df3f 4d28 7c2a 1e82 d23f
00000190: 1837 3735 4c92 b13f 8194 baa2 5676 dd3f
000001a0: 839f 90fa d75b e2bf 1352 4d12 fce2 bdbf
