Trained_models/10/predictor4_200_6.pt (torch, 350231 bytes, 16 tensors)

weight f8 [103, 200]
0	0x3fafc74db4bfa2a4	0.06206744033244618
1	0x3fb0c3cb5dabd104	0.06548758541959293
2	0xbfb9b7a3c36d2769	-0.10045836945678634
3	0x3fb3d9f883b413a5	0.07754471984305995
4	0xbfa771c157e1043c	-0.04578975866071075
5	0x3f7ca7fb02964873	0.006996136196351188
6	0x3fa69d1d012d4a00	0.044167429345765896
7	0xbfa1468f6060c490	-0.03374145556916475
8	0xbf8eff4b28d3cf90	-0.015135371383145274
9	0x3fa83d2b85640343	0.04734169009498725
10	0xbfb221242c6a3349	-0.07081819614741137
11	0x3fa618beb3a47a37	0.04315753882314193
12	0xbf8f1550ff166d5f	-0.015177376541763264
13	0xbfb420bad23765c6	-0.07862441665874717
14	0x3fb0e1f053d01fa6	0.06594755216803935
15	0xbfb3bdd4b8c0cbdb	-0.07711534033369054
16	0x3f6cc606b8f6b242	0.0035123950289828463
17	0xbf1518cf1035256e	-8.047832311776856e-05
18	0xbf9c3f0df242a4f0	-0.027584283744236993
19	0xbf937cf26b346170	-0.019031322282076102
20	0x3fae0b1a1de4f56b	0.05867845168038851
21	0xbfb418f299e5b1ae	-0.07850567109352966
22	0x3fb15e61f687d428	0.06784641522229207
23	0x3f94b46dcaf502d7	0.020219531548039207
24	0xbf99b4d05833c12c	-0.02510381258338261
25	0x3fab32488351df12	0.05311800578141236
26	0xbf5ce2444c4b2862	-0.0017629305813664721
27	0xbfb358f19c8387a1	-0.07557592459809694
28	0x3fac9748d556da26	0.055841709177389995
29	0xbf96e183f745f527	-0.022344648330080787
30	0xbf8ad9c015d085b5	-0.013110638299681602
31	0x3fb32166b79c1b66	0.07472841246281589
32	0xbfb7e08a793403aa	-0.09326997241079363
33	0x3fb073b927ce19c2	0.06426579686931347
34	0xbfad8c6dd2b79994	-0.05771201321822442
35	0x3f8fb86db535b67e	0.015488488285622323
36	0x3f6e846fafc33b1e	0.0037252599123357563
37	0xbf923ac0009e8056	-0.017802238500394495
38	0xbf90652ef8673884	-0.016010984336212633
39	0x3fb0ec6fd65a46dc	0.06610774024218408
40	0xbfbcde30ab1b7936	-0.11276535203385127
41	0x3fbe4b68cfcba4a2	0.1183381564438997
42	0xbfb8c0a033cc131c	-0.0966892363031317
43	0x3faaee24ae592ed6	0.052598139078865166
44	0x3f931aafcedecd0d	0.0186564893735524
45	0xbf6bb222cd1cfbc6	-0.0033808402739903013
46	0xbfa75ca0864675e6	-0.0456285633001519
47	0x3fb6e5c2d6398315	0.08944337587446356
48	0xbfc366350d8965a6	-0.15155661736461673
49	0x3fc22d0580c5382c	0.14199894702545757
50	0xbfbfa5a2396f4e62	-0.12362111952034519
51	0x3fad6edcc125e9b6	0.05748643739476071
52	0xbf91f1af1658959c	-0.01752351354493485
53	0xbf75b414c7df6e91	-0.005298691916290858
54	0x3fa305cd4c5af82f	0.03715364033767831
55	0x3f90b81ae85d77ab	0.01632730525249541
56	0xbfa22008aca7ea6d	-0.03540064914337369
57	0x3f9e8d1d666a6bd6	0.029835185409506547
58	0x3f79a83f0c6352ef	0.006263967783713949
59	0xbfb5435d7eaca6f0	-0.08305916159283888
60	0x3fc08cfe60daab78	0.12930278519828753
61	0xbfc0ca8777284714	-0.13118069952229716
62	0x3fb8ba29f5f5f8e1	0.09659063582327888
63	0xbfb909f50892bb9e	-0.0978081842356304
64	0x3fb54ef290becce8	0.0832358935720553
65	0xbfb4e92d81659a83	-0.08168301018813832
66	0x3fb8023f06f63c12	0.09378427429167882
67	0xbfb754b97a56a4ba	-0.09113654362467374
68	0x3fb10ceceaf851e7	0.06660347687313327
69	0xbfb179f9d6a086e0	-0.06826745500486764
70	0x3f960b650fc2b41e	0.021527842604587837
71	0xbf90c756005607b5	-0.016385406275283027
72	0x3f98b2d3285a63c5	0.024119662607151832
73	0x3f79775b7a6a12b2	0.006217343651432715
74	0xbf9abd6afb821d1c	-0.026113196945996994
75	0x3fb161e9adc54e56	0.06790028088044528
76	0xbfb39acbb1531ba3	-0.07658074454512458
77	0x3fadcdf25bcb896b	0.058211873727276174
78	0xbfb4cc32b8a525e5	-0.08124081619202846
79	0x3fb18f76afd93b86	0.06859533112695546
80	0xbf90eacc06a32f5d	-0.016520679383389737
81	0x3f6b7827d381a37a	0.0033531930785568017
82	0xbf8e6b71cecf91c7	-0.014853371738305378
83	0x3f78b2d1070f1eb9	0.006029907716715571
84	0xbfb0b30e73ba0ddd	-0.06523218465195364
85	0x3f8af41c68bcffc4	0.01316091723094804
86	0x3fa3ba100845edab	0.03852892018309303
87	0xbfb1502709e9f237	-0.06762928001439482
88	0x3fbd77b1e0fa95b2	0.11510764830253242
89	0xbfc5e9eef4914098	-0.17120158139960462
90	0x3fc26ae00263e731	0.14388656727515461
91	0xbfc3028d691c4a3d	-0.14851539261197103
92	0x3fb5d93035a24c70	0.08534528073714553
93	0xbf9a829e60555daa	-0.02588889563534528
94	0xbf79f43682fd3278	-0.006336415230020813
95	0x3fa09cb64c43c8a5	0.03244561844793851
96	0xbf8755c36fceafe9	-0.011394049501028252
97	0x3f82ebe78aab2b01	0.009239014548616977
98	0xbf90874dfcae0f9a	-0.016141146228178728
99	0x3fa2e993bba1dbcb	0.03693830171044218
100	0xbfa9517d43b462aa	-0.04944983912918606
101	0x3fb1098f7ac41103	0.0665521311494253
102	0xbfba07a59e802edb	-0.10167918319364892
103	0x3fbd96a38799b84a	0.1155798154884177
104	0xbfbd2f42288e4ee8	-0.114002356435147
105	0x3fab55f72ed5c331	0.05339024016109873
106	0x3fa2c8e658e8dce4	0.03668899379084126
107	0xbfba81b0ad00e2c2	-0.10354141448704993
108	0x3fb87711e4034af5	0.09556686226578022
109	0xbfaaf5e7d68ea178	-0.05265736097436763
110	0x3f9e9f72c45ba804	0.029905122027152245
111	0x3f4b122db7bd3d10	0.0008261416655645244
112	0xbf7a45af1d35a839	-0.006414112128689858
113	0xbfa4bba0759917a2	-0.04049397883913676
114	0x3fb621ae7a4071f8	0.0864514397112045
115	0xbfc466f2914ac59a	-0.1593917092737172
116	0x3fc094a978fe9f9e	0.12953680427494602
117	0xbfb2beefe1f6cfc0	-0.07322596804334491
118	0xbfba68d63c7af382	-0.10316218353814402
119	0x3fc7879b5539a30b	0.18382589017280568
120	0xbfc86f773d0c9496	-0.1909016655055537
121	0x3fba5105dc8e8ec0	0.10279881128968338
122	0xbf82e1c50c8dc25c	-0.009219684072122529
123	0xbf9d2625fa7c2161	-0.028465836919197133
124	0x3fa1692339ad44c9	0.03400526122153164
125	0x3f9afba26f5f3444	0.02635053448448256
126	0xbfba06b93738a7f3	-0.10166509245087223
127	0x3fc57075d6496bc4	0.16749451602194487
128	0xbfc32b2ad907302c	-0.1497548637111107
129	0x3fa1ded4347467eb	0.034903174784815715
130	0x3fbc4bb0534a8380	0.11052991898988118
131	0xbfc7ce770cd5941e	-0.18598831297563917
132	0x3fcc6adb6f331c10	0.22201102189703237
133	0xbfc5dd6808482ac2	-0.17081928638829963
134	0x3fc238e7a8e92763	0.1423616003760869
135	0xbfb1c51034f79419	-0.06941319745199372
136	0x3fa90c8fedb3ba44	0.04892396713863836
137	0xbfb48ad1f1d40159	-0.08024322656638584
138	0x3fc987f91673e4c2	0.19946206661533067
139	0xbfcf45cbb876a267	-0.24431749827387536
140	0x3fcaea48f7897cf0	0.2102748116185249
141	0xbfc0a0fbc59648e6	-0.12991282604031723
142	0x3f7ccf6b8fc59107	0.007033748781712263
143	0x3fc3c6f7a6f6df3c	0.1545095029121003
144	0xbfc7edd016535799	-0.18694497194399842
145	0x3fc749d8b9a5f276	0.18194111885886216
146	0xbfb39680a2898bf7	-0.07651523559756855
147	0x3f820f7d6d149405	0.008818607226723793
148	0x3fa1508576c57a5f	0.03381745409818814
149	0xbf91485e8102a294	-0.016877628921664625
150	0xbf84b3e162080603	-0.010108719638995295
151	0x3fabca967aed067c	0.05427999735412656
152	0xbfb3aecac4184e3c	-0.0768858650920316
153	0x3f96dd86a6ad94e8	0.022329429553242713
154	0x3fa24df1e7013388	0.03575092263108731
155	0xbfb21fb3a404eba9	-0.07079622988105307
156	0x3fc136082d84f61a	0.1344614240896796
157	0xbfc0f422895dc522	-0.13245040614450782
158	0x3fc0bcd2930bfbab	0.130762407112312
159	0xbfa3c8448f32ddda	-0.03863729713469484
160	0xbfb03bbe09960b44	-0.06341159566913485
161	0x3fba64140bb15efc	0.1030895737216006
162	0xbfb0c8380210e54a	-0.06555509615363522
163	0x3f91f8f04ce30f83	0.017551188175971354
164	0x3f9587afd7d45ba9	0.021025416897000025
165	0xbfa316788861fdec	-0.03728081383541934
166	0xbfb2515e87e4808a	-0.07155409639062973
167	0x3fc789ac04e6cbcb	0.18388891448338848
168	0xbfcb7544d0aacdb3	-0.214516260040552
169	0x3fcd8244151d7964	0.2305379012204397
170	0xbfc4ef7deff4fb24	-0.1635587140717344
171	0x3fbe64384a65fe18	0.11871673408858674
172	0xbfa25db7af4ca0db	-0.03587125792393105
173	0xbf9707d6c5071f12	-0.02249084069788327
174	0x3f973da9159bd379	0.02269615358723651
175	0x3f91d6ce9383b397	0.017420985940521296
176	0xbfb617511cd1e7e5	-0.08629328683483058
177	0x3fb3a027370b7ea6	0.07666249364728603
178	0xbfa813324bff1eda	-0.04702145745937765
179	0xbfb4b20d76a752ef	-0.08084186693970329
180	0x3fc34786d05b0c01	0.1506203191148359
181	0xbfcad082b3ca72be	-0.20948823717926318
182	0x3fcdccad4cd16561	0.23280874491573925
183	0xbfc7272c37c9022f	-0.18088295673261842
184	0x3fc285993194f546	0.14470210000028255
185	0xbfa9e910156fd74a	-0.0506062532585206
186	0x3fa1fa178096a3f9	0.03511117405589199
187	0xbf87fb5f07678392	-0.011709921277487632
188	0x3fb07792f4938573	0.06432455512142159
189	0xbfbb3af88e58c882	-0.10636857486022858
190	0x3fbb6b0610df7408	0.107101801986076
191	0xbf9796e03a9d4032	-0.02303648336175019
192	0xbf95ac05721fdee3	-0.02116402157841336
193	0x3fa86033e80aedfc	0.047608968806766655
194	0xbfb44fd14164c29d	-0.07934291693232827
195	0x3fb7f9be1b9ac3ad	0.09365451978625457
196	0xbfbf7d70cb069d0b	-0.1230078216236629
197	0x3fb3285eeb8953cc	0.07483475923920863
198	0xbfa2cb3ea194537e	-0.03670688364414952
199	0x3fada4e03009ee75	0.0578985270157916
200	0xbfbff9def3556708	-0.12490647736322213
201	0x3fb134078524767b	0.06720015526340177
202	0x3f92e9134a283b67	0.018467236901467923
203	0xbfb1f94a12089cc1	-0.07021010341906032
204	0x3fa891217bcd0df7	0.04798226009600264
205	0xbfaebd162900f6fe	-0.06003636599096572
206	0x3f8921b7a00a21e2	0.012271341868896838
207	0x3fa9fd596179118c	0.05076102557044057
208	0xbfbc9e27b7c8969d	-0.11178825604346306
209	0x3fbc9f4dbdb89fd6	0.11180578119149173
210	0xbfb8531666d361a5	-0.0950178147353485
211	0x3fb2dc70438179f9	0.07367612503137612
212	0xbf48cef6e977adbf	-0.000757093965999038
213	0x3f97c391edaf4c44	0.02320697797024375
214	0x3f845b737f2fedd3	0.009940054243989948
215	0x3f9c621cd5e9526c	0.027718020015827724
216	0xbfb8d8f9837b969f	-0.09706077060726635
217	0x3fbdaae7bed8a383	0.11588905724842218
218	0xbfbe5b86f6ef9bce	-0.1185840943213485
219	0x3faff84aaf898256	0.06244119065081992
220	0x3f703fbaa777a9a2	0.003967026822900984
221	0xbfb41bd1cb0f2233	-0.07854949195383014
222	0x3fbf909337012264	0.12329979031449906
223	0xbfc7422f5e3b619e	-0.18170730687303388
224	0x3fc0f6ec0078d2f2	0.13253545783086157
225	0xbfb0838cc3b1b367	-0.0645072915810495
226	0x3f5b3205a5d146cc	0.001659875407558453
227	0x3f97efc818bb26e6	0.023375631818260433
228	0xbfad106dd7357886	-0.056765968819250154
229	0x3fabc746e215208d	0.05425473699375614
230	0xbfac111cfe980f8a	-0.05481806381069905
231	0x3f71bfd794ac3241	0.0043333455203194435
232	0x3f92eadda0b9b1d1	0.0184740666722279
233	0xbf8fc80cc3561230	-0.015518283568561747
234	0xbf9c7bdbb4cdd246	-0.027816231642150656
235	0x3fa89e40620e0f07	0.04808236309966501
236	0xbfb209b2722d5a68	-0.07046046531227435
237	0x3fae053d369e8adb	0.058633721272846016
238	0xbfa839ae82dbe1f4	-0.04731507632635959
239	0xbfa7c2b1435fa105	-0.04640726039343871
240	0x3fb1b8507d3ac45b	0.06921866471636078
241	0xbfc12aac4c774ee9	-0.134114777886331
242	0x3fb74e546e6f500e	0.09103896804964526
243	0xbfb0327cab6827f6	-0.06327037033784663
244	0x3faa6ad0390b11d0	0.05159617134407635
245	0xbf72f83d5858675f	-0.00463127100877067
246	0xbf8f1f0557db76a2	-0.015195886367503523
247	0xbf898f1ff038c406	-0.012480020063863517
248	0xbf66d684d0881e58	-0.0027878374132830723
249	0x3f87c25106d15dcc	0.011601098080219162
250	0x3f8e54c83637de14	0.014810146479233878
251	0xbf9fd25b2be36bdc	-0.031075882486088932
252	0x3fabcbbf235c7234	0.054288838449995686
253	0xbfbb41f8b533aa46	-0.10647539543030246
254	0x3fa5bda46cc9f951	0.04246248081197968
255	0xbfa67a1967e62cbd	-0.0439002932863217

bias f8 [103]
0	0xbfcc2cd39d6d77d1	-0.22011799990553851
1	0xbfd123c0daab0cc7	-0.2678072104865347
2	0xbfd4cf23f207c4a7	-0.32514284740234206
3	0xbfc96f8b2ee2cabb	-0.19871654309607387
4	0xbfd0dead04ba9b68	-0.2635910555058474
5	0xbfd050e0cde90ac5	-0.25493641003064865
6	0xbfd33df0545d81d7	-0.3006554435615078
7	0xbfce8a6cbd679b64	-0.2385993885829648
8	0xbfcae31cbcf0f79a	-0.2100559160771212
9	0xbfc7da06b0b2ea58	-0.1863411295688191
10	0xbfd20dd2b128c754	-0.2820936899253088
11	0xbfd7d9f62283b4fd	-0.37267831202082374
12	0x3fca3c95fd8a96f0	0.20497393493604177
13	0xbfd12ebceec35282	-0.2684776622457222
14	0xbfd1538a17403554	-0.2707238413866737
15	0xbfd1f3c8872782f5	-0.28050435255686007
16	0xbfa9f80873d11268	-0.050720466745166004
17	0xbfbfb46cf0c44d9c	-0.1238468253907769
18	0xbfe1c7f4c2fd7462	-0.5556587036513856
19	0x40018e01cfd5ad03	2.1943393933376014
20	0xbfe039ae5657a5f1	-0.5070411383032348
21	0xbfd2286ad27cc727	-0.28371687465106493
22	0xbfc7777d5d3a435a	-0.18333403637054851
23	0xbfc8b360a8867ace	-0.1929741690518853
24	0xbfd2713cd5d947d4	-0.2881614769331666
25	0xbfe1c8180e04d4ae	-0.5556755327039775
26	0xbfdf50fbc1b95974	-0.4893178359829087
27	0xbfcf6b14f17ef4a3	-0.24545537750046717
28	0xbfcf08d5fc204df9	-0.2424571496090804
29	0xbfd223f45792d66c	-0.2834444861613068
30	0xbfeb5d6a6ebd55d7	-0.8551532900698317
31	0xbfd62fff1c90eb8f	-0.3466794756856694
32	0xbfbed0945fdeffc6	-0.12037017193415442
33	0xbfd4b95bed60f241	-0.323813421073087
34	0xbfc8cd789201d765	-0.1937704766202685
35	0x3ff1b0b8399fa032	1.1056444407386263
36	0x3fc13af8681bba85	0.1346121319142705
37	0xbfc40dae6298bf70	-0.15666751684465963
38	0xbfec51894471e6fb	-0.884953149491792
39	0xbf9614787c090291	-0.021562464304454357
40	0xbfd0281a2a2d79fc	-0.2524476444140473
41	0xbfd329768480ee40	-0.29940569820221086
42	0xbfd30e345be476ff	-0.2977419755351178
43	0xbfdc8233a3a15fe5	-0.4454468820526912
44	0x3ff08961e9f7417a	1.033540643624376
45	0xbfd19201021bc70e	-0.2745363731947784
46	0xbfc23b49990cbdc6	-0.14243431065686546
47	0xbfd165b4abf10382	-0.2718326262584513
48	0xbfc5accad4e1d1a0	-0.16933570284494426
49	0xbfcd6c3eebfa126d	-0.22986589929873294
50	0x3fc825e0786f048b	0.18865590935277896
51	0xbfc90dfbc9a0574c	-0.19573924393687958
52	0xbfe00eb5664d5523	-0.5017954824531085
53	0xbfca7899fccaa80c	-0.20680546611157558
54	0xbfcdcf48b90ca10b	-0.23288830791103296
55	0xbfd1cafb3f88e5a4	-0.2780140037972052
56	0x3fd01534360e7800	0.2512941863914193
57	0xbfd30b4814c8f6a4	-0.29756357221399754
58	0x3fb73b2a3357cd7f	0.090746533903987
59	0xbfcb51383f6864eb	-0.2134161290748929
60	0xbfd09e3d12fd0c68	-0.2596581159052165
61	0xbfc9f04da4c98fe4	-0.2026459746003858
62	0xbfbf5db597f0484e	-0.12252364119947964
63	0xbfd267e356154994	-0.28759082228239063
64	0xbfbebf8d944f7615	-0.12011036749705568
65	0xbfccc1d814709028	-0.22466565130264482
66	0x3fe03d870d5c44a1	0.507510686964583
67	0xbfc1fe8c5a3fdfc1	-0.14058069616998917
68	0x3faa45ad586b1df1	0.051312844317688795
69	0xbfc548179de8abe1	-0.1662625809707086
70	0x3fb1142f547458ed	0.06671424686314582
71	0xbfce27e4fdc92525	-0.23559248344307906
72	0xbff07cec5aef54f1	-1.0304988433975348
73	0x3fdf00423dd74cd6	0.4843907932201551
74	0xbfd1c75b8ddf8daa	-0.2777928243142137
75	0xbfdad8cff2b3ee95	-0.41948317243052574
76	0xbfcbd31895efa055	-0.21737963982673372
77	0xbfd8f9959731788b	-0.3902334190842189
78	0xbfce2b5329b3be4d	-0.23569716964947177
79	0xbfbf7090c8f16b0f	-0.12281136422954496
80	0xbfd02412ae0371b2	-0.25220171922208146
81	0xbfca61730d26c52e	-0.20609892027054272
82	0xbfd09edaa7a92cb1	-0.2596956860840676
83	0x3fc14626ffffd454	0.13495337963073217
84	0xbfd996a1d4278fd6	-0.3998188564130464
85	0x3ff32839d212ef3e	1.1973207670225317
86	0xbfd08a4bf7339c85	-0.25844096318036974
87	0xbfc76c30004625bf	-0.1829891206109959
88	0xbfd1fb9175a5942b	-0.28097950447983305
89	0xbfd4e191c87d38fd	-0.32626766757029185
90	0xbfd1ad59637c6b47	-0.2762053939383588
91	0xbfc2ae4446a43410	-0.14594319772041375
92	0xbfd48bbd10e29cf4	-0.32102896355577504
93	0xbfcd69e20f2625ee	-0.2297937940568739
94	0xbfcd81005bba987b	-0.2304993102927176
95	0xbfccb72cdfde412f	-0.2243400662523611
96	0xbfc369b497f8f8f4	-0.15166337414297681
97	0xbfd24c6a975126ee	-0.28591408516932304
98	0xbfcca5c519a83400	-0.2238088965681584
99	0xbfdef2298210f1ef	-0.4835304041078236
100	0xbfcf9ba41645e520	-0.24693728530454795
101	0xbfcf16504a45b87d	-0.24286845804767046
102	0xbfd2f20e9645edd6	-0.296023985625394

weight f8 [6, 103]
0	0x3fd5d8fade4e89f3	0.3413684054341097
1	0x3fd3f80b81baa1d5	0.31201446217394607
2	0x3f9a615457f7d33b	0.025761907452721316
3	0x3fd9385b4c4867bd	0.3940647358846226
4	0x3fd4489603bed2d9	0.31693029752504526
5	0x3fd1e49a720189c3	0.27957783826255084
6	0x3fd46b8b67bf0882	0.31906399852244516
7	0x3fd2fb59655783d9	0.2965911378542479
8	0x3fd45a3ed95daa7d	0.3180081484521578
9	0x3fcd0b12356a85ad	0.22690036400039784
10	0x3fd3e22e62dd9335	0.31068000464283624
11	0x3fd7199f844abb7f	0.3609389106667819
12	0x3fcfe091b9e92508	0.24904080941841067
13	0x3fbc8eb082621a5f	0.11155226882156331
14	0x3fbed69fd17d1847	0.1204624067732719
15	0x3fc114021a7f85ca	0.13342310232023485
16	0x3fda1363f1aaa355	0.407433496477599
17	0xbfb51b6bf812f788	-0.0824496727609284
18	0x3fd91ce89d7b8199	0.39238944415230886
19	0xbfcfd9d7bd9d4165	-0.2488355327464077
20	0x3fb22987230c3a37	0.07094616513880046
21	0x3fb34d08da55f28a	0.07539420443021974
22	0x3f97e4f6e22f59de	0.023334367327913934
23	0x3fc76454d69b2ac6	0.18274937132658503
24	0x3fa03e2b013a86dc	0.0317243041038304
25	0x3fb71bef6442d6bf	0.09027000615864277
26	0x3f91632c492d764a	0.016979877439885528
27	0x3fcc39f6e3759520	0.22051893335734807
28	0x3fd1f9281c5fdc5d	0.2808323170751857
29	0x3fc424946a0b02c6	0.15736632516747856
30	0xbf99eeb348ad1b6f	-0.025324631987384046
31	0xbfc03cf877f4d3fb	-0.1268606744503414
32	0x3fd51aa08a1e6efc	0.3297501896683881
33	0x3fd2e5d04125c93d	0.29527670251913546
34	0x3fd40a2510954a52	0.31311918849420295
35	0xbfc7707c4f742a02	-0.18312028770044725
36	0xbf75ea66bc1471f5	-0.0053504956315717405
37	0x3fd4f55393b7623e	0.3274735395948801
38	0x3fe3f4be63957402	0.6236259407993432
39	0x3f824a4290a07461	0.008930702246340684
40	0x3fb2b32478330435	0.07304599699547583
41	0x3fbddbc1b401ee90	0.11663447041240205
42	0x3fd4afc0751019ab	0.32322703773425115
43	0x3fa68037ec9d8e6e	0.043946979173395614
44	0xbfb443c22468ff3a	-0.0791589106456713
45	0x3fcb1c8fb1af8670	0.211809121857232
46	0x3fd355c72c13da80	0.30211047462891116
47	0x3fb8366e6fedab57	0.0945805571806607
48	0x3fc0574cac897dd5	0.12766416954671791
49	0x3fcb0575644bed3e	0.21110408208174108
50	0x3f962b70cae1fdda	0.021650087721807633
51	0x3fd367ad59938402	0.30320295093230254
52	0xbfab1f60c848d343	-0.05297377056959942
53	0x3fd4a73ab1377e9f	0.3227068644173218
54	0x3f893e8ed61dae43	0.012326351079273162
55	0x3fc1ec4fe6d45a3e	0.14002417345973756
56	0x3fd1dd053bf3a2a4	0.2791150174585175
57	0x3fa6689347b68c3e	0.04376659632114198
58	0x3fc866ec74631676	0.19064098055803286
59	0xbfc062441d9de1fb	-0.1279988426793038
60	0x3fb57c7a0d7aae06	0.08393061474878757
61	0x3fb62d60b21251a2	0.08662990901422643
62	0xbfc97022c4efb267	-0.19873461357146313
63	0x3fc543c7a4caf6c1	0.16613097712063588
64	0x3fd8c3b98bd060b5	0.38694609311779554
65	0x3fd04d056e718fc2	0.25470100198276324
66	0x3fb07b77a8188b7a	0.0643839631452873
67	0x3fd392947993816e	0.30582153198886075
68	0xbfc90b4c573a25c4	-0.19565729388368258
69	0x3fd910e40b78c3fd	0.3916559326199261
70	0x3fcb07eb6d01ab36	0.21117918799003527
71	0x3fb3cff31def8549	0.07739181023454934
72	0x3fe6ec65b8b6c13b	0.7163570983594022
73	0x3fcb24932e3efe13	0.21205367811306583
74	0x3fa5e86d79855f4c	0.04278890713129488
75	0x3fd26ec66cb8926e	0.28801117532046916
76	0x3fd4ec5e899052cf	0.326926836337674
77	0xbfb4955d164807c7	-0.08040410799006202
78	0x3fd3ab48ae3f57b8	0.3073293401370125
79	0x3fd3fe06d4b5112b	0.31237955829807856
80	0x3fa618672822b853	0.04315492978035764
81	0x3fbab0c8269b7f65	0.10425997679294381
82	0x3fd4390fc346a2c5	0.3159827620498102
83	0x3fb8bdc03503bd33	0.09664536756803414
84	0x3fd9b4d35c44236e	0.40166172037475334
85	0xbfb86cb2f2d7d567	-0.0954086153868353
86	0x3fd67fb0658e33a8	0.351543521094579
87	0x3fd2eb2ae3939cb0	0.29560348724630625
88	0x3fd3d58115bd2654	0.30990626452385084
89	0xbf9eefea9f6c50ac	-0.03021208379784983
90	0x3fda277ae5b3e954	0.408659672087784
91	0xbf978d45001b2fda	-0.02299983800075709
92	0x3fb02a37cd266a39	0.06314419516130777
93	0x3fd76b8c0682c901	0.36593914638355335
94	0x3fd3e743466010c7	0.3109901606806144
95	0x3fadd0181518328c	0.05822825677396279
96	0x3fc7e7c9675cd515	0.18676106974604836
97	0x3fdd6786f8309244	0.45944380032804966
98	0x3fb2353fa08c28b3	0.07112500829331019
99	0x3fdb8547dafcb501	0.43000980744803036
100	0x3fd599aa1564ae38	0.337503929988745
101	0x3fb3b5dabb214077	0.07699362820244625
102	0x3fb9ba4b2fcb3b18	0.10049886624186077
103	0x3fd1cf1333f17d63	0.278263855672739
104	0x3fd4eeb70933de4f	0.32707000635807487
105	0x3fc11ce67e12a6c0	0.13369446903134552
106	0x3fd5086b529e5316	0.32863886898239636
107	0x3fd0a09939d0ec02	0.25980215688804276
108	0x3fcc0287c4a1cc4b	0.21882721997426055
109	0x3fd9b8afe1e28787	0.40189740237303123
110	0x3fcf747ac633756c	0.24574217489036287
111	0x3fd083fa9f6eba94	0.25805535859664386
112	0x3fca54ea9973af1f	0.20571644299285993
113	0x3fd0f179334dc4b9	0.26473836908469256
114	0x3fd3aac36a0102ad	0.3072975669092937
115	0xbfba67eebcb28941	-0.10314838511343273
116	0x3fc2fc7fd892e7b2	0.14833067011732975
117	0x3fc45a154b2cc434	0.15899912043235676
118	0x3fc369dac60cbcc8	0.1516679255523512
119	0xbfabd30a37eefe46	-0.05434448178084188
120	0x3fcfb214f4755b49	0.2476221269268655
121	0x3fd68ec40975505f	0.35246373103769274
122	0xbfe2465c9a592eba	-0.571089078389796
123	0x3fba42a5c0910ae8	0.102579459679912
124	0x3fc2cf7d0a499385	0.14695704462351614
125	0x3fbc8e78846b9501	0.11154893143573831
126	0x3fc8dd3ab8d765b1	0.1942513849779011
127	0x3fc16efcba1f908e	0.13619956100513203
128	0x3fc52b535895a5fe	0.16538469148080986
129	0x3fb543de9317e504	0.08306685534616426
130	0x3fcc0349d09c9d9a	0.21885035215494214
131	0x3fd003d64a62df33	0.25023419632224203
132	0x3fc7a15f60571a11	0.1846121998225532
133	0x3fc4ac25be239f04	0.16150352272165247
134	0x3fd22e94776fc488	0.28409301437120194
135	0x3fd1d74cb1e1ac3b	0.2787658440708502
136	0x3fd2536cf7381437	0.286341897415983
137	0x3fd119adceadcb7e	0.2671923178051471
138	0xbfbff12912f6602a	-0.12477356636952722
139	0x3fd1e5bb152336d0	0.27964665474142425
140	0x3fd1ce4d45da47c2	0.2782166654734476
141	0x3fe0c08787656de2	0.5235021252114473
142	0x3fadf1941f81f0e6	0.058483723493709935
143	0x3fbeef21142f9fb9	0.12083632223914166
144	0x3fc37d2646b15c6d	0.1522567601375359
145	0x3fd2b8791c0bc92d	0.29250934351798
146	0x3f90504891df3100	0.01593125715571464
147	0x3fc276e9982aeab8	0.14425392084179633
148	0x3fc9ef5596235075	0.20261640387491622
149	0x3fcec3f260211910	0.2403548211461346
150	0x3fc4e1f6ceeabf1b	0.16314587691658108
151	0xbfb41c017e8710c9	-0.0785523351578973
152	0x3fda33912b696288	0.4093974040929784
153	0x3fbb3f29aef06f68	0.10643253823257981
154	0x3fd409775ad70541	0.3130777728184349
155	0x3fc0b2b111b761f5	0.13045323720031346
156	0x3fcf61c112fc3b52	0.2451707213117183
157	0x3f6f0921799f4aa5	0.003788533574131963
158	0x3fa49d9dc6448f1a	0.04026501698743186
159	0xbf9f3dd903c28b56	-0.03050936780403942
160	0x3f91029bfa4b8c28	0.016611516143609034
161	0xbfaaba913228328a	-0.05220464455860448
162	0x3fb48fe995841796	0.08032092953007317
163	0x3fc30081dd0304ec	0.14845298091498849
164	0x3fbc826db75edca6	0.11136518217868971
165	0x3fc49237d350f40e	0.16071222131896018
166	0x3fc61fdd98adeec8	0.1728474612717632
167	0x3fcef18ab9524b74	0.24174627350711442
168	0x3fce4150663e5691	0.2363682269321328
169	0x3fcfab4fa5453b8e	0.24741550035329535
170	0x3fd0ddf0deba388e	0.2635461974213137
171	0x3fd56fc1165483cd	0.33494593792607646
172	0x3fd3050969f95a99	0.29718242024447644
173	0xbfae07670a005195	-0.05865022656522282
174	0x3fbaae1783ec5f42	0.10421893091949833
175	0x3fdccac315d2af5f	0.4498756135096666
176	0x3fc0ea45dc94dc72	0.132149441438489
177	0x3fbe3972876f4384	0.11806407743939756
178	0xbfd37dbc88c6a1c0	-0.30454934460660965
179	0x3fd041aecd38fc1a	0.25400896111745086
180	0x3fc6955bad03d152	0.1764330477523211
181	0x3fd22d7c8b8cbdf3	0.28402627590091284
182	0x3fd17965b3bc61e3	0.2730345015748112
183	0x3fc1b985696cb8c9	0.13847415588083425
184	0x3fc65a7b8738ae7f	0.1746363077412418
185	0x3fd2c28cc71898d1	0.2931243843362497
186	0x3fb5c1fd2168b7a8	0.08499128404284184
187	0x3fd4159bed001321	0.31381891388473276
188	0xbfb1af47d9e3d920	-0.0690808207471929
189	0x3fd21f021a538853	0.28314259119918467
190	0x3fd14bb963444c71	0.27024683660528753
191	0x3fd0f585797ae808	0.2649854360894328
192	0x3fc312d3e46f276c	0.14901207593930665
193	0xbfd024dede0f23f7	-0.2522504013582529
194	0xbfc5186ac0dfc880	-0.16480764787371882
195	0x3f72f32f9588d25e	0.004626451373543531
196	0x3fd36649a67c0476	0.30311814554449457
197	0x3fd1481985ff4872	0.27002561650909407
198	0x3fb387acf99a3db1	0.07628899663745049
199	0x3fd40cb2d8fcb7e3	0.31327506246714004
200	0x3fd61e0e57a1f48e	0.34558447416186133
201	0x3fc45acae5dc72fc	0.15902076934516873
202	0x3fd12053a8a671fd	0.2675980708097823
203	0x3fd3b99c4e2d4f96	0.3082037700125907
204	0x3fc26085c994af3a	0.1435706362038845
205	0x3fc05b5064ac8b57	0.12778668323252404
206	0x3fb972926005f0bd	0.09940447658840675
207	0x3fb9bc17e0659a5f	0.10052632549705141
208	0xbf8d5ba3d5f7a1cc	-0.014334945647491625
209	0x3fb8f95d5945567a	0.09755500249351626
210	0x3fa7248e7ac29a0b	0.04520077942406794
211	0x3f7fc722887e9869	0.007758269210091575
212	0x3f6d833cb280b982	0.003602617787712593
213	0x3fb1502c9b968988	0.0676296119550327
214	0x3fb423c64891cb22	0.07867087623325777
215	0xbf812e26a7f3703e	-0.008388807297187491
216	0x3fa48bc2eac5516d	0.04012879482130214
217	0x3fc14267df50c1c6	0.1348390427024368
218	0x3fd5ad66dc158586	0.3387086056955798
219	0xbf81096ad4883010	-0.008318743334733397
220	0x3f712548a94e4d3a	0.0041859472593331285
221	0xbf828b3aa0836565	-0.009054620765186436
222	0x3fb021e701ccae47	0.06301730913099234
223	0xbfdc531de1af10bb	-0.4425730422920073
224	0x3fb91e91787d8d29	0.09812268439923301
225	0x3fd8f07470c7d74e	0.3896761990903216
226	0xbfae4aeec5420cf4	-0.059165441111895506
227	0x3f8c827625be48d3	0.013920710589250629
228	0x3f96546bfb6ff9c6	0.021806418630143452
229	0xbf948d0caa81de8a	-0.020069311053218665
230	0xbf8a22649bd03f8a	-0.012760911946344117
231	0x3fc03f4844508df6	0.12693122230221804
232	0xbf6ea85c105af6e1	-0.003742389499932539
233	0x3fa91000098f05bb	0.04895019642527695
234	0x3fa44a3dfe352844	0.03962892273064303
235	0x3f9454aed087a126	0.019854289510392274
236	0x3fc72ae78474e48c	0.18099683730705285
237	0xbfb2cc837f005c67	-0.0734331307470356
238	0x3fa549933b6a1ed9	0.041576958658934245
239	0x3fa5f4cef200a3f1	0.042883364716835966
240	0x3fb3e48c2ea91136	0.07770610942049391
241	0x3fc242bbc643c45c	0.1426615446175984
242	0x3fb914f8d5588b88	0.09797625740661264
243	0x3fba797a38cce3bc	0.10341609846808714
244	0x3fb21dee280df7be	0.07076920011419838
245	0x3fbec6b3759982b4	0.12021943684659214
246	0xbf914d6e8252086e	-0.016896940902832495
247	0x3fb52a601885458b	0.08267784689566875
248	0x3fb824e1d076a2da	0.09431277598799728
249	0x3fc08c03c3d7e43b	0.12927290976202407
250	0xbfb2f42e02f89d4e	-0.0740383870366845
251	0x3fa095c88ddd882c	0.03239275676493522
252	0x3faa5d816671915b	0.05149464011700174
253	0x3f52c22b1e72900d	0.0011449261744838097
254	0x3fe22c4dc9bf181f	0.5679081859932501
255	0x3fd5c09357fda243	0.33987887947890644

bias f8 [6]
0	0xbff13553e7bce9a7	-1.0755194713843623
1	0xbff49065face511b	-1.2852535054308365
2	0x3fe8a73eb35f3fcd	0.7704156401978196
3	0x3ffd4ad6b425d5d7	1.830771163656541
4	0xbfe4fe51d66f87bf	-0.6560448826023658
5	0xbfb097db292baaa8	-0.06481714015141427

weight f8 [103, 6]
0	0x3f6ea2a50d4354e8	0.0037396644275796594
1	0xbf54e5d0e1cdadf3	-0.0012754955161778908
2	0xbf6d7fa3aceb4631	-0.0036009022509027257
3	0xbf74b43fbe4542da	-0.005054711339042861
4	0xbf473e46a3ed4105	-0.0007093281672983237
5	0xbf648f1f1dad3a5d	-0.002509651921548879
6	0xbf5291052d81867e	-0.001133208328632312
7	0x3f4da4ef9e65be47	0.0009046716702822499
8	0xbf36b0bd08dd8792	-0.0003462277899101081
9	0xbf4ac6cae8aa774e	-0.0008171549573778665
10	0xbf6d96cca4cb5c8c	-0.0036119458148778424
11	0xbf6040dda2c0c7ce	-0.0019840554068872645
12	0x3fc0996350a43a1a	0.1296810287244206
13	0xbfa0b4fc7defb7b5	-0.032630815861792874
14	0x3f929c5b4c80e7ab	0.018174578232197963
15	0xbfc5423d4f870651	-0.16608396895576275
16	0xbfa2f8ff0468c3e7	-0.03705593994926187
17	0xbfc30c2815edf25c	-0.14880848952079162
18	0x3fb05c5262e95653	0.06390871920424361
19	0x3fa3317f32da205e	0.037487006146933
20	0xbfa7ffc1caf3165b	-0.0468731460801279
21	0xbfd4006b0b0ef2d0	-0.31252552108689446
22	0x3fad289523138854	0.0569502454107044
23	0xbfa39d7df41c29b4	-0.03831094364985024
24	0xbf55f81232e76250	-0.0013408830378606358
25	0xbf4d60304d40d65f	-0.0008964763496865472
26	0xbf5ab36da00137b4	-0.001629693084413725
27	0xbf53bd60c4bd55c6	-0.0012048192029018175
28	0xbf60d813c316cd02	-0.002056158635889483
29	0xbf599f625886a03b	-0.0015638790519947449
30	0xbec99ab85e8e4bc4	-3.0522794429248534e-06
31	0xbed1f7b72cb1d39c	-4.28381890592725e-06
32	0xbeeb068c20feef28	-1.288679871424383e-05
33	0x3edd51834d57d8ae	6.990053596825163e-06
34	0xbef52163944ec1c6	-2.0151544294301644e-05
35	0xbed4c6f361761ddd	-4.953658865664937e-06
36	0x3fc5d4b1a0b82d1f	0.1705534014475711
37	0x3f91e1840dd6992b	0.017461837143536812
38	0x3facbfc7ed9c75c5	0.05615067267920496
39	0x3fc962068aeab61e	0.1983040026001825
40	0xbfd416657154a021	-0.313866959261306
41	0xbfbd1dd9ff08c7fd	-0.11373674847052935
42	0x3f9ad05c1a8e5a86	0.02618545448384648
43	0x3fb631c9fba53c08	0.08669721978843381
44	0xbfa88c339e443f02	-0.047944653577472365
45	0x3fbb837eb48295a7	0.10747520358071104
46	0xbfc956bc0cd809f0	-0.19795942904609332
47	0x3fc36937a03904ec	0.15164847682357363
48	0xbf12aecdfdbbb054	-7.126934309170777e-05
49	0x3f11cfa36bd95221	6.794390625348329e-05
50	0xbf0c59c5e2416e02	-5.4074622568758154e-05
51	0x3f08a74dd8d3d0c0	4.702287979255334e-05
52	0xbef100445b161988	-1.621345808680002e-05
53	0x3f065fbe6a0c0d9d	4.267501686252703e-05
54	0xbf6f216ab5fd2161	-0.003800114078249248
55	0xbf6b35d96211a429	-0.0033215757144273894
56	0xbf6f938372dc30ef	-0.0038545195919877854
57	0xbf716c2737593f6d	-0.004253533542922
58	0xbf7667fcbf2c8108	-0.005470263759690626
59	0xbf722a1cffa6f783	-0.004434693599646769
60	0x3fd0024d62c520fd	0.25014052052985375
61	0xbfccc0e84e7a39f4	-0.22463706809908468
62	0x3fbc716f4546bc87	0.1111058754092814
63	0xbfb0c6c9de326098	-0.06553327250219565
64	0xbf96451c7f39e8d1	-0.02174801374938157
65	0xbfca6b1b2b85aa62	-0.20639361977676446
66	0xbf85b28409559515	-0.01059439805494348
67	0xbfb8f465c779237b	-0.09747921104384531
68	0x3faa73f5f502fd0e	0.05166596046319159
69	0xbfb2f509871fc926	-0.07405147122316133
70	0xbf856cdf1471157f	-0.010461561976749632
71	0x3fb26d8ee2eac58f	0.0719842247006197
72	0x3fcab63c8cc5e189	0.2086864173286467
73	0xbfc5e80679b75be7	-0.17114335005928114
74	0xbfcba5905cd06183	-0.2159901097482014
75	0x3fb595ef4c9240ff	0.08431907290855988
76	0xbfc5f8e2e3b32d19	-0.17165790670547024
77	0x3fc42732ca6ed80e	0.15744624027655657
78	0xbf0532e04e72a44e	-4.0433378495415535e-05
79	0xbe74de6e086451ba	-7.774258578938032e-08
80	0x3ee46527d6f6aeb2	9.725160196114846e-06
81	0x3f08ede094f3734d	4.754869098075893e-05
82	0xbee2e5541b80a34b	-9.010226548937557e-06
83	0xbf0ade7d7d9f914d	-5.124874560616614e-05
84	0xbfce8d46c9976135	-0.2386864170391704
85	0x3fd37deaac94b34a	0.3045603452072113
86	0x3fbedc1e3d1a8339	0.12054623595987558
87	0xbfa26bfc19e69560	-0.03598010841532573
88	0xbfda8b56b3c4a9cc	-0.4147545581387504
89	0x3fd1283cf53c2caa	0.2680809397576903
90	0xbf50e10d165489f6	-0.0010302188687282255
91	0xbf1d2414f70e3802	-0.00011116388283324843
92	0xbf42a341df6b6996	-0.0005687781948283007
93	0x3f26c913dd2ba0ba	0.00017383925895520462
94	0xbf4d4b7deabf3ee6	-0.0008940090970046249
95	0xbf48e60e4e1bb782	-0.0007598466729328154
96	0x3fc6809416f575a1	0.17579890366589004
97	0x3fa70fae7e2f1e93	0.045041516211822195
98	0x3f9d5269d6fe7c76	0.028634694812009497
99	0xbfc156d0285bfac0	-0.13546182604473778
100	0xbfc1f8d7d45c2658	-0.1404065882600658
101	0xbfc16208c44c10af	-0.13580426773854046
102	0xbfa7ada00afe0a73	-0.04624652990516589
103	0x3fb20bd2ba264508	0.0704929069963961
104	0x3fca5b8b4f474de4	0.20591870661756595
105	0xbfb64dd43dc4d86a	-0.08712507732420396
106	0xbfd3cb1f122a2d9d	-0.3092725446119518
107	0x3fcad4fff03a9562	0.20962523679660722
108	0x3fcf1a2b4aebc4c7	0.24298611791849664
109	0xbfd1d68de205901a	-0.2787203509562929
110	0x3fcbb0fb323ea0e1	0.21633853867866207
111	0xbfad03108680fb18	-0.05666400567905877
112	0xbfab395a480f3e21	-0.05317194108613089
113	0xbfc4e2228d3f480a	-0.16315109154544444
114	0x3f81bd9abba5ad21	0.008662422992264997
115	0x3fc61c1a6b709ad0	0.17273264165961288
116	0xbfd389a1cdd51c53	-0.30527539349390515
117	0x3fcb9852a10d70af	0.21558602203265795
118	0x3fc35056d13ef0af	0.15088925568659792
119	0xbfd21b2ffbd81629	-0.28290938944005234
120	0xbfc9b315116811a3	-0.20077765798499767
121	0x3fd877b8f8939d92	0.3823072841173253
122	0xbfb3a5521ce45347	-0.07674134450310276
123	0x3fc6c16feba9161e	0.17777823454723402
124	0xbfcacec35bf8f881	-0.20943490973326465
125	0x3f7a860810bc8e4a	0.006475478654269626
126	0xbfb2d7fb04a6f756	-0.07360810149745353
127	0x3fc510ec89177537	0.16457897848059996
128	0x3fd2d33804b829cc	0.29414177380445206
129	0x3fa9dd051b4f52fb	0.05051437338230432
130	0xbfb2d5f593d6bbeb	-0.07357725962968657
131	0xbfd3817f1a8481d6	-0.3047788390122411
132	0x3edc10615ef58d8c	6.690975609433154e-06
133	0x3ee390c3bfecc10e	9.329551173914887e-06
134	0xbeebbc3c999de1d6	-1.3225221483046631e-05
135	0xbecc6cce6ae35a54	-3.3885269977538503e-06
136	0xbeda3240a8c18e1b	-6.245684414183111e-06
137	0xbeeba805067c01fb	-1.3187564220641128e-05
138	0xbf616108efc58e02	-0.0021214651625756096
139	0xbf42ad8906b6d47c	-0.0005700034211516681
140	0xbf5aaaa2aeeda864	-0.0016275967315899859
141	0xbf53d7d2e163a322	-0.001211124360958667
142	0xbf62eacf85066984	-0.0023092320554500296
143	0xbf5947f4522e2797	-0.0015430341670445763
144	0xbfa2c173451e20e8	-0.036632158457963915
145	0xbfcb619b60e02a03	-0.2139162276292411
146	0xbfdeb7f201e89577	-0.47997713266735026
147	0x3f920dc78c1581c9	0.017630689549493348
148	0xbf8a2a69df425b9e	-0.012776209951239011
149	0x3fdb0d7e71c64958	0.4226986037330298
150	0x3fd319743ef1f1d0	0.29842859408361466
151	0xbfc0083adb3aae40	-0.12525115685035537
152	0xbfbe439a38f17549	-0.11821903124060386
153	0x3fd23b7a1e1a6ef6	0.28488018932124193
154	0x3f9dc80ba2a22354	0.029083425332405113
155	0xbfddef3646f094f9	-0.46772534301483365
156	0xbfce99c8be90238a	-0.23906812004886674
157	0x3fd3d34b144a7e40	0.30977131825963866
158	0x3fdc4f52b3910d1b	0.44234149490167035
159	0x3fb644753b447b0f	0.08698208519897953
160	0xbfc327911325417f	-0.1496449798091923
161	0xbfdc85e494f786da	-0.4456721739535233
162	0xbfc387df619cb435	-0.1525840021726325
163	0xbfc543eca755f5f8	-0.16613538904850578
164	0x3fc1bd6f1ead5bc9	0.1385935687819411
165	0xbfd642e80f10fa08	-0.347833647454451
166	0x3fd57545739d663a	0.3352826718379195
167	0xbfc68d457ceb6419	-0.17618626212677738
168	0xbf884702199460c7	-0.011854187398555273
169	0x3fa7b0e254e98ca9	0.04627139364745265
170	0x3f9f9d5d5cc84de7	0.030873736179342883
171	0x3fd064610de6f55c	0.2561266551745882
172	0x3f81105717a8dfbe	0.008331947717223783
173	0x3fb77830b6a96b85	0.09167770823971295
174	0x3fab6e85e921ac58	0.053577599247397856
175	0xbfcd722182193f03	-0.23004549839469499
176	0x3f922460a76ab8dd	0.017716894357982283
177	0xbfadc466e12a6fda	-0.05813905237775403
178	0x3fcbc462562e4485	0.21693066795390706
179	0xbfd1edc423ce2b3d	-0.2801370954190821
180	0xbfd1a40e4b5427e7	-0.2756381736404578
181	0x3fd1b5d5ceda9a56	0.27672333908632163
182	0x3fd9643359759b8e	0.3967407582880974
183	0xbfaadc716733a13b	-0.052463096473561475
184	0x3fb826a3e3553eab	0.09433960247155919
185	0xbfd56ec69e408ad5	-0.33488622144993246
186	0xbef8b4af6a3d5ff4	-2.3561288471668455e-05
187	0x3f031f107871cc68	3.647107137618664e-05
188	0xbf10ecf96b1666cf	-6.456634834819539e-05
189	0x3f124c5d7c7b8eef	6.980248064852498e-05
190	0x3f01ab2f1366366d	3.370034612535937e-05
191	0xbeda7b51c1fe3f6c	-6.313733166410248e-06
192	0xbf45990bd47a3a26	-0.0006591136706946595
193	0xbf44a85698e2ff92	-0.0006304190481145491
194	0xbf50927cf64949b2	-0.0010114879925323503
195	0xbf6295b68fe4aea4	-0.0022686544099509032
196	0xbf641975820ccc1a	-0.0024535460546757483
197	0x3f669bacf4a80d9b	0.0027597787895971677
198	0xbfc4839b4be067da	-0.16026631550704346
199	0x3fcb1908974baf86	0.21170146357996716
200	0x3fa9713ce63c9651	0.04969206152445039
201	0xbfb6866debd0684e	-0.08798872954540224
202	0xbfca9261dcd1be97	-0.20759223253434264
203	0x3fb68d053fdd9400	0.08808930215089106
204	0x3fc515ab0ee717aa	0.1647237608687509
205	0xbfd1dd6020b0ca60	-0.27913668816032633
206	0x3fdfe4514e7adaae	0.4983104006200091
207	0xbfc7f7a4a14f2fb1	-0.18724496723586762
208	0xbfdab46c5d8c7d83	-0.41726216445564307
209	0x3fcdda85314a5cee	0.23323120981942885
210	0x3f9e14d98cb57d32	0.029376410687629924
211	0xbfd0ba5dae1e451f	-0.26137487415060606
212	0xbfd88b54b15de968	-0.38350407906513917
213	0x3f8843ba6059cbe7	0.011847930970565869
214	0x3fd5b4fbd7d61658	0.339171372201553
215	0xbfb1d3fa0bed0772	-0.06964075843009512
216	0xbfb6124050f614d0	-0.08621599175065175
217	0xbfcf154d55d2839c	-0.24283758822005275
218	0x3fd202a1cf2a9f65	0.28141064864256854
219	0xbfce9f42dd141ea7	-0.23923526568272743
220	0x3fa9f97caf882e9c	0.05073156016086708
221	0x3fb4bce726a43c46	0.08100743001362884
222	0xbf53e947911bf285	-0.0012152861494875444
223	0xbf075f80b956a752	-4.458057007224063e-05
224	0xbf48c5cb11ded37e	-0.0007560006667889222
225	0xbf462ef97bfd66e8	-0.0006769865212661015
226	0xbf5de5a64fe017e4	-0.0018247722759965274
227	0xbf581785a912b02a	-0.0014704518583057526
228	0xbf5c192f7111149b	-0.0017149890229728796
229	0xbf2cc7bd3f07ec07	-0.00021957574018913203
230	0x3f4e055f39fe9964	0.0009161677335114801
231	0xbf472e00e02bedfc	-0.0007073883319601011
232	0xbf539295b9e0d5f5	-0.0011946165245836336
233	0x3f519ded2bfcbe80	0.0010752502566439281
234	0xbfd21a345dfc98af	-0.28284939936055314
235	0x3fc4ad9f7de220c4	0.1615485539116489
236	0xbfdbc3321d2f2556	-0.4337888035775753
237	0x3fcc3567a234e84a	0.22037978573081524
238	0x3fd1052f93abb058	0.2659415189834866
239	0xbfcc3e784400292e	-0.22065642662375623
240	0x3fd271209a446543	0.2881547457232793
241	0xbfcd663352236dc0	-0.2296814108911871
242	0xbfbdbdec559d9b88	-0.11617924776292743
243	0x3fadd28bfbb28752	0.058246969675805574
244	0xbfbea32e81dfbf74	-0.1196774546694977
245	0x3fb7a11080595fe6	0.09230139859698702
246	0x3fa23d7d9bd3fccd	0.03562538649748035
247	0x3fd013978d388137	0.2511958006962404
248	0xbfd76499593b5080	-0.3655150767710964
249	0x3fd9b1bd73b272cb	0.4014733915189878
250	0xbf997910a37fe50c	-0.024875888804648347
251	0xbfda079f0824b987	-0.4067151622320115
252	0x3fc1eb09f5e2236a	0.13998531824133958
253	0xbfc4d59508ad1f89	-0.1627680103649676
254	0x3fcfb878fea7acbd	0.24781715807271168
255	0xbfbcbd73de75b0f5	-0.11226581746240412

bias f8 [103]
0	0x3f510255f715a1a7	0.0010381545547152122
1	0xbf2d87b33000c58c	-0.0002252966151004395
2	0x3fc66735281cc355	0.1750246473179923
3	0x3fd1133a54b22d0f	0.2667985751256347
4	0xbf49364efea0e3a5	-0.0007694135395076475
5	0x3ee311bc5c541b98	9.092941477562876e-06
6	0xbfd07577b733194c	-0.25716965571009065
7	0xbfc46549d207e757	-0.15934107547200924
8	0x3ef66f8b7b94c996	2.1396371925061485e-05
9	0xbf654137fae0e754	-0.00259457524864796
10	0x3fc5a17590f3e460	0.16898984506386494
11	0x3f958097466f0da5	0.02099834792512713
12	0x3f83c4ca012344f5	0.009652689132425321
13	0x3ed7c49e7e1b837a	5.666743136707096e-06
14	0x3fcec9df475df612	0.24053565010756067
15	0xbf18bb90215d4cc5	-9.434764100761928e-05
16	0x3ff4dbe7372f548d	1.3036873012218024
17	0x3fbfeb452b06f92e	0.12468368816823691
18	0x3f81d32ab33d988a	0.008703549952496798
19	0x3fc140ec4ebd4d1b	0.13479379505825126
20	0x3fb8c5045badb3c6	0.09675624120946144
21	0x3f4251707fc363a7	0.0005590247451677702
22	0x3ef266104f15fb2c	1.7546354631910153e-05
23	0xbf411f51ba301ad6	-0.0005225323733391806
24	0x3fac79f8a35a11fd	0.05561806673089007
25	0xbfabdd80f301f3c2	-0.05442431417848283
26	0xbfb40c1b4d7511fc	-0.07830973282859327
27	0x3fe55cc0192542b6	0.6675720683216102
28	0xbfe6384f8fa87619	-0.6943738752194718
29	0x3fc301cfb738ef92	0.14849277922064325
30	0x3f917f0f406dcafd	0.0170862563204066
31	0x3f0662b7168862b2	4.269715538302489e-05
32	0x3f4beec7f0239f04	0.0008524395236948206
33	0x3fcfa1fe4c03ba32	0.2471311446347087
34	0xbfb5be56debd539c	-0.08493559778192011
35	0x3fc35de0ae508e5c	0.15130241881807904
36	0xbf7e212a8a629ff1	-0.007355848478404412
37	0xbf390a7a1d147032	-0.0003820942047967373
38	0x3f40c8cc7ffd881c	0.0005122183356258722
39	0x3fb877aab03bf1b1	0.09557596972076145
40	0x3fa87e4536ade8b5	0.04783836643669429
41	0x3fb86c59917e0bdd	0.09540328790721682
42	0x3fbc355b4ec51fd7	0.11018915818306084
43	0xbf8c6c1363d9fb91	-0.013878013119436068
44	0x3f33debb8a3ad490	0.00030319288837727613
45	0xbfcc6b87e28efb84	-0.2220315796129989
46	0x3fbb337459c3d8f2	0.10625388328103094
47	0x3f22e5433d324c91	0.00014416166104478216
48	0x3fd2b06593c6aed0	0.29201640540371177
49	0x3f4490f6fb67458d	0.0006276327101721199
50	0xbff502de40e881ff	-1.313200238750255
51	0x3e80265acfa9ab1c	1.2032555914432626e-07
52	0x3fac9b2f9cb1c618	0.05587147510312834
53	0x3fd2dbae73f25f30	0.2946582920353533
54	0xbff1aca1bcfdcd38	-1.1046464331128174
55	0x3fac949ef2308186	0.05582138735212809
56	0xbf52222845ae25a3	-0.0011067765505877534
57	0xbf1ba0772ccdcc28	-0.00010538794886176593
58	0xbf53f2a84974c86b	-0.001217521994317151
59	0xbfe3fb9e389bdbd7	-0.6244650941506461
60	0x3fb146f89161fa9f	0.067489181035834
61	0xbf35e78a337890c4	-0.0003342354206970039
62	0xbfd6ea3b34c5e12c	-0.3580463424073226
63	0x3fc1e3d4cceec7fd	0.13976535803300286
64	0xbf30c5a4951c64e5	-0.00025592105986189793
65	0xbfbe8f5df6c09986	-0.11937510751940836
66	0x3fb36742115bafe9	0.0757943432215026
67	0xbfa8fc429c9c5f13	-0.048799592607052265
68	0x3f83c4c6cb658978	0.009652665216610443
69	0x3fbacbfd3ba296b1	0.10467512803969715
70	0x3f0b50862d5ecdf7	5.2098364604981984e-05
71	0xbf61735a9c8a81c8	-0.0021302003627427825
72	0x3fe2e367bce9b98a	0.5902594270426544
73	0xbfd82b7f43766466	-0.37765485370761664
74	0x3fd3e1d239b100ba	0.31065803178718066
75	0xbf3f4abdde53cb3c	-0.00047747741184804896
76	0x3fc46cd12fa4819a	0.15957083536433175
77	0x3fd98f924f67d7c8	0.3993879104085605
78	0x3ec7572bc12990a8	2.782405780709237e-06
79	0xbf1777789945f9c6	-8.951829506107572e-05
80	0x3fe7bbf528594780	0.7416940486966581
81	0x3f43b63be7ac82b5	0.0006015579705015069
82	0xbfbe1d49f701ae61	-0.1176344135325791
83	0x3f3f97f8b3907ed2	0.0004820806676111125
84	0xbf67ca4d873e6e9d	-0.0029040827011622265
85	0x3f06b6c3df24443f	4.332337620572461e-05
86	0xbed0377a74d5a65f	-3.866365500962415e-06
87	0xbfdb616132c84a92	-0.42781858405320705
88	0xbf991ebd8b119373	-0.024531327832295568
89	0x3f50300d89df5fd3	0.0009880192005677815
90	0xbf94b68276765656	-0.020227468948709713
91	0x3fc006eaf711ff8e	0.1252111154935815
92	0xbfbfd79ea96760b4	-0.1243838466247123
93	0x3fc098be3df458f1	0.12966135048981856
94	0xbf87c1d546a2d3a4	-0.011600176065579344
95	0xbf28437da9634f12	-0.00018511685329391424
96	0xbf9033ad31df665c	-0.01582213036440404
97	0x3f88c2c7f28f8cc6	0.012090265359751117
98	0x3fbc1d337eef0e13	0.10982057427377638
99	0x3fab3a279f73ee57	0.05317806073614111
100	0x3fd1d2d181fd42ae	0.27849233335750057
101	0x3fc035612a6f2912	0.12662901470168514
102	0xbf0f170adb026192	-5.929948690769621e-05
